…
E0310 22:23:49.490437  3654 upgrade_proto.cpp:604] Note that future Caffe releases will not support V0NetParameter; use ./build/tools/upgrade_net_proto_text for prototxt and ./build/tools/upgrade_net_proto_binary for model weights upgrade this and any other net protos to the new format.
I0310 22:23:49.490711  3654 net.cpp:39] Initializing net from parameters: 
name: "deepFashion"
layers {
  top: "data"
  top: "label"
  name: "data"
  type: DATA
  data_param {
    source: "/data/deepfashion/label_jabong/label_jabong_TRAIN"
    batch_size: 32
  }
  transform_param {
    mirror: true
    crop_size: 227
    mean_file: "../../../data/ilsvrc12/imagenet_mean.binaryproto"
  }
}
layers {
  bottom: "data"
  top: "conv1"
  name: "conv1"
  type: CONVOLUTION
  blobs_lr: 1
  blobs_lr: 2
  weight_decay: 1
  weight_decay: 0
  convolution_param {
    num_output: 96
    kernel_size: 11
    stride: 4
    weight_filler {
      type: "gaussian"
      std: 0.01
    }
    bias_filler {
      type: "constant"
      value: 0
    }
  }
}
layers {
  bottom: "conv1"
  top: "conv1"
  name: "relu1"
  type: RELU
}
layers {
  bottom: "conv1"
  top: "pool1"
  name: "pool1"
  type: POOLING
  pooling_param {
    pool: MAX
    kernel_size: 3
    stride: 2
  }
}
layers {
  bottom: "pool1"
  top: "norm1"
  name: "norm1"
  type: LRN
  lrn_param {
    local_size: 5
    alpha: 0.0001
    beta: 0.75
  }
}
layers {
  bottom: "norm1"
  top: "conv2"
  name: "conv2"
  type: CONVOLUTION
  blobs_lr: 1
  blobs_lr: 2
  weight_decay: 1
  weight_decay: 0
  convolution_param {
    num_output: 256
    pad: 2
    kernel_size: 5
    group: 2
    weight_filler {
      type: "gaussian"
      std: 0.01
    }
    bias_filler {
      type: "constant"
      value: 1
    }
  }
}
layers {
  bottom: "conv2"
  top: "conv2"
  name: "relu2"
  type: RELU
}
layers {
  bottom: "conv2"
  top: "pool2"
  name: "pool2"
  type: POOLING
  pooling_param {
    pool: MAX
    kernel_size: 3
    stride: 2
  }
}
layers {
  bottom: "pool2"
  top: "norm2"
  name: "norm2"
  type: LRN
  lrn_param {
    local_size: 5
    alpha: 0.0001
    beta: 0.75
  }
}
layers {
  bottom: "norm2"
  top: "conv3"
  name: "conv3"
  type: CONVOLUTION
  blobs_lr: 1
  blobs_lr: 2
  weight_decay: 1
  weight_decay: 0
  convolution_param {
    num_output: 384
    pad: 1
    kernel_size: 3
    weight_filler {
      type: "gaussian"
      std: 0.01
    }
    bias_filler {
      type: "constant"
      value: 0
    }
  }
}
layers {
  bottom: "conv3"
  top: "conv3"
  name: "relu3"
  type: RELU
}
layers {
  bottom: "conv3"
  top: "conv4"
  name: "conv4"
  type: CONVOLUTION
  blobs_lr: 1
  blobs_lr: 2
  weight_decay: 1
  weight_decay: 0
  convolution_param {
    num_output: 384
    pad: 1
    kernel_size: 3
    group: 2
    weight_filler {
      type: "gaussian"
      std: 0.01
    }
    bias_filler {
      type: "constant"
      value: 1
    }
  }
}
layers {
  bottom: "conv4"
  top: "conv4"
  name: "relu4"
  type: RELU
}
layers {
  bottom: "conv4"
  top: "conv5"
  name: "conv5"
  type: CONVOLUTION
  blobs_lr: 1
  blobs_lr: 2
  weight_decay: 1
  weight_decay: 0
  convolution_param {
    num_output: 256
    pad: 1
    kernel_size: 3
    group: 2
    weight_filler {
      type: "gaussian"
      std: 0.01
    }
    bias_filler {
      type: "constant"
      value: 1
    }
  }
}
layers {
  bottom: "conv5"
  top: "conv5"
  name: "relu5"
  type: RELU
}
layers {
  bottom: "conv5"
  top: "pool5"
  name: "pool5"
  type: POOLING
  pooling_param {
    pool: MAX
    kernel_size: 3
    stride: 2
  }
}
layers {
  bottom: "pool5"
  top: "fc6"
  name: "fc6"
  type: INNER_PRODUCT
  blobs_lr: 1
  blobs_lr: 2
  weight_decay: 1
  weight_decay: 0
  inner_product_param {
    num_output: 4096
    weight_filler {
      type: "gaussian"
      std: 0.005
    }
    bias_filler {
      type: "constant"
      value: 1
    }
  }
}
layers {
  bottom: "fc6"
  top: "fc6"
  name: "relu6"
  type: RELU
}
layers {
  bottom: "fc6"
  top: "fc6"
  name: "drop6"
  type: DROPOUT
  dropout_param {
    dropout_ratio: 0.5
  }
}
layers {
  bottom: "fc6"
  top: "fc7"
  name: "fc7"
  type: INNER_PRODUCT
  blobs_lr: 1
  blobs_lr: 2
  weight_decay: 1
  weight_decay: 0
  inner_product_param {
    num_output: 4096
    weight_filler {
      type: "gaussian"
      std: 0.005
    }
    bias_filler {
      type: "constant"
      value: 1
    }
  }
}
layers {
  bottom: "fc7"
  top: "fc7"
  name: "relu7"
  type: RELU
}
layers {
  bottom: "fc7"
  top: "fc7"
  name: "drop7"
  type: DROPOUT
  dropout_param {
    dropout_ratio: 0.5
  }
}
layers {
  bottom: "fc7"
  top: "fc8_kevin"
  name: "fc8_kevin"
  type: INNER_PRODUCT
  blobs_lr: 1
  blobs_lr: 2
  weight_decay: 1
  weight_decay: 0
  inner_product_param {
    num_output: 48
    weight_filler {
      type: "gaussian"
      std: 0.005
    }
    bias_filler {
      type: "constant"
      value: 1
    }
  }
}
layers {
  bottom: "fc8_kevin"
  top: "fc8_kevin_encode"
  name: "fc8_kevin_encode"
  type: SIGMOID
}
layers {
  bottom: "fc8_kevin_encode"
  top: "fc8_pascal"
  name: "fc8_pascal"
  type: INNER_PRODUCT
  blobs_lr: 10
  blobs_lr: 20
  weight_decay: 1
  weight_decay: 0
  inner_product_param {
    num_output: 10
    weight_filler {
      type: "gaussian"
      std: 0.01
    }
    bias_filler {
      type: "constant"
      value: 0
    }
  }
}
layers {
  bottom: "fc8_pascal"
  bottom: "label"
  name: "loss"
  type: SOFTMAX_LOSS
}
state {
  phase: TRAIN
}
I0310 22:23:49.490872  3654 net.cpp:67] Creating Layer data
I0310 22:23:49.490888  3654 net.cpp:356] data -> data
I0310 22:23:49.490907  3654 net.cpp:356] data -> label
I0310 22:23:49.490932  3654 net.cpp:96] Setting up data
I0310 22:23:49.490972  3654 data_layer.cpp:45] Opening leveldb /data/deepfashion/label_jabong/label_jabong_TRAIN
I0310 22:23:53.187024  3654 data_layer.cpp:128] output data size: 32,3,227,227
I0310 22:23:53.187062  3654 base_data_layer.cpp:36] Loading mean file from../../../data/ilsvrc12/imagenet_mean.binaryproto
I0310 22:23:53.190878  3654 net.cpp:103] Top shape: 32 3 227 227 (4946784)
I0310 22:23:53.190912  3654 net.cpp:103] Top shape: 32 1 1 1 (32)
I0310 22:23:53.190955  3654 net.cpp:67] Creating Layer conv1
I0310 22:23:53.190970  3654 net.cpp:394] conv1 <- data
I0310 22:23:53.190984  3654 net.cpp:356] conv1 -> conv1
I0310 22:23:53.191000  3654 net.cpp:96] Setting up conv1
I0310 22:23:53.376457  3654 net.cpp:103] Top shape: 32 96 55 55 (9292800)
I0310 22:23:53.376523  3654 net.cpp:67] Creating Layer relu1
I0310 22:23:53.376529  3654 net.cpp:394] relu1 <- conv1
I0310 22:23:53.376551  3654 net.cpp:345] relu1 -> conv1 (in-place)
I0310 22:23:53.376564  3654 net.cpp:96] Setting up relu1
I0310 22:23:53.376575  3654 net.cpp:103] Top shape: 32 96 55 55 (9292800)
I0310 22:23:53.376585  3654 net.cpp:67] Creating Layer pool1
I0310 22:23:53.376619  3654 net.cpp:394] pool1 <- conv1
I0310 22:23:53.376626  3654 net.cpp:356] pool1 -> pool1
I0310 22:23:53.376634  3654 net.cpp:96] Setting up pool1
I0310 22:23:53.376657  3654 net.cpp:103] Top shape: 32 96 27 27 (2239488)
I0310 22:23:53.376667  3654 net.cpp:67] Creating Layer norm1
I0310 22:23:53.376672  3654 net.cpp:394] norm1 <- pool1
I0310 22:23:53.376677  3654 net.cpp:356] norm1 -> norm1
I0310 22:23:53.376687  3654 net.cpp:96] Setting up norm1
I0310 22:23:53.376695  3654 net.cpp:103] Top shape: 32 96 27 27 (2239488)
I0310 22:23:53.376708  3654 net.cpp:67] Creating Layer conv2
I0310 22:23:53.376711  3654 net.cpp:394] conv2 <- norm1
I0310 22:23:53.376718  3654 net.cpp:356] conv2 -> conv2
I0310 22:23:53.376725  3654 net.cpp:96] Setting up conv2
I0310 22:23:53.386566  3654 net.cpp:103] Top shape: 32 256 27 27 (5971968)
I0310 22:23:53.386591  3654 net.cpp:67] Creating Layer relu2
I0310 22:23:53.386597  3654 net.cpp:394] relu2 <- conv2
I0310 22:23:53.386603  3654 net.cpp:345] relu2 -> conv2 (in-place)
I0310 22:23:53.386610  3654 net.cpp:96] Setting up relu2
I0310 22:23:53.386616  3654 net.cpp:103] Top shape: 32 256 27 27 (5971968)
I0310 22:23:53.386623  3654 net.cpp:67] Creating Layer pool2
I0310 22:23:53.386628  3654 net.cpp:394] pool2 <- conv2
I0310 22:23:53.386634  3654 net.cpp:356] pool2 -> pool2
I0310 22:23:53.386641  3654 net.cpp:96] Setting up pool2
I0310 22:23:53.386647  3654 net.cpp:103] Top shape: 32 256 13 13 (1384448)
I0310 22:23:53.386656  3654 net.cpp:67] Creating Layer norm2
I0310 22:23:53.386659  3654 net.cpp:394] norm2 <- pool2
I0310 22:23:53.386665  3654 net.cpp:356] norm2 -> norm2
I0310 22:23:53.386670  3654 net.cpp:96] Setting up norm2
I0310 22:23:53.386675  3654 net.cpp:103] Top shape: 32 256 13 13 (1384448)
I0310 22:23:53.386682  3654 net.cpp:67] Creating Layer conv3
I0310 22:23:53.386687  3654 net.cpp:394] conv3 <- norm2
I0310 22:23:53.386693  3654 net.cpp:356] conv3 -> conv3
I0310 22:23:53.386700  3654 net.cpp:96] Setting up conv3
I0310 22:23:53.414903  3654 net.cpp:103] Top shape: 32 384 13 13 (2076672)
I0310 22:23:53.414948  3654 net.cpp:67] Creating Layer relu3
I0310 22:23:53.414955  3654 net.cpp:394] relu3 <- conv3
I0310 22:23:53.414963  3654 net.cpp:345] relu3 -> conv3 (in-place)
I0310 22:23:53.414970  3654 net.cpp:96] Setting up relu3
I0310 22:23:53.414978  3654 net.cpp:103] Top shape: 32 384 13 13 (2076672)
I0310 22:23:53.414988  3654 net.cpp:67] Creating Layer conv4
I0310 22:23:53.414991  3654 net.cpp:394] conv4 <- conv3
I0310 22:23:53.414999  3654 net.cpp:356] conv4 -> conv4
I0310 22:23:53.415005  3654 net.cpp:96] Setting up conv4
I0310 22:23:53.436275  3654 net.cpp:103] Top shape: 32 384 13 13 (2076672)
I0310 22:23:53.436300  3654 net.cpp:67] Creating Layer relu4
I0310 22:23:53.436306  3654 net.cpp:394] relu4 <- conv4
I0310 22:23:53.436312  3654 net.cpp:345] relu4 -> conv4 (in-place)
I0310 22:23:53.436319  3654 net.cpp:96] Setting up relu4
I0310 22:23:53.436326  3654 net.cpp:103] Top shape: 32 384 13 13 (2076672)
I0310 22:23:53.436334  3654 net.cpp:67] Creating Layer conv5
I0310 22:23:53.436338  3654 net.cpp:394] conv5 <- conv4
I0310 22:23:53.436344  3654 net.cpp:356] conv5 -> conv5
I0310 22:23:53.436352  3654 net.cpp:96] Setting up conv5
I0310 22:23:53.450484  3654 net.cpp:103] Top shape: 32 256 13 13 (1384448)
I0310 22:23:53.450510  3654 net.cpp:67] Creating Layer relu5
I0310 22:23:53.450515  3654 net.cpp:394] relu5 <- conv5
I0310 22:23:53.450521  3654 net.cpp:345] relu5 -> conv5 (in-place)
I0310 22:23:53.450528  3654 net.cpp:96] Setting up relu5
I0310 22:23:53.450534  3654 net.cpp:103] Top shape: 32 256 13 13 (1384448)
I0310 22:23:53.450541  3654 net.cpp:67] Creating Layer pool5
I0310 22:23:53.450546  3654 net.cpp:394] pool5 <- conv5
I0310 22:23:53.450551  3654 net.cpp:356] pool5 -> pool5
I0310 22:23:53.450557  3654 net.cpp:96] Setting up pool5
I0310 22:23:53.450567  3654 net.cpp:103] Top shape: 32 256 6 6 (294912)
I0310 22:23:53.450577  3654 net.cpp:67] Creating Layer fc6
I0310 22:23:53.450582  3654 net.cpp:394] fc6 <- pool5
I0310 22:23:53.450588  3654 net.cpp:356] fc6 -> fc6
I0310 22:23:53.450615  3654 net.cpp:96] Setting up fc6
I0310 22:23:54.668267  3654 net.cpp:103] Top shape: 32 4096 1 1 (131072)
I0310 22:23:54.668321  3654 net.cpp:67] Creating Layer relu6
I0310 22:23:54.668329  3654 net.cpp:394] relu6 <- fc6
I0310 22:23:54.668337  3654 net.cpp:345] relu6 -> fc6 (in-place)
I0310 22:23:54.668346  3654 net.cpp:96] Setting up relu6
I0310 22:23:54.668368  3654 net.cpp:103] Top shape: 32 4096 1 1 (131072)
I0310 22:23:54.668375  3654 net.cpp:67] Creating Layer drop6
I0310 22:23:54.668380  3654 net.cpp:394] drop6 <- fc6
I0310 22:23:54.668385  3654 net.cpp:345] drop6 -> fc6 (in-place)
I0310 22:23:54.668391  3654 net.cpp:96] Setting up drop6
I0310 22:23:54.668403  3654 net.cpp:103] Top shape: 32 4096 1 1 (131072)
I0310 22:23:54.668412  3654 net.cpp:67] Creating Layer fc7
I0310 22:23:54.668416  3654 net.cpp:394] fc7 <- fc6
I0310 22:23:54.668422  3654 net.cpp:356] fc7 -> fc7
I0310 22:23:54.668429  3654 net.cpp:96] Setting up fc7
I0310 22:23:55.200834  3654 net.cpp:103] Top shape: 32 4096 1 1 (131072)
I0310 22:23:55.200883  3654 net.cpp:67] Creating Layer relu7
I0310 22:23:55.200891  3654 net.cpp:394] relu7 <- fc7
I0310 22:23:55.200901  3654 net.cpp:345] relu7 -> fc7 (in-place)
I0310 22:23:55.200909  3654 net.cpp:96] Setting up relu7
I0310 22:23:55.200929  3654 net.cpp:103] Top shape: 32 4096 1 1 (131072)
I0310 22:23:55.200937  3654 net.cpp:67] Creating Layer drop7
I0310 22:23:55.200942  3654 net.cpp:394] drop7 <- fc7
I0310 22:23:55.200947  3654 net.cpp:345] drop7 -> fc7 (in-place)
I0310 22:23:55.200953  3654 net.cpp:96] Setting up drop7
I0310 22:23:55.200958  3654 net.cpp:103] Top shape: 32 4096 1 1 (131072)
I0310 22:23:55.200965  3654 net.cpp:67] Creating Layer fc8_kevin
I0310 22:23:55.200969  3654 net.cpp:394] fc8_kevin <- fc7
I0310 22:23:55.200976  3654 net.cpp:356] fc8_kevin -> fc8_kevin
I0310 22:23:55.200984  3654 net.cpp:96] Setting up fc8_kevin
I0310 22:23:55.207222  3654 net.cpp:103] Top shape: 32 48 1 1 (1536)
I0310 22:23:55.207243  3654 net.cpp:67] Creating Layer fc8_kevin_encode
I0310 22:23:55.207249  3654 net.cpp:394] fc8_kevin_encode <- fc8_kevin
I0310 22:23:55.207255  3654 net.cpp:356] fc8_kevin_encode -> fc8_kevin_encode
I0310 22:23:55.207262  3654 net.cpp:96] Setting up fc8_kevin_encode
I0310 22:23:55.207275  3654 net.cpp:103] Top shape: 32 48 1 1 (1536)
I0310 22:23:55.207283  3654 net.cpp:67] Creating Layer fc8_pascal
I0310 22:23:55.207288  3654 net.cpp:394] fc8_pascal <- fc8_kevin_encode
I0310 22:23:55.207295  3654 net.cpp:356] fc8_pascal -> fc8_pascal
I0310 22:23:55.207304  3654 net.cpp:96] Setting up fc8_pascal
I0310 22:23:55.207329  3654 net.cpp:103] Top shape: 32 10 1 1 (320)
I0310 22:23:55.207342  3654 net.cpp:67] Creating Layer loss
I0310 22:23:55.207353  3654 net.cpp:394] loss <- fc8_pascal
I0310 22:23:55.207358  3654 net.cpp:394] loss <- label
I0310 22:23:55.207365  3654 net.cpp:356] loss -> (automatic)
I0310 22:23:55.207370  3654 net.cpp:96] Setting up loss
I0310 22:23:55.207382  3654 net.cpp:103] Top shape: 1 1 1 1 (1)
I0310 22:23:55.207387  3654 net.cpp:109]     with loss weight 1
I0310 22:23:55.207424  3654 net.cpp:170] loss needs backward computation.
I0310 22:23:55.207429  3654 net.cpp:170] fc8_pascal needs backward computation.
I0310 22:23:55.207433  3654 net.cpp:170] fc8_kevin_encode needs backward computation.
I0310 22:23:55.207437  3654 net.cpp:170] fc8_kevin needs backward computation.
I0310 22:23:55.207442  3654 net.cpp:170] drop7 needs backward computation.
…
E0310 22:23:55.208498  3654 upgrade_proto.cpp:604] Note that future Caffe releases will not support V0NetParameter; use ./build/tools/upgrade_net_proto_text for prototxt and ./build/tools/upgrade_net_proto_binary for model weights upgrade this and any other net protos to the new format.
I0310 22:23:55.208534  3654 solver.cpp:151] Creating test net (#0) specified by test_net file: test_fashion_48.prototxt
I0310 22:23:55.208778  3654 net.cpp:39] Initializing net from parameters: 
name: "deepFashion"
layers {
  top: "data"
  top: "label"
  name: "data"
  type: DATA
  data_param {
    source: "/data/deepfashion/label_jabong/label_jabong_test"
    batch_size: 32
  }
  transform_param {
    mirror: true
    crop_size: 227
    mean_file: "../../../data/ilsvrc12/imagenet_mean.binaryproto"
  }
}
layers {
  bottom: "data"
  top: "conv1"
  name: "conv1"
  type: CONVOLUTION
  blobs_lr: 1
  blobs_lr: 2
  weight_decay: 1
  weight_decay: 0
  convolution_param {
    num_output: 96
    kernel_size: 11
    stride: 4
    weight_filler {
      type: "gaussian"
      std: 0.01
    }
    bias_filler {
      type: "constant"
      value: 0
    }
  }
}
layers {
  bottom: "conv1"
  top: "conv1"
  name: "relu1"
  type: RELU
}
layers {
  bottom: "conv1"
  top: "pool1"
  name: "pool1"
  type: POOLING
  pooling_param {
    pool: MAX
    kernel_size: 3
    stride: 2
  }
}
layers {
  bottom: "pool1"
  top: "norm1"
  name: "norm1"
  type: LRN
  lrn_param {
    local_size: 5
    alpha: 0.0001
    beta: 0.75
  }
}
layers {
  bottom: "norm1"
  top: "conv2"
  name: "conv2"
  type: CONVOLUTION
  blobs_lr: 1
  blobs_lr: 2
  weight_decay: 1
  weight_decay: 0
  convolution_param {
    num_output: 256
    pad: 2
    kernel_size: 5
    group: 2
    weight_filler {
      type: "gaussian"
      std: 0.01
    }
    bias_filler {
      type: "constant"
      value: 1
    }
  }
}
layers {
  bottom: "conv2"
  top: "conv2"
  name: "relu2"
  type: RELU
}
layers {
  bottom: "conv2"
  top: "pool2"
  name: "pool2"
  type: POOLING
  pooling_param {
    pool: MAX
    kernel_size: 3
    stride: 2
  }
}
layers {
  bottom: "pool2"
  top: "norm2"
  name: "norm2"
  type: LRN
  lrn_param {
    local_size: 5
    alpha: 0.0001
    beta: 0.75
  }
}
layers {
  bottom: "norm2"
  top: "conv3"
  name: "conv3"
  type: CONVOLUTION
  blobs_lr: 1
  blobs_lr: 2
  weight_decay: 1
  weight_decay: 0
  convolution_param {
    num_output: 384
    pad: 1
    kernel_size: 3
    weight_filler {
      type: "gaussian"
      std: 0.01
    }
    bias_filler {
      type: "constant"
      value: 0
    }
  }
}
layers {
  bottom: "conv3"
  top: "conv3"
  name: "relu3"
  type: RELU
}
layers {
  bottom: "conv3"
  top: "conv4"
  name: "conv4"
  type: CONVOLUTION
  blobs_lr: 1
  blobs_lr: 2
  weight_decay: 1
  weight_decay: 0
  convolution_param {
    num_output: 384
    pad: 1
    kernel_size: 3
    group: 2
    weight_filler {
      type: "gaussian"
      std: 0.01
    }
    bias_filler {
      type: "constant"
      value: 1
    }
  }
}
layers {
  bottom: "conv4"
  top: "conv4"
  name: "relu4"
  type: RELU
}
layers {
  bottom: "conv4"
  top: "conv5"
  name: "conv5"
  type: CONVOLUTION
  blobs_lr: 1
  blobs_lr: 2
  weight_decay: 1
  weight_decay: 0
  convolution_param {
    num_output: 256
    pad: 1
    kernel_size: 3
    group: 2
    weight_filler {
      type: "gaussian"
      std: 0.01
    }
    bias_filler {
      type: "constant"
      value: 1
    }
  }
}
layers {
  bottom: "conv5"
  top: "conv5"
  name: "relu5"
  type: RELU
}
layers {
  bottom: "conv5"
  top: "pool5"
  name: "pool5"
  type: POOLING
  pooling_param {
    pool: MAX
    kernel_size: 3
    stride: 2
  }
}
layers {
  bottom: "pool5"
  top: "fc6"
  name: "fc6"
  type: INNER_PRODUCT
  blobs_lr: 1
  blobs_lr: 2
  weight_decay: 1
  weight_decay: 0
  inner_product_param {
    num_output: 4096
    weight_filler {
      type: "gaussian"
      std: 0.005
    }
    bias_filler {
      type: "constant"
      value: 1
    }
  }
}
layers {
  bottom: "fc6"
  top: "fc6"
  name: "relu6"
  type: RELU
}
layers {
  bottom: "fc6"
  top: "fc6"
  name: "drop6"
  type: DROPOUT
  dropout_param {
    dropout_ratio: 0.5
  }
}
layers {
  bottom: "fc6"
  top: "fc7"
  name: "fc7"
  type: INNER_PRODUCT
  blobs_lr: 1
  blobs_lr: 2
  weight_decay: 1
  weight_decay: 0
  inner_product_param {
    num_output: 4096
    weight_filler {
      type: "gaussian"
      std: 0.005
    }
    bias_filler {
      type: "constant"
      value: 1
    }
  }
}
layers {
  bottom: "fc7"
  top: "fc7"
  name: "relu7"
  type: RELU
}
layers {
  bottom: "fc7"
  top: "fc7"
  name: "drop7"
  type: DROPOUT
  dropout_param {
    dropout_ratio: 0.5
  }
}
layers {
  bottom: "fc7"
  top: "fc8_kevin"
  name: "fc8_kevin"
  type: INNER_PRODUCT
  blobs_lr: 1
  blobs_lr: 2
  weight_decay: 1
  weight_decay: 0
  inner_product_param {
    num_output: 48
    weight_filler {
      type: "gaussian"
      std: 0.005
    }
    bias_filler {
      type: "constant"
      value: 1
    }
  }
}
layers {
  bottom: "fc8_kevin"
  top: "fc8_kevin_encode"
  name: "fc8_kevin_encode"
  type: SIGMOID
}
layers {
  bottom: "fc8_kevin_encode"
  top: "fc8_pascal"
  name: "fc8_pascal"
  type: INNER_PRODUCT
  blobs_lr: 10
  blobs_lr: 20
  weight_decay: 1
  weight_decay: 0
  inner_product_param {
    num_output: 10
    weight_filler {
      type: "gaussian"
      std: 0.01
    }
    bias_filler {
      type: "constant"
      value: 0
    }
  }
}
layers {
  bottom: "fc8_pascal"
  top: "prob"
  name: "prob"
  type: SOFTMAX
}
layers {
  bottom: "prob"
  bottom: "label"
  top: "accuracy"
  name: "accuracy"
  type: ACCURACY
}
state {
  phase: TEST
}
I0310 22:23:55.208883  3654 net.cpp:67] Creating Layer data
I0310 22:23:55.208891  3654 net.cpp:356] data -> data
I0310 22:23:55.208899  3654 net.cpp:356] data -> label
I0310 22:23:55.208906  3654 net.cpp:96] Setting up data
I0310 22:23:55.208911  3654 data_layer.cpp:45] Opening leveldb /data/deepfashion/label_jabong/label_jabong_test
I0310 22:23:58.559473  3654 data_layer.cpp:128] output data size: 32,3,227,227
I0310 22:23:58.559510  3654 base_data_layer.cpp:36] Loading mean file from../../../data/ilsvrc12/imagenet_mean.binaryproto
I0310 22:23:58.563017  3654 net.cpp:103] Top shape: 32 3 227 227 (4946784)
I0310 22:23:58.563055  3654 net.cpp:103] Top shape: 32 1 1 1 (32)
I0310 22:23:58.563074  3654 net.cpp:67] Creating Layer conv1
I0310 22:23:58.563081  3654 net.cpp:394] conv1 <- data
I0310 22:23:58.563089  3654 net.cpp:356] conv1 -> conv1
I0310 22:23:58.563105  3654 net.cpp:96] Setting up conv1
I0310 22:23:58.564354  3654 net.cpp:103] Top shape: 32 96 55 55 (9292800)
I0310 22:23:58.564383  3654 net.cpp:67] Creating Layer relu1
I0310 22:23:58.564389  3654 net.cpp:394] relu1 <- conv1
I0310 22:23:58.564396  3654 net.cpp:345] relu1 -> conv1 (in-place)
I0310 22:23:58.564407  3654 net.cpp:96] Setting up relu1
I0310 22:23:58.564420  3654 net.cpp:103] Top shape: 32 96 55 55 (9292800)
I0310 22:23:58.564435  3654 net.cpp:67] Creating Layer pool1
I0310 22:23:58.564443  3654 net.cpp:394] pool1 <- conv1
I0310 22:23:58.564455  3654 net.cpp:356] pool1 -> pool1
I0310 22:23:58.564465  3654 net.cpp:96] Setting up pool1
I0310 22:23:58.564486  3654 net.cpp:103] Top shape: 32 96 27 27 (2239488)
I0310 22:23:58.564501  3654 net.cpp:67] Creating Layer norm1
I0310 22:23:58.564509  3654 net.cpp:394] norm1 <- pool1
I0310 22:23:58.564519  3654 net.cpp:356] norm1 -> norm1
I0310 22:23:58.564532  3654 net.cpp:96] Setting up norm1
I0310 22:23:58.564545  3654 net.cpp:103] Top shape: 32 96 27 27 (2239488)
I0310 22:23:58.564560  3654 net.cpp:67] Creating Layer conv2
I0310 22:23:58.564596  3654 net.cpp:394] conv2 <- norm1
I0310 22:23:58.564610  3654 net.cpp:356] conv2 -> conv2
I0310 22:23:58.564622  3654 net.cpp:96] Setting up conv2
I0310 22:23:58.574687  3654 net.cpp:103] Top shape: 32 256 27 27 (5971968)
I0310 22:23:58.574723  3654 net.cpp:67] Creating Layer relu2
I0310 22:23:58.574729  3654 net.cpp:394] relu2 <- conv2
I0310 22:23:58.574736  3654 net.cpp:345] relu2 -> conv2 (in-place)
I0310 22:23:58.574745  3654 net.cpp:96] Setting up relu2
I0310 22:23:58.574756  3654 net.cpp:103] Top shape: 32 256 27 27 (5971968)
I0310 22:23:58.574769  3654 net.cpp:67] Creating Layer pool2
I0310 22:23:58.574775  3654 net.cpp:394] pool2 <- conv2
I0310 22:23:58.574785  3654 net.cpp:356] pool2 -> pool2
I0310 22:23:58.574796  3654 net.cpp:96] Setting up pool2
I0310 22:23:58.574808  3654 net.cpp:103] Top shape: 32 256 13 13 (1384448)
I0310 22:23:58.574822  3654 net.cpp:67] Creating Layer norm2
I0310 22:23:58.574833  3654 net.cpp:394] norm2 <- pool2
I0310 22:23:58.574844  3654 net.cpp:356] norm2 -> norm2
I0310 22:23:58.574854  3654 net.cpp:96] Setting up norm2
I0310 22:23:58.574863  3654 net.cpp:103] Top shape: 32 256 13 13 (1384448)
I0310 22:23:58.574877  3654 net.cpp:67] Creating Layer conv3
I0310 22:23:58.574884  3654 net.cpp:394] conv3 <- norm2
I0310 22:23:58.574897  3654 net.cpp:356] conv3 -> conv3
I0310 22:23:58.574918  3654 net.cpp:96] Setting up conv3
I0310 22:23:58.603283  3654 net.cpp:103] Top shape: 32 384 13 13 (2076672)
I0310 22:23:58.603332  3654 net.cpp:67] Creating Layer relu3
I0310 22:23:58.603338  3654 net.cpp:394] relu3 <- conv3
I0310 22:23:58.603350  3654 net.cpp:345] relu3 -> conv3 (in-place)
I0310 22:23:58.603363  3654 net.cpp:96] Setting up relu3
I0310 22:23:58.603375  3654 net.cpp:103] Top shape: 32 384 13 13 (2076672)
I0310 22:23:58.603392  3654 net.cpp:67] Creating Layer conv4
I0310 22:23:58.603401  3654 net.cpp:394] conv4 <- conv3
I0310 22:23:58.603412  3654 net.cpp:356] conv4 -> conv4
I0310 22:23:58.603423  3654 net.cpp:96] Setting up conv4
I0310 22:23:58.624574  3654 net.cpp:103] Top shape: 32 384 13 13 (2076672)
I0310 22:23:58.624598  3654 net.cpp:67] Creating Layer relu4
I0310 22:23:58.624603  3654 net.cpp:394] relu4 <- conv4
I0310 22:23:58.624614  3654 net.cpp:345] relu4 -> conv4 (in-place)
I0310 22:23:58.624625  3654 net.cpp:96] Setting up relu4
I0310 22:23:58.624639  3654 net.cpp:103] Top shape: 32 384 13 13 (2076672)
I0310 22:23:58.624665  3654 net.cpp:67] Creating Layer conv5
I0310 22:23:58.624673  3654 net.cpp:394] conv5 <- conv4
I0310 22:23:58.624685  3654 net.cpp:356] conv5 -> conv5
I0310 22:23:58.624704  3654 net.cpp:96] Setting up conv5
I0310 22:23:58.638994  3654 net.cpp:103] Top shape: 32 256 13 13 (1384448)
I0310 22:23:58.639024  3654 net.cpp:67] Creating Layer relu5
I0310 22:23:58.639032  3654 net.cpp:394] relu5 <- conv5
I0310 22:23:58.639044  3654 net.cpp:345] relu5 -> conv5 (in-place)
I0310 22:23:58.639058  3654 net.cpp:96] Setting up relu5
I0310 22:23:58.639070  3654 net.cpp:103] Top shape: 32 256 13 13 (1384448)
I0310 22:23:58.639091  3654 net.cpp:67] Creating Layer pool5
I0310 22:23:58.639099  3654 net.cpp:394] pool5 <- conv5
I0310 22:23:58.639112  3654 net.cpp:356] pool5 -> pool5
I0310 22:23:58.639132  3654 net.cpp:96] Setting up pool5
I0310 22:23:58.639148  3654 net.cpp:103] Top shape: 32 256 6 6 (294912)
I0310 22:23:58.639174  3654 net.cpp:67] Creating Layer fc6
I0310 22:23:58.639197  3654 net.cpp:394] fc6 <- pool5
I0310 22:23:58.639210  3654 net.cpp:356] fc6 -> fc6
I0310 22:23:58.639222  3654 net.cpp:96] Setting up fc6
I0310 22:23:59.857259  3654 net.cpp:103] Top shape: 32 4096 1 1 (131072)
I0310 22:23:59.857312  3654 net.cpp:67] Creating Layer relu6
I0310 22:23:59.857321  3654 net.cpp:394] relu6 <- fc6
I0310 22:23:59.857331  3654 net.cpp:345] relu6 -> fc6 (in-place)
I0310 22:23:59.857344  3654 net.cpp:96] Setting up relu6
I0310 22:23:59.857372  3654 net.cpp:103] Top shape: 32 4096 1 1 (131072)
I0310 22:23:59.857385  3654 net.cpp:67] Creating Layer drop6
I0310 22:23:59.857393  3654 net.cpp:394] drop6 <- fc6
I0310 22:23:59.857403  3654 net.cpp:345] drop6 -> fc6 (in-place)
I0310 22:23:59.857415  3654 net.cpp:96] Setting up drop6
I0310 22:23:59.857424  3654 net.cpp:103] Top shape: 32 4096 1 1 (131072)
I0310 22:23:59.857439  3654 net.cpp:67] Creating Layer fc7
I0310 22:23:59.857461  3654 net.cpp:394] fc7 <- fc6
I0310 22:23:59.857475  3654 net.cpp:356] fc7 -> fc7
I0310 22:23:59.857493  3654 net.cpp:96] Setting up fc7
I0310 22:24:00.393745  3654 net.cpp:103] Top shape: 32 4096 1 1 (131072)
I0310 22:24:00.393800  3654 net.cpp:67] Creating Layer relu7
I0310 22:24:00.393806  3654 net.cpp:394] relu7 <- fc7
I0310 22:24:00.393816  3654 net.cpp:345] relu7 -> fc7 (in-place)
I0310 22:24:00.393826  3654 net.cpp:96] Setting up relu7
I0310 22:24:00.393851  3654 net.cpp:103] Top shape: 32 4096 1 1 (131072)
I0310 22:24:00.393863  3654 net.cpp:67] Creating Layer drop7
I0310 22:24:00.393872  3654 net.cpp:394] drop7 <- fc7
I0310 22:24:00.393880  3654 net.cpp:345] drop7 -> fc7 (in-place)
I0310 22:24:00.393890  3654 net.cpp:96] Setting up drop7
I0310 22:24:00.393898  3654 net.cpp:103] Top shape: 32 4096 1 1 (131072)
I0310 22:24:00.393909  3654 net.cpp:67] Creating Layer fc8_kevin
I0310 22:24:00.393916  3654 net.cpp:394] fc8_kevin <- fc7
I0310 22:24:00.393928  3654 net.cpp:356] fc8_kevin -> fc8_kevin
I0310 22:24:00.393939  3654 net.cpp:96] Setting up fc8_kevin
I0310 22:24:00.400271  3654 net.cpp:103] Top shape: 32 48 1 1 (1536)
I0310 22:24:00.400297  3654 net.cpp:67] Creating Layer fc8_kevin_encode
I0310 22:24:00.400303  3654 net.cpp:394] fc8_kevin_encode <- fc8_kevin
I0310 22:24:00.400310  3654 net.cpp:356] fc8_kevin_encode -> fc8_kevin_encode
I0310 22:24:00.400321  3654 net.cpp:96] Setting up fc8_kevin_encode
I0310 22:24:00.400334  3654 net.cpp:103] Top shape: 32 48 1 1 (1536)
I0310 22:24:00.400348  3654 net.cpp:67] Creating Layer fc8_pascal
I0310 22:24:00.400359  3654 net.cpp:394] fc8_pascal <- fc8_kevin_encode
I0310 22:24:00.400372  3654 net.cpp:356] fc8_pascal -> fc8_pascal
I0310 22:24:00.400390  3654 net.cpp:96] Setting up fc8_pascal
I0310 22:24:00.400430  3654 net.cpp:103] Top shape: 32 10 1 1 (320)
I0310 22:24:00.400463  3654 net.cpp:67] Creating Layer prob
I0310 22:24:00.400472  3654 net.cpp:394] prob <- fc8_pascal
I0310 22:24:00.400483  3654 net.cpp:356] prob -> prob
I0310 22:24:00.400509  3654 net.cpp:96] Setting up prob
I0310 22:24:00.400552  3654 net.cpp:103] Top shape: 32 10 1 1 (320)
I0310 22:24:00.400574  3654 net.cpp:67] Creating Layer accuracy
I0310 22:24:00.400591  3654 net.cpp:394] accuracy <- prob
I0310 22:24:00.400601  3654 net.cpp:394] accuracy <- label
I0310 22:24:00.400621  3654 net.cpp:356] accuracy -> accuracy
I0310 22:24:00.400635  3654 net.cpp:96] Setting up accuracy
I0310 22:24:00.400684  3654 net.cpp:103] Top shape: 1 1 1 1 (1)
I0310 22:24:00.400696  3654 net.cpp:172] accuracy does not need backward computation.
I0310 22:24:00.400706  3654 net.cpp:172] prob does not need backward computation.
I0310 22:24:00.400712  3654 net.cpp:172] fc8_pascal does not need backward computation.
I0310 22:24:00.400718  3654 net.cpp:172] fc8_kevin_encode does not need backward computation.
I0310 22:24:00.400725  3654 net.cpp:172] fc8_kevin does not need backward computation.
…
