…
I0330 17:01:20.547722  1582 net.cpp:275] The NetState phase (0) differed from the phase (1) specified by a rule in layer data
I0330 17:01:20.547754  1582 net.cpp:275] The NetState phase (0) differed from the phase (1) specified by a rule in layer accuracy
I0330 17:01:20.547942  1582 net.cpp:39] Initializing net from parameters: 
name: "deepFashion"
layers {
  top: "data"
  top: "label"
  name: "data"
  type: DATA
  data_param {
    source: "/data/deepfashion/label_jabong/label_jabong_TRAIN"
    batch_size: 32
  }
  include {
    phase: TRAIN
  }
  transform_param {
    mirror: true
    crop_size: 227
    mean_file: "../../../data/ilsvrc12/imagenet_mean.binaryproto"
  }
}
layers {
  bottom: "data"
  top: "conv1"
  name: "conv1"
  type: CONVOLUTION
  blobs_lr: 1
  blobs_lr: 2
  weight_decay: 1
  weight_decay: 0
  convolution_param {
    num_output: 96
    kernel_size: 11
    stride: 4
    weight_filler {
      type: "gaussian"
      std: 0.01
    }
    bias_filler {
      type: "constant"
      value: 0
    }
  }
}
layers {
  bottom: "conv1"
  top: "conv1"
  name: "relu1"
  type: RELU
}
layers {
  bottom: "conv1"
  top: "pool1"
  name: "pool1"
  type: POOLING
  pooling_param {
    pool: MAX
    kernel_size: 3
    stride: 2
  }
}
layers {
  bottom: "pool1"
  top: "norm1"
  name: "norm1"
  type: LRN
  lrn_param {
    local_size: 5
    alpha: 0.0001
    beta: 0.75
  }
}
layers {
  bottom: "norm1"
  top: "conv2"
  name: "conv2"
  type: CONVOLUTION
  blobs_lr: 1
  blobs_lr: 2
  weight_decay: 1
  weight_decay: 0
  convolution_param {
    num_output: 256
    pad: 2
    kernel_size: 5
    group: 2
    weight_filler {
      type: "gaussian"
      std: 0.01
    }
    bias_filler {
      type: "constant"
      value: 1
    }
  }
}
layers {
  bottom: "conv2"
  top: "conv2"
  name: "relu2"
  type: RELU
}
layers {
  bottom: "conv2"
  top: "pool2"
  name: "pool2"
  type: POOLING
  pooling_param {
    pool: MAX
    kernel_size: 3
    stride: 2
  }
}
layers {
  bottom: "pool2"
  top: "norm2"
  name: "norm2"
  type: LRN
  lrn_param {
    local_size: 5
    alpha: 0.0001
    beta: 0.75
  }
}
layers {
  bottom: "norm2"
  top: "conv3"
  name: "conv3"
  type: CONVOLUTION
  blobs_lr: 1
  blobs_lr: 2
  weight_decay: 1
  weight_decay: 0
  convolution_param {
    num_output: 384
    pad: 1
    kernel_size: 3
    weight_filler {
      type: "gaussian"
      std: 0.01
    }
    bias_filler {
      type: "constant"
      value: 0
    }
  }
}
layers {
  bottom: "conv3"
  top: "conv3"
  name: "relu3"
  type: RELU
}
layers {
  bottom: "conv3"
  top: "conv4"
  name: "conv4"
  type: CONVOLUTION
  blobs_lr: 1
  blobs_lr: 2
  weight_decay: 1
  weight_decay: 0
  convolution_param {
    num_output: 384
    pad: 1
    kernel_size: 3
    group: 2
    weight_filler {
      type: "gaussian"
      std: 0.01
    }
    bias_filler {
      type: "constant"
      value: 1
    }
  }
}
layers {
  bottom: "conv4"
  top: "conv4"
  name: "relu4"
  type: RELU
}
layers {
  bottom: "conv4"
  top: "conv5"
  name: "conv5"
  type: CONVOLUTION
  blobs_lr: 1
  blobs_lr: 2
  weight_decay: 1
  weight_decay: 0
  convolution_param {
    num_output: 256
    pad: 1
    kernel_size: 3
    group: 2
    weight_filler {
      type: "gaussian"
      std: 0.01
    }
    bias_filler {
      type: "constant"
      value: 1
    }
  }
}
layers {
  bottom: "conv5"
  top: "conv5"
  name: "relu5"
  type: RELU
}
layers {
  bottom: "conv5"
  top: "pool5"
  name: "pool5"
  type: POOLING
  pooling_param {
    pool: MAX
    kernel_size: 3
    stride: 2
  }
}
layers {
  bottom: "pool5"
  top: "fc6"
  name: "fc6"
  type: INNER_PRODUCT
  blobs_lr: 1
  blobs_lr: 2
  weight_decay: 1
  weight_decay: 0
  inner_product_param {
    num_output: 4096
    weight_filler {
      type: "gaussian"
      std: 0.005
    }
    bias_filler {
      type: "constant"
      value: 1
    }
  }
}
layers {
  bottom: "fc6"
  top: "fc6"
  name: "relu6"
  type: RELU
}
layers {
  bottom: "fc6"
  top: "fc6"
  name: "drop6"
  type: DROPOUT
  dropout_param {
    dropout_ratio: 0.5
  }
}
layers {
  bottom: "fc6"
  top: "fc7"
  name: "fc7"
  type: INNER_PRODUCT
  blobs_lr: 1
  blobs_lr: 2
  weight_decay: 1
  weight_decay: 0
  inner_product_param {
    num_output: 4096
    weight_filler {
      type: "gaussian"
      std: 0.005
    }
    bias_filler {
      type: "constant"
      value: 1
    }
  }
}
layers {
  bottom: "fc7"
  top: "fc7"
  name: "relu7"
  type: RELU
}
layers {
  bottom: "fc7"
  top: "fc7"
  name: "drop7"
  type: DROPOUT
  dropout_param {
    dropout_ratio: 0.5
  }
}
layers {
  bottom: "fc7"
  top: "fc8_deepfashion"
  name: "fc8_deepfashion"
  type: INNER_PRODUCT
  blobs_lr: 10
  blobs_lr: 20
  weight_decay: 1
  weight_decay: 0
  inner_product_param {
    num_output: 48
    weight_filler {
      type: "gaussian"
      std: 0.01
    }
    bias_filler {
      type: "constant"
      value: 0
    }
  }
}
layers {
  bottom: "fc8_deepfashion"
  top: "fc8_deepfashion_encode"
  name: "fc8_deepfashion_encode"
  type: SIGMOID
}
layers {
  bottom: "fc8_deepfashion_encode"
  top: "fc8_pascal"
  name: "fc8_pascal"
  type: INNER_PRODUCT
  blobs_lr: 10
  blobs_lr: 20
  weight_decay: 1
  weight_decay: 0
  inner_product_param {
    num_output: 10
    weight_filler {
      type: "gaussian"
      std: 0.01
    }
    bias_filler {
      type: "constant"
      value: 0
    }
  }
}
layers {
  bottom: "fc8_pascal"
  bottom: "label"
  name: "loss"
  type: SOFTMAX_LOSS
}
state {
  phase: TRAIN
}
I0330 17:01:20.550319  1582 net.cpp:67] Creating Layer data
I0330 17:01:20.550344  1582 net.cpp:356] data -> data
I0330 17:01:20.550366  1582 net.cpp:356] data -> label
I0330 17:01:20.550385  1582 net.cpp:96] Setting up data
I0330 17:01:20.551586  1582 data_layer.cpp:45] Opening leveldb /data/deepfashion/label_jabong/label_jabong_TRAIN
I0330 17:01:20.587155  1582 data_layer.cpp:128] output data size: 32,3,227,227
I0330 17:01:20.587178  1582 base_data_layer.cpp:36] Loading mean file from../../../data/ilsvrc12/imagenet_mean.binaryproto
I0330 17:01:20.600647  1582 net.cpp:103] Top shape: 32 3 227 227 (4946784)
I0330 17:01:20.600678  1582 net.cpp:103] Top shape: 32 1 1 1 (32)
I0330 17:01:20.600718  1582 net.cpp:67] Creating Layer conv1
I0330 17:01:20.600730  1582 net.cpp:394] conv1 <- data
I0330 17:01:20.600744  1582 net.cpp:356] conv1 -> conv1
I0330 17:01:20.600761  1582 net.cpp:96] Setting up conv1
I0330 17:01:20.711383  1582 net.cpp:103] Top shape: 32 96 55 55 (9292800)
I0330 17:01:20.711448  1582 net.cpp:67] Creating Layer relu1
I0330 17:01:20.711457  1582 net.cpp:394] relu1 <- conv1
I0330 17:01:20.711464  1582 net.cpp:345] relu1 -> conv1 (in-place)
I0330 17:01:20.711473  1582 net.cpp:96] Setting up relu1
I0330 17:01:20.711485  1582 net.cpp:103] Top shape: 32 96 55 55 (9292800)
I0330 17:01:20.711498  1582 net.cpp:67] Creating Layer pool1
I0330 17:01:20.711501  1582 net.cpp:394] pool1 <- conv1
I0330 17:01:20.711508  1582 net.cpp:356] pool1 -> pool1
I0330 17:01:20.711515  1582 net.cpp:96] Setting up pool1
I0330 17:01:20.711536  1582 net.cpp:103] Top shape: 32 96 27 27 (2239488)
I0330 17:01:20.711555  1582 net.cpp:67] Creating Layer norm1
I0330 17:01:20.711560  1582 net.cpp:394] norm1 <- pool1
I0330 17:01:20.711566  1582 net.cpp:356] norm1 -> norm1
I0330 17:01:20.711575  1582 net.cpp:96] Setting up norm1
I0330 17:01:20.711582  1582 net.cpp:103] Top shape: 32 96 27 27 (2239488)
I0330 17:01:20.711597  1582 net.cpp:67] Creating Layer conv2
I0330 17:01:20.711608  1582 net.cpp:394] conv2 <- norm1
I0330 17:01:20.711616  1582 net.cpp:356] conv2 -> conv2
I0330 17:01:20.711624  1582 net.cpp:96] Setting up conv2
I0330 17:01:20.721889  1582 net.cpp:103] Top shape: 32 256 27 27 (5971968)
I0330 17:01:20.721915  1582 net.cpp:67] Creating Layer relu2
I0330 17:01:20.721946  1582 net.cpp:394] relu2 <- conv2
I0330 17:01:20.721954  1582 net.cpp:345] relu2 -> conv2 (in-place)
I0330 17:01:20.721961  1582 net.cpp:96] Setting up relu2
I0330 17:01:20.721968  1582 net.cpp:103] Top shape: 32 256 27 27 (5971968)
I0330 17:01:20.721976  1582 net.cpp:67] Creating Layer pool2
I0330 17:01:20.721979  1582 net.cpp:394] pool2 <- conv2
I0330 17:01:20.721987  1582 net.cpp:356] pool2 -> pool2
I0330 17:01:20.721993  1582 net.cpp:96] Setting up pool2
I0330 17:01:20.722000  1582 net.cpp:103] Top shape: 32 256 13 13 (1384448)
I0330 17:01:20.722008  1582 net.cpp:67] Creating Layer norm2
I0330 17:01:20.722012  1582 net.cpp:394] norm2 <- pool2
I0330 17:01:20.722019  1582 net.cpp:356] norm2 -> norm2
I0330 17:01:20.722025  1582 net.cpp:96] Setting up norm2
I0330 17:01:20.722030  1582 net.cpp:103] Top shape: 32 256 13 13 (1384448)
I0330 17:01:20.722038  1582 net.cpp:67] Creating Layer conv3
I0330 17:01:20.722041  1582 net.cpp:394] conv3 <- norm2
I0330 17:01:20.722046  1582 net.cpp:356] conv3 -> conv3
I0330 17:01:20.722054  1582 net.cpp:96] Setting up conv3
I0330 17:01:20.751313  1582 net.cpp:103] Top shape: 32 384 13 13 (2076672)
I0330 17:01:20.751338  1582 net.cpp:67] Creating Layer relu3
I0330 17:01:20.751343  1582 net.cpp:394] relu3 <- conv3
I0330 17:01:20.751353  1582 net.cpp:345] relu3 -> conv3 (in-place)
I0330 17:01:20.751359  1582 net.cpp:96] Setting up relu3
I0330 17:01:20.751368  1582 net.cpp:103] Top shape: 32 384 13 13 (2076672)
I0330 17:01:20.751376  1582 net.cpp:67] Creating Layer conv4
I0330 17:01:20.751380  1582 net.cpp:394] conv4 <- conv3
I0330 17:01:20.751389  1582 net.cpp:356] conv4 -> conv4
I0330 17:01:20.751394  1582 net.cpp:96] Setting up conv4
I0330 17:01:20.773187  1582 net.cpp:103] Top shape: 32 384 13 13 (2076672)
I0330 17:01:20.773216  1582 net.cpp:67] Creating Layer relu4
I0330 17:01:20.773221  1582 net.cpp:394] relu4 <- conv4
I0330 17:01:20.773226  1582 net.cpp:345] relu4 -> conv4 (in-place)
I0330 17:01:20.773233  1582 net.cpp:96] Setting up relu4
I0330 17:01:20.773241  1582 net.cpp:103] Top shape: 32 384 13 13 (2076672)
I0330 17:01:20.773250  1582 net.cpp:67] Creating Layer conv5
I0330 17:01:20.773254  1582 net.cpp:394] conv5 <- conv4
I0330 17:01:20.773259  1582 net.cpp:356] conv5 -> conv5
I0330 17:01:20.773267  1582 net.cpp:96] Setting up conv5
I0330 17:01:20.788100  1582 net.cpp:103] Top shape: 32 256 13 13 (1384448)
I0330 17:01:20.788130  1582 net.cpp:67] Creating Layer relu5
I0330 17:01:20.788135  1582 net.cpp:394] relu5 <- conv5
I0330 17:01:20.788141  1582 net.cpp:345] relu5 -> conv5 (in-place)
I0330 17:01:20.788149  1582 net.cpp:96] Setting up relu5
I0330 17:01:20.788157  1582 net.cpp:103] Top shape: 32 256 13 13 (1384448)
I0330 17:01:20.788164  1582 net.cpp:67] Creating Layer pool5
I0330 17:01:20.788168  1582 net.cpp:394] pool5 <- conv5
I0330 17:01:20.788173  1582 net.cpp:356] pool5 -> pool5
I0330 17:01:20.788179  1582 net.cpp:96] Setting up pool5
I0330 17:01:20.788187  1582 net.cpp:103] Top shape: 32 256 6 6 (294912)
I0330 17:01:20.788199  1582 net.cpp:67] Creating Layer fc6
I0330 17:01:20.788208  1582 net.cpp:394] fc6 <- pool5
I0330 17:01:20.788215  1582 net.cpp:356] fc6 -> fc6
I0330 17:01:20.788223  1582 net.cpp:96] Setting up fc6
I0330 17:01:22.010411  1582 net.cpp:103] Top shape: 32 4096 1 1 (131072)
I0330 17:01:22.010467  1582 net.cpp:67] Creating Layer relu6
I0330 17:01:22.010473  1582 net.cpp:394] relu6 <- fc6
I0330 17:01:22.010485  1582 net.cpp:345] relu6 -> fc6 (in-place)
I0330 17:01:22.010495  1582 net.cpp:96] Setting up relu6
I0330 17:01:22.010516  1582 net.cpp:103] Top shape: 32 4096 1 1 (131072)
I0330 17:01:22.010524  1582 net.cpp:67] Creating Layer drop6
I0330 17:01:22.010529  1582 net.cpp:394] drop6 <- fc6
I0330 17:01:22.010534  1582 net.cpp:345] drop6 -> fc6 (in-place)
I0330 17:01:22.010541  1582 net.cpp:96] Setting up drop6
I0330 17:01:22.010552  1582 net.cpp:103] Top shape: 32 4096 1 1 (131072)
I0330 17:01:22.010563  1582 net.cpp:67] Creating Layer fc7
I0330 17:01:22.010567  1582 net.cpp:394] fc7 <- fc6
I0330 17:01:22.010596  1582 net.cpp:356] fc7 -> fc7
I0330 17:01:22.010610  1582 net.cpp:96] Setting up fc7
I0330 17:01:22.553838  1582 net.cpp:103] Top shape: 32 4096 1 1 (131072)
I0330 17:01:22.553891  1582 net.cpp:67] Creating Layer relu7
I0330 17:01:22.553899  1582 net.cpp:394] relu7 <- fc7
I0330 17:01:22.553907  1582 net.cpp:345] relu7 -> fc7 (in-place)
I0330 17:01:22.553917  1582 net.cpp:96] Setting up relu7
I0330 17:01:22.553938  1582 net.cpp:103] Top shape: 32 4096 1 1 (131072)
I0330 17:01:22.553954  1582 net.cpp:67] Creating Layer drop7
I0330 17:01:22.553958  1582 net.cpp:394] drop7 <- fc7
I0330 17:01:22.553964  1582 net.cpp:345] drop7 -> fc7 (in-place)
I0330 17:01:22.553971  1582 net.cpp:96] Setting up drop7
I0330 17:01:22.553974  1582 net.cpp:103] Top shape: 32 4096 1 1 (131072)
I0330 17:01:22.553983  1582 net.cpp:67] Creating Layer fc8_deepfashion
I0330 17:01:22.553987  1582 net.cpp:394] fc8_deepfashion <- fc7
I0330 17:01:22.553998  1582 net.cpp:356] fc8_deepfashion -> fc8_deepfashion
I0330 17:01:22.554006  1582 net.cpp:96] Setting up fc8_deepfashion
I0330 17:01:22.560521  1582 net.cpp:103] Top shape: 32 48 1 1 (1536)
I0330 17:01:22.560544  1582 net.cpp:67] Creating Layer fc8_deepfashion_encode
I0330 17:01:22.560551  1582 net.cpp:394] fc8_deepfashion_encode <- fc8_deepfashion
I0330 17:01:22.560557  1582 net.cpp:356] fc8_deepfashion_encode -> fc8_deepfashion_encode
I0330 17:01:22.560564  1582 net.cpp:96] Setting up fc8_deepfashion_encode
I0330 17:01:22.560577  1582 net.cpp:103] Top shape: 32 48 1 1 (1536)
I0330 17:01:22.560587  1582 net.cpp:67] Creating Layer fc8_pascal
I0330 17:01:22.560592  1582 net.cpp:394] fc8_pascal <- fc8_deepfashion_encode
I0330 17:01:22.560600  1582 net.cpp:356] fc8_pascal -> fc8_pascal
I0330 17:01:22.560609  1582 net.cpp:96] Setting up fc8_pascal
I0330 17:01:22.560636  1582 net.cpp:103] Top shape: 32 10 1 1 (320)
I0330 17:01:22.560659  1582 net.cpp:67] Creating Layer loss
I0330 17:01:22.560667  1582 net.cpp:394] loss <- fc8_pascal
I0330 17:01:22.560672  1582 net.cpp:394] loss <- label
I0330 17:01:22.560679  1582 net.cpp:356] loss -> (automatic)
I0330 17:01:22.560684  1582 net.cpp:96] Setting up loss
I0330 17:01:22.560696  1582 net.cpp:103] Top shape: 1 1 1 1 (1)
I0330 17:01:22.560700  1582 net.cpp:109]     with loss weight 1
I0330 17:01:22.560739  1582 net.cpp:170] loss needs backward computation.
I0330 17:01:22.560745  1582 net.cpp:170] fc8_pascal needs backward computation.
I0330 17:01:22.560748  1582 net.cpp:170] fc8_deepfashion_encode needs backward computation.
I0330 17:01:22.560752  1582 net.cpp:170] fc8_deepfashion needs backward computation.
…
I0330 17:01:22.561537  1582 solver.cpp:151] Creating test net (#0) specified by net file: new.prototxt
I0330 17:01:22.561611  1582 net.cpp:275] The NetState phase (1) differed from the phase (0) specified by a rule in layer data
I0330 17:01:22.561830  1582 net.cpp:39] Initializing net from parameters: 
name: "deepFashion"
layers {
  top: "data"
  top: "label"
  name: "data"
  type: DATA
  data_param {
    source: "/data/deepfashion/label_jabong/label_jabong_test"
    batch_size: 32
  }
  include {
    phase: TEST
  }
  transform_param {
    mirror: true
    crop_size: 227
    mean_file: "../../../data/ilsvrc12/imagenet_mean.binaryproto"
  }
}
layers {
  bottom: "data"
  top: "conv1"
  name: "conv1"
  type: CONVOLUTION
  blobs_lr: 1
  blobs_lr: 2
  weight_decay: 1
  weight_decay: 0
  convolution_param {
    num_output: 96
    kernel_size: 11
    stride: 4
    weight_filler {
      type: "gaussian"
      std: 0.01
    }
    bias_filler {
      type: "constant"
      value: 0
    }
  }
}
layers {
  bottom: "conv1"
  top: "conv1"
  name: "relu1"
  type: RELU
}
layers {
  bottom: "conv1"
  top: "pool1"
  name: "pool1"
  type: POOLING
  pooling_param {
    pool: MAX
    kernel_size: 3
    stride: 2
  }
}
layers {
  bottom: "pool1"
  top: "norm1"
  name: "norm1"
  type: LRN
  lrn_param {
    local_size: 5
    alpha: 0.0001
    beta: 0.75
  }
}
layers {
  bottom: "norm1"
  top: "conv2"
  name: "conv2"
  type: CONVOLUTION
  blobs_lr: 1
  blobs_lr: 2
  weight_decay: 1
  weight_decay: 0
  convolution_param {
    num_output: 256
    pad: 2
    kernel_size: 5
    group: 2
    weight_filler {
      type: "gaussian"
      std: 0.01
    }
    bias_filler {
      type: "constant"
      value: 1
    }
  }
}
layers {
  bottom: "conv2"
  top: "conv2"
  name: "relu2"
  type: RELU
}
layers {
  bottom: "conv2"
  top: "pool2"
  name: "pool2"
  type: POOLING
  pooling_param {
    pool: MAX
    kernel_size: 3
    stride: 2
  }
}
layers {
  bottom: "pool2"
  top: "norm2"
  name: "norm2"
  type: LRN
  lrn_param {
    local_size: 5
    alpha: 0.0001
    beta: 0.75
  }
}
layers {
  bottom: "norm2"
  top: "conv3"
  name: "conv3"
  type: CONVOLUTION
  blobs_lr: 1
  blobs_lr: 2
  weight_decay: 1
  weight_decay: 0
  convolution_param {
    num_output: 384
    pad: 1
    kernel_size: 3
    weight_filler {
      type: "gaussian"
      std: 0.01
    }
    bias_filler {
      type: "constant"
      value: 0
    }
  }
}
layers {
  bottom: "conv3"
  top: "conv3"
  name: "relu3"
  type: RELU
}
layers {
  bottom: "conv3"
  top: "conv4"
  name: "conv4"
  type: CONVOLUTION
  blobs_lr: 1
  blobs_lr: 2
  weight_decay: 1
  weight_decay: 0
  convolution_param {
    num_output: 384
    pad: 1
    kernel_size: 3
    group: 2
    weight_filler {
      type: "gaussian"
      std: 0.01
    }
    bias_filler {
      type: "constant"
      value: 1
    }
  }
}
layers {
  bottom: "conv4"
  top: "conv4"
  name: "relu4"
  type: RELU
}
layers {
  bottom: "conv4"
  top: "conv5"
  name: "conv5"
  type: CONVOLUTION
  blobs_lr: 1
  blobs_lr: 2
  weight_decay: 1
  weight_decay: 0
  convolution_param {
    num_output: 256
    pad: 1
    kernel_size: 3
    group: 2
    weight_filler {
      type: "gaussian"
      std: 0.01
    }
    bias_filler {
      type: "constant"
      value: 1
    }
  }
}
layers {
  bottom: "conv5"
  top: "conv5"
  name: "relu5"
  type: RELU
}
layers {
  bottom: "conv5"
  top: "pool5"
  name: "pool5"
  type: POOLING
  pooling_param {
    pool: MAX
    kernel_size: 3
    stride: 2
  }
}
layers {
  bottom: "pool5"
  top: "fc6"
  name: "fc6"
  type: INNER_PRODUCT
  blobs_lr: 1
  blobs_lr: 2
  weight_decay: 1
  weight_decay: 0
  inner_product_param {
    num_output: 4096
    weight_filler {
      type: "gaussian"
      std: 0.005
    }
    bias_filler {
      type: "constant"
      value: 1
    }
  }
}
layers {
  bottom: "fc6"
  top: "fc6"
  name: "relu6"
  type: RELU
}
layers {
  bottom: "fc6"
  top: "fc6"
  name: "drop6"
  type: DROPOUT
  dropout_param {
    dropout_ratio: 0.5
  }
}
layers {
  bottom: "fc6"
  top: "fc7"
  name: "fc7"
  type: INNER_PRODUCT
  blobs_lr: 1
  blobs_lr: 2
  weight_decay: 1
  weight_decay: 0
  inner_product_param {
    num_output: 4096
    weight_filler {
      type: "gaussian"
      std: 0.005
    }
    bias_filler {
      type: "constant"
      value: 1
    }
  }
}
layers {
  bottom: "fc7"
  top: "fc7"
  name: "relu7"
  type: RELU
}
layers {
  bottom: "fc7"
  top: "fc7"
  name: "drop7"
  type: DROPOUT
  dropout_param {
    dropout_ratio: 0.5
  }
}
layers {
  bottom: "fc7"
  top: "fc8_deepfashion"
  name: "fc8_deepfashion"
  type: INNER_PRODUCT
  blobs_lr: 10
  blobs_lr: 20
  weight_decay: 1
  weight_decay: 0
  inner_product_param {
    num_output: 48
    weight_filler {
      type: "gaussian"
      std: 0.01
    }
    bias_filler {
      type: "constant"
      value: 0
    }
  }
}
layers {
  bottom: "fc8_deepfashion"
  top: "fc8_deepfashion_encode"
  name: "fc8_deepfashion_encode"
  type: SIGMOID
}
layers {
  bottom: "fc8_deepfashion_encode"
  top: "fc8_pascal"
  name: "fc8_pascal"
  type: INNER_PRODUCT
  blobs_lr: 10
  blobs_lr: 20
  weight_decay: 1
  weight_decay: 0
  inner_product_param {
    num_output: 10
    weight_filler {
      type: "gaussian"
      std: 0.01
    }
    bias_filler {
      type: "constant"
      value: 0
    }
  }
}
layers {
  bottom: "fc8_pascal"
  bottom: "label"
  name: "loss"
  type: SOFTMAX_LOSS
}
layers {
  bottom: "fc8_pascal"
  bottom: "label"
  top: "accuracy"
  name: "accuracy"
  type: ACCURACY
  include {
    phase: TEST
  }
}
state {
  phase: TEST
}
I0330 17:01:22.561964  1582 net.cpp:67] Creating Layer data
I0330 17:01:22.561972  1582 net.cpp:356] data -> data
I0330 17:01:22.561981  1582 net.cpp:356] data -> label
I0330 17:01:22.561988  1582 net.cpp:96] Setting up data
I0330 17:01:22.561995  1582 data_layer.cpp:45] Opening leveldb /data/deepfashion/label_jabong/label_jabong_test
I0330 17:01:22.597934  1582 data_layer.cpp:128] output data size: 32,3,227,227
I0330 17:01:22.597955  1582 base_data_layer.cpp:36] Loading mean file from../../../data/ilsvrc12/imagenet_mean.binaryproto
I0330 17:01:22.604727  1582 net.cpp:103] Top shape: 32 3 227 227 (4946784)
I0330 17:01:22.604755  1582 net.cpp:103] Top shape: 32 1 1 1 (32)
I0330 17:01:22.604775  1582 net.cpp:67] Creating Layer label_data_1_split
I0330 17:01:22.604784  1582 net.cpp:394] label_data_1_split <- label
I0330 17:01:22.604799  1582 net.cpp:356] label_data_1_split -> label_data_1_split_0
I0330 17:01:22.604815  1582 net.cpp:356] label_data_1_split -> label_data_1_split_1
I0330 17:01:22.604836  1582 net.cpp:96] Setting up label_data_1_split
I0330 17:01:22.604851  1582 net.cpp:103] Top shape: 32 1 1 1 (32)
I0330 17:01:22.604861  1582 net.cpp:103] Top shape: 32 1 1 1 (32)
I0330 17:01:22.604876  1582 net.cpp:67] Creating Layer conv1
I0330 17:01:22.604892  1582 net.cpp:394] conv1 <- data
I0330 17:01:22.604904  1582 net.cpp:356] conv1 -> conv1
I0330 17:01:22.604918  1582 net.cpp:96] Setting up conv1
I0330 17:01:22.606202  1582 net.cpp:103] Top shape: 32 96 55 55 (9292800)
I0330 17:01:22.606232  1582 net.cpp:67] Creating Layer relu1
I0330 17:01:22.606245  1582 net.cpp:394] relu1 <- conv1
I0330 17:01:22.606256  1582 net.cpp:345] relu1 -> conv1 (in-place)
I0330 17:01:22.606271  1582 net.cpp:96] Setting up relu1
I0330 17:01:22.606283  1582 net.cpp:103] Top shape: 32 96 55 55 (9292800)
I0330 17:01:22.606307  1582 net.cpp:67] Creating Layer pool1
I0330 17:01:22.606317  1582 net.cpp:394] pool1 <- conv1
I0330 17:01:22.606328  1582 net.cpp:356] pool1 -> pool1
I0330 17:01:22.606341  1582 net.cpp:96] Setting up pool1
I0330 17:01:22.606359  1582 net.cpp:103] Top shape: 32 96 27 27 (2239488)
I0330 17:01:22.606379  1582 net.cpp:67] Creating Layer norm1
I0330 17:01:22.606387  1582 net.cpp:394] norm1 <- pool1
I0330 17:01:22.606426  1582 net.cpp:356] norm1 -> norm1
I0330 17:01:22.606441  1582 net.cpp:96] Setting up norm1
I0330 17:01:22.606449  1582 net.cpp:103] Top shape: 32 96 27 27 (2239488)
I0330 17:01:22.606464  1582 net.cpp:67] Creating Layer conv2
I0330 17:01:22.606469  1582 net.cpp:394] conv2 <- norm1
I0330 17:01:22.606477  1582 net.cpp:356] conv2 -> conv2
I0330 17:01:22.606483  1582 net.cpp:96] Setting up conv2
I0330 17:01:22.617189  1582 net.cpp:103] Top shape: 32 256 27 27 (5971968)
I0330 17:01:22.617220  1582 net.cpp:67] Creating Layer relu2
I0330 17:01:22.617226  1582 net.cpp:394] relu2 <- conv2
I0330 17:01:22.617233  1582 net.cpp:345] relu2 -> conv2 (in-place)
I0330 17:01:22.617238  1582 net.cpp:96] Setting up relu2
I0330 17:01:22.617245  1582 net.cpp:103] Top shape: 32 256 27 27 (5971968)
I0330 17:01:22.617254  1582 net.cpp:67] Creating Layer pool2
I0330 17:01:22.617259  1582 net.cpp:394] pool2 <- conv2
I0330 17:01:22.617264  1582 net.cpp:356] pool2 -> pool2
I0330 17:01:22.617271  1582 net.cpp:96] Setting up pool2
I0330 17:01:22.617280  1582 net.cpp:103] Top shape: 32 256 13 13 (1384448)
I0330 17:01:22.617287  1582 net.cpp:67] Creating Layer norm2
I0330 17:01:22.617303  1582 net.cpp:394] norm2 <- pool2
I0330 17:01:22.617311  1582 net.cpp:356] norm2 -> norm2
I0330 17:01:22.617318  1582 net.cpp:96] Setting up norm2
I0330 17:01:22.617323  1582 net.cpp:103] Top shape: 32 256 13 13 (1384448)
I0330 17:01:22.617332  1582 net.cpp:67] Creating Layer conv3
I0330 17:01:22.617336  1582 net.cpp:394] conv3 <- norm2
I0330 17:01:22.617342  1582 net.cpp:356] conv3 -> conv3
I0330 17:01:22.617349  1582 net.cpp:96] Setting up conv3
I0330 17:01:22.646533  1582 net.cpp:103] Top shape: 32 384 13 13 (2076672)
I0330 17:01:22.646584  1582 net.cpp:67] Creating Layer relu3
I0330 17:01:22.646591  1582 net.cpp:394] relu3 <- conv3
I0330 17:01:22.646600  1582 net.cpp:345] relu3 -> conv3 (in-place)
I0330 17:01:22.646610  1582 net.cpp:96] Setting up relu3
I0330 17:01:22.646617  1582 net.cpp:103] Top shape: 32 384 13 13 (2076672)
I0330 17:01:22.646630  1582 net.cpp:67] Creating Layer conv4
I0330 17:01:22.646636  1582 net.cpp:394] conv4 <- conv3
I0330 17:01:22.646642  1582 net.cpp:356] conv4 -> conv4
I0330 17:01:22.646651  1582 net.cpp:96] Setting up conv4
I0330 17:01:22.668648  1582 net.cpp:103] Top shape: 32 384 13 13 (2076672)
I0330 17:01:22.668673  1582 net.cpp:67] Creating Layer relu4
I0330 17:01:22.668678  1582 net.cpp:394] relu4 <- conv4
I0330 17:01:22.668685  1582 net.cpp:345] relu4 -> conv4 (in-place)
I0330 17:01:22.668692  1582 net.cpp:96] Setting up relu4
I0330 17:01:22.668699  1582 net.cpp:103] Top shape: 32 384 13 13 (2076672)
I0330 17:01:22.668707  1582 net.cpp:67] Creating Layer conv5
I0330 17:01:22.668711  1582 net.cpp:394] conv5 <- conv4
I0330 17:01:22.668720  1582 net.cpp:356] conv5 -> conv5
I0330 17:01:22.668726  1582 net.cpp:96] Setting up conv5
I0330 17:01:22.683540  1582 net.cpp:103] Top shape: 32 256 13 13 (1384448)
I0330 17:01:22.683568  1582 net.cpp:67] Creating Layer relu5
I0330 17:01:22.683573  1582 net.cpp:394] relu5 <- conv5
I0330 17:01:22.683580  1582 net.cpp:345] relu5 -> conv5 (in-place)
I0330 17:01:22.683586  1582 net.cpp:96] Setting up relu5
I0330 17:01:22.683593  1582 net.cpp:103] Top shape: 32 256 13 13 (1384448)
I0330 17:01:22.683604  1582 net.cpp:67] Creating Layer pool5
I0330 17:01:22.683609  1582 net.cpp:394] pool5 <- conv5
I0330 17:01:22.683614  1582 net.cpp:356] pool5 -> pool5
I0330 17:01:22.683621  1582 net.cpp:96] Setting up pool5
I0330 17:01:22.683631  1582 net.cpp:103] Top shape: 32 256 6 6 (294912)
I0330 17:01:22.683645  1582 net.cpp:67] Creating Layer fc6
I0330 17:01:22.683648  1582 net.cpp:394] fc6 <- pool5
I0330 17:01:22.683655  1582 net.cpp:356] fc6 -> fc6
I0330 17:01:22.683662  1582 net.cpp:96] Setting up fc6
I0330 17:01:23.905634  1582 net.cpp:103] Top shape: 32 4096 1 1 (131072)
I0330 17:01:23.905688  1582 net.cpp:67] Creating Layer relu6
I0330 17:01:23.905695  1582 net.cpp:394] relu6 <- fc6
I0330 17:01:23.905707  1582 net.cpp:345] relu6 -> fc6 (in-place)
I0330 17:01:23.905745  1582 net.cpp:96] Setting up relu6
I0330 17:01:23.905767  1582 net.cpp:103] Top shape: 32 4096 1 1 (131072)
I0330 17:01:23.905782  1582 net.cpp:67] Creating Layer drop6
I0330 17:01:23.905787  1582 net.cpp:394] drop6 <- fc6
I0330 17:01:23.905792  1582 net.cpp:345] drop6 -> fc6 (in-place)
I0330 17:01:23.905799  1582 net.cpp:96] Setting up drop6
I0330 17:01:23.905804  1582 net.cpp:103] Top shape: 32 4096 1 1 (131072)
I0330 17:01:23.905813  1582 net.cpp:67] Creating Layer fc7
I0330 17:01:23.905817  1582 net.cpp:394] fc7 <- fc6
I0330 17:01:23.905823  1582 net.cpp:356] fc7 -> fc7
I0330 17:01:23.905833  1582 net.cpp:96] Setting up fc7
I0330 17:01:24.448650  1582 net.cpp:103] Top shape: 32 4096 1 1 (131072)
I0330 17:01:24.448704  1582 net.cpp:67] Creating Layer relu7
I0330 17:01:24.448711  1582 net.cpp:394] relu7 <- fc7
I0330 17:01:24.448722  1582 net.cpp:345] relu7 -> fc7 (in-place)
I0330 17:01:24.448731  1582 net.cpp:96] Setting up relu7
I0330 17:01:24.448752  1582 net.cpp:103] Top shape: 32 4096 1 1 (131072)
I0330 17:01:24.448763  1582 net.cpp:67] Creating Layer drop7
I0330 17:01:24.448770  1582 net.cpp:394] drop7 <- fc7
I0330 17:01:24.448776  1582 net.cpp:345] drop7 -> fc7 (in-place)
I0330 17:01:24.448782  1582 net.cpp:96] Setting up drop7
I0330 17:01:24.448787  1582 net.cpp:103] Top shape: 32 4096 1 1 (131072)
I0330 17:01:24.448796  1582 net.cpp:67] Creating Layer fc8_deepfashion
I0330 17:01:24.448801  1582 net.cpp:394] fc8_deepfashion <- fc7
I0330 17:01:24.448807  1582 net.cpp:356] fc8_deepfashion -> fc8_deepfashion
I0330 17:01:24.448819  1582 net.cpp:96] Setting up fc8_deepfashion
I0330 17:01:24.455127  1582 net.cpp:103] Top shape: 32 48 1 1 (1536)
I0330 17:01:24.455150  1582 net.cpp:67] Creating Layer fc8_deepfashion_encode
I0330 17:01:24.455155  1582 net.cpp:394] fc8_deepfashion_encode <- fc8_deepfashion
I0330 17:01:24.455163  1582 net.cpp:356] fc8_deepfashion_encode -> fc8_deepfashion_encode
I0330 17:01:24.455169  1582 net.cpp:96] Setting up fc8_deepfashion_encode
I0330 17:01:24.455178  1582 net.cpp:103] Top shape: 32 48 1 1 (1536)
I0330 17:01:24.455186  1582 net.cpp:67] Creating Layer fc8_pascal
I0330 17:01:24.455190  1582 net.cpp:394] fc8_pascal <- fc8_deepfashion_encode
I0330 17:01:24.455198  1582 net.cpp:356] fc8_pascal -> fc8_pascal
I0330 17:01:24.455204  1582 net.cpp:96] Setting up fc8_pascal
I0330 17:01:24.455226  1582 net.cpp:103] Top shape: 32 10 1 1 (320)
I0330 17:01:24.455247  1582 net.cpp:67] Creating Layer fc8_pascal_fc8_pascal_0_split
I0330 17:01:24.455252  1582 net.cpp:394] fc8_pascal_fc8_pascal_0_split <- fc8_pascal
I0330 17:01:24.455258  1582 net.cpp:356] fc8_pascal_fc8_pascal_0_split -> fc8_pascal_fc8_pascal_0_split_0
I0330 17:01:24.455265  1582 net.cpp:356] fc8_pascal_fc8_pascal_0_split -> fc8_pascal_fc8_pascal_0_split_1
I0330 17:01:24.455271  1582 net.cpp:96] Setting up fc8_pascal_fc8_pascal_0_split
I0330 17:01:24.455276  1582 net.cpp:103] Top shape: 32 10 1 1 (320)
I0330 17:01:24.455281  1582 net.cpp:103] Top shape: 32 10 1 1 (320)
I0330 17:01:24.455289  1582 net.cpp:67] Creating Layer loss
I0330 17:01:24.455293  1582 net.cpp:394] loss <- fc8_pascal_fc8_pascal_0_split_0
I0330 17:01:24.455298  1582 net.cpp:394] loss <- label_data_1_split_0
I0330 17:01:24.455303  1582 net.cpp:356] loss -> (automatic)
I0330 17:01:24.455308  1582 net.cpp:96] Setting up loss
I0330 17:01:24.455315  1582 net.cpp:103] Top shape: 1 1 1 1 (1)
I0330 17:01:24.455320  1582 net.cpp:109]     with loss weight 1
I0330 17:01:24.455346  1582 net.cpp:67] Creating Layer accuracy
I0330 17:01:24.455351  1582 net.cpp:394] accuracy <- fc8_pascal_fc8_pascal_0_split_1
I0330 17:01:24.455356  1582 net.cpp:394] accuracy <- label_data_1_split_1
I0330 17:01:24.455364  1582 net.cpp:356] accuracy -> accuracy
I0330 17:01:24.455371  1582 net.cpp:96] Setting up accuracy
I0330 17:01:24.455381  1582 net.cpp:103] Top shape: 1 1 1 1 (1)
I0330 17:01:24.455389  1582 net.cpp:172] accuracy does not need backward computation.
I0330 17:01:24.455394  1582 net.cpp:170] loss needs backward computation.
I0330 17:01:24.455397  1582 net.cpp:170] fc8_pascal_fc8_pascal_0_split needs backward computation.
I0330 17:01:24.455425  1582 net.cpp:170] fc8_pascal needs backward computation.
I0330 17:01:24.455430  1582 net.cpp:170] fc8_deepfashion_encode needs backward computation.
…
