…
  top: "data"
  top: "random"
  name: "data"
  type: DATA
  data_param {
    source: "/data/deepfashion/color_label_multilabel/color_label_multilabel_TRAIN"
    batch_size: 32
    backend: LMDB
  }
  include {
    phase: TRAIN
  }
  transform_param {
    mirror: true
    crop_size: 227
    mean_file: "../../../data/ilsvrc12/imagenet_mean.binaryproto"
  }
}
layers {
  top: "labels"
  name: "labels"
  type: DATA
  data_param {
    source: "/data/deepfashion/color_label_multilabel/color_label_multilabel_TRAIN_ALT"
    batch_size: 32
    backend: LMDB
  }
  include {
    phase: TRAIN
  }
}
layers {
  bottom: "labels"
  top: "labels0"
  top: "labels1"
  name: "sliceL"
  type: SLICE
  slice_param {
    slice_point: 1
  }
}
layers {
  bottom: "data"
  top: "conv1"
  name: "conv1"
  type: CONVOLUTION
  blobs_lr: 1
  blobs_lr: 2
  weight_decay: 1
  weight_decay: 0
  convolution_param {
    num_output: 96
    kernel_size: 11
    stride: 4
    weight_filler {
      type: "gaussian"
      std: 0.01
    }
    bias_filler {
      type: "constant"
      value: 0
    }
  }
}
layers {
  bottom: "conv1"
  top: "conv1"
  name: "relu1"
  type: RELU
}
layers {
  bottom: "conv1"
  top: "pool1"
  name: "pool1"
  type: POOLING
  pooling_param {
    pool: MAX
    kernel_size: 3
    stride: 2
  }
}
layers {
  bottom: "pool1"
  top: "norm1"
  name: "norm1"
  type: LRN
  lrn_param {
    local_size: 5
    alpha: 0.0001
    beta: 0.75
  }
}
layers {
  bottom: "norm1"
  top: "conv2"
  name: "conv2"
  type: CONVOLUTION
  blobs_lr: 1
  blobs_lr: 2
  weight_decay: 1
  weight_decay: 0
  convolution_param {
    num_output: 256
    pad: 2
    kernel_size: 5
    group: 2
    weight_filler {
      type: "gaussian"
      std: 0.01
    }
    bias_filler {
      type: "constant"
      value: 1
    }
  }
}
layers {
  bottom: "conv2"
  top: "conv2"
  name: "relu2"
  type: RELU
}
layers {
  bottom: "conv2"
  top: "pool2"
  name: "pool2"
  type: POOLING
  pooling_param {
    pool: MAX
    kernel_size: 3
    stride: 2
  }
}
layers {
  bottom: "pool2"
  top: "norm2"
  name: "norm2"
  type: LRN
  lrn_param {
    local_size: 5
    alpha: 0.0001
    beta: 0.75
  }
}
layers {
  bottom: "norm2"
  top: "conv3"
  name: "conv3"
  type: CONVOLUTION
  blobs_lr: 1
  blobs_lr: 2
  weight_decay: 1
  weight_decay: 0
  convolution_param {
    num_output: 384
    pad: 1
    kernel_size: 3
    weight_filler {
      type: "gaussian"
      std: 0.01
    }
    bias_filler {
      type: "constant"
      value: 0
    }
  }
}
layers {
  bottom: "conv3"
  top: "conv3"
  name: "relu3"
  type: RELU
}
layers {
  bottom: "conv3"
  top: "conv4"
  name: "conv4"
  type: CONVOLUTION
  blobs_lr: 1
  blobs_lr: 2
  weight_decay: 1
  weight_decay: 0
  convolution_param {
    num_output: 384
    pad: 1
    kernel_size: 3
    group: 2
    weight_filler {
      type: "gaussian"
      std: 0.01
    }
    bias_filler {
      type: "constant"
      value: 1
    }
  }
}
layers {
  bottom: "conv4"
  top: "conv4"
  name: "relu4"
  type: RELU
}
layers {
  bottom: "conv4"
  top: "conv5"
  name: "conv5"
  type: CONVOLUTION
  blobs_lr: 1
  blobs_lr: 2
  weight_decay: 1
  weight_decay: 0
  convolution_param {
    num_output: 256
    pad: 1
    kernel_size: 3
    group: 2
    weight_filler {
      type: "gaussian"
      std: 0.01
    }
    bias_filler {
      type: "constant"
      value: 1
    }
  }
}
layers {
  bottom: "conv5"
  top: "conv5"
  name: "relu5"
  type: RELU
}
layers {
  bottom: "conv5"
  top: "pool5"
  name: "pool5"
  type: POOLING
  pooling_param {
    pool: MAX
    kernel_size: 3
    stride: 2
  }
}
layers {
  bottom: "pool5"
  top: "fc6"
  name: "fc6"
  type: INNER_PRODUCT
  blobs_lr: 1
  blobs_lr: 2
  weight_decay: 1
  weight_decay: 0
  inner_product_param {
    num_output: 4096
    weight_filler {
      type: "gaussian"
      std: 0.005
    }
    bias_filler {
      type: "constant"
      value: 1
    }
  }
}
layers {
  bottom: "fc6"
  top: "fc6"
  name: "relu6"
  type: RELU
}
layers {
  bottom: "fc6"
  top: "fc6"
  name: "drop6"
  type: DROPOUT
  dropout_param {
    dropout_ratio: 0.5
  }
}
layers {
  bottom: "fc6"
  top: "fc7"
  name: "fc7"
  type: INNER_PRODUCT
  blobs_lr: 1
  blobs_lr: 2
  weight_decay: 1
  weight_decay: 0
  inner_product_param {
    num_output: 4096
    weight_filler {
      type: "gaussian"
      std: 0.005
    }
    bias_filler {
      type: "constant"
      value: 1
    }
  }
}
layers {
  bottom: "fc7"
  top: "fc7"
  name: "relu7"
  type: RELU
}
layers {
  bottom: "fc7"
  top: "fc7"
  name: "drop7"
  type: DROPOUT
  dropout_param {
    dropout_ratio: 0.5
  }
}
layers {
  bottom: "fc7"
  top: "fc8_deepfashion"
  name: "fc8_deepfashion"
  type: INNER_PRODUCT
  blobs_lr: 10
  blobs_lr: 20
  weight_decay: 1
  weight_decay: 0
  inner_product_param {
    num_output: 48
    weight_filler {
      type: "gaussian"
      std: 0.01
    }
    bias_filler {
      type: "constant"
      value: 0
    }
  }
}
layers {
  bottom: "fc8_deepfashion"
  top: "fc8_deepfashion_encode"
  name: "fc8_deepfashion_encode"
  type: SIGMOID
}
layers {
  bottom: "fc8_deepfashion_encode"
  top: "fc8_pascal_label"
  name: "fc8_pascal_label"
  type: INNER_PRODUCT
  blobs_lr: 0
  blobs_lr: 0
  weight_decay: 1
  weight_decay: 0
  inner_product_param {
    num_output: 10
    weight_filler {
      type: "gaussian"
      std: 0.01
    }
    bias_filler {
      type: "constant"
      value: 0
    }
  }
}
layers {
  bottom: "fc8_deepfashion_encode"
  top: "fc8_pascal_color"
  name: "fc8_pascal_color"
  type: INNER_PRODUCT
  blobs_lr: 10
  blobs_lr: 20
  weight_decay: 1
  weight_decay: 0
  inner_product_param {
    num_output: 16
    weight_filler {
      type: "gaussian"
      std: 0.01
    }
    bias_filler {
      type: "constant"
      value: 0
    }
  }
}
layers {
  bottom: "fc8_pascal_color"
  bottom: "labels1"
  name: "loss"
  type: SOFTMAX_LOSS
}
layers {
  bottom: "labels0"
  bottom: "random"
  bottom: "fc8_pascal_label"
  name: "silence"
  type: SILENCE
}
state {
  phase: TRAIN
}
I0405 21:49:15.766500 26517 net.cpp:67] Creating Layer data
I0405 21:49:15.766528 26517 net.cpp:356] data -> data
I0405 21:49:15.766551 26517 net.cpp:356] data -> random
I0405 21:49:15.766567 26517 net.cpp:96] Setting up data
I0405 21:49:15.766700 26517 data_layer.cpp:68] Opening lmdb /data/deepfashion/color_label_multilabel/color_label_multilabel_TRAIN
I0405 21:49:15.766909 26517 data_layer.cpp:128] output data size: 32,3,227,227
I0405 21:49:15.766918 26517 base_data_layer.cpp:36] Loading mean file from../../../data/ilsvrc12/imagenet_mean.binaryproto
I0405 21:49:15.773919 26517 net.cpp:103] Top shape: 32 3 227 227 (4946784)
I0405 21:49:15.773954 26517 net.cpp:103] Top shape: 32 1 1 1 (32)
I0405 21:49:15.773972 26517 net.cpp:67] Creating Layer labels
I0405 21:49:15.773979 26517 net.cpp:356] labels -> labels
I0405 21:49:15.773993 26517 net.cpp:96] Setting up labels
I0405 21:49:15.774102 26517 data_layer.cpp:68] Opening lmdb /data/deepfashion/color_label_multilabel/color_label_multilabel_TRAIN_ALT
I0405 21:49:15.774128 26517 data_layer.cpp:128] output data size: 32,2,1,1
I0405 21:49:15.774163 26517 net.cpp:103] Top shape: 32 2 1 1 (64)
I0405 21:49:15.774183 26517 net.cpp:67] Creating Layer sliceL
I0405 21:49:15.774209 26517 net.cpp:394] sliceL <- labels
I0405 21:49:15.774219 26517 net.cpp:356] sliceL -> labels0
I0405 21:49:15.774229 26517 net.cpp:356] sliceL -> labels1
I0405 21:49:15.774237 26517 net.cpp:96] Setting up sliceL
I0405 21:49:15.774246 26517 net.cpp:103] Top shape: 32 1 1 1 (32)
I0405 21:49:15.774250 26517 net.cpp:103] Top shape: 32 1 1 1 (32)
I0405 21:49:15.774260 26517 net.cpp:67] Creating Layer conv1
I0405 21:49:15.774263 26517 net.cpp:394] conv1 <- data
I0405 21:49:15.774273 26517 net.cpp:356] conv1 -> conv1
I0405 21:49:15.774281 26517 net.cpp:96] Setting up conv1
I0405 21:49:15.796906 26517 net.cpp:103] Top shape: 32 96 55 55 (9292800)
I0405 21:49:15.796967 26517 net.cpp:67] Creating Layer relu1
I0405 21:49:15.796975 26517 net.cpp:394] relu1 <- conv1
I0405 21:49:15.796983 26517 net.cpp:345] relu1 -> conv1 (in-place)
I0405 21:49:15.796993 26517 net.cpp:96] Setting up relu1
I0405 21:49:15.797004 26517 net.cpp:103] Top shape: 32 96 55 55 (9292800)
I0405 21:49:15.797011 26517 net.cpp:67] Creating Layer pool1
I0405 21:49:15.797015 26517 net.cpp:394] pool1 <- conv1
I0405 21:49:15.797021 26517 net.cpp:356] pool1 -> pool1
I0405 21:49:15.797029 26517 net.cpp:96] Setting up pool1
I0405 21:49:15.797054 26517 net.cpp:103] Top shape: 32 96 27 27 (2239488)
I0405 21:49:15.797068 26517 net.cpp:67] Creating Layer norm1
I0405 21:49:15.797073 26517 net.cpp:394] norm1 <- pool1
I0405 21:49:15.797081 26517 net.cpp:356] norm1 -> norm1
I0405 21:49:15.797087 26517 net.cpp:96] Setting up norm1
I0405 21:49:15.797096 26517 net.cpp:103] Top shape: 32 96 27 27 (2239488)
I0405 21:49:15.797104 26517 net.cpp:67] Creating Layer conv2
I0405 21:49:15.797108 26517 net.cpp:394] conv2 <- norm1
I0405 21:49:15.797116 26517 net.cpp:356] conv2 -> conv2
I0405 21:49:15.797124 26517 net.cpp:96] Setting up conv2
I0405 21:49:15.807307 26517 net.cpp:103] Top shape: 32 256 27 27 (5971968)
I0405 21:49:15.807334 26517 net.cpp:67] Creating Layer relu2
I0405 21:49:15.807340 26517 net.cpp:394] relu2 <- conv2
I0405 21:49:15.807345 26517 net.cpp:345] relu2 -> conv2 (in-place)
I0405 21:49:15.807351 26517 net.cpp:96] Setting up relu2
I0405 21:49:15.807358 26517 net.cpp:103] Top shape: 32 256 27 27 (5971968)
I0405 21:49:15.807366 26517 net.cpp:67] Creating Layer pool2
I0405 21:49:15.807370 26517 net.cpp:394] pool2 <- conv2
I0405 21:49:15.807376 26517 net.cpp:356] pool2 -> pool2
I0405 21:49:15.807381 26517 net.cpp:96] Setting up pool2
I0405 21:49:15.807389 26517 net.cpp:103] Top shape: 32 256 13 13 (1384448)
I0405 21:49:15.807395 26517 net.cpp:67] Creating Layer norm2
I0405 21:49:15.807399 26517 net.cpp:394] norm2 <- pool2
I0405 21:49:15.807404 26517 net.cpp:356] norm2 -> norm2
I0405 21:49:15.807410 26517 net.cpp:96] Setting up norm2
I0405 21:49:15.807413 26517 net.cpp:103] Top shape: 32 256 13 13 (1384448)
I0405 21:49:15.807422 26517 net.cpp:67] Creating Layer conv3
I0405 21:49:15.807426 26517 net.cpp:394] conv3 <- norm2
I0405 21:49:15.807432 26517 net.cpp:356] conv3 -> conv3
I0405 21:49:15.807438 26517 net.cpp:96] Setting up conv3
I0405 21:49:15.836474 26517 net.cpp:103] Top shape: 32 384 13 13 (2076672)
I0405 21:49:15.836500 26517 net.cpp:67] Creating Layer relu3
I0405 21:49:15.836506 26517 net.cpp:394] relu3 <- conv3
I0405 21:49:15.836513 26517 net.cpp:345] relu3 -> conv3 (in-place)
I0405 21:49:15.836519 26517 net.cpp:96] Setting up relu3
I0405 21:49:15.836524 26517 net.cpp:103] Top shape: 32 384 13 13 (2076672)
I0405 21:49:15.836534 26517 net.cpp:67] Creating Layer conv4
I0405 21:49:15.836539 26517 net.cpp:394] conv4 <- conv3
I0405 21:49:15.836544 26517 net.cpp:356] conv4 -> conv4
I0405 21:49:15.836550 26517 net.cpp:96] Setting up conv4
I0405 21:49:15.858183 26517 net.cpp:103] Top shape: 32 384 13 13 (2076672)
I0405 21:49:15.858207 26517 net.cpp:67] Creating Layer relu4
I0405 21:49:15.858213 26517 net.cpp:394] relu4 <- conv4
I0405 21:49:15.858219 26517 net.cpp:345] relu4 -> conv4 (in-place)
I0405 21:49:15.858225 26517 net.cpp:96] Setting up relu4
I0405 21:49:15.858232 26517 net.cpp:103] Top shape: 32 384 13 13 (2076672)
I0405 21:49:15.858242 26517 net.cpp:67] Creating Layer conv5
I0405 21:49:15.858273 26517 net.cpp:394] conv5 <- conv4
I0405 21:49:15.858283 26517 net.cpp:356] conv5 -> conv5
I0405 21:49:15.858290 26517 net.cpp:96] Setting up conv5
I0405 21:49:15.872939 26517 net.cpp:103] Top shape: 32 256 13 13 (1384448)
I0405 21:49:15.872967 26517 net.cpp:67] Creating Layer relu5
I0405 21:49:15.872972 26517 net.cpp:394] relu5 <- conv5
I0405 21:49:15.872977 26517 net.cpp:345] relu5 -> conv5 (in-place)
I0405 21:49:15.872992 26517 net.cpp:96] Setting up relu5
I0405 21:49:15.872997 26517 net.cpp:103] Top shape: 32 256 13 13 (1384448)
I0405 21:49:15.873003 26517 net.cpp:67] Creating Layer pool5
I0405 21:49:15.873008 26517 net.cpp:394] pool5 <- conv5
I0405 21:49:15.873013 26517 net.cpp:356] pool5 -> pool5
I0405 21:49:15.873018 26517 net.cpp:96] Setting up pool5
I0405 21:49:15.873025 26517 net.cpp:103] Top shape: 32 256 6 6 (294912)
I0405 21:49:15.873035 26517 net.cpp:67] Creating Layer fc6
I0405 21:49:15.873045 26517 net.cpp:394] fc6 <- pool5
I0405 21:49:15.873051 26517 net.cpp:356] fc6 -> fc6
I0405 21:49:15.873059 26517 net.cpp:96] Setting up fc6
I0405 21:49:17.092381 26517 net.cpp:103] Top shape: 32 4096 1 1 (131072)
I0405 21:49:17.092438 26517 net.cpp:67] Creating Layer relu6
I0405 21:49:17.092447 26517 net.cpp:394] relu6 <- fc6
I0405 21:49:17.092454 26517 net.cpp:345] relu6 -> fc6 (in-place)
I0405 21:49:17.092463 26517 net.cpp:96] Setting up relu6
I0405 21:49:17.092483 26517 net.cpp:103] Top shape: 32 4096 1 1 (131072)
I0405 21:49:17.092490 26517 net.cpp:67] Creating Layer drop6
I0405 21:49:17.092494 26517 net.cpp:394] drop6 <- fc6
I0405 21:49:17.092501 26517 net.cpp:345] drop6 -> fc6 (in-place)
I0405 21:49:17.092509 26517 net.cpp:96] Setting up drop6
I0405 21:49:17.092519 26517 net.cpp:103] Top shape: 32 4096 1 1 (131072)
I0405 21:49:17.092527 26517 net.cpp:67] Creating Layer fc7
I0405 21:49:17.092531 26517 net.cpp:394] fc7 <- fc6
I0405 21:49:17.092537 26517 net.cpp:356] fc7 -> fc7
I0405 21:49:17.092548 26517 net.cpp:96] Setting up fc7
I0405 21:49:17.635381 26517 net.cpp:103] Top shape: 32 4096 1 1 (131072)
I0405 21:49:17.635443 26517 net.cpp:67] Creating Layer relu7
I0405 21:49:17.635452 26517 net.cpp:394] relu7 <- fc7
I0405 21:49:17.635462 26517 net.cpp:345] relu7 -> fc7 (in-place)
I0405 21:49:17.635470 26517 net.cpp:96] Setting up relu7
I0405 21:49:17.635490 26517 net.cpp:103] Top shape: 32 4096 1 1 (131072)
I0405 21:49:17.635498 26517 net.cpp:67] Creating Layer drop7
I0405 21:49:17.635501 26517 net.cpp:394] drop7 <- fc7
I0405 21:49:17.635506 26517 net.cpp:345] drop7 -> fc7 (in-place)
I0405 21:49:17.635514 26517 net.cpp:96] Setting up drop7
I0405 21:49:17.635519 26517 net.cpp:103] Top shape: 32 4096 1 1 (131072)
I0405 21:49:17.635527 26517 net.cpp:67] Creating Layer fc8_deepfashion
I0405 21:49:17.635531 26517 net.cpp:394] fc8_deepfashion <- fc7
I0405 21:49:17.635537 26517 net.cpp:356] fc8_deepfashion -> fc8_deepfashion
I0405 21:49:17.635545 26517 net.cpp:96] Setting up fc8_deepfashion
I0405 21:49:17.642180 26517 net.cpp:103] Top shape: 32 48 1 1 (1536)
I0405 21:49:17.642204 26517 net.cpp:67] Creating Layer fc8_deepfashion_encode
I0405 21:49:17.642210 26517 net.cpp:394] fc8_deepfashion_encode <- fc8_deepfashion
I0405 21:49:17.642216 26517 net.cpp:356] fc8_deepfashion_encode -> fc8_deepfashion_encode
I0405 21:49:17.642222 26517 net.cpp:96] Setting up fc8_deepfashion_encode
I0405 21:49:17.642236 26517 net.cpp:103] Top shape: 32 48 1 1 (1536)
I0405 21:49:17.642244 26517 net.cpp:67] Creating Layer fc8_deepfashion_encode_fc8_deepfashion_encode_0_split
I0405 21:49:17.642249 26517 net.cpp:394] fc8_deepfashion_encode_fc8_deepfashion_encode_0_split <- fc8_deepfashion_encode
I0405 21:49:17.642254 26517 net.cpp:356] fc8_deepfashion_encode_fc8_deepfashion_encode_0_split -> fc8_deepfashion_encode_fc8_deepfashion_encode_0_split_0
I0405 21:49:17.642261 26517 net.cpp:356] fc8_deepfashion_encode_fc8_deepfashion_encode_0_split -> fc8_deepfashion_encode_fc8_deepfashion_encode_0_split_1
I0405 21:49:17.642267 26517 net.cpp:96] Setting up fc8_deepfashion_encode_fc8_deepfashion_encode_0_split
I0405 21:49:17.642302 26517 net.cpp:103] Top shape: 32 48 1 1 (1536)
I0405 21:49:17.642307 26517 net.cpp:103] Top shape: 32 48 1 1 (1536)
I0405 21:49:17.642316 26517 net.cpp:67] Creating Layer fc8_pascal_label
I0405 21:49:17.642320 26517 net.cpp:394] fc8_pascal_label <- fc8_deepfashion_encode_fc8_deepfashion_encode_0_split_0
I0405 21:49:17.642326 26517 net.cpp:356] fc8_pascal_label -> fc8_pascal_label
I0405 21:49:17.642333 26517 net.cpp:96] Setting up fc8_pascal_label
I0405 21:49:17.642359 26517 net.cpp:103] Top shape: 32 10 1 1 (320)
I0405 21:49:17.642381 26517 net.cpp:67] Creating Layer fc8_pascal_color
I0405 21:49:17.642392 26517 net.cpp:394] fc8_pascal_color <- fc8_deepfashion_encode_fc8_deepfashion_encode_0_split_1
I0405 21:49:17.642400 26517 net.cpp:356] fc8_pascal_color -> fc8_pascal_color
I0405 21:49:17.642407 26517 net.cpp:96] Setting up fc8_pascal_color
I0405 21:49:17.642457 26517 net.cpp:103] Top shape: 32 16 1 1 (512)
I0405 21:49:17.642473 26517 net.cpp:67] Creating Layer loss
I0405 21:49:17.642478 26517 net.cpp:394] loss <- fc8_pascal_color
I0405 21:49:17.642483 26517 net.cpp:394] loss <- labels1
I0405 21:49:17.642495 26517 net.cpp:356] loss -> (automatic)
I0405 21:49:17.642506 26517 net.cpp:96] Setting up loss
I0405 21:49:17.642519 26517 net.cpp:103] Top shape: 1 1 1 1 (1)
I0405 21:49:17.642525 26517 net.cpp:109]     with loss weight 1
I0405 21:49:17.642590 26517 net.cpp:67] Creating Layer silence
I0405 21:49:17.642602 26517 net.cpp:394] silence <- labels0
I0405 21:49:17.642607 26517 net.cpp:394] silence <- random
I0405 21:49:17.642612 26517 net.cpp:394] silence <- fc8_pascal_label
I0405 21:49:17.642616 26517 net.cpp:96] Setting up silence
I0405 21:49:17.642621 26517 net.cpp:172] silence does not need backward computation.
…
layers {
  top: "data"
  top: "random"
  name: "data"
  type: DATA
  data_param {
    source: "/data/deepfashion/color_label_multilabel/color_label_multilabel_test"
    batch_size: 32
    backend: LMDB
  }
  include {
    phase: TEST
  }
  transform_param {
    mirror: true
    crop_size: 227
    mean_file: "../../../data/ilsvrc12/imagenet_mean.binaryproto"
  }
}
layers {
  top: "labels"
  name: "labels"
  type: DATA
  data_param {
    source: "/data/deepfashion/color_label_multilabel/color_label_multilabel_test_alt"
    batch_size: 32
    backend: LMDB
  }
  include {
    phase: TEST
  }
}
layers {
  bottom: "labels"
  top: "labels0"
  top: "labels1"
  name: "sliceL"
  type: SLICE
  slice_param {
    slice_point: 1
  }
}
layers {
  bottom: "data"
  top: "conv1"
  name: "conv1"
  type: CONVOLUTION
  blobs_lr: 1
  blobs_lr: 2
  weight_decay: 1
  weight_decay: 0
  convolution_param {
    num_output: 96
    kernel_size: 11
    stride: 4
    weight_filler {
      type: "gaussian"
      std: 0.01
    }
    bias_filler {
      type: "constant"
      value: 0
    }
  }
}
layers {
  bottom: "conv1"
  top: "conv1"
  name: "relu1"
  type: RELU
}
layers {
  bottom: "conv1"
  top: "pool1"
  name: "pool1"
  type: POOLING
  pooling_param {
    pool: MAX
    kernel_size: 3
    stride: 2
  }
}
layers {
  bottom: "pool1"
  top: "norm1"
  name: "norm1"
  type: LRN
  lrn_param {
    local_size: 5
    alpha: 0.0001
    beta: 0.75
  }
}
layers {
  bottom: "norm1"
  top: "conv2"
  name: "conv2"
  type: CONVOLUTION
  blobs_lr: 1
  blobs_lr: 2
  weight_decay: 1
  weight_decay: 0
  convolution_param {
    num_output: 256
    pad: 2
    kernel_size: 5
    group: 2
    weight_filler {
      type: "gaussian"
      std: 0.01
    }
    bias_filler {
      type: "constant"
      value: 1
    }
  }
}
layers {
  bottom: "conv2"
  top: "conv2"
  name: "relu2"
  type: RELU
}
layers {
  bottom: "conv2"
  top: "pool2"
  name: "pool2"
  type: POOLING
  pooling_param {
    pool: MAX
    kernel_size: 3
    stride: 2
  }
}
layers {
  bottom: "pool2"
  top: "norm2"
  name: "norm2"
  type: LRN
  lrn_param {
    local_size: 5
    alpha: 0.0001
    beta: 0.75
  }
}
layers {
  bottom: "norm2"
  top: "conv3"
  name: "conv3"
  type: CONVOLUTION
  blobs_lr: 1
  blobs_lr: 2
  weight_decay: 1
  weight_decay: 0
  convolution_param {
    num_output: 384
    pad: 1
    kernel_size: 3
    weight_filler {
      type: "gaussian"
      std: 0.01
    }
    bias_filler {
      type: "constant"
      value: 0
    }
  }
}
layers {
  bottom: "conv3"
  top: "conv3"
  name: "relu3"
  type: RELU
}
layers {
  bottom: "conv3"
  top: "conv4"
  name: "conv4"
  type: CONVOLUTION
  blobs_lr: 1
  blobs_lr: 2
  weight_decay: 1
  weight_decay: 0
  convolution_param {
    num_output: 384
    pad: 1
    kernel_size: 3
    group: 2
    weight_filler {
      type: "gaussian"
      std: 0.01
    }
    bias_filler {
      type: "constant"
      value: 1
    }
  }
}
layers {
  bottom: "conv4"
  top: "conv4"
  name: "relu4"
  type: RELU
}
layers {
  bottom: "conv4"
  top: "conv5"
  name: "conv5"
  type: CONVOLUTION
  blobs_lr: 1
  blobs_lr: 2
  weight_decay: 1
  weight_decay: 0
  convolution_param {
    num_output: 256
    pad: 1
    kernel_size: 3
    group: 2
    weight_filler {
      type: "gaussian"
      std: 0.01
    }
    bias_filler {
      type: "constant"
      value: 1
    }
  }
}
layers {
  bottom: "conv5"
  top: "conv5"
  name: "relu5"
  type: RELU
}
layers {
  bottom: "conv5"
  top: "pool5"
  name: "pool5"
  type: POOLING
  pooling_param {
    pool: MAX
    kernel_size: 3
    stride: 2
  }
}
layers {
  bottom: "pool5"
  top: "fc6"
  name: "fc6"
  type: INNER_PRODUCT
  blobs_lr: 1
  blobs_lr: 2
  weight_decay: 1
  weight_decay: 0
  inner_product_param {
    num_output: 4096
    weight_filler {
      type: "gaussian"
      std: 0.005
    }
    bias_filler {
      type: "constant"
      value: 1
    }
  }
}
layers {
  bottom: "fc6"
  top: "fc6"
  name: "relu6"
  type: RELU
}
layers {
  bottom: "fc6"
  top: "fc6"
  name: "drop6"
  type: DROPOUT
  dropout_param {
    dropout_ratio: 0.5
  }
}
layers {
  bottom: "fc6"
  top: "fc7"
  name: "fc7"
  type: INNER_PRODUCT
  blobs_lr: 1
  blobs_lr: 2
  weight_decay: 1
  weight_decay: 0
  inner_product_param {
    num_output: 4096
    weight_filler {
      type: "gaussian"
      std: 0.005
    }
    bias_filler {
      type: "constant"
      value: 1
    }
  }
}
layers {
  bottom: "fc7"
  top: "fc7"
  name: "relu7"
  type: RELU
}
layers {
  bottom: "fc7"
  top: "fc7"
  name: "drop7"
  type: DROPOUT
  dropout_param {
    dropout_ratio: 0.5
  }
}
layers {
  bottom: "fc7"
  top: "fc8_deepfashion"
  name: "fc8_deepfashion"
  type: INNER_PRODUCT
  blobs_lr: 10
  blobs_lr: 20
  weight_decay: 1
  weight_decay: 0
  inner_product_param {
    num_output: 48
    weight_filler {
      type: "gaussian"
      std: 0.01
    }
    bias_filler {
      type: "constant"
      value: 0
    }
  }
}
layers {
  bottom: "fc8_deepfashion"
  top: "fc8_deepfashion_encode"
  name: "fc8_deepfashion_encode"
  type: SIGMOID
}
layers {
  bottom: "fc8_deepfashion_encode"
  top: "fc8_pascal_label"
  name: "fc8_pascal_label"
  type: INNER_PRODUCT
  blobs_lr: 0
  blobs_lr: 0
  weight_decay: 1
  weight_decay: 0
  inner_product_param {
    num_output: 10
    weight_filler {
      type: "gaussian"
      std: 0.01
    }
    bias_filler {
      type: "constant"
      value: 0
    }
  }
}
layers {
  bottom: "fc8_deepfashion_encode"
  top: "fc8_pascal_color"
  name: "fc8_pascal_color"
  type: INNER_PRODUCT
  blobs_lr: 10
  blobs_lr: 20
  weight_decay: 1
  weight_decay: 0
  inner_product_param {
    num_output: 16
    weight_filler {
      type: "gaussian"
      std: 0.01
    }
    bias_filler {
      type: "constant"
      value: 0
    }
  }
}
layers {
  bottom: "fc8_pascal_color"
  bottom: "labels1"
  name: "loss"
  type: SOFTMAX_LOSS
}
layers {
  bottom: "fc8_pascal_color"
  bottom: "labels1"
  top: "accuracy"
  name: "accuracy"
  type: ACCURACY
  include {
    phase: TEST
  }
}
layers {
  bottom: "labels0"
  bottom: "random"
  bottom: "fc8_pascal_label"
  name: "silence"
  type: SILENCE
}
state {
  phase: TEST
}
I0405 21:49:17.644029 26517 net.cpp:67] Creating Layer data
I0405 21:49:17.644037 26517 net.cpp:356] data -> data
I0405 21:49:17.644047 26517 net.cpp:356] data -> random
I0405 21:49:17.644053 26517 net.cpp:96] Setting up data
I0405 21:49:17.644124 26517 data_layer.cpp:68] Opening lmdb /data/deepfashion/color_label_multilabel/color_label_multilabel_test
I0405 21:49:17.644281 26517 data_layer.cpp:128] output data size: 32,3,227,227
I0405 21:49:17.644289 26517 base_data_layer.cpp:36] Loading mean file from../../../data/ilsvrc12/imagenet_mean.binaryproto
I0405 21:49:17.651253 26517 net.cpp:103] Top shape: 32 3 227 227 (4946784)
I0405 21:49:17.651288 26517 net.cpp:103] Top shape: 32 1 1 1 (32)
I0405 21:49:17.651305 26517 net.cpp:67] Creating Layer labels
I0405 21:49:17.651312 26517 net.cpp:356] labels -> labels
I0405 21:49:17.651324 26517 net.cpp:96] Setting up labels
I0405 21:49:17.651401 26517 data_layer.cpp:68] Opening lmdb /data/deepfashion/color_label_multilabel/color_label_multilabel_test_alt
I0405 21:49:17.651423 26517 data_layer.cpp:128] output data size: 32,2,1,1
I0405 21:49:17.651458 26517 net.cpp:103] Top shape: 32 2 1 1 (64)
I0405 21:49:17.651473 26517 net.cpp:67] Creating Layer sliceL
I0405 21:49:17.651479 26517 net.cpp:394] sliceL <- labels
I0405 21:49:17.651485 26517 net.cpp:356] sliceL -> labels0
I0405 21:49:17.651516 26517 net.cpp:356] sliceL -> labels1
I0405 21:49:17.651525 26517 net.cpp:96] Setting up sliceL
I0405 21:49:17.651531 26517 net.cpp:103] Top shape: 32 1 1 1 (32)
I0405 21:49:17.651535 26517 net.cpp:103] Top shape: 32 1 1 1 (32)
I0405 21:49:17.651541 26517 net.cpp:67] Creating Layer labels1_sliceL_1_split
I0405 21:49:17.651546 26517 net.cpp:394] labels1_sliceL_1_split <- labels1
I0405 21:49:17.651551 26517 net.cpp:356] labels1_sliceL_1_split -> labels1_sliceL_1_split_0
I0405 21:49:17.651557 26517 net.cpp:356] labels1_sliceL_1_split -> labels1_sliceL_1_split_1
I0405 21:49:17.651563 26517 net.cpp:96] Setting up labels1_sliceL_1_split
I0405 21:49:17.651567 26517 net.cpp:103] Top shape: 32 1 1 1 (32)
I0405 21:49:17.651571 26517 net.cpp:103] Top shape: 32 1 1 1 (32)
I0405 21:49:17.651579 26517 net.cpp:67] Creating Layer conv1
I0405 21:49:17.651590 26517 net.cpp:394] conv1 <- data
I0405 21:49:17.651598 26517 net.cpp:356] conv1 -> conv1
I0405 21:49:17.651605 26517 net.cpp:96] Setting up conv1
I0405 21:49:17.652822 26517 net.cpp:103] Top shape: 32 96 55 55 (9292800)
I0405 21:49:17.652865 26517 net.cpp:67] Creating Layer relu1
I0405 21:49:17.652873 26517 net.cpp:394] relu1 <- conv1
I0405 21:49:17.652878 26517 net.cpp:345] relu1 -> conv1 (in-place)
I0405 21:49:17.652884 26517 net.cpp:96] Setting up relu1
I0405 21:49:17.652892 26517 net.cpp:103] Top shape: 32 96 55 55 (9292800)
I0405 21:49:17.652899 26517 net.cpp:67] Creating Layer pool1
I0405 21:49:17.652902 26517 net.cpp:394] pool1 <- conv1
I0405 21:49:17.652909 26517 net.cpp:356] pool1 -> pool1
I0405 21:49:17.652915 26517 net.cpp:96] Setting up pool1
I0405 21:49:17.652923 26517 net.cpp:103] Top shape: 32 96 27 27 (2239488)
I0405 21:49:17.652931 26517 net.cpp:67] Creating Layer norm1
I0405 21:49:17.652935 26517 net.cpp:394] norm1 <- pool1
I0405 21:49:17.652940 26517 net.cpp:356] norm1 -> norm1
I0405 21:49:17.652945 26517 net.cpp:96] Setting up norm1
I0405 21:49:17.652951 26517 net.cpp:103] Top shape: 32 96 27 27 (2239488)
I0405 21:49:17.652958 26517 net.cpp:67] Creating Layer conv2
I0405 21:49:17.652962 26517 net.cpp:394] conv2 <- norm1
I0405 21:49:17.652968 26517 net.cpp:356] conv2 -> conv2
I0405 21:49:17.652973 26517 net.cpp:96] Setting up conv2
I0405 21:49:17.663126 26517 net.cpp:103] Top shape: 32 256 27 27 (5971968)
I0405 21:49:17.663164 26517 net.cpp:67] Creating Layer relu2
I0405 21:49:17.663171 26517 net.cpp:394] relu2 <- conv2
I0405 21:49:17.663177 26517 net.cpp:345] relu2 -> conv2 (in-place)
I0405 21:49:17.663184 26517 net.cpp:96] Setting up relu2
I0405 21:49:17.663192 26517 net.cpp:103] Top shape: 32 256 27 27 (5971968)
I0405 21:49:17.663200 26517 net.cpp:67] Creating Layer pool2
I0405 21:49:17.663204 26517 net.cpp:394] pool2 <- conv2
I0405 21:49:17.663209 26517 net.cpp:356] pool2 -> pool2
I0405 21:49:17.663215 26517 net.cpp:96] Setting up pool2
I0405 21:49:17.663223 26517 net.cpp:103] Top shape: 32 256 13 13 (1384448)
I0405 21:49:17.663233 26517 net.cpp:67] Creating Layer norm2
I0405 21:49:17.663244 26517 net.cpp:394] norm2 <- pool2
I0405 21:49:17.663250 26517 net.cpp:356] norm2 -> norm2
I0405 21:49:17.663256 26517 net.cpp:96] Setting up norm2
I0405 21:49:17.663260 26517 net.cpp:103] Top shape: 32 256 13 13 (1384448)
I0405 21:49:17.663269 26517 net.cpp:67] Creating Layer conv3
I0405 21:49:17.663275 26517 net.cpp:394] conv3 <- norm2
I0405 21:49:17.663280 26517 net.cpp:356] conv3 -> conv3
I0405 21:49:17.663285 26517 net.cpp:96] Setting up conv3
I0405 21:49:17.692263 26517 net.cpp:103] Top shape: 32 384 13 13 (2076672)
I0405 21:49:17.692307 26517 net.cpp:67] Creating Layer relu3
I0405 21:49:17.692313 26517 net.cpp:394] relu3 <- conv3
I0405 21:49:17.692320 26517 net.cpp:345] relu3 -> conv3 (in-place)
I0405 21:49:17.692327 26517 net.cpp:96] Setting up relu3
I0405 21:49:17.692334 26517 net.cpp:103] Top shape: 32 384 13 13 (2076672)
I0405 21:49:17.692344 26517 net.cpp:67] Creating Layer conv4
I0405 21:49:17.692348 26517 net.cpp:394] conv4 <- conv3
I0405 21:49:17.692354 26517 net.cpp:356] conv4 -> conv4
I0405 21:49:17.692361 26517 net.cpp:96] Setting up conv4
I0405 21:49:17.714223 26517 net.cpp:103] Top shape: 32 384 13 13 (2076672)
I0405 21:49:17.714246 26517 net.cpp:67] Creating Layer relu4
I0405 21:49:17.714252 26517 net.cpp:394] relu4 <- conv4
I0405 21:49:17.714258 26517 net.cpp:345] relu4 -> conv4 (in-place)
I0405 21:49:17.714263 26517 net.cpp:96] Setting up relu4
I0405 21:49:17.714270 26517 net.cpp:103] Top shape: 32 384 13 13 (2076672)
I0405 21:49:17.714282 26517 net.cpp:67] Creating Layer conv5
I0405 21:49:17.714287 26517 net.cpp:394] conv5 <- conv4
I0405 21:49:17.714294 26517 net.cpp:356] conv5 -> conv5
I0405 21:49:17.714300 26517 net.cpp:96] Setting up conv5
I0405 21:49:17.729190 26517 net.cpp:103] Top shape: 32 256 13 13 (1384448)
I0405 21:49:17.729220 26517 net.cpp:67] Creating Layer relu5
I0405 21:49:17.729226 26517 net.cpp:394] relu5 <- conv5
I0405 21:49:17.729233 26517 net.cpp:345] relu5 -> conv5 (in-place)
I0405 21:49:17.729239 26517 net.cpp:96] Setting up relu5
I0405 21:49:17.729246 26517 net.cpp:103] Top shape: 32 256 13 13 (1384448)
I0405 21:49:17.729252 26517 net.cpp:67] Creating Layer pool5
I0405 21:49:17.729256 26517 net.cpp:394] pool5 <- conv5
I0405 21:49:17.729264 26517 net.cpp:356] pool5 -> pool5
I0405 21:49:17.729272 26517 net.cpp:96] Setting up pool5
I0405 21:49:17.729281 26517 net.cpp:103] Top shape: 32 256 6 6 (294912)
I0405 21:49:17.729290 26517 net.cpp:67] Creating Layer fc6
I0405 21:49:17.729293 26517 net.cpp:394] fc6 <- pool5
I0405 21:49:17.729300 26517 net.cpp:356] fc6 -> fc6
I0405 21:49:17.729305 26517 net.cpp:96] Setting up fc6
I0405 21:49:18.949462 26517 net.cpp:103] Top shape: 32 4096 1 1 (131072)
I0405 21:49:18.949523 26517 net.cpp:67] Creating Layer relu6
I0405 21:49:18.949532 26517 net.cpp:394] relu6 <- fc6
I0405 21:49:18.949539 26517 net.cpp:345] relu6 -> fc6 (in-place)
I0405 21:49:18.949548 26517 net.cpp:96] Setting up relu6
I0405 21:49:18.949569 26517 net.cpp:103] Top shape: 32 4096 1 1 (131072)
I0405 21:49:18.949579 26517 net.cpp:67] Creating Layer drop6
I0405 21:49:18.949582 26517 net.cpp:394] drop6 <- fc6
I0405 21:49:18.949589 26517 net.cpp:345] drop6 -> fc6 (in-place)
I0405 21:49:18.949594 26517 net.cpp:96] Setting up drop6
I0405 21:49:18.949599 26517 net.cpp:103] Top shape: 32 4096 1 1 (131072)
I0405 21:49:18.949606 26517 net.cpp:67] Creating Layer fc7
I0405 21:49:18.949610 26517 net.cpp:394] fc7 <- fc6
I0405 21:49:18.949617 26517 net.cpp:356] fc7 -> fc7
I0405 21:49:18.949625 26517 net.cpp:96] Setting up fc7
I0405 21:49:19.492925 26517 net.cpp:103] Top shape: 32 4096 1 1 (131072)
I0405 21:49:19.492980 26517 net.cpp:67] Creating Layer relu7
I0405 21:49:19.492987 26517 net.cpp:394] relu7 <- fc7
I0405 21:49:19.492998 26517 net.cpp:345] relu7 -> fc7 (in-place)
I0405 21:49:19.493007 26517 net.cpp:96] Setting up relu7
I0405 21:49:19.493027 26517 net.cpp:103] Top shape: 32 4096 1 1 (131072)
I0405 21:49:19.493033 26517 net.cpp:67] Creating Layer drop7
I0405 21:49:19.493037 26517 net.cpp:394] drop7 <- fc7
I0405 21:49:19.493043 26517 net.cpp:345] drop7 -> fc7 (in-place)
I0405 21:49:19.493049 26517 net.cpp:96] Setting up drop7
I0405 21:49:19.493053 26517 net.cpp:103] Top shape: 32 4096 1 1 (131072)
I0405 21:49:19.493065 26517 net.cpp:67] Creating Layer fc8_deepfashion
I0405 21:49:19.493069 26517 net.cpp:394] fc8_deepfashion <- fc7
I0405 21:49:19.493075 26517 net.cpp:356] fc8_deepfashion -> fc8_deepfashion
I0405 21:49:19.493083 26517 net.cpp:96] Setting up fc8_deepfashion
I0405 21:49:19.499573 26517 net.cpp:103] Top shape: 32 48 1 1 (1536)
I0405 21:49:19.499596 26517 net.cpp:67] Creating Layer fc8_deepfashion_encode
I0405 21:49:19.499601 26517 net.cpp:394] fc8_deepfashion_encode <- fc8_deepfashion
I0405 21:49:19.499608 26517 net.cpp:356] fc8_deepfashion_encode -> fc8_deepfashion_encode
I0405 21:49:19.499614 26517 net.cpp:96] Setting up fc8_deepfashion_encode
I0405 21:49:19.499624 26517 net.cpp:103] Top shape: 32 48 1 1 (1536)
I0405 21:49:19.499631 26517 net.cpp:67] Creating Layer fc8_deepfashion_encode_fc8_deepfashion_encode_0_split
I0405 21:49:19.499635 26517 net.cpp:394] fc8_deepfashion_encode_fc8_deepfashion_encode_0_split <- fc8_deepfashion_encode
I0405 21:49:19.499668 26517 net.cpp:356] fc8_deepfashion_encode_fc8_deepfashion_encode_0_split -> fc8_deepfashion_encode_fc8_deepfashion_encode_0_split_0
I0405 21:49:19.499676 26517 net.cpp:356] fc8_deepfashion_encode_fc8_deepfashion_encode_0_split -> fc8_deepfashion_encode_fc8_deepfashion_encode_0_split_1
I0405 21:49:19.499683 26517 net.cpp:96] Setting up fc8_deepfashion_encode_fc8_deepfashion_encode_0_split
I0405 21:49:19.499688 26517 net.cpp:103] Top shape: 32 48 1 1 (1536)
I0405 21:49:19.499691 26517 net.cpp:103] Top shape: 32 48 1 1 (1536)
I0405 21:49:19.499701 26517 net.cpp:67] Creating Layer fc8_pascal_label
I0405 21:49:19.499704 26517 net.cpp:394] fc8_pascal_label <- fc8_deepfashion_encode_fc8_deepfashion_encode_0_split_0
I0405 21:49:19.499711 26517 net.cpp:356] fc8_pascal_label -> fc8_pascal_label
I0405 21:49:19.499716 26517 net.cpp:96] Setting up fc8_pascal_label
I0405 21:49:19.499758 26517 net.cpp:103] Top shape: 32 10 1 1 (320)
I0405 21:49:19.499783 26517 net.cpp:67] Creating Layer fc8_pascal_color
I0405 21:49:19.499789 26517 net.cpp:394] fc8_pascal_color <- fc8_deepfashion_encode_fc8_deepfashion_encode_0_split_1
I0405 21:49:19.499804 26517 net.cpp:356] fc8_pascal_color -> fc8_pascal_color
I0405 21:49:19.499817 26517 net.cpp:96] Setting up fc8_pascal_color
I0405 21:49:19.499855 26517 net.cpp:103] Top shape: 32 16 1 1 (512)
I0405 21:49:19.499873 26517 net.cpp:67] Creating Layer fc8_pascal_color_fc8_pascal_color_0_split
I0405 21:49:19.499882 26517 net.cpp:394] fc8_pascal_color_fc8_pascal_color_0_split <- fc8_pascal_color
I0405 21:49:19.499894 26517 net.cpp:356] fc8_pascal_color_fc8_pascal_color_0_split -> fc8_pascal_color_fc8_pascal_color_0_split_0
I0405 21:49:19.499902 26517 net.cpp:356] fc8_pascal_color_fc8_pascal_color_0_split -> fc8_pascal_color_fc8_pascal_color_0_split_1
I0405 21:49:19.499907 26517 net.cpp:96] Setting up fc8_pascal_color_fc8_pascal_color_0_split
I0405 21:49:19.499912 26517 net.cpp:103] Top shape: 32 16 1 1 (512)
I0405 21:49:19.499917 26517 net.cpp:103] Top shape: 32 16 1 1 (512)
I0405 21:49:19.499923 26517 net.cpp:67] Creating Layer loss
I0405 21:49:19.499928 26517 net.cpp:394] loss <- fc8_pascal_color_fc8_pascal_color_0_split_0
I0405 21:49:19.499933 26517 net.cpp:394] loss <- labels1_sliceL_1_split_0
I0405 21:49:19.499940 26517 net.cpp:356] loss -> (automatic)
I0405 21:49:19.499949 26517 net.cpp:96] Setting up loss
I0405 21:49:19.499969 26517 net.cpp:103] Top shape: 1 1 1 1 (1)
I0405 21:49:19.499982 26517 net.cpp:109]     with loss weight 1
I0405 21:49:19.500020 26517 net.cpp:67] Creating Layer accuracy
I0405 21:49:19.500025 26517 net.cpp:394] accuracy <- fc8_pascal_color_fc8_pascal_color_0_split_1
I0405 21:49:19.500031 26517 net.cpp:394] accuracy <- labels1_sliceL_1_split_1
I0405 21:49:19.500037 26517 net.cpp:356] accuracy -> accuracy
I0405 21:49:19.500048 26517 net.cpp:96] Setting up accuracy
I0405 21:49:19.500058 26517 net.cpp:103] Top shape: 1 1 1 1 (1)
I0405 21:49:19.500063 26517 net.cpp:67] Creating Layer silence
I0405 21:49:19.500067 26517 net.cpp:394] silence <- labels0
I0405 21:49:19.500072 26517 net.cpp:394] silence <- random
I0405 21:49:19.500077 26517 net.cpp:394] silence <- fc8_pascal_label
I0405 21:49:19.500082 26517 net.cpp:96] Setting up silence
I0405 21:49:19.500085 26517 net.cpp:172] silence does not need backward computation.
…
