I0328 18:49:59.095016  3105 caffe.cpp:99] Use GPU with device ID 0
I0328 18:49:59.455166  3105 caffe.cpp:107] Starting Optimization
I0328 18:49:59.455291  3105 solver.cpp:32] Initializing solver from parameters: 
train_net: "train_fashion_48.prototxt"
test_net: "test_fashion_48.prototxt"
test_iter: 100
test_interval: 100
base_lr: 0.001
display: 20
max_iter: 50000
lr_policy: "step"
gamma: 0.1
momentum: 0.9
weight_decay: 0.0005
stepsize: 25000
snapshot: 10000
snapshot_prefix: "/data/deepfashion/color_label_jabong/snapshot/color_label_jabong"
I0328 18:49:59.455324  3105 solver.cpp:58] Creating training net from train_net file: train_fashion_48.prototxt
E0328 18:49:59.456714  3105 upgrade_proto.cpp:594] Attempting to upgrade input file specified using deprecated V0LayerParameter: train_fashion_48.prototxt
E0328 18:49:59.457132  3105 upgrade_proto.cpp:395] Unknown parameter det_fg_threshold for layer type data
E0328 18:49:59.457157  3105 upgrade_proto.cpp:405] Unknown parameter det_bg_threshold for layer type data
E0328 18:49:59.457166  3105 upgrade_proto.cpp:415] Unknown parameter det_fg_fraction for layer type data
E0328 18:49:59.457175  3105 upgrade_proto.cpp:425] Unknown parameter det_context_pad for layer type data
E0328 18:49:59.457182  3105 upgrade_proto.cpp:435] Unknown parameter det_crop_mode for layer type data
E0328 18:49:59.457234  3105 upgrade_proto.cpp:598] Warning: had one or more problems upgrading V0NetParameter to NetParameter (see above); continuing anyway.
E0328 18:49:59.457250  3105 upgrade_proto.cpp:604] Note that future Caffe releases will not support V0NetParameter; use ./build/tools/upgrade_net_proto_text for prototxt and ./build/tools/upgrade_net_proto_binary for model weights upgrade this and any other net protos to the new format.
I0328 18:49:59.457510  3105 net.cpp:39] Initializing net from parameters: 
name: "deepFashion"
layers {
  top: "data"
  top: "label"
  name: "data"
  type: DATA
  data_param {
    source: "/data/deepfashion/color_label_jabong/color_label_jabong_TRAIN"
    batch_size: 32
  }
  transform_param {
    mirror: true
    crop_size: 227
    mean_file: "../../../data/ilsvrc12/imagenet_mean.binaryproto"
  }
}
layers {
  bottom: "data"
  top: "conv1"
  name: "conv1"
  type: CONVOLUTION
  blobs_lr: 1
  blobs_lr: 2
  weight_decay: 1
  weight_decay: 0
  convolution_param {
    num_output: 96
    kernel_size: 11
    stride: 4
    weight_filler {
      type: "gaussian"
      std: 0.01
    }
    bias_filler {
      type: "constant"
      value: 0
    }
  }
}
layers {
  bottom: "conv1"
  top: "conv1"
  name: "relu1"
  type: RELU
}
layers {
  bottom: "conv1"
  top: "pool1"
  name: "pool1"
  type: POOLING
  pooling_param {
    pool: MAX
    kernel_size: 3
    stride: 2
  }
}
layers {
  bottom: "pool1"
  top: "norm1"
  name: "norm1"
  type: LRN
  lrn_param {
    local_size: 5
    alpha: 0.0001
    beta: 0.75
  }
}
layers {
  bottom: "norm1"
  top: "conv2"
  name: "conv2"
  type: CONVOLUTION
  blobs_lr: 1
  blobs_lr: 2
  weight_decay: 1
  weight_decay: 0
  convolution_param {
    num_output: 256
    pad: 2
    kernel_size: 5
    group: 2
    weight_filler {
      type: "gaussian"
      std: 0.01
    }
    bias_filler {
      type: "constant"
      value: 1
    }
  }
}
layers {
  bottom: "conv2"
  top: "conv2"
  name: "relu2"
  type: RELU
}
layers {
  bottom: "conv2"
  top: "pool2"
  name: "pool2"
  type: POOLING
  pooling_param {
    pool: MAX
    kernel_size: 3
    stride: 2
  }
}
layers {
  bottom: "pool2"
  top: "norm2"
  name: "norm2"
  type: LRN
  lrn_param {
    local_size: 5
    alpha: 0.0001
    beta: 0.75
  }
}
layers {
  bottom: "norm2"
  top: "conv3"
  name: "conv3"
  type: CONVOLUTION
  blobs_lr: 1
  blobs_lr: 2
  weight_decay: 1
  weight_decay: 0
  convolution_param {
    num_output: 384
    pad: 1
    kernel_size: 3
    weight_filler {
      type: "gaussian"
      std: 0.01
    }
    bias_filler {
      type: "constant"
      value: 0
    }
  }
}
layers {
  bottom: "conv3"
  top: "conv3"
  name: "relu3"
  type: RELU
}
layers {
  bottom: "conv3"
  top: "conv4"
  name: "conv4"
  type: CONVOLUTION
  blobs_lr: 1
  blobs_lr: 2
  weight_decay: 1
  weight_decay: 0
  convolution_param {
    num_output: 384
    pad: 1
    kernel_size: 3
    group: 2
    weight_filler {
      type: "gaussian"
      std: 0.01
    }
    bias_filler {
      type: "constant"
      value: 1
    }
  }
}
layers {
  bottom: "conv4"
  top: "conv4"
  name: "relu4"
  type: RELU
}
layers {
  bottom: "conv4"
  top: "conv5"
  name: "conv5"
  type: CONVOLUTION
  blobs_lr: 1
  blobs_lr: 2
  weight_decay: 1
  weight_decay: 0
  convolution_param {
    num_output: 256
    pad: 1
    kernel_size: 3
    group: 2
    weight_filler {
      type: "gaussian"
      std: 0.01
    }
    bias_filler {
      type: "constant"
      value: 1
    }
  }
}
layers {
  bottom: "conv5"
  top: "conv5"
  name: "relu5"
  type: RELU
}
layers {
  bottom: "conv5"
  top: "pool5"
  name: "pool5"
  type: POOLING
  pooling_param {
    pool: MAX
    kernel_size: 3
    stride: 2
  }
}
layers {
  bottom: "pool5"
  top: "fc6"
  name: "fc6"
  type: INNER_PRODUCT
  blobs_lr: 1
  blobs_lr: 2
  weight_decay: 1
  weight_decay: 0
  inner_product_param {
    num_output: 4096
    weight_filler {
      type: "gaussian"
      std: 0.005
    }
    bias_filler {
      type: "constant"
      value: 1
    }
  }
}
layers {
  bottom: "fc6"
  top: "fc6"
  name: "relu6"
  type: RELU
}
layers {
  bottom: "fc6"
  top: "fc6"
  name: "drop6"
  type: DROPOUT
  dropout_param {
    dropout_ratio: 0.5
  }
}
layers {
  bottom: "fc6"
  top: "fc7"
  name: "fc7"
  type: INNER_PRODUCT
  blobs_lr: 1
  blobs_lr: 2
  weight_decay: 1
  weight_decay: 0
  inner_product_param {
    num_output: 4096
    weight_filler {
      type: "gaussian"
      std: 0.005
    }
    bias_filler {
      type: "constant"
      value: 1
    }
  }
}
layers {
  bottom: "fc7"
  top: "fc7"
  name: "relu7"
  type: RELU
}
layers {
  bottom: "fc7"
  top: "fc7"
  name: "drop7"
  type: DROPOUT
  dropout_param {
    dropout_ratio: 0.5
  }
}
layers {
  bottom: "fc7"
  top: "fc8_kevin"
  name: "fc8_kevin"
  type: INNER_PRODUCT
  blobs_lr: 1
  blobs_lr: 2
  weight_decay: 1
  weight_decay: 0
  inner_product_param {
    num_output: 48
    weight_filler {
      type: "gaussian"
      std: 0.005
    }
    bias_filler {
      type: "constant"
      value: 1
    }
  }
}
layers {
  bottom: "fc8_kevin"
  top: "fc8_kevin_encode"
  name: "fc8_kevin_encode"
  type: SIGMOID
}
layers {
  bottom: "fc8_kevin_encode"
  top: "fc8_pascal"
  name: "fc8_pascal"
  type: INNER_PRODUCT
  blobs_lr: 10
  blobs_lr: 20
  weight_decay: 1
  weight_decay: 0
  inner_product_param {
    num_output: 31
    weight_filler {
      type: "gaussian"
      std: 0.01
    }
    bias_filler {
      type: "constant"
      value: 0
    }
  }
}
layers {
  bottom: "fc8_pascal"
  bottom: "label"
  name: "loss"
  type: SOFTMAX_LOSS
}
state {
  phase: TRAIN
}
I0328 18:49:59.459684  3105 net.cpp:67] Creating Layer data
I0328 18:49:59.459705  3105 net.cpp:356] data -> data
I0328 18:49:59.459720  3105 net.cpp:356] data -> label
I0328 18:49:59.459738  3105 net.cpp:96] Setting up data
I0328 18:49:59.460861  3105 data_layer.cpp:45] Opening leveldb /data/deepfashion/color_label_jabong/color_label_jabong_TRAIN
I0328 18:49:59.501329  3105 data_layer.cpp:128] output data size: 32,3,227,227
I0328 18:49:59.501355  3105 base_data_layer.cpp:36] Loading mean file from../../../data/ilsvrc12/imagenet_mean.binaryproto
I0328 18:49:59.515163  3105 net.cpp:103] Top shape: 32 3 227 227 (4946784)
I0328 18:49:59.515199  3105 net.cpp:103] Top shape: 32 1 1 1 (32)
I0328 18:49:59.515220  3105 net.cpp:67] Creating Layer conv1
I0328 18:49:59.515228  3105 net.cpp:394] conv1 <- data
I0328 18:49:59.515240  3105 net.cpp:356] conv1 -> conv1
I0328 18:49:59.515255  3105 net.cpp:96] Setting up conv1
I0328 18:49:59.629681  3105 net.cpp:103] Top shape: 32 96 55 55 (9292800)
I0328 18:49:59.629747  3105 net.cpp:67] Creating Layer relu1
I0328 18:49:59.629755  3105 net.cpp:394] relu1 <- conv1
I0328 18:49:59.629763  3105 net.cpp:345] relu1 -> conv1 (in-place)
I0328 18:49:59.629776  3105 net.cpp:96] Setting up relu1
I0328 18:49:59.629788  3105 net.cpp:103] Top shape: 32 96 55 55 (9292800)
I0328 18:49:59.629796  3105 net.cpp:67] Creating Layer pool1
I0328 18:49:59.629828  3105 net.cpp:394] pool1 <- conv1
I0328 18:49:59.629835  3105 net.cpp:356] pool1 -> pool1
I0328 18:49:59.629842  3105 net.cpp:96] Setting up pool1
I0328 18:49:59.629866  3105 net.cpp:103] Top shape: 32 96 27 27 (2239488)
I0328 18:49:59.629881  3105 net.cpp:67] Creating Layer norm1
I0328 18:49:59.629886  3105 net.cpp:394] norm1 <- pool1
I0328 18:49:59.629891  3105 net.cpp:356] norm1 -> norm1
I0328 18:49:59.629900  3105 net.cpp:96] Setting up norm1
I0328 18:49:59.629925  3105 net.cpp:103] Top shape: 32 96 27 27 (2239488)
I0328 18:49:59.629940  3105 net.cpp:67] Creating Layer conv2
I0328 18:49:59.629945  3105 net.cpp:394] conv2 <- norm1
I0328 18:49:59.629951  3105 net.cpp:356] conv2 -> conv2
I0328 18:49:59.629958  3105 net.cpp:96] Setting up conv2
I0328 18:49:59.640179  3105 net.cpp:103] Top shape: 32 256 27 27 (5971968)
I0328 18:49:59.640203  3105 net.cpp:67] Creating Layer relu2
I0328 18:49:59.640209  3105 net.cpp:394] relu2 <- conv2
I0328 18:49:59.640218  3105 net.cpp:345] relu2 -> conv2 (in-place)
I0328 18:49:59.640223  3105 net.cpp:96] Setting up relu2
I0328 18:49:59.640230  3105 net.cpp:103] Top shape: 32 256 27 27 (5971968)
I0328 18:49:59.640236  3105 net.cpp:67] Creating Layer pool2
I0328 18:49:59.640240  3105 net.cpp:394] pool2 <- conv2
I0328 18:49:59.640245  3105 net.cpp:356] pool2 -> pool2
I0328 18:49:59.640250  3105 net.cpp:96] Setting up pool2
I0328 18:49:59.640257  3105 net.cpp:103] Top shape: 32 256 13 13 (1384448)
I0328 18:49:59.640266  3105 net.cpp:67] Creating Layer norm2
I0328 18:49:59.640270  3105 net.cpp:394] norm2 <- pool2
I0328 18:49:59.640275  3105 net.cpp:356] norm2 -> norm2
I0328 18:49:59.640281  3105 net.cpp:96] Setting up norm2
I0328 18:49:59.640285  3105 net.cpp:103] Top shape: 32 256 13 13 (1384448)
I0328 18:49:59.640295  3105 net.cpp:67] Creating Layer conv3
I0328 18:49:59.640297  3105 net.cpp:394] conv3 <- norm2
I0328 18:49:59.640303  3105 net.cpp:356] conv3 -> conv3
I0328 18:49:59.640310  3105 net.cpp:96] Setting up conv3
I0328 18:49:59.669419  3105 net.cpp:103] Top shape: 32 384 13 13 (2076672)
I0328 18:49:59.669443  3105 net.cpp:67] Creating Layer relu3
I0328 18:49:59.669448  3105 net.cpp:394] relu3 <- conv3
I0328 18:49:59.669456  3105 net.cpp:345] relu3 -> conv3 (in-place)
I0328 18:49:59.669462  3105 net.cpp:96] Setting up relu3
I0328 18:49:59.669469  3105 net.cpp:103] Top shape: 32 384 13 13 (2076672)
I0328 18:49:59.669476  3105 net.cpp:67] Creating Layer conv4
I0328 18:49:59.669479  3105 net.cpp:394] conv4 <- conv3
I0328 18:49:59.669486  3105 net.cpp:356] conv4 -> conv4
I0328 18:49:59.669492  3105 net.cpp:96] Setting up conv4
I0328 18:49:59.691478  3105 net.cpp:103] Top shape: 32 384 13 13 (2076672)
I0328 18:49:59.691504  3105 net.cpp:67] Creating Layer relu4
I0328 18:49:59.691509  3105 net.cpp:394] relu4 <- conv4
I0328 18:49:59.691515  3105 net.cpp:345] relu4 -> conv4 (in-place)
I0328 18:49:59.691521  3105 net.cpp:96] Setting up relu4
I0328 18:49:59.691527  3105 net.cpp:103] Top shape: 32 384 13 13 (2076672)
I0328 18:49:59.691535  3105 net.cpp:67] Creating Layer conv5
I0328 18:49:59.691540  3105 net.cpp:394] conv5 <- conv4
I0328 18:49:59.691550  3105 net.cpp:356] conv5 -> conv5
I0328 18:49:59.691556  3105 net.cpp:96] Setting up conv5
I0328 18:49:59.706184  3105 net.cpp:103] Top shape: 32 256 13 13 (1384448)
I0328 18:49:59.706210  3105 net.cpp:67] Creating Layer relu5
I0328 18:49:59.706217  3105 net.cpp:394] relu5 <- conv5
I0328 18:49:59.706221  3105 net.cpp:345] relu5 -> conv5 (in-place)
I0328 18:49:59.706228  3105 net.cpp:96] Setting up relu5
I0328 18:49:59.706234  3105 net.cpp:103] Top shape: 32 256 13 13 (1384448)
I0328 18:49:59.706244  3105 net.cpp:67] Creating Layer pool5
I0328 18:49:59.706248  3105 net.cpp:394] pool5 <- conv5
I0328 18:49:59.706254  3105 net.cpp:356] pool5 -> pool5
I0328 18:49:59.706259  3105 net.cpp:96] Setting up pool5
I0328 18:49:59.706267  3105 net.cpp:103] Top shape: 32 256 6 6 (294912)
I0328 18:49:59.706279  3105 net.cpp:67] Creating Layer fc6
I0328 18:49:59.706295  3105 net.cpp:394] fc6 <- pool5
I0328 18:49:59.706315  3105 net.cpp:356] fc6 -> fc6
I0328 18:49:59.706322  3105 net.cpp:96] Setting up fc6
