…
E0310 22:22:05.184262  3072 upgrade_proto.cpp:604] Note that future Caffe releases will not support V0NetParameter; use ./build/tools/upgrade_net_proto_text for prototxt and ./build/tools/upgrade_net_proto_binary for model weights upgrade this and any other net protos to the new format.
I0310 22:22:05.184509  3072 net.cpp:39] Initializing net from parameters: 
name: "deepFashion"
layers {
  top: "data"
  top: "label"
  name: "data"
  type: DATA
  data_param {
    source: "/data/deepfashion/color_label_jabong/color_label_jabong_TRAIN"
    batch_size: 32
  }
  transform_param {
    mirror: true
    crop_size: 227
    mean_file: "../../../data/ilsvrc12/imagenet_mean.binaryproto"
  }
}
layers {
  bottom: "data"
  top: "conv1"
  name: "conv1"
  type: CONVOLUTION
  blobs_lr: 1
  blobs_lr: 2
  weight_decay: 1
  weight_decay: 0
  convolution_param {
    num_output: 96
    kernel_size: 11
    stride: 4
    weight_filler {
      type: "gaussian"
      std: 0.01
    }
    bias_filler {
      type: "constant"
      value: 0
    }
  }
}
layers {
  bottom: "conv1"
  top: "conv1"
  name: "relu1"
  type: RELU
}
layers {
  bottom: "conv1"
  top: "pool1"
  name: "pool1"
  type: POOLING
  pooling_param {
    pool: MAX
    kernel_size: 3
    stride: 2
  }
}
layers {
  bottom: "pool1"
  top: "norm1"
  name: "norm1"
  type: LRN
  lrn_param {
    local_size: 5
    alpha: 0.0001
    beta: 0.75
  }
}
layers {
  bottom: "norm1"
  top: "conv2"
  name: "conv2"
  type: CONVOLUTION
  blobs_lr: 1
  blobs_lr: 2
  weight_decay: 1
  weight_decay: 0
  convolution_param {
    num_output: 256
    pad: 2
    kernel_size: 5
    group: 2
    weight_filler {
      type: "gaussian"
      std: 0.01
    }
    bias_filler {
      type: "constant"
      value: 1
    }
  }
}
layers {
  bottom: "conv2"
  top: "conv2"
  name: "relu2"
  type: RELU
}
layers {
  bottom: "conv2"
  top: "pool2"
  name: "pool2"
  type: POOLING
  pooling_param {
    pool: MAX
    kernel_size: 3
    stride: 2
  }
}
layers {
  bottom: "pool2"
  top: "norm2"
  name: "norm2"
  type: LRN
  lrn_param {
    local_size: 5
    alpha: 0.0001
    beta: 0.75
  }
}
layers {
  bottom: "norm2"
  top: "conv3"
  name: "conv3"
  type: CONVOLUTION
  blobs_lr: 1
  blobs_lr: 2
  weight_decay: 1
  weight_decay: 0
  convolution_param {
    num_output: 384
    pad: 1
    kernel_size: 3
    weight_filler {
      type: "gaussian"
      std: 0.01
    }
    bias_filler {
      type: "constant"
      value: 0
    }
  }
}
layers {
  bottom: "conv3"
  top: "conv3"
  name: "relu3"
  type: RELU
}
layers {
  bottom: "conv3"
  top: "conv4"
  name: "conv4"
  type: CONVOLUTION
  blobs_lr: 1
  blobs_lr: 2
  weight_decay: 1
  weight_decay: 0
  convolution_param {
    num_output: 384
    pad: 1
    kernel_size: 3
    group: 2
    weight_filler {
      type: "gaussian"
      std: 0.01
    }
    bias_filler {
      type: "constant"
      value: 1
    }
  }
}
layers {
  bottom: "conv4"
  top: "conv4"
  name: "relu4"
  type: RELU
}
layers {
  bottom: "conv4"
  top: "conv5"
  name: "conv5"
  type: CONVOLUTION
  blobs_lr: 1
  blobs_lr: 2
  weight_decay: 1
  weight_decay: 0
  convolution_param {
    num_output: 256
    pad: 1
    kernel_size: 3
    group: 2
    weight_filler {
      type: "gaussian"
      std: 0.01
    }
    bias_filler {
      type: "constant"
      value: 1
    }
  }
}
layers {
  bottom: "conv5"
  top: "conv5"
  name: "relu5"
  type: RELU
}
layers {
  bottom: "conv5"
  top: "pool5"
  name: "pool5"
  type: POOLING
  pooling_param {
    pool: MAX
    kernel_size: 3
    stride: 2
  }
}
layers {
  bottom: "pool5"
  top: "fc6"
  name: "fc6"
  type: INNER_PRODUCT
  blobs_lr: 1
  blobs_lr: 2
  weight_decay: 1
  weight_decay: 0
  inner_product_param {
    num_output: 4096
    weight_filler {
      type: "gaussian"
      std: 0.005
    }
    bias_filler {
      type: "constant"
      value: 1
    }
  }
}
layers {
  bottom: "fc6"
  top: "fc6"
  name: "relu6"
  type: RELU
}
layers {
  bottom: "fc6"
  top: "fc6"
  name: "drop6"
  type: DROPOUT
  dropout_param {
    dropout_ratio: 0.5
  }
}
layers {
  bottom: "fc6"
  top: "fc7"
  name: "fc7"
  type: INNER_PRODUCT
  blobs_lr: 1
  blobs_lr: 2
  weight_decay: 1
  weight_decay: 0
  inner_product_param {
    num_output: 4096
    weight_filler {
      type: "gaussian"
      std: 0.005
    }
    bias_filler {
      type: "constant"
      value: 1
    }
  }
}
layers {
  bottom: "fc7"
  top: "fc7"
  name: "relu7"
  type: RELU
}
layers {
  bottom: "fc7"
  top: "fc7"
  name: "drop7"
  type: DROPOUT
  dropout_param {
    dropout_ratio: 0.5
  }
}
layers {
  bottom: "fc7"
  top: "fc8_kevin"
  name: "fc8_kevin"
  type: INNER_PRODUCT
  blobs_lr: 1
  blobs_lr: 2
  weight_decay: 1
  weight_decay: 0
  inner_product_param {
    num_output: 48
    weight_filler {
      type: "gaussian"
      std: 0.005
    }
    bias_filler {
      type: "constant"
      value: 1
    }
  }
}
layers {
  bottom: "fc8_kevin"
  top: "fc8_kevin_encode"
  name: "fc8_kevin_encode"
  type: SIGMOID
}
layers {
  bottom: "fc8_kevin_encode"
  top: "fc8_pascal"
  name: "fc8_pascal"
  type: INNER_PRODUCT
  blobs_lr: 10
  blobs_lr: 20
  weight_decay: 1
  weight_decay: 0
  inner_product_param {
    num_output: 31
    weight_filler {
      type: "gaussian"
      std: 0.01
    }
    bias_filler {
      type: "constant"
      value: 0
    }
  }
}
layers {
  bottom: "fc8_pascal"
  bottom: "label"
  name: "loss"
  type: SOFTMAX_LOSS
}
state {
  phase: TRAIN
}
I0310 22:22:05.187175  3072 net.cpp:67] Creating Layer data
I0310 22:22:05.187194  3072 net.cpp:356] data -> data
I0310 22:22:05.187211  3072 net.cpp:356] data -> label
I0310 22:22:05.187228  3072 net.cpp:96] Setting up data
I0310 22:22:05.188714  3072 data_layer.cpp:45] Opening leveldb /data/deepfashion/color_label_jabong/color_label_jabong_TRAIN
I0310 22:22:05.233569  3072 data_layer.cpp:128] output data size: 32,3,227,227
I0310 22:22:05.233593  3072 base_data_layer.cpp:36] Loading mean file from../../../data/ilsvrc12/imagenet_mean.binaryproto
I0310 22:22:05.249344  3072 net.cpp:103] Top shape: 32 3 227 227 (4946784)
I0310 22:22:05.249378  3072 net.cpp:103] Top shape: 32 1 1 1 (32)
I0310 22:22:05.249402  3072 net.cpp:67] Creating Layer conv1
I0310 22:22:05.249408  3072 net.cpp:394] conv1 <- data
I0310 22:22:05.249419  3072 net.cpp:356] conv1 -> conv1
I0310 22:22:05.249434  3072 net.cpp:96] Setting up conv1
I0310 22:22:05.302367  3072 net.cpp:103] Top shape: 32 96 55 55 (9292800)
I0310 22:22:05.302429  3072 net.cpp:67] Creating Layer relu1
I0310 22:22:05.302438  3072 net.cpp:394] relu1 <- conv1
I0310 22:22:05.302446  3072 net.cpp:345] relu1 -> conv1 (in-place)
I0310 22:22:05.302456  3072 net.cpp:96] Setting up relu1
I0310 22:22:05.302469  3072 net.cpp:103] Top shape: 32 96 55 55 (9292800)
I0310 22:22:05.302479  3072 net.cpp:67] Creating Layer pool1
I0310 22:22:05.302503  3072 net.cpp:394] pool1 <- conv1
I0310 22:22:05.302510  3072 net.cpp:356] pool1 -> pool1
I0310 22:22:05.302517  3072 net.cpp:96] Setting up pool1
I0310 22:22:05.302539  3072 net.cpp:103] Top shape: 32 96 27 27 (2239488)
I0310 22:22:05.302557  3072 net.cpp:67] Creating Layer norm1
I0310 22:22:05.302562  3072 net.cpp:394] norm1 <- pool1
I0310 22:22:05.302570  3072 net.cpp:356] norm1 -> norm1
I0310 22:22:05.302579  3072 net.cpp:96] Setting up norm1
I0310 22:22:05.302608  3072 net.cpp:103] Top shape: 32 96 27 27 (2239488)
I0310 22:22:05.302628  3072 net.cpp:67] Creating Layer conv2
I0310 22:22:05.302634  3072 net.cpp:394] conv2 <- norm1
I0310 22:22:05.302641  3072 net.cpp:356] conv2 -> conv2
I0310 22:22:05.302649  3072 net.cpp:96] Setting up conv2
I0310 22:22:05.312849  3072 net.cpp:103] Top shape: 32 256 27 27 (5971968)
I0310 22:22:05.312875  3072 net.cpp:67] Creating Layer relu2
I0310 22:22:05.312880  3072 net.cpp:394] relu2 <- conv2
I0310 22:22:05.312886  3072 net.cpp:345] relu2 -> conv2 (in-place)
I0310 22:22:05.312892  3072 net.cpp:96] Setting up relu2
I0310 22:22:05.312899  3072 net.cpp:103] Top shape: 32 256 27 27 (5971968)
I0310 22:22:05.312906  3072 net.cpp:67] Creating Layer pool2
I0310 22:22:05.312908  3072 net.cpp:394] pool2 <- conv2
I0310 22:22:05.312916  3072 net.cpp:356] pool2 -> pool2
I0310 22:22:05.312922  3072 net.cpp:96] Setting up pool2
I0310 22:22:05.312928  3072 net.cpp:103] Top shape: 32 256 13 13 (1384448)
I0310 22:22:05.312935  3072 net.cpp:67] Creating Layer norm2
I0310 22:22:05.312939  3072 net.cpp:394] norm2 <- pool2
I0310 22:22:05.312947  3072 net.cpp:356] norm2 -> norm2
I0310 22:22:05.312952  3072 net.cpp:96] Setting up norm2
I0310 22:22:05.312958  3072 net.cpp:103] Top shape: 32 256 13 13 (1384448)
I0310 22:22:05.312964  3072 net.cpp:67] Creating Layer conv3
I0310 22:22:05.312968  3072 net.cpp:394] conv3 <- norm2
I0310 22:22:05.312975  3072 net.cpp:356] conv3 -> conv3
I0310 22:22:05.312983  3072 net.cpp:96] Setting up conv3
I0310 22:22:05.341747  3072 net.cpp:103] Top shape: 32 384 13 13 (2076672)
I0310 22:22:05.341771  3072 net.cpp:67] Creating Layer relu3
I0310 22:22:05.341778  3072 net.cpp:394] relu3 <- conv3
I0310 22:22:05.341783  3072 net.cpp:345] relu3 -> conv3 (in-place)
I0310 22:22:05.341787  3072 net.cpp:96] Setting up relu3
I0310 22:22:05.341794  3072 net.cpp:103] Top shape: 32 384 13 13 (2076672)
I0310 22:22:05.341801  3072 net.cpp:67] Creating Layer conv4
I0310 22:22:05.341805  3072 net.cpp:394] conv4 <- conv3
I0310 22:22:05.341812  3072 net.cpp:356] conv4 -> conv4
I0310 22:22:05.341819  3072 net.cpp:96] Setting up conv4
I0310 22:22:05.363512  3072 net.cpp:103] Top shape: 32 384 13 13 (2076672)
I0310 22:22:05.363535  3072 net.cpp:67] Creating Layer relu4
I0310 22:22:05.363541  3072 net.cpp:394] relu4 <- conv4
I0310 22:22:05.363548  3072 net.cpp:345] relu4 -> conv4 (in-place)
I0310 22:22:05.363554  3072 net.cpp:96] Setting up relu4
I0310 22:22:05.363560  3072 net.cpp:103] Top shape: 32 384 13 13 (2076672)
I0310 22:22:05.363574  3072 net.cpp:67] Creating Layer conv5
I0310 22:22:05.363579  3072 net.cpp:394] conv5 <- conv4
I0310 22:22:05.363584  3072 net.cpp:356] conv5 -> conv5
I0310 22:22:05.363591  3072 net.cpp:96] Setting up conv5
I0310 22:22:05.378196  3072 net.cpp:103] Top shape: 32 256 13 13 (1384448)
I0310 22:22:05.378221  3072 net.cpp:67] Creating Layer relu5
I0310 22:22:05.378226  3072 net.cpp:394] relu5 <- conv5
I0310 22:22:05.378232  3072 net.cpp:345] relu5 -> conv5 (in-place)
I0310 22:22:05.378237  3072 net.cpp:96] Setting up relu5
I0310 22:22:05.378244  3072 net.cpp:103] Top shape: 32 256 13 13 (1384448)
I0310 22:22:05.378252  3072 net.cpp:67] Creating Layer pool5
I0310 22:22:05.378257  3072 net.cpp:394] pool5 <- conv5
I0310 22:22:05.378262  3072 net.cpp:356] pool5 -> pool5
I0310 22:22:05.378268  3072 net.cpp:96] Setting up pool5
I0310 22:22:05.378278  3072 net.cpp:103] Top shape: 32 256 6 6 (294912)
I0310 22:22:05.378289  3072 net.cpp:67] Creating Layer fc6
I0310 22:22:05.378295  3072 net.cpp:394] fc6 <- pool5
I0310 22:22:05.378316  3072 net.cpp:356] fc6 -> fc6
I0310 22:22:05.378327  3072 net.cpp:96] Setting up fc6
I0310 22:22:06.597761  3072 net.cpp:103] Top shape: 32 4096 1 1 (131072)
I0310 22:22:06.597831  3072 net.cpp:67] Creating Layer relu6
I0310 22:22:06.597838  3072 net.cpp:394] relu6 <- fc6
I0310 22:22:06.597847  3072 net.cpp:345] relu6 -> fc6 (in-place)
I0310 22:22:06.597857  3072 net.cpp:96] Setting up relu6
I0310 22:22:06.597882  3072 net.cpp:103] Top shape: 32 4096 1 1 (131072)
I0310 22:22:06.597888  3072 net.cpp:67] Creating Layer drop6
I0310 22:22:06.597900  3072 net.cpp:394] drop6 <- fc6
I0310 22:22:06.597908  3072 net.cpp:345] drop6 -> fc6 (in-place)
I0310 22:22:06.597918  3072 net.cpp:96] Setting up drop6
I0310 22:22:06.597926  3072 net.cpp:103] Top shape: 32 4096 1 1 (131072)
I0310 22:22:06.597939  3072 net.cpp:67] Creating Layer fc7
I0310 22:22:06.597942  3072 net.cpp:394] fc7 <- fc6
I0310 22:22:06.597949  3072 net.cpp:356] fc7 -> fc7
I0310 22:22:06.597965  3072 net.cpp:96] Setting up fc7
I0310 22:22:07.141973  3072 net.cpp:103] Top shape: 32 4096 1 1 (131072)
I0310 22:22:07.142030  3072 net.cpp:67] Creating Layer relu7
I0310 22:22:07.142037  3072 net.cpp:394] relu7 <- fc7
I0310 22:22:07.142047  3072 net.cpp:345] relu7 -> fc7 (in-place)
I0310 22:22:07.142056  3072 net.cpp:96] Setting up relu7
I0310 22:22:07.142078  3072 net.cpp:103] Top shape: 32 4096 1 1 (131072)
I0310 22:22:07.142087  3072 net.cpp:67] Creating Layer drop7
I0310 22:22:07.142091  3072 net.cpp:394] drop7 <- fc7
I0310 22:22:07.142096  3072 net.cpp:345] drop7 -> fc7 (in-place)
I0310 22:22:07.142102  3072 net.cpp:96] Setting up drop7
I0310 22:22:07.142107  3072 net.cpp:103] Top shape: 32 4096 1 1 (131072)
I0310 22:22:07.142117  3072 net.cpp:67] Creating Layer fc8_kevin
I0310 22:22:07.142120  3072 net.cpp:394] fc8_kevin <- fc7
I0310 22:22:07.142127  3072 net.cpp:356] fc8_kevin -> fc8_kevin
I0310 22:22:07.142134  3072 net.cpp:96] Setting up fc8_kevin
I0310 22:22:07.148600  3072 net.cpp:103] Top shape: 32 48 1 1 (1536)
I0310 22:22:07.148622  3072 net.cpp:67] Creating Layer fc8_kevin_encode
I0310 22:22:07.148627  3072 net.cpp:394] fc8_kevin_encode <- fc8_kevin
I0310 22:22:07.148633  3072 net.cpp:356] fc8_kevin_encode -> fc8_kevin_encode
I0310 22:22:07.148638  3072 net.cpp:96] Setting up fc8_kevin_encode
I0310 22:22:07.148650  3072 net.cpp:103] Top shape: 32 48 1 1 (1536)
I0310 22:22:07.148660  3072 net.cpp:67] Creating Layer fc8_pascal
I0310 22:22:07.148664  3072 net.cpp:394] fc8_pascal <- fc8_kevin_encode
I0310 22:22:07.148670  3072 net.cpp:356] fc8_pascal -> fc8_pascal
I0310 22:22:07.148679  3072 net.cpp:96] Setting up fc8_pascal
I0310 22:22:07.148741  3072 net.cpp:103] Top shape: 32 31 1 1 (992)
I0310 22:22:07.148762  3072 net.cpp:67] Creating Layer loss
I0310 22:22:07.148767  3072 net.cpp:394] loss <- fc8_pascal
I0310 22:22:07.148772  3072 net.cpp:394] loss <- label
I0310 22:22:07.148778  3072 net.cpp:356] loss -> (automatic)
I0310 22:22:07.148783  3072 net.cpp:96] Setting up loss
I0310 22:22:07.148795  3072 net.cpp:103] Top shape: 1 1 1 1 (1)
I0310 22:22:07.148799  3072 net.cpp:109]     with loss weight 1
I0310 22:22:07.148840  3072 net.cpp:170] loss needs backward computation.
I0310 22:22:07.148846  3072 net.cpp:170] fc8_pascal needs backward computation.
I0310 22:22:07.148850  3072 net.cpp:170] fc8_kevin_encode needs backward computation.
I0310 22:22:07.148854  3072 net.cpp:170] fc8_kevin needs backward computation.
I0310 22:22:07.148857  3072 net.cpp:170] drop7 needs backward computation.
…
E0310 22:22:07.149904  3072 upgrade_proto.cpp:604] Note that future Caffe releases will not support V0NetParameter; use ./build/tools/upgrade_net_proto_text for prototxt and ./build/tools/upgrade_net_proto_binary for model weights upgrade this and any other net protos to the new format.
I0310 22:22:07.149936  3072 solver.cpp:151] Creating test net (#0) specified by test_net file: test_fashion_48.prototxt
I0310 22:22:07.150167  3072 net.cpp:39] Initializing net from parameters: 
name: "deepFashion"
layers {
  top: "data"
  top: "label"
  name: "data"
  type: DATA
  data_param {
    source: "/data/deepfashion/color_label_jabong/color_label_jabong_test"
    batch_size: 32
  }
  transform_param {
    mirror: true
    crop_size: 227
    mean_file: "../../../data/ilsvrc12/imagenet_mean.binaryproto"
  }
}
layers {
  bottom: "data"
  top: "conv1"
  name: "conv1"
  type: CONVOLUTION
  blobs_lr: 1
  blobs_lr: 2
  weight_decay: 1
  weight_decay: 0
  convolution_param {
    num_output: 96
    kernel_size: 11
    stride: 4
    weight_filler {
      type: "gaussian"
      std: 0.01
    }
    bias_filler {
      type: "constant"
      value: 0
    }
  }
}
layers {
  bottom: "conv1"
  top: "conv1"
  name: "relu1"
  type: RELU
}
layers {
  bottom: "conv1"
  top: "pool1"
  name: "pool1"
  type: POOLING
  pooling_param {
    pool: MAX
    kernel_size: 3
    stride: 2
  }
}
layers {
  bottom: "pool1"
  top: "norm1"
  name: "norm1"
  type: LRN
  lrn_param {
    local_size: 5
    alpha: 0.0001
    beta: 0.75
  }
}
layers {
  bottom: "norm1"
  top: "conv2"
  name: "conv2"
  type: CONVOLUTION
  blobs_lr: 1
  blobs_lr: 2
  weight_decay: 1
  weight_decay: 0
  convolution_param {
    num_output: 256
    pad: 2
    kernel_size: 5
    group: 2
    weight_filler {
      type: "gaussian"
      std: 0.01
    }
    bias_filler {
      type: "constant"
      value: 1
    }
  }
}
layers {
  bottom: "conv2"
  top: "conv2"
  name: "relu2"
  type: RELU
}
layers {
  bottom: "conv2"
  top: "pool2"
  name: "pool2"
  type: POOLING
  pooling_param {
    pool: MAX
    kernel_size: 3
    stride: 2
  }
}
layers {
  bottom: "pool2"
  top: "norm2"
  name: "norm2"
  type: LRN
  lrn_param {
    local_size: 5
    alpha: 0.0001
    beta: 0.75
  }
}
layers {
  bottom: "norm2"
  top: "conv3"
  name: "conv3"
  type: CONVOLUTION
  blobs_lr: 1
  blobs_lr: 2
  weight_decay: 1
  weight_decay: 0
  convolution_param {
    num_output: 384
    pad: 1
    kernel_size: 3
    weight_filler {
      type: "gaussian"
      std: 0.01
    }
    bias_filler {
      type: "constant"
      value: 0
    }
  }
}
layers {
  bottom: "conv3"
  top: "conv3"
  name: "relu3"
  type: RELU
}
layers {
  bottom: "conv3"
  top: "conv4"
  name: "conv4"
  type: CONVOLUTION
  blobs_lr: 1
  blobs_lr: 2
  weight_decay: 1
  weight_decay: 0
  convolution_param {
    num_output: 384
    pad: 1
    kernel_size: 3
    group: 2
    weight_filler {
      type: "gaussian"
      std: 0.01
    }
    bias_filler {
      type: "constant"
      value: 1
    }
  }
}
layers {
  bottom: "conv4"
  top: "conv4"
  name: "relu4"
  type: RELU
}
layers {
  bottom: "conv4"
  top: "conv5"
  name: "conv5"
  type: CONVOLUTION
  blobs_lr: 1
  blobs_lr: 2
  weight_decay: 1
  weight_decay: 0
  convolution_param {
    num_output: 256
    pad: 1
    kernel_size: 3
    group: 2
    weight_filler {
      type: "gaussian"
      std: 0.01
    }
    bias_filler {
      type: "constant"
      value: 1
    }
  }
}
layers {
  bottom: "conv5"
  top: "conv5"
  name: "relu5"
  type: RELU
}
layers {
  bottom: "conv5"
  top: "pool5"
  name: "pool5"
  type: POOLING
  pooling_param {
    pool: MAX
    kernel_size: 3
    stride: 2
  }
}
layers {
  bottom: "pool5"
  top: "fc6"
  name: "fc6"
  type: INNER_PRODUCT
  blobs_lr: 1
  blobs_lr: 2
  weight_decay: 1
  weight_decay: 0
  inner_product_param {
    num_output: 4096
    weight_filler {
      type: "gaussian"
      std: 0.005
    }
    bias_filler {
      type: "constant"
      value: 1
    }
  }
}
layers {
  bottom: "fc6"
  top: "fc6"
  name: "relu6"
  type: RELU
}
layers {
  bottom: "fc6"
  top: "fc6"
  name: "drop6"
  type: DROPOUT
  dropout_param {
    dropout_ratio: 0.5
  }
}
layers {
  bottom: "fc6"
  top: "fc7"
  name: "fc7"
  type: INNER_PRODUCT
  blobs_lr: 1
  blobs_lr: 2
  weight_decay: 1
  weight_decay: 0
  inner_product_param {
    num_output: 4096
    weight_filler {
      type: "gaussian"
      std: 0.005
    }
    bias_filler {
      type: "constant"
      value: 1
    }
  }
}
layers {
  bottom: "fc7"
  top: "fc7"
  name: "relu7"
  type: RELU
}
layers {
  bottom: "fc7"
  top: "fc7"
  name: "drop7"
  type: DROPOUT
  dropout_param {
    dropout_ratio: 0.5
  }
}
layers {
  bottom: "fc7"
  top: "fc8_kevin"
  name: "fc8_kevin"
  type: INNER_PRODUCT
  blobs_lr: 1
  blobs_lr: 2
  weight_decay: 1
  weight_decay: 0
  inner_product_param {
    num_output: 48
    weight_filler {
      type: "gaussian"
      std: 0.005
    }
    bias_filler {
      type: "constant"
      value: 1
    }
  }
}
layers {
  bottom: "fc8_kevin"
  top: "fc8_kevin_encode"
  name: "fc8_kevin_encode"
  type: SIGMOID
}
layers {
  bottom: "fc8_kevin_encode"
  top: "fc8_pascal"
  name: "fc8_pascal"
  type: INNER_PRODUCT
  blobs_lr: 10
  blobs_lr: 20
  weight_decay: 1
  weight_decay: 0
  inner_product_param {
    num_output: 31
    weight_filler {
      type: "gaussian"
      std: 0.01
    }
    bias_filler {
      type: "constant"
      value: 0
    }
  }
}
layers {
  bottom: "fc8_pascal"
  top: "prob"
  name: "prob"
  type: SOFTMAX
}
layers {
  bottom: "prob"
  bottom: "label"
  top: "accuracy"
  name: "accuracy"
  type: ACCURACY
}
state {
  phase: TEST
}
I0310 22:22:07.150276  3072 net.cpp:67] Creating Layer data
I0310 22:22:07.150285  3072 net.cpp:356] data -> data
I0310 22:22:07.150293  3072 net.cpp:356] data -> label
I0310 22:22:07.150300  3072 net.cpp:96] Setting up data
I0310 22:22:07.150306  3072 data_layer.cpp:45] Opening leveldb /data/deepfashion/color_label_jabong/color_label_jabong_test
I0310 22:22:07.186177  3072 data_layer.cpp:128] output data size: 32,3,227,227
I0310 22:22:07.186198  3072 base_data_layer.cpp:36] Loading mean file from../../../data/ilsvrc12/imagenet_mean.binaryproto
I0310 22:22:07.192625  3072 net.cpp:103] Top shape: 32 3 227 227 (4946784)
I0310 22:22:07.192656  3072 net.cpp:103] Top shape: 32 1 1 1 (32)
I0310 22:22:07.192675  3072 net.cpp:67] Creating Layer conv1
I0310 22:22:07.192680  3072 net.cpp:394] conv1 <- data
I0310 22:22:07.192690  3072 net.cpp:356] conv1 -> conv1
I0310 22:22:07.192703  3072 net.cpp:96] Setting up conv1
I0310 22:22:07.193949  3072 net.cpp:103] Top shape: 32 96 55 55 (9292800)
I0310 22:22:07.193984  3072 net.cpp:67] Creating Layer relu1
I0310 22:22:07.193994  3072 net.cpp:394] relu1 <- conv1
I0310 22:22:07.194005  3072 net.cpp:345] relu1 -> conv1 (in-place)
I0310 22:22:07.194017  3072 net.cpp:96] Setting up relu1
I0310 22:22:07.194034  3072 net.cpp:103] Top shape: 32 96 55 55 (9292800)
I0310 22:22:07.194048  3072 net.cpp:67] Creating Layer pool1
I0310 22:22:07.194056  3072 net.cpp:394] pool1 <- conv1
I0310 22:22:07.194068  3072 net.cpp:356] pool1 -> pool1
I0310 22:22:07.194080  3072 net.cpp:96] Setting up pool1
I0310 22:22:07.194097  3072 net.cpp:103] Top shape: 32 96 27 27 (2239488)
I0310 22:22:07.194113  3072 net.cpp:67] Creating Layer norm1
I0310 22:22:07.194121  3072 net.cpp:394] norm1 <- pool1
I0310 22:22:07.194133  3072 net.cpp:356] norm1 -> norm1
I0310 22:22:07.194147  3072 net.cpp:96] Setting up norm1
I0310 22:22:07.194162  3072 net.cpp:103] Top shape: 32 96 27 27 (2239488)
I0310 22:22:07.194175  3072 net.cpp:67] Creating Layer conv2
I0310 22:22:07.194183  3072 net.cpp:394] conv2 <- norm1
I0310 22:22:07.194196  3072 net.cpp:356] conv2 -> conv2
I0310 22:22:07.194208  3072 net.cpp:96] Setting up conv2
I0310 22:22:07.204679  3072 net.cpp:103] Top shape: 32 256 27 27 (5971968)
I0310 22:22:07.204711  3072 net.cpp:67] Creating Layer relu2
I0310 22:22:07.204721  3072 net.cpp:394] relu2 <- conv2
I0310 22:22:07.204735  3072 net.cpp:345] relu2 -> conv2 (in-place)
I0310 22:22:07.204746  3072 net.cpp:96] Setting up relu2
I0310 22:22:07.204759  3072 net.cpp:103] Top shape: 32 256 27 27 (5971968)
I0310 22:22:07.204772  3072 net.cpp:67] Creating Layer pool2
I0310 22:22:07.204780  3072 net.cpp:394] pool2 <- conv2
I0310 22:22:07.204797  3072 net.cpp:356] pool2 -> pool2
I0310 22:22:07.204809  3072 net.cpp:96] Setting up pool2
I0310 22:22:07.204823  3072 net.cpp:103] Top shape: 32 256 13 13 (1384448)
I0310 22:22:07.204845  3072 net.cpp:67] Creating Layer norm2
I0310 22:22:07.204855  3072 net.cpp:394] norm2 <- pool2
I0310 22:22:07.204866  3072 net.cpp:356] norm2 -> norm2
I0310 22:22:07.204879  3072 net.cpp:96] Setting up norm2
I0310 22:22:07.204888  3072 net.cpp:103] Top shape: 32 256 13 13 (1384448)
I0310 22:22:07.204916  3072 net.cpp:67] Creating Layer conv3
I0310 22:22:07.204928  3072 net.cpp:394] conv3 <- norm2
I0310 22:22:07.204942  3072 net.cpp:356] conv3 -> conv3
I0310 22:22:07.204957  3072 net.cpp:96] Setting up conv3
I0310 22:22:07.234633  3072 net.cpp:103] Top shape: 32 384 13 13 (2076672)
I0310 22:22:07.234691  3072 net.cpp:67] Creating Layer relu3
I0310 22:22:07.234701  3072 net.cpp:394] relu3 <- conv3
I0310 22:22:07.234714  3072 net.cpp:345] relu3 -> conv3 (in-place)
I0310 22:22:07.234729  3072 net.cpp:96] Setting up relu3
I0310 22:22:07.234742  3072 net.cpp:103] Top shape: 32 384 13 13 (2076672)
I0310 22:22:07.234761  3072 net.cpp:67] Creating Layer conv4
I0310 22:22:07.234771  3072 net.cpp:394] conv4 <- conv3
I0310 22:22:07.234782  3072 net.cpp:356] conv4 -> conv4
I0310 22:22:07.234796  3072 net.cpp:96] Setting up conv4
I0310 22:22:07.256856  3072 net.cpp:103] Top shape: 32 384 13 13 (2076672)
I0310 22:22:07.256887  3072 net.cpp:67] Creating Layer relu4
I0310 22:22:07.256897  3072 net.cpp:394] relu4 <- conv4
I0310 22:22:07.256909  3072 net.cpp:345] relu4 -> conv4 (in-place)
I0310 22:22:07.256922  3072 net.cpp:96] Setting up relu4
I0310 22:22:07.256934  3072 net.cpp:103] Top shape: 32 384 13 13 (2076672)
I0310 22:22:07.256947  3072 net.cpp:67] Creating Layer conv5
I0310 22:22:07.256956  3072 net.cpp:394] conv5 <- conv4
I0310 22:22:07.256968  3072 net.cpp:356] conv5 -> conv5
I0310 22:22:07.257009  3072 net.cpp:96] Setting up conv5
I0310 22:22:07.271919  3072 net.cpp:103] Top shape: 32 256 13 13 (1384448)
I0310 22:22:07.271951  3072 net.cpp:67] Creating Layer relu5
I0310 22:22:07.271961  3072 net.cpp:394] relu5 <- conv5
I0310 22:22:07.271972  3072 net.cpp:345] relu5 -> conv5 (in-place)
I0310 22:22:07.271986  3072 net.cpp:96] Setting up relu5
I0310 22:22:07.271998  3072 net.cpp:103] Top shape: 32 256 13 13 (1384448)
I0310 22:22:07.272011  3072 net.cpp:67] Creating Layer pool5
I0310 22:22:07.272019  3072 net.cpp:394] pool5 <- conv5
I0310 22:22:07.272030  3072 net.cpp:356] pool5 -> pool5
I0310 22:22:07.272042  3072 net.cpp:96] Setting up pool5
I0310 22:22:07.272058  3072 net.cpp:103] Top shape: 32 256 6 6 (294912)
I0310 22:22:07.272076  3072 net.cpp:67] Creating Layer fc6
I0310 22:22:07.272092  3072 net.cpp:394] fc6 <- pool5
I0310 22:22:07.272105  3072 net.cpp:356] fc6 -> fc6
I0310 22:22:07.272119  3072 net.cpp:96] Setting up fc6
I0310 22:22:08.500238  3072 net.cpp:103] Top shape: 32 4096 1 1 (131072)
I0310 22:22:08.500301  3072 net.cpp:67] Creating Layer relu6
I0310 22:22:08.500313  3072 net.cpp:394] relu6 <- fc6
I0310 22:22:08.500329  3072 net.cpp:345] relu6 -> fc6 (in-place)
I0310 22:22:08.500342  3072 net.cpp:96] Setting up relu6
I0310 22:22:08.500368  3072 net.cpp:103] Top shape: 32 4096 1 1 (131072)
I0310 22:22:08.500381  3072 net.cpp:67] Creating Layer drop6
I0310 22:22:08.500391  3072 net.cpp:394] drop6 <- fc6
I0310 22:22:08.500401  3072 net.cpp:345] drop6 -> fc6 (in-place)
I0310 22:22:08.500413  3072 net.cpp:96] Setting up drop6
I0310 22:22:08.500422  3072 net.cpp:103] Top shape: 32 4096 1 1 (131072)
I0310 22:22:08.500435  3072 net.cpp:67] Creating Layer fc7
I0310 22:22:08.500454  3072 net.cpp:394] fc7 <- fc6
I0310 22:22:08.500468  3072 net.cpp:356] fc7 -> fc7
I0310 22:22:08.500483  3072 net.cpp:96] Setting up fc7
I0310 22:22:09.053858  3072 net.cpp:103] Top shape: 32 4096 1 1 (131072)
I0310 22:22:09.053922  3072 net.cpp:67] Creating Layer relu7
I0310 22:22:09.053933  3072 net.cpp:394] relu7 <- fc7
I0310 22:22:09.053949  3072 net.cpp:345] relu7 -> fc7 (in-place)
I0310 22:22:09.053964  3072 net.cpp:96] Setting up relu7
I0310 22:22:09.053992  3072 net.cpp:103] Top shape: 32 4096 1 1 (131072)
I0310 22:22:09.054010  3072 net.cpp:67] Creating Layer drop7
I0310 22:22:09.054019  3072 net.cpp:394] drop7 <- fc7
I0310 22:22:09.054031  3072 net.cpp:345] drop7 -> fc7 (in-place)
I0310 22:22:09.054044  3072 net.cpp:96] Setting up drop7
I0310 22:22:09.054054  3072 net.cpp:103] Top shape: 32 4096 1 1 (131072)
I0310 22:22:09.054067  3072 net.cpp:67] Creating Layer fc8_kevin
I0310 22:22:09.054085  3072 net.cpp:394] fc8_kevin <- fc7
I0310 22:22:09.054102  3072 net.cpp:356] fc8_kevin -> fc8_kevin
I0310 22:22:09.054117  3072 net.cpp:96] Setting up fc8_kevin
I0310 22:22:09.060550  3072 net.cpp:103] Top shape: 32 48 1 1 (1536)
I0310 22:22:09.060592  3072 net.cpp:67] Creating Layer fc8_kevin_encode
I0310 22:22:09.060603  3072 net.cpp:394] fc8_kevin_encode <- fc8_kevin
I0310 22:22:09.060616  3072 net.cpp:356] fc8_kevin_encode -> fc8_kevin_encode
I0310 22:22:09.060629  3072 net.cpp:96] Setting up fc8_kevin_encode
I0310 22:22:09.060645  3072 net.cpp:103] Top shape: 32 48 1 1 (1536)
I0310 22:22:09.060660  3072 net.cpp:67] Creating Layer fc8_pascal
I0310 22:22:09.060668  3072 net.cpp:394] fc8_pascal <- fc8_kevin_encode
I0310 22:22:09.060683  3072 net.cpp:356] fc8_pascal -> fc8_pascal
I0310 22:22:09.060698  3072 net.cpp:96] Setting up fc8_pascal
I0310 22:22:09.060781  3072 net.cpp:103] Top shape: 32 31 1 1 (992)
I0310 22:22:09.060813  3072 net.cpp:67] Creating Layer prob
I0310 22:22:09.060824  3072 net.cpp:394] prob <- fc8_pascal
I0310 22:22:09.060837  3072 net.cpp:356] prob -> prob
I0310 22:22:09.060848  3072 net.cpp:96] Setting up prob
I0310 22:22:09.060869  3072 net.cpp:103] Top shape: 32 31 1 1 (992)
I0310 22:22:09.060885  3072 net.cpp:67] Creating Layer accuracy
I0310 22:22:09.060894  3072 net.cpp:394] accuracy <- prob
I0310 22:22:09.060904  3072 net.cpp:394] accuracy <- label
I0310 22:22:09.060915  3072 net.cpp:356] accuracy -> accuracy
I0310 22:22:09.060961  3072 net.cpp:96] Setting up accuracy
I0310 22:22:09.060971  3072 net.cpp:103] Top shape: 1 1 1 1 (1)
I0310 22:22:09.060981  3072 net.cpp:172] accuracy does not need backward computation.
I0310 22:22:09.060987  3072 net.cpp:172] prob does not need backward computation.
I0310 22:22:09.060994  3072 net.cpp:172] fc8_pascal does not need backward computation.
I0310 22:22:09.061002  3072 net.cpp:172] fc8_kevin_encode does not need backward computation.
I0310 22:22:09.061008  3072 net.cpp:172] fc8_kevin does not need backward computation.
…
