…
E0405 21:55:18.635808 28952 upgrade_proto.cpp:604] Note that future Caffe releases will not support V0NetParameter; use ./build/tools/upgrade_net_proto_text for prototxt and ./build/tools/upgrade_net_proto_binary for model weights upgrade this and any other net protos to the new format.
I0405 21:55:18.636101 28952 net.cpp:39] Initializing net from parameters: 
name: "deepFashion"
layers {
  top: "data"
  top: "label"
  name: "data"
  type: DATA
  data_param {
    source: "/data/deepfashion/color_label_jabong/color_label_jabong_TRAIN"
    batch_size: 32
  }
  transform_param {
    mirror: true
    crop_size: 227
    mean_file: "../../../data/ilsvrc12/imagenet_mean.binaryproto"
  }
}
layers {
  bottom: "data"
  top: "conv1"
  name: "conv1"
  type: CONVOLUTION
  blobs_lr: 1
  blobs_lr: 2
  weight_decay: 1
  weight_decay: 0
  convolution_param {
    num_output: 96
    kernel_size: 11
    stride: 4
    weight_filler {
      type: "gaussian"
      std: 0.01
    }
    bias_filler {
      type: "constant"
      value: 0
    }
  }
}
layers {
  bottom: "conv1"
  top: "conv1"
  name: "relu1"
  type: RELU
}
layers {
  bottom: "conv1"
  top: "pool1"
  name: "pool1"
  type: POOLING
  pooling_param {
    pool: MAX
    kernel_size: 3
    stride: 2
  }
}
layers {
  bottom: "pool1"
  top: "norm1"
  name: "norm1"
  type: LRN
  lrn_param {
    local_size: 5
    alpha: 0.0001
    beta: 0.75
  }
}
layers {
  bottom: "norm1"
  top: "conv2"
  name: "conv2"
  type: CONVOLUTION
  blobs_lr: 1
  blobs_lr: 2
  weight_decay: 1
  weight_decay: 0
  convolution_param {
    num_output: 256
    pad: 2
    kernel_size: 5
    group: 2
    weight_filler {
      type: "gaussian"
      std: 0.01
    }
    bias_filler {
      type: "constant"
      value: 1
    }
  }
}
layers {
  bottom: "conv2"
  top: "conv2"
  name: "relu2"
  type: RELU
}
layers {
  bottom: "conv2"
  top: "pool2"
  name: "pool2"
  type: POOLING
  pooling_param {
    pool: MAX
    kernel_size: 3
    stride: 2
  }
}
layers {
  bottom: "pool2"
  top: "norm2"
  name: "norm2"
  type: LRN
  lrn_param {
    local_size: 5
    alpha: 0.0001
    beta: 0.75
  }
}
layers {
  bottom: "norm2"
  top: "conv3"
  name: "conv3"
  type: CONVOLUTION
  blobs_lr: 1
  blobs_lr: 2
  weight_decay: 1
  weight_decay: 0
  convolution_param {
    num_output: 384
    pad: 1
    kernel_size: 3
    weight_filler {
      type: "gaussian"
      std: 0.01
    }
    bias_filler {
      type: "constant"
      value: 0
    }
  }
}
layers {
  bottom: "conv3"
  top: "conv3"
  name: "relu3"
  type: RELU
}
layers {
  bottom: "conv3"
  top: "conv4"
  name: "conv4"
  type: CONVOLUTION
  blobs_lr: 1
  blobs_lr: 2
  weight_decay: 1
  weight_decay: 0
  convolution_param {
    num_output: 384
    pad: 1
    kernel_size: 3
    group: 2
    weight_filler {
      type: "gaussian"
      std: 0.01
    }
    bias_filler {
      type: "constant"
      value: 1
    }
  }
}
layers {
  bottom: "conv4"
  top: "conv4"
  name: "relu4"
  type: RELU
}
layers {
  bottom: "conv4"
  top: "conv5"
  name: "conv5"
  type: CONVOLUTION
  blobs_lr: 1
  blobs_lr: 2
  weight_decay: 1
  weight_decay: 0
  convolution_param {
    num_output: 256
    pad: 1
    kernel_size: 3
    group: 2
    weight_filler {
      type: "gaussian"
      std: 0.01
    }
    bias_filler {
      type: "constant"
      value: 1
    }
  }
}
layers {
  bottom: "conv5"
  top: "conv5"
  name: "relu5"
  type: RELU
}
layers {
  bottom: "conv5"
  top: "pool5"
  name: "pool5"
  type: POOLING
  pooling_param {
    pool: MAX
    kernel_size: 3
    stride: 2
  }
}
layers {
  bottom: "pool5"
  top: "fc6"
  name: "fc6"
  type: INNER_PRODUCT
  blobs_lr: 1
  blobs_lr: 2
  weight_decay: 1
  weight_decay: 0
  inner_product_param {
    num_output: 4096
    weight_filler {
      type: "gaussian"
      std: 0.005
    }
    bias_filler {
      type: "constant"
      value: 1
    }
  }
}
layers {
  bottom: "fc6"
  top: "fc6"
  name: "relu6"
  type: RELU
}
layers {
  bottom: "fc6"
  top: "fc6"
  name: "drop6"
  type: DROPOUT
  dropout_param {
    dropout_ratio: 0.5
  }
}
layers {
  bottom: "fc6"
  top: "fc7"
  name: "fc7"
  type: INNER_PRODUCT
  blobs_lr: 1
  blobs_lr: 2
  weight_decay: 1
  weight_decay: 0
  inner_product_param {
    num_output: 4096
    weight_filler {
      type: "gaussian"
      std: 0.005
    }
    bias_filler {
      type: "constant"
      value: 1
    }
  }
}
layers {
  bottom: "fc7"
  top: "fc7"
  name: "relu7"
  type: RELU
}
layers {
  bottom: "fc7"
  top: "fc7"
  name: "drop7"
  type: DROPOUT
  dropout_param {
    dropout_ratio: 0.5
  }
}
layers {
  bottom: "fc7"
  top: "fc8_kevin"
  name: "fc8_kevin"
  type: INNER_PRODUCT
  blobs_lr: 1
  blobs_lr: 2
  weight_decay: 1
  weight_decay: 0
  inner_product_param {
    num_output: 48
    weight_filler {
      type: "gaussian"
      std: 0.005
    }
    bias_filler {
      type: "constant"
      value: 1
    }
  }
}
layers {
  bottom: "fc8_kevin"
  top: "fc8_kevin_encode"
  name: "fc8_kevin_encode"
  type: SIGMOID
}
layers {
  bottom: "fc8_kevin_encode"
  top: "fc8_pascal"
  name: "fc8_pascal"
  type: INNER_PRODUCT
  blobs_lr: 10
  blobs_lr: 20
  weight_decay: 1
  weight_decay: 0
  inner_product_param {
    num_output: 31
    weight_filler {
      type: "gaussian"
      std: 0.01
    }
    bias_filler {
      type: "constant"
      value: 0
    }
  }
}
layers {
  bottom: "fc8_pascal"
  bottom: "label"
  name: "loss"
  type: SOFTMAX_LOSS
}
state {
  phase: TRAIN
}
I0405 21:55:18.639060 28952 net.cpp:67] Creating Layer data
I0405 21:55:18.639084 28952 net.cpp:356] data -> data
I0405 21:55:18.639108 28952 net.cpp:356] data -> label
I0405 21:55:18.639138 28952 net.cpp:96] Setting up data
I0405 21:55:18.640516 28952 data_layer.cpp:45] Opening leveldb /data/deepfashion/color_label_jabong/color_label_jabong_TRAIN
I0405 21:55:18.674311 28952 data_layer.cpp:128] output data size: 32,3,227,227
I0405 21:55:18.674345 28952 base_data_layer.cpp:36] Loading mean file from../../../data/ilsvrc12/imagenet_mean.binaryproto
I0405 21:55:18.681633 28952 net.cpp:103] Top shape: 32 3 227 227 (4946784)
I0405 21:55:18.681673 28952 net.cpp:103] Top shape: 32 1 1 1 (32)
I0405 21:55:18.681711 28952 net.cpp:67] Creating Layer conv1
I0405 21:55:18.681720 28952 net.cpp:394] conv1 <- data
I0405 21:55:18.681733 28952 net.cpp:356] conv1 -> conv1
I0405 21:55:18.681748 28952 net.cpp:96] Setting up conv1
I0405 21:55:18.735918 28952 net.cpp:103] Top shape: 32 96 55 55 (9292800)
I0405 21:55:18.735994 28952 net.cpp:67] Creating Layer relu1
I0405 21:55:18.736006 28952 net.cpp:394] relu1 <- conv1
I0405 21:55:18.736017 28952 net.cpp:345] relu1 -> conv1 (in-place)
I0405 21:55:18.736030 28952 net.cpp:96] Setting up relu1
I0405 21:55:18.736049 28952 net.cpp:103] Top shape: 32 96 55 55 (9292800)
I0405 21:55:18.736068 28952 net.cpp:67] Creating Layer pool1
I0405 21:55:18.736114 28952 net.cpp:394] pool1 <- conv1
I0405 21:55:18.736126 28952 net.cpp:356] pool1 -> pool1
I0405 21:55:18.736140 28952 net.cpp:96] Setting up pool1
I0405 21:55:18.736178 28952 net.cpp:103] Top shape: 32 96 27 27 (2239488)
I0405 21:55:18.736204 28952 net.cpp:67] Creating Layer norm1
I0405 21:55:18.736215 28952 net.cpp:394] norm1 <- pool1
I0405 21:55:18.736227 28952 net.cpp:356] norm1 -> norm1
I0405 21:55:18.736243 28952 net.cpp:96] Setting up norm1
I0405 21:55:18.736305 28952 net.cpp:103] Top shape: 32 96 27 27 (2239488)
I0405 21:55:18.736331 28952 net.cpp:67] Creating Layer conv2
I0405 21:55:18.736348 28952 net.cpp:394] conv2 <- norm1
I0405 21:55:18.736361 28952 net.cpp:356] conv2 -> conv2
I0405 21:55:18.736373 28952 net.cpp:96] Setting up conv2
I0405 21:55:18.746990 28952 net.cpp:103] Top shape: 32 256 27 27 (5971968)
I0405 21:55:18.747035 28952 net.cpp:67] Creating Layer relu2
I0405 21:55:18.747045 28952 net.cpp:394] relu2 <- conv2
I0405 21:55:18.747057 28952 net.cpp:345] relu2 -> conv2 (in-place)
I0405 21:55:18.747068 28952 net.cpp:96] Setting up relu2
I0405 21:55:18.747081 28952 net.cpp:103] Top shape: 32 256 27 27 (5971968)
I0405 21:55:18.747094 28952 net.cpp:67] Creating Layer pool2
I0405 21:55:18.747102 28952 net.cpp:394] pool2 <- conv2
I0405 21:55:18.747112 28952 net.cpp:356] pool2 -> pool2
I0405 21:55:18.747123 28952 net.cpp:96] Setting up pool2
I0405 21:55:18.747138 28952 net.cpp:103] Top shape: 32 256 13 13 (1384448)
I0405 21:55:18.747155 28952 net.cpp:67] Creating Layer norm2
I0405 21:55:18.747164 28952 net.cpp:394] norm2 <- pool2
I0405 21:55:18.747175 28952 net.cpp:356] norm2 -> norm2
I0405 21:55:18.747187 28952 net.cpp:96] Setting up norm2
I0405 21:55:18.747196 28952 net.cpp:103] Top shape: 32 256 13 13 (1384448)
I0405 21:55:18.747210 28952 net.cpp:67] Creating Layer conv3
I0405 21:55:18.747217 28952 net.cpp:394] conv3 <- norm2
I0405 21:55:18.747228 28952 net.cpp:356] conv3 -> conv3
I0405 21:55:18.747241 28952 net.cpp:96] Setting up conv3
I0405 21:55:18.777138 28952 net.cpp:103] Top shape: 32 384 13 13 (2076672)
I0405 21:55:18.777180 28952 net.cpp:67] Creating Layer relu3
I0405 21:55:18.777190 28952 net.cpp:394] relu3 <- conv3
I0405 21:55:18.777205 28952 net.cpp:345] relu3 -> conv3 (in-place)
I0405 21:55:18.777217 28952 net.cpp:96] Setting up relu3
I0405 21:55:18.777231 28952 net.cpp:103] Top shape: 32 384 13 13 (2076672)
I0405 21:55:18.777245 28952 net.cpp:67] Creating Layer conv4
I0405 21:55:18.777253 28952 net.cpp:394] conv4 <- conv3
I0405 21:55:18.777266 28952 net.cpp:356] conv4 -> conv4
I0405 21:55:18.777277 28952 net.cpp:96] Setting up conv4
I0405 21:55:18.799271 28952 net.cpp:103] Top shape: 32 384 13 13 (2076672)
I0405 21:55:18.799306 28952 net.cpp:67] Creating Layer relu4
I0405 21:55:18.799317 28952 net.cpp:394] relu4 <- conv4
I0405 21:55:18.799329 28952 net.cpp:345] relu4 -> conv4 (in-place)
I0405 21:55:18.799340 28952 net.cpp:96] Setting up relu4
I0405 21:55:18.799355 28952 net.cpp:103] Top shape: 32 384 13 13 (2076672)
I0405 21:55:18.799370 28952 net.cpp:67] Creating Layer conv5
I0405 21:55:18.799377 28952 net.cpp:394] conv5 <- conv4
I0405 21:55:18.799392 28952 net.cpp:356] conv5 -> conv5
I0405 21:55:18.799404 28952 net.cpp:96] Setting up conv5
I0405 21:55:18.814007 28952 net.cpp:103] Top shape: 32 256 13 13 (1384448)
I0405 21:55:18.814038 28952 net.cpp:67] Creating Layer relu5
I0405 21:55:18.814049 28952 net.cpp:394] relu5 <- conv5
I0405 21:55:18.814059 28952 net.cpp:345] relu5 -> conv5 (in-place)
I0405 21:55:18.814070 28952 net.cpp:96] Setting up relu5
I0405 21:55:18.814085 28952 net.cpp:103] Top shape: 32 256 13 13 (1384448)
I0405 21:55:18.814105 28952 net.cpp:67] Creating Layer pool5
I0405 21:55:18.814118 28952 net.cpp:394] pool5 <- conv5
I0405 21:55:18.814129 28952 net.cpp:356] pool5 -> pool5
I0405 21:55:18.814141 28952 net.cpp:96] Setting up pool5
I0405 21:55:18.814157 28952 net.cpp:103] Top shape: 32 256 6 6 (294912)
I0405 21:55:18.814178 28952 net.cpp:67] Creating Layer fc6
I0405 21:55:18.814188 28952 net.cpp:394] fc6 <- pool5
I0405 21:55:18.814229 28952 net.cpp:356] fc6 -> fc6
I0405 21:55:18.814250 28952 net.cpp:96] Setting up fc6
I0405 21:55:20.033507 28952 net.cpp:103] Top shape: 32 4096 1 1 (131072)
I0405 21:55:20.033566 28952 net.cpp:67] Creating Layer relu6
I0405 21:55:20.033576 28952 net.cpp:394] relu6 <- fc6
I0405 21:55:20.033593 28952 net.cpp:345] relu6 -> fc6 (in-place)
I0405 21:55:20.033607 28952 net.cpp:96] Setting up relu6
I0405 21:55:20.033632 28952 net.cpp:103] Top shape: 32 4096 1 1 (131072)
I0405 21:55:20.033643 28952 net.cpp:67] Creating Layer drop6
I0405 21:55:20.033653 28952 net.cpp:394] drop6 <- fc6
I0405 21:55:20.033663 28952 net.cpp:345] drop6 -> fc6 (in-place)
I0405 21:55:20.033674 28952 net.cpp:96] Setting up drop6
I0405 21:55:20.033689 28952 net.cpp:103] Top shape: 32 4096 1 1 (131072)
I0405 21:55:20.033702 28952 net.cpp:67] Creating Layer fc7
I0405 21:55:20.033710 28952 net.cpp:394] fc7 <- fc6
I0405 21:55:20.033725 28952 net.cpp:356] fc7 -> fc7
I0405 21:55:20.033740 28952 net.cpp:96] Setting up fc7
I0405 21:55:20.575906 28952 net.cpp:103] Top shape: 32 4096 1 1 (131072)
I0405 21:55:20.575969 28952 net.cpp:67] Creating Layer relu7
I0405 21:55:20.575980 28952 net.cpp:394] relu7 <- fc7
I0405 21:55:20.575994 28952 net.cpp:345] relu7 -> fc7 (in-place)
I0405 21:55:20.576007 28952 net.cpp:96] Setting up relu7
I0405 21:55:20.576041 28952 net.cpp:103] Top shape: 32 4096 1 1 (131072)
I0405 21:55:20.576059 28952 net.cpp:67] Creating Layer drop7
I0405 21:55:20.576067 28952 net.cpp:394] drop7 <- fc7
I0405 21:55:20.576077 28952 net.cpp:345] drop7 -> fc7 (in-place)
I0405 21:55:20.576088 28952 net.cpp:96] Setting up drop7
I0405 21:55:20.576105 28952 net.cpp:103] Top shape: 32 4096 1 1 (131072)
I0405 21:55:20.576123 28952 net.cpp:67] Creating Layer fc8_kevin
I0405 21:55:20.576131 28952 net.cpp:394] fc8_kevin <- fc7
I0405 21:55:20.576143 28952 net.cpp:356] fc8_kevin -> fc8_kevin
I0405 21:55:20.576170 28952 net.cpp:96] Setting up fc8_kevin
I0405 21:55:20.582684 28952 net.cpp:103] Top shape: 32 48 1 1 (1536)
I0405 21:55:20.582711 28952 net.cpp:67] Creating Layer fc8_kevin_encode
I0405 21:55:20.582720 28952 net.cpp:394] fc8_kevin_encode <- fc8_kevin
I0405 21:55:20.582731 28952 net.cpp:356] fc8_kevin_encode -> fc8_kevin_encode
I0405 21:55:20.582743 28952 net.cpp:96] Setting up fc8_kevin_encode
I0405 21:55:20.582764 28952 net.cpp:103] Top shape: 32 48 1 1 (1536)
I0405 21:55:20.582783 28952 net.cpp:67] Creating Layer fc8_pascal
I0405 21:55:20.582799 28952 net.cpp:394] fc8_pascal <- fc8_kevin_encode
I0405 21:55:20.582815 28952 net.cpp:356] fc8_pascal -> fc8_pascal
I0405 21:55:20.582834 28952 net.cpp:96] Setting up fc8_pascal
I0405 21:55:20.582911 28952 net.cpp:103] Top shape: 32 31 1 1 (992)
I0405 21:55:20.582942 28952 net.cpp:67] Creating Layer loss
I0405 21:55:20.582962 28952 net.cpp:394] loss <- fc8_pascal
I0405 21:55:20.582973 28952 net.cpp:394] loss <- label
I0405 21:55:20.582983 28952 net.cpp:356] loss -> (automatic)
I0405 21:55:20.582993 28952 net.cpp:96] Setting up loss
I0405 21:55:20.583024 28952 net.cpp:103] Top shape: 1 1 1 1 (1)
I0405 21:55:20.583035 28952 net.cpp:109]     with loss weight 1
I0405 21:55:20.583102 28952 net.cpp:170] loss needs backward computation.
I0405 21:55:20.583112 28952 net.cpp:170] fc8_pascal needs backward computation.
I0405 21:55:20.583120 28952 net.cpp:170] fc8_kevin_encode needs backward computation.
I0405 21:55:20.583128 28952 net.cpp:170] fc8_kevin needs backward computation.
I0405 21:55:20.583135 28952 net.cpp:170] drop7 needs backward computation.
…
E0405 21:55:20.585518 28952 upgrade_proto.cpp:604] Note that future Caffe releases will not support V0NetParameter; use ./build/tools/upgrade_net_proto_text for prototxt and ./build/tools/upgrade_net_proto_binary for model weights upgrade this and any other net protos to the new format.
I0405 21:55:20.585577 28952 solver.cpp:151] Creating test net (#0) specified by test_net file: test_fashion_48.prototxt
I0405 21:55:20.585840 28952 net.cpp:39] Initializing net from parameters: 
name: "deepFashion"
layers {
  top: "data"
  top: "label"
  name: "data"
  type: DATA
  data_param {
    source: "/data/deepfashion/color_label_jabong/color_label_jabong_test"
    batch_size: 32
  }
  transform_param {
    mirror: true
    crop_size: 227
    mean_file: "../../../data/ilsvrc12/imagenet_mean.binaryproto"
  }
}
layers {
  bottom: "data"
  top: "conv1"
  name: "conv1"
  type: CONVOLUTION
  blobs_lr: 1
  blobs_lr: 2
  weight_decay: 1
  weight_decay: 0
  convolution_param {
    num_output: 96
    kernel_size: 11
    stride: 4
    weight_filler {
      type: "gaussian"
      std: 0.01
    }
    bias_filler {
      type: "constant"
      value: 0
    }
  }
}
layers {
  bottom: "conv1"
  top: "conv1"
  name: "relu1"
  type: RELU
}
layers {
  bottom: "conv1"
  top: "pool1"
  name: "pool1"
  type: POOLING
  pooling_param {
    pool: MAX
    kernel_size: 3
    stride: 2
  }
}
layers {
  bottom: "pool1"
  top: "norm1"
  name: "norm1"
  type: LRN
  lrn_param {
    local_size: 5
    alpha: 0.0001
    beta: 0.75
  }
}
layers {
  bottom: "norm1"
  top: "conv2"
  name: "conv2"
  type: CONVOLUTION
  blobs_lr: 1
  blobs_lr: 2
  weight_decay: 1
  weight_decay: 0
  convolution_param {
    num_output: 256
    pad: 2
    kernel_size: 5
    group: 2
    weight_filler {
      type: "gaussian"
      std: 0.01
    }
    bias_filler {
      type: "constant"
      value: 1
    }
  }
}
layers {
  bottom: "conv2"
  top: "conv2"
  name: "relu2"
  type: RELU
}
layers {
  bottom: "conv2"
  top: "pool2"
  name: "pool2"
  type: POOLING
  pooling_param {
    pool: MAX
    kernel_size: 3
    stride: 2
  }
}
layers {
  bottom: "pool2"
  top: "norm2"
  name: "norm2"
  type: LRN
  lrn_param {
    local_size: 5
    alpha: 0.0001
    beta: 0.75
  }
}
layers {
  bottom: "norm2"
  top: "conv3"
  name: "conv3"
  type: CONVOLUTION
  blobs_lr: 1
  blobs_lr: 2
  weight_decay: 1
  weight_decay: 0
  convolution_param {
    num_output: 384
    pad: 1
    kernel_size: 3
    weight_filler {
      type: "gaussian"
      std: 0.01
    }
    bias_filler {
      type: "constant"
      value: 0
    }
  }
}
layers {
  bottom: "conv3"
  top: "conv3"
  name: "relu3"
  type: RELU
}
layers {
  bottom: "conv3"
  top: "conv4"
  name: "conv4"
  type: CONVOLUTION
  blobs_lr: 1
  blobs_lr: 2
  weight_decay: 1
  weight_decay: 0
  convolution_param {
    num_output: 384
    pad: 1
    kernel_size: 3
    group: 2
    weight_filler {
      type: "gaussian"
      std: 0.01
    }
    bias_filler {
      type: "constant"
      value: 1
    }
  }
}
layers {
  bottom: "conv4"
  top: "conv4"
  name: "relu4"
  type: RELU
}
layers {
  bottom: "conv4"
  top: "conv5"
  name: "conv5"
  type: CONVOLUTION
  blobs_lr: 1
  blobs_lr: 2
  weight_decay: 1
  weight_decay: 0
  convolution_param {
    num_output: 256
    pad: 1
    kernel_size: 3
    group: 2
    weight_filler {
      type: "gaussian"
      std: 0.01
    }
    bias_filler {
      type: "constant"
      value: 1
    }
  }
}
layers {
  bottom: "conv5"
  top: "conv5"
  name: "relu5"
  type: RELU
}
layers {
  bottom: "conv5"
  top: "pool5"
  name: "pool5"
  type: POOLING
  pooling_param {
    pool: MAX
    kernel_size: 3
    stride: 2
  }
}
layers {
  bottom: "pool5"
  top: "fc6"
  name: "fc6"
  type: INNER_PRODUCT
  blobs_lr: 1
  blobs_lr: 2
  weight_decay: 1
  weight_decay: 0
  inner_product_param {
    num_output: 4096
    weight_filler {
      type: "gaussian"
      std: 0.005
    }
    bias_filler {
      type: "constant"
      value: 1
    }
  }
}
layers {
  bottom: "fc6"
  top: "fc6"
  name: "relu6"
  type: RELU
}
layers {
  bottom: "fc6"
  top: "fc6"
  name: "drop6"
  type: DROPOUT
  dropout_param {
    dropout_ratio: 0.5
  }
}
layers {
  bottom: "fc6"
  top: "fc7"
  name: "fc7"
  type: INNER_PRODUCT
  blobs_lr: 1
  blobs_lr: 2
  weight_decay: 1
  weight_decay: 0
  inner_product_param {
    num_output: 4096
    weight_filler {
      type: "gaussian"
      std: 0.005
    }
    bias_filler {
      type: "constant"
      value: 1
    }
  }
}
layers {
  bottom: "fc7"
  top: "fc7"
  name: "relu7"
  type: RELU
}
layers {
  bottom: "fc7"
  top: "fc7"
  name: "drop7"
  type: DROPOUT
  dropout_param {
    dropout_ratio: 0.5
  }
}
layers {
  bottom: "fc7"
  top: "fc8_kevin"
  name: "fc8_kevin"
  type: INNER_PRODUCT
  blobs_lr: 1
  blobs_lr: 2
  weight_decay: 1
  weight_decay: 0
  inner_product_param {
    num_output: 48
    weight_filler {
      type: "gaussian"
      std: 0.005
    }
    bias_filler {
      type: "constant"
      value: 1
    }
  }
}
layers {
  bottom: "fc8_kevin"
  top: "fc8_kevin_encode"
  name: "fc8_kevin_encode"
  type: SIGMOID
}
layers {
  bottom: "fc8_kevin_encode"
  top: "fc8_pascal"
  name: "fc8_pascal"
  type: INNER_PRODUCT
  blobs_lr: 10
  blobs_lr: 20
  weight_decay: 1
  weight_decay: 0
  inner_product_param {
    num_output: 31
    weight_filler {
      type: "gaussian"
      std: 0.01
    }
    bias_filler {
      type: "constant"
      value: 0
    }
  }
}
layers {
  bottom: "fc8_pascal"
  top: "prob"
  name: "prob"
  type: SOFTMAX
}
layers {
  bottom: "prob"
  bottom: "label"
  top: "accuracy"
  name: "accuracy"
  type: ACCURACY
}
state {
  phase: TEST
}
I0405 21:55:20.585997 28952 net.cpp:67] Creating Layer data
I0405 21:55:20.586011 28952 net.cpp:356] data -> data
I0405 21:55:20.586025 28952 net.cpp:356] data -> label
I0405 21:55:20.586037 28952 net.cpp:96] Setting up data
I0405 21:55:20.586046 28952 data_layer.cpp:45] Opening leveldb /data/deepfashion/color_label_jabong/color_label_jabong_test
I0405 21:55:20.618219 28952 data_layer.cpp:128] output data size: 32,3,227,227
I0405 21:55:20.618242 28952 base_data_layer.cpp:36] Loading mean file from../../../data/ilsvrc12/imagenet_mean.binaryproto
I0405 21:55:20.624548 28952 net.cpp:103] Top shape: 32 3 227 227 (4946784)
I0405 21:55:20.624579 28952 net.cpp:103] Top shape: 32 1 1 1 (32)
I0405 21:55:20.624599 28952 net.cpp:67] Creating Layer conv1
I0405 21:55:20.624605 28952 net.cpp:394] conv1 <- data
I0405 21:55:20.624614 28952 net.cpp:356] conv1 -> conv1
I0405 21:55:20.624625 28952 net.cpp:96] Setting up conv1
I0405 21:55:20.625860 28952 net.cpp:103] Top shape: 32 96 55 55 (9292800)
I0405 21:55:20.625888 28952 net.cpp:67] Creating Layer relu1
I0405 21:55:20.625895 28952 net.cpp:394] relu1 <- conv1
I0405 21:55:20.625900 28952 net.cpp:345] relu1 -> conv1 (in-place)
I0405 21:55:20.625906 28952 net.cpp:96] Setting up relu1
I0405 21:55:20.625915 28952 net.cpp:103] Top shape: 32 96 55 55 (9292800)
I0405 21:55:20.625921 28952 net.cpp:67] Creating Layer pool1
I0405 21:55:20.625926 28952 net.cpp:394] pool1 <- conv1
I0405 21:55:20.625931 28952 net.cpp:356] pool1 -> pool1
I0405 21:55:20.625937 28952 net.cpp:96] Setting up pool1
I0405 21:55:20.625946 28952 net.cpp:103] Top shape: 32 96 27 27 (2239488)
I0405 21:55:20.625954 28952 net.cpp:67] Creating Layer norm1
I0405 21:55:20.625958 28952 net.cpp:394] norm1 <- pool1
I0405 21:55:20.625963 28952 net.cpp:356] norm1 -> norm1
I0405 21:55:20.625969 28952 net.cpp:96] Setting up norm1
I0405 21:55:20.625975 28952 net.cpp:103] Top shape: 32 96 27 27 (2239488)
I0405 21:55:20.625983 28952 net.cpp:67] Creating Layer conv2
I0405 21:55:20.625988 28952 net.cpp:394] conv2 <- norm1
I0405 21:55:20.625993 28952 net.cpp:356] conv2 -> conv2
I0405 21:55:20.625999 28952 net.cpp:96] Setting up conv2
I0405 21:55:20.636526 28952 net.cpp:103] Top shape: 32 256 27 27 (5971968)
I0405 21:55:20.636554 28952 net.cpp:67] Creating Layer relu2
I0405 21:55:20.636560 28952 net.cpp:394] relu2 <- conv2
I0405 21:55:20.636567 28952 net.cpp:345] relu2 -> conv2 (in-place)
I0405 21:55:20.636574 28952 net.cpp:96] Setting up relu2
I0405 21:55:20.636581 28952 net.cpp:103] Top shape: 32 256 27 27 (5971968)
I0405 21:55:20.636589 28952 net.cpp:67] Creating Layer pool2
I0405 21:55:20.636592 28952 net.cpp:394] pool2 <- conv2
I0405 21:55:20.636598 28952 net.cpp:356] pool2 -> pool2
I0405 21:55:20.636605 28952 net.cpp:96] Setting up pool2
I0405 21:55:20.636611 28952 net.cpp:103] Top shape: 32 256 13 13 (1384448)
I0405 21:55:20.636625 28952 net.cpp:67] Creating Layer norm2
I0405 21:55:20.636631 28952 net.cpp:394] norm2 <- pool2
I0405 21:55:20.636637 28952 net.cpp:356] norm2 -> norm2
I0405 21:55:20.636643 28952 net.cpp:96] Setting up norm2
I0405 21:55:20.636648 28952 net.cpp:103] Top shape: 32 256 13 13 (1384448)
I0405 21:55:20.636656 28952 net.cpp:67] Creating Layer conv3
I0405 21:55:20.636659 28952 net.cpp:394] conv3 <- norm2
I0405 21:55:20.636667 28952 net.cpp:356] conv3 -> conv3
I0405 21:55:20.636675 28952 net.cpp:96] Setting up conv3
I0405 21:55:20.666225 28952 net.cpp:103] Top shape: 32 384 13 13 (2076672)
I0405 21:55:20.666278 28952 net.cpp:67] Creating Layer relu3
I0405 21:55:20.666286 28952 net.cpp:394] relu3 <- conv3
I0405 21:55:20.666297 28952 net.cpp:345] relu3 -> conv3 (in-place)
I0405 21:55:20.666309 28952 net.cpp:96] Setting up relu3
I0405 21:55:20.666331 28952 net.cpp:103] Top shape: 32 384 13 13 (2076672)
I0405 21:55:20.666343 28952 net.cpp:67] Creating Layer conv4
I0405 21:55:20.666350 28952 net.cpp:394] conv4 <- conv3
I0405 21:55:20.666365 28952 net.cpp:356] conv4 -> conv4
I0405 21:55:20.666396 28952 net.cpp:96] Setting up conv4
I0405 21:55:20.688387 28952 net.cpp:103] Top shape: 32 384 13 13 (2076672)
I0405 21:55:20.688413 28952 net.cpp:67] Creating Layer relu4
I0405 21:55:20.688418 28952 net.cpp:394] relu4 <- conv4
I0405 21:55:20.688426 28952 net.cpp:345] relu4 -> conv4 (in-place)
I0405 21:55:20.688432 28952 net.cpp:96] Setting up relu4
I0405 21:55:20.688439 28952 net.cpp:103] Top shape: 32 384 13 13 (2076672)
I0405 21:55:20.688451 28952 net.cpp:67] Creating Layer conv5
I0405 21:55:20.688458 28952 net.cpp:394] conv5 <- conv4
I0405 21:55:20.688465 28952 net.cpp:356] conv5 -> conv5
I0405 21:55:20.688493 28952 net.cpp:96] Setting up conv5
I0405 21:55:20.703294 28952 net.cpp:103] Top shape: 32 256 13 13 (1384448)
I0405 21:55:20.703322 28952 net.cpp:67] Creating Layer relu5
I0405 21:55:20.703327 28952 net.cpp:394] relu5 <- conv5
I0405 21:55:20.703335 28952 net.cpp:345] relu5 -> conv5 (in-place)
I0405 21:55:20.703341 28952 net.cpp:96] Setting up relu5
I0405 21:55:20.703348 28952 net.cpp:103] Top shape: 32 256 13 13 (1384448)
I0405 21:55:20.703354 28952 net.cpp:67] Creating Layer pool5
I0405 21:55:20.703358 28952 net.cpp:394] pool5 <- conv5
I0405 21:55:20.703364 28952 net.cpp:356] pool5 -> pool5
I0405 21:55:20.703371 28952 net.cpp:96] Setting up pool5
I0405 21:55:20.703379 28952 net.cpp:103] Top shape: 32 256 6 6 (294912)
I0405 21:55:20.703389 28952 net.cpp:67] Creating Layer fc6
I0405 21:55:20.703395 28952 net.cpp:394] fc6 <- pool5
I0405 21:55:20.703402 28952 net.cpp:356] fc6 -> fc6
I0405 21:55:20.703408 28952 net.cpp:96] Setting up fc6
I0405 21:55:21.923081 28952 net.cpp:103] Top shape: 32 4096 1 1 (131072)
I0405 21:55:21.923143 28952 net.cpp:67] Creating Layer relu6
I0405 21:55:21.923151 28952 net.cpp:394] relu6 <- fc6
I0405 21:55:21.923161 28952 net.cpp:345] relu6 -> fc6 (in-place)
I0405 21:55:21.923169 28952 net.cpp:96] Setting up relu6
I0405 21:55:21.923190 28952 net.cpp:103] Top shape: 32 4096 1 1 (131072)
I0405 21:55:21.923197 28952 net.cpp:67] Creating Layer drop6
I0405 21:55:21.923202 28952 net.cpp:394] drop6 <- fc6
I0405 21:55:21.923207 28952 net.cpp:345] drop6 -> fc6 (in-place)
I0405 21:55:21.923213 28952 net.cpp:96] Setting up drop6
I0405 21:55:21.923218 28952 net.cpp:103] Top shape: 32 4096 1 1 (131072)
I0405 21:55:21.923224 28952 net.cpp:67] Creating Layer fc7
I0405 21:55:21.923228 28952 net.cpp:394] fc7 <- fc6
I0405 21:55:21.923234 28952 net.cpp:356] fc7 -> fc7
I0405 21:55:21.923243 28952 net.cpp:96] Setting up fc7
I0405 21:55:22.468080 28952 net.cpp:103] Top shape: 32 4096 1 1 (131072)
I0405 21:55:22.468159 28952 net.cpp:67] Creating Layer relu7
I0405 21:55:22.468168 28952 net.cpp:394] relu7 <- fc7
I0405 21:55:22.468178 28952 net.cpp:345] relu7 -> fc7 (in-place)
I0405 21:55:22.468186 28952 net.cpp:96] Setting up relu7
I0405 21:55:22.468206 28952 net.cpp:103] Top shape: 32 4096 1 1 (131072)
I0405 21:55:22.468214 28952 net.cpp:67] Creating Layer drop7
I0405 21:55:22.468217 28952 net.cpp:394] drop7 <- fc7
I0405 21:55:22.468224 28952 net.cpp:345] drop7 -> fc7 (in-place)
I0405 21:55:22.468230 28952 net.cpp:96] Setting up drop7
I0405 21:55:22.468233 28952 net.cpp:103] Top shape: 32 4096 1 1 (131072)
I0405 21:55:22.468240 28952 net.cpp:67] Creating Layer fc8_kevin
I0405 21:55:22.468245 28952 net.cpp:394] fc8_kevin <- fc7
I0405 21:55:22.468251 28952 net.cpp:356] fc8_kevin -> fc8_kevin
I0405 21:55:22.468260 28952 net.cpp:96] Setting up fc8_kevin
I0405 21:55:22.474517 28952 net.cpp:103] Top shape: 32 48 1 1 (1536)
I0405 21:55:22.474539 28952 net.cpp:67] Creating Layer fc8_kevin_encode
I0405 21:55:22.474545 28952 net.cpp:394] fc8_kevin_encode <- fc8_kevin
I0405 21:55:22.474550 28952 net.cpp:356] fc8_kevin_encode -> fc8_kevin_encode
I0405 21:55:22.474557 28952 net.cpp:96] Setting up fc8_kevin_encode
I0405 21:55:22.474565 28952 net.cpp:103] Top shape: 32 48 1 1 (1536)
I0405 21:55:22.474573 28952 net.cpp:67] Creating Layer fc8_pascal
I0405 21:55:22.474578 28952 net.cpp:394] fc8_pascal <- fc8_kevin_encode
I0405 21:55:22.474586 28952 net.cpp:356] fc8_pascal -> fc8_pascal
I0405 21:55:22.474594 28952 net.cpp:96] Setting up fc8_pascal
I0405 21:55:22.474654 28952 net.cpp:103] Top shape: 32 31 1 1 (992)
I0405 21:55:22.474674 28952 net.cpp:67] Creating Layer prob
I0405 21:55:22.474679 28952 net.cpp:394] prob <- fc8_pascal
I0405 21:55:22.474685 28952 net.cpp:356] prob -> prob
I0405 21:55:22.474691 28952 net.cpp:96] Setting up prob
I0405 21:55:22.474704 28952 net.cpp:103] Top shape: 32 31 1 1 (992)
I0405 21:55:22.474714 28952 net.cpp:67] Creating Layer accuracy
I0405 21:55:22.474721 28952 net.cpp:394] accuracy <- prob
I0405 21:55:22.474726 28952 net.cpp:394] accuracy <- label
I0405 21:55:22.474732 28952 net.cpp:356] accuracy -> accuracy
I0405 21:55:22.474771 28952 net.cpp:96] Setting up accuracy
I0405 21:55:22.474776 28952 net.cpp:103] Top shape: 1 1 1 1 (1)
I0405 21:55:22.474781 28952 net.cpp:172] accuracy does not need backward computation.
I0405 21:55:22.474784 28952 net.cpp:172] prob does not need backward computation.
I0405 21:55:22.474787 28952 net.cpp:172] fc8_pascal does not need backward computation.
I0405 21:55:22.474792 28952 net.cpp:172] fc8_kevin_encode does not need backward computation.
I0405 21:55:22.474794 28952 net.cpp:172] fc8_kevin does not need backward computation.
…
