…
E0308 15:45:34.815502  6093 upgrade_proto.cpp:604] Note that future Caffe releases will not support V0NetParameter; use ./build/tools/upgrade_net_proto_text for prototxt and ./build/tools/upgrade_net_proto_binary for model weights upgrade this and any other net protos to the new format.
I0308 15:45:34.815762  6093 net.cpp:39] Initializing net from parameters: 
name: "deepFashion"
layers {
  top: "data"
  top: "label"
  name: "data"
  type: DATA
  data_param {
    source: "/data/dataset/jabong_train_leveldb_256_color_label"
    batch_size: 32
  }
  transform_param {
    mirror: true
    crop_size: 227
    mean_file: "../../../data/ilsvrc12/imagenet_mean.binaryproto"
  }
}
layers {
  bottom: "data"
  top: "conv1"
  name: "conv1"
  type: CONVOLUTION
  blobs_lr: 1
  blobs_lr: 2
  weight_decay: 1
  weight_decay: 0
  convolution_param {
    num_output: 96
    kernel_size: 11
    stride: 4
    weight_filler {
      type: "gaussian"
      std: 0.01
    }
    bias_filler {
      type: "constant"
      value: 0
    }
  }
}
layers {
  bottom: "conv1"
  top: "conv1"
  name: "relu1"
  type: RELU
}
layers {
  bottom: "conv1"
  top: "pool1"
  name: "pool1"
  type: POOLING
  pooling_param {
    pool: MAX
    kernel_size: 3
    stride: 2
  }
}
layers {
  bottom: "pool1"
  top: "norm1"
  name: "norm1"
  type: LRN
  lrn_param {
    local_size: 5
    alpha: 0.0001
    beta: 0.75
  }
}
layers {
  bottom: "norm1"
  top: "conv2"
  name: "conv2"
  type: CONVOLUTION
  blobs_lr: 1
  blobs_lr: 2
  weight_decay: 1
  weight_decay: 0
  convolution_param {
    num_output: 256
    pad: 2
    kernel_size: 5
    group: 2
    weight_filler {
      type: "gaussian"
      std: 0.01
    }
    bias_filler {
      type: "constant"
      value: 1
    }
  }
}
layers {
  bottom: "conv2"
  top: "conv2"
  name: "relu2"
  type: RELU
}
layers {
  bottom: "conv2"
  top: "pool2"
  name: "pool2"
  type: POOLING
  pooling_param {
    pool: MAX
    kernel_size: 3
    stride: 2
  }
}
layers {
  bottom: "pool2"
  top: "norm2"
  name: "norm2"
  type: LRN
  lrn_param {
    local_size: 5
    alpha: 0.0001
    beta: 0.75
  }
}
layers {
  bottom: "norm2"
  top: "conv3"
  name: "conv3"
  type: CONVOLUTION
  blobs_lr: 1
  blobs_lr: 2
  weight_decay: 1
  weight_decay: 0
  convolution_param {
    num_output: 384
    pad: 1
    kernel_size: 3
    weight_filler {
      type: "gaussian"
      std: 0.01
    }
    bias_filler {
      type: "constant"
      value: 0
    }
  }
}
layers {
  bottom: "conv3"
  top: "conv3"
  name: "relu3"
  type: RELU
}
layers {
  bottom: "conv3"
  top: "conv4"
  name: "conv4"
  type: CONVOLUTION
  blobs_lr: 1
  blobs_lr: 2
  weight_decay: 1
  weight_decay: 0
  convolution_param {
    num_output: 384
    pad: 1
    kernel_size: 3
    group: 2
    weight_filler {
      type: "gaussian"
      std: 0.01
    }
    bias_filler {
      type: "constant"
      value: 1
    }
  }
}
layers {
  bottom: "conv4"
  top: "conv4"
  name: "relu4"
  type: RELU
}
layers {
  bottom: "conv4"
  top: "conv5"
  name: "conv5"
  type: CONVOLUTION
  blobs_lr: 1
  blobs_lr: 2
  weight_decay: 1
  weight_decay: 0
  convolution_param {
    num_output: 256
    pad: 1
    kernel_size: 3
    group: 2
    weight_filler {
      type: "gaussian"
      std: 0.01
    }
    bias_filler {
      type: "constant"
      value: 1
    }
  }
}
layers {
  bottom: "conv5"
  top: "conv5"
  name: "relu5"
  type: RELU
}
layers {
  bottom: "conv5"
  top: "pool5"
  name: "pool5"
  type: POOLING
  pooling_param {
    pool: MAX
    kernel_size: 3
    stride: 2
  }
}
layers {
  bottom: "pool5"
  top: "fc6"
  name: "fc6"
  type: INNER_PRODUCT
  blobs_lr: 1
  blobs_lr: 2
  weight_decay: 1
  weight_decay: 0
  inner_product_param {
    num_output: 4096
    weight_filler {
      type: "gaussian"
      std: 0.005
    }
    bias_filler {
      type: "constant"
      value: 1
    }
  }
}
layers {
  bottom: "fc6"
  top: "fc6"
  name: "relu6"
  type: RELU
}
layers {
  bottom: "fc6"
  top: "fc6"
  name: "drop6"
  type: DROPOUT
  dropout_param {
    dropout_ratio: 0.5
  }
}
layers {
  bottom: "fc6"
  top: "fc7"
  name: "fc7"
  type: INNER_PRODUCT
  blobs_lr: 1
  blobs_lr: 2
  weight_decay: 1
  weight_decay: 0
  inner_product_param {
    num_output: 4096
    weight_filler {
      type: "gaussian"
      std: 0.005
    }
    bias_filler {
      type: "constant"
      value: 1
    }
  }
}
layers {
  bottom: "fc7"
  top: "fc7"
  name: "relu7"
  type: RELU
}
layers {
  bottom: "fc7"
  top: "fc7"
  name: "drop7"
  type: DROPOUT
  dropout_param {
    dropout_ratio: 0.5
  }
}
layers {
  bottom: "fc7"
  top: "fc8_kevin"
  name: "fc8_kevin"
  type: INNER_PRODUCT
  blobs_lr: 1
  blobs_lr: 2
  weight_decay: 1
  weight_decay: 0
  inner_product_param {
    num_output: 48
    weight_filler {
      type: "gaussian"
      std: 0.005
    }
    bias_filler {
      type: "constant"
      value: 1
    }
  }
}
layers {
  bottom: "fc8_kevin"
  top: "fc8_kevin_encode"
  name: "fc8_kevin_encode"
  type: SIGMOID
}
layers {
  bottom: "fc8_kevin_encode"
  top: "fc8_pascal"
  name: "fc8_pascal"
  type: INNER_PRODUCT
  blobs_lr: 10
  blobs_lr: 20
  weight_decay: 1
  weight_decay: 0
  inner_product_param {
    num_output: 31
    weight_filler {
      type: "gaussian"
      std: 0.01
    }
    bias_filler {
      type: "constant"
      value: 0
    }
  }
}
layers {
  bottom: "fc8_pascal"
  bottom: "label"
  name: "loss"
  type: SOFTMAX_LOSS
}
state {
  phase: TRAIN
}
I0308 15:45:34.815892  6093 net.cpp:67] Creating Layer data
I0308 15:45:34.815904  6093 net.cpp:356] data -> data
I0308 15:45:34.815919  6093 net.cpp:356] data -> label
I0308 15:45:34.815937  6093 net.cpp:96] Setting up data
I0308 15:45:34.815958  6093 data_layer.cpp:45] Opening leveldb /data/dataset/jabong_train_leveldb_256_color_label
I0308 15:45:34.828308  6093 data_layer.cpp:128] output data size: 32,3,227,227
I0308 15:45:34.828331  6093 base_data_layer.cpp:36] Loading mean file from../../../data/ilsvrc12/imagenet_mean.binaryproto
I0308 15:45:34.835198  6093 net.cpp:103] Top shape: 32 3 227 227 (4946784)
I0308 15:45:34.835233  6093 net.cpp:103] Top shape: 32 1 1 1 (32)
I0308 15:45:34.835283  6093 net.cpp:67] Creating Layer conv1
I0308 15:45:34.835291  6093 net.cpp:394] conv1 <- data
I0308 15:45:34.835305  6093 net.cpp:356] conv1 -> conv1
I0308 15:45:34.835322  6093 net.cpp:96] Setting up conv1
I0308 15:45:34.859557  6093 net.cpp:103] Top shape: 32 96 55 55 (9292800)
I0308 15:45:34.859627  6093 net.cpp:67] Creating Layer relu1
I0308 15:45:34.859634  6093 net.cpp:394] relu1 <- conv1
I0308 15:45:34.859642  6093 net.cpp:345] relu1 -> conv1 (in-place)
I0308 15:45:34.859653  6093 net.cpp:96] Setting up relu1
I0308 15:45:34.859666  6093 net.cpp:103] Top shape: 32 96 55 55 (9292800)
I0308 15:45:34.859674  6093 net.cpp:67] Creating Layer pool1
I0308 15:45:34.859678  6093 net.cpp:394] pool1 <- conv1
I0308 15:45:34.859709  6093 net.cpp:356] pool1 -> pool1
I0308 15:45:34.859717  6093 net.cpp:96] Setting up pool1
I0308 15:45:34.859741  6093 net.cpp:103] Top shape: 32 96 27 27 (2239488)
I0308 15:45:34.859755  6093 net.cpp:67] Creating Layer norm1
I0308 15:45:34.859761  6093 net.cpp:394] norm1 <- pool1
I0308 15:45:34.859767  6093 net.cpp:356] norm1 -> norm1
I0308 15:45:34.859777  6093 net.cpp:96] Setting up norm1
I0308 15:45:34.859786  6093 net.cpp:103] Top shape: 32 96 27 27 (2239488)
I0308 15:45:34.859796  6093 net.cpp:67] Creating Layer conv2
I0308 15:45:34.859799  6093 net.cpp:394] conv2 <- norm1
I0308 15:45:34.859804  6093 net.cpp:356] conv2 -> conv2
I0308 15:45:34.859812  6093 net.cpp:96] Setting up conv2
I0308 15:45:34.870158  6093 net.cpp:103] Top shape: 32 256 27 27 (5971968)
I0308 15:45:34.870193  6093 net.cpp:67] Creating Layer relu2
I0308 15:45:34.870198  6093 net.cpp:394] relu2 <- conv2
I0308 15:45:34.870204  6093 net.cpp:345] relu2 -> conv2 (in-place)
I0308 15:45:34.870210  6093 net.cpp:96] Setting up relu2
I0308 15:45:34.870218  6093 net.cpp:103] Top shape: 32 256 27 27 (5971968)
I0308 15:45:34.870225  6093 net.cpp:67] Creating Layer pool2
I0308 15:45:34.870229  6093 net.cpp:394] pool2 <- conv2
I0308 15:45:34.870236  6093 net.cpp:356] pool2 -> pool2
I0308 15:45:34.870242  6093 net.cpp:96] Setting up pool2
I0308 15:45:34.870250  6093 net.cpp:103] Top shape: 32 256 13 13 (1384448)
I0308 15:45:34.870257  6093 net.cpp:67] Creating Layer norm2
I0308 15:45:34.870261  6093 net.cpp:394] norm2 <- pool2
I0308 15:45:34.870271  6093 net.cpp:356] norm2 -> norm2
I0308 15:45:34.870277  6093 net.cpp:96] Setting up norm2
I0308 15:45:34.870282  6093 net.cpp:103] Top shape: 32 256 13 13 (1384448)
I0308 15:45:34.870291  6093 net.cpp:67] Creating Layer conv3
I0308 15:45:34.870295  6093 net.cpp:394] conv3 <- norm2
I0308 15:45:34.870301  6093 net.cpp:356] conv3 -> conv3
I0308 15:45:34.870307  6093 net.cpp:96] Setting up conv3
I0308 15:45:34.899211  6093 net.cpp:103] Top shape: 32 384 13 13 (2076672)
I0308 15:45:34.899247  6093 net.cpp:67] Creating Layer relu3
I0308 15:45:34.899253  6093 net.cpp:394] relu3 <- conv3
I0308 15:45:34.899261  6093 net.cpp:345] relu3 -> conv3 (in-place)
I0308 15:45:34.899269  6093 net.cpp:96] Setting up relu3
I0308 15:45:34.899276  6093 net.cpp:103] Top shape: 32 384 13 13 (2076672)
I0308 15:45:34.899287  6093 net.cpp:67] Creating Layer conv4
I0308 15:45:34.899291  6093 net.cpp:394] conv4 <- conv3
I0308 15:45:34.899297  6093 net.cpp:356] conv4 -> conv4
I0308 15:45:34.899303  6093 net.cpp:96] Setting up conv4
I0308 15:45:34.921550  6093 net.cpp:103] Top shape: 32 384 13 13 (2076672)
I0308 15:45:34.921581  6093 net.cpp:67] Creating Layer relu4
I0308 15:45:34.921587  6093 net.cpp:394] relu4 <- conv4
I0308 15:45:34.921594  6093 net.cpp:345] relu4 -> conv4 (in-place)
I0308 15:45:34.921600  6093 net.cpp:96] Setting up relu4
I0308 15:45:34.921608  6093 net.cpp:103] Top shape: 32 384 13 13 (2076672)
I0308 15:45:34.921618  6093 net.cpp:67] Creating Layer conv5
I0308 15:45:34.921622  6093 net.cpp:394] conv5 <- conv4
I0308 15:45:34.921628  6093 net.cpp:356] conv5 -> conv5
I0308 15:45:34.921634  6093 net.cpp:96] Setting up conv5
I0308 15:45:34.936374  6093 net.cpp:103] Top shape: 32 256 13 13 (1384448)
I0308 15:45:34.936404  6093 net.cpp:67] Creating Layer relu5
I0308 15:45:34.936409  6093 net.cpp:394] relu5 <- conv5
I0308 15:45:34.936415  6093 net.cpp:345] relu5 -> conv5 (in-place)
I0308 15:45:34.936424  6093 net.cpp:96] Setting up relu5
I0308 15:45:34.936430  6093 net.cpp:103] Top shape: 32 256 13 13 (1384448)
I0308 15:45:34.936439  6093 net.cpp:67] Creating Layer pool5
I0308 15:45:34.936442  6093 net.cpp:394] pool5 <- conv5
I0308 15:45:34.936450  6093 net.cpp:356] pool5 -> pool5
I0308 15:45:34.936456  6093 net.cpp:96] Setting up pool5
I0308 15:45:34.936466  6093 net.cpp:103] Top shape: 32 256 6 6 (294912)
I0308 15:45:34.936480  6093 net.cpp:67] Creating Layer fc6
I0308 15:45:34.936483  6093 net.cpp:394] fc6 <- pool5
I0308 15:45:34.936489  6093 net.cpp:356] fc6 -> fc6
I0308 15:45:34.936519  6093 net.cpp:96] Setting up fc6
I0308 15:45:36.155155  6093 net.cpp:103] Top shape: 32 4096 1 1 (131072)
I0308 15:45:36.155217  6093 net.cpp:67] Creating Layer relu6
I0308 15:45:36.155225  6093 net.cpp:394] relu6 <- fc6
I0308 15:45:36.155238  6093 net.cpp:345] relu6 -> fc6 (in-place)
I0308 15:45:36.155248  6093 net.cpp:96] Setting up relu6
I0308 15:45:36.155272  6093 net.cpp:103] Top shape: 32 4096 1 1 (131072)
I0308 15:45:36.155279  6093 net.cpp:67] Creating Layer drop6
I0308 15:45:36.155283  6093 net.cpp:394] drop6 <- fc6
I0308 15:45:36.155292  6093 net.cpp:345] drop6 -> fc6 (in-place)
I0308 15:45:36.155297  6093 net.cpp:96] Setting up drop6
I0308 15:45:36.155308  6093 net.cpp:103] Top shape: 32 4096 1 1 (131072)
I0308 15:45:36.155315  6093 net.cpp:67] Creating Layer fc7
I0308 15:45:36.155325  6093 net.cpp:394] fc7 <- fc6
I0308 15:45:36.155333  6093 net.cpp:356] fc7 -> fc7
I0308 15:45:36.155340  6093 net.cpp:96] Setting up fc7
I0308 15:45:36.697769  6093 net.cpp:103] Top shape: 32 4096 1 1 (131072)
I0308 15:45:36.697830  6093 net.cpp:67] Creating Layer relu7
I0308 15:45:36.697837  6093 net.cpp:394] relu7 <- fc7
I0308 15:45:36.697847  6093 net.cpp:345] relu7 -> fc7 (in-place)
I0308 15:45:36.697857  6093 net.cpp:96] Setting up relu7
I0308 15:45:36.697881  6093 net.cpp:103] Top shape: 32 4096 1 1 (131072)
I0308 15:45:36.697891  6093 net.cpp:67] Creating Layer drop7
I0308 15:45:36.697896  6093 net.cpp:394] drop7 <- fc7
I0308 15:45:36.697901  6093 net.cpp:345] drop7 -> fc7 (in-place)
I0308 15:45:36.697906  6093 net.cpp:96] Setting up drop7
I0308 15:45:36.697912  6093 net.cpp:103] Top shape: 32 4096 1 1 (131072)
I0308 15:45:36.697921  6093 net.cpp:67] Creating Layer fc8_kevin
I0308 15:45:36.697923  6093 net.cpp:394] fc8_kevin <- fc7
I0308 15:45:36.697932  6093 net.cpp:356] fc8_kevin -> fc8_kevin
I0308 15:45:36.697940  6093 net.cpp:96] Setting up fc8_kevin
I0308 15:45:36.704499  6093 net.cpp:103] Top shape: 32 48 1 1 (1536)
I0308 15:45:36.704522  6093 net.cpp:67] Creating Layer fc8_kevin_encode
I0308 15:45:36.704527  6093 net.cpp:394] fc8_kevin_encode <- fc8_kevin
I0308 15:45:36.704533  6093 net.cpp:356] fc8_kevin_encode -> fc8_kevin_encode
I0308 15:45:36.704540  6093 net.cpp:96] Setting up fc8_kevin_encode
I0308 15:45:36.704553  6093 net.cpp:103] Top shape: 32 48 1 1 (1536)
I0308 15:45:36.704561  6093 net.cpp:67] Creating Layer fc8_pascal
I0308 15:45:36.704566  6093 net.cpp:394] fc8_pascal <- fc8_kevin_encode
I0308 15:45:36.704576  6093 net.cpp:356] fc8_pascal -> fc8_pascal
I0308 15:45:36.704586  6093 net.cpp:96] Setting up fc8_pascal
I0308 15:45:36.704653  6093 net.cpp:103] Top shape: 32 31 1 1 (992)
I0308 15:45:36.704677  6093 net.cpp:67] Creating Layer loss
I0308 15:45:36.704682  6093 net.cpp:394] loss <- fc8_pascal
I0308 15:45:36.704687  6093 net.cpp:394] loss <- label
I0308 15:45:36.704694  6093 net.cpp:356] loss -> (automatic)
I0308 15:45:36.704704  6093 net.cpp:96] Setting up loss
I0308 15:45:36.704718  6093 net.cpp:103] Top shape: 1 1 1 1 (1)
I0308 15:45:36.704725  6093 net.cpp:109]     with loss weight 1
I0308 15:45:36.704769  6093 net.cpp:170] loss needs backward computation.
I0308 15:45:36.704776  6093 net.cpp:170] fc8_pascal needs backward computation.
I0308 15:45:36.704779  6093 net.cpp:170] fc8_kevin_encode needs backward computation.
I0308 15:45:36.704782  6093 net.cpp:170] fc8_kevin needs backward computation.
I0308 15:45:36.704787  6093 net.cpp:170] drop7 needs backward computation.
…
E0308 15:45:36.705884  6093 upgrade_proto.cpp:604] Note that future Caffe releases will not support V0NetParameter; use ./build/tools/upgrade_net_proto_text for prototxt and ./build/tools/upgrade_net_proto_binary for model weights upgrade this and any other net protos to the new format.
I0308 15:45:36.705919  6093 solver.cpp:151] Creating test net (#0) specified by test_net file: test_fashion_48.prototxt
I0308 15:45:36.706154  6093 net.cpp:39] Initializing net from parameters: 
name: "deepFashion"
layers {
  top: "data"
  top: "label"
  name: "data"
  type: DATA
  data_param {
    source: "/data/dataset/jabong_test_leveldb_256_color_label"
    batch_size: 32
  }
  transform_param {
    mirror: true
    crop_size: 227
    mean_file: "../../../data/ilsvrc12/imagenet_mean.binaryproto"
  }
}
layers {
  bottom: "data"
  top: "conv1"
  name: "conv1"
  type: CONVOLUTION
  blobs_lr: 1
  blobs_lr: 2
  weight_decay: 1
  weight_decay: 0
  convolution_param {
    num_output: 96
    kernel_size: 11
    stride: 4
    weight_filler {
      type: "gaussian"
      std: 0.01
    }
    bias_filler {
      type: "constant"
      value: 0
    }
  }
}
layers {
  bottom: "conv1"
  top: "conv1"
  name: "relu1"
  type: RELU
}
layers {
  bottom: "conv1"
  top: "pool1"
  name: "pool1"
  type: POOLING
  pooling_param {
    pool: MAX
    kernel_size: 3
    stride: 2
  }
}
layers {
  bottom: "pool1"
  top: "norm1"
  name: "norm1"
  type: LRN
  lrn_param {
    local_size: 5
    alpha: 0.0001
    beta: 0.75
  }
}
layers {
  bottom: "norm1"
  top: "conv2"
  name: "conv2"
  type: CONVOLUTION
  blobs_lr: 1
  blobs_lr: 2
  weight_decay: 1
  weight_decay: 0
  convolution_param {
    num_output: 256
    pad: 2
    kernel_size: 5
    group: 2
    weight_filler {
      type: "gaussian"
      std: 0.01
    }
    bias_filler {
      type: "constant"
      value: 1
    }
  }
}
layers {
  bottom: "conv2"
  top: "conv2"
  name: "relu2"
  type: RELU
}
layers {
  bottom: "conv2"
  top: "pool2"
  name: "pool2"
  type: POOLING
  pooling_param {
    pool: MAX
    kernel_size: 3
    stride: 2
  }
}
layers {
  bottom: "pool2"
  top: "norm2"
  name: "norm2"
  type: LRN
  lrn_param {
    local_size: 5
    alpha: 0.0001
    beta: 0.75
  }
}
layers {
  bottom: "norm2"
  top: "conv3"
  name: "conv3"
  type: CONVOLUTION
  blobs_lr: 1
  blobs_lr: 2
  weight_decay: 1
  weight_decay: 0
  convolution_param {
    num_output: 384
    pad: 1
    kernel_size: 3
    weight_filler {
      type: "gaussian"
      std: 0.01
    }
    bias_filler {
      type: "constant"
      value: 0
    }
  }
}
layers {
  bottom: "conv3"
  top: "conv3"
  name: "relu3"
  type: RELU
}
layers {
  bottom: "conv3"
  top: "conv4"
  name: "conv4"
  type: CONVOLUTION
  blobs_lr: 1
  blobs_lr: 2
  weight_decay: 1
  weight_decay: 0
  convolution_param {
    num_output: 384
    pad: 1
    kernel_size: 3
    group: 2
    weight_filler {
      type: "gaussian"
      std: 0.01
    }
    bias_filler {
      type: "constant"
      value: 1
    }
  }
}
layers {
  bottom: "conv4"
  top: "conv4"
  name: "relu4"
  type: RELU
}
layers {
  bottom: "conv4"
  top: "conv5"
  name: "conv5"
  type: CONVOLUTION
  blobs_lr: 1
  blobs_lr: 2
  weight_decay: 1
  weight_decay: 0
  convolution_param {
    num_output: 256
    pad: 1
    kernel_size: 3
    group: 2
    weight_filler {
      type: "gaussian"
      std: 0.01
    }
    bias_filler {
      type: "constant"
      value: 1
    }
  }
}
layers {
  bottom: "conv5"
  top: "conv5"
  name: "relu5"
  type: RELU
}
layers {
  bottom: "conv5"
  top: "pool5"
  name: "pool5"
  type: POOLING
  pooling_param {
    pool: MAX
    kernel_size: 3
    stride: 2
  }
}
layers {
  bottom: "pool5"
  top: "fc6"
  name: "fc6"
  type: INNER_PRODUCT
  blobs_lr: 1
  blobs_lr: 2
  weight_decay: 1
  weight_decay: 0
  inner_product_param {
    num_output: 4096
    weight_filler {
      type: "gaussian"
      std: 0.005
    }
    bias_filler {
      type: "constant"
      value: 1
    }
  }
}
layers {
  bottom: "fc6"
  top: "fc6"
  name: "relu6"
  type: RELU
}
layers {
  bottom: "fc6"
  top: "fc6"
  name: "drop6"
  type: DROPOUT
  dropout_param {
    dropout_ratio: 0.5
  }
}
layers {
  bottom: "fc6"
  top: "fc7"
  name: "fc7"
  type: INNER_PRODUCT
  blobs_lr: 1
  blobs_lr: 2
  weight_decay: 1
  weight_decay: 0
  inner_product_param {
    num_output: 4096
    weight_filler {
      type: "gaussian"
      std: 0.005
    }
    bias_filler {
      type: "constant"
      value: 1
    }
  }
}
layers {
  bottom: "fc7"
  top: "fc7"
  name: "relu7"
  type: RELU
}
layers {
  bottom: "fc7"
  top: "fc7"
  name: "drop7"
  type: DROPOUT
  dropout_param {
    dropout_ratio: 0.5
  }
}
layers {
  bottom: "fc7"
  top: "fc8_kevin"
  name: "fc8_kevin"
  type: INNER_PRODUCT
  blobs_lr: 1
  blobs_lr: 2
  weight_decay: 1
  weight_decay: 0
  inner_product_param {
    num_output: 48
    weight_filler {
      type: "gaussian"
      std: 0.005
    }
    bias_filler {
      type: "constant"
      value: 1
    }
  }
}
layers {
  bottom: "fc8_kevin"
  top: "fc8_kevin_encode"
  name: "fc8_kevin_encode"
  type: SIGMOID
}
layers {
  bottom: "fc8_kevin_encode"
  top: "fc8_pascal"
  name: "fc8_pascal"
  type: INNER_PRODUCT
  blobs_lr: 10
  blobs_lr: 20
  weight_decay: 1
  weight_decay: 0
  inner_product_param {
    num_output: 31
    weight_filler {
      type: "gaussian"
      std: 0.01
    }
    bias_filler {
      type: "constant"
      value: 0
    }
  }
}
layers {
  bottom: "fc8_pascal"
  top: "prob"
  name: "prob"
  type: SOFTMAX
}
layers {
  bottom: "prob"
  bottom: "label"
  top: "accuracy"
  name: "accuracy"
  type: ACCURACY
}
state {
  phase: TEST
}
I0308 15:45:36.706259  6093 net.cpp:67] Creating Layer data
I0308 15:45:36.706267  6093 net.cpp:356] data -> data
I0308 15:45:36.706276  6093 net.cpp:356] data -> label
I0308 15:45:36.706282  6093 net.cpp:96] Setting up data
I0308 15:45:36.706290  6093 data_layer.cpp:45] Opening leveldb /data/dataset/jabong_test_leveldb_256_color_label
I0308 15:45:36.717489  6093 data_layer.cpp:128] output data size: 32,3,227,227
I0308 15:45:36.717509  6093 base_data_layer.cpp:36] Loading mean file from../../../data/ilsvrc12/imagenet_mean.binaryproto
I0308 15:45:36.724442  6093 net.cpp:103] Top shape: 32 3 227 227 (4946784)
I0308 15:45:36.724474  6093 net.cpp:103] Top shape: 32 1 1 1 (32)
I0308 15:45:36.724496  6093 net.cpp:67] Creating Layer conv1
I0308 15:45:36.724503  6093 net.cpp:394] conv1 <- data
I0308 15:45:36.724514  6093 net.cpp:356] conv1 -> conv1
I0308 15:45:36.724526  6093 net.cpp:96] Setting up conv1
I0308 15:45:36.725766  6093 net.cpp:103] Top shape: 32 96 55 55 (9292800)
I0308 15:45:36.725795  6093 net.cpp:67] Creating Layer relu1
I0308 15:45:36.725801  6093 net.cpp:394] relu1 <- conv1
I0308 15:45:36.725807  6093 net.cpp:345] relu1 -> conv1 (in-place)
I0308 15:45:36.725813  6093 net.cpp:96] Setting up relu1
I0308 15:45:36.725821  6093 net.cpp:103] Top shape: 32 96 55 55 (9292800)
I0308 15:45:36.725829  6093 net.cpp:67] Creating Layer pool1
I0308 15:45:36.725833  6093 net.cpp:394] pool1 <- conv1
I0308 15:45:36.725838  6093 net.cpp:356] pool1 -> pool1
I0308 15:45:36.725846  6093 net.cpp:96] Setting up pool1
I0308 15:45:36.725854  6093 net.cpp:103] Top shape: 32 96 27 27 (2239488)
I0308 15:45:36.725863  6093 net.cpp:67] Creating Layer norm1
I0308 15:45:36.725872  6093 net.cpp:394] norm1 <- pool1
I0308 15:45:36.725877  6093 net.cpp:356] norm1 -> norm1
I0308 15:45:36.725883  6093 net.cpp:96] Setting up norm1
I0308 15:45:36.725889  6093 net.cpp:103] Top shape: 32 96 27 27 (2239488)
I0308 15:45:36.725896  6093 net.cpp:67] Creating Layer conv2
I0308 15:45:36.725900  6093 net.cpp:394] conv2 <- norm1
I0308 15:45:36.725908  6093 net.cpp:356] conv2 -> conv2
I0308 15:45:36.725914  6093 net.cpp:96] Setting up conv2
I0308 15:45:36.736419  6093 net.cpp:103] Top shape: 32 256 27 27 (5971968)
I0308 15:45:36.736456  6093 net.cpp:67] Creating Layer relu2
I0308 15:45:36.736462  6093 net.cpp:394] relu2 <- conv2
I0308 15:45:36.736469  6093 net.cpp:345] relu2 -> conv2 (in-place)
I0308 15:45:36.736477  6093 net.cpp:96] Setting up relu2
I0308 15:45:36.736485  6093 net.cpp:103] Top shape: 32 256 27 27 (5971968)
I0308 15:45:36.736491  6093 net.cpp:67] Creating Layer pool2
I0308 15:45:36.736495  6093 net.cpp:394] pool2 <- conv2
I0308 15:45:36.736501  6093 net.cpp:356] pool2 -> pool2
I0308 15:45:36.736507  6093 net.cpp:96] Setting up pool2
I0308 15:45:36.736515  6093 net.cpp:103] Top shape: 32 256 13 13 (1384448)
I0308 15:45:36.736524  6093 net.cpp:67] Creating Layer norm2
I0308 15:45:36.736536  6093 net.cpp:394] norm2 <- pool2
I0308 15:45:36.736547  6093 net.cpp:356] norm2 -> norm2
I0308 15:45:36.736553  6093 net.cpp:96] Setting up norm2
I0308 15:45:36.736558  6093 net.cpp:103] Top shape: 32 256 13 13 (1384448)
I0308 15:45:36.736567  6093 net.cpp:67] Creating Layer conv3
I0308 15:45:36.736572  6093 net.cpp:394] conv3 <- norm2
I0308 15:45:36.736577  6093 net.cpp:356] conv3 -> conv3
I0308 15:45:36.736585  6093 net.cpp:96] Setting up conv3
I0308 15:45:36.765806  6093 net.cpp:103] Top shape: 32 384 13 13 (2076672)
I0308 15:45:36.765858  6093 net.cpp:67] Creating Layer relu3
I0308 15:45:36.765866  6093 net.cpp:394] relu3 <- conv3
I0308 15:45:36.765875  6093 net.cpp:345] relu3 -> conv3 (in-place)
I0308 15:45:36.765884  6093 net.cpp:96] Setting up relu3
I0308 15:45:36.765893  6093 net.cpp:103] Top shape: 32 384 13 13 (2076672)
I0308 15:45:36.765902  6093 net.cpp:67] Creating Layer conv4
I0308 15:45:36.765907  6093 net.cpp:394] conv4 <- conv3
I0308 15:45:36.765913  6093 net.cpp:356] conv4 -> conv4
I0308 15:45:36.765920  6093 net.cpp:96] Setting up conv4
I0308 15:45:36.787582  6093 net.cpp:103] Top shape: 32 384 13 13 (2076672)
I0308 15:45:36.787606  6093 net.cpp:67] Creating Layer relu4
I0308 15:45:36.787611  6093 net.cpp:394] relu4 <- conv4
I0308 15:45:36.787617  6093 net.cpp:345] relu4 -> conv4 (in-place)
I0308 15:45:36.787624  6093 net.cpp:96] Setting up relu4
I0308 15:45:36.787631  6093 net.cpp:103] Top shape: 32 384 13 13 (2076672)
I0308 15:45:36.787639  6093 net.cpp:67] Creating Layer conv5
I0308 15:45:36.787643  6093 net.cpp:394] conv5 <- conv4
I0308 15:45:36.787652  6093 net.cpp:356] conv5 -> conv5
I0308 15:45:36.787658  6093 net.cpp:96] Setting up conv5
I0308 15:45:36.802717  6093 net.cpp:103] Top shape: 32 256 13 13 (1384448)
I0308 15:45:36.802747  6093 net.cpp:67] Creating Layer relu5
I0308 15:45:36.802752  6093 net.cpp:394] relu5 <- conv5
I0308 15:45:36.802759  6093 net.cpp:345] relu5 -> conv5 (in-place)
I0308 15:45:36.802767  6093 net.cpp:96] Setting up relu5
I0308 15:45:36.802773  6093 net.cpp:103] Top shape: 32 256 13 13 (1384448)
I0308 15:45:36.802781  6093 net.cpp:67] Creating Layer pool5
I0308 15:45:36.802785  6093 net.cpp:394] pool5 <- conv5
I0308 15:45:36.802791  6093 net.cpp:356] pool5 -> pool5
I0308 15:45:36.802798  6093 net.cpp:96] Setting up pool5
I0308 15:45:36.802808  6093 net.cpp:103] Top shape: 32 256 6 6 (294912)
I0308 15:45:36.802819  6093 net.cpp:67] Creating Layer fc6
I0308 15:45:36.802825  6093 net.cpp:394] fc6 <- pool5
I0308 15:45:36.802832  6093 net.cpp:356] fc6 -> fc6
I0308 15:45:36.802839  6093 net.cpp:96] Setting up fc6
I0308 15:45:38.027585  6093 net.cpp:103] Top shape: 32 4096 1 1 (131072)
I0308 15:45:38.027647  6093 net.cpp:67] Creating Layer relu6
I0308 15:45:38.027657  6093 net.cpp:394] relu6 <- fc6
I0308 15:45:38.027667  6093 net.cpp:345] relu6 -> fc6 (in-place)
I0308 15:45:38.027678  6093 net.cpp:96] Setting up relu6
I0308 15:45:38.027703  6093 net.cpp:103] Top shape: 32 4096 1 1 (131072)
I0308 15:45:38.027710  6093 net.cpp:67] Creating Layer drop6
I0308 15:45:38.027715  6093 net.cpp:394] drop6 <- fc6
I0308 15:45:38.027721  6093 net.cpp:345] drop6 -> fc6 (in-place)
I0308 15:45:38.027727  6093 net.cpp:96] Setting up drop6
I0308 15:45:38.027734  6093 net.cpp:103] Top shape: 32 4096 1 1 (131072)
I0308 15:45:38.027743  6093 net.cpp:67] Creating Layer fc7
I0308 15:45:38.027748  6093 net.cpp:394] fc7 <- fc6
I0308 15:45:38.027755  6093 net.cpp:356] fc7 -> fc7
I0308 15:45:38.027763  6093 net.cpp:96] Setting up fc7
I0308 15:45:38.572449  6093 net.cpp:103] Top shape: 32 4096 1 1 (131072)
I0308 15:45:38.572515  6093 net.cpp:67] Creating Layer relu7
I0308 15:45:38.572522  6093 net.cpp:394] relu7 <- fc7
I0308 15:45:38.572533  6093 net.cpp:345] relu7 -> fc7 (in-place)
I0308 15:45:38.572543  6093 net.cpp:96] Setting up relu7
I0308 15:45:38.572567  6093 net.cpp:103] Top shape: 32 4096 1 1 (131072)
I0308 15:45:38.572576  6093 net.cpp:67] Creating Layer drop7
I0308 15:45:38.572579  6093 net.cpp:394] drop7 <- fc7
I0308 15:45:38.572584  6093 net.cpp:345] drop7 -> fc7 (in-place)
I0308 15:45:38.572592  6093 net.cpp:96] Setting up drop7
I0308 15:45:38.572597  6093 net.cpp:103] Top shape: 32 4096 1 1 (131072)
I0308 15:45:38.572605  6093 net.cpp:67] Creating Layer fc8_kevin
I0308 15:45:38.572609  6093 net.cpp:394] fc8_kevin <- fc7
I0308 15:45:38.572623  6093 net.cpp:356] fc8_kevin -> fc8_kevin
I0308 15:45:38.572633  6093 net.cpp:96] Setting up fc8_kevin
I0308 15:45:38.578907  6093 net.cpp:103] Top shape: 32 48 1 1 (1536)
I0308 15:45:38.578929  6093 net.cpp:67] Creating Layer fc8_kevin_encode
I0308 15:45:38.578934  6093 net.cpp:394] fc8_kevin_encode <- fc8_kevin
I0308 15:45:38.578940  6093 net.cpp:356] fc8_kevin_encode -> fc8_kevin_encode
I0308 15:45:38.578948  6093 net.cpp:96] Setting up fc8_kevin_encode
I0308 15:45:38.578956  6093 net.cpp:103] Top shape: 32 48 1 1 (1536)
I0308 15:45:38.578963  6093 net.cpp:67] Creating Layer fc8_pascal
I0308 15:45:38.578968  6093 net.cpp:394] fc8_pascal <- fc8_kevin_encode
I0308 15:45:38.578977  6093 net.cpp:356] fc8_pascal -> fc8_pascal
I0308 15:45:38.578987  6093 net.cpp:96] Setting up fc8_pascal
I0308 15:45:38.579054  6093 net.cpp:103] Top shape: 32 31 1 1 (992)
I0308 15:45:38.579077  6093 net.cpp:67] Creating Layer prob
I0308 15:45:38.579092  6093 net.cpp:394] prob <- fc8_pascal
I0308 15:45:38.579098  6093 net.cpp:356] prob -> prob
I0308 15:45:38.579105  6093 net.cpp:96] Setting up prob
I0308 15:45:38.579119  6093 net.cpp:103] Top shape: 32 31 1 1 (992)
I0308 15:45:38.579128  6093 net.cpp:67] Creating Layer accuracy
I0308 15:45:38.579133  6093 net.cpp:394] accuracy <- prob
I0308 15:45:38.579138  6093 net.cpp:394] accuracy <- label
I0308 15:45:38.579144  6093 net.cpp:356] accuracy -> accuracy
I0308 15:45:38.579149  6093 net.cpp:96] Setting up accuracy
I0308 15:45:38.579179  6093 net.cpp:103] Top shape: 1 1 1 1 (1)
I0308 15:45:38.579183  6093 net.cpp:172] accuracy does not need backward computation.
I0308 15:45:38.579187  6093 net.cpp:172] prob does not need backward computation.
I0308 15:45:38.579190  6093 net.cpp:172] fc8_pascal does not need backward computation.
I0308 15:45:38.579195  6093 net.cpp:172] fc8_kevin_encode does not need backward computation.
I0308 15:45:38.579197  6093 net.cpp:172] fc8_kevin does not need backward computation.
…
