…
I0330 20:13:28.374011 30752 net.cpp:39] Initializing net from parameters: 
name: "deepFashion"
layers {
  top: "data"
  name: "data"
  type: DATA
  data_param {
    source: "/data/deepfashion/color_label_multilabel/color_label_multilabel_TRAIN"
    batch_size: 32
  }
  include {
    phase: TRAIN
  }
  transform_param {
    mirror: true
    crop_size: 227
    mean_file: "../../../data/ilsvrc12/imagenet_mean.binaryproto"
  }
}
layers {
  top: "labels"
  name: "labels"
  type: DATA
  data_param {
    source: "/data/deepfashion/color_label_multilabel/color_label_multilabel_TRAIN_ALT"
    batch_size: 32
  }
  include {
    phase: TRAIN
  }
}
layers {
  bottom: "labels"
  top: "labels0"
  top: "labels1"
  name: "sliceL"
  type: SLICE
  slice_param {
    slice_point: 1
  }
}
layers {
  bottom: "data"
  top: "conv1"
  name: "conv1"
  type: CONVOLUTION
  blobs_lr: 1
  blobs_lr: 2
  weight_decay: 1
  weight_decay: 0
  convolution_param {
    num_output: 96
    kernel_size: 11
    stride: 4
    weight_filler {
      type: "gaussian"
      std: 0.01
    }
    bias_filler {
      type: "constant"
      value: 0
    }
  }
}
layers {
  bottom: "conv1"
  top: "conv1"
  name: "relu1"
  type: RELU
}
layers {
  bottom: "conv1"
  top: "pool1"
  name: "pool1"
  type: POOLING
  pooling_param {
    pool: MAX
    kernel_size: 3
    stride: 2
  }
}
layers {
  bottom: "pool1"
  top: "norm1"
  name: "norm1"
  type: LRN
  lrn_param {
    local_size: 5
    alpha: 0.0001
    beta: 0.75
  }
}
layers {
  bottom: "norm1"
  top: "conv2"
  name: "conv2"
  type: CONVOLUTION
  blobs_lr: 1
  blobs_lr: 2
  weight_decay: 1
  weight_decay: 0
  convolution_param {
    num_output: 256
    pad: 2
    kernel_size: 5
    group: 2
    weight_filler {
      type: "gaussian"
      std: 0.01
    }
    bias_filler {
      type: "constant"
      value: 1
    }
  }
}
layers {
  bottom: "conv2"
  top: "conv2"
  name: "relu2"
  type: RELU
}
layers {
  bottom: "conv2"
  top: "pool2"
  name: "pool2"
  type: POOLING
  pooling_param {
    pool: MAX
    kernel_size: 3
    stride: 2
  }
}
layers {
  bottom: "pool2"
  top: "norm2"
  name: "norm2"
  type: LRN
  lrn_param {
    local_size: 5
    alpha: 0.0001
    beta: 0.75
  }
}
layers {
  bottom: "norm2"
  top: "conv3"
  name: "conv3"
  type: CONVOLUTION
  blobs_lr: 1
  blobs_lr: 2
  weight_decay: 1
  weight_decay: 0
  convolution_param {
    num_output: 384
    pad: 1
    kernel_size: 3
    weight_filler {
      type: "gaussian"
      std: 0.01
    }
    bias_filler {
      type: "constant"
      value: 0
    }
  }
}
layers {
  bottom: "conv3"
  top: "conv3"
  name: "relu3"
  type: RELU
}
layers {
  bottom: "conv3"
  top: "conv4"
  name: "conv4"
  type: CONVOLUTION
  blobs_lr: 1
  blobs_lr: 2
  weight_decay: 1
  weight_decay: 0
  convolution_param {
    num_output: 384
    pad: 1
    kernel_size: 3
    group: 2
    weight_filler {
      type: "gaussian"
      std: 0.01
    }
    bias_filler {
      type: "constant"
      value: 1
    }
  }
}
layers {
  bottom: "conv4"
  top: "conv4"
  name: "relu4"
  type: RELU
}
layers {
  bottom: "conv4"
  top: "conv5"
  name: "conv5"
  type: CONVOLUTION
  blobs_lr: 1
  blobs_lr: 2
  weight_decay: 1
  weight_decay: 0
  convolution_param {
    num_output: 256
    pad: 1
    kernel_size: 3
    group: 2
    weight_filler {
      type: "gaussian"
      std: 0.01
    }
    bias_filler {
      type: "constant"
      value: 1
    }
  }
}
layers {
  bottom: "conv5"
  top: "conv5"
  name: "relu5"
  type: RELU
}
layers {
  bottom: "conv5"
  top: "pool5"
  name: "pool5"
  type: POOLING
  pooling_param {
    pool: MAX
    kernel_size: 3
    stride: 2
  }
}
layers {
  bottom: "pool5"
  top: "fc6"
  name: "fc6"
  type: INNER_PRODUCT
  blobs_lr: 1
  blobs_lr: 2
  weight_decay: 1
  weight_decay: 0
  inner_product_param {
    num_output: 4096
    weight_filler {
      type: "gaussian"
      std: 0.005
    }
    bias_filler {
      type: "constant"
      value: 1
    }
  }
}
layers {
  bottom: "fc6"
  top: "fc6"
  name: "relu6"
  type: RELU
}
layers {
  bottom: "fc6"
  top: "fc6"
  name: "drop6"
  type: DROPOUT
  dropout_param {
    dropout_ratio: 0.5
  }
}
layers {
  bottom: "fc6"
  top: "fc7"
  name: "fc7"
  type: INNER_PRODUCT
  blobs_lr: 1
  blobs_lr: 2
  weight_decay: 1
  weight_decay: 0
  inner_product_param {
    num_output: 4096
    weight_filler {
      type: "gaussian"
      std: 0.005
    }
    bias_filler {
      type: "constant"
      value: 1
    }
  }
}
layers {
  bottom: "fc7"
  top: "fc7"
  name: "relu7"
  type: RELU
}
layers {
  bottom: "fc7"
  top: "fc7"
  name: "drop7"
  type: DROPOUT
  dropout_param {
    dropout_ratio: 0.5
  }
}
layers {
  bottom: "fc7"
  top: "fc8_deepfashion"
  name: "fc8_deepfashion"
  type: INNER_PRODUCT
  blobs_lr: 1
  blobs_lr: 2
  weight_decay: 1
  weight_decay: 0
  inner_product_param {
    num_output: 96
    weight_filler {
      type: "gaussian"
      std: 0.01
    }
    bias_filler {
      type: "constant"
      value: 0
    }
  }
}
layers {
  bottom: "fc8_deepfashion"
  top: "fc8_deepfashion_encode"
  name: "fc8_deepfashion_encode"
  type: SIGMOID
}
layers {
  bottom: "fc8_deepfashion_encode"
  top: "fc8_pascal_label"
  name: "fc8_pascal_label"
  type: INNER_PRODUCT
  blobs_lr: 10
  blobs_lr: 20
  weight_decay: 1
  weight_decay: 0
  inner_product_param {
    num_output: 10
    weight_filler {
      type: "gaussian"
      std: 0.01
    }
    bias_filler {
      type: "constant"
      value: 0
    }
  }
}
layers {
  bottom: "fc8_deepfashion_encode"
  top: "fc8_pascal_color"
  name: "fc8_pascal_color"
  type: INNER_PRODUCT
  blobs_lr: 10
  blobs_lr: 20
  weight_decay: 1
  weight_decay: 0
  inner_product_param {
    num_output: 16
    weight_filler {
      type: "gaussian"
      std: 0.01
    }
    bias_filler {
      type: "constant"
      value: 0
    }
  }
}
layers {
  bottom: "fc8_pascal_label"
  bottom: "labels0"
  name: "loss1"
  type: SOFTMAX_LOSS
}
layers {
  bottom: "fc8_pascal_color"
  bottom: "labels1"
  name: "loss2"
  type: SOFTMAX_LOSS
}
state {
  phase: TRAIN
}
I0330 20:13:28.374253 30752 net.cpp:67] Creating Layer data
I0330 20:13:28.374271 30752 net.cpp:356] data -> data
I0330 20:13:28.374300 30752 net.cpp:96] Setting up data
I0330 20:13:28.374336 30752 data_layer.cpp:45] Opening leveldb /data/deepfashion/color_label_multilabel/color_label_multilabel_TRAIN
I0330 20:13:28.387115 30752 data_layer.cpp:128] output data size: 32,3,227,227
I0330 20:13:28.387137 30752 base_data_layer.cpp:36] Loading mean file from../../../data/ilsvrc12/imagenet_mean.binaryproto
I0330 20:13:28.394269 30752 net.cpp:103] Top shape: 32 3 227 227 (4946784)
I0330 20:13:28.394316 30752 net.cpp:67] Creating Layer labels
I0330 20:13:28.394330 30752 net.cpp:356] labels -> labels
I0330 20:13:28.394352 30752 net.cpp:96] Setting up labels
I0330 20:13:28.394363 30752 data_layer.cpp:45] Opening leveldb /data/deepfashion/color_label_multilabel/color_label_multilabel_TRAIN_ALT
I0330 20:13:28.403484 30752 data_layer.cpp:128] output data size: 32,2,1,1
I0330 20:13:28.403935 30752 net.cpp:103] Top shape: 32 2 1 1 (64)
I0330 20:13:28.403964 30752 net.cpp:67] Creating Layer sliceL
I0330 20:13:28.403977 30752 net.cpp:394] sliceL <- labels
I0330 20:13:28.404016 30752 net.cpp:356] sliceL -> labels0
I0330 20:13:28.404045 30752 net.cpp:356] sliceL -> labels1
I0330 20:13:28.404065 30752 net.cpp:96] Setting up sliceL
I0330 20:13:28.404081 30752 net.cpp:103] Top shape: 32 1 1 1 (32)
I0330 20:13:28.404090 30752 net.cpp:103] Top shape: 32 1 1 1 (32)
I0330 20:13:28.404119 30752 net.cpp:67] Creating Layer conv1
I0330 20:13:28.404139 30752 net.cpp:394] conv1 <- data
I0330 20:13:28.404160 30752 net.cpp:356] conv1 -> conv1
I0330 20:13:28.404180 30752 net.cpp:96] Setting up conv1
I0330 20:13:28.426858 30752 net.cpp:103] Top shape: 32 96 55 55 (9292800)
I0330 20:13:28.426920 30752 net.cpp:67] Creating Layer relu1
I0330 20:13:28.426933 30752 net.cpp:394] relu1 <- conv1
I0330 20:13:28.426944 30752 net.cpp:345] relu1 -> conv1 (in-place)
I0330 20:13:28.426959 30752 net.cpp:96] Setting up relu1
I0330 20:13:28.426978 30752 net.cpp:103] Top shape: 32 96 55 55 (9292800)
I0330 20:13:28.426992 30752 net.cpp:67] Creating Layer pool1
I0330 20:13:28.427001 30752 net.cpp:394] pool1 <- conv1
I0330 20:13:28.427013 30752 net.cpp:356] pool1 -> pool1
I0330 20:13:28.427026 30752 net.cpp:96] Setting up pool1
I0330 20:13:28.427062 30752 net.cpp:103] Top shape: 32 96 27 27 (2239488)
I0330 20:13:28.427091 30752 net.cpp:67] Creating Layer norm1
I0330 20:13:28.427101 30752 net.cpp:394] norm1 <- pool1
I0330 20:13:28.427114 30752 net.cpp:356] norm1 -> norm1
I0330 20:13:28.427125 30752 net.cpp:96] Setting up norm1
I0330 20:13:28.427139 30752 net.cpp:103] Top shape: 32 96 27 27 (2239488)
I0330 20:13:28.427155 30752 net.cpp:67] Creating Layer conv2
I0330 20:13:28.427162 30752 net.cpp:394] conv2 <- norm1
I0330 20:13:28.427177 30752 net.cpp:356] conv2 -> conv2
I0330 20:13:28.427191 30752 net.cpp:96] Setting up conv2
I0330 20:13:28.437476 30752 net.cpp:103] Top shape: 32 256 27 27 (5971968)
I0330 20:13:28.437506 30752 net.cpp:67] Creating Layer relu2
I0330 20:13:28.437516 30752 net.cpp:394] relu2 <- conv2
I0330 20:13:28.437527 30752 net.cpp:345] relu2 -> conv2 (in-place)
I0330 20:13:28.437538 30752 net.cpp:96] Setting up relu2
I0330 20:13:28.437566 30752 net.cpp:103] Top shape: 32 256 27 27 (5971968)
I0330 20:13:28.437587 30752 net.cpp:67] Creating Layer pool2
I0330 20:13:28.437597 30752 net.cpp:394] pool2 <- conv2
I0330 20:13:28.437608 30752 net.cpp:356] pool2 -> pool2
I0330 20:13:28.437620 30752 net.cpp:96] Setting up pool2
I0330 20:13:28.437635 30752 net.cpp:103] Top shape: 32 256 13 13 (1384448)
I0330 20:13:28.437651 30752 net.cpp:67] Creating Layer norm2
I0330 20:13:28.437667 30752 net.cpp:394] norm2 <- pool2
I0330 20:13:28.437679 30752 net.cpp:356] norm2 -> norm2
I0330 20:13:28.437690 30752 net.cpp:96] Setting up norm2
I0330 20:13:28.437700 30752 net.cpp:103] Top shape: 32 256 13 13 (1384448)
I0330 20:13:28.437718 30752 net.cpp:67] Creating Layer conv3
I0330 20:13:28.437727 30752 net.cpp:394] conv3 <- norm2
I0330 20:13:28.437738 30752 net.cpp:356] conv3 -> conv3
I0330 20:13:28.437750 30752 net.cpp:96] Setting up conv3
I0330 20:13:28.467015 30752 net.cpp:103] Top shape: 32 384 13 13 (2076672)
I0330 20:13:28.467046 30752 net.cpp:67] Creating Layer relu3
I0330 20:13:28.467057 30752 net.cpp:394] relu3 <- conv3
I0330 20:13:28.467068 30752 net.cpp:345] relu3 -> conv3 (in-place)
I0330 20:13:28.467079 30752 net.cpp:96] Setting up relu3
I0330 20:13:28.467097 30752 net.cpp:103] Top shape: 32 384 13 13 (2076672)
I0330 20:13:28.467115 30752 net.cpp:67] Creating Layer conv4
I0330 20:13:28.467130 30752 net.cpp:394] conv4 <- conv3
I0330 20:13:28.467142 30752 net.cpp:356] conv4 -> conv4
I0330 20:13:28.467155 30752 net.cpp:96] Setting up conv4
I0330 20:13:28.489230 30752 net.cpp:103] Top shape: 32 384 13 13 (2076672)
I0330 20:13:28.489259 30752 net.cpp:67] Creating Layer relu4
I0330 20:13:28.489269 30752 net.cpp:394] relu4 <- conv4
I0330 20:13:28.489282 30752 net.cpp:345] relu4 -> conv4 (in-place)
I0330 20:13:28.489295 30752 net.cpp:96] Setting up relu4
I0330 20:13:28.489308 30752 net.cpp:103] Top shape: 32 384 13 13 (2076672)
I0330 20:13:28.489322 30752 net.cpp:67] Creating Layer conv5
I0330 20:13:28.489359 30752 net.cpp:394] conv5 <- conv4
I0330 20:13:28.489377 30752 net.cpp:356] conv5 -> conv5
I0330 20:13:28.489392 30752 net.cpp:96] Setting up conv5
I0330 20:13:28.504086 30752 net.cpp:103] Top shape: 32 256 13 13 (1384448)
I0330 20:13:28.504120 30752 net.cpp:67] Creating Layer relu5
I0330 20:13:28.504132 30752 net.cpp:394] relu5 <- conv5
I0330 20:13:28.504147 30752 net.cpp:345] relu5 -> conv5 (in-place)
I0330 20:13:28.504158 30752 net.cpp:96] Setting up relu5
I0330 20:13:28.504171 30752 net.cpp:103] Top shape: 32 256 13 13 (1384448)
I0330 20:13:28.504184 30752 net.cpp:67] Creating Layer pool5
I0330 20:13:28.504191 30752 net.cpp:394] pool5 <- conv5
I0330 20:13:28.504204 30752 net.cpp:356] pool5 -> pool5
I0330 20:13:28.504215 30752 net.cpp:96] Setting up pool5
I0330 20:13:28.504227 30752 net.cpp:103] Top shape: 32 256 6 6 (294912)
I0330 20:13:28.504245 30752 net.cpp:67] Creating Layer fc6
I0330 20:13:28.504253 30752 net.cpp:394] fc6 <- pool5
I0330 20:13:28.504266 30752 net.cpp:356] fc6 -> fc6
I0330 20:13:28.504278 30752 net.cpp:96] Setting up fc6
I0330 20:13:29.726487 30752 net.cpp:103] Top shape: 32 4096 1 1 (131072)
I0330 20:13:29.726552 30752 net.cpp:67] Creating Layer relu6
I0330 20:13:29.726563 30752 net.cpp:394] relu6 <- fc6
I0330 20:13:29.726578 30752 net.cpp:345] relu6 -> fc6 (in-place)
I0330 20:13:29.726593 30752 net.cpp:96] Setting up relu6
I0330 20:13:29.726619 30752 net.cpp:103] Top shape: 32 4096 1 1 (131072)
I0330 20:13:29.726634 30752 net.cpp:67] Creating Layer drop6
I0330 20:13:29.726641 30752 net.cpp:394] drop6 <- fc6
I0330 20:13:29.726656 30752 net.cpp:345] drop6 -> fc6 (in-place)
I0330 20:13:29.726668 30752 net.cpp:96] Setting up drop6
I0330 20:13:29.726685 30752 net.cpp:103] Top shape: 32 4096 1 1 (131072)
I0330 20:13:29.726699 30752 net.cpp:67] Creating Layer fc7
I0330 20:13:29.726712 30752 net.cpp:394] fc7 <- fc6
I0330 20:13:29.726724 30752 net.cpp:356] fc7 -> fc7
I0330 20:13:29.726739 30752 net.cpp:96] Setting up fc7
I0330 20:13:30.273257 30752 net.cpp:103] Top shape: 32 4096 1 1 (131072)
I0330 20:13:30.273320 30752 net.cpp:67] Creating Layer relu7
I0330 20:13:30.273334 30752 net.cpp:394] relu7 <- fc7
I0330 20:13:30.273351 30752 net.cpp:345] relu7 -> fc7 (in-place)
I0330 20:13:30.273365 30752 net.cpp:96] Setting up relu7
I0330 20:13:30.273392 30752 net.cpp:103] Top shape: 32 4096 1 1 (131072)
I0330 20:13:30.273406 30752 net.cpp:67] Creating Layer drop7
I0330 20:13:30.273413 30752 net.cpp:394] drop7 <- fc7
I0330 20:13:30.273424 30752 net.cpp:345] drop7 -> fc7 (in-place)
I0330 20:13:30.273437 30752 net.cpp:96] Setting up drop7
I0330 20:13:30.273445 30752 net.cpp:103] Top shape: 32 4096 1 1 (131072)
I0330 20:13:30.273464 30752 net.cpp:67] Creating Layer fc8_deepfashion
I0330 20:13:30.273481 30752 net.cpp:394] fc8_deepfashion <- fc7
I0330 20:13:30.273494 30752 net.cpp:356] fc8_deepfashion -> fc8_deepfashion
I0330 20:13:30.273514 30752 net.cpp:96] Setting up fc8_deepfashion
I0330 20:13:30.286658 30752 net.cpp:103] Top shape: 32 96 1 1 (3072)
I0330 20:13:30.286684 30752 net.cpp:67] Creating Layer fc8_deepfashion_encode
I0330 20:13:30.286695 30752 net.cpp:394] fc8_deepfashion_encode <- fc8_deepfashion
I0330 20:13:30.286706 30752 net.cpp:356] fc8_deepfashion_encode -> fc8_deepfashion_encode
I0330 20:13:30.286718 30752 net.cpp:96] Setting up fc8_deepfashion_encode
I0330 20:13:30.286739 30752 net.cpp:103] Top shape: 32 96 1 1 (3072)
I0330 20:13:30.286753 30752 net.cpp:67] Creating Layer fc8_deepfashion_encode_fc8_deepfashion_encode_0_split
I0330 20:13:30.286762 30752 net.cpp:394] fc8_deepfashion_encode_fc8_deepfashion_encode_0_split <- fc8_deepfashion_encode
I0330 20:13:30.286774 30752 net.cpp:356] fc8_deepfashion_encode_fc8_deepfashion_encode_0_split -> fc8_deepfashion_encode_fc8_deepfashion_encode_0_split_0
I0330 20:13:30.286787 30752 net.cpp:356] fc8_deepfashion_encode_fc8_deepfashion_encode_0_split -> fc8_deepfashion_encode_fc8_deepfashion_encode_0_split_1
I0330 20:13:30.286798 30752 net.cpp:96] Setting up fc8_deepfashion_encode_fc8_deepfashion_encode_0_split
I0330 20:13:30.286809 30752 net.cpp:103] Top shape: 32 96 1 1 (3072)
I0330 20:13:30.286844 30752 net.cpp:103] Top shape: 32 96 1 1 (3072)
I0330 20:13:30.286864 30752 net.cpp:67] Creating Layer fc8_pascal_label
I0330 20:13:30.286872 30752 net.cpp:394] fc8_pascal_label <- fc8_deepfashion_encode_fc8_deepfashion_encode_0_split_0
I0330 20:13:30.286885 30752 net.cpp:356] fc8_pascal_label -> fc8_pascal_label
I0330 20:13:30.286897 30752 net.cpp:96] Setting up fc8_pascal_label
I0330 20:13:30.286964 30752 net.cpp:103] Top shape: 32 10 1 1 (320)
I0330 20:13:30.287004 30752 net.cpp:67] Creating Layer fc8_pascal_color
I0330 20:13:30.287020 30752 net.cpp:394] fc8_pascal_color <- fc8_deepfashion_encode_fc8_deepfashion_encode_0_split_1
I0330 20:13:30.287037 30752 net.cpp:356] fc8_pascal_color -> fc8_pascal_color
I0330 20:13:30.287050 30752 net.cpp:96] Setting up fc8_pascal_color
I0330 20:13:30.287128 30752 net.cpp:103] Top shape: 32 16 1 1 (512)
I0330 20:13:30.287168 30752 net.cpp:67] Creating Layer loss1
I0330 20:13:30.287178 30752 net.cpp:394] loss1 <- fc8_pascal_label
I0330 20:13:30.287188 30752 net.cpp:394] loss1 <- labels0
I0330 20:13:30.287197 30752 net.cpp:356] loss1 -> (automatic)
I0330 20:13:30.287207 30752 net.cpp:96] Setting up loss1
I0330 20:13:30.287235 30752 net.cpp:103] Top shape: 1 1 1 1 (1)
I0330 20:13:30.287245 30752 net.cpp:109]     with loss weight 1
I0330 20:13:30.287303 30752 net.cpp:67] Creating Layer loss2
I0330 20:13:30.287313 30752 net.cpp:394] loss2 <- fc8_pascal_color
I0330 20:13:30.287329 30752 net.cpp:394] loss2 <- labels1
I0330 20:13:30.287348 30752 net.cpp:356] loss2 -> (automatic)
I0330 20:13:30.287358 30752 net.cpp:96] Setting up loss2
I0330 20:13:30.287369 30752 net.cpp:103] Top shape: 1 1 1 1 (1)
I0330 20:13:30.287380 30752 net.cpp:109]     with loss weight 1
I0330 20:13:30.287394 30752 net.cpp:170] loss2 needs backward computation.
I0330 20:13:30.287401 30752 net.cpp:170] loss1 needs backward computation.
I0330 20:13:30.287410 30752 net.cpp:170] fc8_pascal_color needs backward computation.
I0330 20:13:30.287416 30752 net.cpp:170] fc8_pascal_label needs backward computation.
I0330 20:13:30.287425 30752 net.cpp:170] fc8_deepfashion_encode_fc8_deepfashion_encode_0_split needs backward computation.
…
I0330 20:13:30.288795 30752 net.cpp:39] Initializing net from parameters: 
name: "deepFashion"
layers {
  top: "data"
  name: "data"
  type: DATA
  data_param {
    source: "/data/deepfashion/color_label_multilabel/color_label_multilabel_test"
    batch_size: 32
  }
  include {
    phase: TEST
  }
  transform_param {
    mirror: true
    crop_size: 227
    mean_file: "../../../data/ilsvrc12/imagenet_mean.binaryproto"
  }
}
layers {
  top: "labels"
  name: "labels"
  type: DATA
  data_param {
    source: "/data/deepfashion/color_label_multilabel/color_label_multilabel_test_alt"
    batch_size: 32
  }
  include {
    phase: TEST
  }
}
layers {
  bottom: "labels"
  top: "labels0"
  top: "labels1"
  name: "sliceL"
  type: SLICE
  slice_param {
    slice_point: 1
  }
}
layers {
  bottom: "data"
  top: "conv1"
  name: "conv1"
  type: CONVOLUTION
  blobs_lr: 1
  blobs_lr: 2
  weight_decay: 1
  weight_decay: 0
  convolution_param {
    num_output: 96
    kernel_size: 11
    stride: 4
    weight_filler {
      type: "gaussian"
      std: 0.01
    }
    bias_filler {
      type: "constant"
      value: 0
    }
  }
}
layers {
  bottom: "conv1"
  top: "conv1"
  name: "relu1"
  type: RELU
}
layers {
  bottom: "conv1"
  top: "pool1"
  name: "pool1"
  type: POOLING
  pooling_param {
    pool: MAX
    kernel_size: 3
    stride: 2
  }
}
layers {
  bottom: "pool1"
  top: "norm1"
  name: "norm1"
  type: LRN
  lrn_param {
    local_size: 5
    alpha: 0.0001
    beta: 0.75
  }
}
layers {
  bottom: "norm1"
  top: "conv2"
  name: "conv2"
  type: CONVOLUTION
  blobs_lr: 1
  blobs_lr: 2
  weight_decay: 1
  weight_decay: 0
  convolution_param {
    num_output: 256
    pad: 2
    kernel_size: 5
    group: 2
    weight_filler {
      type: "gaussian"
      std: 0.01
    }
    bias_filler {
      type: "constant"
      value: 1
    }
  }
}
layers {
  bottom: "conv2"
  top: "conv2"
  name: "relu2"
  type: RELU
}
layers {
  bottom: "conv2"
  top: "pool2"
  name: "pool2"
  type: POOLING
  pooling_param {
    pool: MAX
    kernel_size: 3
    stride: 2
  }
}
layers {
  bottom: "pool2"
  top: "norm2"
  name: "norm2"
  type: LRN
  lrn_param {
    local_size: 5
    alpha: 0.0001
    beta: 0.75
  }
}
layers {
  bottom: "norm2"
  top: "conv3"
  name: "conv3"
  type: CONVOLUTION
  blobs_lr: 1
  blobs_lr: 2
  weight_decay: 1
  weight_decay: 0
  convolution_param {
    num_output: 384
    pad: 1
    kernel_size: 3
    weight_filler {
      type: "gaussian"
      std: 0.01
    }
    bias_filler {
      type: "constant"
      value: 0
    }
  }
}
layers {
  bottom: "conv3"
  top: "conv3"
  name: "relu3"
  type: RELU
}
layers {
  bottom: "conv3"
  top: "conv4"
  name: "conv4"
  type: CONVOLUTION
  blobs_lr: 1
  blobs_lr: 2
  weight_decay: 1
  weight_decay: 0
  convolution_param {
    num_output: 384
    pad: 1
    kernel_size: 3
    group: 2
    weight_filler {
      type: "gaussian"
      std: 0.01
    }
    bias_filler {
      type: "constant"
      value: 1
    }
  }
}
layers {
  bottom: "conv4"
  top: "conv4"
  name: "relu4"
  type: RELU
}
layers {
  bottom: "conv4"
  top: "conv5"
  name: "conv5"
  type: CONVOLUTION
  blobs_lr: 1
  blobs_lr: 2
  weight_decay: 1
  weight_decay: 0
  convolution_param {
    num_output: 256
    pad: 1
    kernel_size: 3
    group: 2
    weight_filler {
      type: "gaussian"
      std: 0.01
    }
    bias_filler {
      type: "constant"
      value: 1
    }
  }
}
layers {
  bottom: "conv5"
  top: "conv5"
  name: "relu5"
  type: RELU
}
layers {
  bottom: "conv5"
  top: "pool5"
  name: "pool5"
  type: POOLING
  pooling_param {
    pool: MAX
    kernel_size: 3
    stride: 2
  }
}
layers {
  bottom: "pool5"
  top: "fc6"
  name: "fc6"
  type: INNER_PRODUCT
  blobs_lr: 1
  blobs_lr: 2
  weight_decay: 1
  weight_decay: 0
  inner_product_param {
    num_output: 4096
    weight_filler {
      type: "gaussian"
      std: 0.005
    }
    bias_filler {
      type: "constant"
      value: 1
    }
  }
}
layers {
  bottom: "fc6"
  top: "fc6"
  name: "relu6"
  type: RELU
}
layers {
  bottom: "fc6"
  top: "fc6"
  name: "drop6"
  type: DROPOUT
  dropout_param {
    dropout_ratio: 0.5
  }
}
layers {
  bottom: "fc6"
  top: "fc7"
  name: "fc7"
  type: INNER_PRODUCT
  blobs_lr: 1
  blobs_lr: 2
  weight_decay: 1
  weight_decay: 0
  inner_product_param {
    num_output: 4096
    weight_filler {
      type: "gaussian"
      std: 0.005
    }
    bias_filler {
      type: "constant"
      value: 1
    }
  }
}
layers {
  bottom: "fc7"
  top: "fc7"
  name: "relu7"
  type: RELU
}
layers {
  bottom: "fc7"
  top: "fc7"
  name: "drop7"
  type: DROPOUT
  dropout_param {
    dropout_ratio: 0.5
  }
}
layers {
  bottom: "fc7"
  top: "fc8_deepfashion"
  name: "fc8_deepfashion"
  type: INNER_PRODUCT
  blobs_lr: 1
  blobs_lr: 2
  weight_decay: 1
  weight_decay: 0
  inner_product_param {
    num_output: 96
    weight_filler {
      type: "gaussian"
      std: 0.01
    }
    bias_filler {
      type: "constant"
      value: 0
    }
  }
}
layers {
  bottom: "fc8_deepfashion"
  top: "fc8_deepfashion_encode"
  name: "fc8_deepfashion_encode"
  type: SIGMOID
}
layers {
  bottom: "fc8_deepfashion_encode"
  top: "fc8_pascal_label"
  name: "fc8_pascal_label"
  type: INNER_PRODUCT
  blobs_lr: 10
  blobs_lr: 20
  weight_decay: 1
  weight_decay: 0
  inner_product_param {
    num_output: 10
    weight_filler {
      type: "gaussian"
      std: 0.01
    }
    bias_filler {
      type: "constant"
      value: 0
    }
  }
}
layers {
  bottom: "fc8_deepfashion_encode"
  top: "fc8_pascal_color"
  name: "fc8_pascal_color"
  type: INNER_PRODUCT
  blobs_lr: 10
  blobs_lr: 20
  weight_decay: 1
  weight_decay: 0
  inner_product_param {
    num_output: 16
    weight_filler {
      type: "gaussian"
      std: 0.01
    }
    bias_filler {
      type: "constant"
      value: 0
    }
  }
}
layers {
  bottom: "fc8_pascal_label"
  bottom: "labels0"
  name: "loss1"
  type: SOFTMAX_LOSS
}
layers {
  bottom: "fc8_pascal_color"
  bottom: "labels1"
  name: "loss2"
  type: SOFTMAX_LOSS
}
layers {
  bottom: "fc8_pascal_label"
  bottom: "labels0"
  top: "accuracy1"
  name: "accuracy1"
  type: ACCURACY
  include {
    phase: TEST
  }
}
layers {
  bottom: "fc8_pascal_color"
  bottom: "labels1"
  top: "accuracy2"
  name: "accuracy2"
  type: ACCURACY
  include {
    phase: TEST
  }
}
state {
  phase: TEST
}
I0330 20:13:30.289053 30752 net.cpp:67] Creating Layer data
I0330 20:13:30.289068 30752 net.cpp:356] data -> data
I0330 20:13:30.289080 30752 net.cpp:96] Setting up data
I0330 20:13:30.289090 30752 data_layer.cpp:45] Opening leveldb /data/deepfashion/color_label_multilabel/color_label_multilabel_test
I0330 20:13:30.301735 30752 data_layer.cpp:128] output data size: 32,3,227,227
I0330 20:13:30.301758 30752 base_data_layer.cpp:36] Loading mean file from../../../data/ilsvrc12/imagenet_mean.binaryproto
I0330 20:13:30.308898 30752 net.cpp:103] Top shape: 32 3 227 227 (4946784)
I0330 20:13:30.308950 30752 net.cpp:67] Creating Layer labels
I0330 20:13:30.308964 30752 net.cpp:356] labels -> labels
I0330 20:13:30.308986 30752 net.cpp:96] Setting up labels
I0330 20:13:30.308998 30752 data_layer.cpp:45] Opening leveldb /data/deepfashion/color_label_multilabel/color_label_multilabel_test_alt
I0330 20:13:30.318330 30752 data_layer.cpp:128] output data size: 32,2,1,1
I0330 20:13:30.318403 30752 net.cpp:103] Top shape: 32 2 1 1 (64)
I0330 20:13:30.318423 30752 net.cpp:67] Creating Layer sliceL
I0330 20:13:30.318434 30752 net.cpp:394] sliceL <- labels
I0330 20:13:30.320587 30752 net.cpp:356] sliceL -> labels0
I0330 20:13:30.320600 30752 net.cpp:356] sliceL -> labels1
I0330 20:13:30.320606 30752 net.cpp:96] Setting up sliceL
I0330 20:13:30.320614 30752 net.cpp:103] Top shape: 32 1 1 1 (32)
I0330 20:13:30.320618 30752 net.cpp:103] Top shape: 32 1 1 1 (32)
I0330 20:13:30.320624 30752 net.cpp:67] Creating Layer labels0_sliceL_0_split
I0330 20:13:30.320628 30752 net.cpp:394] labels0_sliceL_0_split <- labels0
I0330 20:13:30.320634 30752 net.cpp:356] labels0_sliceL_0_split -> labels0_sliceL_0_split_0
I0330 20:13:30.320641 30752 net.cpp:356] labels0_sliceL_0_split -> labels0_sliceL_0_split_1
I0330 20:13:30.320647 30752 net.cpp:96] Setting up labels0_sliceL_0_split
I0330 20:13:30.320652 30752 net.cpp:103] Top shape: 32 1 1 1 (32)
I0330 20:13:30.320657 30752 net.cpp:103] Top shape: 32 1 1 1 (32)
I0330 20:13:30.320663 30752 net.cpp:67] Creating Layer labels1_sliceL_1_split
I0330 20:13:30.320667 30752 net.cpp:394] labels1_sliceL_1_split <- labels1
I0330 20:13:30.320673 30752 net.cpp:356] labels1_sliceL_1_split -> labels1_sliceL_1_split_0
I0330 20:13:30.320679 30752 net.cpp:356] labels1_sliceL_1_split -> labels1_sliceL_1_split_1
I0330 20:13:30.320684 30752 net.cpp:96] Setting up labels1_sliceL_1_split
I0330 20:13:30.320688 30752 net.cpp:103] Top shape: 32 1 1 1 (32)
I0330 20:13:30.320693 30752 net.cpp:103] Top shape: 32 1 1 1 (32)
I0330 20:13:30.320701 30752 net.cpp:67] Creating Layer conv1
I0330 20:13:30.320705 30752 net.cpp:394] conv1 <- data
I0330 20:13:30.320713 30752 net.cpp:356] conv1 -> conv1
I0330 20:13:30.320719 30752 net.cpp:96] Setting up conv1
I0330 20:13:30.321991 30752 net.cpp:103] Top shape: 32 96 55 55 (9292800)
I0330 20:13:30.322018 30752 net.cpp:67] Creating Layer relu1
I0330 20:13:30.322024 30752 net.cpp:394] relu1 <- conv1
I0330 20:13:30.322031 30752 net.cpp:345] relu1 -> conv1 (in-place)
I0330 20:13:30.322036 30752 net.cpp:96] Setting up relu1
I0330 20:13:30.322044 30752 net.cpp:103] Top shape: 32 96 55 55 (9292800)
I0330 20:13:30.322052 30752 net.cpp:67] Creating Layer pool1
I0330 20:13:30.322055 30752 net.cpp:394] pool1 <- conv1
I0330 20:13:30.322060 30752 net.cpp:356] pool1 -> pool1
I0330 20:13:30.322067 30752 net.cpp:96] Setting up pool1
I0330 20:13:30.322077 30752 net.cpp:103] Top shape: 32 96 27 27 (2239488)
I0330 20:13:30.322088 30752 net.cpp:67] Creating Layer norm1
I0330 20:13:30.322091 30752 net.cpp:394] norm1 <- pool1
I0330 20:13:30.322096 30752 net.cpp:356] norm1 -> norm1
I0330 20:13:30.322103 30752 net.cpp:96] Setting up norm1
I0330 20:13:30.322108 30752 net.cpp:103] Top shape: 32 96 27 27 (2239488)
I0330 20:13:30.322114 30752 net.cpp:67] Creating Layer conv2
I0330 20:13:30.322118 30752 net.cpp:394] conv2 <- norm1
I0330 20:13:30.322124 30752 net.cpp:356] conv2 -> conv2
I0330 20:13:30.322130 30752 net.cpp:96] Setting up conv2
I0330 20:13:30.332711 30752 net.cpp:103] Top shape: 32 256 27 27 (5971968)
I0330 20:13:30.332743 30752 net.cpp:67] Creating Layer relu2
I0330 20:13:30.332749 30752 net.cpp:394] relu2 <- conv2
I0330 20:13:30.332757 30752 net.cpp:345] relu2 -> conv2 (in-place)
I0330 20:13:30.332764 30752 net.cpp:96] Setting up relu2
I0330 20:13:30.332772 30752 net.cpp:103] Top shape: 32 256 27 27 (5971968)
I0330 20:13:30.332779 30752 net.cpp:67] Creating Layer pool2
I0330 20:13:30.332783 30752 net.cpp:394] pool2 <- conv2
I0330 20:13:30.332790 30752 net.cpp:356] pool2 -> pool2
I0330 20:13:30.332797 30752 net.cpp:96] Setting up pool2
I0330 20:13:30.332804 30752 net.cpp:103] Top shape: 32 256 13 13 (1384448)
I0330 20:13:30.332813 30752 net.cpp:67] Creating Layer norm2
I0330 20:13:30.332818 30752 net.cpp:394] norm2 <- pool2
I0330 20:13:30.332824 30752 net.cpp:356] norm2 -> norm2
I0330 20:13:30.332830 30752 net.cpp:96] Setting up norm2
I0330 20:13:30.332834 30752 net.cpp:103] Top shape: 32 256 13 13 (1384448)
I0330 20:13:30.332844 30752 net.cpp:67] Creating Layer conv3
I0330 20:13:30.332849 30752 net.cpp:394] conv3 <- norm2
I0330 20:13:30.332854 30752 net.cpp:356] conv3 -> conv3
I0330 20:13:30.332861 30752 net.cpp:96] Setting up conv3
I0330 20:13:30.361989 30752 net.cpp:103] Top shape: 32 384 13 13 (2076672)
I0330 20:13:30.362018 30752 net.cpp:67] Creating Layer relu3
I0330 20:13:30.362025 30752 net.cpp:394] relu3 <- conv3
I0330 20:13:30.362031 30752 net.cpp:345] relu3 -> conv3 (in-place)
I0330 20:13:30.362038 30752 net.cpp:96] Setting up relu3
I0330 20:13:30.362045 30752 net.cpp:103] Top shape: 32 384 13 13 (2076672)
I0330 20:13:30.362053 30752 net.cpp:67] Creating Layer conv4
I0330 20:13:30.362057 30752 net.cpp:394] conv4 <- conv3
I0330 20:13:30.362064 30752 net.cpp:356] conv4 -> conv4
I0330 20:13:30.362071 30752 net.cpp:96] Setting up conv4
I0330 20:13:30.384181 30752 net.cpp:103] Top shape: 32 384 13 13 (2076672)
I0330 20:13:30.384207 30752 net.cpp:67] Creating Layer relu4
I0330 20:13:30.384212 30752 net.cpp:394] relu4 <- conv4
I0330 20:13:30.384218 30752 net.cpp:345] relu4 -> conv4 (in-place)
I0330 20:13:30.384224 30752 net.cpp:96] Setting up relu4
I0330 20:13:30.384232 30752 net.cpp:103] Top shape: 32 384 13 13 (2076672)
I0330 20:13:30.384239 30752 net.cpp:67] Creating Layer conv5
I0330 20:13:30.384243 30752 net.cpp:394] conv5 <- conv4
I0330 20:13:30.384250 30752 net.cpp:356] conv5 -> conv5
I0330 20:13:30.384258 30752 net.cpp:96] Setting up conv5
I0330 20:13:30.399075 30752 net.cpp:103] Top shape: 32 256 13 13 (1384448)
I0330 20:13:30.399101 30752 net.cpp:67] Creating Layer relu5
I0330 20:13:30.399107 30752 net.cpp:394] relu5 <- conv5
I0330 20:13:30.399114 30752 net.cpp:345] relu5 -> conv5 (in-place)
I0330 20:13:30.399121 30752 net.cpp:96] Setting up relu5
I0330 20:13:30.399128 30752 net.cpp:103] Top shape: 32 256 13 13 (1384448)
I0330 20:13:30.399135 30752 net.cpp:67] Creating Layer pool5
I0330 20:13:30.399139 30752 net.cpp:394] pool5 <- conv5
I0330 20:13:30.399147 30752 net.cpp:356] pool5 -> pool5
I0330 20:13:30.399153 30752 net.cpp:96] Setting up pool5
I0330 20:13:30.399161 30752 net.cpp:103] Top shape: 32 256 6 6 (294912)
I0330 20:13:30.399169 30752 net.cpp:67] Creating Layer fc6
I0330 20:13:30.399173 30752 net.cpp:394] fc6 <- pool5
I0330 20:13:30.399181 30752 net.cpp:356] fc6 -> fc6
I0330 20:13:30.399188 30752 net.cpp:96] Setting up fc6
I0330 20:13:31.620180 30752 net.cpp:103] Top shape: 32 4096 1 1 (131072)
I0330 20:13:31.620236 30752 net.cpp:67] Creating Layer relu6
I0330 20:13:31.620244 30752 net.cpp:394] relu6 <- fc6
I0330 20:13:31.620254 30752 net.cpp:345] relu6 -> fc6 (in-place)
I0330 20:13:31.620262 30752 net.cpp:96] Setting up relu6
I0330 20:13:31.620283 30752 net.cpp:103] Top shape: 32 4096 1 1 (131072)
I0330 20:13:31.620290 30752 net.cpp:67] Creating Layer drop6
I0330 20:13:31.620295 30752 net.cpp:394] drop6 <- fc6
I0330 20:13:31.620301 30752 net.cpp:345] drop6 -> fc6 (in-place)
I0330 20:13:31.620306 30752 net.cpp:96] Setting up drop6
I0330 20:13:31.620311 30752 net.cpp:103] Top shape: 32 4096 1 1 (131072)
I0330 20:13:31.620321 30752 net.cpp:67] Creating Layer fc7
I0330 20:13:31.620326 30752 net.cpp:394] fc7 <- fc6
I0330 20:13:31.620332 30752 net.cpp:356] fc7 -> fc7
I0330 20:13:31.620340 30752 net.cpp:96] Setting up fc7
I0330 20:13:32.162446 30752 net.cpp:103] Top shape: 32 4096 1 1 (131072)
I0330 20:13:32.162505 30752 net.cpp:67] Creating Layer relu7
I0330 20:13:32.162585 30752 net.cpp:394] relu7 <- fc7
I0330 20:13:32.162595 30752 net.cpp:345] relu7 -> fc7 (in-place)
I0330 20:13:32.162605 30752 net.cpp:96] Setting up relu7
I0330 20:13:32.162626 30752 net.cpp:103] Top shape: 32 4096 1 1 (131072)
I0330 20:13:32.162636 30752 net.cpp:67] Creating Layer drop7
I0330 20:13:32.162639 30752 net.cpp:394] drop7 <- fc7
I0330 20:13:32.162645 30752 net.cpp:345] drop7 -> fc7 (in-place)
I0330 20:13:32.162652 30752 net.cpp:96] Setting up drop7
I0330 20:13:32.162657 30752 net.cpp:103] Top shape: 32 4096 1 1 (131072)
I0330 20:13:32.162665 30752 net.cpp:67] Creating Layer fc8_deepfashion
I0330 20:13:32.162669 30752 net.cpp:394] fc8_deepfashion <- fc7
I0330 20:13:32.162679 30752 net.cpp:356] fc8_deepfashion -> fc8_deepfashion
I0330 20:13:32.162688 30752 net.cpp:96] Setting up fc8_deepfashion
I0330 20:13:32.175813 30752 net.cpp:103] Top shape: 32 96 1 1 (3072)
I0330 20:13:32.175853 30752 net.cpp:67] Creating Layer fc8_deepfashion_encode
I0330 20:13:32.175858 30752 net.cpp:394] fc8_deepfashion_encode <- fc8_deepfashion
I0330 20:13:32.175864 30752 net.cpp:356] fc8_deepfashion_encode -> fc8_deepfashion_encode
I0330 20:13:32.175871 30752 net.cpp:96] Setting up fc8_deepfashion_encode
I0330 20:13:32.175880 30752 net.cpp:103] Top shape: 32 96 1 1 (3072)
I0330 20:13:32.175886 30752 net.cpp:67] Creating Layer fc8_deepfashion_encode_fc8_deepfashion_encode_0_split
I0330 20:13:32.175891 30752 net.cpp:394] fc8_deepfashion_encode_fc8_deepfashion_encode_0_split <- fc8_deepfashion_encode
I0330 20:13:32.175897 30752 net.cpp:356] fc8_deepfashion_encode_fc8_deepfashion_encode_0_split -> fc8_deepfashion_encode_fc8_deepfashion_encode_0_split_0
I0330 20:13:32.175904 30752 net.cpp:356] fc8_deepfashion_encode_fc8_deepfashion_encode_0_split -> fc8_deepfashion_encode_fc8_deepfashion_encode_0_split_1
I0330 20:13:32.175910 30752 net.cpp:96] Setting up fc8_deepfashion_encode_fc8_deepfashion_encode_0_split
I0330 20:13:32.175915 30752 net.cpp:103] Top shape: 32 96 1 1 (3072)
I0330 20:13:32.175920 30752 net.cpp:103] Top shape: 32 96 1 1 (3072)
I0330 20:13:32.175925 30752 net.cpp:67] Creating Layer fc8_pascal_label
I0330 20:13:32.175930 30752 net.cpp:394] fc8_pascal_label <- fc8_deepfashion_encode_fc8_deepfashion_encode_0_split_0
I0330 20:13:32.175935 30752 net.cpp:356] fc8_pascal_label -> fc8_pascal_label
I0330 20:13:32.175941 30752 net.cpp:96] Setting up fc8_pascal_label
I0330 20:13:32.175981 30752 net.cpp:103] Top shape: 32 10 1 1 (320)
I0330 20:13:32.176009 30752 net.cpp:67] Creating Layer fc8_pascal_label_fc8_pascal_label_0_split
I0330 20:13:32.176017 30752 net.cpp:394] fc8_pascal_label_fc8_pascal_label_0_split <- fc8_pascal_label
I0330 20:13:32.176023 30752 net.cpp:356] fc8_pascal_label_fc8_pascal_label_0_split -> fc8_pascal_label_fc8_pascal_label_0_split_0
I0330 20:13:32.176035 30752 net.cpp:356] fc8_pascal_label_fc8_pascal_label_0_split -> fc8_pascal_label_fc8_pascal_label_0_split_1
I0330 20:13:32.176041 30752 net.cpp:96] Setting up fc8_pascal_label_fc8_pascal_label_0_split
I0330 20:13:32.176046 30752 net.cpp:103] Top shape: 32 10 1 1 (320)
I0330 20:13:32.176050 30752 net.cpp:103] Top shape: 32 10 1 1 (320)
I0330 20:13:32.176056 30752 net.cpp:67] Creating Layer fc8_pascal_color
I0330 20:13:32.176060 30752 net.cpp:394] fc8_pascal_color <- fc8_deepfashion_encode_fc8_deepfashion_encode_0_split_1
I0330 20:13:32.176066 30752 net.cpp:356] fc8_pascal_color -> fc8_pascal_color
I0330 20:13:32.176072 30752 net.cpp:96] Setting up fc8_pascal_color
I0330 20:13:32.176131 30752 net.cpp:103] Top shape: 32 16 1 1 (512)
I0330 20:13:32.176151 30752 net.cpp:67] Creating Layer fc8_pascal_color_fc8_pascal_color_0_split
I0330 20:13:32.176156 30752 net.cpp:394] fc8_pascal_color_fc8_pascal_color_0_split <- fc8_pascal_color
I0330 20:13:32.176162 30752 net.cpp:356] fc8_pascal_color_fc8_pascal_color_0_split -> fc8_pascal_color_fc8_pascal_color_0_split_0
I0330 20:13:32.176169 30752 net.cpp:356] fc8_pascal_color_fc8_pascal_color_0_split -> fc8_pascal_color_fc8_pascal_color_0_split_1
I0330 20:13:32.176175 30752 net.cpp:96] Setting up fc8_pascal_color_fc8_pascal_color_0_split
I0330 20:13:32.176180 30752 net.cpp:103] Top shape: 32 16 1 1 (512)
I0330 20:13:32.176183 30752 net.cpp:103] Top shape: 32 16 1 1 (512)
I0330 20:13:32.176190 30752 net.cpp:67] Creating Layer loss1
I0330 20:13:32.176194 30752 net.cpp:394] loss1 <- fc8_pascal_label_fc8_pascal_label_0_split_0
I0330 20:13:32.176199 30752 net.cpp:394] loss1 <- labels0_sliceL_0_split_0
I0330 20:13:32.176205 30752 net.cpp:356] loss1 -> (automatic)
I0330 20:13:32.176210 30752 net.cpp:96] Setting up loss1
I0330 20:13:32.176220 30752 net.cpp:103] Top shape: 1 1 1 1 (1)
I0330 20:13:32.176224 30752 net.cpp:109]     with loss weight 1
I0330 20:13:32.176241 30752 net.cpp:67] Creating Layer loss2
I0330 20:13:32.176246 30752 net.cpp:394] loss2 <- fc8_pascal_color_fc8_pascal_color_0_split_0
I0330 20:13:32.176251 30752 net.cpp:394] loss2 <- labels1_sliceL_1_split_0
I0330 20:13:32.176267 30752 net.cpp:356] loss2 -> (automatic)
I0330 20:13:32.176273 30752 net.cpp:96] Setting up loss2
I0330 20:13:32.176280 30752 net.cpp:103] Top shape: 1 1 1 1 (1)
I0330 20:13:32.176283 30752 net.cpp:109]     with loss weight 1
I0330 20:13:32.176295 30752 net.cpp:67] Creating Layer accuracy1
I0330 20:13:32.176300 30752 net.cpp:394] accuracy1 <- fc8_pascal_label_fc8_pascal_label_0_split_1
I0330 20:13:32.176304 30752 net.cpp:394] accuracy1 <- labels0_sliceL_0_split_1
I0330 20:13:32.176311 30752 net.cpp:356] accuracy1 -> accuracy1
I0330 20:13:32.176322 30752 net.cpp:96] Setting up accuracy1
I0330 20:13:32.176332 30752 net.cpp:103] Top shape: 1 1 1 1 (1)
I0330 20:13:32.176337 30752 net.cpp:67] Creating Layer accuracy2
I0330 20:13:32.176342 30752 net.cpp:394] accuracy2 <- fc8_pascal_color_fc8_pascal_color_0_split_1
I0330 20:13:32.176347 30752 net.cpp:394] accuracy2 <- labels1_sliceL_1_split_1
I0330 20:13:32.176352 30752 net.cpp:356] accuracy2 -> accuracy2
I0330 20:13:32.176358 30752 net.cpp:96] Setting up accuracy2
I0330 20:13:32.176362 30752 net.cpp:103] Top shape: 1 1 1 1 (1)
I0330 20:13:32.176367 30752 net.cpp:172] accuracy2 does not need backward computation.
I0330 20:13:32.176369 30752 net.cpp:172] accuracy1 does not need backward computation.
I0330 20:13:32.176373 30752 net.cpp:170] loss2 needs backward computation.
I0330 20:13:32.176378 30752 net.cpp:170] loss1 needs backward computation.
I0330 20:13:32.176381 30752 net.cpp:170] fc8_pascal_color_fc8_pascal_color_0_split needs backward computation.
…
