…
I0405 16:57:26.444905   727 net.cpp:39] Initializing net from parameters: 
name: "deepFashion"
layers {
  top: "data"
  name: "data"
  type: DATA
  data_param {
    source: "/data/deepfashion/color_label_multilabel/color_label_multilabel_TRAIN"
    batch_size: 32
  }
  include {
    phase: TRAIN
  }
  transform_param {
    mirror: true
    crop_size: 227
    mean_file: "../../../data/ilsvrc12/imagenet_mean.binaryproto"
  }
}
layers {
  top: "labels"
  name: "labels"
  type: DATA
  data_param {
    source: "/data/deepfashion/color_label_multilabel/color_label_multilabel_TRAIN_ALT"
    batch_size: 32
  }
  include {
    phase: TRAIN
  }
}
layers {
  bottom: "labels"
  top: "labels0"
  top: "labels1"
  name: "sliceL"
  type: SLICE
  slice_param {
    slice_point: 1
  }
}
layers {
  bottom: "data"
  top: "conv1"
  name: "conv1"
  type: CONVOLUTION
  blobs_lr: 1
  blobs_lr: 2
  weight_decay: 1
  weight_decay: 0
  convolution_param {
    num_output: 96
    kernel_size: 11
    stride: 4
    weight_filler {
      type: "gaussian"
      std: 0.01
    }
    bias_filler {
      type: "constant"
      value: 0
    }
  }
}
layers {
  bottom: "conv1"
  top: "conv1"
  name: "relu1"
  type: RELU
}
layers {
  bottom: "conv1"
  top: "pool1"
  name: "pool1"
  type: POOLING
  pooling_param {
    pool: MAX
    kernel_size: 3
    stride: 2
  }
}
layers {
  bottom: "pool1"
  top: "norm1"
  name: "norm1"
  type: LRN
  lrn_param {
    local_size: 5
    alpha: 0.0001
    beta: 0.75
  }
}
layers {
  bottom: "norm1"
  top: "conv2"
  name: "conv2"
  type: CONVOLUTION
  blobs_lr: 1
  blobs_lr: 2
  weight_decay: 1
  weight_decay: 0
  convolution_param {
    num_output: 256
    pad: 2
    kernel_size: 5
    group: 2
    weight_filler {
      type: "gaussian"
      std: 0.01
    }
    bias_filler {
      type: "constant"
      value: 1
    }
  }
}
layers {
  bottom: "conv2"
  top: "conv2"
  name: "relu2"
  type: RELU
}
layers {
  bottom: "conv2"
  top: "pool2"
  name: "pool2"
  type: POOLING
  pooling_param {
    pool: MAX
    kernel_size: 3
    stride: 2
  }
}
layers {
  bottom: "pool2"
  top: "norm2"
  name: "norm2"
  type: LRN
  lrn_param {
    local_size: 5
    alpha: 0.0001
    beta: 0.75
  }
}
layers {
  bottom: "norm2"
  top: "conv3"
  name: "conv3"
  type: CONVOLUTION
  blobs_lr: 1
  blobs_lr: 2
  weight_decay: 1
  weight_decay: 0
  convolution_param {
    num_output: 384
    pad: 1
    kernel_size: 3
    weight_filler {
      type: "gaussian"
      std: 0.01
    }
    bias_filler {
      type: "constant"
      value: 0
    }
  }
}
layers {
  bottom: "conv3"
  top: "conv3"
  name: "relu3"
  type: RELU
}
layers {
  bottom: "conv3"
  top: "conv4"
  name: "conv4"
  type: CONVOLUTION
  blobs_lr: 1
  blobs_lr: 2
  weight_decay: 1
  weight_decay: 0
  convolution_param {
    num_output: 384
    pad: 1
    kernel_size: 3
    group: 2
    weight_filler {
      type: "gaussian"
      std: 0.01
    }
    bias_filler {
      type: "constant"
      value: 1
    }
  }
}
layers {
  bottom: "conv4"
  top: "conv4"
  name: "relu4"
  type: RELU
}
layers {
  bottom: "conv4"
  top: "conv5"
  name: "conv5"
  type: CONVOLUTION
  blobs_lr: 1
  blobs_lr: 2
  weight_decay: 1
  weight_decay: 0
  convolution_param {
    num_output: 256
    pad: 1
    kernel_size: 3
    group: 2
    weight_filler {
      type: "gaussian"
      std: 0.01
    }
    bias_filler {
      type: "constant"
      value: 1
    }
  }
}
layers {
  bottom: "conv5"
  top: "conv5"
  name: "relu5"
  type: RELU
}
layers {
  bottom: "conv5"
  top: "pool5"
  name: "pool5"
  type: POOLING
  pooling_param {
    pool: MAX
    kernel_size: 3
    stride: 2
  }
}
layers {
  bottom: "pool5"
  top: "fc6"
  name: "fc6"
  type: INNER_PRODUCT
  blobs_lr: 1
  blobs_lr: 2
  weight_decay: 1
  weight_decay: 0
  inner_product_param {
    num_output: 4096
    weight_filler {
      type: "gaussian"
      std: 0.005
    }
    bias_filler {
      type: "constant"
      value: 1
    }
  }
}
layers {
  bottom: "fc6"
  top: "fc6"
  name: "relu6"
  type: RELU
}
layers {
  bottom: "fc6"
  top: "fc6"
  name: "drop6"
  type: DROPOUT
  dropout_param {
    dropout_ratio: 0.5
  }
}
layers {
  bottom: "fc6"
  top: "fc7"
  name: "fc7"
  type: INNER_PRODUCT
  blobs_lr: 1
  blobs_lr: 2
  weight_decay: 1
  weight_decay: 0
  inner_product_param {
    num_output: 4096
    weight_filler {
      type: "gaussian"
      std: 0.005
    }
    bias_filler {
      type: "constant"
      value: 1
    }
  }
}
layers {
  bottom: "fc7"
  top: "fc7"
  name: "relu7"
  type: RELU
}
layers {
  bottom: "fc7"
  top: "fc7"
  name: "drop7"
  type: DROPOUT
  dropout_param {
    dropout_ratio: 0.5
  }
}
layers {
  bottom: "fc7"
  top: "fc8_kevin"
  name: "fc8_kevin"
  type: INNER_PRODUCT
  blobs_lr: 1
  blobs_lr: 2
  weight_decay: 1
  weight_decay: 0
  inner_product_param {
    num_output: 48
    weight_filler {
      type: "gaussian"
      std: 0.01
    }
    bias_filler {
      type: "constant"
      value: 0
    }
  }
}
layers {
  bottom: "fc8_kevin"
  top: "fc8_kevin_encode"
  name: "fc8_kevin_encode"
  type: SIGMOID
}
layers {
  bottom: "fc8_kevin_encode"
  top: "fc8_pascal_label"
  name: "fc8_pascal_label"
  type: INNER_PRODUCT
  blobs_lr: 10
  blobs_lr: 20
  weight_decay: 1
  weight_decay: 0
  inner_product_param {
    num_output: 10
    weight_filler {
      type: "gaussian"
      std: 0.01
    }
    bias_filler {
      type: "constant"
      value: 0
    }
  }
}
layers {
  bottom: "fc8_kevin_encode"
  top: "fc8_pascal_color"
  name: "fc8_pascal_color"
  type: INNER_PRODUCT
  blobs_lr: 0
  blobs_lr: 0
  weight_decay: 1
  weight_decay: 0
  inner_product_param {
    num_output: 16
    weight_filler {
      type: "gaussian"
      std: 0.01
    }
    bias_filler {
      type: "constant"
      value: 0
    }
  }
}
layers {
  bottom: "fc8_pascal_label"
  bottom: "labels0"
  name: "loss1"
  type: SOFTMAX_LOSS
}
layers {
  bottom: "fc8_pascal_color"
  bottom: "labels1"
  name: "silence"
  type: SILENCE
  include {
    phase: TRAIN
  }
}
state {
  phase: TRAIN
}
I0405 16:57:26.445075   727 net.cpp:67] Creating Layer data
I0405 16:57:26.445087   727 net.cpp:356] data -> data
I0405 16:57:26.445108   727 net.cpp:96] Setting up data
I0405 16:57:26.445143   727 data_layer.cpp:45] Opening leveldb /data/deepfashion/color_label_multilabel/color_label_multilabel_TRAIN
I0405 16:57:26.456228   727 data_layer.cpp:128] output data size: 32,3,227,227
I0405 16:57:26.456250   727 base_data_layer.cpp:36] Loading mean file from../../../data/ilsvrc12/imagenet_mean.binaryproto
I0405 16:57:26.462970   727 net.cpp:103] Top shape: 32 3 227 227 (4946784)
I0405 16:57:26.463016   727 net.cpp:67] Creating Layer labels
I0405 16:57:26.463024   727 net.cpp:356] labels -> labels
I0405 16:57:26.463039   727 net.cpp:96] Setting up labels
I0405 16:57:26.463053   727 data_layer.cpp:45] Opening leveldb /data/deepfashion/color_label_multilabel/color_label_multilabel_TRAIN_ALT
I0405 16:57:26.471750   727 data_layer.cpp:128] output data size: 32,2,1,1
I0405 16:57:26.471835   727 net.cpp:103] Top shape: 32 2 1 1 (64)
I0405 16:57:26.471897   727 net.cpp:67] Creating Layer sliceL
I0405 16:57:26.471941   727 net.cpp:394] sliceL <- labels
I0405 16:57:26.471974   727 net.cpp:356] sliceL -> labels0
I0405 16:57:26.471985   727 net.cpp:356] sliceL -> labels1
I0405 16:57:26.471994   727 net.cpp:96] Setting up sliceL
I0405 16:57:26.472004   727 net.cpp:103] Top shape: 32 1 1 1 (32)
I0405 16:57:26.472008   727 net.cpp:103] Top shape: 32 1 1 1 (32)
I0405 16:57:26.472017   727 net.cpp:67] Creating Layer conv1
I0405 16:57:26.472020   727 net.cpp:394] conv1 <- data
I0405 16:57:26.472028   727 net.cpp:356] conv1 -> conv1
I0405 16:57:26.472036   727 net.cpp:96] Setting up conv1
I0405 16:57:26.494478   727 net.cpp:103] Top shape: 32 96 55 55 (9292800)
I0405 16:57:26.494534   727 net.cpp:67] Creating Layer relu1
I0405 16:57:26.494542   727 net.cpp:394] relu1 <- conv1
I0405 16:57:26.494549   727 net.cpp:345] relu1 -> conv1 (in-place)
I0405 16:57:26.494559   727 net.cpp:96] Setting up relu1
I0405 16:57:26.494570   727 net.cpp:103] Top shape: 32 96 55 55 (9292800)
I0405 16:57:26.494577   727 net.cpp:67] Creating Layer pool1
I0405 16:57:26.494581   727 net.cpp:394] pool1 <- conv1
I0405 16:57:26.494587   727 net.cpp:356] pool1 -> pool1
I0405 16:57:26.494595   727 net.cpp:96] Setting up pool1
I0405 16:57:26.494616   727 net.cpp:103] Top shape: 32 96 27 27 (2239488)
I0405 16:57:26.494624   727 net.cpp:67] Creating Layer norm1
I0405 16:57:26.494629   727 net.cpp:394] norm1 <- pool1
I0405 16:57:26.494637   727 net.cpp:356] norm1 -> norm1
I0405 16:57:26.494643   727 net.cpp:96] Setting up norm1
I0405 16:57:26.494652   727 net.cpp:103] Top shape: 32 96 27 27 (2239488)
I0405 16:57:26.494659   727 net.cpp:67] Creating Layer conv2
I0405 16:57:26.494664   727 net.cpp:394] conv2 <- norm1
I0405 16:57:26.494673   727 net.cpp:356] conv2 -> conv2
I0405 16:57:26.494680   727 net.cpp:96] Setting up conv2
I0405 16:57:26.504902   727 net.cpp:103] Top shape: 32 256 27 27 (5971968)
I0405 16:57:26.504930   727 net.cpp:67] Creating Layer relu2
I0405 16:57:26.504937   727 net.cpp:394] relu2 <- conv2
I0405 16:57:26.504943   727 net.cpp:345] relu2 -> conv2 (in-place)
I0405 16:57:26.504950   727 net.cpp:96] Setting up relu2
I0405 16:57:26.504956   727 net.cpp:103] Top shape: 32 256 27 27 (5971968)
I0405 16:57:26.504962   727 net.cpp:67] Creating Layer pool2
I0405 16:57:26.504966   727 net.cpp:394] pool2 <- conv2
I0405 16:57:26.504973   727 net.cpp:356] pool2 -> pool2
I0405 16:57:26.504981   727 net.cpp:96] Setting up pool2
I0405 16:57:26.504988   727 net.cpp:103] Top shape: 32 256 13 13 (1384448)
I0405 16:57:26.504994   727 net.cpp:67] Creating Layer norm2
I0405 16:57:26.504998   727 net.cpp:394] norm2 <- pool2
I0405 16:57:26.505007   727 net.cpp:356] norm2 -> norm2
I0405 16:57:26.505012   727 net.cpp:96] Setting up norm2
I0405 16:57:26.505017   727 net.cpp:103] Top shape: 32 256 13 13 (1384448)
I0405 16:57:26.505025   727 net.cpp:67] Creating Layer conv3
I0405 16:57:26.505029   727 net.cpp:394] conv3 <- norm2
I0405 16:57:26.505035   727 net.cpp:356] conv3 -> conv3
I0405 16:57:26.505041   727 net.cpp:96] Setting up conv3
I0405 16:57:26.533917   727 net.cpp:103] Top shape: 32 384 13 13 (2076672)
I0405 16:57:26.533946   727 net.cpp:67] Creating Layer relu3
I0405 16:57:26.533953   727 net.cpp:394] relu3 <- conv3
I0405 16:57:26.533959   727 net.cpp:345] relu3 -> conv3 (in-place)
I0405 16:57:26.533967   727 net.cpp:96] Setting up relu3
I0405 16:57:26.533972   727 net.cpp:103] Top shape: 32 384 13 13 (2076672)
I0405 16:57:26.533982   727 net.cpp:67] Creating Layer conv4
I0405 16:57:26.533987   727 net.cpp:394] conv4 <- conv3
I0405 16:57:26.533993   727 net.cpp:356] conv4 -> conv4
I0405 16:57:26.533999   727 net.cpp:96] Setting up conv4
I0405 16:57:26.557060   727 net.cpp:103] Top shape: 32 384 13 13 (2076672)
I0405 16:57:26.557092   727 net.cpp:67] Creating Layer relu4
I0405 16:57:26.557099   727 net.cpp:394] relu4 <- conv4
I0405 16:57:26.557106   727 net.cpp:345] relu4 -> conv4 (in-place)
I0405 16:57:26.557113   727 net.cpp:96] Setting up relu4
I0405 16:57:26.557119   727 net.cpp:103] Top shape: 32 384 13 13 (2076672)
I0405 16:57:26.557129   727 net.cpp:67] Creating Layer conv5
I0405 16:57:26.557154   727 net.cpp:394] conv5 <- conv4
I0405 16:57:26.557162   727 net.cpp:356] conv5 -> conv5
I0405 16:57:26.557173   727 net.cpp:96] Setting up conv5
I0405 16:57:26.571760   727 net.cpp:103] Top shape: 32 256 13 13 (1384448)
I0405 16:57:26.571790   727 net.cpp:67] Creating Layer relu5
I0405 16:57:26.571796   727 net.cpp:394] relu5 <- conv5
I0405 16:57:26.571804   727 net.cpp:345] relu5 -> conv5 (in-place)
I0405 16:57:26.571810   727 net.cpp:96] Setting up relu5
I0405 16:57:26.571815   727 net.cpp:103] Top shape: 32 256 13 13 (1384448)
I0405 16:57:26.571822   727 net.cpp:67] Creating Layer pool5
I0405 16:57:26.571826   727 net.cpp:394] pool5 <- conv5
I0405 16:57:26.571836   727 net.cpp:356] pool5 -> pool5
I0405 16:57:26.571843   727 net.cpp:96] Setting up pool5
I0405 16:57:26.571851   727 net.cpp:103] Top shape: 32 256 6 6 (294912)
I0405 16:57:26.571859   727 net.cpp:67] Creating Layer fc6
I0405 16:57:26.571863   727 net.cpp:394] fc6 <- pool5
I0405 16:57:26.571869   727 net.cpp:356] fc6 -> fc6
I0405 16:57:26.571877   727 net.cpp:96] Setting up fc6
I0405 16:57:27.791599   727 net.cpp:103] Top shape: 32 4096 1 1 (131072)
I0405 16:57:27.791664   727 net.cpp:67] Creating Layer relu6
I0405 16:57:27.791673   727 net.cpp:394] relu6 <- fc6
I0405 16:57:27.791682   727 net.cpp:345] relu6 -> fc6 (in-place)
I0405 16:57:27.791690   727 net.cpp:96] Setting up relu6
I0405 16:57:27.791709   727 net.cpp:103] Top shape: 32 4096 1 1 (131072)
I0405 16:57:27.791717   727 net.cpp:67] Creating Layer drop6
I0405 16:57:27.791720   727 net.cpp:394] drop6 <- fc6
I0405 16:57:27.791728   727 net.cpp:345] drop6 -> fc6 (in-place)
I0405 16:57:27.791735   727 net.cpp:96] Setting up drop6
I0405 16:57:27.791745   727 net.cpp:103] Top shape: 32 4096 1 1 (131072)
I0405 16:57:27.791752   727 net.cpp:67] Creating Layer fc7
I0405 16:57:27.791756   727 net.cpp:394] fc7 <- fc6
I0405 16:57:27.791762   727 net.cpp:356] fc7 -> fc7
I0405 16:57:27.791770   727 net.cpp:96] Setting up fc7
I0405 16:57:28.332967   727 net.cpp:103] Top shape: 32 4096 1 1 (131072)
I0405 16:57:28.333027   727 net.cpp:67] Creating Layer relu7
I0405 16:57:28.333035   727 net.cpp:394] relu7 <- fc7
I0405 16:57:28.333045   727 net.cpp:345] relu7 -> fc7 (in-place)
I0405 16:57:28.333056   727 net.cpp:96] Setting up relu7
I0405 16:57:28.333076   727 net.cpp:103] Top shape: 32 4096 1 1 (131072)
I0405 16:57:28.333083   727 net.cpp:67] Creating Layer drop7
I0405 16:57:28.333088   727 net.cpp:394] drop7 <- fc7
I0405 16:57:28.333093   727 net.cpp:345] drop7 -> fc7 (in-place)
I0405 16:57:28.333099   727 net.cpp:96] Setting up drop7
I0405 16:57:28.333104   727 net.cpp:103] Top shape: 32 4096 1 1 (131072)
I0405 16:57:28.333112   727 net.cpp:67] Creating Layer fc8_kevin
I0405 16:57:28.333115   727 net.cpp:394] fc8_kevin <- fc7
I0405 16:57:28.333124   727 net.cpp:356] fc8_kevin -> fc8_kevin
I0405 16:57:28.333135   727 net.cpp:96] Setting up fc8_kevin
I0405 16:57:28.339620   727 net.cpp:103] Top shape: 32 48 1 1 (1536)
I0405 16:57:28.339643   727 net.cpp:67] Creating Layer fc8_kevin_encode
I0405 16:57:28.339649   727 net.cpp:394] fc8_kevin_encode <- fc8_kevin
I0405 16:57:28.339655   727 net.cpp:356] fc8_kevin_encode -> fc8_kevin_encode
I0405 16:57:28.339661   727 net.cpp:96] Setting up fc8_kevin_encode
I0405 16:57:28.339675   727 net.cpp:103] Top shape: 32 48 1 1 (1536)
I0405 16:57:28.339684   727 net.cpp:67] Creating Layer fc8_kevin_encode_fc8_kevin_encode_0_split
I0405 16:57:28.339689   727 net.cpp:394] fc8_kevin_encode_fc8_kevin_encode_0_split <- fc8_kevin_encode
I0405 16:57:28.339694   727 net.cpp:356] fc8_kevin_encode_fc8_kevin_encode_0_split -> fc8_kevin_encode_fc8_kevin_encode_0_split_0
I0405 16:57:28.339700   727 net.cpp:356] fc8_kevin_encode_fc8_kevin_encode_0_split -> fc8_kevin_encode_fc8_kevin_encode_0_split_1
I0405 16:57:28.339707   727 net.cpp:96] Setting up fc8_kevin_encode_fc8_kevin_encode_0_split
I0405 16:57:28.339715   727 net.cpp:103] Top shape: 32 48 1 1 (1536)
I0405 16:57:28.339718   727 net.cpp:103] Top shape: 32 48 1 1 (1536)
I0405 16:57:28.339728   727 net.cpp:67] Creating Layer fc8_pascal_label
I0405 16:57:28.339757   727 net.cpp:394] fc8_pascal_label <- fc8_kevin_encode_fc8_kevin_encode_0_split_0
I0405 16:57:28.339764   727 net.cpp:356] fc8_pascal_label -> fc8_pascal_label
I0405 16:57:28.339771   727 net.cpp:96] Setting up fc8_pascal_label
I0405 16:57:28.339797   727 net.cpp:103] Top shape: 32 10 1 1 (320)
I0405 16:57:28.339815   727 net.cpp:67] Creating Layer fc8_pascal_color
I0405 16:57:28.339820   727 net.cpp:394] fc8_pascal_color <- fc8_kevin_encode_fc8_kevin_encode_0_split_1
I0405 16:57:28.339826   727 net.cpp:356] fc8_pascal_color -> fc8_pascal_color
I0405 16:57:28.339833   727 net.cpp:96] Setting up fc8_pascal_color
I0405 16:57:28.339869   727 net.cpp:103] Top shape: 32 16 1 1 (512)
I0405 16:57:28.339887   727 net.cpp:67] Creating Layer loss1
I0405 16:57:28.339892   727 net.cpp:394] loss1 <- fc8_pascal_label
I0405 16:57:28.339897   727 net.cpp:394] loss1 <- labels0
I0405 16:57:28.339905   727 net.cpp:356] loss1 -> (automatic)
I0405 16:57:28.339910   727 net.cpp:96] Setting up loss1
I0405 16:57:28.339922   727 net.cpp:103] Top shape: 1 1 1 1 (1)
I0405 16:57:28.339926   727 net.cpp:109]     with loss weight 1
I0405 16:57:28.339977   727 net.cpp:67] Creating Layer silence
I0405 16:57:28.339982   727 net.cpp:394] silence <- fc8_pascal_color
I0405 16:57:28.339988   727 net.cpp:394] silence <- labels1
I0405 16:57:28.339993   727 net.cpp:96] Setting up silence
I0405 16:57:28.339997   727 net.cpp:172] silence does not need backward computation.
…
I0405 16:57:28.341248   727 net.cpp:39] Initializing net from parameters: 
name: "deepFashion"
layers {
  top: "data"
  name: "data"
  type: DATA
  data_param {
    source: "/data/deepfashion/color_label_multilabel/color_label_multilabel_test"
    batch_size: 32
  }
  include {
    phase: TEST
  }
  transform_param {
    mirror: true
    crop_size: 227
    mean_file: "../../../data/ilsvrc12/imagenet_mean.binaryproto"
  }
}
layers {
  top: "labels"
  name: "labels"
  type: DATA
  data_param {
    source: "/data/deepfashion/color_label_multilabel/color_label_multilabel_test_alt"
    batch_size: 32
  }
  include {
    phase: TEST
  }
}
layers {
  bottom: "labels"
  top: "labels0"
  top: "labels1"
  name: "sliceL"
  type: SLICE
  slice_param {
    slice_point: 1
  }
}
layers {
  bottom: "data"
  top: "conv1"
  name: "conv1"
  type: CONVOLUTION
  blobs_lr: 1
  blobs_lr: 2
  weight_decay: 1
  weight_decay: 0
  convolution_param {
    num_output: 96
    kernel_size: 11
    stride: 4
    weight_filler {
      type: "gaussian"
      std: 0.01
    }
    bias_filler {
      type: "constant"
      value: 0
    }
  }
}
layers {
  bottom: "conv1"
  top: "conv1"
  name: "relu1"
  type: RELU
}
layers {
  bottom: "conv1"
  top: "pool1"
  name: "pool1"
  type: POOLING
  pooling_param {
    pool: MAX
    kernel_size: 3
    stride: 2
  }
}
layers {
  bottom: "pool1"
  top: "norm1"
  name: "norm1"
  type: LRN
  lrn_param {
    local_size: 5
    alpha: 0.0001
    beta: 0.75
  }
}
layers {
  bottom: "norm1"
  top: "conv2"
  name: "conv2"
  type: CONVOLUTION
  blobs_lr: 1
  blobs_lr: 2
  weight_decay: 1
  weight_decay: 0
  convolution_param {
    num_output: 256
    pad: 2
    kernel_size: 5
    group: 2
    weight_filler {
      type: "gaussian"
      std: 0.01
    }
    bias_filler {
      type: "constant"
      value: 1
    }
  }
}
layers {
  bottom: "conv2"
  top: "conv2"
  name: "relu2"
  type: RELU
}
layers {
  bottom: "conv2"
  top: "pool2"
  name: "pool2"
  type: POOLING
  pooling_param {
    pool: MAX
    kernel_size: 3
    stride: 2
  }
}
layers {
  bottom: "pool2"
  top: "norm2"
  name: "norm2"
  type: LRN
  lrn_param {
    local_size: 5
    alpha: 0.0001
    beta: 0.75
  }
}
layers {
  bottom: "norm2"
  top: "conv3"
  name: "conv3"
  type: CONVOLUTION
  blobs_lr: 1
  blobs_lr: 2
  weight_decay: 1
  weight_decay: 0
  convolution_param {
    num_output: 384
    pad: 1
    kernel_size: 3
    weight_filler {
      type: "gaussian"
      std: 0.01
    }
    bias_filler {
      type: "constant"
      value: 0
    }
  }
}
layers {
  bottom: "conv3"
  top: "conv3"
  name: "relu3"
  type: RELU
}
layers {
  bottom: "conv3"
  top: "conv4"
  name: "conv4"
  type: CONVOLUTION
  blobs_lr: 1
  blobs_lr: 2
  weight_decay: 1
  weight_decay: 0
  convolution_param {
    num_output: 384
    pad: 1
    kernel_size: 3
    group: 2
    weight_filler {
      type: "gaussian"
      std: 0.01
    }
    bias_filler {
      type: "constant"
      value: 1
    }
  }
}
layers {
  bottom: "conv4"
  top: "conv4"
  name: "relu4"
  type: RELU
}
layers {
  bottom: "conv4"
  top: "conv5"
  name: "conv5"
  type: CONVOLUTION
  blobs_lr: 1
  blobs_lr: 2
  weight_decay: 1
  weight_decay: 0
  convolution_param {
    num_output: 256
    pad: 1
    kernel_size: 3
    group: 2
    weight_filler {
      type: "gaussian"
      std: 0.01
    }
    bias_filler {
      type: "constant"
      value: 1
    }
  }
}
layers {
  bottom: "conv5"
  top: "conv5"
  name: "relu5"
  type: RELU
}
layers {
  bottom: "conv5"
  top: "pool5"
  name: "pool5"
  type: POOLING
  pooling_param {
    pool: MAX
    kernel_size: 3
    stride: 2
  }
}
layers {
  bottom: "pool5"
  top: "fc6"
  name: "fc6"
  type: INNER_PRODUCT
  blobs_lr: 1
  blobs_lr: 2
  weight_decay: 1
  weight_decay: 0
  inner_product_param {
    num_output: 4096
    weight_filler {
      type: "gaussian"
      std: 0.005
    }
    bias_filler {
      type: "constant"
      value: 1
    }
  }
}
layers {
  bottom: "fc6"
  top: "fc6"
  name: "relu6"
  type: RELU
}
layers {
  bottom: "fc6"
  top: "fc6"
  name: "drop6"
  type: DROPOUT
  dropout_param {
    dropout_ratio: 0.5
  }
}
layers {
  bottom: "fc6"
  top: "fc7"
  name: "fc7"
  type: INNER_PRODUCT
  blobs_lr: 1
  blobs_lr: 2
  weight_decay: 1
  weight_decay: 0
  inner_product_param {
    num_output: 4096
    weight_filler {
      type: "gaussian"
      std: 0.005
    }
    bias_filler {
      type: "constant"
      value: 1
    }
  }
}
layers {
  bottom: "fc7"
  top: "fc7"
  name: "relu7"
  type: RELU
}
layers {
  bottom: "fc7"
  top: "fc7"
  name: "drop7"
  type: DROPOUT
  dropout_param {
    dropout_ratio: 0.5
  }
}
layers {
  bottom: "fc7"
  top: "fc8_kevin"
  name: "fc8_kevin"
  type: INNER_PRODUCT
  blobs_lr: 1
  blobs_lr: 2
  weight_decay: 1
  weight_decay: 0
  inner_product_param {
    num_output: 48
    weight_filler {
      type: "gaussian"
      std: 0.01
    }
    bias_filler {
      type: "constant"
      value: 0
    }
  }
}
layers {
  bottom: "fc8_kevin"
  top: "fc8_kevin_encode"
  name: "fc8_kevin_encode"
  type: SIGMOID
}
layers {
  bottom: "fc8_kevin_encode"
  top: "fc8_pascal_label"
  name: "fc8_pascal_label"
  type: INNER_PRODUCT
  blobs_lr: 10
  blobs_lr: 20
  weight_decay: 1
  weight_decay: 0
  inner_product_param {
    num_output: 10
    weight_filler {
      type: "gaussian"
      std: 0.01
    }
    bias_filler {
      type: "constant"
      value: 0
    }
  }
}
layers {
  bottom: "fc8_kevin_encode"
  top: "fc8_pascal_color"
  name: "fc8_pascal_color"
  type: INNER_PRODUCT
  blobs_lr: 0
  blobs_lr: 0
  weight_decay: 1
  weight_decay: 0
  inner_product_param {
    num_output: 16
    weight_filler {
      type: "gaussian"
      std: 0.01
    }
    bias_filler {
      type: "constant"
      value: 0
    }
  }
}
layers {
  bottom: "fc8_pascal_label"
  bottom: "labels0"
  name: "loss1"
  type: SOFTMAX_LOSS
}
layers {
  bottom: "fc8_pascal_label"
  bottom: "labels0"
  top: "accuracy1"
  name: "accuracy1"
  type: ACCURACY
  include {
    phase: TEST
  }
}
layers {
  bottom: "fc8_pascal_color"
  bottom: "labels1"
  top: "accuracy2"
  name: "accuracy2"
  type: ACCURACY
  include {
    phase: TEST
  }
}
state {
  phase: TEST
}
I0405 16:57:28.341399   727 net.cpp:67] Creating Layer data
I0405 16:57:28.341408   727 net.cpp:356] data -> data
I0405 16:57:28.341416   727 net.cpp:96] Setting up data
I0405 16:57:28.341423   727 data_layer.cpp:45] Opening leveldb /data/deepfashion/color_label_multilabel/color_label_multilabel_test
I0405 16:57:28.352283   727 data_layer.cpp:128] output data size: 32,3,227,227
I0405 16:57:28.352304   727 base_data_layer.cpp:36] Loading mean file from../../../data/ilsvrc12/imagenet_mean.binaryproto
I0405 16:57:28.359139   727 net.cpp:103] Top shape: 32 3 227 227 (4946784)
I0405 16:57:28.359184   727 net.cpp:67] Creating Layer labels
I0405 16:57:28.359191   727 net.cpp:356] labels -> labels
I0405 16:57:28.359203   727 net.cpp:96] Setting up labels
I0405 16:57:28.359210   727 data_layer.cpp:45] Opening leveldb /data/deepfashion/color_label_multilabel/color_label_multilabel_test_alt
I0405 16:57:28.367624   727 data_layer.cpp:128] output data size: 32,2,1,1
I0405 16:57:28.367676   727 net.cpp:103] Top shape: 32 2 1 1 (64)
I0405 16:57:28.367696   727 net.cpp:67] Creating Layer sliceL
I0405 16:57:28.367702   727 net.cpp:394] sliceL <- labels
I0405 16:57:28.367712   727 net.cpp:356] sliceL -> labels0
I0405 16:57:28.367722   727 net.cpp:356] sliceL -> labels1
I0405 16:57:28.367729   727 net.cpp:96] Setting up sliceL
I0405 16:57:28.367736   727 net.cpp:103] Top shape: 32 1 1 1 (32)
I0405 16:57:28.367740   727 net.cpp:103] Top shape: 32 1 1 1 (32)
I0405 16:57:28.367746   727 net.cpp:67] Creating Layer labels0_sliceL_0_split
I0405 16:57:28.367766   727 net.cpp:394] labels0_sliceL_0_split <- labels0
I0405 16:57:28.367774   727 net.cpp:356] labels0_sliceL_0_split -> labels0_sliceL_0_split_0
I0405 16:57:28.367781   727 net.cpp:356] labels0_sliceL_0_split -> labels0_sliceL_0_split_1
I0405 16:57:28.367787   727 net.cpp:96] Setting up labels0_sliceL_0_split
I0405 16:57:28.367792   727 net.cpp:103] Top shape: 32 1 1 1 (32)
I0405 16:57:28.367796   727 net.cpp:103] Top shape: 32 1 1 1 (32)
I0405 16:57:28.367805   727 net.cpp:67] Creating Layer conv1
I0405 16:57:28.367808   727 net.cpp:394] conv1 <- data
I0405 16:57:28.367815   727 net.cpp:356] conv1 -> conv1
I0405 16:57:28.367821   727 net.cpp:96] Setting up conv1
I0405 16:57:28.369066   727 net.cpp:103] Top shape: 32 96 55 55 (9292800)
I0405 16:57:28.369094   727 net.cpp:67] Creating Layer relu1
I0405 16:57:28.369101   727 net.cpp:394] relu1 <- conv1
I0405 16:57:28.369107   727 net.cpp:345] relu1 -> conv1 (in-place)
I0405 16:57:28.369112   727 net.cpp:96] Setting up relu1
I0405 16:57:28.369120   727 net.cpp:103] Top shape: 32 96 55 55 (9292800)
I0405 16:57:28.369127   727 net.cpp:67] Creating Layer pool1
I0405 16:57:28.369132   727 net.cpp:394] pool1 <- conv1
I0405 16:57:28.369138   727 net.cpp:356] pool1 -> pool1
I0405 16:57:28.369145   727 net.cpp:96] Setting up pool1
I0405 16:57:28.369155   727 net.cpp:103] Top shape: 32 96 27 27 (2239488)
I0405 16:57:28.369163   727 net.cpp:67] Creating Layer norm1
I0405 16:57:28.369166   727 net.cpp:394] norm1 <- pool1
I0405 16:57:28.369173   727 net.cpp:356] norm1 -> norm1
I0405 16:57:28.369179   727 net.cpp:96] Setting up norm1
I0405 16:57:28.369184   727 net.cpp:103] Top shape: 32 96 27 27 (2239488)
I0405 16:57:28.369194   727 net.cpp:67] Creating Layer conv2
I0405 16:57:28.369197   727 net.cpp:394] conv2 <- norm1
I0405 16:57:28.369204   727 net.cpp:356] conv2 -> conv2
I0405 16:57:28.369210   727 net.cpp:96] Setting up conv2
I0405 16:57:28.379703   727 net.cpp:103] Top shape: 32 256 27 27 (5971968)
I0405 16:57:28.379736   727 net.cpp:67] Creating Layer relu2
I0405 16:57:28.379744   727 net.cpp:394] relu2 <- conv2
I0405 16:57:28.379750   727 net.cpp:345] relu2 -> conv2 (in-place)
I0405 16:57:28.379757   727 net.cpp:96] Setting up relu2
I0405 16:57:28.379765   727 net.cpp:103] Top shape: 32 256 27 27 (5971968)
I0405 16:57:28.379772   727 net.cpp:67] Creating Layer pool2
I0405 16:57:28.379776   727 net.cpp:394] pool2 <- conv2
I0405 16:57:28.379781   727 net.cpp:356] pool2 -> pool2
I0405 16:57:28.379788   727 net.cpp:96] Setting up pool2
I0405 16:57:28.379796   727 net.cpp:103] Top shape: 32 256 13 13 (1384448)
I0405 16:57:28.379802   727 net.cpp:67] Creating Layer norm2
I0405 16:57:28.379806   727 net.cpp:394] norm2 <- pool2
I0405 16:57:28.379812   727 net.cpp:356] norm2 -> norm2
I0405 16:57:28.379817   727 net.cpp:96] Setting up norm2
I0405 16:57:28.379822   727 net.cpp:103] Top shape: 32 256 13 13 (1384448)
I0405 16:57:28.379837   727 net.cpp:67] Creating Layer conv3
I0405 16:57:28.379843   727 net.cpp:394] conv3 <- norm2
I0405 16:57:28.379853   727 net.cpp:356] conv3 -> conv3
I0405 16:57:28.379860   727 net.cpp:96] Setting up conv3
I0405 16:57:28.408713   727 net.cpp:103] Top shape: 32 384 13 13 (2076672)
I0405 16:57:28.408741   727 net.cpp:67] Creating Layer relu3
I0405 16:57:28.408747   727 net.cpp:394] relu3 <- conv3
I0405 16:57:28.408756   727 net.cpp:345] relu3 -> conv3 (in-place)
I0405 16:57:28.408763   727 net.cpp:96] Setting up relu3
I0405 16:57:28.408771   727 net.cpp:103] Top shape: 32 384 13 13 (2076672)
I0405 16:57:28.408778   727 net.cpp:67] Creating Layer conv4
I0405 16:57:28.408782   727 net.cpp:394] conv4 <- conv3
I0405 16:57:28.408788   727 net.cpp:356] conv4 -> conv4
I0405 16:57:28.408797   727 net.cpp:96] Setting up conv4
I0405 16:57:28.430644   727 net.cpp:103] Top shape: 32 384 13 13 (2076672)
I0405 16:57:28.430667   727 net.cpp:67] Creating Layer relu4
I0405 16:57:28.430673   727 net.cpp:394] relu4 <- conv4
I0405 16:57:28.430680   727 net.cpp:345] relu4 -> conv4 (in-place)
I0405 16:57:28.430686   727 net.cpp:96] Setting up relu4
I0405 16:57:28.430716   727 net.cpp:103] Top shape: 32 384 13 13 (2076672)
I0405 16:57:28.430729   727 net.cpp:67] Creating Layer conv5
I0405 16:57:28.430734   727 net.cpp:394] conv5 <- conv4
I0405 16:57:28.430740   727 net.cpp:356] conv5 -> conv5
I0405 16:57:28.430747   727 net.cpp:96] Setting up conv5
I0405 16:57:28.445777   727 net.cpp:103] Top shape: 32 256 13 13 (1384448)
I0405 16:57:28.445807   727 net.cpp:67] Creating Layer relu5
I0405 16:57:28.445814   727 net.cpp:394] relu5 <- conv5
I0405 16:57:28.445822   727 net.cpp:345] relu5 -> conv5 (in-place)
I0405 16:57:28.445827   727 net.cpp:96] Setting up relu5
I0405 16:57:28.445834   727 net.cpp:103] Top shape: 32 256 13 13 (1384448)
I0405 16:57:28.445842   727 net.cpp:67] Creating Layer pool5
I0405 16:57:28.445845   727 net.cpp:394] pool5 <- conv5
I0405 16:57:28.445852   727 net.cpp:356] pool5 -> pool5
I0405 16:57:28.445858   727 net.cpp:96] Setting up pool5
I0405 16:57:28.445866   727 net.cpp:103] Top shape: 32 256 6 6 (294912)
I0405 16:57:28.445878   727 net.cpp:67] Creating Layer fc6
I0405 16:57:28.445881   727 net.cpp:394] fc6 <- pool5
I0405 16:57:28.445888   727 net.cpp:356] fc6 -> fc6
I0405 16:57:28.445896   727 net.cpp:96] Setting up fc6
I0405 16:57:29.670531   727 net.cpp:103] Top shape: 32 4096 1 1 (131072)
I0405 16:57:29.670593   727 net.cpp:67] Creating Layer relu6
I0405 16:57:29.670600   727 net.cpp:394] relu6 <- fc6
I0405 16:57:29.670610   727 net.cpp:345] relu6 -> fc6 (in-place)
I0405 16:57:29.670619   727 net.cpp:96] Setting up relu6
I0405 16:57:29.670639   727 net.cpp:103] Top shape: 32 4096 1 1 (131072)
I0405 16:57:29.670647   727 net.cpp:67] Creating Layer drop6
I0405 16:57:29.670651   727 net.cpp:394] drop6 <- fc6
I0405 16:57:29.670656   727 net.cpp:345] drop6 -> fc6 (in-place)
I0405 16:57:29.670662   727 net.cpp:96] Setting up drop6
I0405 16:57:29.670667   727 net.cpp:103] Top shape: 32 4096 1 1 (131072)
I0405 16:57:29.670675   727 net.cpp:67] Creating Layer fc7
I0405 16:57:29.670678   727 net.cpp:394] fc7 <- fc6
I0405 16:57:29.670685   727 net.cpp:356] fc7 -> fc7
I0405 16:57:29.670691   727 net.cpp:96] Setting up fc7
I0405 16:57:30.213325   727 net.cpp:103] Top shape: 32 4096 1 1 (131072)
I0405 16:57:30.213387   727 net.cpp:67] Creating Layer relu7
I0405 16:57:30.213394   727 net.cpp:394] relu7 <- fc7
I0405 16:57:30.213404   727 net.cpp:345] relu7 -> fc7 (in-place)
I0405 16:57:30.213413   727 net.cpp:96] Setting up relu7
I0405 16:57:30.213433   727 net.cpp:103] Top shape: 32 4096 1 1 (131072)
I0405 16:57:30.213440   727 net.cpp:67] Creating Layer drop7
I0405 16:57:30.213444   727 net.cpp:394] drop7 <- fc7
I0405 16:57:30.213450   727 net.cpp:345] drop7 -> fc7 (in-place)
I0405 16:57:30.213456   727 net.cpp:96] Setting up drop7
I0405 16:57:30.213461   727 net.cpp:103] Top shape: 32 4096 1 1 (131072)
I0405 16:57:30.213469   727 net.cpp:67] Creating Layer fc8_kevin
I0405 16:57:30.213474   727 net.cpp:394] fc8_kevin <- fc7
I0405 16:57:30.213479   727 net.cpp:356] fc8_kevin -> fc8_kevin
I0405 16:57:30.213487   727 net.cpp:96] Setting up fc8_kevin
I0405 16:57:30.219744   727 net.cpp:103] Top shape: 32 48 1 1 (1536)
I0405 16:57:30.219770   727 net.cpp:67] Creating Layer fc8_kevin_encode
I0405 16:57:30.219776   727 net.cpp:394] fc8_kevin_encode <- fc8_kevin
I0405 16:57:30.219784   727 net.cpp:356] fc8_kevin_encode -> fc8_kevin_encode
I0405 16:57:30.219790   727 net.cpp:96] Setting up fc8_kevin_encode
I0405 16:57:30.219799   727 net.cpp:103] Top shape: 32 48 1 1 (1536)
I0405 16:57:30.219805   727 net.cpp:67] Creating Layer fc8_kevin_encode_fc8_kevin_encode_0_split
I0405 16:57:30.219810   727 net.cpp:394] fc8_kevin_encode_fc8_kevin_encode_0_split <- fc8_kevin_encode
I0405 16:57:30.219818   727 net.cpp:356] fc8_kevin_encode_fc8_kevin_encode_0_split -> fc8_kevin_encode_fc8_kevin_encode_0_split_0
I0405 16:57:30.219825   727 net.cpp:356] fc8_kevin_encode_fc8_kevin_encode_0_split -> fc8_kevin_encode_fc8_kevin_encode_0_split_1
I0405 16:57:30.219832   727 net.cpp:96] Setting up fc8_kevin_encode_fc8_kevin_encode_0_split
I0405 16:57:30.219836   727 net.cpp:103] Top shape: 32 48 1 1 (1536)
I0405 16:57:30.219866   727 net.cpp:103] Top shape: 32 48 1 1 (1536)
I0405 16:57:30.219872   727 net.cpp:67] Creating Layer fc8_pascal_label
I0405 16:57:30.219877   727 net.cpp:394] fc8_pascal_label <- fc8_kevin_encode_fc8_kevin_encode_0_split_0
I0405 16:57:30.219887   727 net.cpp:356] fc8_pascal_label -> fc8_pascal_label
I0405 16:57:30.219894   727 net.cpp:96] Setting up fc8_pascal_label
I0405 16:57:30.219920   727 net.cpp:103] Top shape: 32 10 1 1 (320)
I0405 16:57:30.219944   727 net.cpp:67] Creating Layer fc8_pascal_label_fc8_pascal_label_0_split
I0405 16:57:30.219949   727 net.cpp:394] fc8_pascal_label_fc8_pascal_label_0_split <- fc8_pascal_label
I0405 16:57:30.219954   727 net.cpp:356] fc8_pascal_label_fc8_pascal_label_0_split -> fc8_pascal_label_fc8_pascal_label_0_split_0
I0405 16:57:30.219961   727 net.cpp:356] fc8_pascal_label_fc8_pascal_label_0_split -> fc8_pascal_label_fc8_pascal_label_0_split_1
I0405 16:57:30.219967   727 net.cpp:96] Setting up fc8_pascal_label_fc8_pascal_label_0_split
I0405 16:57:30.219972   727 net.cpp:103] Top shape: 32 10 1 1 (320)
I0405 16:57:30.219976   727 net.cpp:103] Top shape: 32 10 1 1 (320)
I0405 16:57:30.219982   727 net.cpp:67] Creating Layer fc8_pascal_color
I0405 16:57:30.219990   727 net.cpp:394] fc8_pascal_color <- fc8_kevin_encode_fc8_kevin_encode_0_split_1
I0405 16:57:30.219997   727 net.cpp:356] fc8_pascal_color -> fc8_pascal_color
I0405 16:57:30.220005   727 net.cpp:96] Setting up fc8_pascal_color
I0405 16:57:30.220041   727 net.cpp:103] Top shape: 32 16 1 1 (512)
I0405 16:57:30.220058   727 net.cpp:67] Creating Layer loss1
I0405 16:57:30.220063   727 net.cpp:394] loss1 <- fc8_pascal_label_fc8_pascal_label_0_split_0
I0405 16:57:30.220069   727 net.cpp:394] loss1 <- labels0_sliceL_0_split_0
I0405 16:57:30.220075   727 net.cpp:356] loss1 -> (automatic)
I0405 16:57:30.220080   727 net.cpp:96] Setting up loss1
I0405 16:57:30.220093   727 net.cpp:103] Top shape: 1 1 1 1 (1)
I0405 16:57:30.220098   727 net.cpp:109]     with loss weight 1
I0405 16:57:30.220121   727 net.cpp:67] Creating Layer accuracy1
I0405 16:57:30.220126   727 net.cpp:394] accuracy1 <- fc8_pascal_label_fc8_pascal_label_0_split_1
I0405 16:57:30.220131   727 net.cpp:394] accuracy1 <- labels0_sliceL_0_split_1
I0405 16:57:30.220139   727 net.cpp:356] accuracy1 -> accuracy1
I0405 16:57:30.220146   727 net.cpp:96] Setting up accuracy1
I0405 16:57:30.220155   727 net.cpp:103] Top shape: 1 1 1 1 (1)
I0405 16:57:30.220161   727 net.cpp:67] Creating Layer accuracy2
I0405 16:57:30.220165   727 net.cpp:394] accuracy2 <- fc8_pascal_color
I0405 16:57:30.220170   727 net.cpp:394] accuracy2 <- labels1
I0405 16:57:30.220175   727 net.cpp:356] accuracy2 -> accuracy2
I0405 16:57:30.220181   727 net.cpp:96] Setting up accuracy2
I0405 16:57:30.220185   727 net.cpp:103] Top shape: 1 1 1 1 (1)
I0405 16:57:30.220190   727 net.cpp:172] accuracy2 does not need backward computation.
I0405 16:57:30.220193   727 net.cpp:172] accuracy1 does not need backward computation.
I0405 16:57:30.220196   727 net.cpp:170] loss1 needs backward computation.
I0405 16:57:30.220201   727 net.cpp:172] fc8_pascal_color does not need backward computation.
I0405 16:57:30.220203   727 net.cpp:170] fc8_pascal_label_fc8_pascal_label_0_split needs backward computation.
…
