…
  top: "data"
  top: "random"
  name: "data"
  type: DATA
  data_param {
    source: "/data/deepfashion/color_label_multilabel/color_label_multilabel_TRAIN"
    batch_size: 32
    backend: LMDB
  }
  include {
    phase: TRAIN
  }
  transform_param {
    mirror: true
    crop_size: 227
    mean_file: "../../../data/ilsvrc12/imagenet_mean.binaryproto"
  }
}
layers {
  top: "labels"
  name: "labels"
  type: DATA
  data_param {
    source: "/data/deepfashion/color_label_multilabel/color_label_multilabel_TRAIN_ALT"
    batch_size: 32
    backend: LMDB
  }
  include {
    phase: TRAIN
  }
}
layers {
  bottom: "labels"
  top: "labels0"
  top: "labels1"
  name: "sliceL"
  type: SLICE
  slice_param {
    slice_point: 1
  }
}
layers {
  bottom: "data"
  top: "conv1"
  name: "conv1"
  type: CONVOLUTION
  blobs_lr: 1
  blobs_lr: 2
  weight_decay: 1
  weight_decay: 0
  convolution_param {
    num_output: 96
    kernel_size: 11
    stride: 4
    weight_filler {
      type: "gaussian"
      std: 0.01
    }
    bias_filler {
      type: "constant"
      value: 0
    }
  }
}
layers {
  bottom: "conv1"
  top: "conv1"
  name: "relu1"
  type: RELU
}
layers {
  bottom: "conv1"
  top: "pool1"
  name: "pool1"
  type: POOLING
  pooling_param {
    pool: MAX
    kernel_size: 3
    stride: 2
  }
}
layers {
  bottom: "pool1"
  top: "norm1"
  name: "norm1"
  type: LRN
  lrn_param {
    local_size: 5
    alpha: 0.0001
    beta: 0.75
  }
}
layers {
  bottom: "norm1"
  top: "conv2"
  name: "conv2"
  type: CONVOLUTION
  blobs_lr: 1
  blobs_lr: 2
  weight_decay: 1
  weight_decay: 0
  convolution_param {
    num_output: 256
    pad: 2
    kernel_size: 5
    group: 2
    weight_filler {
      type: "gaussian"
      std: 0.01
    }
    bias_filler {
      type: "constant"
      value: 1
    }
  }
}
layers {
  bottom: "conv2"
  top: "conv2"
  name: "relu2"
  type: RELU
}
layers {
  bottom: "conv2"
  top: "pool2"
  name: "pool2"
  type: POOLING
  pooling_param {
    pool: MAX
    kernel_size: 3
    stride: 2
  }
}
layers {
  bottom: "pool2"
  top: "norm2"
  name: "norm2"
  type: LRN
  lrn_param {
    local_size: 5
    alpha: 0.0001
    beta: 0.75
  }
}
layers {
  bottom: "norm2"
  top: "conv3"
  name: "conv3"
  type: CONVOLUTION
  blobs_lr: 1
  blobs_lr: 2
  weight_decay: 1
  weight_decay: 0
  convolution_param {
    num_output: 384
    pad: 1
    kernel_size: 3
    weight_filler {
      type: "gaussian"
      std: 0.01
    }
    bias_filler {
      type: "constant"
      value: 0
    }
  }
}
layers {
  bottom: "conv3"
  top: "conv3"
  name: "relu3"
  type: RELU
}
layers {
  bottom: "conv3"
  top: "conv4"
  name: "conv4"
  type: CONVOLUTION
  blobs_lr: 1
  blobs_lr: 2
  weight_decay: 1
  weight_decay: 0
  convolution_param {
    num_output: 384
    pad: 1
    kernel_size: 3
    group: 2
    weight_filler {
      type: "gaussian"
      std: 0.01
    }
    bias_filler {
      type: "constant"
      value: 1
    }
  }
}
layers {
  bottom: "conv4"
  top: "conv4"
  name: "relu4"
  type: RELU
}
layers {
  bottom: "conv4"
  top: "conv5"
  name: "conv5"
  type: CONVOLUTION
  blobs_lr: 1
  blobs_lr: 2
  weight_decay: 1
  weight_decay: 0
  convolution_param {
    num_output: 256
    pad: 1
    kernel_size: 3
    group: 2
    weight_filler {
      type: "gaussian"
      std: 0.01
    }
    bias_filler {
      type: "constant"
      value: 1
    }
  }
}
layers {
  bottom: "conv5"
  top: "conv5"
  name: "relu5"
  type: RELU
}
layers {
  bottom: "conv5"
  top: "pool5"
  name: "pool5"
  type: POOLING
  pooling_param {
    pool: MAX
    kernel_size: 3
    stride: 2
  }
}
layers {
  bottom: "pool5"
  top: "fc6"
  name: "fc6"
  type: INNER_PRODUCT
  blobs_lr: 1
  blobs_lr: 2
  weight_decay: 1
  weight_decay: 0
  inner_product_param {
    num_output: 4096
    weight_filler {
      type: "gaussian"
      std: 0.005
    }
    bias_filler {
      type: "constant"
      value: 1
    }
  }
}
layers {
  bottom: "fc6"
  top: "fc6"
  name: "relu6"
  type: RELU
}
layers {
  bottom: "fc6"
  top: "fc6"
  name: "drop6"
  type: DROPOUT
  dropout_param {
    dropout_ratio: 0.5
  }
}
layers {
  bottom: "fc6"
  top: "fc7"
  name: "fc7"
  type: INNER_PRODUCT
  blobs_lr: 1
  blobs_lr: 2
  weight_decay: 1
  weight_decay: 0
  inner_product_param {
    num_output: 4096
    weight_filler {
      type: "gaussian"
      std: 0.005
    }
    bias_filler {
      type: "constant"
      value: 1
    }
  }
}
layers {
  bottom: "fc7"
  top: "fc7"
  name: "relu7"
  type: RELU
}
layers {
  bottom: "fc7"
  top: "fc7"
  name: "drop7"
  type: DROPOUT
  dropout_param {
    dropout_ratio: 0.5
  }
}
layers {
  bottom: "fc7"
  top: "fc8_deepfashion"
  name: "fc8_deepfashion"
  type: INNER_PRODUCT
  blobs_lr: 10
  blobs_lr: 20
  weight_decay: 1
  weight_decay: 0
  inner_product_param {
    num_output: 48
    weight_filler {
      type: "gaussian"
      std: 0.01
    }
    bias_filler {
      type: "constant"
      value: 0
    }
  }
}
layers {
  bottom: "fc8_deepfashion"
  top: "fc8_deepfashion_encode"
  name: "fc8_deepfashion_encode"
  type: SIGMOID
}
layers {
  bottom: "fc8_deepfashion_encode"
  top: "fc8_pascal_label"
  name: "fc8_pascal_label"
  type: INNER_PRODUCT
  blobs_lr: 10
  blobs_lr: 20
  weight_decay: 1
  weight_decay: 0
  inner_product_param {
    num_output: 10
    weight_filler {
      type: "gaussian"
      std: 0.01
    }
    bias_filler {
      type: "constant"
      value: 0
    }
  }
}
layers {
  bottom: "fc8_deepfashion_encode"
  top: "fc8_pascal_color"
  name: "fc8_pascal_color"
  type: INNER_PRODUCT
  blobs_lr: 0
  blobs_lr: 0
  weight_decay: 1
  weight_decay: 0
  inner_product_param {
    num_output: 16
    weight_filler {
      type: "gaussian"
      std: 0.01
    }
    bias_filler {
      type: "constant"
      value: 0
    }
  }
}
layers {
  bottom: "fc8_pascal_label"
  bottom: "labels0"
  name: "loss"
  type: SOFTMAX_LOSS
}
layers {
  bottom: "labels1"
  bottom: "random"
  bottom: "fc8_pascal_color"
  name: "silence"
  type: SILENCE
}
state {
  phase: TRAIN
}
I0406 06:31:53.741320  1578 net.cpp:67] Creating Layer data
I0406 06:31:53.741346  1578 net.cpp:356] data -> data
I0406 06:31:53.741384  1578 net.cpp:356] data -> random
I0406 06:31:53.741410  1578 net.cpp:96] Setting up data
I0406 06:31:53.747964  1578 data_layer.cpp:68] Opening lmdb /data/deepfashion/color_label_multilabel/color_label_multilabel_TRAIN
I0406 06:31:53.756355  1578 data_layer.cpp:128] output data size: 32,3,227,227
I0406 06:31:53.756374  1578 base_data_layer.cpp:36] Loading mean file from../../../data/ilsvrc12/imagenet_mean.binaryproto
I0406 06:31:53.772507  1578 net.cpp:103] Top shape: 32 3 227 227 (4946784)
I0406 06:31:53.772542  1578 net.cpp:103] Top shape: 32 1 1 1 (32)
I0406 06:31:53.772567  1578 net.cpp:67] Creating Layer labels
I0406 06:31:53.772579  1578 net.cpp:356] labels -> labels
I0406 06:31:53.772601  1578 net.cpp:96] Setting up labels
I0406 06:31:53.774328  1578 data_layer.cpp:68] Opening lmdb /data/deepfashion/color_label_multilabel/color_label_multilabel_TRAIN_ALT
I0406 06:31:53.777197  1578 data_layer.cpp:128] output data size: 32,2,1,1
I0406 06:31:53.777246  1578 net.cpp:103] Top shape: 32 2 1 1 (64)
I0406 06:31:53.777267  1578 net.cpp:67] Creating Layer sliceL
I0406 06:31:53.777292  1578 net.cpp:394] sliceL <- labels
I0406 06:31:53.777304  1578 net.cpp:356] sliceL -> labels0
I0406 06:31:53.777320  1578 net.cpp:356] sliceL -> labels1
I0406 06:31:53.777330  1578 net.cpp:96] Setting up sliceL
I0406 06:31:53.779570  1578 net.cpp:103] Top shape: 32 1 1 1 (32)
I0406 06:31:53.779589  1578 net.cpp:103] Top shape: 32 1 1 1 (32)
I0406 06:31:53.779606  1578 net.cpp:67] Creating Layer conv1
I0406 06:31:53.779615  1578 net.cpp:394] conv1 <- data
I0406 06:31:53.779633  1578 net.cpp:356] conv1 -> conv1
I0406 06:31:53.779654  1578 net.cpp:96] Setting up conv1
I0406 06:31:53.911109  1578 net.cpp:103] Top shape: 32 96 55 55 (9292800)
I0406 06:31:53.911181  1578 net.cpp:67] Creating Layer relu1
I0406 06:31:53.911195  1578 net.cpp:394] relu1 <- conv1
I0406 06:31:53.911211  1578 net.cpp:345] relu1 -> conv1 (in-place)
I0406 06:31:53.911226  1578 net.cpp:96] Setting up relu1
I0406 06:31:53.911244  1578 net.cpp:103] Top shape: 32 96 55 55 (9292800)
I0406 06:31:53.911258  1578 net.cpp:67] Creating Layer pool1
I0406 06:31:53.911267  1578 net.cpp:394] pool1 <- conv1
I0406 06:31:53.911278  1578 net.cpp:356] pool1 -> pool1
I0406 06:31:53.911290  1578 net.cpp:96] Setting up pool1
I0406 06:31:53.911332  1578 net.cpp:103] Top shape: 32 96 27 27 (2239488)
I0406 06:31:53.911352  1578 net.cpp:67] Creating Layer norm1
I0406 06:31:53.911361  1578 net.cpp:394] norm1 <- pool1
I0406 06:31:53.911375  1578 net.cpp:356] norm1 -> norm1
I0406 06:31:53.911388  1578 net.cpp:96] Setting up norm1
I0406 06:31:53.911402  1578 net.cpp:103] Top shape: 32 96 27 27 (2239488)
I0406 06:31:53.911417  1578 net.cpp:67] Creating Layer conv2
I0406 06:31:53.911427  1578 net.cpp:394] conv2 <- norm1
I0406 06:31:53.911442  1578 net.cpp:356] conv2 -> conv2
I0406 06:31:53.911456  1578 net.cpp:96] Setting up conv2
I0406 06:31:53.921869  1578 net.cpp:103] Top shape: 32 256 27 27 (5971968)
I0406 06:31:53.921905  1578 net.cpp:67] Creating Layer relu2
I0406 06:31:53.921913  1578 net.cpp:394] relu2 <- conv2
I0406 06:31:53.921926  1578 net.cpp:345] relu2 -> conv2 (in-place)
I0406 06:31:53.921937  1578 net.cpp:96] Setting up relu2
I0406 06:31:53.921957  1578 net.cpp:103] Top shape: 32 256 27 27 (5971968)
I0406 06:31:53.921978  1578 net.cpp:67] Creating Layer pool2
I0406 06:31:53.921988  1578 net.cpp:394] pool2 <- conv2
I0406 06:31:53.921998  1578 net.cpp:356] pool2 -> pool2
I0406 06:31:53.922010  1578 net.cpp:96] Setting up pool2
I0406 06:31:53.922024  1578 net.cpp:103] Top shape: 32 256 13 13 (1384448)
I0406 06:31:53.922044  1578 net.cpp:67] Creating Layer norm2
I0406 06:31:53.922052  1578 net.cpp:394] norm2 <- pool2
I0406 06:31:53.922062  1578 net.cpp:356] norm2 -> norm2
I0406 06:31:53.922075  1578 net.cpp:96] Setting up norm2
I0406 06:31:53.922082  1578 net.cpp:103] Top shape: 32 256 13 13 (1384448)
I0406 06:31:53.922101  1578 net.cpp:67] Creating Layer conv3
I0406 06:31:53.922116  1578 net.cpp:394] conv3 <- norm2
I0406 06:31:53.922128  1578 net.cpp:356] conv3 -> conv3
I0406 06:31:53.922142  1578 net.cpp:96] Setting up conv3
I0406 06:31:53.951308  1578 net.cpp:103] Top shape: 32 384 13 13 (2076672)
I0406 06:31:53.951344  1578 net.cpp:67] Creating Layer relu3
I0406 06:31:53.951354  1578 net.cpp:394] relu3 <- conv3
I0406 06:31:53.951365  1578 net.cpp:345] relu3 -> conv3 (in-place)
I0406 06:31:53.951378  1578 net.cpp:96] Setting up relu3
I0406 06:31:53.951391  1578 net.cpp:103] Top shape: 32 384 13 13 (2076672)
I0406 06:31:53.951408  1578 net.cpp:67] Creating Layer conv4
I0406 06:31:53.951417  1578 net.cpp:394] conv4 <- conv3
I0406 06:31:53.951428  1578 net.cpp:356] conv4 -> conv4
I0406 06:31:53.951442  1578 net.cpp:96] Setting up conv4
I0406 06:31:53.973669  1578 net.cpp:103] Top shape: 32 384 13 13 (2076672)
I0406 06:31:53.973701  1578 net.cpp:67] Creating Layer relu4
I0406 06:31:53.973711  1578 net.cpp:394] relu4 <- conv4
I0406 06:31:53.973722  1578 net.cpp:345] relu4 -> conv4 (in-place)
I0406 06:31:53.973734  1578 net.cpp:96] Setting up relu4
I0406 06:31:53.973747  1578 net.cpp:103] Top shape: 32 384 13 13 (2076672)
I0406 06:31:53.973790  1578 net.cpp:67] Creating Layer conv5
I0406 06:31:53.973803  1578 net.cpp:394] conv5 <- conv4
I0406 06:31:53.973819  1578 net.cpp:356] conv5 -> conv5
I0406 06:31:53.973832  1578 net.cpp:96] Setting up conv5
I0406 06:31:53.988574  1578 net.cpp:103] Top shape: 32 256 13 13 (1384448)
I0406 06:31:53.988612  1578 net.cpp:67] Creating Layer relu5
I0406 06:31:53.988623  1578 net.cpp:394] relu5 <- conv5
I0406 06:31:53.988634  1578 net.cpp:345] relu5 -> conv5 (in-place)
I0406 06:31:53.988651  1578 net.cpp:96] Setting up relu5
I0406 06:31:53.988663  1578 net.cpp:103] Top shape: 32 256 13 13 (1384448)
I0406 06:31:53.988677  1578 net.cpp:67] Creating Layer pool5
I0406 06:31:53.988685  1578 net.cpp:394] pool5 <- conv5
I0406 06:31:53.988697  1578 net.cpp:356] pool5 -> pool5
I0406 06:31:53.988708  1578 net.cpp:96] Setting up pool5
I0406 06:31:53.988723  1578 net.cpp:103] Top shape: 32 256 6 6 (294912)
I0406 06:31:53.988742  1578 net.cpp:67] Creating Layer fc6
I0406 06:31:53.988754  1578 net.cpp:394] fc6 <- pool5
I0406 06:31:53.988765  1578 net.cpp:356] fc6 -> fc6
I0406 06:31:53.988780  1578 net.cpp:96] Setting up fc6
I0406 06:31:55.214578  1578 net.cpp:103] Top shape: 32 4096 1 1 (131072)
I0406 06:31:55.214646  1578 net.cpp:67] Creating Layer relu6
I0406 06:31:55.214659  1578 net.cpp:394] relu6 <- fc6
I0406 06:31:55.214673  1578 net.cpp:345] relu6 -> fc6 (in-place)
I0406 06:31:55.214687  1578 net.cpp:96] Setting up relu6
I0406 06:31:55.214721  1578 net.cpp:103] Top shape: 32 4096 1 1 (131072)
I0406 06:31:55.214735  1578 net.cpp:67] Creating Layer drop6
I0406 06:31:55.214743  1578 net.cpp:394] drop6 <- fc6
I0406 06:31:55.214764  1578 net.cpp:345] drop6 -> fc6 (in-place)
I0406 06:31:55.214779  1578 net.cpp:96] Setting up drop6
I0406 06:31:55.214854  1578 net.cpp:103] Top shape: 32 4096 1 1 (131072)
I0406 06:31:55.214874  1578 net.cpp:67] Creating Layer fc7
I0406 06:31:55.214884  1578 net.cpp:394] fc7 <- fc6
I0406 06:31:55.214895  1578 net.cpp:356] fc7 -> fc7
I0406 06:31:55.214922  1578 net.cpp:96] Setting up fc7
I0406 06:31:55.759713  1578 net.cpp:103] Top shape: 32 4096 1 1 (131072)
I0406 06:31:55.759769  1578 net.cpp:67] Creating Layer relu7
I0406 06:31:55.759780  1578 net.cpp:394] relu7 <- fc7
I0406 06:31:55.759796  1578 net.cpp:345] relu7 -> fc7 (in-place)
I0406 06:31:55.759811  1578 net.cpp:96] Setting up relu7
I0406 06:31:55.759840  1578 net.cpp:103] Top shape: 32 4096 1 1 (131072)
I0406 06:31:55.759851  1578 net.cpp:67] Creating Layer drop7
I0406 06:31:55.759860  1578 net.cpp:394] drop7 <- fc7
I0406 06:31:55.759871  1578 net.cpp:345] drop7 -> fc7 (in-place)
I0406 06:31:55.759886  1578 net.cpp:96] Setting up drop7
I0406 06:31:55.759894  1578 net.cpp:103] Top shape: 32 4096 1 1 (131072)
I0406 06:31:55.759908  1578 net.cpp:67] Creating Layer fc8_deepfashion
I0406 06:31:55.759917  1578 net.cpp:394] fc8_deepfashion <- fc7
I0406 06:31:55.759928  1578 net.cpp:356] fc8_deepfashion -> fc8_deepfashion
I0406 06:31:55.759941  1578 net.cpp:96] Setting up fc8_deepfashion
I0406 06:31:55.766433  1578 net.cpp:103] Top shape: 32 48 1 1 (1536)
I0406 06:31:55.766459  1578 net.cpp:67] Creating Layer fc8_deepfashion_encode
I0406 06:31:55.766469  1578 net.cpp:394] fc8_deepfashion_encode <- fc8_deepfashion
I0406 06:31:55.766479  1578 net.cpp:356] fc8_deepfashion_encode -> fc8_deepfashion_encode
I0406 06:31:55.766491  1578 net.cpp:96] Setting up fc8_deepfashion_encode
I0406 06:31:55.766511  1578 net.cpp:103] Top shape: 32 48 1 1 (1536)
I0406 06:31:55.766527  1578 net.cpp:67] Creating Layer fc8_deepfashion_encode_fc8_deepfashion_encode_0_split
I0406 06:31:55.766544  1578 net.cpp:394] fc8_deepfashion_encode_fc8_deepfashion_encode_0_split <- fc8_deepfashion_encode
I0406 06:31:55.766556  1578 net.cpp:356] fc8_deepfashion_encode_fc8_deepfashion_encode_0_split -> fc8_deepfashion_encode_fc8_deepfashion_encode_0_split_0
I0406 06:31:55.766569  1578 net.cpp:356] fc8_deepfashion_encode_fc8_deepfashion_encode_0_split -> fc8_deepfashion_encode_fc8_deepfashion_encode_0_split_1
I0406 06:31:55.766582  1578 net.cpp:96] Setting up fc8_deepfashion_encode_fc8_deepfashion_encode_0_split
I0406 06:31:55.766628  1578 net.cpp:103] Top shape: 32 48 1 1 (1536)
I0406 06:31:55.766636  1578 net.cpp:103] Top shape: 32 48 1 1 (1536)
I0406 06:31:55.766654  1578 net.cpp:67] Creating Layer fc8_pascal_label
I0406 06:31:55.766664  1578 net.cpp:394] fc8_pascal_label <- fc8_deepfashion_encode_fc8_deepfashion_encode_0_split_0
I0406 06:31:55.766676  1578 net.cpp:356] fc8_pascal_label -> fc8_pascal_label
I0406 06:31:55.766690  1578 net.cpp:96] Setting up fc8_pascal_label
I0406 06:31:55.766736  1578 net.cpp:103] Top shape: 32 10 1 1 (320)
I0406 06:31:55.766779  1578 net.cpp:67] Creating Layer fc8_pascal_color
I0406 06:31:55.766793  1578 net.cpp:394] fc8_pascal_color <- fc8_deepfashion_encode_fc8_deepfashion_encode_0_split_1
I0406 06:31:55.766808  1578 net.cpp:356] fc8_pascal_color -> fc8_pascal_color
I0406 06:31:55.766821  1578 net.cpp:96] Setting up fc8_pascal_color
I0406 06:31:55.766882  1578 net.cpp:103] Top shape: 32 16 1 1 (512)
I0406 06:31:55.766906  1578 net.cpp:67] Creating Layer loss
I0406 06:31:55.766914  1578 net.cpp:394] loss <- fc8_pascal_label
I0406 06:31:55.766923  1578 net.cpp:394] loss <- labels0
I0406 06:31:55.766938  1578 net.cpp:356] loss -> (automatic)
I0406 06:31:55.766949  1578 net.cpp:96] Setting up loss
I0406 06:31:55.766975  1578 net.cpp:103] Top shape: 1 1 1 1 (1)
I0406 06:31:55.766985  1578 net.cpp:109]     with loss weight 1
I0406 06:31:55.767052  1578 net.cpp:67] Creating Layer silence
I0406 06:31:55.767062  1578 net.cpp:394] silence <- labels1
I0406 06:31:55.767072  1578 net.cpp:394] silence <- random
I0406 06:31:55.767088  1578 net.cpp:394] silence <- fc8_pascal_color
I0406 06:31:55.767097  1578 net.cpp:96] Setting up silence
I0406 06:31:55.767104  1578 net.cpp:172] silence does not need backward computation.
…
layers {
  top: "data"
  top: "random"
  name: "data"
  type: DATA
  data_param {
    source: "/data/deepfashion/color_label_multilabel/color_label_multilabel_test"
    batch_size: 32
    backend: LMDB
  }
  include {
    phase: TEST
  }
  transform_param {
    mirror: true
    crop_size: 227
    mean_file: "../../../data/ilsvrc12/imagenet_mean.binaryproto"
  }
}
layers {
  top: "labels"
  name: "labels"
  type: DATA
  data_param {
    source: "/data/deepfashion/color_label_multilabel/color_label_multilabel_test_alt"
    batch_size: 32
    backend: LMDB
  }
  include {
    phase: TEST
  }
}
layers {
  bottom: "labels"
  top: "labels0"
  top: "labels1"
  name: "sliceL"
  type: SLICE
  slice_param {
    slice_point: 1
  }
}
layers {
  bottom: "data"
  top: "conv1"
  name: "conv1"
  type: CONVOLUTION
  blobs_lr: 1
  blobs_lr: 2
  weight_decay: 1
  weight_decay: 0
  convolution_param {
    num_output: 96
    kernel_size: 11
    stride: 4
    weight_filler {
      type: "gaussian"
      std: 0.01
    }
    bias_filler {
      type: "constant"
      value: 0
    }
  }
}
layers {
  bottom: "conv1"
  top: "conv1"
  name: "relu1"
  type: RELU
}
layers {
  bottom: "conv1"
  top: "pool1"
  name: "pool1"
  type: POOLING
  pooling_param {
    pool: MAX
    kernel_size: 3
    stride: 2
  }
}
layers {
  bottom: "pool1"
  top: "norm1"
  name: "norm1"
  type: LRN
  lrn_param {
    local_size: 5
    alpha: 0.0001
    beta: 0.75
  }
}
layers {
  bottom: "norm1"
  top: "conv2"
  name: "conv2"
  type: CONVOLUTION
  blobs_lr: 1
  blobs_lr: 2
  weight_decay: 1
  weight_decay: 0
  convolution_param {
    num_output: 256
    pad: 2
    kernel_size: 5
    group: 2
    weight_filler {
      type: "gaussian"
      std: 0.01
    }
    bias_filler {
      type: "constant"
      value: 1
    }
  }
}
layers {
  bottom: "conv2"
  top: "conv2"
  name: "relu2"
  type: RELU
}
layers {
  bottom: "conv2"
  top: "pool2"
  name: "pool2"
  type: POOLING
  pooling_param {
    pool: MAX
    kernel_size: 3
    stride: 2
  }
}
layers {
  bottom: "pool2"
  top: "norm2"
  name: "norm2"
  type: LRN
  lrn_param {
    local_size: 5
    alpha: 0.0001
    beta: 0.75
  }
}
layers {
  bottom: "norm2"
  top: "conv3"
  name: "conv3"
  type: CONVOLUTION
  blobs_lr: 1
  blobs_lr: 2
  weight_decay: 1
  weight_decay: 0
  convolution_param {
    num_output: 384
    pad: 1
    kernel_size: 3
    weight_filler {
      type: "gaussian"
      std: 0.01
    }
    bias_filler {
      type: "constant"
      value: 0
    }
  }
}
layers {
  bottom: "conv3"
  top: "conv3"
  name: "relu3"
  type: RELU
}
layers {
  bottom: "conv3"
  top: "conv4"
  name: "conv4"
  type: CONVOLUTION
  blobs_lr: 1
  blobs_lr: 2
  weight_decay: 1
  weight_decay: 0
  convolution_param {
    num_output: 384
    pad: 1
    kernel_size: 3
    group: 2
    weight_filler {
      type: "gaussian"
      std: 0.01
    }
    bias_filler {
      type: "constant"
      value: 1
    }
  }
}
layers {
  bottom: "conv4"
  top: "conv4"
  name: "relu4"
  type: RELU
}
layers {
  bottom: "conv4"
  top: "conv5"
  name: "conv5"
  type: CONVOLUTION
  blobs_lr: 1
  blobs_lr: 2
  weight_decay: 1
  weight_decay: 0
  convolution_param {
    num_output: 256
    pad: 1
    kernel_size: 3
    group: 2
    weight_filler {
      type: "gaussian"
      std: 0.01
    }
    bias_filler {
      type: "constant"
      value: 1
    }
  }
}
layers {
  bottom: "conv5"
  top: "conv5"
  name: "relu5"
  type: RELU
}
layers {
  bottom: "conv5"
  top: "pool5"
  name: "pool5"
  type: POOLING
  pooling_param {
    pool: MAX
    kernel_size: 3
    stride: 2
  }
}
layers {
  bottom: "pool5"
  top: "fc6"
  name: "fc6"
  type: INNER_PRODUCT
  blobs_lr: 1
  blobs_lr: 2
  weight_decay: 1
  weight_decay: 0
  inner_product_param {
    num_output: 4096
    weight_filler {
      type: "gaussian"
      std: 0.005
    }
    bias_filler {
      type: "constant"
      value: 1
    }
  }
}
layers {
  bottom: "fc6"
  top: "fc6"
  name: "relu6"
  type: RELU
}
layers {
  bottom: "fc6"
  top: "fc6"
  name: "drop6"
  type: DROPOUT
  dropout_param {
    dropout_ratio: 0.5
  }
}
layers {
  bottom: "fc6"
  top: "fc7"
  name: "fc7"
  type: INNER_PRODUCT
  blobs_lr: 1
  blobs_lr: 2
  weight_decay: 1
  weight_decay: 0
  inner_product_param {
    num_output: 4096
    weight_filler {
      type: "gaussian"
      std: 0.005
    }
    bias_filler {
      type: "constant"
      value: 1
    }
  }
}
layers {
  bottom: "fc7"
  top: "fc7"
  name: "relu7"
  type: RELU
}
layers {
  bottom: "fc7"
  top: "fc7"
  name: "drop7"
  type: DROPOUT
  dropout_param {
    dropout_ratio: 0.5
  }
}
layers {
  bottom: "fc7"
  top: "fc8_deepfashion"
  name: "fc8_deepfashion"
  type: INNER_PRODUCT
  blobs_lr: 10
  blobs_lr: 20
  weight_decay: 1
  weight_decay: 0
  inner_product_param {
    num_output: 48
    weight_filler {
      type: "gaussian"
      std: 0.01
    }
    bias_filler {
      type: "constant"
      value: 0
    }
  }
}
layers {
  bottom: "fc8_deepfashion"
  top: "fc8_deepfashion_encode"
  name: "fc8_deepfashion_encode"
  type: SIGMOID
}
layers {
  bottom: "fc8_deepfashion_encode"
  top: "fc8_pascal_label"
  name: "fc8_pascal_label"
  type: INNER_PRODUCT
  blobs_lr: 10
  blobs_lr: 20
  weight_decay: 1
  weight_decay: 0
  inner_product_param {
    num_output: 10
    weight_filler {
      type: "gaussian"
      std: 0.01
    }
    bias_filler {
      type: "constant"
      value: 0
    }
  }
}
layers {
  bottom: "fc8_deepfashion_encode"
  top: "fc8_pascal_color"
  name: "fc8_pascal_color"
  type: INNER_PRODUCT
  blobs_lr: 0
  blobs_lr: 0
  weight_decay: 1
  weight_decay: 0
  inner_product_param {
    num_output: 16
    weight_filler {
      type: "gaussian"
      std: 0.01
    }
    bias_filler {
      type: "constant"
      value: 0
    }
  }
}
layers {
  bottom: "fc8_pascal_label"
  bottom: "labels0"
  name: "loss"
  type: SOFTMAX_LOSS
}
layers {
  bottom: "fc8_pascal_label"
  bottom: "labels0"
  top: "accuracy"
  name: "accuracy"
  type: ACCURACY
  include {
    phase: TEST
  }
}
layers {
  bottom: "labels1"
  bottom: "random"
  bottom: "fc8_pascal_color"
  name: "silence"
  type: SILENCE
}
state {
  phase: TEST
}
I0406 06:31:55.768743  1578 net.cpp:67] Creating Layer data
I0406 06:31:55.768756  1578 net.cpp:356] data -> data
I0406 06:31:55.768771  1578 net.cpp:356] data -> random
I0406 06:31:55.768784  1578 net.cpp:96] Setting up data
I0406 06:31:55.771147  1578 data_layer.cpp:68] Opening lmdb /data/deepfashion/color_label_multilabel/color_label_multilabel_test
I0406 06:31:55.777874  1578 data_layer.cpp:128] output data size: 32,3,227,227
I0406 06:31:55.777894  1578 base_data_layer.cpp:36] Loading mean file from../../../data/ilsvrc12/imagenet_mean.binaryproto
I0406 06:31:55.786034  1578 net.cpp:103] Top shape: 32 3 227 227 (4946784)
I0406 06:31:55.786068  1578 net.cpp:103] Top shape: 32 1 1 1 (32)
I0406 06:31:55.786087  1578 net.cpp:67] Creating Layer labels
I0406 06:31:55.786095  1578 net.cpp:356] labels -> labels
I0406 06:31:55.786109  1578 net.cpp:96] Setting up labels
I0406 06:31:55.789001  1578 data_layer.cpp:68] Opening lmdb /data/deepfashion/color_label_multilabel/color_label_multilabel_test_alt
I0406 06:31:55.791340  1578 data_layer.cpp:128] output data size: 32,2,1,1
I0406 06:31:55.791828  1578 net.cpp:103] Top shape: 32 2 1 1 (64)
I0406 06:31:55.791857  1578 net.cpp:67] Creating Layer sliceL
I0406 06:31:55.791862  1578 net.cpp:394] sliceL <- labels
I0406 06:31:55.791903  1578 net.cpp:356] sliceL -> labels0
I0406 06:31:55.791918  1578 net.cpp:356] sliceL -> labels1
I0406 06:31:55.791931  1578 net.cpp:96] Setting up sliceL
I0406 06:31:55.791939  1578 net.cpp:103] Top shape: 32 1 1 1 (32)
I0406 06:31:55.791944  1578 net.cpp:103] Top shape: 32 1 1 1 (32)
I0406 06:31:55.791950  1578 net.cpp:67] Creating Layer labels0_sliceL_0_split
I0406 06:31:55.791954  1578 net.cpp:394] labels0_sliceL_0_split <- labels0
I0406 06:31:55.791960  1578 net.cpp:356] labels0_sliceL_0_split -> labels0_sliceL_0_split_0
I0406 06:31:55.791980  1578 net.cpp:356] labels0_sliceL_0_split -> labels0_sliceL_0_split_1
I0406 06:31:55.791987  1578 net.cpp:96] Setting up labels0_sliceL_0_split
I0406 06:31:55.791992  1578 net.cpp:103] Top shape: 32 1 1 1 (32)
I0406 06:31:55.791996  1578 net.cpp:103] Top shape: 32 1 1 1 (32)
I0406 06:31:55.792007  1578 net.cpp:67] Creating Layer conv1
I0406 06:31:55.792011  1578 net.cpp:394] conv1 <- data
I0406 06:31:55.792019  1578 net.cpp:356] conv1 -> conv1
I0406 06:31:55.792026  1578 net.cpp:96] Setting up conv1
I0406 06:31:55.793297  1578 net.cpp:103] Top shape: 32 96 55 55 (9292800)
I0406 06:31:55.793325  1578 net.cpp:67] Creating Layer relu1
I0406 06:31:55.793330  1578 net.cpp:394] relu1 <- conv1
I0406 06:31:55.793337  1578 net.cpp:345] relu1 -> conv1 (in-place)
I0406 06:31:55.793344  1578 net.cpp:96] Setting up relu1
I0406 06:31:55.793351  1578 net.cpp:103] Top shape: 32 96 55 55 (9292800)
I0406 06:31:55.793359  1578 net.cpp:67] Creating Layer pool1
I0406 06:31:55.793370  1578 net.cpp:394] pool1 <- conv1
I0406 06:31:55.793376  1578 net.cpp:356] pool1 -> pool1
I0406 06:31:55.793385  1578 net.cpp:96] Setting up pool1
I0406 06:31:55.793393  1578 net.cpp:103] Top shape: 32 96 27 27 (2239488)
I0406 06:31:55.793402  1578 net.cpp:67] Creating Layer norm1
I0406 06:31:55.793406  1578 net.cpp:394] norm1 <- pool1
I0406 06:31:55.793412  1578 net.cpp:356] norm1 -> norm1
I0406 06:31:55.793418  1578 net.cpp:96] Setting up norm1
I0406 06:31:55.793424  1578 net.cpp:103] Top shape: 32 96 27 27 (2239488)
I0406 06:31:55.793433  1578 net.cpp:67] Creating Layer conv2
I0406 06:31:55.793437  1578 net.cpp:394] conv2 <- norm1
I0406 06:31:55.793444  1578 net.cpp:356] conv2 -> conv2
I0406 06:31:55.793450  1578 net.cpp:96] Setting up conv2
I0406 06:31:55.803757  1578 net.cpp:103] Top shape: 32 256 27 27 (5971968)
I0406 06:31:55.803791  1578 net.cpp:67] Creating Layer relu2
I0406 06:31:55.803797  1578 net.cpp:394] relu2 <- conv2
I0406 06:31:55.803804  1578 net.cpp:345] relu2 -> conv2 (in-place)
I0406 06:31:55.803812  1578 net.cpp:96] Setting up relu2
I0406 06:31:55.803817  1578 net.cpp:103] Top shape: 32 256 27 27 (5971968)
I0406 06:31:55.803828  1578 net.cpp:67] Creating Layer pool2
I0406 06:31:55.803831  1578 net.cpp:394] pool2 <- conv2
I0406 06:31:55.803838  1578 net.cpp:356] pool2 -> pool2
I0406 06:31:55.803843  1578 net.cpp:96] Setting up pool2
I0406 06:31:55.803850  1578 net.cpp:103] Top shape: 32 256 13 13 (1384448)
I0406 06:31:55.803859  1578 net.cpp:67] Creating Layer norm2
I0406 06:31:55.803864  1578 net.cpp:394] norm2 <- pool2
I0406 06:31:55.803869  1578 net.cpp:356] norm2 -> norm2
I0406 06:31:55.803874  1578 net.cpp:96] Setting up norm2
I0406 06:31:55.803879  1578 net.cpp:103] Top shape: 32 256 13 13 (1384448)
I0406 06:31:55.803887  1578 net.cpp:67] Creating Layer conv3
I0406 06:31:55.803891  1578 net.cpp:394] conv3 <- norm2
I0406 06:31:55.803896  1578 net.cpp:356] conv3 -> conv3
I0406 06:31:55.803902  1578 net.cpp:96] Setting up conv3
I0406 06:31:55.833370  1578 net.cpp:103] Top shape: 32 384 13 13 (2076672)
I0406 06:31:55.833420  1578 net.cpp:67] Creating Layer relu3
I0406 06:31:55.833428  1578 net.cpp:394] relu3 <- conv3
I0406 06:31:55.833436  1578 net.cpp:345] relu3 -> conv3 (in-place)
I0406 06:31:55.833444  1578 net.cpp:96] Setting up relu3
I0406 06:31:55.833452  1578 net.cpp:103] Top shape: 32 384 13 13 (2076672)
I0406 06:31:55.833464  1578 net.cpp:67] Creating Layer conv4
I0406 06:31:55.833468  1578 net.cpp:394] conv4 <- conv3
I0406 06:31:55.833474  1578 net.cpp:356] conv4 -> conv4
I0406 06:31:55.833509  1578 net.cpp:96] Setting up conv4
I0406 06:31:55.855610  1578 net.cpp:103] Top shape: 32 384 13 13 (2076672)
I0406 06:31:55.855648  1578 net.cpp:67] Creating Layer relu4
I0406 06:31:55.855656  1578 net.cpp:394] relu4 <- conv4
I0406 06:31:55.855664  1578 net.cpp:345] relu4 -> conv4 (in-place)
I0406 06:31:55.855671  1578 net.cpp:96] Setting up relu4
I0406 06:31:55.855679  1578 net.cpp:103] Top shape: 32 384 13 13 (2076672)
I0406 06:31:55.855693  1578 net.cpp:67] Creating Layer conv5
I0406 06:31:55.855698  1578 net.cpp:394] conv5 <- conv4
I0406 06:31:55.855706  1578 net.cpp:356] conv5 -> conv5
I0406 06:31:55.855715  1578 net.cpp:96] Setting up conv5
I0406 06:31:55.870676  1578 net.cpp:103] Top shape: 32 256 13 13 (1384448)
I0406 06:31:55.870710  1578 net.cpp:67] Creating Layer relu5
I0406 06:31:55.870717  1578 net.cpp:394] relu5 <- conv5
I0406 06:31:55.870723  1578 net.cpp:345] relu5 -> conv5 (in-place)
I0406 06:31:55.870728  1578 net.cpp:96] Setting up relu5
I0406 06:31:55.870735  1578 net.cpp:103] Top shape: 32 256 13 13 (1384448)
I0406 06:31:55.870743  1578 net.cpp:67] Creating Layer pool5
I0406 06:31:55.870748  1578 net.cpp:394] pool5 <- conv5
I0406 06:31:55.870762  1578 net.cpp:356] pool5 -> pool5
I0406 06:31:55.870771  1578 net.cpp:96] Setting up pool5
I0406 06:31:55.870780  1578 net.cpp:103] Top shape: 32 256 6 6 (294912)
I0406 06:31:55.870789  1578 net.cpp:67] Creating Layer fc6
I0406 06:31:55.870793  1578 net.cpp:394] fc6 <- pool5
I0406 06:31:55.870798  1578 net.cpp:356] fc6 -> fc6
I0406 06:31:55.870805  1578 net.cpp:96] Setting up fc6
I0406 06:31:57.097599  1578 net.cpp:103] Top shape: 32 4096 1 1 (131072)
I0406 06:31:57.097658  1578 net.cpp:67] Creating Layer relu6
I0406 06:31:57.097667  1578 net.cpp:394] relu6 <- fc6
I0406 06:31:57.097676  1578 net.cpp:345] relu6 -> fc6 (in-place)
I0406 06:31:57.097687  1578 net.cpp:96] Setting up relu6
I0406 06:31:57.097709  1578 net.cpp:103] Top shape: 32 4096 1 1 (131072)
I0406 06:31:57.097721  1578 net.cpp:67] Creating Layer drop6
I0406 06:31:57.097726  1578 net.cpp:394] drop6 <- fc6
I0406 06:31:57.097733  1578 net.cpp:345] drop6 -> fc6 (in-place)
I0406 06:31:57.097738  1578 net.cpp:96] Setting up drop6
I0406 06:31:57.097743  1578 net.cpp:103] Top shape: 32 4096 1 1 (131072)
I0406 06:31:57.097750  1578 net.cpp:67] Creating Layer fc7
I0406 06:31:57.097754  1578 net.cpp:394] fc7 <- fc6
I0406 06:31:57.097762  1578 net.cpp:356] fc7 -> fc7
I0406 06:31:57.097770  1578 net.cpp:96] Setting up fc7
I0406 06:31:57.642910  1578 net.cpp:103] Top shape: 32 4096 1 1 (131072)
I0406 06:31:57.642961  1578 net.cpp:67] Creating Layer relu7
I0406 06:31:57.642969  1578 net.cpp:394] relu7 <- fc7
I0406 06:31:57.642979  1578 net.cpp:345] relu7 -> fc7 (in-place)
I0406 06:31:57.642988  1578 net.cpp:96] Setting up relu7
I0406 06:31:57.643010  1578 net.cpp:103] Top shape: 32 4096 1 1 (131072)
I0406 06:31:57.643018  1578 net.cpp:67] Creating Layer drop7
I0406 06:31:57.643021  1578 net.cpp:394] drop7 <- fc7
I0406 06:31:57.643026  1578 net.cpp:345] drop7 -> fc7 (in-place)
I0406 06:31:57.643033  1578 net.cpp:96] Setting up drop7
I0406 06:31:57.643038  1578 net.cpp:103] Top shape: 32 4096 1 1 (131072)
I0406 06:31:57.643046  1578 net.cpp:67] Creating Layer fc8_deepfashion
I0406 06:31:57.643050  1578 net.cpp:394] fc8_deepfashion <- fc7
I0406 06:31:57.643056  1578 net.cpp:356] fc8_deepfashion -> fc8_deepfashion
I0406 06:31:57.643064  1578 net.cpp:96] Setting up fc8_deepfashion
I0406 06:31:57.649549  1578 net.cpp:103] Top shape: 32 48 1 1 (1536)
I0406 06:31:57.649569  1578 net.cpp:67] Creating Layer fc8_deepfashion_encode
I0406 06:31:57.649574  1578 net.cpp:394] fc8_deepfashion_encode <- fc8_deepfashion
I0406 06:31:57.649580  1578 net.cpp:356] fc8_deepfashion_encode -> fc8_deepfashion_encode
I0406 06:31:57.649587  1578 net.cpp:96] Setting up fc8_deepfashion_encode
I0406 06:31:57.649605  1578 net.cpp:103] Top shape: 32 48 1 1 (1536)
I0406 06:31:57.649613  1578 net.cpp:67] Creating Layer fc8_deepfashion_encode_fc8_deepfashion_encode_0_split
I0406 06:31:57.649618  1578 net.cpp:394] fc8_deepfashion_encode_fc8_deepfashion_encode_0_split <- fc8_deepfashion_encode
I0406 06:31:57.649647  1578 net.cpp:356] fc8_deepfashion_encode_fc8_deepfashion_encode_0_split -> fc8_deepfashion_encode_fc8_deepfashion_encode_0_split_0
I0406 06:31:57.649654  1578 net.cpp:356] fc8_deepfashion_encode_fc8_deepfashion_encode_0_split -> fc8_deepfashion_encode_fc8_deepfashion_encode_0_split_1
I0406 06:31:57.649662  1578 net.cpp:96] Setting up fc8_deepfashion_encode_fc8_deepfashion_encode_0_split
I0406 06:31:57.649667  1578 net.cpp:103] Top shape: 32 48 1 1 (1536)
I0406 06:31:57.649670  1578 net.cpp:103] Top shape: 32 48 1 1 (1536)
I0406 06:31:57.649682  1578 net.cpp:67] Creating Layer fc8_pascal_label
I0406 06:31:57.649685  1578 net.cpp:394] fc8_pascal_label <- fc8_deepfashion_encode_fc8_deepfashion_encode_0_split_0
I0406 06:31:57.649691  1578 net.cpp:356] fc8_pascal_label -> fc8_pascal_label
I0406 06:31:57.649698  1578 net.cpp:96] Setting up fc8_pascal_label
I0406 06:31:57.649730  1578 net.cpp:103] Top shape: 32 10 1 1 (320)
I0406 06:31:57.649745  1578 net.cpp:67] Creating Layer fc8_pascal_label_fc8_pascal_label_0_split
I0406 06:31:57.649749  1578 net.cpp:394] fc8_pascal_label_fc8_pascal_label_0_split <- fc8_pascal_label
I0406 06:31:57.649755  1578 net.cpp:356] fc8_pascal_label_fc8_pascal_label_0_split -> fc8_pascal_label_fc8_pascal_label_0_split_0
I0406 06:31:57.649767  1578 net.cpp:356] fc8_pascal_label_fc8_pascal_label_0_split -> fc8_pascal_label_fc8_pascal_label_0_split_1
I0406 06:31:57.649773  1578 net.cpp:96] Setting up fc8_pascal_label_fc8_pascal_label_0_split
I0406 06:31:57.649778  1578 net.cpp:103] Top shape: 32 10 1 1 (320)
I0406 06:31:57.649782  1578 net.cpp:103] Top shape: 32 10 1 1 (320)
I0406 06:31:57.649791  1578 net.cpp:67] Creating Layer fc8_pascal_color
I0406 06:31:57.649796  1578 net.cpp:394] fc8_pascal_color <- fc8_deepfashion_encode_fc8_deepfashion_encode_0_split_1
I0406 06:31:57.649809  1578 net.cpp:356] fc8_pascal_color -> fc8_pascal_color
I0406 06:31:57.649817  1578 net.cpp:96] Setting up fc8_pascal_color
I0406 06:31:57.649857  1578 net.cpp:103] Top shape: 32 16 1 1 (512)
I0406 06:31:57.649879  1578 net.cpp:67] Creating Layer loss
I0406 06:31:57.649884  1578 net.cpp:394] loss <- fc8_pascal_label_fc8_pascal_label_0_split_0
I0406 06:31:57.649889  1578 net.cpp:394] loss <- labels0_sliceL_0_split_0
I0406 06:31:57.649899  1578 net.cpp:356] loss -> (automatic)
I0406 06:31:57.649904  1578 net.cpp:96] Setting up loss
I0406 06:31:57.649910  1578 net.cpp:103] Top shape: 1 1 1 1 (1)
I0406 06:31:57.649914  1578 net.cpp:109]     with loss weight 1
I0406 06:31:57.649951  1578 net.cpp:67] Creating Layer accuracy
I0406 06:31:57.649960  1578 net.cpp:394] accuracy <- fc8_pascal_label_fc8_pascal_label_0_split_1
I0406 06:31:57.649966  1578 net.cpp:394] accuracy <- labels0_sliceL_0_split_1
I0406 06:31:57.649971  1578 net.cpp:356] accuracy -> accuracy
I0406 06:31:57.649983  1578 net.cpp:96] Setting up accuracy
I0406 06:31:57.649998  1578 net.cpp:103] Top shape: 1 1 1 1 (1)
I0406 06:31:57.650004  1578 net.cpp:67] Creating Layer silence
I0406 06:31:57.650008  1578 net.cpp:394] silence <- labels1
I0406 06:31:57.650013  1578 net.cpp:394] silence <- random
I0406 06:31:57.650017  1578 net.cpp:394] silence <- fc8_pascal_color
I0406 06:31:57.650022  1578 net.cpp:96] Setting up silence
I0406 06:31:57.650025  1578 net.cpp:172] silence does not need backward computation.
…
