…
I0330 18:56:59.357332 14954 net.cpp:39] Initializing net from parameters: 
name: "deepFashion"
layers {
  top: "data"
  top: "randomshit"
  name: "data"
  type: DATA
  data_param {
    source: "/data/deepfashion/color_label_multilabel/color_label_multilabel_TRAIN"
    batch_size: 32
  }
  include {
    phase: TRAIN
  }
  transform_param {
    mirror: true
    crop_size: 227
    mean_file: "../../../data/ilsvrc12/imagenet_mean.binaryproto"
  }
}
layers {
  top: "labels"
  name: "labels"
  type: DATA
  data_param {
    source: "/data/deepfashion/color_label_multilabel/color_label_multilabel_TRAIN_ALT"
    batch_size: 32
  }
  include {
    phase: TRAIN
  }
}
layers {
  bottom: "labels"
  top: "labels0"
  top: "labels1"
  name: "sliceL"
  type: SLICE
  slice_param {
    slice_point: 1
  }
}
layers {
  bottom: "data"
  top: "conv1"
  name: "conv1"
  type: CONVOLUTION
  blobs_lr: 1
  blobs_lr: 2
  weight_decay: 1
  weight_decay: 0
  convolution_param {
    num_output: 96
    kernel_size: 11
    stride: 4
    weight_filler {
      type: "gaussian"
      std: 0.01
    }
    bias_filler {
      type: "constant"
      value: 0
    }
  }
}
layers {
  bottom: "conv1"
  top: "conv1"
  name: "relu1"
  type: RELU
}
layers {
  bottom: "conv1"
  top: "pool1"
  name: "pool1"
  type: POOLING
  pooling_param {
    pool: MAX
    kernel_size: 3
    stride: 2
  }
}
layers {
  bottom: "pool1"
  top: "norm1"
  name: "norm1"
  type: LRN
  lrn_param {
    local_size: 5
    alpha: 0.0001
    beta: 0.75
  }
}
layers {
  bottom: "norm1"
  top: "conv2"
  name: "conv2"
  type: CONVOLUTION
  blobs_lr: 1
  blobs_lr: 2
  weight_decay: 1
  weight_decay: 0
  convolution_param {
    num_output: 256
    pad: 2
    kernel_size: 5
    group: 2
    weight_filler {
      type: "gaussian"
      std: 0.01
    }
    bias_filler {
      type: "constant"
      value: 1
    }
  }
}
layers {
  bottom: "conv2"
  top: "conv2"
  name: "relu2"
  type: RELU
}
layers {
  bottom: "conv2"
  top: "pool2"
  name: "pool2"
  type: POOLING
  pooling_param {
    pool: MAX
    kernel_size: 3
    stride: 2
  }
}
layers {
  bottom: "pool2"
  top: "norm2"
  name: "norm2"
  type: LRN
  lrn_param {
    local_size: 5
    alpha: 0.0001
    beta: 0.75
  }
}
layers {
  bottom: "norm2"
  top: "conv3"
  name: "conv3"
  type: CONVOLUTION
  blobs_lr: 1
  blobs_lr: 2
  weight_decay: 1
  weight_decay: 0
  convolution_param {
    num_output: 384
    pad: 1
    kernel_size: 3
    weight_filler {
      type: "gaussian"
      std: 0.01
    }
    bias_filler {
      type: "constant"
      value: 0
    }
  }
}
layers {
  bottom: "conv3"
  top: "conv3"
  name: "relu3"
  type: RELU
}
layers {
  bottom: "conv3"
  top: "conv4"
  name: "conv4"
  type: CONVOLUTION
  blobs_lr: 1
  blobs_lr: 2
  weight_decay: 1
  weight_decay: 0
  convolution_param {
    num_output: 384
    pad: 1
    kernel_size: 3
    group: 2
    weight_filler {
      type: "gaussian"
      std: 0.01
    }
    bias_filler {
      type: "constant"
      value: 1
    }
  }
}
layers {
  bottom: "conv4"
  top: "conv4"
  name: "relu4"
  type: RELU
}
layers {
  bottom: "conv4"
  top: "conv5"
  name: "conv5"
  type: CONVOLUTION
  blobs_lr: 1
  blobs_lr: 2
  weight_decay: 1
  weight_decay: 0
  convolution_param {
    num_output: 256
    pad: 1
    kernel_size: 3
    group: 2
    weight_filler {
      type: "gaussian"
      std: 0.01
    }
    bias_filler {
      type: "constant"
      value: 1
    }
  }
}
layers {
  bottom: "conv5"
  top: "conv5"
  name: "relu5"
  type: RELU
}
layers {
  bottom: "conv5"
  top: "pool5"
  name: "pool5"
  type: POOLING
  pooling_param {
    pool: MAX
    kernel_size: 3
    stride: 2
  }
}
layers {
  bottom: "pool5"
  top: "fc6"
  name: "fc6"
  type: INNER_PRODUCT
  blobs_lr: 1
  blobs_lr: 2
  weight_decay: 1
  weight_decay: 0
  inner_product_param {
    num_output: 4096
    weight_filler {
      type: "gaussian"
      std: 0.005
    }
    bias_filler {
      type: "constant"
      value: 1
    }
  }
}
layers {
  bottom: "fc6"
  top: "fc6"
  name: "relu6"
  type: RELU
}
layers {
  bottom: "fc6"
  top: "fc6"
  name: "drop6"
  type: DROPOUT
  dropout_param {
    dropout_ratio: 0.5
  }
}
layers {
  bottom: "fc6"
  top: "fc7"
  name: "fc7"
  type: INNER_PRODUCT
  blobs_lr: 1
  blobs_lr: 2
  weight_decay: 1
  weight_decay: 0
  inner_product_param {
    num_output: 4096
    weight_filler {
      type: "gaussian"
      std: 0.005
    }
    bias_filler {
      type: "constant"
      value: 1
    }
  }
}
layers {
  bottom: "fc7"
  top: "fc7"
  name: "relu7"
  type: RELU
}
layers {
  bottom: "fc7"
  top: "fc7"
  name: "drop7"
  type: DROPOUT
  dropout_param {
    dropout_ratio: 0.5
  }
}
layers {
  bottom: "fc7"
  top: "fc8_deepfashion"
  name: "fc8_deepfashion"
  type: INNER_PRODUCT
  blobs_lr: 10
  blobs_lr: 20
  weight_decay: 1
  weight_decay: 0
  inner_product_param {
    num_output: 48
    weight_filler {
      type: "gaussian"
      std: 0.01
    }
    bias_filler {
      type: "constant"
      value: 0
    }
  }
}
layers {
  bottom: "fc8_deepfashion"
  top: "fc8_deepfashion_encode"
  name: "fc8_deepfashion_encode"
  type: SIGMOID
}
layers {
  bottom: "fc8_deepfashion_encode"
  top: "fc8_pascal"
  name: "fc8_pascal"
  type: INNER_PRODUCT
  blobs_lr: 10
  blobs_lr: 20
  weight_decay: 1
  weight_decay: 0
  inner_product_param {
    num_output: 10
    weight_filler {
      type: "gaussian"
      std: 0.01
    }
    bias_filler {
      type: "constant"
      value: 0
    }
  }
}
layers {
  bottom: "fc8_pascal"
  bottom: "labels0"
  name: "loss1"
  type: SOFTMAX_LOSS
}
layers {
  bottom: "fc8_pascal"
  bottom: "labels1"
  name: "loss2"
  type: SOFTMAX_LOSS
}
state {
  phase: TRAIN
}
I0330 18:56:59.357498 14954 net.cpp:67] Creating Layer data
I0330 18:56:59.357511 14954 net.cpp:356] data -> data
I0330 18:56:59.357530 14954 net.cpp:356] data -> randomshit
I0330 18:56:59.357566 14954 net.cpp:96] Setting up data
I0330 18:56:59.357594 14954 data_layer.cpp:45] Opening leveldb /data/deepfashion/color_label_multilabel/color_label_multilabel_TRAIN
I0330 18:56:59.369485 14954 data_layer.cpp:128] output data size: 32,3,227,227
I0330 18:56:59.369508 14954 base_data_layer.cpp:36] Loading mean file from../../../data/ilsvrc12/imagenet_mean.binaryproto
I0330 18:56:59.376286 14954 net.cpp:103] Top shape: 32 3 227 227 (4946784)
I0330 18:56:59.376317 14954 net.cpp:103] Top shape: 32 1 1 1 (32)
I0330 18:56:59.376335 14954 net.cpp:67] Creating Layer labels
I0330 18:56:59.376343 14954 net.cpp:356] labels -> labels
I0330 18:56:59.376356 14954 net.cpp:96] Setting up labels
I0330 18:56:59.376363 14954 data_layer.cpp:45] Opening leveldb /data/deepfashion/color_label_multilabel/color_label_multilabel_TRAIN_ALT
I0330 18:56:59.386243 14954 data_layer.cpp:128] output data size: 32,2,1,1
I0330 18:56:59.386664 14954 net.cpp:103] Top shape: 32 2 1 1 (64)
I0330 18:56:59.386718 14954 net.cpp:67] Creating Layer sliceL
I0330 18:56:59.386785 14954 net.cpp:394] sliceL <- labels
I0330 18:56:59.386814 14954 net.cpp:356] sliceL -> labels0
I0330 18:56:59.386826 14954 net.cpp:356] sliceL -> labels1
I0330 18:56:59.386842 14954 net.cpp:96] Setting up sliceL
I0330 18:56:59.386853 14954 net.cpp:103] Top shape: 32 1 1 1 (32)
I0330 18:56:59.386880 14954 net.cpp:103] Top shape: 32 1 1 1 (32)
I0330 18:56:59.386891 14954 net.cpp:67] Creating Layer conv1
I0330 18:56:59.386896 14954 net.cpp:394] conv1 <- data
I0330 18:56:59.386904 14954 net.cpp:356] conv1 -> conv1
I0330 18:56:59.386912 14954 net.cpp:96] Setting up conv1
I0330 18:56:59.409063 14954 net.cpp:103] Top shape: 32 96 55 55 (9292800)
I0330 18:56:59.409121 14954 net.cpp:67] Creating Layer relu1
I0330 18:56:59.409129 14954 net.cpp:394] relu1 <- conv1
I0330 18:56:59.409138 14954 net.cpp:345] relu1 -> conv1 (in-place)
I0330 18:56:59.409147 14954 net.cpp:96] Setting up relu1
I0330 18:56:59.409159 14954 net.cpp:103] Top shape: 32 96 55 55 (9292800)
I0330 18:56:59.409169 14954 net.cpp:67] Creating Layer pool1
I0330 18:56:59.409173 14954 net.cpp:394] pool1 <- conv1
I0330 18:56:59.409179 14954 net.cpp:356] pool1 -> pool1
I0330 18:56:59.409188 14954 net.cpp:96] Setting up pool1
I0330 18:56:59.409211 14954 net.cpp:103] Top shape: 32 96 27 27 (2239488)
I0330 18:56:59.409229 14954 net.cpp:67] Creating Layer norm1
I0330 18:56:59.409234 14954 net.cpp:394] norm1 <- pool1
I0330 18:56:59.409240 14954 net.cpp:356] norm1 -> norm1
I0330 18:56:59.409247 14954 net.cpp:96] Setting up norm1
I0330 18:56:59.409255 14954 net.cpp:103] Top shape: 32 96 27 27 (2239488)
I0330 18:56:59.409265 14954 net.cpp:67] Creating Layer conv2
I0330 18:56:59.409271 14954 net.cpp:394] conv2 <- norm1
I0330 18:56:59.409278 14954 net.cpp:356] conv2 -> conv2
I0330 18:56:59.409286 14954 net.cpp:96] Setting up conv2
I0330 18:56:59.419559 14954 net.cpp:103] Top shape: 32 256 27 27 (5971968)
I0330 18:56:59.419587 14954 net.cpp:67] Creating Layer relu2
I0330 18:56:59.419594 14954 net.cpp:394] relu2 <- conv2
I0330 18:56:59.419598 14954 net.cpp:345] relu2 -> conv2 (in-place)
I0330 18:56:59.419605 14954 net.cpp:96] Setting up relu2
I0330 18:56:59.419612 14954 net.cpp:103] Top shape: 32 256 27 27 (5971968)
I0330 18:56:59.419618 14954 net.cpp:67] Creating Layer pool2
I0330 18:56:59.419622 14954 net.cpp:394] pool2 <- conv2
I0330 18:56:59.419630 14954 net.cpp:356] pool2 -> pool2
I0330 18:56:59.419636 14954 net.cpp:96] Setting up pool2
I0330 18:56:59.419643 14954 net.cpp:103] Top shape: 32 256 13 13 (1384448)
I0330 18:56:59.419649 14954 net.cpp:67] Creating Layer norm2
I0330 18:56:59.419653 14954 net.cpp:394] norm2 <- pool2
I0330 18:56:59.419658 14954 net.cpp:356] norm2 -> norm2
I0330 18:56:59.419663 14954 net.cpp:96] Setting up norm2
I0330 18:56:59.419668 14954 net.cpp:103] Top shape: 32 256 13 13 (1384448)
I0330 18:56:59.419675 14954 net.cpp:67] Creating Layer conv3
I0330 18:56:59.419679 14954 net.cpp:394] conv3 <- norm2
I0330 18:56:59.419687 14954 net.cpp:356] conv3 -> conv3
I0330 18:56:59.419692 14954 net.cpp:96] Setting up conv3
I0330 18:56:59.448624 14954 net.cpp:103] Top shape: 32 384 13 13 (2076672)
I0330 18:56:59.448652 14954 net.cpp:67] Creating Layer relu3
I0330 18:56:59.448658 14954 net.cpp:394] relu3 <- conv3
I0330 18:56:59.448664 14954 net.cpp:345] relu3 -> conv3 (in-place)
I0330 18:56:59.448670 14954 net.cpp:96] Setting up relu3
I0330 18:56:59.448678 14954 net.cpp:103] Top shape: 32 384 13 13 (2076672)
I0330 18:56:59.448684 14954 net.cpp:67] Creating Layer conv4
I0330 18:56:59.448688 14954 net.cpp:394] conv4 <- conv3
I0330 18:56:59.448698 14954 net.cpp:356] conv4 -> conv4
I0330 18:56:59.448705 14954 net.cpp:96] Setting up conv4
I0330 18:56:59.470770 14954 net.cpp:103] Top shape: 32 384 13 13 (2076672)
I0330 18:56:59.470796 14954 net.cpp:67] Creating Layer relu4
I0330 18:56:59.470803 14954 net.cpp:394] relu4 <- conv4
I0330 18:56:59.470808 14954 net.cpp:345] relu4 -> conv4 (in-place)
I0330 18:56:59.470815 14954 net.cpp:96] Setting up relu4
I0330 18:56:59.470821 14954 net.cpp:103] Top shape: 32 384 13 13 (2076672)
I0330 18:56:59.470831 14954 net.cpp:67] Creating Layer conv5
I0330 18:56:59.470847 14954 net.cpp:394] conv5 <- conv4
I0330 18:56:59.470854 14954 net.cpp:356] conv5 -> conv5
I0330 18:56:59.470860 14954 net.cpp:96] Setting up conv5
I0330 18:56:59.485571 14954 net.cpp:103] Top shape: 32 256 13 13 (1384448)
I0330 18:56:59.485616 14954 net.cpp:67] Creating Layer relu5
I0330 18:56:59.485622 14954 net.cpp:394] relu5 <- conv5
I0330 18:56:59.485628 14954 net.cpp:345] relu5 -> conv5 (in-place)
I0330 18:56:59.485635 14954 net.cpp:96] Setting up relu5
I0330 18:56:59.485641 14954 net.cpp:103] Top shape: 32 256 13 13 (1384448)
I0330 18:56:59.485649 14954 net.cpp:67] Creating Layer pool5
I0330 18:56:59.485653 14954 net.cpp:394] pool5 <- conv5
I0330 18:56:59.485658 14954 net.cpp:356] pool5 -> pool5
I0330 18:56:59.485666 14954 net.cpp:96] Setting up pool5
I0330 18:56:59.485672 14954 net.cpp:103] Top shape: 32 256 6 6 (294912)
I0330 18:56:59.485680 14954 net.cpp:67] Creating Layer fc6
I0330 18:56:59.485684 14954 net.cpp:394] fc6 <- pool5
I0330 18:56:59.485694 14954 net.cpp:356] fc6 -> fc6
I0330 18:56:59.485704 14954 net.cpp:96] Setting up fc6
I0330 18:57:00.704084 14954 net.cpp:103] Top shape: 32 4096 1 1 (131072)
I0330 18:57:00.704143 14954 net.cpp:67] Creating Layer relu6
I0330 18:57:00.704150 14954 net.cpp:394] relu6 <- fc6
I0330 18:57:00.704159 14954 net.cpp:345] relu6 -> fc6 (in-place)
I0330 18:57:00.704169 14954 net.cpp:96] Setting up relu6
I0330 18:57:00.704193 14954 net.cpp:103] Top shape: 32 4096 1 1 (131072)
I0330 18:57:00.704201 14954 net.cpp:67] Creating Layer drop6
I0330 18:57:00.704205 14954 net.cpp:394] drop6 <- fc6
I0330 18:57:00.704210 14954 net.cpp:345] drop6 -> fc6 (in-place)
I0330 18:57:00.704216 14954 net.cpp:96] Setting up drop6
I0330 18:57:00.704227 14954 net.cpp:103] Top shape: 32 4096 1 1 (131072)
I0330 18:57:00.704243 14954 net.cpp:67] Creating Layer fc7
I0330 18:57:00.704248 14954 net.cpp:394] fc7 <- fc6
I0330 18:57:00.704255 14954 net.cpp:356] fc7 -> fc7
I0330 18:57:00.704267 14954 net.cpp:96] Setting up fc7
I0330 18:57:01.246783 14954 net.cpp:103] Top shape: 32 4096 1 1 (131072)
I0330 18:57:01.246840 14954 net.cpp:67] Creating Layer relu7
I0330 18:57:01.246846 14954 net.cpp:394] relu7 <- fc7
I0330 18:57:01.246857 14954 net.cpp:345] relu7 -> fc7 (in-place)
I0330 18:57:01.246866 14954 net.cpp:96] Setting up relu7
I0330 18:57:01.246888 14954 net.cpp:103] Top shape: 32 4096 1 1 (131072)
I0330 18:57:01.246896 14954 net.cpp:67] Creating Layer drop7
I0330 18:57:01.246899 14954 net.cpp:394] drop7 <- fc7
I0330 18:57:01.246906 14954 net.cpp:345] drop7 -> fc7 (in-place)
I0330 18:57:01.246911 14954 net.cpp:96] Setting up drop7
I0330 18:57:01.246915 14954 net.cpp:103] Top shape: 32 4096 1 1 (131072)
I0330 18:57:01.246924 14954 net.cpp:67] Creating Layer fc8_deepfashion
I0330 18:57:01.246928 14954 net.cpp:394] fc8_deepfashion <- fc7
I0330 18:57:01.246935 14954 net.cpp:356] fc8_deepfashion -> fc8_deepfashion
I0330 18:57:01.246943 14954 net.cpp:96] Setting up fc8_deepfashion
I0330 18:57:01.253459 14954 net.cpp:103] Top shape: 32 48 1 1 (1536)
I0330 18:57:01.253487 14954 net.cpp:67] Creating Layer fc8_deepfashion_encode
I0330 18:57:01.253494 14954 net.cpp:394] fc8_deepfashion_encode <- fc8_deepfashion
I0330 18:57:01.253499 14954 net.cpp:356] fc8_deepfashion_encode -> fc8_deepfashion_encode
I0330 18:57:01.253506 14954 net.cpp:96] Setting up fc8_deepfashion_encode
I0330 18:57:01.253520 14954 net.cpp:103] Top shape: 32 48 1 1 (1536)
I0330 18:57:01.253528 14954 net.cpp:67] Creating Layer fc8_pascal
I0330 18:57:01.253533 14954 net.cpp:394] fc8_pascal <- fc8_deepfashion_encode
I0330 18:57:01.253540 14954 net.cpp:356] fc8_pascal -> fc8_pascal
I0330 18:57:01.253562 14954 net.cpp:96] Setting up fc8_pascal
I0330 18:57:01.253589 14954 net.cpp:103] Top shape: 32 10 1 1 (320)
I0330 18:57:01.253610 14954 net.cpp:67] Creating Layer fc8_pascal_fc8_pascal_0_split
I0330 18:57:01.253617 14954 net.cpp:394] fc8_pascal_fc8_pascal_0_split <- fc8_pascal
I0330 18:57:01.253626 14954 net.cpp:356] fc8_pascal_fc8_pascal_0_split -> fc8_pascal_fc8_pascal_0_split_0
I0330 18:57:01.253638 14954 net.cpp:356] fc8_pascal_fc8_pascal_0_split -> fc8_pascal_fc8_pascal_0_split_1
I0330 18:57:01.253660 14954 net.cpp:96] Setting up fc8_pascal_fc8_pascal_0_split
I0330 18:57:01.253674 14954 net.cpp:103] Top shape: 32 10 1 1 (320)
I0330 18:57:01.253690 14954 net.cpp:103] Top shape: 32 10 1 1 (320)
I0330 18:57:01.253729 14954 net.cpp:67] Creating Layer loss1
I0330 18:57:01.253737 14954 net.cpp:394] loss1 <- fc8_pascal_fc8_pascal_0_split_0
I0330 18:57:01.253742 14954 net.cpp:394] loss1 <- labels0
I0330 18:57:01.253751 14954 net.cpp:356] loss1 -> (automatic)
I0330 18:57:01.253756 14954 net.cpp:96] Setting up loss1
I0330 18:57:01.253768 14954 net.cpp:103] Top shape: 1 1 1 1 (1)
I0330 18:57:01.253774 14954 net.cpp:109]     with loss weight 1
I0330 18:57:01.253818 14954 net.cpp:67] Creating Layer loss2
I0330 18:57:01.253823 14954 net.cpp:394] loss2 <- fc8_pascal_fc8_pascal_0_split_1
I0330 18:57:01.253829 14954 net.cpp:394] loss2 <- labels1
I0330 18:57:01.253834 14954 net.cpp:356] loss2 -> (automatic)
I0330 18:57:01.253839 14954 net.cpp:96] Setting up loss2
I0330 18:57:01.253844 14954 net.cpp:103] Top shape: 1 1 1 1 (1)
I0330 18:57:01.253849 14954 net.cpp:109]     with loss weight 1
I0330 18:57:01.253854 14954 net.cpp:170] loss2 needs backward computation.
I0330 18:57:01.253859 14954 net.cpp:170] loss1 needs backward computation.
I0330 18:57:01.253862 14954 net.cpp:170] fc8_pascal_fc8_pascal_0_split needs backward computation.
I0330 18:57:01.253866 14954 net.cpp:170] fc8_pascal needs backward computation.
…
I0330 18:57:01.255069 14954 net.cpp:39] Initializing net from parameters: 
name: "deepFashion"
layers {
  top: "data"
  top: "randomshit"
  name: "data"
  type: DATA
  data_param {
    source: "/data/deepfashion/color_label_multilabel/color_label_multilabel_test"
    batch_size: 32
  }
  include {
    phase: TEST
  }
  transform_param {
    mirror: true
    crop_size: 227
    mean_file: "../../../data/ilsvrc12/imagenet_mean.binaryproto"
  }
}
layers {
  top: "labels"
  name: "labels"
  type: DATA
  data_param {
    source: "/data/deepfashion/color_label_multilabel/color_label_multilabel_test_alt"
    batch_size: 32
  }
  include {
    phase: TEST
  }
}
layers {
  bottom: "labels"
  top: "labels0"
  top: "labels1"
  name: "sliceL"
  type: SLICE
  slice_param {
    slice_point: 1
  }
}
layers {
  bottom: "data"
  top: "conv1"
  name: "conv1"
  type: CONVOLUTION
  blobs_lr: 1
  blobs_lr: 2
  weight_decay: 1
  weight_decay: 0
  convolution_param {
    num_output: 96
    kernel_size: 11
    stride: 4
    weight_filler {
      type: "gaussian"
      std: 0.01
    }
    bias_filler {
      type: "constant"
      value: 0
    }
  }
}
layers {
  bottom: "conv1"
  top: "conv1"
  name: "relu1"
  type: RELU
}
layers {
  bottom: "conv1"
  top: "pool1"
  name: "pool1"
  type: POOLING
  pooling_param {
    pool: MAX
    kernel_size: 3
    stride: 2
  }
}
layers {
  bottom: "pool1"
  top: "norm1"
  name: "norm1"
  type: LRN
  lrn_param {
    local_size: 5
    alpha: 0.0001
    beta: 0.75
  }
}
layers {
  bottom: "norm1"
  top: "conv2"
  name: "conv2"
  type: CONVOLUTION
  blobs_lr: 1
  blobs_lr: 2
  weight_decay: 1
  weight_decay: 0
  convolution_param {
    num_output: 256
    pad: 2
    kernel_size: 5
    group: 2
    weight_filler {
      type: "gaussian"
      std: 0.01
    }
    bias_filler {
      type: "constant"
      value: 1
    }
  }
}
layers {
  bottom: "conv2"
  top: "conv2"
  name: "relu2"
  type: RELU
}
layers {
  bottom: "conv2"
  top: "pool2"
  name: "pool2"
  type: POOLING
  pooling_param {
    pool: MAX
    kernel_size: 3
    stride: 2
  }
}
layers {
  bottom: "pool2"
  top: "norm2"
  name: "norm2"
  type: LRN
  lrn_param {
    local_size: 5
    alpha: 0.0001
    beta: 0.75
  }
}
layers {
  bottom: "norm2"
  top: "conv3"
  name: "conv3"
  type: CONVOLUTION
  blobs_lr: 1
  blobs_lr: 2
  weight_decay: 1
  weight_decay: 0
  convolution_param {
    num_output: 384
    pad: 1
    kernel_size: 3
    weight_filler {
      type: "gaussian"
      std: 0.01
    }
    bias_filler {
      type: "constant"
      value: 0
    }
  }
}
layers {
  bottom: "conv3"
  top: "conv3"
  name: "relu3"
  type: RELU
}
layers {
  bottom: "conv3"
  top: "conv4"
  name: "conv4"
  type: CONVOLUTION
  blobs_lr: 1
  blobs_lr: 2
  weight_decay: 1
  weight_decay: 0
  convolution_param {
    num_output: 384
    pad: 1
    kernel_size: 3
    group: 2
    weight_filler {
      type: "gaussian"
      std: 0.01
    }
    bias_filler {
      type: "constant"
      value: 1
    }
  }
}
layers {
  bottom: "conv4"
  top: "conv4"
  name: "relu4"
  type: RELU
}
layers {
  bottom: "conv4"
  top: "conv5"
  name: "conv5"
  type: CONVOLUTION
  blobs_lr: 1
  blobs_lr: 2
  weight_decay: 1
  weight_decay: 0
  convolution_param {
    num_output: 256
    pad: 1
    kernel_size: 3
    group: 2
    weight_filler {
      type: "gaussian"
      std: 0.01
    }
    bias_filler {
      type: "constant"
      value: 1
    }
  }
}
layers {
  bottom: "conv5"
  top: "conv5"
  name: "relu5"
  type: RELU
}
layers {
  bottom: "conv5"
  top: "pool5"
  name: "pool5"
  type: POOLING
  pooling_param {
    pool: MAX
    kernel_size: 3
    stride: 2
  }
}
layers {
  bottom: "pool5"
  top: "fc6"
  name: "fc6"
  type: INNER_PRODUCT
  blobs_lr: 1
  blobs_lr: 2
  weight_decay: 1
  weight_decay: 0
  inner_product_param {
    num_output: 4096
    weight_filler {
      type: "gaussian"
      std: 0.005
    }
    bias_filler {
      type: "constant"
      value: 1
    }
  }
}
layers {
  bottom: "fc6"
  top: "fc6"
  name: "relu6"
  type: RELU
}
layers {
  bottom: "fc6"
  top: "fc6"
  name: "drop6"
  type: DROPOUT
  dropout_param {
    dropout_ratio: 0.5
  }
}
layers {
  bottom: "fc6"
  top: "fc7"
  name: "fc7"
  type: INNER_PRODUCT
  blobs_lr: 1
  blobs_lr: 2
  weight_decay: 1
  weight_decay: 0
  inner_product_param {
    num_output: 4096
    weight_filler {
      type: "gaussian"
      std: 0.005
    }
    bias_filler {
      type: "constant"
      value: 1
    }
  }
}
layers {
  bottom: "fc7"
  top: "fc7"
  name: "relu7"
  type: RELU
}
layers {
  bottom: "fc7"
  top: "fc7"
  name: "drop7"
  type: DROPOUT
  dropout_param {
    dropout_ratio: 0.5
  }
}
layers {
  bottom: "fc7"
  top: "fc8_deepfashion"
  name: "fc8_deepfashion"
  type: INNER_PRODUCT
  blobs_lr: 10
  blobs_lr: 20
  weight_decay: 1
  weight_decay: 0
  inner_product_param {
    num_output: 48
    weight_filler {
      type: "gaussian"
      std: 0.01
    }
    bias_filler {
      type: "constant"
      value: 0
    }
  }
}
layers {
  bottom: "fc8_deepfashion"
  top: "fc8_deepfashion_encode"
  name: "fc8_deepfashion_encode"
  type: SIGMOID
}
layers {
  bottom: "fc8_deepfashion_encode"
  top: "fc8_pascal"
  name: "fc8_pascal"
  type: INNER_PRODUCT
  blobs_lr: 10
  blobs_lr: 20
  weight_decay: 1
  weight_decay: 0
  inner_product_param {
    num_output: 10
    weight_filler {
      type: "gaussian"
      std: 0.01
    }
    bias_filler {
      type: "constant"
      value: 0
    }
  }
}
layers {
  bottom: "fc8_pascal"
  bottom: "labels0"
  name: "loss1"
  type: SOFTMAX_LOSS
}
layers {
  bottom: "fc8_pascal"
  bottom: "labels1"
  name: "loss2"
  type: SOFTMAX_LOSS
}
layers {
  bottom: "fc8_pascal"
  bottom: "labels0"
  top: "accuracy1"
  name: "accuracy1"
  type: ACCURACY
  include {
    phase: TEST
  }
}
layers {
  bottom: "fc8_pascal"
  bottom: "labels1"
  top: "accuracy2"
  name: "accuracy2"
  type: ACCURACY
  include {
    phase: TEST
  }
}
state {
  phase: TEST
}
I0330 18:57:01.255228 14954 net.cpp:67] Creating Layer data
I0330 18:57:01.255236 14954 net.cpp:356] data -> data
I0330 18:57:01.255245 14954 net.cpp:356] data -> randomshit
I0330 18:57:01.255252 14954 net.cpp:96] Setting up data
I0330 18:57:01.255259 14954 data_layer.cpp:45] Opening leveldb /data/deepfashion/color_label_multilabel/color_label_multilabel_test
I0330 18:57:01.266181 14954 data_layer.cpp:128] output data size: 32,3,227,227
I0330 18:57:01.266206 14954 base_data_layer.cpp:36] Loading mean file from../../../data/ilsvrc12/imagenet_mean.binaryproto
I0330 18:57:01.272954 14954 net.cpp:103] Top shape: 32 3 227 227 (4946784)
I0330 18:57:01.272991 14954 net.cpp:103] Top shape: 32 1 1 1 (32)
I0330 18:57:01.273015 14954 net.cpp:67] Creating Layer labels
I0330 18:57:01.273022 14954 net.cpp:356] labels -> labels
I0330 18:57:01.273037 14954 net.cpp:96] Setting up labels
I0330 18:57:01.273044 14954 data_layer.cpp:45] Opening leveldb /data/deepfashion/color_label_multilabel/color_label_multilabel_test_alt
I0330 18:57:01.281935 14954 data_layer.cpp:128] output data size: 32,2,1,1
I0330 18:57:01.282001 14954 net.cpp:103] Top shape: 32 2 1 1 (64)
I0330 18:57:01.282023 14954 net.cpp:67] Creating Layer sliceL
I0330 18:57:01.282033 14954 net.cpp:394] sliceL <- labels
I0330 18:57:01.282042 14954 net.cpp:356] sliceL -> labels0
I0330 18:57:01.282052 14954 net.cpp:356] sliceL -> labels1
I0330 18:57:01.282059 14954 net.cpp:96] Setting up sliceL
I0330 18:57:01.282066 14954 net.cpp:103] Top shape: 32 1 1 1 (32)
I0330 18:57:01.282073 14954 net.cpp:103] Top shape: 32 1 1 1 (32)
I0330 18:57:01.282078 14954 net.cpp:67] Creating Layer labels0_sliceL_0_split
I0330 18:57:01.282083 14954 net.cpp:394] labels0_sliceL_0_split <- labels0
I0330 18:57:01.282088 14954 net.cpp:356] labels0_sliceL_0_split -> labels0_sliceL_0_split_0
I0330 18:57:01.282095 14954 net.cpp:356] labels0_sliceL_0_split -> labels0_sliceL_0_split_1
I0330 18:57:01.282101 14954 net.cpp:96] Setting up labels0_sliceL_0_split
I0330 18:57:01.282106 14954 net.cpp:103] Top shape: 32 1 1 1 (32)
I0330 18:57:01.282110 14954 net.cpp:103] Top shape: 32 1 1 1 (32)
I0330 18:57:01.282116 14954 net.cpp:67] Creating Layer labels1_sliceL_1_split
I0330 18:57:01.282120 14954 net.cpp:394] labels1_sliceL_1_split <- labels1
I0330 18:57:01.282129 14954 net.cpp:356] labels1_sliceL_1_split -> labels1_sliceL_1_split_0
I0330 18:57:01.282135 14954 net.cpp:356] labels1_sliceL_1_split -> labels1_sliceL_1_split_1
I0330 18:57:01.282156 14954 net.cpp:96] Setting up labels1_sliceL_1_split
I0330 18:57:01.282162 14954 net.cpp:103] Top shape: 32 1 1 1 (32)
I0330 18:57:01.282166 14954 net.cpp:103] Top shape: 32 1 1 1 (32)
I0330 18:57:01.282174 14954 net.cpp:67] Creating Layer conv1
I0330 18:57:01.282179 14954 net.cpp:394] conv1 <- data
I0330 18:57:01.282186 14954 net.cpp:356] conv1 -> conv1
I0330 18:57:01.282192 14954 net.cpp:96] Setting up conv1
I0330 18:57:01.283435 14954 net.cpp:103] Top shape: 32 96 55 55 (9292800)
I0330 18:57:01.283465 14954 net.cpp:67] Creating Layer relu1
I0330 18:57:01.283470 14954 net.cpp:394] relu1 <- conv1
I0330 18:57:01.283478 14954 net.cpp:345] relu1 -> conv1 (in-place)
I0330 18:57:01.283483 14954 net.cpp:96] Setting up relu1
I0330 18:57:01.283491 14954 net.cpp:103] Top shape: 32 96 55 55 (9292800)
I0330 18:57:01.283499 14954 net.cpp:67] Creating Layer pool1
I0330 18:57:01.283502 14954 net.cpp:394] pool1 <- conv1
I0330 18:57:01.283507 14954 net.cpp:356] pool1 -> pool1
I0330 18:57:01.283514 14954 net.cpp:96] Setting up pool1
I0330 18:57:01.283524 14954 net.cpp:103] Top shape: 32 96 27 27 (2239488)
I0330 18:57:01.283532 14954 net.cpp:67] Creating Layer norm1
I0330 18:57:01.283536 14954 net.cpp:394] norm1 <- pool1
I0330 18:57:01.283542 14954 net.cpp:356] norm1 -> norm1
I0330 18:57:01.283548 14954 net.cpp:96] Setting up norm1
I0330 18:57:01.283553 14954 net.cpp:103] Top shape: 32 96 27 27 (2239488)
I0330 18:57:01.283560 14954 net.cpp:67] Creating Layer conv2
I0330 18:57:01.283565 14954 net.cpp:394] conv2 <- norm1
I0330 18:57:01.283571 14954 net.cpp:356] conv2 -> conv2
I0330 18:57:01.283577 14954 net.cpp:96] Setting up conv2
I0330 18:57:01.294091 14954 net.cpp:103] Top shape: 32 256 27 27 (5971968)
I0330 18:57:01.294140 14954 net.cpp:67] Creating Layer relu2
I0330 18:57:01.294147 14954 net.cpp:394] relu2 <- conv2
I0330 18:57:01.294155 14954 net.cpp:345] relu2 -> conv2 (in-place)
I0330 18:57:01.294163 14954 net.cpp:96] Setting up relu2
I0330 18:57:01.294172 14954 net.cpp:103] Top shape: 32 256 27 27 (5971968)
I0330 18:57:01.294179 14954 net.cpp:67] Creating Layer pool2
I0330 18:57:01.294183 14954 net.cpp:394] pool2 <- conv2
I0330 18:57:01.294189 14954 net.cpp:356] pool2 -> pool2
I0330 18:57:01.294196 14954 net.cpp:96] Setting up pool2
I0330 18:57:01.294205 14954 net.cpp:103] Top shape: 32 256 13 13 (1384448)
I0330 18:57:01.294214 14954 net.cpp:67] Creating Layer norm2
I0330 18:57:01.294217 14954 net.cpp:394] norm2 <- pool2
I0330 18:57:01.294222 14954 net.cpp:356] norm2 -> norm2
I0330 18:57:01.294229 14954 net.cpp:96] Setting up norm2
I0330 18:57:01.294234 14954 net.cpp:103] Top shape: 32 256 13 13 (1384448)
I0330 18:57:01.294241 14954 net.cpp:67] Creating Layer conv3
I0330 18:57:01.294245 14954 net.cpp:394] conv3 <- norm2
I0330 18:57:01.294251 14954 net.cpp:356] conv3 -> conv3
I0330 18:57:01.294257 14954 net.cpp:96] Setting up conv3
I0330 18:57:01.323186 14954 net.cpp:103] Top shape: 32 384 13 13 (2076672)
I0330 18:57:01.323222 14954 net.cpp:67] Creating Layer relu3
I0330 18:57:01.323230 14954 net.cpp:394] relu3 <- conv3
I0330 18:57:01.323236 14954 net.cpp:345] relu3 -> conv3 (in-place)
I0330 18:57:01.323245 14954 net.cpp:96] Setting up relu3
I0330 18:57:01.323251 14954 net.cpp:103] Top shape: 32 384 13 13 (2076672)
I0330 18:57:01.323264 14954 net.cpp:67] Creating Layer conv4
I0330 18:57:01.323269 14954 net.cpp:394] conv4 <- conv3
I0330 18:57:01.323279 14954 net.cpp:356] conv4 -> conv4
I0330 18:57:01.323293 14954 net.cpp:96] Setting up conv4
I0330 18:57:01.345527 14954 net.cpp:103] Top shape: 32 384 13 13 (2076672)
I0330 18:57:01.345567 14954 net.cpp:67] Creating Layer relu4
I0330 18:57:01.345576 14954 net.cpp:394] relu4 <- conv4
I0330 18:57:01.345582 14954 net.cpp:345] relu4 -> conv4 (in-place)
I0330 18:57:01.345589 14954 net.cpp:96] Setting up relu4
I0330 18:57:01.345597 14954 net.cpp:103] Top shape: 32 384 13 13 (2076672)
I0330 18:57:01.345604 14954 net.cpp:67] Creating Layer conv5
I0330 18:57:01.345608 14954 net.cpp:394] conv5 <- conv4
I0330 18:57:01.345645 14954 net.cpp:356] conv5 -> conv5
I0330 18:57:01.345654 14954 net.cpp:96] Setting up conv5
I0330 18:57:01.360498 14954 net.cpp:103] Top shape: 32 256 13 13 (1384448)
I0330 18:57:01.360527 14954 net.cpp:67] Creating Layer relu5
I0330 18:57:01.360533 14954 net.cpp:394] relu5 <- conv5
I0330 18:57:01.360539 14954 net.cpp:345] relu5 -> conv5 (in-place)
I0330 18:57:01.360546 14954 net.cpp:96] Setting up relu5
I0330 18:57:01.360553 14954 net.cpp:103] Top shape: 32 256 13 13 (1384448)
I0330 18:57:01.360563 14954 net.cpp:67] Creating Layer pool5
I0330 18:57:01.360568 14954 net.cpp:394] pool5 <- conv5
I0330 18:57:01.360572 14954 net.cpp:356] pool5 -> pool5
I0330 18:57:01.360582 14954 net.cpp:96] Setting up pool5
I0330 18:57:01.360591 14954 net.cpp:103] Top shape: 32 256 6 6 (294912)
I0330 18:57:01.360599 14954 net.cpp:67] Creating Layer fc6
I0330 18:57:01.360610 14954 net.cpp:394] fc6 <- pool5
I0330 18:57:01.360618 14954 net.cpp:356] fc6 -> fc6
I0330 18:57:01.360626 14954 net.cpp:96] Setting up fc6
I0330 18:57:02.580435 14954 net.cpp:103] Top shape: 32 4096 1 1 (131072)
I0330 18:57:02.580494 14954 net.cpp:67] Creating Layer relu6
I0330 18:57:02.580503 14954 net.cpp:394] relu6 <- fc6
I0330 18:57:02.580513 14954 net.cpp:345] relu6 -> fc6 (in-place)
I0330 18:57:02.580523 14954 net.cpp:96] Setting up relu6
I0330 18:57:02.580544 14954 net.cpp:103] Top shape: 32 4096 1 1 (131072)
I0330 18:57:02.580551 14954 net.cpp:67] Creating Layer drop6
I0330 18:57:02.580556 14954 net.cpp:394] drop6 <- fc6
I0330 18:57:02.580561 14954 net.cpp:345] drop6 -> fc6 (in-place)
I0330 18:57:02.580567 14954 net.cpp:96] Setting up drop6
I0330 18:57:02.580574 14954 net.cpp:103] Top shape: 32 4096 1 1 (131072)
I0330 18:57:02.580582 14954 net.cpp:67] Creating Layer fc7
I0330 18:57:02.580586 14954 net.cpp:394] fc7 <- fc6
I0330 18:57:02.580592 14954 net.cpp:356] fc7 -> fc7
I0330 18:57:02.580601 14954 net.cpp:96] Setting up fc7
I0330 18:57:03.122416 14954 net.cpp:103] Top shape: 32 4096 1 1 (131072)
I0330 18:57:03.122474 14954 net.cpp:67] Creating Layer relu7
I0330 18:57:03.122483 14954 net.cpp:394] relu7 <- fc7
I0330 18:57:03.122491 14954 net.cpp:345] relu7 -> fc7 (in-place)
I0330 18:57:03.122501 14954 net.cpp:96] Setting up relu7
I0330 18:57:03.122521 14954 net.cpp:103] Top shape: 32 4096 1 1 (131072)
I0330 18:57:03.122532 14954 net.cpp:67] Creating Layer drop7
I0330 18:57:03.122536 14954 net.cpp:394] drop7 <- fc7
I0330 18:57:03.122542 14954 net.cpp:345] drop7 -> fc7 (in-place)
I0330 18:57:03.122547 14954 net.cpp:96] Setting up drop7
I0330 18:57:03.122552 14954 net.cpp:103] Top shape: 32 4096 1 1 (131072)
I0330 18:57:03.122561 14954 net.cpp:67] Creating Layer fc8_deepfashion
I0330 18:57:03.122565 14954 net.cpp:394] fc8_deepfashion <- fc7
I0330 18:57:03.122571 14954 net.cpp:356] fc8_deepfashion -> fc8_deepfashion
I0330 18:57:03.122581 14954 net.cpp:96] Setting up fc8_deepfashion
I0330 18:57:03.128836 14954 net.cpp:103] Top shape: 32 48 1 1 (1536)
I0330 18:57:03.128861 14954 net.cpp:67] Creating Layer fc8_deepfashion_encode
I0330 18:57:03.128867 14954 net.cpp:394] fc8_deepfashion_encode <- fc8_deepfashion
I0330 18:57:03.128875 14954 net.cpp:356] fc8_deepfashion_encode -> fc8_deepfashion_encode
I0330 18:57:03.128881 14954 net.cpp:96] Setting up fc8_deepfashion_encode
I0330 18:57:03.128890 14954 net.cpp:103] Top shape: 32 48 1 1 (1536)
I0330 18:57:03.128897 14954 net.cpp:67] Creating Layer fc8_pascal
I0330 18:57:03.128901 14954 net.cpp:394] fc8_pascal <- fc8_deepfashion_encode
I0330 18:57:03.128907 14954 net.cpp:356] fc8_pascal -> fc8_pascal
I0330 18:57:03.128913 14954 net.cpp:96] Setting up fc8_pascal
I0330 18:57:03.128939 14954 net.cpp:103] Top shape: 32 10 1 1 (320)
I0330 18:57:03.128960 14954 net.cpp:67] Creating Layer fc8_pascal_fc8_pascal_0_split
I0330 18:57:03.128965 14954 net.cpp:394] fc8_pascal_fc8_pascal_0_split <- fc8_pascal
I0330 18:57:03.128971 14954 net.cpp:356] fc8_pascal_fc8_pascal_0_split -> fc8_pascal_fc8_pascal_0_split_0
I0330 18:57:03.128978 14954 net.cpp:356] fc8_pascal_fc8_pascal_0_split -> fc8_pascal_fc8_pascal_0_split_1
I0330 18:57:03.129015 14954 net.cpp:356] fc8_pascal_fc8_pascal_0_split -> fc8_pascal_fc8_pascal_0_split_2
I0330 18:57:03.129025 14954 net.cpp:356] fc8_pascal_fc8_pascal_0_split -> fc8_pascal_fc8_pascal_0_split_3
I0330 18:57:03.129031 14954 net.cpp:96] Setting up fc8_pascal_fc8_pascal_0_split
I0330 18:57:03.129037 14954 net.cpp:103] Top shape: 32 10 1 1 (320)
I0330 18:57:03.129040 14954 net.cpp:103] Top shape: 32 10 1 1 (320)
I0330 18:57:03.129045 14954 net.cpp:103] Top shape: 32 10 1 1 (320)
I0330 18:57:03.129048 14954 net.cpp:103] Top shape: 32 10 1 1 (320)
I0330 18:57:03.129055 14954 net.cpp:67] Creating Layer loss1
I0330 18:57:03.129060 14954 net.cpp:394] loss1 <- fc8_pascal_fc8_pascal_0_split_0
I0330 18:57:03.129065 14954 net.cpp:394] loss1 <- labels0_sliceL_0_split_0
I0330 18:57:03.129071 14954 net.cpp:356] loss1 -> (automatic)
I0330 18:57:03.129081 14954 net.cpp:96] Setting up loss1
I0330 18:57:03.129091 14954 net.cpp:103] Top shape: 1 1 1 1 (1)
I0330 18:57:03.129094 14954 net.cpp:109]     with loss weight 1
I0330 18:57:03.129117 14954 net.cpp:67] Creating Layer loss2
I0330 18:57:03.129122 14954 net.cpp:394] loss2 <- fc8_pascal_fc8_pascal_0_split_1
I0330 18:57:03.129128 14954 net.cpp:394] loss2 <- labels1_sliceL_1_split_0
I0330 18:57:03.129133 14954 net.cpp:356] loss2 -> (automatic)
I0330 18:57:03.129138 14954 net.cpp:96] Setting up loss2
I0330 18:57:03.129144 14954 net.cpp:103] Top shape: 1 1 1 1 (1)
I0330 18:57:03.129148 14954 net.cpp:109]     with loss weight 1
I0330 18:57:03.129165 14954 net.cpp:67] Creating Layer accuracy1
I0330 18:57:03.129176 14954 net.cpp:394] accuracy1 <- fc8_pascal_fc8_pascal_0_split_2
I0330 18:57:03.129182 14954 net.cpp:394] accuracy1 <- labels0_sliceL_0_split_1
I0330 18:57:03.129189 14954 net.cpp:356] accuracy1 -> accuracy1
I0330 18:57:03.129194 14954 net.cpp:96] Setting up accuracy1
I0330 18:57:03.129204 14954 net.cpp:103] Top shape: 1 1 1 1 (1)
I0330 18:57:03.129210 14954 net.cpp:67] Creating Layer accuracy2
I0330 18:57:03.129215 14954 net.cpp:394] accuracy2 <- fc8_pascal_fc8_pascal_0_split_3
I0330 18:57:03.129218 14954 net.cpp:394] accuracy2 <- labels1_sliceL_1_split_1
I0330 18:57:03.129226 14954 net.cpp:356] accuracy2 -> accuracy2
I0330 18:57:03.129232 14954 net.cpp:96] Setting up accuracy2
I0330 18:57:03.129236 14954 net.cpp:103] Top shape: 1 1 1 1 (1)
I0330 18:57:03.129240 14954 net.cpp:172] accuracy2 does not need backward computation.
I0330 18:57:03.129245 14954 net.cpp:172] accuracy1 does not need backward computation.
I0330 18:57:03.129247 14954 net.cpp:170] loss2 needs backward computation.
I0330 18:57:03.129251 14954 net.cpp:170] loss1 needs backward computation.
I0330 18:57:03.129256 14954 net.cpp:170] fc8_pascal_fc8_pascal_0_split needs backward computation.
…
