…
I0330 17:37:51.454933  7473 net.cpp:39] Initializing net from parameters: 
name: "deepFashion"
layers {
  top: "data"
  top: "randomshit"
  name: "data"
  type: DATA
  data_param {
    source: "/data/deepfashion/color_label_multilabel/color_label_multilabel_TRAIN"
    batch_size: 32
  }
  include {
    phase: TRAIN
  }
  transform_param {
    mirror: true
    crop_size: 227
    mean_file: "../../../data/ilsvrc12/imagenet_mean.binaryproto"
  }
}
layers {
  top: "labels"
  name: "labels"
  type: DATA
  data_param {
    source: "/data/deepfashion/color_label_multilabel/color_label_multilabel_TRAIN_ALT"
    batch_size: 32
  }
  include {
    phase: TRAIN
  }
}
layers {
  bottom: "labels"
  top: "labels0"
  top: "labels1"
  name: "sliceL"
  type: SLICE
  slice_param {
    slice_point: 1
  }
}
layers {
  bottom: "data"
  top: "conv1"
  name: "conv1"
  type: CONVOLUTION
  blobs_lr: 1
  blobs_lr: 2
  weight_decay: 1
  weight_decay: 0
  convolution_param {
    num_output: 96
    kernel_size: 11
    stride: 4
    weight_filler {
      type: "gaussian"
      std: 0.01
    }
    bias_filler {
      type: "constant"
      value: 0
    }
  }
}
layers {
  bottom: "conv1"
  top: "conv1"
  name: "relu1"
  type: RELU
}
layers {
  bottom: "conv1"
  top: "pool1"
  name: "pool1"
  type: POOLING
  pooling_param {
    pool: MAX
    kernel_size: 3
    stride: 2
  }
}
layers {
  bottom: "pool1"
  top: "norm1"
  name: "norm1"
  type: LRN
  lrn_param {
    local_size: 5
    alpha: 0.0001
    beta: 0.75
  }
}
layers {
  bottom: "norm1"
  top: "conv2"
  name: "conv2"
  type: CONVOLUTION
  blobs_lr: 1
  blobs_lr: 2
  weight_decay: 1
  weight_decay: 0
  convolution_param {
    num_output: 256
    pad: 2
    kernel_size: 5
    group: 2
    weight_filler {
      type: "gaussian"
      std: 0.01
    }
    bias_filler {
      type: "constant"
      value: 1
    }
  }
}
layers {
  bottom: "conv2"
  top: "conv2"
  name: "relu2"
  type: RELU
}
layers {
  bottom: "conv2"
  top: "pool2"
  name: "pool2"
  type: POOLING
  pooling_param {
    pool: MAX
    kernel_size: 3
    stride: 2
  }
}
layers {
  bottom: "pool2"
  top: "norm2"
  name: "norm2"
  type: LRN
  lrn_param {
    local_size: 5
    alpha: 0.0001
    beta: 0.75
  }
}
layers {
  bottom: "norm2"
  top: "conv3"
  name: "conv3"
  type: CONVOLUTION
  blobs_lr: 1
  blobs_lr: 2
  weight_decay: 1
  weight_decay: 0
  convolution_param {
    num_output: 384
    pad: 1
    kernel_size: 3
    weight_filler {
      type: "gaussian"
      std: 0.01
    }
    bias_filler {
      type: "constant"
      value: 0
    }
  }
}
layers {
  bottom: "conv3"
  top: "conv3"
  name: "relu3"
  type: RELU
}
layers {
  bottom: "conv3"
  top: "conv4"
  name: "conv4"
  type: CONVOLUTION
  blobs_lr: 1
  blobs_lr: 2
  weight_decay: 1
  weight_decay: 0
  convolution_param {
    num_output: 384
    pad: 1
    kernel_size: 3
    group: 2
    weight_filler {
      type: "gaussian"
      std: 0.01
    }
    bias_filler {
      type: "constant"
      value: 1
    }
  }
}
layers {
  bottom: "conv4"
  top: "conv4"
  name: "relu4"
  type: RELU
}
layers {
  bottom: "conv4"
  top: "conv5"
  name: "conv5"
  type: CONVOLUTION
  blobs_lr: 1
  blobs_lr: 2
  weight_decay: 1
  weight_decay: 0
  convolution_param {
    num_output: 256
    pad: 1
    kernel_size: 3
    group: 2
    weight_filler {
      type: "gaussian"
      std: 0.01
    }
    bias_filler {
      type: "constant"
      value: 1
    }
  }
}
layers {
  bottom: "conv5"
  top: "conv5"
  name: "relu5"
  type: RELU
}
layers {
  bottom: "conv5"
  top: "pool5"
  name: "pool5"
  type: POOLING
  pooling_param {
    pool: MAX
    kernel_size: 3
    stride: 2
  }
}
layers {
  bottom: "pool5"
  top: "fc6"
  name: "fc6"
  type: INNER_PRODUCT
  blobs_lr: 1
  blobs_lr: 2
  weight_decay: 1
  weight_decay: 0
  inner_product_param {
    num_output: 4096
    weight_filler {
      type: "gaussian"
      std: 0.005
    }
    bias_filler {
      type: "constant"
      value: 1
    }
  }
}
layers {
  bottom: "fc6"
  top: "fc6"
  name: "relu6"
  type: RELU
}
layers {
  bottom: "fc6"
  top: "fc6"
  name: "drop6"
  type: DROPOUT
  dropout_param {
    dropout_ratio: 0.5
  }
}
layers {
  bottom: "fc6"
  top: "fc7"
  name: "fc7"
  type: INNER_PRODUCT
  blobs_lr: 1
  blobs_lr: 2
  weight_decay: 1
  weight_decay: 0
  inner_product_param {
    num_output: 4096
    weight_filler {
      type: "gaussian"
      std: 0.005
    }
    bias_filler {
      type: "constant"
      value: 1
    }
  }
}
layers {
  bottom: "fc7"
  top: "fc7"
  name: "relu7"
  type: RELU
}
layers {
  bottom: "fc7"
  top: "fc7"
  name: "drop7"
  type: DROPOUT
  dropout_param {
    dropout_ratio: 0.5
  }
}
layers {
  bottom: "fc7"
  top: "fc8_deepfashion"
  name: "fc8_deepfashion"
  type: INNER_PRODUCT
  blobs_lr: 10
  blobs_lr: 20
  weight_decay: 1
  weight_decay: 0
  inner_product_param {
    num_output: 48
    weight_filler {
      type: "gaussian"
      std: 0.01
    }
    bias_filler {
      type: "constant"
      value: 0
    }
  }
}
layers {
  bottom: "fc8_deepfashion"
  top: "fc8_deepfashion_encode"
  name: "fc8_deepfashion_encode"
  type: SIGMOID
}
layers {
  bottom: "fc8_deepfashion_encode"
  top: "fc8_pascal"
  name: "fc8_pascal"
  type: INNER_PRODUCT
  blobs_lr: 10
  blobs_lr: 20
  weight_decay: 1
  weight_decay: 0
  inner_product_param {
    num_output: 10
    weight_filler {
      type: "gaussian"
      std: 0.01
    }
    bias_filler {
      type: "constant"
      value: 0
    }
  }
}
layers {
  bottom: "fc8_pascal"
  bottom: "labels0"
  name: "loss"
  type: SOFTMAX_LOSS
}
state {
  phase: TRAIN
}
I0330 17:37:51.455081  7473 net.cpp:67] Creating Layer data
I0330 17:37:51.455095  7473 net.cpp:356] data -> data
I0330 17:37:51.455113  7473 net.cpp:356] data -> randomshit
I0330 17:37:51.455129  7473 net.cpp:96] Setting up data
I0330 17:37:51.455153  7473 data_layer.cpp:45] Opening leveldb /data/deepfashion/color_label_multilabel/color_label_multilabel_TRAIN
I0330 17:37:57.946353  7473 data_layer.cpp:128] output data size: 32,3,227,227
I0330 17:37:57.946388  7473 base_data_layer.cpp:36] Loading mean file from../../../data/ilsvrc12/imagenet_mean.binaryproto
I0330 17:37:57.950201  7473 net.cpp:103] Top shape: 32 3 227 227 (4946784)
I0330 17:37:57.950233  7473 net.cpp:103] Top shape: 32 1 1 1 (32)
I0330 17:37:57.950253  7473 net.cpp:67] Creating Layer labels
I0330 17:37:57.950263  7473 net.cpp:356] labels -> labels
I0330 17:37:57.950276  7473 net.cpp:96] Setting up labels
I0330 17:37:57.950290  7473 data_layer.cpp:45] Opening leveldb /data/deepfashion/color_label_multilabel/color_label_multilabel_TRAIN_ALT
I0330 17:37:58.094786  7473 data_layer.cpp:128] output data size: 32,2,1,1
I0330 17:37:58.094853  7473 net.cpp:103] Top shape: 32 2 1 1 (64)
I0330 17:37:58.094880  7473 net.cpp:67] Creating Layer sliceL
I0330 17:37:58.094888  7473 net.cpp:394] sliceL <- labels
I0330 17:37:58.094902  7473 net.cpp:356] sliceL -> labels0
I0330 17:37:58.094915  7473 net.cpp:356] sliceL -> labels1
I0330 17:37:58.094926  7473 net.cpp:96] Setting up sliceL
I0330 17:37:58.094936  7473 net.cpp:103] Top shape: 32 1 1 1 (32)
I0330 17:37:58.094949  7473 net.cpp:103] Top shape: 32 1 1 1 (32)
I0330 17:37:58.094964  7473 net.cpp:67] Creating Layer conv1
I0330 17:37:58.094974  7473 net.cpp:394] conv1 <- data
I0330 17:37:58.095006  7473 net.cpp:356] conv1 -> conv1
I0330 17:37:58.095023  7473 net.cpp:96] Setting up conv1
I0330 17:37:58.111997  7473 net.cpp:103] Top shape: 32 96 55 55 (9292800)
I0330 17:37:58.112062  7473 net.cpp:67] Creating Layer relu1
I0330 17:37:58.112076  7473 net.cpp:394] relu1 <- conv1
I0330 17:37:58.112089  7473 net.cpp:345] relu1 -> conv1 (in-place)
I0330 17:37:58.112105  7473 net.cpp:96] Setting up relu1
I0330 17:37:58.112124  7473 net.cpp:103] Top shape: 32 96 55 55 (9292800)
I0330 17:37:58.112146  7473 net.cpp:67] Creating Layer pool1
I0330 17:37:58.112155  7473 net.cpp:394] pool1 <- conv1
I0330 17:37:58.112169  7473 net.cpp:356] pool1 -> pool1
I0330 17:37:58.112182  7473 net.cpp:96] Setting up pool1
I0330 17:37:58.112226  7473 net.cpp:103] Top shape: 32 96 27 27 (2239488)
I0330 17:37:58.112248  7473 net.cpp:67] Creating Layer norm1
I0330 17:37:58.112257  7473 net.cpp:394] norm1 <- pool1
I0330 17:37:58.112269  7473 net.cpp:356] norm1 -> norm1
I0330 17:37:58.112282  7473 net.cpp:96] Setting up norm1
I0330 17:37:58.112298  7473 net.cpp:103] Top shape: 32 96 27 27 (2239488)
I0330 17:37:58.112313  7473 net.cpp:67] Creating Layer conv2
I0330 17:37:58.112323  7473 net.cpp:394] conv2 <- norm1
I0330 17:37:58.112335  7473 net.cpp:356] conv2 -> conv2
I0330 17:37:58.112350  7473 net.cpp:96] Setting up conv2
I0330 17:37:58.122218  7473 net.cpp:103] Top shape: 32 256 27 27 (5971968)
I0330 17:37:58.122249  7473 net.cpp:67] Creating Layer relu2
I0330 17:37:58.122259  7473 net.cpp:394] relu2 <- conv2
I0330 17:37:58.122272  7473 net.cpp:345] relu2 -> conv2 (in-place)
I0330 17:37:58.122283  7473 net.cpp:96] Setting up relu2
I0330 17:37:58.122298  7473 net.cpp:103] Top shape: 32 256 27 27 (5971968)
I0330 17:37:58.122310  7473 net.cpp:67] Creating Layer pool2
I0330 17:37:58.122319  7473 net.cpp:394] pool2 <- conv2
I0330 17:37:58.122330  7473 net.cpp:356] pool2 -> pool2
I0330 17:37:58.122342  7473 net.cpp:96] Setting up pool2
I0330 17:37:58.122357  7473 net.cpp:103] Top shape: 32 256 13 13 (1384448)
I0330 17:37:58.122370  7473 net.cpp:67] Creating Layer norm2
I0330 17:37:58.122380  7473 net.cpp:394] norm2 <- pool2
I0330 17:37:58.122391  7473 net.cpp:356] norm2 -> norm2
I0330 17:37:58.122403  7473 net.cpp:96] Setting up norm2
I0330 17:37:58.122412  7473 net.cpp:103] Top shape: 32 256 13 13 (1384448)
I0330 17:37:58.122426  7473 net.cpp:67] Creating Layer conv3
I0330 17:37:58.122436  7473 net.cpp:394] conv3 <- norm2
I0330 17:37:58.122448  7473 net.cpp:356] conv3 -> conv3
I0330 17:37:58.122460  7473 net.cpp:96] Setting up conv3
I0330 17:37:58.150598  7473 net.cpp:103] Top shape: 32 384 13 13 (2076672)
I0330 17:37:58.150627  7473 net.cpp:67] Creating Layer relu3
I0330 17:37:58.150638  7473 net.cpp:394] relu3 <- conv3
I0330 17:37:58.150650  7473 net.cpp:345] relu3 -> conv3 (in-place)
I0330 17:37:58.150663  7473 net.cpp:96] Setting up relu3
I0330 17:37:58.150677  7473 net.cpp:103] Top shape: 32 384 13 13 (2076672)
I0330 17:37:58.150691  7473 net.cpp:67] Creating Layer conv4
I0330 17:37:58.150701  7473 net.cpp:394] conv4 <- conv3
I0330 17:37:58.150712  7473 net.cpp:356] conv4 -> conv4
I0330 17:37:58.150725  7473 net.cpp:96] Setting up conv4
I0330 17:37:58.171988  7473 net.cpp:103] Top shape: 32 384 13 13 (2076672)
I0330 17:37:58.172016  7473 net.cpp:67] Creating Layer relu4
I0330 17:37:58.172027  7473 net.cpp:394] relu4 <- conv4
I0330 17:37:58.172039  7473 net.cpp:345] relu4 -> conv4 (in-place)
I0330 17:37:58.172051  7473 net.cpp:96] Setting up relu4
I0330 17:37:58.172065  7473 net.cpp:103] Top shape: 32 384 13 13 (2076672)
I0330 17:37:58.172080  7473 net.cpp:67] Creating Layer conv5
I0330 17:37:58.172088  7473 net.cpp:394] conv5 <- conv4
I0330 17:37:58.172101  7473 net.cpp:356] conv5 -> conv5
I0330 17:37:58.172114  7473 net.cpp:96] Setting up conv5
I0330 17:37:58.186285  7473 net.cpp:103] Top shape: 32 256 13 13 (1384448)
I0330 17:37:58.186318  7473 net.cpp:67] Creating Layer relu5
I0330 17:37:58.186329  7473 net.cpp:394] relu5 <- conv5
I0330 17:37:58.186342  7473 net.cpp:345] relu5 -> conv5 (in-place)
I0330 17:37:58.186353  7473 net.cpp:96] Setting up relu5
I0330 17:37:58.186391  7473 net.cpp:103] Top shape: 32 256 13 13 (1384448)
I0330 17:37:58.186408  7473 net.cpp:67] Creating Layer pool5
I0330 17:37:58.186417  7473 net.cpp:394] pool5 <- conv5
I0330 17:37:58.186429  7473 net.cpp:356] pool5 -> pool5
I0330 17:37:58.186441  7473 net.cpp:96] Setting up pool5
I0330 17:37:58.186456  7473 net.cpp:103] Top shape: 32 256 6 6 (294912)
I0330 17:37:58.186473  7473 net.cpp:67] Creating Layer fc6
I0330 17:37:58.186482  7473 net.cpp:394] fc6 <- pool5
I0330 17:37:58.186496  7473 net.cpp:356] fc6 -> fc6
I0330 17:37:58.186518  7473 net.cpp:96] Setting up fc6
I0330 17:37:59.405710  7473 net.cpp:103] Top shape: 32 4096 1 1 (131072)
I0330 17:37:59.405771  7473 net.cpp:67] Creating Layer relu6
I0330 17:37:59.405783  7473 net.cpp:394] relu6 <- fc6
I0330 17:37:59.405799  7473 net.cpp:345] relu6 -> fc6 (in-place)
I0330 17:37:59.405814  7473 net.cpp:96] Setting up relu6
I0330 17:37:59.405841  7473 net.cpp:103] Top shape: 32 4096 1 1 (131072)
I0330 17:37:59.405855  7473 net.cpp:67] Creating Layer drop6
I0330 17:37:59.405864  7473 net.cpp:394] drop6 <- fc6
I0330 17:37:59.405877  7473 net.cpp:345] drop6 -> fc6 (in-place)
I0330 17:37:59.405889  7473 net.cpp:96] Setting up drop6
I0330 17:37:59.405908  7473 net.cpp:103] Top shape: 32 4096 1 1 (131072)
I0330 17:37:59.405926  7473 net.cpp:67] Creating Layer fc7
I0330 17:37:59.405936  7473 net.cpp:394] fc7 <- fc6
I0330 17:37:59.405948  7473 net.cpp:356] fc7 -> fc7
I0330 17:37:59.405968  7473 net.cpp:96] Setting up fc7
I0330 17:37:59.939684  7473 net.cpp:103] Top shape: 32 4096 1 1 (131072)
I0330 17:37:59.939749  7473 net.cpp:67] Creating Layer relu7
I0330 17:37:59.939761  7473 net.cpp:394] relu7 <- fc7
I0330 17:37:59.939777  7473 net.cpp:345] relu7 -> fc7 (in-place)
I0330 17:37:59.939792  7473 net.cpp:96] Setting up relu7
I0330 17:37:59.939820  7473 net.cpp:103] Top shape: 32 4096 1 1 (131072)
I0330 17:37:59.939833  7473 net.cpp:67] Creating Layer drop7
I0330 17:37:59.939842  7473 net.cpp:394] drop7 <- fc7
I0330 17:37:59.939854  7473 net.cpp:345] drop7 -> fc7 (in-place)
I0330 17:37:59.939867  7473 net.cpp:96] Setting up drop7
I0330 17:37:59.939875  7473 net.cpp:103] Top shape: 32 4096 1 1 (131072)
I0330 17:37:59.939889  7473 net.cpp:67] Creating Layer fc8_deepfashion
I0330 17:37:59.939898  7473 net.cpp:394] fc8_deepfashion <- fc7
I0330 17:37:59.939913  7473 net.cpp:356] fc8_deepfashion -> fc8_deepfashion
I0330 17:37:59.939927  7473 net.cpp:96] Setting up fc8_deepfashion
I0330 17:37:59.946221  7473 net.cpp:103] Top shape: 32 48 1 1 (1536)
I0330 17:37:59.946254  7473 net.cpp:67] Creating Layer fc8_deepfashion_encode
I0330 17:37:59.946264  7473 net.cpp:394] fc8_deepfashion_encode <- fc8_deepfashion
I0330 17:37:59.946276  7473 net.cpp:356] fc8_deepfashion_encode -> fc8_deepfashion_encode
I0330 17:37:59.946290  7473 net.cpp:96] Setting up fc8_deepfashion_encode
I0330 17:37:59.946311  7473 net.cpp:103] Top shape: 32 48 1 1 (1536)
I0330 17:37:59.946331  7473 net.cpp:67] Creating Layer fc8_pascal
I0330 17:37:59.946341  7473 net.cpp:394] fc8_pascal <- fc8_deepfashion_encode
I0330 17:37:59.946353  7473 net.cpp:356] fc8_pascal -> fc8_pascal
I0330 17:37:59.946384  7473 net.cpp:96] Setting up fc8_pascal
I0330 17:37:59.946431  7473 net.cpp:103] Top shape: 32 10 1 1 (320)
I0330 17:37:59.946463  7473 net.cpp:67] Creating Layer loss
I0330 17:37:59.946475  7473 net.cpp:394] loss <- fc8_pascal
I0330 17:37:59.946485  7473 net.cpp:394] loss <- labels0
I0330 17:37:59.946497  7473 net.cpp:356] loss -> (automatic)
I0330 17:37:59.946508  7473 net.cpp:96] Setting up loss
I0330 17:37:59.946527  7473 net.cpp:103] Top shape: 1 1 1 1 (1)
I0330 17:37:59.946547  7473 net.cpp:109]     with loss weight 1
I0330 17:37:59.946600  7473 net.cpp:170] loss needs backward computation.
I0330 17:37:59.946611  7473 net.cpp:170] fc8_pascal needs backward computation.
I0330 17:37:59.946619  7473 net.cpp:170] fc8_deepfashion_encode needs backward computation.
I0330 17:37:59.946629  7473 net.cpp:170] fc8_deepfashion needs backward computation.
…
I0330 17:37:59.947922  7473 net.cpp:39] Initializing net from parameters: 
name: "deepFashion"
layers {
  top: "data"
  top: "randomshit"
  name: "data"
  type: DATA
  data_param {
    source: "/data/deepfashion/color_label_multilabel/color_label_multilabel_test"
    batch_size: 32
  }
  include {
    phase: TEST
  }
  transform_param {
    mirror: true
    crop_size: 227
    mean_file: "../../../data/ilsvrc12/imagenet_mean.binaryproto"
  }
}
layers {
  top: "labels"
  name: "labels"
  type: DATA
  data_param {
    source: "/data/deepfashion/color_label_multilabel/color_label_multilabel_test_alt"
    batch_size: 32
  }
  include {
    phase: TEST
  }
}
layers {
  bottom: "labels"
  top: "labels0"
  top: "labels1"
  name: "sliceL"
  type: SLICE
  slice_param {
    slice_point: 1
  }
}
layers {
  bottom: "data"
  top: "conv1"
  name: "conv1"
  type: CONVOLUTION
  blobs_lr: 1
  blobs_lr: 2
  weight_decay: 1
  weight_decay: 0
  convolution_param {
    num_output: 96
    kernel_size: 11
    stride: 4
    weight_filler {
      type: "gaussian"
      std: 0.01
    }
    bias_filler {
      type: "constant"
      value: 0
    }
  }
}
layers {
  bottom: "conv1"
  top: "conv1"
  name: "relu1"
  type: RELU
}
layers {
  bottom: "conv1"
  top: "pool1"
  name: "pool1"
  type: POOLING
  pooling_param {
    pool: MAX
    kernel_size: 3
    stride: 2
  }
}
layers {
  bottom: "pool1"
  top: "norm1"
  name: "norm1"
  type: LRN
  lrn_param {
    local_size: 5
    alpha: 0.0001
    beta: 0.75
  }
}
layers {
  bottom: "norm1"
  top: "conv2"
  name: "conv2"
  type: CONVOLUTION
  blobs_lr: 1
  blobs_lr: 2
  weight_decay: 1
  weight_decay: 0
  convolution_param {
    num_output: 256
    pad: 2
    kernel_size: 5
    group: 2
    weight_filler {
      type: "gaussian"
      std: 0.01
    }
    bias_filler {
      type: "constant"
      value: 1
    }
  }
}
layers {
  bottom: "conv2"
  top: "conv2"
  name: "relu2"
  type: RELU
}
layers {
  bottom: "conv2"
  top: "pool2"
  name: "pool2"
  type: POOLING
  pooling_param {
    pool: MAX
    kernel_size: 3
    stride: 2
  }
}
layers {
  bottom: "pool2"
  top: "norm2"
  name: "norm2"
  type: LRN
  lrn_param {
    local_size: 5
    alpha: 0.0001
    beta: 0.75
  }
}
layers {
  bottom: "norm2"
  top: "conv3"
  name: "conv3"
  type: CONVOLUTION
  blobs_lr: 1
  blobs_lr: 2
  weight_decay: 1
  weight_decay: 0
  convolution_param {
    num_output: 384
    pad: 1
    kernel_size: 3
    weight_filler {
      type: "gaussian"
      std: 0.01
    }
    bias_filler {
      type: "constant"
      value: 0
    }
  }
}
layers {
  bottom: "conv3"
  top: "conv3"
  name: "relu3"
  type: RELU
}
layers {
  bottom: "conv3"
  top: "conv4"
  name: "conv4"
  type: CONVOLUTION
  blobs_lr: 1
  blobs_lr: 2
  weight_decay: 1
  weight_decay: 0
  convolution_param {
    num_output: 384
    pad: 1
    kernel_size: 3
    group: 2
    weight_filler {
      type: "gaussian"
      std: 0.01
    }
    bias_filler {
      type: "constant"
      value: 1
    }
  }
}
layers {
  bottom: "conv4"
  top: "conv4"
  name: "relu4"
  type: RELU
}
layers {
  bottom: "conv4"
  top: "conv5"
  name: "conv5"
  type: CONVOLUTION
  blobs_lr: 1
  blobs_lr: 2
  weight_decay: 1
  weight_decay: 0
  convolution_param {
    num_output: 256
    pad: 1
    kernel_size: 3
    group: 2
    weight_filler {
      type: "gaussian"
      std: 0.01
    }
    bias_filler {
      type: "constant"
      value: 1
    }
  }
}
layers {
  bottom: "conv5"
  top: "conv5"
  name: "relu5"
  type: RELU
}
layers {
  bottom: "conv5"
  top: "pool5"
  name: "pool5"
  type: POOLING
  pooling_param {
    pool: MAX
    kernel_size: 3
    stride: 2
  }
}
layers {
  bottom: "pool5"
  top: "fc6"
  name: "fc6"
  type: INNER_PRODUCT
  blobs_lr: 1
  blobs_lr: 2
  weight_decay: 1
  weight_decay: 0
  inner_product_param {
    num_output: 4096
    weight_filler {
      type: "gaussian"
      std: 0.005
    }
    bias_filler {
      type: "constant"
      value: 1
    }
  }
}
layers {
  bottom: "fc6"
  top: "fc6"
  name: "relu6"
  type: RELU
}
layers {
  bottom: "fc6"
  top: "fc6"
  name: "drop6"
  type: DROPOUT
  dropout_param {
    dropout_ratio: 0.5
  }
}
layers {
  bottom: "fc6"
  top: "fc7"
  name: "fc7"
  type: INNER_PRODUCT
  blobs_lr: 1
  blobs_lr: 2
  weight_decay: 1
  weight_decay: 0
  inner_product_param {
    num_output: 4096
    weight_filler {
      type: "gaussian"
      std: 0.005
    }
    bias_filler {
      type: "constant"
      value: 1
    }
  }
}
layers {
  bottom: "fc7"
  top: "fc7"
  name: "relu7"
  type: RELU
}
layers {
  bottom: "fc7"
  top: "fc7"
  name: "drop7"
  type: DROPOUT
  dropout_param {
    dropout_ratio: 0.5
  }
}
layers {
  bottom: "fc7"
  top: "fc8_deepfashion"
  name: "fc8_deepfashion"
  type: INNER_PRODUCT
  blobs_lr: 10
  blobs_lr: 20
  weight_decay: 1
  weight_decay: 0
  inner_product_param {
    num_output: 48
    weight_filler {
      type: "gaussian"
      std: 0.01
    }
    bias_filler {
      type: "constant"
      value: 0
    }
  }
}
layers {
  bottom: "fc8_deepfashion"
  top: "fc8_deepfashion_encode"
  name: "fc8_deepfashion_encode"
  type: SIGMOID
}
layers {
  bottom: "fc8_deepfashion_encode"
  top: "fc8_pascal"
  name: "fc8_pascal"
  type: INNER_PRODUCT
  blobs_lr: 10
  blobs_lr: 20
  weight_decay: 1
  weight_decay: 0
  inner_product_param {
    num_output: 10
    weight_filler {
      type: "gaussian"
      std: 0.01
    }
    bias_filler {
      type: "constant"
      value: 0
    }
  }
}
layers {
  bottom: "fc8_pascal"
  bottom: "labels0"
  name: "loss"
  type: SOFTMAX_LOSS
}
layers {
  bottom: "fc8_pascal"
  bottom: "labels0"
  top: "accuracy"
  name: "accuracy"
  type: ACCURACY
  include {
    phase: TEST
  }
}
state {
  phase: TEST
}
I0330 17:37:59.948125  7473 net.cpp:67] Creating Layer data
I0330 17:37:59.948139  7473 net.cpp:356] data -> data
I0330 17:37:59.948154  7473 net.cpp:356] data -> randomshit
I0330 17:37:59.948166  7473 net.cpp:96] Setting up data
I0330 17:37:59.948176  7473 data_layer.cpp:45] Opening leveldb /data/deepfashion/color_label_multilabel/color_label_multilabel_test
I0330 17:38:05.738451  7473 data_layer.cpp:128] output data size: 32,3,227,227
I0330 17:38:05.738482  7473 base_data_layer.cpp:36] Loading mean file from../../../data/ilsvrc12/imagenet_mean.binaryproto
I0330 17:38:05.741876  7473 net.cpp:103] Top shape: 32 3 227 227 (4946784)
I0330 17:38:05.741906  7473 net.cpp:103] Top shape: 32 1 1 1 (32)
I0330 17:38:05.741927  7473 net.cpp:67] Creating Layer labels
I0330 17:38:05.741936  7473 net.cpp:356] labels -> labels
I0330 17:38:05.741950  7473 net.cpp:96] Setting up labels
I0330 17:38:05.741966  7473 data_layer.cpp:45] Opening leveldb /data/deepfashion/color_label_multilabel/color_label_multilabel_test_alt
I0330 17:38:05.790915  7473 data_layer.cpp:128] output data size: 32,2,1,1
I0330 17:38:05.791363  7473 net.cpp:103] Top shape: 32 2 1 1 (64)
I0330 17:38:05.791389  7473 net.cpp:67] Creating Layer sliceL
I0330 17:38:05.791396  7473 net.cpp:394] sliceL <- labels
I0330 17:38:05.791405  7473 net.cpp:356] sliceL -> labels0
I0330 17:38:05.791424  7473 net.cpp:356] sliceL -> labels1
I0330 17:38:05.791440  7473 net.cpp:96] Setting up sliceL
I0330 17:38:05.791448  7473 net.cpp:103] Top shape: 32 1 1 1 (32)
I0330 17:38:05.791453  7473 net.cpp:103] Top shape: 32 1 1 1 (32)
I0330 17:38:05.791461  7473 net.cpp:67] Creating Layer labels0_sliceL_0_split
I0330 17:38:05.791465  7473 net.cpp:394] labels0_sliceL_0_split <- labels0
I0330 17:38:05.791472  7473 net.cpp:356] labels0_sliceL_0_split -> labels0_sliceL_0_split_0
I0330 17:38:05.791484  7473 net.cpp:356] labels0_sliceL_0_split -> labels0_sliceL_0_split_1
I0330 17:38:05.791496  7473 net.cpp:96] Setting up labels0_sliceL_0_split
I0330 17:38:05.791504  7473 net.cpp:103] Top shape: 32 1 1 1 (32)
I0330 17:38:05.791513  7473 net.cpp:103] Top shape: 32 1 1 1 (32)
I0330 17:38:05.791524  7473 net.cpp:67] Creating Layer conv1
I0330 17:38:05.791532  7473 net.cpp:394] conv1 <- data
I0330 17:38:05.791544  7473 net.cpp:356] conv1 -> conv1
I0330 17:38:05.791556  7473 net.cpp:96] Setting up conv1
I0330 17:38:05.792781  7473 net.cpp:103] Top shape: 32 96 55 55 (9292800)
I0330 17:38:05.792809  7473 net.cpp:67] Creating Layer relu1
I0330 17:38:05.792814  7473 net.cpp:394] relu1 <- conv1
I0330 17:38:05.792821  7473 net.cpp:345] relu1 -> conv1 (in-place)
I0330 17:38:05.792827  7473 net.cpp:96] Setting up relu1
I0330 17:38:05.792835  7473 net.cpp:103] Top shape: 32 96 55 55 (9292800)
I0330 17:38:05.792843  7473 net.cpp:67] Creating Layer pool1
I0330 17:38:05.792847  7473 net.cpp:394] pool1 <- conv1
I0330 17:38:05.792855  7473 net.cpp:356] pool1 -> pool1
I0330 17:38:05.792861  7473 net.cpp:96] Setting up pool1
I0330 17:38:05.792872  7473 net.cpp:103] Top shape: 32 96 27 27 (2239488)
I0330 17:38:05.792882  7473 net.cpp:67] Creating Layer norm1
I0330 17:38:05.792887  7473 net.cpp:394] norm1 <- pool1
I0330 17:38:05.792893  7473 net.cpp:356] norm1 -> norm1
I0330 17:38:05.792901  7473 net.cpp:96] Setting up norm1
I0330 17:38:05.792906  7473 net.cpp:103] Top shape: 32 96 27 27 (2239488)
I0330 17:38:05.792914  7473 net.cpp:67] Creating Layer conv2
I0330 17:38:05.792918  7473 net.cpp:394] conv2 <- norm1
I0330 17:38:05.792925  7473 net.cpp:356] conv2 -> conv2
I0330 17:38:05.792932  7473 net.cpp:96] Setting up conv2
I0330 17:38:05.802968  7473 net.cpp:103] Top shape: 32 256 27 27 (5971968)
I0330 17:38:05.802995  7473 net.cpp:67] Creating Layer relu2
I0330 17:38:05.803001  7473 net.cpp:394] relu2 <- conv2
I0330 17:38:05.803007  7473 net.cpp:345] relu2 -> conv2 (in-place)
I0330 17:38:05.803014  7473 net.cpp:96] Setting up relu2
I0330 17:38:05.803022  7473 net.cpp:103] Top shape: 32 256 27 27 (5971968)
I0330 17:38:05.803030  7473 net.cpp:67] Creating Layer pool2
I0330 17:38:05.803056  7473 net.cpp:394] pool2 <- conv2
I0330 17:38:05.803064  7473 net.cpp:356] pool2 -> pool2
I0330 17:38:05.803072  7473 net.cpp:96] Setting up pool2
I0330 17:38:05.803081  7473 net.cpp:103] Top shape: 32 256 13 13 (1384448)
I0330 17:38:05.803089  7473 net.cpp:67] Creating Layer norm2
I0330 17:38:05.803093  7473 net.cpp:394] norm2 <- pool2
I0330 17:38:05.803098  7473 net.cpp:356] norm2 -> norm2
I0330 17:38:05.803104  7473 net.cpp:96] Setting up norm2
I0330 17:38:05.803109  7473 net.cpp:103] Top shape: 32 256 13 13 (1384448)
I0330 17:38:05.803117  7473 net.cpp:67] Creating Layer conv3
I0330 17:38:05.803122  7473 net.cpp:394] conv3 <- norm2
I0330 17:38:05.803133  7473 net.cpp:356] conv3 -> conv3
I0330 17:38:05.803144  7473 net.cpp:96] Setting up conv3
I0330 17:38:05.831356  7473 net.cpp:103] Top shape: 32 384 13 13 (2076672)
I0330 17:38:05.831382  7473 net.cpp:67] Creating Layer relu3
I0330 17:38:05.831387  7473 net.cpp:394] relu3 <- conv3
I0330 17:38:05.831393  7473 net.cpp:345] relu3 -> conv3 (in-place)
I0330 17:38:05.831400  7473 net.cpp:96] Setting up relu3
I0330 17:38:05.831408  7473 net.cpp:103] Top shape: 32 384 13 13 (2076672)
I0330 17:38:05.831415  7473 net.cpp:67] Creating Layer conv4
I0330 17:38:05.831419  7473 net.cpp:394] conv4 <- conv3
I0330 17:38:05.831426  7473 net.cpp:356] conv4 -> conv4
I0330 17:38:05.831432  7473 net.cpp:96] Setting up conv4
I0330 17:38:05.852627  7473 net.cpp:103] Top shape: 32 384 13 13 (2076672)
I0330 17:38:05.852653  7473 net.cpp:67] Creating Layer relu4
I0330 17:38:05.852658  7473 net.cpp:394] relu4 <- conv4
I0330 17:38:05.852664  7473 net.cpp:345] relu4 -> conv4 (in-place)
I0330 17:38:05.852670  7473 net.cpp:96] Setting up relu4
I0330 17:38:05.852677  7473 net.cpp:103] Top shape: 32 384 13 13 (2076672)
I0330 17:38:05.852686  7473 net.cpp:67] Creating Layer conv5
I0330 17:38:05.852691  7473 net.cpp:394] conv5 <- conv4
I0330 17:38:05.852697  7473 net.cpp:356] conv5 -> conv5
I0330 17:38:05.852705  7473 net.cpp:96] Setting up conv5
I0330 17:38:05.867022  7473 net.cpp:103] Top shape: 32 256 13 13 (1384448)
I0330 17:38:05.867049  7473 net.cpp:67] Creating Layer relu5
I0330 17:38:05.867055  7473 net.cpp:394] relu5 <- conv5
I0330 17:38:05.867063  7473 net.cpp:345] relu5 -> conv5 (in-place)
I0330 17:38:05.867069  7473 net.cpp:96] Setting up relu5
I0330 17:38:05.867075  7473 net.cpp:103] Top shape: 32 256 13 13 (1384448)
I0330 17:38:05.867082  7473 net.cpp:67] Creating Layer pool5
I0330 17:38:05.867087  7473 net.cpp:394] pool5 <- conv5
I0330 17:38:05.867094  7473 net.cpp:356] pool5 -> pool5
I0330 17:38:05.867101  7473 net.cpp:96] Setting up pool5
I0330 17:38:05.867110  7473 net.cpp:103] Top shape: 32 256 6 6 (294912)
I0330 17:38:05.867126  7473 net.cpp:67] Creating Layer fc6
I0330 17:38:05.867131  7473 net.cpp:394] fc6 <- pool5
I0330 17:38:05.867138  7473 net.cpp:356] fc6 -> fc6
I0330 17:38:05.867146  7473 net.cpp:96] Setting up fc6
I0330 17:38:07.096248  7473 net.cpp:103] Top shape: 32 4096 1 1 (131072)
I0330 17:38:07.096307  7473 net.cpp:67] Creating Layer relu6
I0330 17:38:07.096318  7473 net.cpp:394] relu6 <- fc6
I0330 17:38:07.096329  7473 net.cpp:345] relu6 -> fc6 (in-place)
I0330 17:38:07.096339  7473 net.cpp:96] Setting up relu6
I0330 17:38:07.096360  7473 net.cpp:103] Top shape: 32 4096 1 1 (131072)
I0330 17:38:07.096369  7473 net.cpp:67] Creating Layer drop6
I0330 17:38:07.096372  7473 net.cpp:394] drop6 <- fc6
I0330 17:38:07.096379  7473 net.cpp:345] drop6 -> fc6 (in-place)
I0330 17:38:07.096385  7473 net.cpp:96] Setting up drop6
I0330 17:38:07.096390  7473 net.cpp:103] Top shape: 32 4096 1 1 (131072)
I0330 17:38:07.096398  7473 net.cpp:67] Creating Layer fc7
I0330 17:38:07.096402  7473 net.cpp:394] fc7 <- fc6
I0330 17:38:07.096410  7473 net.cpp:356] fc7 -> fc7
I0330 17:38:07.096417  7473 net.cpp:96] Setting up fc7
I0330 17:38:07.631855  7473 net.cpp:103] Top shape: 32 4096 1 1 (131072)
I0330 17:38:07.631909  7473 net.cpp:67] Creating Layer relu7
I0330 17:38:07.631917  7473 net.cpp:394] relu7 <- fc7
I0330 17:38:07.631927  7473 net.cpp:345] relu7 -> fc7 (in-place)
I0330 17:38:07.631964  7473 net.cpp:96] Setting up relu7
I0330 17:38:07.631994  7473 net.cpp:103] Top shape: 32 4096 1 1 (131072)
I0330 17:38:07.632007  7473 net.cpp:67] Creating Layer drop7
I0330 17:38:07.632014  7473 net.cpp:394] drop7 <- fc7
I0330 17:38:07.632019  7473 net.cpp:345] drop7 -> fc7 (in-place)
I0330 17:38:07.632025  7473 net.cpp:96] Setting up drop7
I0330 17:38:07.632030  7473 net.cpp:103] Top shape: 32 4096 1 1 (131072)
I0330 17:38:07.632040  7473 net.cpp:67] Creating Layer fc8_deepfashion
I0330 17:38:07.632043  7473 net.cpp:394] fc8_deepfashion <- fc7
I0330 17:38:07.632053  7473 net.cpp:356] fc8_deepfashion -> fc8_deepfashion
I0330 17:38:07.632062  7473 net.cpp:96] Setting up fc8_deepfashion
I0330 17:38:07.638337  7473 net.cpp:103] Top shape: 32 48 1 1 (1536)
I0330 17:38:07.638360  7473 net.cpp:67] Creating Layer fc8_deepfashion_encode
I0330 17:38:07.638366  7473 net.cpp:394] fc8_deepfashion_encode <- fc8_deepfashion
I0330 17:38:07.638372  7473 net.cpp:356] fc8_deepfashion_encode -> fc8_deepfashion_encode
I0330 17:38:07.638380  7473 net.cpp:96] Setting up fc8_deepfashion_encode
I0330 17:38:07.638388  7473 net.cpp:103] Top shape: 32 48 1 1 (1536)
I0330 17:38:07.638396  7473 net.cpp:67] Creating Layer fc8_pascal
I0330 17:38:07.638401  7473 net.cpp:394] fc8_pascal <- fc8_deepfashion_encode
I0330 17:38:07.638407  7473 net.cpp:356] fc8_pascal -> fc8_pascal
I0330 17:38:07.638414  7473 net.cpp:96] Setting up fc8_pascal
I0330 17:38:07.638438  7473 net.cpp:103] Top shape: 32 10 1 1 (320)
I0330 17:38:07.638458  7473 net.cpp:67] Creating Layer fc8_pascal_fc8_pascal_0_split
I0330 17:38:07.638463  7473 net.cpp:394] fc8_pascal_fc8_pascal_0_split <- fc8_pascal
I0330 17:38:07.638470  7473 net.cpp:356] fc8_pascal_fc8_pascal_0_split -> fc8_pascal_fc8_pascal_0_split_0
I0330 17:38:07.638483  7473 net.cpp:356] fc8_pascal_fc8_pascal_0_split -> fc8_pascal_fc8_pascal_0_split_1
I0330 17:38:07.638496  7473 net.cpp:96] Setting up fc8_pascal_fc8_pascal_0_split
I0330 17:38:07.638502  7473 net.cpp:103] Top shape: 32 10 1 1 (320)
I0330 17:38:07.638506  7473 net.cpp:103] Top shape: 32 10 1 1 (320)
I0330 17:38:07.638514  7473 net.cpp:67] Creating Layer loss
I0330 17:38:07.638517  7473 net.cpp:394] loss <- fc8_pascal_fc8_pascal_0_split_0
I0330 17:38:07.638523  7473 net.cpp:394] loss <- labels0_sliceL_0_split_0
I0330 17:38:07.638530  7473 net.cpp:356] loss -> (automatic)
I0330 17:38:07.638535  7473 net.cpp:96] Setting up loss
I0330 17:38:07.638542  7473 net.cpp:103] Top shape: 1 1 1 1 (1)
I0330 17:38:07.638546  7473 net.cpp:109]     with loss weight 1
I0330 17:38:07.638574  7473 net.cpp:67] Creating Layer accuracy
I0330 17:38:07.638579  7473 net.cpp:394] accuracy <- fc8_pascal_fc8_pascal_0_split_1
I0330 17:38:07.638586  7473 net.cpp:394] accuracy <- labels0_sliceL_0_split_1
I0330 17:38:07.638592  7473 net.cpp:356] accuracy -> accuracy
I0330 17:38:07.638598  7473 net.cpp:96] Setting up accuracy
I0330 17:38:07.638610  7473 net.cpp:103] Top shape: 1 1 1 1 (1)
I0330 17:38:07.638627  7473 net.cpp:172] accuracy does not need backward computation.
I0330 17:38:07.638631  7473 net.cpp:170] loss needs backward computation.
I0330 17:38:07.638636  7473 net.cpp:170] fc8_pascal_fc8_pascal_0_split needs backward computation.
I0330 17:38:07.638640  7473 net.cpp:170] fc8_pascal needs backward computation.
I0330 17:38:07.638645  7473 net.cpp:170] fc8_deepfashion_encode needs backward computation.
…
