…
  top: "data"
  top: "random"
  name: "data"
  type: DATA
  data_param {
    source: "/data/deepfashion/color_label_multilabel/color_label_multilabel_TRAIN"
    batch_size: 32
    backend: LMDB
  }
  include {
    phase: TRAIN
  }
  transform_param {
    mirror: true
    crop_size: 227
    mean_file: "../../../data/ilsvrc12/imagenet_mean.binaryproto"
  }
}
layers {
  top: "labels"
  name: "labels"
  type: DATA
  data_param {
    source: "/data/deepfashion/color_label_multilabel/color_label_multilabel_TRAIN_ALT"
    batch_size: 32
    backend: LMDB
  }
  include {
    phase: TRAIN
  }
}
layers {
  bottom: "labels"
  top: "labels0"
  top: "labels1"
  name: "sliceL"
  type: SLICE
  slice_param {
    slice_point: 1
  }
}
layers {
  bottom: "data"
  top: "conv1"
  name: "conv1"
  type: CONVOLUTION
  blobs_lr: 0
  blobs_lr: 0
  weight_decay: 1
  weight_decay: 0
  convolution_param {
    num_output: 96
    kernel_size: 11
    stride: 4
    weight_filler {
      type: "gaussian"
      std: 0.01
    }
    bias_filler {
      type: "constant"
      value: 0
    }
  }
}
layers {
  bottom: "conv1"
  top: "conv1"
  name: "relu1"
  type: RELU
}
layers {
  bottom: "conv1"
  top: "pool1"
  name: "pool1"
  type: POOLING
  pooling_param {
    pool: MAX
    kernel_size: 3
    stride: 2
  }
}
layers {
  bottom: "pool1"
  top: "norm1"
  name: "norm1"
  type: LRN
  lrn_param {
    local_size: 5
    alpha: 0.0001
    beta: 0.75
  }
}
layers {
  bottom: "norm1"
  top: "conv2"
  name: "conv2"
  type: CONVOLUTION
  blobs_lr: 0
  blobs_lr: 0
  weight_decay: 1
  weight_decay: 0
  convolution_param {
    num_output: 256
    pad: 2
    kernel_size: 5
    group: 2
    weight_filler {
      type: "gaussian"
      std: 0.01
    }
    bias_filler {
      type: "constant"
      value: 1
    }
  }
}
layers {
  bottom: "conv2"
  top: "conv2"
  name: "relu2"
  type: RELU
}
layers {
  bottom: "conv2"
  top: "pool2"
  name: "pool2"
  type: POOLING
  pooling_param {
    pool: MAX
    kernel_size: 3
    stride: 2
  }
}
layers {
  bottom: "pool2"
  top: "norm2"
  name: "norm2"
  type: LRN
  lrn_param {
    local_size: 5
    alpha: 0.0001
    beta: 0.75
  }
}
layers {
  bottom: "norm2"
  top: "conv3"
  name: "conv3"
  type: CONVOLUTION
  blobs_lr: 0
  blobs_lr: 0
  weight_decay: 1
  weight_decay: 0
  convolution_param {
    num_output: 384
    pad: 1
    kernel_size: 3
    weight_filler {
      type: "gaussian"
      std: 0.01
    }
    bias_filler {
      type: "constant"
      value: 0
    }
  }
}
layers {
  bottom: "conv3"
  top: "conv3"
  name: "relu3"
  type: RELU
}
layers {
  bottom: "conv3"
  top: "conv4"
  name: "conv4"
  type: CONVOLUTION
  blobs_lr: 0
  blobs_lr: 0
  weight_decay: 1
  weight_decay: 0
  convolution_param {
    num_output: 384
    pad: 1
    kernel_size: 3
    group: 2
    weight_filler {
      type: "gaussian"
      std: 0.01
    }
    bias_filler {
      type: "constant"
      value: 1
    }
  }
}
layers {
  bottom: "conv4"
  top: "conv4"
  name: "relu4"
  type: RELU
}
layers {
  bottom: "conv4"
  top: "conv5"
  name: "conv5"
  type: CONVOLUTION
  blobs_lr: 0
  blobs_lr: 0
  weight_decay: 1
  weight_decay: 0
  convolution_param {
    num_output: 256
    pad: 1
    kernel_size: 3
    group: 2
    weight_filler {
      type: "gaussian"
      std: 0.01
    }
    bias_filler {
      type: "constant"
      value: 1
    }
  }
}
layers {
  bottom: "conv5"
  top: "conv5"
  name: "relu5"
  type: RELU
}
layers {
  bottom: "conv5"
  top: "pool5"
  name: "pool5"
  type: POOLING
  pooling_param {
    pool: MAX
    kernel_size: 3
    stride: 2
  }
}
layers {
  bottom: "pool5"
  top: "fc6"
  name: "fc6"
  type: INNER_PRODUCT
  blobs_lr: 0
  blobs_lr: 0
  weight_decay: 1
  weight_decay: 0
  inner_product_param {
    num_output: 4096
    weight_filler {
      type: "gaussian"
      std: 0.005
    }
    bias_filler {
      type: "constant"
      value: 1
    }
  }
}
layers {
  bottom: "fc6"
  top: "fc6"
  name: "relu6"
  type: RELU
}
layers {
  bottom: "fc6"
  top: "fc6"
  name: "drop6"
  type: DROPOUT
  dropout_param {
    dropout_ratio: 0.5
  }
}
layers {
  bottom: "fc6"
  top: "fc7"
  name: "fc7"
  type: INNER_PRODUCT
  blobs_lr: 0
  blobs_lr: 0
  weight_decay: 1
  weight_decay: 0
  inner_product_param {
    num_output: 4096
    weight_filler {
      type: "gaussian"
      std: 0.005
    }
    bias_filler {
      type: "constant"
      value: 1
    }
  }
}
layers {
  bottom: "fc7"
  top: "fc7"
  name: "relu7"
  type: RELU
}
layers {
  bottom: "fc7"
  top: "fc7"
  name: "drop7"
  type: DROPOUT
  dropout_param {
    dropout_ratio: 0.5
  }
}
layers {
  bottom: "fc7"
  top: "fc8_deepfashion"
  name: "fc8_deepfashion"
  type: INNER_PRODUCT
  blobs_lr: 0
  blobs_lr: 0
  weight_decay: 1
  weight_decay: 0
  inner_product_param {
    num_output: 48
    weight_filler {
      type: "gaussian"
      std: 0.01
    }
    bias_filler {
      type: "constant"
      value: 0
    }
  }
}
layers {
  bottom: "fc8_deepfashion"
  top: "fc8_deepfashion_encode"
  name: "fc8_deepfashion_encode"
  type: SIGMOID
}
layers {
  bottom: "fc8_deepfashion_encode"
  top: "fc8_pascal_label"
  name: "fc8_pascal_label"
  type: INNER_PRODUCT
  blobs_lr: 0
  blobs_lr: 0
  weight_decay: 1
  weight_decay: 0
  inner_product_param {
    num_output: 10
    weight_filler {
      type: "gaussian"
      std: 0.01
    }
    bias_filler {
      type: "constant"
      value: 0
    }
  }
}
layers {
  bottom: "fc8_deepfashion_encode"
  top: "fc8_pascal_color"
  name: "fc8_pascal_color"
  type: INNER_PRODUCT
  blobs_lr: 10
  blobs_lr: 20
  weight_decay: 1
  weight_decay: 0
  inner_product_param {
    num_output: 16
    weight_filler {
      type: "gaussian"
      std: 0.01
    }
    bias_filler {
      type: "constant"
      value: 0
    }
  }
}
layers {
  bottom: "fc8_pascal_color"
  bottom: "labels1"
  name: "loss"
  type: SOFTMAX_LOSS
}
layers {
  bottom: "labels0"
  bottom: "random"
  bottom: "fc8_pascal_label"
  name: "silence"
  type: SILENCE
}
state {
  phase: TRAIN
}
I0406 06:50:41.336350  6561 net.cpp:67] Creating Layer data
I0406 06:50:41.336364  6561 net.cpp:356] data -> data
I0406 06:50:41.336381  6561 net.cpp:356] data -> random
I0406 06:50:41.336396  6561 net.cpp:96] Setting up data
I0406 06:50:41.336510  6561 data_layer.cpp:68] Opening lmdb /data/deepfashion/color_label_multilabel/color_label_multilabel_TRAIN
I0406 06:50:41.336694  6561 data_layer.cpp:128] output data size: 32,3,227,227
I0406 06:50:41.336701  6561 base_data_layer.cpp:36] Loading mean file from../../../data/ilsvrc12/imagenet_mean.binaryproto
I0406 06:50:41.344250  6561 net.cpp:103] Top shape: 32 3 227 227 (4946784)
I0406 06:50:41.344285  6561 net.cpp:103] Top shape: 32 1 1 1 (32)
I0406 06:50:41.344302  6561 net.cpp:67] Creating Layer labels
I0406 06:50:41.344310  6561 net.cpp:356] labels -> labels
I0406 06:50:41.344323  6561 net.cpp:96] Setting up labels
I0406 06:50:41.344409  6561 data_layer.cpp:68] Opening lmdb /data/deepfashion/color_label_multilabel/color_label_multilabel_TRAIN_ALT
I0406 06:50:41.344434  6561 data_layer.cpp:128] output data size: 32,2,1,1
I0406 06:50:41.344488  6561 net.cpp:103] Top shape: 32 2 1 1 (64)
I0406 06:50:41.344507  6561 net.cpp:67] Creating Layer sliceL
I0406 06:50:41.344527  6561 net.cpp:394] sliceL <- labels
I0406 06:50:41.344539  6561 net.cpp:356] sliceL -> labels0
I0406 06:50:41.344547  6561 net.cpp:356] sliceL -> labels1
I0406 06:50:41.344557  6561 net.cpp:96] Setting up sliceL
I0406 06:50:41.344565  6561 net.cpp:103] Top shape: 32 1 1 1 (32)
I0406 06:50:41.344570  6561 net.cpp:103] Top shape: 32 1 1 1 (32)
I0406 06:50:41.344580  6561 net.cpp:67] Creating Layer conv1
I0406 06:50:41.344583  6561 net.cpp:394] conv1 <- data
I0406 06:50:41.344594  6561 net.cpp:356] conv1 -> conv1
I0406 06:50:41.344601  6561 net.cpp:96] Setting up conv1
I0406 06:50:41.367030  6561 net.cpp:103] Top shape: 32 96 55 55 (9292800)
I0406 06:50:41.367089  6561 net.cpp:67] Creating Layer relu1
I0406 06:50:41.367097  6561 net.cpp:394] relu1 <- conv1
I0406 06:50:41.367105  6561 net.cpp:345] relu1 -> conv1 (in-place)
I0406 06:50:41.367115  6561 net.cpp:96] Setting up relu1
I0406 06:50:41.367125  6561 net.cpp:103] Top shape: 32 96 55 55 (9292800)
I0406 06:50:41.367136  6561 net.cpp:67] Creating Layer pool1
I0406 06:50:41.367141  6561 net.cpp:394] pool1 <- conv1
I0406 06:50:41.367146  6561 net.cpp:356] pool1 -> pool1
I0406 06:50:41.367153  6561 net.cpp:96] Setting up pool1
I0406 06:50:41.367177  6561 net.cpp:103] Top shape: 32 96 27 27 (2239488)
I0406 06:50:41.367194  6561 net.cpp:67] Creating Layer norm1
I0406 06:50:41.367199  6561 net.cpp:394] norm1 <- pool1
I0406 06:50:41.367204  6561 net.cpp:356] norm1 -> norm1
I0406 06:50:41.367211  6561 net.cpp:96] Setting up norm1
I0406 06:50:41.367218  6561 net.cpp:103] Top shape: 32 96 27 27 (2239488)
I0406 06:50:41.367229  6561 net.cpp:67] Creating Layer conv2
I0406 06:50:41.367236  6561 net.cpp:394] conv2 <- norm1
I0406 06:50:41.367241  6561 net.cpp:356] conv2 -> conv2
I0406 06:50:41.367249  6561 net.cpp:96] Setting up conv2
I0406 06:50:41.377483  6561 net.cpp:103] Top shape: 32 256 27 27 (5971968)
I0406 06:50:41.377509  6561 net.cpp:67] Creating Layer relu2
I0406 06:50:41.377516  6561 net.cpp:394] relu2 <- conv2
I0406 06:50:41.377523  6561 net.cpp:345] relu2 -> conv2 (in-place)
I0406 06:50:41.377531  6561 net.cpp:96] Setting up relu2
I0406 06:50:41.377537  6561 net.cpp:103] Top shape: 32 256 27 27 (5971968)
I0406 06:50:41.377547  6561 net.cpp:67] Creating Layer pool2
I0406 06:50:41.377550  6561 net.cpp:394] pool2 <- conv2
I0406 06:50:41.377557  6561 net.cpp:356] pool2 -> pool2
I0406 06:50:41.377562  6561 net.cpp:96] Setting up pool2
I0406 06:50:41.377570  6561 net.cpp:103] Top shape: 32 256 13 13 (1384448)
I0406 06:50:41.377578  6561 net.cpp:67] Creating Layer norm2
I0406 06:50:41.377583  6561 net.cpp:394] norm2 <- pool2
I0406 06:50:41.377588  6561 net.cpp:356] norm2 -> norm2
I0406 06:50:41.377593  6561 net.cpp:96] Setting up norm2
I0406 06:50:41.377599  6561 net.cpp:103] Top shape: 32 256 13 13 (1384448)
I0406 06:50:41.377604  6561 net.cpp:67] Creating Layer conv3
I0406 06:50:41.377609  6561 net.cpp:394] conv3 <- norm2
I0406 06:50:41.377615  6561 net.cpp:356] conv3 -> conv3
I0406 06:50:41.377622  6561 net.cpp:96] Setting up conv3
I0406 06:50:41.406489  6561 net.cpp:103] Top shape: 32 384 13 13 (2076672)
I0406 06:50:41.406513  6561 net.cpp:67] Creating Layer relu3
I0406 06:50:41.406519  6561 net.cpp:394] relu3 <- conv3
I0406 06:50:41.406527  6561 net.cpp:345] relu3 -> conv3 (in-place)
I0406 06:50:41.406533  6561 net.cpp:96] Setting up relu3
I0406 06:50:41.406540  6561 net.cpp:103] Top shape: 32 384 13 13 (2076672)
I0406 06:50:41.406548  6561 net.cpp:67] Creating Layer conv4
I0406 06:50:41.406551  6561 net.cpp:394] conv4 <- conv3
I0406 06:50:41.406556  6561 net.cpp:356] conv4 -> conv4
I0406 06:50:41.406563  6561 net.cpp:96] Setting up conv4
I0406 06:50:41.428611  6561 net.cpp:103] Top shape: 32 384 13 13 (2076672)
I0406 06:50:41.428637  6561 net.cpp:67] Creating Layer relu4
I0406 06:50:41.428643  6561 net.cpp:394] relu4 <- conv4
I0406 06:50:41.428652  6561 net.cpp:345] relu4 -> conv4 (in-place)
I0406 06:50:41.428678  6561 net.cpp:96] Setting up relu4
I0406 06:50:41.428685  6561 net.cpp:103] Top shape: 32 384 13 13 (2076672)
I0406 06:50:41.428694  6561 net.cpp:67] Creating Layer conv5
I0406 06:50:41.428697  6561 net.cpp:394] conv5 <- conv4
I0406 06:50:41.428705  6561 net.cpp:356] conv5 -> conv5
I0406 06:50:41.428712  6561 net.cpp:96] Setting up conv5
I0406 06:50:41.443380  6561 net.cpp:103] Top shape: 32 256 13 13 (1384448)
I0406 06:50:41.443406  6561 net.cpp:67] Creating Layer relu5
I0406 06:50:41.443413  6561 net.cpp:394] relu5 <- conv5
I0406 06:50:41.443420  6561 net.cpp:345] relu5 -> conv5 (in-place)
I0406 06:50:41.443428  6561 net.cpp:96] Setting up relu5
I0406 06:50:41.443434  6561 net.cpp:103] Top shape: 32 256 13 13 (1384448)
I0406 06:50:41.443439  6561 net.cpp:67] Creating Layer pool5
I0406 06:50:41.443444  6561 net.cpp:394] pool5 <- conv5
I0406 06:50:41.443450  6561 net.cpp:356] pool5 -> pool5
I0406 06:50:41.443457  6561 net.cpp:96] Setting up pool5
I0406 06:50:41.443464  6561 net.cpp:103] Top shape: 32 256 6 6 (294912)
I0406 06:50:41.443472  6561 net.cpp:67] Creating Layer fc6
I0406 06:50:41.443476  6561 net.cpp:394] fc6 <- pool5
I0406 06:50:41.443482  6561 net.cpp:356] fc6 -> fc6
I0406 06:50:41.443488  6561 net.cpp:96] Setting up fc6
I0406 06:50:42.664142  6561 net.cpp:103] Top shape: 32 4096 1 1 (131072)
I0406 06:50:42.664196  6561 net.cpp:67] Creating Layer relu6
I0406 06:50:42.664204  6561 net.cpp:394] relu6 <- fc6
I0406 06:50:42.664216  6561 net.cpp:345] relu6 -> fc6 (in-place)
I0406 06:50:42.664224  6561 net.cpp:96] Setting up relu6
I0406 06:50:42.664247  6561 net.cpp:103] Top shape: 32 4096 1 1 (131072)
I0406 06:50:42.664253  6561 net.cpp:67] Creating Layer drop6
I0406 06:50:42.664258  6561 net.cpp:394] drop6 <- fc6
I0406 06:50:42.664266  6561 net.cpp:345] drop6 -> fc6 (in-place)
I0406 06:50:42.664273  6561 net.cpp:96] Setting up drop6
I0406 06:50:42.664283  6561 net.cpp:103] Top shape: 32 4096 1 1 (131072)
I0406 06:50:42.664297  6561 net.cpp:67] Creating Layer fc7
I0406 06:50:42.664302  6561 net.cpp:394] fc7 <- fc6
I0406 06:50:42.664311  6561 net.cpp:356] fc7 -> fc7
I0406 06:50:42.664321  6561 net.cpp:96] Setting up fc7
I0406 06:50:43.212303  6561 net.cpp:103] Top shape: 32 4096 1 1 (131072)
I0406 06:50:43.212359  6561 net.cpp:67] Creating Layer relu7
I0406 06:50:43.212368  6561 net.cpp:394] relu7 <- fc7
I0406 06:50:43.212375  6561 net.cpp:345] relu7 -> fc7 (in-place)
I0406 06:50:43.212385  6561 net.cpp:96] Setting up relu7
I0406 06:50:43.212409  6561 net.cpp:103] Top shape: 32 4096 1 1 (131072)
I0406 06:50:43.212415  6561 net.cpp:67] Creating Layer drop7
I0406 06:50:43.212419  6561 net.cpp:394] drop7 <- fc7
I0406 06:50:43.212427  6561 net.cpp:345] drop7 -> fc7 (in-place)
I0406 06:50:43.212433  6561 net.cpp:96] Setting up drop7
I0406 06:50:43.212437  6561 net.cpp:103] Top shape: 32 4096 1 1 (131072)
I0406 06:50:43.212445  6561 net.cpp:67] Creating Layer fc8_deepfashion
I0406 06:50:43.212450  6561 net.cpp:394] fc8_deepfashion <- fc7
I0406 06:50:43.212460  6561 net.cpp:356] fc8_deepfashion -> fc8_deepfashion
I0406 06:50:43.212467  6561 net.cpp:96] Setting up fc8_deepfashion
I0406 06:50:43.218963  6561 net.cpp:103] Top shape: 32 48 1 1 (1536)
I0406 06:50:43.218983  6561 net.cpp:67] Creating Layer fc8_deepfashion_encode
I0406 06:50:43.218989  6561 net.cpp:394] fc8_deepfashion_encode <- fc8_deepfashion
I0406 06:50:43.218997  6561 net.cpp:356] fc8_deepfashion_encode -> fc8_deepfashion_encode
I0406 06:50:43.219004  6561 net.cpp:96] Setting up fc8_deepfashion_encode
I0406 06:50:43.219017  6561 net.cpp:103] Top shape: 32 48 1 1 (1536)
I0406 06:50:43.219023  6561 net.cpp:67] Creating Layer fc8_deepfashion_encode_fc8_deepfashion_encode_0_split
I0406 06:50:43.219028  6561 net.cpp:394] fc8_deepfashion_encode_fc8_deepfashion_encode_0_split <- fc8_deepfashion_encode
I0406 06:50:43.219035  6561 net.cpp:356] fc8_deepfashion_encode_fc8_deepfashion_encode_0_split -> fc8_deepfashion_encode_fc8_deepfashion_encode_0_split_0
I0406 06:50:43.219041  6561 net.cpp:356] fc8_deepfashion_encode_fc8_deepfashion_encode_0_split -> fc8_deepfashion_encode_fc8_deepfashion_encode_0_split_1
I0406 06:50:43.219079  6561 net.cpp:96] Setting up fc8_deepfashion_encode_fc8_deepfashion_encode_0_split
I0406 06:50:43.219087  6561 net.cpp:103] Top shape: 32 48 1 1 (1536)
I0406 06:50:43.219092  6561 net.cpp:103] Top shape: 32 48 1 1 (1536)
I0406 06:50:43.219099  6561 net.cpp:67] Creating Layer fc8_pascal_label
I0406 06:50:43.219108  6561 net.cpp:394] fc8_pascal_label <- fc8_deepfashion_encode_fc8_deepfashion_encode_0_split_0
I0406 06:50:43.219115  6561 net.cpp:356] fc8_pascal_label -> fc8_pascal_label
I0406 06:50:43.219121  6561 net.cpp:96] Setting up fc8_pascal_label
I0406 06:50:43.219148  6561 net.cpp:103] Top shape: 32 10 1 1 (320)
I0406 06:50:43.219175  6561 net.cpp:67] Creating Layer fc8_pascal_color
I0406 06:50:43.219182  6561 net.cpp:394] fc8_pascal_color <- fc8_deepfashion_encode_fc8_deepfashion_encode_0_split_1
I0406 06:50:43.219188  6561 net.cpp:356] fc8_pascal_color -> fc8_pascal_color
I0406 06:50:43.219194  6561 net.cpp:96] Setting up fc8_pascal_color
I0406 06:50:43.219231  6561 net.cpp:103] Top shape: 32 16 1 1 (512)
I0406 06:50:43.219249  6561 net.cpp:67] Creating Layer loss
I0406 06:50:43.219254  6561 net.cpp:394] loss <- fc8_pascal_color
I0406 06:50:43.219262  6561 net.cpp:394] loss <- labels1
I0406 06:50:43.219269  6561 net.cpp:356] loss -> (automatic)
I0406 06:50:43.219280  6561 net.cpp:96] Setting up loss
I0406 06:50:43.219292  6561 net.cpp:103] Top shape: 1 1 1 1 (1)
I0406 06:50:43.219300  6561 net.cpp:109]     with loss weight 1
I0406 06:50:43.219357  6561 net.cpp:67] Creating Layer silence
I0406 06:50:43.219362  6561 net.cpp:394] silence <- labels0
I0406 06:50:43.219367  6561 net.cpp:394] silence <- random
I0406 06:50:43.219372  6561 net.cpp:394] silence <- fc8_pascal_label
I0406 06:50:43.219375  6561 net.cpp:96] Setting up silence
I0406 06:50:43.219383  6561 net.cpp:172] silence does not need backward computation.
…
layers {
  top: "data"
  top: "random"
  name: "data"
  type: DATA
  data_param {
    source: "/data/deepfashion/color_label_multilabel/color_label_multilabel_test"
    batch_size: 32
    backend: LMDB
  }
  include {
    phase: TEST
  }
  transform_param {
    mirror: true
    crop_size: 227
    mean_file: "../../../data/ilsvrc12/imagenet_mean.binaryproto"
  }
}
layers {
  top: "labels"
  name: "labels"
  type: DATA
  data_param {
    source: "/data/deepfashion/color_label_multilabel/color_label_multilabel_test_alt"
    batch_size: 32
    backend: LMDB
  }
  include {
    phase: TEST
  }
}
layers {
  bottom: "labels"
  top: "labels0"
  top: "labels1"
  name: "sliceL"
  type: SLICE
  slice_param {
    slice_point: 1
  }
}
layers {
  bottom: "data"
  top: "conv1"
  name: "conv1"
  type: CONVOLUTION
  blobs_lr: 0
  blobs_lr: 0
  weight_decay: 1
  weight_decay: 0
  convolution_param {
    num_output: 96
    kernel_size: 11
    stride: 4
    weight_filler {
      type: "gaussian"
      std: 0.01
    }
    bias_filler {
      type: "constant"
      value: 0
    }
  }
}
layers {
  bottom: "conv1"
  top: "conv1"
  name: "relu1"
  type: RELU
}
layers {
  bottom: "conv1"
  top: "pool1"
  name: "pool1"
  type: POOLING
  pooling_param {
    pool: MAX
    kernel_size: 3
    stride: 2
  }
}
layers {
  bottom: "pool1"
  top: "norm1"
  name: "norm1"
  type: LRN
  lrn_param {
    local_size: 5
    alpha: 0.0001
    beta: 0.75
  }
}
layers {
  bottom: "norm1"
  top: "conv2"
  name: "conv2"
  type: CONVOLUTION
  blobs_lr: 0
  blobs_lr: 0
  weight_decay: 1
  weight_decay: 0
  convolution_param {
    num_output: 256
    pad: 2
    kernel_size: 5
    group: 2
    weight_filler {
      type: "gaussian"
      std: 0.01
    }
    bias_filler {
      type: "constant"
      value: 1
    }
  }
}
layers {
  bottom: "conv2"
  top: "conv2"
  name: "relu2"
  type: RELU
}
layers {
  bottom: "conv2"
  top: "pool2"
  name: "pool2"
  type: POOLING
  pooling_param {
    pool: MAX
    kernel_size: 3
    stride: 2
  }
}
layers {
  bottom: "pool2"
  top: "norm2"
  name: "norm2"
  type: LRN
  lrn_param {
    local_size: 5
    alpha: 0.0001
    beta: 0.75
  }
}
layers {
  bottom: "norm2"
  top: "conv3"
  name: "conv3"
  type: CONVOLUTION
  blobs_lr: 0
  blobs_lr: 0
  weight_decay: 1
  weight_decay: 0
  convolution_param {
    num_output: 384
    pad: 1
    kernel_size: 3
    weight_filler {
      type: "gaussian"
      std: 0.01
    }
    bias_filler {
      type: "constant"
      value: 0
    }
  }
}
layers {
  bottom: "conv3"
  top: "conv3"
  name: "relu3"
  type: RELU
}
layers {
  bottom: "conv3"
  top: "conv4"
  name: "conv4"
  type: CONVOLUTION
  blobs_lr: 0
  blobs_lr: 0
  weight_decay: 1
  weight_decay: 0
  convolution_param {
    num_output: 384
    pad: 1
    kernel_size: 3
    group: 2
    weight_filler {
      type: "gaussian"
      std: 0.01
    }
    bias_filler {
      type: "constant"
      value: 1
    }
  }
}
layers {
  bottom: "conv4"
  top: "conv4"
  name: "relu4"
  type: RELU
}
layers {
  bottom: "conv4"
  top: "conv5"
  name: "conv5"
  type: CONVOLUTION
  blobs_lr: 0
  blobs_lr: 0
  weight_decay: 1
  weight_decay: 0
  convolution_param {
    num_output: 256
    pad: 1
    kernel_size: 3
    group: 2
    weight_filler {
      type: "gaussian"
      std: 0.01
    }
    bias_filler {
      type: "constant"
      value: 1
    }
  }
}
layers {
  bottom: "conv5"
  top: "conv5"
  name: "relu5"
  type: RELU
}
layers {
  bottom: "conv5"
  top: "pool5"
  name: "pool5"
  type: POOLING
  pooling_param {
    pool: MAX
    kernel_size: 3
    stride: 2
  }
}
layers {
  bottom: "pool5"
  top: "fc6"
  name: "fc6"
  type: INNER_PRODUCT
  blobs_lr: 0
  blobs_lr: 0
  weight_decay: 1
  weight_decay: 0
  inner_product_param {
    num_output: 4096
    weight_filler {
      type: "gaussian"
      std: 0.005
    }
    bias_filler {
      type: "constant"
      value: 1
    }
  }
}
layers {
  bottom: "fc6"
  top: "fc6"
  name: "relu6"
  type: RELU
}
layers {
  bottom: "fc6"
  top: "fc6"
  name: "drop6"
  type: DROPOUT
  dropout_param {
    dropout_ratio: 0.5
  }
}
layers {
  bottom: "fc6"
  top: "fc7"
  name: "fc7"
  type: INNER_PRODUCT
  blobs_lr: 0
  blobs_lr: 0
  weight_decay: 1
  weight_decay: 0
  inner_product_param {
    num_output: 4096
    weight_filler {
      type: "gaussian"
      std: 0.005
    }
    bias_filler {
      type: "constant"
      value: 1
    }
  }
}
layers {
  bottom: "fc7"
  top: "fc7"
  name: "relu7"
  type: RELU
}
layers {
  bottom: "fc7"
  top: "fc7"
  name: "drop7"
  type: DROPOUT
  dropout_param {
    dropout_ratio: 0.5
  }
}
layers {
  bottom: "fc7"
  top: "fc8_deepfashion"
  name: "fc8_deepfashion"
  type: INNER_PRODUCT
  blobs_lr: 0
  blobs_lr: 0
  weight_decay: 1
  weight_decay: 0
  inner_product_param {
    num_output: 48
    weight_filler {
      type: "gaussian"
      std: 0.01
    }
    bias_filler {
      type: "constant"
      value: 0
    }
  }
}
layers {
  bottom: "fc8_deepfashion"
  top: "fc8_deepfashion_encode"
  name: "fc8_deepfashion_encode"
  type: SIGMOID
}
layers {
  bottom: "fc8_deepfashion_encode"
  top: "fc8_pascal_label"
  name: "fc8_pascal_label"
  type: INNER_PRODUCT
  blobs_lr: 0
  blobs_lr: 0
  weight_decay: 1
  weight_decay: 0
  inner_product_param {
    num_output: 10
    weight_filler {
      type: "gaussian"
      std: 0.01
    }
    bias_filler {
      type: "constant"
      value: 0
    }
  }
}
layers {
  bottom: "fc8_deepfashion_encode"
  top: "fc8_pascal_color"
  name: "fc8_pascal_color"
  type: INNER_PRODUCT
  blobs_lr: 10
  blobs_lr: 20
  weight_decay: 1
  weight_decay: 0
  inner_product_param {
    num_output: 16
    weight_filler {
      type: "gaussian"
      std: 0.01
    }
    bias_filler {
      type: "constant"
      value: 0
    }
  }
}
layers {
  bottom: "fc8_pascal_color"
  bottom: "labels1"
  name: "loss"
  type: SOFTMAX_LOSS
}
layers {
  bottom: "fc8_pascal_color"
  bottom: "labels1"
  top: "accuracy"
  name: "accuracy"
  type: ACCURACY
  include {
    phase: TEST
  }
}
layers {
  bottom: "fc8_pascal_label"
  bottom: "labels0"
  top: "accuracy1"
  name: "accuracy1"
  type: ACCURACY
  include {
    phase: TEST
  }
}
layers {
  bottom: "labels0"
  bottom: "random"
  bottom: "fc8_pascal_label"
  name: "silence"
  type: SILENCE
}
state {
  phase: TEST
}
I0406 06:50:43.220993  6561 net.cpp:67] Creating Layer data
I0406 06:50:43.221001  6561 net.cpp:356] data -> data
I0406 06:50:43.221017  6561 net.cpp:356] data -> random
I0406 06:50:43.221025  6561 net.cpp:96] Setting up data
I0406 06:50:43.221084  6561 data_layer.cpp:68] Opening lmdb /data/deepfashion/color_label_multilabel/color_label_multilabel_test
I0406 06:50:43.221257  6561 data_layer.cpp:128] output data size: 32,3,227,227
I0406 06:50:43.221272  6561 base_data_layer.cpp:36] Loading mean file from../../../data/ilsvrc12/imagenet_mean.binaryproto
I0406 06:50:43.228242  6561 net.cpp:103] Top shape: 32 3 227 227 (4946784)
I0406 06:50:43.228276  6561 net.cpp:103] Top shape: 32 1 1 1 (32)
I0406 06:50:43.228294  6561 net.cpp:67] Creating Layer labels
I0406 06:50:43.228302  6561 net.cpp:356] labels -> labels
I0406 06:50:43.228344  6561 net.cpp:96] Setting up labels
I0406 06:50:43.228420  6561 data_layer.cpp:68] Opening lmdb /data/deepfashion/color_label_multilabel/color_label_multilabel_test_alt
I0406 06:50:43.228440  6561 data_layer.cpp:128] output data size: 32,2,1,1
I0406 06:50:43.228467  6561 net.cpp:103] Top shape: 32 2 1 1 (64)
I0406 06:50:43.228484  6561 net.cpp:67] Creating Layer sliceL
I0406 06:50:43.228489  6561 net.cpp:394] sliceL <- labels
I0406 06:50:43.228497  6561 net.cpp:356] sliceL -> labels0
I0406 06:50:43.228505  6561 net.cpp:356] sliceL -> labels1
I0406 06:50:43.228513  6561 net.cpp:96] Setting up sliceL
I0406 06:50:43.228518  6561 net.cpp:103] Top shape: 32 1 1 1 (32)
I0406 06:50:43.228523  6561 net.cpp:103] Top shape: 32 1 1 1 (32)
I0406 06:50:43.228529  6561 net.cpp:67] Creating Layer labels0_sliceL_0_split
I0406 06:50:43.228533  6561 net.cpp:394] labels0_sliceL_0_split <- labels0
I0406 06:50:43.228540  6561 net.cpp:356] labels0_sliceL_0_split -> labels0_sliceL_0_split_0
I0406 06:50:43.228546  6561 net.cpp:356] labels0_sliceL_0_split -> labels0_sliceL_0_split_1
I0406 06:50:43.228552  6561 net.cpp:96] Setting up labels0_sliceL_0_split
I0406 06:50:43.228557  6561 net.cpp:103] Top shape: 32 1 1 1 (32)
I0406 06:50:43.228560  6561 net.cpp:103] Top shape: 32 1 1 1 (32)
I0406 06:50:43.228566  6561 net.cpp:67] Creating Layer labels1_sliceL_1_split
I0406 06:50:43.228570  6561 net.cpp:394] labels1_sliceL_1_split <- labels1
I0406 06:50:43.228576  6561 net.cpp:356] labels1_sliceL_1_split -> labels1_sliceL_1_split_0
I0406 06:50:43.228582  6561 net.cpp:356] labels1_sliceL_1_split -> labels1_sliceL_1_split_1
I0406 06:50:43.228588  6561 net.cpp:96] Setting up labels1_sliceL_1_split
I0406 06:50:43.228593  6561 net.cpp:103] Top shape: 32 1 1 1 (32)
I0406 06:50:43.228597  6561 net.cpp:103] Top shape: 32 1 1 1 (32)
I0406 06:50:43.228605  6561 net.cpp:67] Creating Layer conv1
I0406 06:50:43.228610  6561 net.cpp:394] conv1 <- data
I0406 06:50:43.228616  6561 net.cpp:356] conv1 -> conv1
I0406 06:50:43.228623  6561 net.cpp:96] Setting up conv1
I0406 06:50:43.229868  6561 net.cpp:103] Top shape: 32 96 55 55 (9292800)
I0406 06:50:43.229893  6561 net.cpp:67] Creating Layer relu1
I0406 06:50:43.229899  6561 net.cpp:394] relu1 <- conv1
I0406 06:50:43.229905  6561 net.cpp:345] relu1 -> conv1 (in-place)
I0406 06:50:43.229912  6561 net.cpp:96] Setting up relu1
I0406 06:50:43.229918  6561 net.cpp:103] Top shape: 32 96 55 55 (9292800)
I0406 06:50:43.229926  6561 net.cpp:67] Creating Layer pool1
I0406 06:50:43.229931  6561 net.cpp:394] pool1 <- conv1
I0406 06:50:43.229936  6561 net.cpp:356] pool1 -> pool1
I0406 06:50:43.229943  6561 net.cpp:96] Setting up pool1
I0406 06:50:43.229953  6561 net.cpp:103] Top shape: 32 96 27 27 (2239488)
I0406 06:50:43.229960  6561 net.cpp:67] Creating Layer norm1
I0406 06:50:43.229964  6561 net.cpp:394] norm1 <- pool1
I0406 06:50:43.229970  6561 net.cpp:356] norm1 -> norm1
I0406 06:50:43.229976  6561 net.cpp:96] Setting up norm1
I0406 06:50:43.229981  6561 net.cpp:103] Top shape: 32 96 27 27 (2239488)
I0406 06:50:43.229987  6561 net.cpp:67] Creating Layer conv2
I0406 06:50:43.229991  6561 net.cpp:394] conv2 <- norm1
I0406 06:50:43.229998  6561 net.cpp:356] conv2 -> conv2
I0406 06:50:43.230005  6561 net.cpp:96] Setting up conv2
I0406 06:50:43.240214  6561 net.cpp:103] Top shape: 32 256 27 27 (5971968)
I0406 06:50:43.240258  6561 net.cpp:67] Creating Layer relu2
I0406 06:50:43.240265  6561 net.cpp:394] relu2 <- conv2
I0406 06:50:43.240274  6561 net.cpp:345] relu2 -> conv2 (in-place)
I0406 06:50:43.240283  6561 net.cpp:96] Setting up relu2
I0406 06:50:43.240290  6561 net.cpp:103] Top shape: 32 256 27 27 (5971968)
I0406 06:50:43.240298  6561 net.cpp:67] Creating Layer pool2
I0406 06:50:43.240301  6561 net.cpp:394] pool2 <- conv2
I0406 06:50:43.240309  6561 net.cpp:356] pool2 -> pool2
I0406 06:50:43.240316  6561 net.cpp:96] Setting up pool2
I0406 06:50:43.240325  6561 net.cpp:103] Top shape: 32 256 13 13 (1384448)
I0406 06:50:43.240332  6561 net.cpp:67] Creating Layer norm2
I0406 06:50:43.240336  6561 net.cpp:394] norm2 <- pool2
I0406 06:50:43.240360  6561 net.cpp:356] norm2 -> norm2
I0406 06:50:43.240366  6561 net.cpp:96] Setting up norm2
I0406 06:50:43.240373  6561 net.cpp:103] Top shape: 32 256 13 13 (1384448)
I0406 06:50:43.240381  6561 net.cpp:67] Creating Layer conv3
I0406 06:50:43.240386  6561 net.cpp:394] conv3 <- norm2
I0406 06:50:43.240392  6561 net.cpp:356] conv3 -> conv3
I0406 06:50:43.240399  6561 net.cpp:96] Setting up conv3
I0406 06:50:43.269729  6561 net.cpp:103] Top shape: 32 384 13 13 (2076672)
I0406 06:50:43.269800  6561 net.cpp:67] Creating Layer relu3
I0406 06:50:43.269814  6561 net.cpp:394] relu3 <- conv3
I0406 06:50:43.269829  6561 net.cpp:345] relu3 -> conv3 (in-place)
I0406 06:50:43.269842  6561 net.cpp:96] Setting up relu3
I0406 06:50:43.269855  6561 net.cpp:103] Top shape: 32 384 13 13 (2076672)
I0406 06:50:43.269878  6561 net.cpp:67] Creating Layer conv4
I0406 06:50:43.269886  6561 net.cpp:394] conv4 <- conv3
I0406 06:50:43.269899  6561 net.cpp:356] conv4 -> conv4
I0406 06:50:43.269922  6561 net.cpp:96] Setting up conv4
I0406 06:50:43.291934  6561 net.cpp:103] Top shape: 32 384 13 13 (2076672)
I0406 06:50:43.291961  6561 net.cpp:67] Creating Layer relu4
I0406 06:50:43.291967  6561 net.cpp:394] relu4 <- conv4
I0406 06:50:43.291973  6561 net.cpp:345] relu4 -> conv4 (in-place)
I0406 06:50:43.291980  6561 net.cpp:96] Setting up relu4
I0406 06:50:43.291985  6561 net.cpp:103] Top shape: 32 384 13 13 (2076672)
I0406 06:50:43.291997  6561 net.cpp:67] Creating Layer conv5
I0406 06:50:43.292001  6561 net.cpp:394] conv5 <- conv4
I0406 06:50:43.292009  6561 net.cpp:356] conv5 -> conv5
I0406 06:50:43.292016  6561 net.cpp:96] Setting up conv5
I0406 06:50:43.306856  6561 net.cpp:103] Top shape: 32 256 13 13 (1384448)
I0406 06:50:43.306885  6561 net.cpp:67] Creating Layer relu5
I0406 06:50:43.306891  6561 net.cpp:394] relu5 <- conv5
I0406 06:50:43.306897  6561 net.cpp:345] relu5 -> conv5 (in-place)
I0406 06:50:43.306905  6561 net.cpp:96] Setting up relu5
I0406 06:50:43.306911  6561 net.cpp:103] Top shape: 32 256 13 13 (1384448)
I0406 06:50:43.306918  6561 net.cpp:67] Creating Layer pool5
I0406 06:50:43.306922  6561 net.cpp:394] pool5 <- conv5
I0406 06:50:43.306931  6561 net.cpp:356] pool5 -> pool5
I0406 06:50:43.306937  6561 net.cpp:96] Setting up pool5
I0406 06:50:43.306946  6561 net.cpp:103] Top shape: 32 256 6 6 (294912)
I0406 06:50:43.306956  6561 net.cpp:67] Creating Layer fc6
I0406 06:50:43.306959  6561 net.cpp:394] fc6 <- pool5
I0406 06:50:43.306965  6561 net.cpp:356] fc6 -> fc6
I0406 06:50:43.306972  6561 net.cpp:96] Setting up fc6
I0406 06:50:44.527598  6561 net.cpp:103] Top shape: 32 4096 1 1 (131072)
I0406 06:50:44.527655  6561 net.cpp:67] Creating Layer relu6
I0406 06:50:44.527663  6561 net.cpp:394] relu6 <- fc6
I0406 06:50:44.527674  6561 net.cpp:345] relu6 -> fc6 (in-place)
I0406 06:50:44.527684  6561 net.cpp:96] Setting up relu6
I0406 06:50:44.527707  6561 net.cpp:103] Top shape: 32 4096 1 1 (131072)
I0406 06:50:44.527714  6561 net.cpp:67] Creating Layer drop6
I0406 06:50:44.527719  6561 net.cpp:394] drop6 <- fc6
I0406 06:50:44.527725  6561 net.cpp:345] drop6 -> fc6 (in-place)
I0406 06:50:44.527731  6561 net.cpp:96] Setting up drop6
I0406 06:50:44.527736  6561 net.cpp:103] Top shape: 32 4096 1 1 (131072)
I0406 06:50:44.527745  6561 net.cpp:67] Creating Layer fc7
I0406 06:50:44.527748  6561 net.cpp:394] fc7 <- fc6
I0406 06:50:44.527755  6561 net.cpp:356] fc7 -> fc7
I0406 06:50:44.527762  6561 net.cpp:96] Setting up fc7
I0406 06:50:45.070173  6561 net.cpp:103] Top shape: 32 4096 1 1 (131072)
I0406 06:50:45.070230  6561 net.cpp:67] Creating Layer relu7
I0406 06:50:45.070238  6561 net.cpp:394] relu7 <- fc7
I0406 06:50:45.070247  6561 net.cpp:345] relu7 -> fc7 (in-place)
I0406 06:50:45.070256  6561 net.cpp:96] Setting up relu7
I0406 06:50:45.070279  6561 net.cpp:103] Top shape: 32 4096 1 1 (131072)
I0406 06:50:45.070288  6561 net.cpp:67] Creating Layer drop7
I0406 06:50:45.070293  6561 net.cpp:394] drop7 <- fc7
I0406 06:50:45.070298  6561 net.cpp:345] drop7 -> fc7 (in-place)
I0406 06:50:45.070304  6561 net.cpp:96] Setting up drop7
I0406 06:50:45.070339  6561 net.cpp:103] Top shape: 32 4096 1 1 (131072)
I0406 06:50:45.070349  6561 net.cpp:67] Creating Layer fc8_deepfashion
I0406 06:50:45.070353  6561 net.cpp:394] fc8_deepfashion <- fc7
I0406 06:50:45.070363  6561 net.cpp:356] fc8_deepfashion -> fc8_deepfashion
I0406 06:50:45.070370  6561 net.cpp:96] Setting up fc8_deepfashion
I0406 06:50:45.076885  6561 net.cpp:103] Top shape: 32 48 1 1 (1536)
I0406 06:50:45.076910  6561 net.cpp:67] Creating Layer fc8_deepfashion_encode
I0406 06:50:45.076915  6561 net.cpp:394] fc8_deepfashion_encode <- fc8_deepfashion
I0406 06:50:45.076921  6561 net.cpp:356] fc8_deepfashion_encode -> fc8_deepfashion_encode
I0406 06:50:45.076928  6561 net.cpp:96] Setting up fc8_deepfashion_encode
I0406 06:50:45.076936  6561 net.cpp:103] Top shape: 32 48 1 1 (1536)
I0406 06:50:45.076943  6561 net.cpp:67] Creating Layer fc8_deepfashion_encode_fc8_deepfashion_encode_0_split
I0406 06:50:45.076948  6561 net.cpp:394] fc8_deepfashion_encode_fc8_deepfashion_encode_0_split <- fc8_deepfashion_encode
I0406 06:50:45.076953  6561 net.cpp:356] fc8_deepfashion_encode_fc8_deepfashion_encode_0_split -> fc8_deepfashion_encode_fc8_deepfashion_encode_0_split_0
I0406 06:50:45.076961  6561 net.cpp:356] fc8_deepfashion_encode_fc8_deepfashion_encode_0_split -> fc8_deepfashion_encode_fc8_deepfashion_encode_0_split_1
I0406 06:50:45.076968  6561 net.cpp:96] Setting up fc8_deepfashion_encode_fc8_deepfashion_encode_0_split
I0406 06:50:45.076973  6561 net.cpp:103] Top shape: 32 48 1 1 (1536)
I0406 06:50:45.076977  6561 net.cpp:103] Top shape: 32 48 1 1 (1536)
I0406 06:50:45.076983  6561 net.cpp:67] Creating Layer fc8_pascal_label
I0406 06:50:45.076988  6561 net.cpp:394] fc8_pascal_label <- fc8_deepfashion_encode_fc8_deepfashion_encode_0_split_0
I0406 06:50:45.076995  6561 net.cpp:356] fc8_pascal_label -> fc8_pascal_label
I0406 06:50:45.077002  6561 net.cpp:96] Setting up fc8_pascal_label
I0406 06:50:45.077028  6561 net.cpp:103] Top shape: 32 10 1 1 (320)
I0406 06:50:45.077047  6561 net.cpp:67] Creating Layer fc8_pascal_label_fc8_pascal_label_0_split
I0406 06:50:45.077059  6561 net.cpp:394] fc8_pascal_label_fc8_pascal_label_0_split <- fc8_pascal_label
I0406 06:50:45.077065  6561 net.cpp:356] fc8_pascal_label_fc8_pascal_label_0_split -> fc8_pascal_label_fc8_pascal_label_0_split_0
I0406 06:50:45.077072  6561 net.cpp:356] fc8_pascal_label_fc8_pascal_label_0_split -> fc8_pascal_label_fc8_pascal_label_0_split_1
I0406 06:50:45.077078  6561 net.cpp:96] Setting up fc8_pascal_label_fc8_pascal_label_0_split
I0406 06:50:45.077082  6561 net.cpp:103] Top shape: 32 10 1 1 (320)
I0406 06:50:45.077086  6561 net.cpp:103] Top shape: 32 10 1 1 (320)
I0406 06:50:45.077092  6561 net.cpp:67] Creating Layer fc8_pascal_color
I0406 06:50:45.077096  6561 net.cpp:394] fc8_pascal_color <- fc8_deepfashion_encode_fc8_deepfashion_encode_0_split_1
I0406 06:50:45.077110  6561 net.cpp:356] fc8_pascal_color -> fc8_pascal_color
I0406 06:50:45.077117  6561 net.cpp:96] Setting up fc8_pascal_color
I0406 06:50:45.077153  6561 net.cpp:103] Top shape: 32 16 1 1 (512)
I0406 06:50:45.077175  6561 net.cpp:67] Creating Layer fc8_pascal_color_fc8_pascal_color_0_split
I0406 06:50:45.077180  6561 net.cpp:394] fc8_pascal_color_fc8_pascal_color_0_split <- fc8_pascal_color
I0406 06:50:45.077186  6561 net.cpp:356] fc8_pascal_color_fc8_pascal_color_0_split -> fc8_pascal_color_fc8_pascal_color_0_split_0
I0406 06:50:45.077193  6561 net.cpp:356] fc8_pascal_color_fc8_pascal_color_0_split -> fc8_pascal_color_fc8_pascal_color_0_split_1
I0406 06:50:45.077198  6561 net.cpp:96] Setting up fc8_pascal_color_fc8_pascal_color_0_split
I0406 06:50:45.077203  6561 net.cpp:103] Top shape: 32 16 1 1 (512)
I0406 06:50:45.077206  6561 net.cpp:103] Top shape: 32 16 1 1 (512)
I0406 06:50:45.077219  6561 net.cpp:67] Creating Layer loss
I0406 06:50:45.077224  6561 net.cpp:394] loss <- fc8_pascal_color_fc8_pascal_color_0_split_0
I0406 06:50:45.077229  6561 net.cpp:394] loss <- labels1_sliceL_1_split_0
I0406 06:50:45.077235  6561 net.cpp:356] loss -> (automatic)
I0406 06:50:45.077252  6561 net.cpp:96] Setting up loss
I0406 06:50:45.077261  6561 net.cpp:103] Top shape: 1 1 1 1 (1)
I0406 06:50:45.077268  6561 net.cpp:109]     with loss weight 1
I0406 06:50:45.077289  6561 net.cpp:67] Creating Layer accuracy
I0406 06:50:45.077297  6561 net.cpp:394] accuracy <- fc8_pascal_color_fc8_pascal_color_0_split_1
I0406 06:50:45.077302  6561 net.cpp:394] accuracy <- labels1_sliceL_1_split_1
I0406 06:50:45.077308  6561 net.cpp:356] accuracy -> accuracy
I0406 06:50:45.077318  6561 net.cpp:96] Setting up accuracy
I0406 06:50:45.077329  6561 net.cpp:103] Top shape: 1 1 1 1 (1)
I0406 06:50:45.077335  6561 net.cpp:67] Creating Layer accuracy1
I0406 06:50:45.077339  6561 net.cpp:394] accuracy1 <- fc8_pascal_label_fc8_pascal_label_0_split_0
I0406 06:50:45.077344  6561 net.cpp:394] accuracy1 <- labels0_sliceL_0_split_0
I0406 06:50:45.077350  6561 net.cpp:356] accuracy1 -> accuracy1
I0406 06:50:45.077364  6561 net.cpp:96] Setting up accuracy1
I0406 06:50:45.077368  6561 net.cpp:103] Top shape: 1 1 1 1 (1)
I0406 06:50:45.077375  6561 net.cpp:67] Creating Layer silence
I0406 06:50:45.077379  6561 net.cpp:394] silence <- labels0_sliceL_0_split_1
I0406 06:50:45.077386  6561 net.cpp:394] silence <- random
I0406 06:50:45.077391  6561 net.cpp:394] silence <- fc8_pascal_label_fc8_pascal_label_0_split_1
I0406 06:50:45.077395  6561 net.cpp:96] Setting up silence
I0406 06:50:45.077399  6561 net.cpp:172] silence does not need backward computation.
…
