…
  top: "data"
  top: "random"
  name: "data"
  type: DATA
  data_param {
    source: "/data/deepfashion/color_label_multilabel/color_label_multilabel_TRAIN"
    batch_size: 32
    backend: LMDB
  }
  include {
    phase: TRAIN
  }
  transform_param {
    mirror: true
    crop_size: 227
    mean_file: "../../../data/ilsvrc12/imagenet_mean.binaryproto"
  }
}
layers {
  top: "labels"
  name: "labels"
  type: DATA
  data_param {
    source: "/data/deepfashion/color_label_multilabel/color_label_multilabel_TRAIN_ALT"
    batch_size: 32
    backend: LMDB
  }
  include {
    phase: TRAIN
  }
}
layers {
  bottom: "labels"
  top: "labels0"
  top: "labels1"
  name: "sliceL"
  type: SLICE
  slice_param {
    slice_point: 1
  }
}
layers {
  bottom: "data"
  top: "conv1"
  name: "conv1"
  type: CONVOLUTION
  blobs_lr: 1
  blobs_lr: 2
  weight_decay: 1
  weight_decay: 0
  convolution_param {
    num_output: 96
    kernel_size: 11
    stride: 4
    weight_filler {
      type: "gaussian"
      std: 0.01
    }
    bias_filler {
      type: "constant"
      value: 0
    }
  }
}
layers {
  bottom: "conv1"
  top: "conv1"
  name: "relu1"
  type: RELU
}
layers {
  bottom: "conv1"
  top: "pool1"
  name: "pool1"
  type: POOLING
  pooling_param {
    pool: MAX
    kernel_size: 3
    stride: 2
  }
}
layers {
  bottom: "pool1"
  top: "norm1"
  name: "norm1"
  type: LRN
  lrn_param {
    local_size: 5
    alpha: 0.0001
    beta: 0.75
  }
}
layers {
  bottom: "norm1"
  top: "conv2"
  name: "conv2"
  type: CONVOLUTION
  blobs_lr: 1
  blobs_lr: 2
  weight_decay: 1
  weight_decay: 0
  convolution_param {
    num_output: 256
    pad: 2
    kernel_size: 5
    group: 2
    weight_filler {
      type: "gaussian"
      std: 0.01
    }
    bias_filler {
      type: "constant"
      value: 1
    }
  }
}
layers {
  bottom: "conv2"
  top: "conv2"
  name: "relu2"
  type: RELU
}
layers {
  bottom: "conv2"
  top: "pool2"
  name: "pool2"
  type: POOLING
  pooling_param {
    pool: MAX
    kernel_size: 3
    stride: 2
  }
}
layers {
  bottom: "pool2"
  top: "norm2"
  name: "norm2"
  type: LRN
  lrn_param {
    local_size: 5
    alpha: 0.0001
    beta: 0.75
  }
}
layers {
  bottom: "norm2"
  top: "conv3"
  name: "conv3"
  type: CONVOLUTION
  blobs_lr: 1
  blobs_lr: 2
  weight_decay: 1
  weight_decay: 0
  convolution_param {
    num_output: 384
    pad: 1
    kernel_size: 3
    weight_filler {
      type: "gaussian"
      std: 0.01
    }
    bias_filler {
      type: "constant"
      value: 0
    }
  }
}
layers {
  bottom: "conv3"
  top: "conv3"
  name: "relu3"
  type: RELU
}
layers {
  bottom: "conv3"
  top: "conv4"
  name: "conv4"
  type: CONVOLUTION
  blobs_lr: 1
  blobs_lr: 2
  weight_decay: 1
  weight_decay: 0
  convolution_param {
    num_output: 384
    pad: 1
    kernel_size: 3
    group: 2
    weight_filler {
      type: "gaussian"
      std: 0.01
    }
    bias_filler {
      type: "constant"
      value: 1
    }
  }
}
layers {
  bottom: "conv4"
  top: "conv4"
  name: "relu4"
  type: RELU
}
layers {
  bottom: "conv4"
  top: "conv5"
  name: "conv5"
  type: CONVOLUTION
  blobs_lr: 1
  blobs_lr: 2
  weight_decay: 1
  weight_decay: 0
  convolution_param {
    num_output: 256
    pad: 1
    kernel_size: 3
    group: 2
    weight_filler {
      type: "gaussian"
      std: 0.01
    }
    bias_filler {
      type: "constant"
      value: 1
    }
  }
}
layers {
  bottom: "conv5"
  top: "conv5"
  name: "relu5"
  type: RELU
}
layers {
  bottom: "conv5"
  top: "pool5"
  name: "pool5"
  type: POOLING
  pooling_param {
    pool: MAX
    kernel_size: 3
    stride: 2
  }
}
layers {
  bottom: "pool5"
  top: "fc6"
  name: "fc6"
  type: INNER_PRODUCT
  blobs_lr: 1
  blobs_lr: 2
  weight_decay: 1
  weight_decay: 0
  inner_product_param {
    num_output: 4096
    weight_filler {
      type: "gaussian"
      std: 0.005
    }
    bias_filler {
      type: "constant"
      value: 1
    }
  }
}
layers {
  bottom: "fc6"
  top: "fc6"
  name: "relu6"
  type: RELU
}
layers {
  bottom: "fc6"
  top: "fc6"
  name: "drop6"
  type: DROPOUT
  dropout_param {
    dropout_ratio: 0.5
  }
}
layers {
  bottom: "fc6"
  top: "fc7"
  name: "fc7"
  type: INNER_PRODUCT
  blobs_lr: 1
  blobs_lr: 2
  weight_decay: 1
  weight_decay: 0
  inner_product_param {
    num_output: 4096
    weight_filler {
      type: "gaussian"
      std: 0.005
    }
    bias_filler {
      type: "constant"
      value: 1
    }
  }
}
layers {
  bottom: "fc7"
  top: "fc7"
  name: "relu7"
  type: RELU
}
layers {
  bottom: "fc7"
  top: "fc7"
  name: "drop7"
  type: DROPOUT
  dropout_param {
    dropout_ratio: 0.5
  }
}
layers {
  bottom: "fc7"
  top: "fc8_deepfashion"
  name: "fc8_deepfashion"
  type: INNER_PRODUCT
  blobs_lr: 1
  blobs_lr: 2
  weight_decay: 1
  weight_decay: 0
  inner_product_param {
    num_output: 48
    weight_filler {
      type: "gaussian"
      std: 0.01
    }
    bias_filler {
      type: "constant"
      value: 0
    }
  }
}
layers {
  bottom: "fc8_deepfashion"
  top: "fc8_deepfashion_encode"
  name: "fc8_deepfashion_encode"
  type: SIGMOID
}
layers {
  bottom: "fc8_deepfashion_encode"
  top: "fc8_pascal_label"
  name: "fc8_pascal_label"
  type: INNER_PRODUCT
  blobs_lr: 0
  blobs_lr: 0
  weight_decay: 1
  weight_decay: 0
  inner_product_param {
    num_output: 10
    weight_filler {
      type: "gaussian"
      std: 0.01
    }
    bias_filler {
      type: "constant"
      value: 0
    }
  }
}
layers {
  bottom: "fc8_deepfashion_encode"
  top: "fc8_pascal_color"
  name: "fc8_pascal_color"
  type: INNER_PRODUCT
  blobs_lr: 1
  blobs_lr: 2
  weight_decay: 1
  weight_decay: 0
  inner_product_param {
    num_output: 16
    weight_filler {
      type: "gaussian"
      std: 0.01
    }
    bias_filler {
      type: "constant"
      value: 0
    }
  }
}
layers {
  bottom: "fc8_pascal_color"
  bottom: "labels1"
  name: "loss"
  type: SOFTMAX_LOSS
}
layers {
  bottom: "labels0"
  bottom: "random"
  bottom: "fc8_pascal_label"
  name: "silence"
  type: SILENCE
}
state {
  phase: TRAIN
}
I0406 06:58:45.181861 11267 net.cpp:67] Creating Layer data
I0406 06:58:45.181874 11267 net.cpp:356] data -> data
I0406 06:58:45.181895 11267 net.cpp:356] data -> random
I0406 06:58:45.181911 11267 net.cpp:96] Setting up data
I0406 06:58:45.182023 11267 data_layer.cpp:68] Opening lmdb /data/deepfashion/color_label_multilabel/color_label_multilabel_TRAIN
I0406 06:58:45.182204 11267 data_layer.cpp:128] output data size: 32,3,227,227
I0406 06:58:45.182214 11267 base_data_layer.cpp:36] Loading mean file from../../../data/ilsvrc12/imagenet_mean.binaryproto
I0406 06:58:45.190476 11267 net.cpp:103] Top shape: 32 3 227 227 (4946784)
I0406 06:58:45.190513 11267 net.cpp:103] Top shape: 32 1 1 1 (32)
I0406 06:58:45.190532 11267 net.cpp:67] Creating Layer labels
I0406 06:58:45.190539 11267 net.cpp:356] labels -> labels
I0406 06:58:45.190552 11267 net.cpp:96] Setting up labels
I0406 06:58:45.190681 11267 data_layer.cpp:68] Opening lmdb /data/deepfashion/color_label_multilabel/color_label_multilabel_TRAIN_ALT
I0406 06:58:45.190707 11267 data_layer.cpp:128] output data size: 32,2,1,1
I0406 06:58:45.190774 11267 net.cpp:103] Top shape: 32 2 1 1 (64)
I0406 06:58:45.190793 11267 net.cpp:67] Creating Layer sliceL
I0406 06:58:45.190800 11267 net.cpp:394] sliceL <- labels
I0406 06:58:45.190811 11267 net.cpp:356] sliceL -> labels0
I0406 06:58:45.190820 11267 net.cpp:356] sliceL -> labels1
I0406 06:58:45.190829 11267 net.cpp:96] Setting up sliceL
I0406 06:58:45.190839 11267 net.cpp:103] Top shape: 32 1 1 1 (32)
I0406 06:58:45.190842 11267 net.cpp:103] Top shape: 32 1 1 1 (32)
I0406 06:58:45.190852 11267 net.cpp:67] Creating Layer conv1
I0406 06:58:45.190856 11267 net.cpp:394] conv1 <- data
I0406 06:58:45.190866 11267 net.cpp:356] conv1 -> conv1
I0406 06:58:45.190876 11267 net.cpp:96] Setting up conv1
I0406 06:58:45.213495 11267 net.cpp:103] Top shape: 32 96 55 55 (9292800)
I0406 06:58:45.213552 11267 net.cpp:67] Creating Layer relu1
I0406 06:58:45.213562 11267 net.cpp:394] relu1 <- conv1
I0406 06:58:45.213569 11267 net.cpp:345] relu1 -> conv1 (in-place)
I0406 06:58:45.213579 11267 net.cpp:96] Setting up relu1
I0406 06:58:45.213590 11267 net.cpp:103] Top shape: 32 96 55 55 (9292800)
I0406 06:58:45.213598 11267 net.cpp:67] Creating Layer pool1
I0406 06:58:45.213613 11267 net.cpp:394] pool1 <- conv1
I0406 06:58:45.213621 11267 net.cpp:356] pool1 -> pool1
I0406 06:58:45.213629 11267 net.cpp:96] Setting up pool1
I0406 06:58:45.213654 11267 net.cpp:103] Top shape: 32 96 27 27 (2239488)
I0406 06:58:45.213667 11267 net.cpp:67] Creating Layer norm1
I0406 06:58:45.213672 11267 net.cpp:394] norm1 <- pool1
I0406 06:58:45.213677 11267 net.cpp:356] norm1 -> norm1
I0406 06:58:45.213685 11267 net.cpp:96] Setting up norm1
I0406 06:58:45.213692 11267 net.cpp:103] Top shape: 32 96 27 27 (2239488)
I0406 06:58:45.213701 11267 net.cpp:67] Creating Layer conv2
I0406 06:58:45.213704 11267 net.cpp:394] conv2 <- norm1
I0406 06:58:45.213711 11267 net.cpp:356] conv2 -> conv2
I0406 06:58:45.213719 11267 net.cpp:96] Setting up conv2
I0406 06:58:45.223913 11267 net.cpp:103] Top shape: 32 256 27 27 (5971968)
I0406 06:58:45.223940 11267 net.cpp:67] Creating Layer relu2
I0406 06:58:45.223947 11267 net.cpp:394] relu2 <- conv2
I0406 06:58:45.223953 11267 net.cpp:345] relu2 -> conv2 (in-place)
I0406 06:58:45.223958 11267 net.cpp:96] Setting up relu2
I0406 06:58:45.223964 11267 net.cpp:103] Top shape: 32 256 27 27 (5971968)
I0406 06:58:45.223971 11267 net.cpp:67] Creating Layer pool2
I0406 06:58:45.223975 11267 net.cpp:394] pool2 <- conv2
I0406 06:58:45.223984 11267 net.cpp:356] pool2 -> pool2
I0406 06:58:45.223989 11267 net.cpp:96] Setting up pool2
I0406 06:58:45.223996 11267 net.cpp:103] Top shape: 32 256 13 13 (1384448)
I0406 06:58:45.224005 11267 net.cpp:67] Creating Layer norm2
I0406 06:58:45.224017 11267 net.cpp:394] norm2 <- pool2
I0406 06:58:45.224023 11267 net.cpp:356] norm2 -> norm2
I0406 06:58:45.224030 11267 net.cpp:96] Setting up norm2
I0406 06:58:45.224033 11267 net.cpp:103] Top shape: 32 256 13 13 (1384448)
I0406 06:58:45.224043 11267 net.cpp:67] Creating Layer conv3
I0406 06:58:45.224047 11267 net.cpp:394] conv3 <- norm2
I0406 06:58:45.224052 11267 net.cpp:356] conv3 -> conv3
I0406 06:58:45.224058 11267 net.cpp:96] Setting up conv3
I0406 06:58:45.252907 11267 net.cpp:103] Top shape: 32 384 13 13 (2076672)
I0406 06:58:45.252938 11267 net.cpp:67] Creating Layer relu3
I0406 06:58:45.252943 11267 net.cpp:394] relu3 <- conv3
I0406 06:58:45.252949 11267 net.cpp:345] relu3 -> conv3 (in-place)
I0406 06:58:45.252956 11267 net.cpp:96] Setting up relu3
I0406 06:58:45.252964 11267 net.cpp:103] Top shape: 32 384 13 13 (2076672)
I0406 06:58:45.252971 11267 net.cpp:67] Creating Layer conv4
I0406 06:58:45.252975 11267 net.cpp:394] conv4 <- conv3
I0406 06:58:45.252984 11267 net.cpp:356] conv4 -> conv4
I0406 06:58:45.252990 11267 net.cpp:96] Setting up conv4
I0406 06:58:45.274976 11267 net.cpp:103] Top shape: 32 384 13 13 (2076672)
I0406 06:58:45.275002 11267 net.cpp:67] Creating Layer relu4
I0406 06:58:45.275007 11267 net.cpp:394] relu4 <- conv4
I0406 06:58:45.275014 11267 net.cpp:345] relu4 -> conv4 (in-place)
I0406 06:58:45.275043 11267 net.cpp:96] Setting up relu4
I0406 06:58:45.275050 11267 net.cpp:103] Top shape: 32 384 13 13 (2076672)
I0406 06:58:45.275060 11267 net.cpp:67] Creating Layer conv5
I0406 06:58:45.275068 11267 net.cpp:394] conv5 <- conv4
I0406 06:58:45.275074 11267 net.cpp:356] conv5 -> conv5
I0406 06:58:45.275080 11267 net.cpp:96] Setting up conv5
I0406 06:58:45.289693 11267 net.cpp:103] Top shape: 32 256 13 13 (1384448)
I0406 06:58:45.289724 11267 net.cpp:67] Creating Layer relu5
I0406 06:58:45.289731 11267 net.cpp:394] relu5 <- conv5
I0406 06:58:45.289736 11267 net.cpp:345] relu5 -> conv5 (in-place)
I0406 06:58:45.289742 11267 net.cpp:96] Setting up relu5
I0406 06:58:45.289749 11267 net.cpp:103] Top shape: 32 256 13 13 (1384448)
I0406 06:58:45.289758 11267 net.cpp:67] Creating Layer pool5
I0406 06:58:45.289762 11267 net.cpp:394] pool5 <- conv5
I0406 06:58:45.289767 11267 net.cpp:356] pool5 -> pool5
I0406 06:58:45.289774 11267 net.cpp:96] Setting up pool5
I0406 06:58:45.289783 11267 net.cpp:103] Top shape: 32 256 6 6 (294912)
I0406 06:58:45.289790 11267 net.cpp:67] Creating Layer fc6
I0406 06:58:45.289794 11267 net.cpp:394] fc6 <- pool5
I0406 06:58:45.289803 11267 net.cpp:356] fc6 -> fc6
I0406 06:58:45.289808 11267 net.cpp:96] Setting up fc6
I0406 06:58:46.506606 11267 net.cpp:103] Top shape: 32 4096 1 1 (131072)
I0406 06:58:46.506666 11267 net.cpp:67] Creating Layer relu6
I0406 06:58:46.506675 11267 net.cpp:394] relu6 <- fc6
I0406 06:58:46.506682 11267 net.cpp:345] relu6 -> fc6 (in-place)
I0406 06:58:46.506692 11267 net.cpp:96] Setting up relu6
I0406 06:58:46.506713 11267 net.cpp:103] Top shape: 32 4096 1 1 (131072)
I0406 06:58:46.506721 11267 net.cpp:67] Creating Layer drop6
I0406 06:58:46.506726 11267 net.cpp:394] drop6 <- fc6
I0406 06:58:46.506732 11267 net.cpp:345] drop6 -> fc6 (in-place)
I0406 06:58:46.506739 11267 net.cpp:96] Setting up drop6
I0406 06:58:46.506749 11267 net.cpp:103] Top shape: 32 4096 1 1 (131072)
I0406 06:58:46.506757 11267 net.cpp:67] Creating Layer fc7
I0406 06:58:46.506760 11267 net.cpp:394] fc7 <- fc6
I0406 06:58:46.506767 11267 net.cpp:356] fc7 -> fc7
I0406 06:58:46.506778 11267 net.cpp:96] Setting up fc7
I0406 06:58:47.047921 11267 net.cpp:103] Top shape: 32 4096 1 1 (131072)
I0406 06:58:47.047972 11267 net.cpp:67] Creating Layer relu7
I0406 06:58:47.047981 11267 net.cpp:394] relu7 <- fc7
I0406 06:58:47.047991 11267 net.cpp:345] relu7 -> fc7 (in-place)
I0406 06:58:47.048001 11267 net.cpp:96] Setting up relu7
I0406 06:58:47.048022 11267 net.cpp:103] Top shape: 32 4096 1 1 (131072)
I0406 06:58:47.048028 11267 net.cpp:67] Creating Layer drop7
I0406 06:58:47.048033 11267 net.cpp:394] drop7 <- fc7
I0406 06:58:47.048038 11267 net.cpp:345] drop7 -> fc7 (in-place)
I0406 06:58:47.048043 11267 net.cpp:96] Setting up drop7
I0406 06:58:47.048048 11267 net.cpp:103] Top shape: 32 4096 1 1 (131072)
I0406 06:58:47.048058 11267 net.cpp:67] Creating Layer fc8_deepfashion
I0406 06:58:47.048061 11267 net.cpp:394] fc8_deepfashion <- fc7
I0406 06:58:47.048068 11267 net.cpp:356] fc8_deepfashion -> fc8_deepfashion
I0406 06:58:47.048075 11267 net.cpp:96] Setting up fc8_deepfashion
I0406 06:58:47.054563 11267 net.cpp:103] Top shape: 32 48 1 1 (1536)
I0406 06:58:47.054589 11267 net.cpp:67] Creating Layer fc8_deepfashion_encode
I0406 06:58:47.054594 11267 net.cpp:394] fc8_deepfashion_encode <- fc8_deepfashion
I0406 06:58:47.054600 11267 net.cpp:356] fc8_deepfashion_encode -> fc8_deepfashion_encode
I0406 06:58:47.054606 11267 net.cpp:96] Setting up fc8_deepfashion_encode
I0406 06:58:47.054618 11267 net.cpp:103] Top shape: 32 48 1 1 (1536)
I0406 06:58:47.054630 11267 net.cpp:67] Creating Layer fc8_deepfashion_encode_fc8_deepfashion_encode_0_split
I0406 06:58:47.054636 11267 net.cpp:394] fc8_deepfashion_encode_fc8_deepfashion_encode_0_split <- fc8_deepfashion_encode
I0406 06:58:47.054641 11267 net.cpp:356] fc8_deepfashion_encode_fc8_deepfashion_encode_0_split -> fc8_deepfashion_encode_fc8_deepfashion_encode_0_split_0
I0406 06:58:47.054647 11267 net.cpp:356] fc8_deepfashion_encode_fc8_deepfashion_encode_0_split -> fc8_deepfashion_encode_fc8_deepfashion_encode_0_split_1
I0406 06:58:47.054690 11267 net.cpp:96] Setting up fc8_deepfashion_encode_fc8_deepfashion_encode_0_split
I0406 06:58:47.054700 11267 net.cpp:103] Top shape: 32 48 1 1 (1536)
I0406 06:58:47.054704 11267 net.cpp:103] Top shape: 32 48 1 1 (1536)
I0406 06:58:47.054711 11267 net.cpp:67] Creating Layer fc8_pascal_label
I0406 06:58:47.054716 11267 net.cpp:394] fc8_pascal_label <- fc8_deepfashion_encode_fc8_deepfashion_encode_0_split_0
I0406 06:58:47.054724 11267 net.cpp:356] fc8_pascal_label -> fc8_pascal_label
I0406 06:58:47.054731 11267 net.cpp:96] Setting up fc8_pascal_label
I0406 06:58:47.054764 11267 net.cpp:103] Top shape: 32 10 1 1 (320)
I0406 06:58:47.054788 11267 net.cpp:67] Creating Layer fc8_pascal_color
I0406 06:58:47.054800 11267 net.cpp:394] fc8_pascal_color <- fc8_deepfashion_encode_fc8_deepfashion_encode_0_split_1
I0406 06:58:47.054808 11267 net.cpp:356] fc8_pascal_color -> fc8_pascal_color
I0406 06:58:47.054816 11267 net.cpp:96] Setting up fc8_pascal_color
I0406 06:58:47.054857 11267 net.cpp:103] Top shape: 32 16 1 1 (512)
I0406 06:58:47.054875 11267 net.cpp:67] Creating Layer loss
I0406 06:58:47.054880 11267 net.cpp:394] loss <- fc8_pascal_color
I0406 06:58:47.054885 11267 net.cpp:394] loss <- labels1
I0406 06:58:47.054891 11267 net.cpp:356] loss -> (automatic)
I0406 06:58:47.054896 11267 net.cpp:96] Setting up loss
I0406 06:58:47.054909 11267 net.cpp:103] Top shape: 1 1 1 1 (1)
I0406 06:58:47.054913 11267 net.cpp:109]     with loss weight 1
I0406 06:58:47.054958 11267 net.cpp:67] Creating Layer silence
I0406 06:58:47.054963 11267 net.cpp:394] silence <- labels0
I0406 06:58:47.054968 11267 net.cpp:394] silence <- random
I0406 06:58:47.054973 11267 net.cpp:394] silence <- fc8_pascal_label
I0406 06:58:47.054981 11267 net.cpp:96] Setting up silence
I0406 06:58:47.054988 11267 net.cpp:172] silence does not need backward computation.
…
layers {
  top: "data"
  top: "random"
  name: "data"
  type: DATA
  data_param {
    source: "/data/deepfashion/color_label_multilabel/color_label_multilabel_test"
    batch_size: 32
    backend: LMDB
  }
  include {
    phase: TEST
  }
  transform_param {
    mirror: true
    crop_size: 227
    mean_file: "../../../data/ilsvrc12/imagenet_mean.binaryproto"
  }
}
layers {
  top: "labels"
  name: "labels"
  type: DATA
  data_param {
    source: "/data/deepfashion/color_label_multilabel/color_label_multilabel_test_alt"
    batch_size: 32
    backend: LMDB
  }
  include {
    phase: TEST
  }
}
layers {
  bottom: "labels"
  top: "labels0"
  top: "labels1"
  name: "sliceL"
  type: SLICE
  slice_param {
    slice_point: 1
  }
}
layers {
  bottom: "data"
  top: "conv1"
  name: "conv1"
  type: CONVOLUTION
  blobs_lr: 1
  blobs_lr: 2
  weight_decay: 1
  weight_decay: 0
  convolution_param {
    num_output: 96
    kernel_size: 11
    stride: 4
    weight_filler {
      type: "gaussian"
      std: 0.01
    }
    bias_filler {
      type: "constant"
      value: 0
    }
  }
}
layers {
  bottom: "conv1"
  top: "conv1"
  name: "relu1"
  type: RELU
}
layers {
  bottom: "conv1"
  top: "pool1"
  name: "pool1"
  type: POOLING
  pooling_param {
    pool: MAX
    kernel_size: 3
    stride: 2
  }
}
layers {
  bottom: "pool1"
  top: "norm1"
  name: "norm1"
  type: LRN
  lrn_param {
    local_size: 5
    alpha: 0.0001
    beta: 0.75
  }
}
layers {
  bottom: "norm1"
  top: "conv2"
  name: "conv2"
  type: CONVOLUTION
  blobs_lr: 1
  blobs_lr: 2
  weight_decay: 1
  weight_decay: 0
  convolution_param {
    num_output: 256
    pad: 2
    kernel_size: 5
    group: 2
    weight_filler {
      type: "gaussian"
      std: 0.01
    }
    bias_filler {
      type: "constant"
      value: 1
    }
  }
}
layers {
  bottom: "conv2"
  top: "conv2"
  name: "relu2"
  type: RELU
}
layers {
  bottom: "conv2"
  top: "pool2"
  name: "pool2"
  type: POOLING
  pooling_param {
    pool: MAX
    kernel_size: 3
    stride: 2
  }
}
layers {
  bottom: "pool2"
  top: "norm2"
  name: "norm2"
  type: LRN
  lrn_param {
    local_size: 5
    alpha: 0.0001
    beta: 0.75
  }
}
layers {
  bottom: "norm2"
  top: "conv3"
  name: "conv3"
  type: CONVOLUTION
  blobs_lr: 1
  blobs_lr: 2
  weight_decay: 1
  weight_decay: 0
  convolution_param {
    num_output: 384
    pad: 1
    kernel_size: 3
    weight_filler {
      type: "gaussian"
      std: 0.01
    }
    bias_filler {
      type: "constant"
      value: 0
    }
  }
}
layers {
  bottom: "conv3"
  top: "conv3"
  name: "relu3"
  type: RELU
}
layers {
  bottom: "conv3"
  top: "conv4"
  name: "conv4"
  type: CONVOLUTION
  blobs_lr: 1
  blobs_lr: 2
  weight_decay: 1
  weight_decay: 0
  convolution_param {
    num_output: 384
    pad: 1
    kernel_size: 3
    group: 2
    weight_filler {
      type: "gaussian"
      std: 0.01
    }
    bias_filler {
      type: "constant"
      value: 1
    }
  }
}
layers {
  bottom: "conv4"
  top: "conv4"
  name: "relu4"
  type: RELU
}
layers {
  bottom: "conv4"
  top: "conv5"
  name: "conv5"
  type: CONVOLUTION
  blobs_lr: 1
  blobs_lr: 2
  weight_decay: 1
  weight_decay: 0
  convolution_param {
    num_output: 256
    pad: 1
    kernel_size: 3
    group: 2
    weight_filler {
      type: "gaussian"
      std: 0.01
    }
    bias_filler {
      type: "constant"
      value: 1
    }
  }
}
layers {
  bottom: "conv5"
  top: "conv5"
  name: "relu5"
  type: RELU
}
layers {
  bottom: "conv5"
  top: "pool5"
  name: "pool5"
  type: POOLING
  pooling_param {
    pool: MAX
    kernel_size: 3
    stride: 2
  }
}
layers {
  bottom: "pool5"
  top: "fc6"
  name: "fc6"
  type: INNER_PRODUCT
  blobs_lr: 1
  blobs_lr: 2
  weight_decay: 1
  weight_decay: 0
  inner_product_param {
    num_output: 4096
    weight_filler {
      type: "gaussian"
      std: 0.005
    }
    bias_filler {
      type: "constant"
      value: 1
    }
  }
}
layers {
  bottom: "fc6"
  top: "fc6"
  name: "relu6"
  type: RELU
}
layers {
  bottom: "fc6"
  top: "fc6"
  name: "drop6"
  type: DROPOUT
  dropout_param {
    dropout_ratio: 0.5
  }
}
layers {
  bottom: "fc6"
  top: "fc7"
  name: "fc7"
  type: INNER_PRODUCT
  blobs_lr: 1
  blobs_lr: 2
  weight_decay: 1
  weight_decay: 0
  inner_product_param {
    num_output: 4096
    weight_filler {
      type: "gaussian"
      std: 0.005
    }
    bias_filler {
      type: "constant"
      value: 1
    }
  }
}
layers {
  bottom: "fc7"
  top: "fc7"
  name: "relu7"
  type: RELU
}
layers {
  bottom: "fc7"
  top: "fc7"
  name: "drop7"
  type: DROPOUT
  dropout_param {
    dropout_ratio: 0.5
  }
}
layers {
  bottom: "fc7"
  top: "fc8_deepfashion"
  name: "fc8_deepfashion"
  type: INNER_PRODUCT
  blobs_lr: 1
  blobs_lr: 2
  weight_decay: 1
  weight_decay: 0
  inner_product_param {
    num_output: 48
    weight_filler {
      type: "gaussian"
      std: 0.01
    }
    bias_filler {
      type: "constant"
      value: 0
    }
  }
}
layers {
  bottom: "fc8_deepfashion"
  top: "fc8_deepfashion_encode"
  name: "fc8_deepfashion_encode"
  type: SIGMOID
}
layers {
  bottom: "fc8_deepfashion_encode"
  top: "fc8_pascal_label"
  name: "fc8_pascal_label"
  type: INNER_PRODUCT
  blobs_lr: 0
  blobs_lr: 0
  weight_decay: 1
  weight_decay: 0
  inner_product_param {
    num_output: 10
    weight_filler {
      type: "gaussian"
      std: 0.01
    }
    bias_filler {
      type: "constant"
      value: 0
    }
  }
}
layers {
  bottom: "fc8_deepfashion_encode"
  top: "fc8_pascal_color"
  name: "fc8_pascal_color"
  type: INNER_PRODUCT
  blobs_lr: 1
  blobs_lr: 2
  weight_decay: 1
  weight_decay: 0
  inner_product_param {
    num_output: 16
    weight_filler {
      type: "gaussian"
      std: 0.01
    }
    bias_filler {
      type: "constant"
      value: 0
    }
  }
}
layers {
  bottom: "fc8_pascal_color"
  bottom: "labels1"
  name: "loss"
  type: SOFTMAX_LOSS
}
layers {
  bottom: "fc8_pascal_color"
  bottom: "labels1"
  top: "accuracy"
  name: "accuracy"
  type: ACCURACY
  include {
    phase: TEST
  }
}
layers {
  bottom: "fc8_pascal_label"
  bottom: "labels0"
  top: "accuracy1"
  name: "accuracy1"
  type: ACCURACY
  include {
    phase: TEST
  }
}
layers {
  bottom: "labels0"
  bottom: "random"
  bottom: "fc8_pascal_label"
  name: "silence"
  type: SILENCE
}
state {
  phase: TEST
}
I0406 06:58:47.056357 11267 net.cpp:67] Creating Layer data
I0406 06:58:47.056365 11267 net.cpp:356] data -> data
I0406 06:58:47.056375 11267 net.cpp:356] data -> random
I0406 06:58:47.056381 11267 net.cpp:96] Setting up data
I0406 06:58:47.056437 11267 data_layer.cpp:68] Opening lmdb /data/deepfashion/color_label_multilabel/color_label_multilabel_test
I0406 06:58:47.056609 11267 data_layer.cpp:128] output data size: 32,3,227,227
I0406 06:58:47.056618 11267 base_data_layer.cpp:36] Loading mean file from../../../data/ilsvrc12/imagenet_mean.binaryproto
I0406 06:58:47.063751 11267 net.cpp:103] Top shape: 32 3 227 227 (4946784)
I0406 06:58:47.063782 11267 net.cpp:103] Top shape: 32 1 1 1 (32)
I0406 06:58:47.063801 11267 net.cpp:67] Creating Layer labels
I0406 06:58:47.063808 11267 net.cpp:356] labels -> labels
I0406 06:58:47.063822 11267 net.cpp:96] Setting up labels
I0406 06:58:47.063894 11267 data_layer.cpp:68] Opening lmdb /data/deepfashion/color_label_multilabel/color_label_multilabel_test_alt
I0406 06:58:47.063933 11267 data_layer.cpp:128] output data size: 32,2,1,1
I0406 06:58:47.064652 11267 net.cpp:103] Top shape: 32 2 1 1 (64)
I0406 06:58:47.064672 11267 net.cpp:67] Creating Layer sliceL
I0406 06:58:47.064678 11267 net.cpp:394] sliceL <- labels
I0406 06:58:47.064687 11267 net.cpp:356] sliceL -> labels0
I0406 06:58:47.064694 11267 net.cpp:356] sliceL -> labels1
I0406 06:58:47.064707 11267 net.cpp:96] Setting up sliceL
I0406 06:58:47.064715 11267 net.cpp:103] Top shape: 32 1 1 1 (32)
I0406 06:58:47.064720 11267 net.cpp:103] Top shape: 32 1 1 1 (32)
I0406 06:58:47.064728 11267 net.cpp:67] Creating Layer labels0_sliceL_0_split
I0406 06:58:47.064731 11267 net.cpp:394] labels0_sliceL_0_split <- labels0
I0406 06:58:47.064738 11267 net.cpp:356] labels0_sliceL_0_split -> labels0_sliceL_0_split_0
I0406 06:58:47.064744 11267 net.cpp:356] labels0_sliceL_0_split -> labels0_sliceL_0_split_1
I0406 06:58:47.064750 11267 net.cpp:96] Setting up labels0_sliceL_0_split
I0406 06:58:47.064754 11267 net.cpp:103] Top shape: 32 1 1 1 (32)
I0406 06:58:47.064759 11267 net.cpp:103] Top shape: 32 1 1 1 (32)
I0406 06:58:47.064765 11267 net.cpp:67] Creating Layer labels1_sliceL_1_split
I0406 06:58:47.064769 11267 net.cpp:394] labels1_sliceL_1_split <- labels1
I0406 06:58:47.064774 11267 net.cpp:356] labels1_sliceL_1_split -> labels1_sliceL_1_split_0
I0406 06:58:47.064786 11267 net.cpp:356] labels1_sliceL_1_split -> labels1_sliceL_1_split_1
I0406 06:58:47.064793 11267 net.cpp:96] Setting up labels1_sliceL_1_split
I0406 06:58:47.064798 11267 net.cpp:103] Top shape: 32 1 1 1 (32)
I0406 06:58:47.064802 11267 net.cpp:103] Top shape: 32 1 1 1 (32)
I0406 06:58:47.064811 11267 net.cpp:67] Creating Layer conv1
I0406 06:58:47.064815 11267 net.cpp:394] conv1 <- data
I0406 06:58:47.064822 11267 net.cpp:356] conv1 -> conv1
I0406 06:58:47.064829 11267 net.cpp:96] Setting up conv1
I0406 06:58:47.066071 11267 net.cpp:103] Top shape: 32 96 55 55 (9292800)
I0406 06:58:47.066098 11267 net.cpp:67] Creating Layer relu1
I0406 06:58:47.066103 11267 net.cpp:394] relu1 <- conv1
I0406 06:58:47.066110 11267 net.cpp:345] relu1 -> conv1 (in-place)
I0406 06:58:47.066118 11267 net.cpp:96] Setting up relu1
I0406 06:58:47.066124 11267 net.cpp:103] Top shape: 32 96 55 55 (9292800)
I0406 06:58:47.066133 11267 net.cpp:67] Creating Layer pool1
I0406 06:58:47.066138 11267 net.cpp:394] pool1 <- conv1
I0406 06:58:47.066143 11267 net.cpp:356] pool1 -> pool1
I0406 06:58:47.066149 11267 net.cpp:96] Setting up pool1
I0406 06:58:47.066159 11267 net.cpp:103] Top shape: 32 96 27 27 (2239488)
I0406 06:58:47.066172 11267 net.cpp:67] Creating Layer norm1
I0406 06:58:47.066177 11267 net.cpp:394] norm1 <- pool1
I0406 06:58:47.066182 11267 net.cpp:356] norm1 -> norm1
I0406 06:58:47.066189 11267 net.cpp:96] Setting up norm1
I0406 06:58:47.066195 11267 net.cpp:103] Top shape: 32 96 27 27 (2239488)
I0406 06:58:47.066203 11267 net.cpp:67] Creating Layer conv2
I0406 06:58:47.066206 11267 net.cpp:394] conv2 <- norm1
I0406 06:58:47.066212 11267 net.cpp:356] conv2 -> conv2
I0406 06:58:47.066218 11267 net.cpp:96] Setting up conv2
I0406 06:58:47.076490 11267 net.cpp:103] Top shape: 32 256 27 27 (5971968)
I0406 06:58:47.076529 11267 net.cpp:67] Creating Layer relu2
I0406 06:58:47.076536 11267 net.cpp:394] relu2 <- conv2
I0406 06:58:47.076545 11267 net.cpp:345] relu2 -> conv2 (in-place)
I0406 06:58:47.076551 11267 net.cpp:96] Setting up relu2
I0406 06:58:47.076560 11267 net.cpp:103] Top shape: 32 256 27 27 (5971968)
I0406 06:58:47.076570 11267 net.cpp:67] Creating Layer pool2
I0406 06:58:47.076583 11267 net.cpp:394] pool2 <- conv2
I0406 06:58:47.076591 11267 net.cpp:356] pool2 -> pool2
I0406 06:58:47.076597 11267 net.cpp:96] Setting up pool2
I0406 06:58:47.076606 11267 net.cpp:103] Top shape: 32 256 13 13 (1384448)
I0406 06:58:47.076617 11267 net.cpp:67] Creating Layer norm2
I0406 06:58:47.076623 11267 net.cpp:394] norm2 <- pool2
I0406 06:58:47.076629 11267 net.cpp:356] norm2 -> norm2
I0406 06:58:47.076635 11267 net.cpp:96] Setting up norm2
I0406 06:58:47.076639 11267 net.cpp:103] Top shape: 32 256 13 13 (1384448)
I0406 06:58:47.076673 11267 net.cpp:67] Creating Layer conv3
I0406 06:58:47.076678 11267 net.cpp:394] conv3 <- norm2
I0406 06:58:47.076683 11267 net.cpp:356] conv3 -> conv3
I0406 06:58:47.076690 11267 net.cpp:96] Setting up conv3
I0406 06:58:47.106205 11267 net.cpp:103] Top shape: 32 384 13 13 (2076672)
I0406 06:58:47.106261 11267 net.cpp:67] Creating Layer relu3
I0406 06:58:47.106269 11267 net.cpp:394] relu3 <- conv3
I0406 06:58:47.106277 11267 net.cpp:345] relu3 -> conv3 (in-place)
I0406 06:58:47.106287 11267 net.cpp:96] Setting up relu3
I0406 06:58:47.106293 11267 net.cpp:103] Top shape: 32 384 13 13 (2076672)
I0406 06:58:47.106305 11267 net.cpp:67] Creating Layer conv4
I0406 06:58:47.106309 11267 net.cpp:394] conv4 <- conv3
I0406 06:58:47.106315 11267 net.cpp:356] conv4 -> conv4
I0406 06:58:47.106325 11267 net.cpp:96] Setting up conv4
I0406 06:58:47.128278 11267 net.cpp:103] Top shape: 32 384 13 13 (2076672)
I0406 06:58:47.128307 11267 net.cpp:67] Creating Layer relu4
I0406 06:58:47.128314 11267 net.cpp:394] relu4 <- conv4
I0406 06:58:47.128319 11267 net.cpp:345] relu4 -> conv4 (in-place)
I0406 06:58:47.128325 11267 net.cpp:96] Setting up relu4
I0406 06:58:47.128332 11267 net.cpp:103] Top shape: 32 384 13 13 (2076672)
I0406 06:58:47.128340 11267 net.cpp:67] Creating Layer conv5
I0406 06:58:47.128348 11267 net.cpp:394] conv5 <- conv4
I0406 06:58:47.128355 11267 net.cpp:356] conv5 -> conv5
I0406 06:58:47.128360 11267 net.cpp:96] Setting up conv5
I0406 06:58:47.143185 11267 net.cpp:103] Top shape: 32 256 13 13 (1384448)
I0406 06:58:47.143215 11267 net.cpp:67] Creating Layer relu5
I0406 06:58:47.143221 11267 net.cpp:394] relu5 <- conv5
I0406 06:58:47.143227 11267 net.cpp:345] relu5 -> conv5 (in-place)
I0406 06:58:47.143234 11267 net.cpp:96] Setting up relu5
I0406 06:58:47.143240 11267 net.cpp:103] Top shape: 32 256 13 13 (1384448)
I0406 06:58:47.143250 11267 net.cpp:67] Creating Layer pool5
I0406 06:58:47.143254 11267 net.cpp:394] pool5 <- conv5
I0406 06:58:47.143260 11267 net.cpp:356] pool5 -> pool5
I0406 06:58:47.143267 11267 net.cpp:96] Setting up pool5
I0406 06:58:47.143277 11267 net.cpp:103] Top shape: 32 256 6 6 (294912)
I0406 06:58:47.143285 11267 net.cpp:67] Creating Layer fc6
I0406 06:58:47.143296 11267 net.cpp:394] fc6 <- pool5
I0406 06:58:47.143302 11267 net.cpp:356] fc6 -> fc6
I0406 06:58:47.143309 11267 net.cpp:96] Setting up fc6
I0406 06:58:48.368351 11267 net.cpp:103] Top shape: 32 4096 1 1 (131072)
I0406 06:58:48.368407 11267 net.cpp:67] Creating Layer relu6
I0406 06:58:48.368414 11267 net.cpp:394] relu6 <- fc6
I0406 06:58:48.368422 11267 net.cpp:345] relu6 -> fc6 (in-place)
I0406 06:58:48.368432 11267 net.cpp:96] Setting up relu6
I0406 06:58:48.368456 11267 net.cpp:103] Top shape: 32 4096 1 1 (131072)
I0406 06:58:48.368474 11267 net.cpp:67] Creating Layer drop6
I0406 06:58:48.368479 11267 net.cpp:394] drop6 <- fc6
I0406 06:58:48.368484 11267 net.cpp:345] drop6 -> fc6 (in-place)
I0406 06:58:48.368489 11267 net.cpp:96] Setting up drop6
I0406 06:58:48.368494 11267 net.cpp:103] Top shape: 32 4096 1 1 (131072)
I0406 06:58:48.368502 11267 net.cpp:67] Creating Layer fc7
I0406 06:58:48.368506 11267 net.cpp:394] fc7 <- fc6
I0406 06:58:48.368515 11267 net.cpp:356] fc7 -> fc7
I0406 06:58:48.368521 11267 net.cpp:96] Setting up fc7
I0406 06:58:48.912997 11267 net.cpp:103] Top shape: 32 4096 1 1 (131072)
I0406 06:58:48.913054 11267 net.cpp:67] Creating Layer relu7
I0406 06:58:48.913063 11267 net.cpp:394] relu7 <- fc7
I0406 06:58:48.913074 11267 net.cpp:345] relu7 -> fc7 (in-place)
I0406 06:58:48.913084 11267 net.cpp:96] Setting up relu7
I0406 06:58:48.913105 11267 net.cpp:103] Top shape: 32 4096 1 1 (131072)
I0406 06:58:48.913112 11267 net.cpp:67] Creating Layer drop7
I0406 06:58:48.913116 11267 net.cpp:394] drop7 <- fc7
I0406 06:58:48.913121 11267 net.cpp:345] drop7 -> fc7 (in-place)
I0406 06:58:48.913127 11267 net.cpp:96] Setting up drop7
I0406 06:58:48.913132 11267 net.cpp:103] Top shape: 32 4096 1 1 (131072)
I0406 06:58:48.913141 11267 net.cpp:67] Creating Layer fc8_deepfashion
I0406 06:58:48.913175 11267 net.cpp:394] fc8_deepfashion <- fc7
I0406 06:58:48.913183 11267 net.cpp:356] fc8_deepfashion -> fc8_deepfashion
I0406 06:58:48.913192 11267 net.cpp:96] Setting up fc8_deepfashion
I0406 06:58:48.919677 11267 net.cpp:103] Top shape: 32 48 1 1 (1536)
I0406 06:58:48.919700 11267 net.cpp:67] Creating Layer fc8_deepfashion_encode
I0406 06:58:48.919705 11267 net.cpp:394] fc8_deepfashion_encode <- fc8_deepfashion
I0406 06:58:48.919711 11267 net.cpp:356] fc8_deepfashion_encode -> fc8_deepfashion_encode
I0406 06:58:48.919718 11267 net.cpp:96] Setting up fc8_deepfashion_encode
I0406 06:58:48.919728 11267 net.cpp:103] Top shape: 32 48 1 1 (1536)
I0406 06:58:48.919735 11267 net.cpp:67] Creating Layer fc8_deepfashion_encode_fc8_deepfashion_encode_0_split
I0406 06:58:48.919740 11267 net.cpp:394] fc8_deepfashion_encode_fc8_deepfashion_encode_0_split <- fc8_deepfashion_encode
I0406 06:58:48.919745 11267 net.cpp:356] fc8_deepfashion_encode_fc8_deepfashion_encode_0_split -> fc8_deepfashion_encode_fc8_deepfashion_encode_0_split_0
I0406 06:58:48.919751 11267 net.cpp:356] fc8_deepfashion_encode_fc8_deepfashion_encode_0_split -> fc8_deepfashion_encode_fc8_deepfashion_encode_0_split_1
I0406 06:58:48.919759 11267 net.cpp:96] Setting up fc8_deepfashion_encode_fc8_deepfashion_encode_0_split
I0406 06:58:48.919762 11267 net.cpp:103] Top shape: 32 48 1 1 (1536)
I0406 06:58:48.919766 11267 net.cpp:103] Top shape: 32 48 1 1 (1536)
I0406 06:58:48.919775 11267 net.cpp:67] Creating Layer fc8_pascal_label
I0406 06:58:48.919780 11267 net.cpp:394] fc8_pascal_label <- fc8_deepfashion_encode_fc8_deepfashion_encode_0_split_0
I0406 06:58:48.919785 11267 net.cpp:356] fc8_pascal_label -> fc8_pascal_label
I0406 06:58:48.919791 11267 net.cpp:96] Setting up fc8_pascal_label
I0406 06:58:48.919817 11267 net.cpp:103] Top shape: 32 10 1 1 (320)
I0406 06:58:48.919834 11267 net.cpp:67] Creating Layer fc8_pascal_label_fc8_pascal_label_0_split
I0406 06:58:48.919844 11267 net.cpp:394] fc8_pascal_label_fc8_pascal_label_0_split <- fc8_pascal_label
I0406 06:58:48.919857 11267 net.cpp:356] fc8_pascal_label_fc8_pascal_label_0_split -> fc8_pascal_label_fc8_pascal_label_0_split_0
I0406 06:58:48.919863 11267 net.cpp:356] fc8_pascal_label_fc8_pascal_label_0_split -> fc8_pascal_label_fc8_pascal_label_0_split_1
I0406 06:58:48.919869 11267 net.cpp:96] Setting up fc8_pascal_label_fc8_pascal_label_0_split
I0406 06:58:48.919874 11267 net.cpp:103] Top shape: 32 10 1 1 (320)
I0406 06:58:48.919878 11267 net.cpp:103] Top shape: 32 10 1 1 (320)
I0406 06:58:48.919890 11267 net.cpp:67] Creating Layer fc8_pascal_color
I0406 06:58:48.919894 11267 net.cpp:394] fc8_pascal_color <- fc8_deepfashion_encode_fc8_deepfashion_encode_0_split_1
I0406 06:58:48.919903 11267 net.cpp:356] fc8_pascal_color -> fc8_pascal_color
I0406 06:58:48.919909 11267 net.cpp:96] Setting up fc8_pascal_color
I0406 06:58:48.919951 11267 net.cpp:103] Top shape: 32 16 1 1 (512)
I0406 06:58:48.919977 11267 net.cpp:67] Creating Layer fc8_pascal_color_fc8_pascal_color_0_split
I0406 06:58:48.919986 11267 net.cpp:394] fc8_pascal_color_fc8_pascal_color_0_split <- fc8_pascal_color
I0406 06:58:48.919996 11267 net.cpp:356] fc8_pascal_color_fc8_pascal_color_0_split -> fc8_pascal_color_fc8_pascal_color_0_split_0
I0406 06:58:48.920002 11267 net.cpp:356] fc8_pascal_color_fc8_pascal_color_0_split -> fc8_pascal_color_fc8_pascal_color_0_split_1
I0406 06:58:48.920008 11267 net.cpp:96] Setting up fc8_pascal_color_fc8_pascal_color_0_split
I0406 06:58:48.920012 11267 net.cpp:103] Top shape: 32 16 1 1 (512)
I0406 06:58:48.920017 11267 net.cpp:103] Top shape: 32 16 1 1 (512)
I0406 06:58:48.920024 11267 net.cpp:67] Creating Layer loss
I0406 06:58:48.920028 11267 net.cpp:394] loss <- fc8_pascal_color_fc8_pascal_color_0_split_0
I0406 06:58:48.920033 11267 net.cpp:394] loss <- labels1_sliceL_1_split_0
I0406 06:58:48.920042 11267 net.cpp:356] loss -> (automatic)
I0406 06:58:48.920047 11267 net.cpp:96] Setting up loss
I0406 06:58:48.920059 11267 net.cpp:103] Top shape: 1 1 1 1 (1)
I0406 06:58:48.920065 11267 net.cpp:109]     with loss weight 1
I0406 06:58:48.920107 11267 net.cpp:67] Creating Layer accuracy
I0406 06:58:48.920114 11267 net.cpp:394] accuracy <- fc8_pascal_color_fc8_pascal_color_0_split_1
I0406 06:58:48.920120 11267 net.cpp:394] accuracy <- labels1_sliceL_1_split_1
I0406 06:58:48.920138 11267 net.cpp:356] accuracy -> accuracy
I0406 06:58:48.920156 11267 net.cpp:96] Setting up accuracy
I0406 06:58:48.920166 11267 net.cpp:103] Top shape: 1 1 1 1 (1)
I0406 06:58:48.920176 11267 net.cpp:67] Creating Layer accuracy1
I0406 06:58:48.920183 11267 net.cpp:394] accuracy1 <- fc8_pascal_label_fc8_pascal_label_0_split_0
I0406 06:58:48.920189 11267 net.cpp:394] accuracy1 <- labels0_sliceL_0_split_0
I0406 06:58:48.920195 11267 net.cpp:356] accuracy1 -> accuracy1
I0406 06:58:48.920200 11267 net.cpp:96] Setting up accuracy1
I0406 06:58:48.920205 11267 net.cpp:103] Top shape: 1 1 1 1 (1)
I0406 06:58:48.920212 11267 net.cpp:67] Creating Layer silence
I0406 06:58:48.920215 11267 net.cpp:394] silence <- labels0_sliceL_0_split_1
I0406 06:58:48.920220 11267 net.cpp:394] silence <- random
I0406 06:58:48.920224 11267 net.cpp:394] silence <- fc8_pascal_label_fc8_pascal_label_0_split_1
I0406 06:58:48.920228 11267 net.cpp:96] Setting up silence
I0406 06:58:48.920233 11267 net.cpp:172] silence does not need backward computation.
…
