…
  top: "data"
  top: "random"
  name: "data"
  type: DATA
  data_param {
    source: "/data/deepfashion/color_label_multilabel/color_label_multilabel_TRAIN"
    batch_size: 32
    backend: LMDB
  }
  include {
    phase: TRAIN
  }
  transform_param {
    mirror: true
    crop_size: 227
    mean_file: "../../../data/ilsvrc12/imagenet_mean.binaryproto"
  }
}
layers {
  top: "labels"
  name: "labels"
  type: DATA
  data_param {
    source: "/data/deepfashion/color_label_multilabel/color_label_multilabel_TRAIN_ALT"
    batch_size: 32
    backend: LMDB
  }
  include {
    phase: TRAIN
  }
}
layers {
  bottom: "labels"
  top: "labels0"
  top: "labels1"
  name: "sliceL"
  type: SLICE
  slice_param {
    slice_point: 1
  }
}
layers {
  bottom: "data"
  top: "conv1"
  name: "conv1"
  type: CONVOLUTION
  blobs_lr: 0
  blobs_lr: 0
  weight_decay: 1
  weight_decay: 0
  convolution_param {
    num_output: 96
    kernel_size: 11
    stride: 4
    weight_filler {
      type: "gaussian"
      std: 0.01
    }
    bias_filler {
      type: "constant"
      value: 0
    }
  }
}
layers {
  bottom: "conv1"
  top: "conv1"
  name: "relu1"
  type: RELU
}
layers {
  bottom: "conv1"
  top: "pool1"
  name: "pool1"
  type: POOLING
  pooling_param {
    pool: MAX
    kernel_size: 3
    stride: 2
  }
}
layers {
  bottom: "pool1"
  top: "norm1"
  name: "norm1"
  type: LRN
  lrn_param {
    local_size: 5
    alpha: 0.0001
    beta: 0.75
  }
}
layers {
  bottom: "norm1"
  top: "conv2"
  name: "conv2"
  type: CONVOLUTION
  blobs_lr: 0
  blobs_lr: 0
  weight_decay: 1
  weight_decay: 0
  convolution_param {
    num_output: 256
    pad: 2
    kernel_size: 5
    group: 2
    weight_filler {
      type: "gaussian"
      std: 0.01
    }
    bias_filler {
      type: "constant"
      value: 1
    }
  }
}
layers {
  bottom: "conv2"
  top: "conv2"
  name: "relu2"
  type: RELU
}
layers {
  bottom: "conv2"
  top: "pool2"
  name: "pool2"
  type: POOLING
  pooling_param {
    pool: MAX
    kernel_size: 3
    stride: 2
  }
}
layers {
  bottom: "pool2"
  top: "norm2"
  name: "norm2"
  type: LRN
  lrn_param {
    local_size: 5
    alpha: 0.0001
    beta: 0.75
  }
}
layers {
  bottom: "norm2"
  top: "conv3"
  name: "conv3"
  type: CONVOLUTION
  blobs_lr: 0
  blobs_lr: 0
  weight_decay: 1
  weight_decay: 0
  convolution_param {
    num_output: 384
    pad: 1
    kernel_size: 3
    weight_filler {
      type: "gaussian"
      std: 0.01
    }
    bias_filler {
      type: "constant"
      value: 0
    }
  }
}
layers {
  bottom: "conv3"
  top: "conv3"
  name: "relu3"
  type: RELU
}
layers {
  bottom: "conv3"
  top: "conv4"
  name: "conv4"
  type: CONVOLUTION
  blobs_lr: 0
  blobs_lr: 0
  weight_decay: 1
  weight_decay: 0
  convolution_param {
    num_output: 384
    pad: 1
    kernel_size: 3
    group: 2
    weight_filler {
      type: "gaussian"
      std: 0.01
    }
    bias_filler {
      type: "constant"
      value: 1
    }
  }
}
layers {
  bottom: "conv4"
  top: "conv4"
  name: "relu4"
  type: RELU
}
layers {
  bottom: "conv4"
  top: "conv5"
  name: "conv5"
  type: CONVOLUTION
  blobs_lr: 0
  blobs_lr: 0
  weight_decay: 1
  weight_decay: 0
  convolution_param {
    num_output: 256
    pad: 1
    kernel_size: 3
    group: 2
    weight_filler {
      type: "gaussian"
      std: 0.01
    }
    bias_filler {
      type: "constant"
      value: 1
    }
  }
}
layers {
  bottom: "conv5"
  top: "conv5"
  name: "relu5"
  type: RELU
}
layers {
  bottom: "conv5"
  top: "pool5"
  name: "pool5"
  type: POOLING
  pooling_param {
    pool: MAX
    kernel_size: 3
    stride: 2
  }
}
layers {
  bottom: "pool5"
  top: "fc6"
  name: "fc6"
  type: INNER_PRODUCT
  blobs_lr: 0
  blobs_lr: 0
  weight_decay: 1
  weight_decay: 0
  inner_product_param {
    num_output: 4096
    weight_filler {
      type: "gaussian"
      std: 0.005
    }
    bias_filler {
      type: "constant"
      value: 1
    }
  }
}
layers {
  bottom: "fc6"
  top: "fc6"
  name: "relu6"
  type: RELU
}
layers {
  bottom: "fc6"
  top: "fc6"
  name: "drop6"
  type: DROPOUT
  dropout_param {
    dropout_ratio: 0.5
  }
}
layers {
  bottom: "fc6"
  top: "fc7"
  name: "fc7"
  type: INNER_PRODUCT
  blobs_lr: 0
  blobs_lr: 0
  weight_decay: 1
  weight_decay: 0
  inner_product_param {
    num_output: 4096
    weight_filler {
      type: "gaussian"
      std: 0.005
    }
    bias_filler {
      type: "constant"
      value: 1
    }
  }
}
layers {
  bottom: "fc7"
  top: "fc7"
  name: "relu7"
  type: RELU
}
layers {
  bottom: "fc7"
  top: "fc7"
  name: "drop7"
  type: DROPOUT
  dropout_param {
    dropout_ratio: 0.5
  }
}
layers {
  bottom: "fc7"
  top: "fc8_deepfashion"
  name: "fc8_deepfashion"
  type: INNER_PRODUCT
  blobs_lr: 0
  blobs_lr: 0
  weight_decay: 1
  weight_decay: 0
  inner_product_param {
    num_output: 48
    weight_filler {
      type: "gaussian"
      std: 0.01
    }
    bias_filler {
      type: "constant"
      value: 0
    }
  }
}
layers {
  bottom: "fc8_deepfashion"
  top: "fc8_deepfashion_encode"
  name: "fc8_deepfashion_encode"
  type: SIGMOID
}
layers {
  bottom: "fc8_deepfashion_encode"
  top: "fc8_pascal_label"
  name: "fc8_pascal_label"
  type: INNER_PRODUCT
  blobs_lr: 0
  blobs_lr: 0
  weight_decay: 1
  weight_decay: 0
  inner_product_param {
    num_output: 10
    weight_filler {
      type: "gaussian"
      std: 0.01
    }
    bias_filler {
      type: "constant"
      value: 0
    }
  }
}
layers {
  bottom: "fc8_deepfashion_encode"
  top: "fc8_pascal_color"
  name: "fc8_pascal_color"
  type: INNER_PRODUCT
  blobs_lr: 1
  blobs_lr: 2
  weight_decay: 1
  weight_decay: 0
  inner_product_param {
    num_output: 16
    weight_filler {
      type: "gaussian"
      std: 0.01
    }
    bias_filler {
      type: "constant"
      value: 0
    }
  }
}
layers {
  bottom: "fc8_pascal_color"
  bottom: "labels1"
  name: "loss"
  type: SOFTMAX_LOSS
}
layers {
  bottom: "labels0"
  bottom: "random"
  bottom: "fc8_pascal_label"
  name: "silence"
  type: SILENCE
}
state {
  phase: TRAIN
}
I0406 08:24:58.513062 24091 net.cpp:67] Creating Layer data
I0406 08:24:58.513082 24091 net.cpp:356] data -> data
I0406 08:24:58.513108 24091 net.cpp:356] data -> random
I0406 08:24:58.513131 24091 net.cpp:96] Setting up data
I0406 08:24:58.513273 24091 data_layer.cpp:68] Opening lmdb /data/deepfashion/color_label_multilabel/color_label_multilabel_TRAIN
I0406 08:24:58.513532 24091 data_layer.cpp:128] output data size: 32,3,227,227
I0406 08:24:58.513546 24091 base_data_layer.cpp:36] Loading mean file from../../../data/ilsvrc12/imagenet_mean.binaryproto
I0406 08:24:58.521386 24091 net.cpp:103] Top shape: 32 3 227 227 (4946784)
I0406 08:24:58.521420 24091 net.cpp:103] Top shape: 32 1 1 1 (32)
I0406 08:24:58.521445 24091 net.cpp:67] Creating Layer labels
I0406 08:24:58.521455 24091 net.cpp:356] labels -> labels
I0406 08:24:58.521474 24091 net.cpp:96] Setting up labels
I0406 08:24:58.521590 24091 data_layer.cpp:68] Opening lmdb /data/deepfashion/color_label_multilabel/color_label_multilabel_TRAIN_ALT
I0406 08:24:58.521620 24091 data_layer.cpp:128] output data size: 32,2,1,1
I0406 08:24:58.521702 24091 net.cpp:103] Top shape: 32 2 1 1 (64)
I0406 08:24:58.521728 24091 net.cpp:67] Creating Layer sliceL
I0406 08:24:58.521739 24091 net.cpp:394] sliceL <- labels
I0406 08:24:58.521757 24091 net.cpp:356] sliceL -> labels0
I0406 08:24:58.521772 24091 net.cpp:356] sliceL -> labels1
I0406 08:24:58.521787 24091 net.cpp:96] Setting up sliceL
I0406 08:24:58.521806 24091 net.cpp:103] Top shape: 32 1 1 1 (32)
I0406 08:24:58.521816 24091 net.cpp:103] Top shape: 32 1 1 1 (32)
I0406 08:24:58.521831 24091 net.cpp:67] Creating Layer conv1
I0406 08:24:58.521839 24091 net.cpp:394] conv1 <- data
I0406 08:24:58.521857 24091 net.cpp:356] conv1 -> conv1
I0406 08:24:58.521872 24091 net.cpp:96] Setting up conv1
I0406 08:24:58.544679 24091 net.cpp:103] Top shape: 32 96 55 55 (9292800)
I0406 08:24:58.544744 24091 net.cpp:67] Creating Layer relu1
I0406 08:24:58.544755 24091 net.cpp:394] relu1 <- conv1
I0406 08:24:58.544766 24091 net.cpp:345] relu1 -> conv1 (in-place)
I0406 08:24:58.544781 24091 net.cpp:96] Setting up relu1
I0406 08:24:58.544798 24091 net.cpp:103] Top shape: 32 96 55 55 (9292800)
I0406 08:24:58.544812 24091 net.cpp:67] Creating Layer pool1
I0406 08:24:58.544819 24091 net.cpp:394] pool1 <- conv1
I0406 08:24:58.544831 24091 net.cpp:356] pool1 -> pool1
I0406 08:24:58.544843 24091 net.cpp:96] Setting up pool1
I0406 08:24:58.544879 24091 net.cpp:103] Top shape: 32 96 27 27 (2239488)
I0406 08:24:58.544903 24091 net.cpp:67] Creating Layer norm1
I0406 08:24:58.544910 24091 net.cpp:394] norm1 <- pool1
I0406 08:24:58.544921 24091 net.cpp:356] norm1 -> norm1
I0406 08:24:58.544934 24091 net.cpp:96] Setting up norm1
I0406 08:24:58.544946 24091 net.cpp:103] Top shape: 32 96 27 27 (2239488)
I0406 08:24:58.544961 24091 net.cpp:67] Creating Layer conv2
I0406 08:24:58.544970 24091 net.cpp:394] conv2 <- norm1
I0406 08:24:58.544982 24091 net.cpp:356] conv2 -> conv2
I0406 08:24:58.544996 24091 net.cpp:96] Setting up conv2
I0406 08:24:58.555224 24091 net.cpp:103] Top shape: 32 256 27 27 (5971968)
I0406 08:24:58.555258 24091 net.cpp:67] Creating Layer relu2
I0406 08:24:58.555269 24091 net.cpp:394] relu2 <- conv2
I0406 08:24:58.555279 24091 net.cpp:345] relu2 -> conv2 (in-place)
I0406 08:24:58.555290 24091 net.cpp:96] Setting up relu2
I0406 08:24:58.555302 24091 net.cpp:103] Top shape: 32 256 27 27 (5971968)
I0406 08:24:58.555315 24091 net.cpp:67] Creating Layer pool2
I0406 08:24:58.555322 24091 net.cpp:394] pool2 <- conv2
I0406 08:24:58.555336 24091 net.cpp:356] pool2 -> pool2
I0406 08:24:58.555347 24091 net.cpp:96] Setting up pool2
I0406 08:24:58.555361 24091 net.cpp:103] Top shape: 32 256 13 13 (1384448)
I0406 08:24:58.555385 24091 net.cpp:67] Creating Layer norm2
I0406 08:24:58.555394 24091 net.cpp:394] norm2 <- pool2
I0406 08:24:58.555405 24091 net.cpp:356] norm2 -> norm2
I0406 08:24:58.555416 24091 net.cpp:96] Setting up norm2
I0406 08:24:58.555424 24091 net.cpp:103] Top shape: 32 256 13 13 (1384448)
I0406 08:24:58.555438 24091 net.cpp:67] Creating Layer conv3
I0406 08:24:58.555445 24091 net.cpp:394] conv3 <- norm2
I0406 08:24:58.555459 24091 net.cpp:356] conv3 -> conv3
I0406 08:24:58.555471 24091 net.cpp:96] Setting up conv3
I0406 08:24:58.584651 24091 net.cpp:103] Top shape: 32 384 13 13 (2076672)
I0406 08:24:58.584687 24091 net.cpp:67] Creating Layer relu3
I0406 08:24:58.584697 24091 net.cpp:394] relu3 <- conv3
I0406 08:24:58.584707 24091 net.cpp:345] relu3 -> conv3 (in-place)
I0406 08:24:58.584718 24091 net.cpp:96] Setting up relu3
I0406 08:24:58.584731 24091 net.cpp:103] Top shape: 32 384 13 13 (2076672)
I0406 08:24:58.584745 24091 net.cpp:67] Creating Layer conv4
I0406 08:24:58.584753 24091 net.cpp:394] conv4 <- conv3
I0406 08:24:58.584769 24091 net.cpp:356] conv4 -> conv4
I0406 08:24:58.584780 24091 net.cpp:96] Setting up conv4
I0406 08:24:58.606811 24091 net.cpp:103] Top shape: 32 384 13 13 (2076672)
I0406 08:24:58.606847 24091 net.cpp:67] Creating Layer relu4
I0406 08:24:58.606858 24091 net.cpp:394] relu4 <- conv4
I0406 08:24:58.606868 24091 net.cpp:345] relu4 -> conv4 (in-place)
I0406 08:24:58.606914 24091 net.cpp:96] Setting up relu4
I0406 08:24:58.606930 24091 net.cpp:103] Top shape: 32 384 13 13 (2076672)
I0406 08:24:58.606947 24091 net.cpp:67] Creating Layer conv5
I0406 08:24:58.606956 24091 net.cpp:394] conv5 <- conv4
I0406 08:24:58.606968 24091 net.cpp:356] conv5 -> conv5
I0406 08:24:58.606981 24091 net.cpp:96] Setting up conv5
I0406 08:24:58.621628 24091 net.cpp:103] Top shape: 32 256 13 13 (1384448)
I0406 08:24:58.621664 24091 net.cpp:67] Creating Layer relu5
I0406 08:24:58.621673 24091 net.cpp:394] relu5 <- conv5
I0406 08:24:58.621685 24091 net.cpp:345] relu5 -> conv5 (in-place)
I0406 08:24:58.621695 24091 net.cpp:96] Setting up relu5
I0406 08:24:58.621707 24091 net.cpp:103] Top shape: 32 256 13 13 (1384448)
I0406 08:24:58.621721 24091 net.cpp:67] Creating Layer pool5
I0406 08:24:58.621732 24091 net.cpp:394] pool5 <- conv5
I0406 08:24:58.621742 24091 net.cpp:356] pool5 -> pool5
I0406 08:24:58.621754 24091 net.cpp:96] Setting up pool5
I0406 08:24:58.621768 24091 net.cpp:103] Top shape: 32 256 6 6 (294912)
I0406 08:24:58.621783 24091 net.cpp:67] Creating Layer fc6
I0406 08:24:58.621789 24091 net.cpp:394] fc6 <- pool5
I0406 08:24:58.621803 24091 net.cpp:356] fc6 -> fc6
I0406 08:24:58.621815 24091 net.cpp:96] Setting up fc6
I0406 08:24:59.882268 24091 net.cpp:103] Top shape: 32 4096 1 1 (131072)
I0406 08:24:59.882330 24091 net.cpp:67] Creating Layer relu6
I0406 08:24:59.882341 24091 net.cpp:394] relu6 <- fc6
I0406 08:24:59.882354 24091 net.cpp:345] relu6 -> fc6 (in-place)
I0406 08:24:59.882369 24091 net.cpp:96] Setting up relu6
I0406 08:24:59.882395 24091 net.cpp:103] Top shape: 32 4096 1 1 (131072)
I0406 08:24:59.882408 24091 net.cpp:67] Creating Layer drop6
I0406 08:24:59.882416 24091 net.cpp:394] drop6 <- fc6
I0406 08:24:59.882426 24091 net.cpp:345] drop6 -> fc6 (in-place)
I0406 08:24:59.882436 24091 net.cpp:96] Setting up drop6
I0406 08:24:59.882452 24091 net.cpp:103] Top shape: 32 4096 1 1 (131072)
I0406 08:24:59.882470 24091 net.cpp:67] Creating Layer fc7
I0406 08:24:59.882482 24091 net.cpp:394] fc7 <- fc6
I0406 08:24:59.882499 24091 net.cpp:356] fc7 -> fc7
I0406 08:24:59.882518 24091 net.cpp:96] Setting up fc7
I0406 08:25:00.444995 24091 net.cpp:103] Top shape: 32 4096 1 1 (131072)
I0406 08:25:00.445056 24091 net.cpp:67] Creating Layer relu7
I0406 08:25:00.445068 24091 net.cpp:394] relu7 <- fc7
I0406 08:25:00.445080 24091 net.cpp:345] relu7 -> fc7 (in-place)
I0406 08:25:00.445093 24091 net.cpp:96] Setting up relu7
I0406 08:25:00.445122 24091 net.cpp:103] Top shape: 32 4096 1 1 (131072)
I0406 08:25:00.445139 24091 net.cpp:67] Creating Layer drop7
I0406 08:25:00.445148 24091 net.cpp:394] drop7 <- fc7
I0406 08:25:00.445158 24091 net.cpp:345] drop7 -> fc7 (in-place)
I0406 08:25:00.445169 24091 net.cpp:96] Setting up drop7
I0406 08:25:00.445178 24091 net.cpp:103] Top shape: 32 4096 1 1 (131072)
I0406 08:25:00.445199 24091 net.cpp:67] Creating Layer fc8_deepfashion
I0406 08:25:00.445210 24091 net.cpp:394] fc8_deepfashion <- fc7
I0406 08:25:00.445224 24091 net.cpp:356] fc8_deepfashion -> fc8_deepfashion
I0406 08:25:00.445237 24091 net.cpp:96] Setting up fc8_deepfashion
I0406 08:25:00.452003 24091 net.cpp:103] Top shape: 32 48 1 1 (1536)
I0406 08:25:00.452033 24091 net.cpp:67] Creating Layer fc8_deepfashion_encode
I0406 08:25:00.452041 24091 net.cpp:394] fc8_deepfashion_encode <- fc8_deepfashion
I0406 08:25:00.452052 24091 net.cpp:356] fc8_deepfashion_encode -> fc8_deepfashion_encode
I0406 08:25:00.452064 24091 net.cpp:96] Setting up fc8_deepfashion_encode
I0406 08:25:00.452085 24091 net.cpp:103] Top shape: 32 48 1 1 (1536)
I0406 08:25:00.452100 24091 net.cpp:67] Creating Layer fc8_deepfashion_encode_fc8_deepfashion_encode_0_split
I0406 08:25:00.452110 24091 net.cpp:394] fc8_deepfashion_encode_fc8_deepfashion_encode_0_split <- fc8_deepfashion_encode
I0406 08:25:00.452119 24091 net.cpp:356] fc8_deepfashion_encode_fc8_deepfashion_encode_0_split -> fc8_deepfashion_encode_fc8_deepfashion_encode_0_split_0
I0406 08:25:00.452148 24091 net.cpp:356] fc8_deepfashion_encode_fc8_deepfashion_encode_0_split -> fc8_deepfashion_encode_fc8_deepfashion_encode_0_split_1
I0406 08:25:00.452196 24091 net.cpp:96] Setting up fc8_deepfashion_encode_fc8_deepfashion_encode_0_split
I0406 08:25:00.452210 24091 net.cpp:103] Top shape: 32 48 1 1 (1536)
I0406 08:25:00.452255 24091 net.cpp:103] Top shape: 32 48 1 1 (1536)
I0406 08:25:00.452268 24091 net.cpp:67] Creating Layer fc8_pascal_label
I0406 08:25:00.452277 24091 net.cpp:394] fc8_pascal_label <- fc8_deepfashion_encode_fc8_deepfashion_encode_0_split_0
I0406 08:25:00.452301 24091 net.cpp:356] fc8_pascal_label -> fc8_pascal_label
I0406 08:25:00.452314 24091 net.cpp:96] Setting up fc8_pascal_label
I0406 08:25:00.452365 24091 net.cpp:103] Top shape: 32 10 1 1 (320)
I0406 08:25:00.452400 24091 net.cpp:67] Creating Layer fc8_pascal_color
I0406 08:25:00.452410 24091 net.cpp:394] fc8_pascal_color <- fc8_deepfashion_encode_fc8_deepfashion_encode_0_split_1
I0406 08:25:00.452427 24091 net.cpp:356] fc8_pascal_color -> fc8_pascal_color
I0406 08:25:00.452450 24091 net.cpp:96] Setting up fc8_pascal_color
I0406 08:25:00.452500 24091 net.cpp:103] Top shape: 32 16 1 1 (512)
I0406 08:25:00.452527 24091 net.cpp:67] Creating Layer loss
I0406 08:25:00.452543 24091 net.cpp:394] loss <- fc8_pascal_color
I0406 08:25:00.452553 24091 net.cpp:394] loss <- labels1
I0406 08:25:00.452564 24091 net.cpp:356] loss -> (automatic)
I0406 08:25:00.452574 24091 net.cpp:96] Setting up loss
I0406 08:25:00.452592 24091 net.cpp:103] Top shape: 1 1 1 1 (1)
I0406 08:25:00.452608 24091 net.cpp:109]     with loss weight 1
I0406 08:25:00.452680 24091 net.cpp:67] Creating Layer silence
I0406 08:25:00.452692 24091 net.cpp:394] silence <- labels0
I0406 08:25:00.452708 24091 net.cpp:394] silence <- random
I0406 08:25:00.452718 24091 net.cpp:394] silence <- fc8_pascal_label
I0406 08:25:00.452725 24091 net.cpp:96] Setting up silence
I0406 08:25:00.452733 24091 net.cpp:172] silence does not need backward computation.
…
layers {
  top: "data"
  top: "random"
  name: "data"
  type: DATA
  data_param {
    source: "/data/deepfashion/color_label_multilabel/color_label_multilabel_test"
    batch_size: 32
    backend: LMDB
  }
  include {
    phase: TEST
  }
  transform_param {
    mirror: true
    crop_size: 227
    mean_file: "../../../data/ilsvrc12/imagenet_mean.binaryproto"
  }
}
layers {
  top: "labels"
  name: "labels"
  type: DATA
  data_param {
    source: "/data/deepfashion/color_label_multilabel/color_label_multilabel_test_alt"
    batch_size: 32
    backend: LMDB
  }
  include {
    phase: TEST
  }
}
layers {
  bottom: "labels"
  top: "labels0"
  top: "labels1"
  name: "sliceL"
  type: SLICE
  slice_param {
    slice_point: 1
  }
}
layers {
  bottom: "data"
  top: "conv1"
  name: "conv1"
  type: CONVOLUTION
  blobs_lr: 0
  blobs_lr: 0
  weight_decay: 1
  weight_decay: 0
  convolution_param {
    num_output: 96
    kernel_size: 11
    stride: 4
    weight_filler {
      type: "gaussian"
      std: 0.01
    }
    bias_filler {
      type: "constant"
      value: 0
    }
  }
}
layers {
  bottom: "conv1"
  top: "conv1"
  name: "relu1"
  type: RELU
}
layers {
  bottom: "conv1"
  top: "pool1"
  name: "pool1"
  type: POOLING
  pooling_param {
    pool: MAX
    kernel_size: 3
    stride: 2
  }
}
layers {
  bottom: "pool1"
  top: "norm1"
  name: "norm1"
  type: LRN
  lrn_param {
    local_size: 5
    alpha: 0.0001
    beta: 0.75
  }
}
layers {
  bottom: "norm1"
  top: "conv2"
  name: "conv2"
  type: CONVOLUTION
  blobs_lr: 0
  blobs_lr: 0
  weight_decay: 1
  weight_decay: 0
  convolution_param {
    num_output: 256
    pad: 2
    kernel_size: 5
    group: 2
    weight_filler {
      type: "gaussian"
      std: 0.01
    }
    bias_filler {
      type: "constant"
      value: 1
    }
  }
}
layers {
  bottom: "conv2"
  top: "conv2"
  name: "relu2"
  type: RELU
}
layers {
  bottom: "conv2"
  top: "pool2"
  name: "pool2"
  type: POOLING
  pooling_param {
    pool: MAX
    kernel_size: 3
    stride: 2
  }
}
layers {
  bottom: "pool2"
  top: "norm2"
  name: "norm2"
  type: LRN
  lrn_param {
    local_size: 5
    alpha: 0.0001
    beta: 0.75
  }
}
layers {
  bottom: "norm2"
  top: "conv3"
  name: "conv3"
  type: CONVOLUTION
  blobs_lr: 0
  blobs_lr: 0
  weight_decay: 1
  weight_decay: 0
  convolution_param {
    num_output: 384
    pad: 1
    kernel_size: 3
    weight_filler {
      type: "gaussian"
      std: 0.01
    }
    bias_filler {
      type: "constant"
      value: 0
    }
  }
}
layers {
  bottom: "conv3"
  top: "conv3"
  name: "relu3"
  type: RELU
}
layers {
  bottom: "conv3"
  top: "conv4"
  name: "conv4"
  type: CONVOLUTION
  blobs_lr: 0
  blobs_lr: 0
  weight_decay: 1
  weight_decay: 0
  convolution_param {
    num_output: 384
    pad: 1
    kernel_size: 3
    group: 2
    weight_filler {
      type: "gaussian"
      std: 0.01
    }
    bias_filler {
      type: "constant"
      value: 1
    }
  }
}
layers {
  bottom: "conv4"
  top: "conv4"
  name: "relu4"
  type: RELU
}
layers {
  bottom: "conv4"
  top: "conv5"
  name: "conv5"
  type: CONVOLUTION
  blobs_lr: 0
  blobs_lr: 0
  weight_decay: 1
  weight_decay: 0
  convolution_param {
    num_output: 256
    pad: 1
    kernel_size: 3
    group: 2
    weight_filler {
      type: "gaussian"
      std: 0.01
    }
    bias_filler {
      type: "constant"
      value: 1
    }
  }
}
layers {
  bottom: "conv5"
  top: "conv5"
  name: "relu5"
  type: RELU
}
layers {
  bottom: "conv5"
  top: "pool5"
  name: "pool5"
  type: POOLING
  pooling_param {
    pool: MAX
    kernel_size: 3
    stride: 2
  }
}
layers {
  bottom: "pool5"
  top: "fc6"
  name: "fc6"
  type: INNER_PRODUCT
  blobs_lr: 0
  blobs_lr: 0
  weight_decay: 1
  weight_decay: 0
  inner_product_param {
    num_output: 4096
    weight_filler {
      type: "gaussian"
      std: 0.005
    }
    bias_filler {
      type: "constant"
      value: 1
    }
  }
}
layers {
  bottom: "fc6"
  top: "fc6"
  name: "relu6"
  type: RELU
}
layers {
  bottom: "fc6"
  top: "fc6"
  name: "drop6"
  type: DROPOUT
  dropout_param {
    dropout_ratio: 0.5
  }
}
layers {
  bottom: "fc6"
  top: "fc7"
  name: "fc7"
  type: INNER_PRODUCT
  blobs_lr: 0
  blobs_lr: 0
  weight_decay: 1
  weight_decay: 0
  inner_product_param {
    num_output: 4096
    weight_filler {
      type: "gaussian"
      std: 0.005
    }
    bias_filler {
      type: "constant"
      value: 1
    }
  }
}
layers {
  bottom: "fc7"
  top: "fc7"
  name: "relu7"
  type: RELU
}
layers {
  bottom: "fc7"
  top: "fc7"
  name: "drop7"
  type: DROPOUT
  dropout_param {
    dropout_ratio: 0.5
  }
}
layers {
  bottom: "fc7"
  top: "fc8_deepfashion"
  name: "fc8_deepfashion"
  type: INNER_PRODUCT
  blobs_lr: 0
  blobs_lr: 0
  weight_decay: 1
  weight_decay: 0
  inner_product_param {
    num_output: 48
    weight_filler {
      type: "gaussian"
      std: 0.01
    }
    bias_filler {
      type: "constant"
      value: 0
    }
  }
}
layers {
  bottom: "fc8_deepfashion"
  top: "fc8_deepfashion_encode"
  name: "fc8_deepfashion_encode"
  type: SIGMOID
}
layers {
  bottom: "fc8_deepfashion_encode"
  top: "fc8_pascal_label"
  name: "fc8_pascal_label"
  type: INNER_PRODUCT
  blobs_lr: 0
  blobs_lr: 0
  weight_decay: 1
  weight_decay: 0
  inner_product_param {
    num_output: 10
    weight_filler {
      type: "gaussian"
      std: 0.01
    }
    bias_filler {
      type: "constant"
      value: 0
    }
  }
}
layers {
  bottom: "fc8_deepfashion_encode"
  top: "fc8_pascal_color"
  name: "fc8_pascal_color"
  type: INNER_PRODUCT
  blobs_lr: 1
  blobs_lr: 2
  weight_decay: 1
  weight_decay: 0
  inner_product_param {
    num_output: 16
    weight_filler {
      type: "gaussian"
      std: 0.01
    }
    bias_filler {
      type: "constant"
      value: 0
    }
  }
}
layers {
  bottom: "fc8_pascal_color"
  bottom: "labels1"
  name: "loss"
  type: SOFTMAX_LOSS
}
layers {
  bottom: "fc8_pascal_color"
  bottom: "labels1"
  top: "accuracy"
  name: "accuracy"
  type: ACCURACY
  include {
    phase: TEST
  }
}
layers {
  bottom: "fc8_pascal_label"
  bottom: "labels0"
  top: "accuracy1"
  name: "accuracy1"
  type: ACCURACY
  include {
    phase: TEST
  }
}
layers {
  bottom: "labels0"
  bottom: "random"
  bottom: "fc8_pascal_label"
  name: "silence"
  type: SILENCE
}
state {
  phase: TEST
}
I0406 08:25:00.454404 24091 net.cpp:67] Creating Layer data
I0406 08:25:00.454418 24091 net.cpp:356] data -> data
I0406 08:25:00.454432 24091 net.cpp:356] data -> random
I0406 08:25:00.454444 24091 net.cpp:96] Setting up data
I0406 08:25:00.454527 24091 data_layer.cpp:68] Opening lmdb /data/deepfashion/color_label_multilabel/color_label_multilabel_test
I0406 08:25:00.454771 24091 data_layer.cpp:128] output data size: 32,3,227,227
I0406 08:25:00.454783 24091 base_data_layer.cpp:36] Loading mean file from../../../data/ilsvrc12/imagenet_mean.binaryproto
I0406 08:25:00.462157 24091 net.cpp:103] Top shape: 32 3 227 227 (4946784)
I0406 08:25:00.462190 24091 net.cpp:103] Top shape: 32 1 1 1 (32)
I0406 08:25:00.462215 24091 net.cpp:67] Creating Layer labels
I0406 08:25:00.462226 24091 net.cpp:356] labels -> labels
I0406 08:25:00.462278 24091 net.cpp:96] Setting up labels
I0406 08:25:00.462352 24091 data_layer.cpp:68] Opening lmdb /data/deepfashion/color_label_multilabel/color_label_multilabel_test_alt
I0406 08:25:00.462380 24091 data_layer.cpp:128] output data size: 32,2,1,1
I0406 08:25:00.462832 24091 net.cpp:103] Top shape: 32 2 1 1 (64)
I0406 08:25:00.462855 24091 net.cpp:67] Creating Layer sliceL
I0406 08:25:00.462864 24091 net.cpp:394] sliceL <- labels
I0406 08:25:00.462877 24091 net.cpp:356] sliceL -> labels0
I0406 08:25:00.462893 24091 net.cpp:356] sliceL -> labels1
I0406 08:25:00.462904 24091 net.cpp:96] Setting up sliceL
I0406 08:25:00.462915 24091 net.cpp:103] Top shape: 32 1 1 1 (32)
I0406 08:25:00.462924 24091 net.cpp:103] Top shape: 32 1 1 1 (32)
I0406 08:25:00.462935 24091 net.cpp:67] Creating Layer labels0_sliceL_0_split
I0406 08:25:00.462944 24091 net.cpp:394] labels0_sliceL_0_split <- labels0
I0406 08:25:00.462955 24091 net.cpp:356] labels0_sliceL_0_split -> labels0_sliceL_0_split_0
I0406 08:25:00.462967 24091 net.cpp:356] labels0_sliceL_0_split -> labels0_sliceL_0_split_1
I0406 08:25:00.462978 24091 net.cpp:96] Setting up labels0_sliceL_0_split
I0406 08:25:00.462987 24091 net.cpp:103] Top shape: 32 1 1 1 (32)
I0406 08:25:00.462996 24091 net.cpp:103] Top shape: 32 1 1 1 (32)
I0406 08:25:00.463007 24091 net.cpp:67] Creating Layer labels1_sliceL_1_split
I0406 08:25:00.463016 24091 net.cpp:394] labels1_sliceL_1_split <- labels1
I0406 08:25:00.463027 24091 net.cpp:356] labels1_sliceL_1_split -> labels1_sliceL_1_split_0
I0406 08:25:00.463037 24091 net.cpp:356] labels1_sliceL_1_split -> labels1_sliceL_1_split_1
I0406 08:25:00.463049 24091 net.cpp:96] Setting up labels1_sliceL_1_split
I0406 08:25:00.463058 24091 net.cpp:103] Top shape: 32 1 1 1 (32)
I0406 08:25:00.463066 24091 net.cpp:103] Top shape: 32 1 1 1 (32)
I0406 08:25:00.463081 24091 net.cpp:67] Creating Layer conv1
I0406 08:25:00.463089 24091 net.cpp:394] conv1 <- data
I0406 08:25:00.463102 24091 net.cpp:356] conv1 -> conv1
I0406 08:25:00.463114 24091 net.cpp:96] Setting up conv1
I0406 08:25:00.464403 24091 net.cpp:103] Top shape: 32 96 55 55 (9292800)
I0406 08:25:00.464437 24091 net.cpp:67] Creating Layer relu1
I0406 08:25:00.464447 24091 net.cpp:394] relu1 <- conv1
I0406 08:25:00.464457 24091 net.cpp:345] relu1 -> conv1 (in-place)
I0406 08:25:00.464469 24091 net.cpp:96] Setting up relu1
I0406 08:25:00.464483 24091 net.cpp:103] Top shape: 32 96 55 55 (9292800)
I0406 08:25:00.464496 24091 net.cpp:67] Creating Layer pool1
I0406 08:25:00.464504 24091 net.cpp:394] pool1 <- conv1
I0406 08:25:00.464514 24091 net.cpp:356] pool1 -> pool1
I0406 08:25:00.464526 24091 net.cpp:96] Setting up pool1
I0406 08:25:00.464541 24091 net.cpp:103] Top shape: 32 96 27 27 (2239488)
I0406 08:25:00.464556 24091 net.cpp:67] Creating Layer norm1
I0406 08:25:00.464573 24091 net.cpp:394] norm1 <- pool1
I0406 08:25:00.464586 24091 net.cpp:356] norm1 -> norm1
I0406 08:25:00.464597 24091 net.cpp:96] Setting up norm1
I0406 08:25:00.464610 24091 net.cpp:103] Top shape: 32 96 27 27 (2239488)
I0406 08:25:00.464624 24091 net.cpp:67] Creating Layer conv2
I0406 08:25:00.464632 24091 net.cpp:394] conv2 <- norm1
I0406 08:25:00.464644 24091 net.cpp:356] conv2 -> conv2
I0406 08:25:00.464656 24091 net.cpp:96] Setting up conv2
I0406 08:25:00.474861 24091 net.cpp:103] Top shape: 32 256 27 27 (5971968)
I0406 08:25:00.474911 24091 net.cpp:67] Creating Layer relu2
I0406 08:25:00.474922 24091 net.cpp:394] relu2 <- conv2
I0406 08:25:00.474934 24091 net.cpp:345] relu2 -> conv2 (in-place)
I0406 08:25:00.474947 24091 net.cpp:96] Setting up relu2
I0406 08:25:00.474959 24091 net.cpp:103] Top shape: 32 256 27 27 (5971968)
I0406 08:25:00.474977 24091 net.cpp:67] Creating Layer pool2
I0406 08:25:00.474985 24091 net.cpp:394] pool2 <- conv2
I0406 08:25:00.474997 24091 net.cpp:356] pool2 -> pool2
I0406 08:25:00.475008 24091 net.cpp:96] Setting up pool2
I0406 08:25:00.475023 24091 net.cpp:103] Top shape: 32 256 13 13 (1384448)
I0406 08:25:00.475035 24091 net.cpp:67] Creating Layer norm2
I0406 08:25:00.475044 24091 net.cpp:394] norm2 <- pool2
I0406 08:25:00.475090 24091 net.cpp:356] norm2 -> norm2
I0406 08:25:00.475103 24091 net.cpp:96] Setting up norm2
I0406 08:25:00.475113 24091 net.cpp:103] Top shape: 32 256 13 13 (1384448)
I0406 08:25:00.475131 24091 net.cpp:67] Creating Layer conv3
I0406 08:25:00.475139 24091 net.cpp:394] conv3 <- norm2
I0406 08:25:00.475152 24091 net.cpp:356] conv3 -> conv3
I0406 08:25:00.475164 24091 net.cpp:96] Setting up conv3
I0406 08:25:00.504443 24091 net.cpp:103] Top shape: 32 384 13 13 (2076672)
I0406 08:25:00.504493 24091 net.cpp:67] Creating Layer relu3
I0406 08:25:00.504624 24091 net.cpp:394] relu3 <- conv3
I0406 08:25:00.504650 24091 net.cpp:345] relu3 -> conv3 (in-place)
I0406 08:25:00.504664 24091 net.cpp:96] Setting up relu3
I0406 08:25:00.504679 24091 net.cpp:103] Top shape: 32 384 13 13 (2076672)
I0406 08:25:00.504695 24091 net.cpp:67] Creating Layer conv4
I0406 08:25:00.504703 24091 net.cpp:394] conv4 <- conv3
I0406 08:25:00.504719 24091 net.cpp:356] conv4 -> conv4
I0406 08:25:00.504735 24091 net.cpp:96] Setting up conv4
I0406 08:25:00.527324 24091 net.cpp:103] Top shape: 32 384 13 13 (2076672)
I0406 08:25:00.527359 24091 net.cpp:67] Creating Layer relu4
I0406 08:25:00.527369 24091 net.cpp:394] relu4 <- conv4
I0406 08:25:00.527382 24091 net.cpp:345] relu4 -> conv4 (in-place)
I0406 08:25:00.527395 24091 net.cpp:96] Setting up relu4
I0406 08:25:00.527408 24091 net.cpp:103] Top shape: 32 384 13 13 (2076672)
I0406 08:25:00.527421 24091 net.cpp:67] Creating Layer conv5
I0406 08:25:00.527431 24091 net.cpp:394] conv5 <- conv4
I0406 08:25:00.527446 24091 net.cpp:356] conv5 -> conv5
I0406 08:25:00.527458 24091 net.cpp:96] Setting up conv5
I0406 08:25:00.542256 24091 net.cpp:103] Top shape: 32 256 13 13 (1384448)
I0406 08:25:00.542292 24091 net.cpp:67] Creating Layer relu5
I0406 08:25:00.542301 24091 net.cpp:394] relu5 <- conv5
I0406 08:25:00.542312 24091 net.cpp:345] relu5 -> conv5 (in-place)
I0406 08:25:00.542325 24091 net.cpp:96] Setting up relu5
I0406 08:25:00.542337 24091 net.cpp:103] Top shape: 32 256 13 13 (1384448)
I0406 08:25:00.542357 24091 net.cpp:67] Creating Layer pool5
I0406 08:25:00.542366 24091 net.cpp:394] pool5 <- conv5
I0406 08:25:00.542377 24091 net.cpp:356] pool5 -> pool5
I0406 08:25:00.542389 24091 net.cpp:96] Setting up pool5
I0406 08:25:00.542407 24091 net.cpp:103] Top shape: 32 256 6 6 (294912)
I0406 08:25:00.542429 24091 net.cpp:67] Creating Layer fc6
I0406 08:25:00.542438 24091 net.cpp:394] fc6 <- pool5
I0406 08:25:00.542449 24091 net.cpp:356] fc6 -> fc6
I0406 08:25:00.542462 24091 net.cpp:96] Setting up fc6
I0406 08:25:01.774586 24091 net.cpp:103] Top shape: 32 4096 1 1 (131072)
I0406 08:25:01.774658 24091 net.cpp:67] Creating Layer relu6
I0406 08:25:01.774672 24091 net.cpp:394] relu6 <- fc6
I0406 08:25:01.774684 24091 net.cpp:345] relu6 -> fc6 (in-place)
I0406 08:25:01.774698 24091 net.cpp:96] Setting up relu6
I0406 08:25:01.774725 24091 net.cpp:103] Top shape: 32 4096 1 1 (131072)
I0406 08:25:01.774739 24091 net.cpp:67] Creating Layer drop6
I0406 08:25:01.774750 24091 net.cpp:394] drop6 <- fc6
I0406 08:25:01.774761 24091 net.cpp:345] drop6 -> fc6 (in-place)
I0406 08:25:01.774772 24091 net.cpp:96] Setting up drop6
I0406 08:25:01.774780 24091 net.cpp:103] Top shape: 32 4096 1 1 (131072)
I0406 08:25:01.774793 24091 net.cpp:67] Creating Layer fc7
I0406 08:25:01.774801 24091 net.cpp:394] fc7 <- fc6
I0406 08:25:01.774816 24091 net.cpp:356] fc7 -> fc7
I0406 08:25:01.774828 24091 net.cpp:96] Setting up fc7
I0406 08:25:02.331221 24091 net.cpp:103] Top shape: 32 4096 1 1 (131072)
I0406 08:25:02.331286 24091 net.cpp:67] Creating Layer relu7
I0406 08:25:02.331298 24091 net.cpp:394] relu7 <- fc7
I0406 08:25:02.331316 24091 net.cpp:345] relu7 -> fc7 (in-place)
I0406 08:25:02.331331 24091 net.cpp:96] Setting up relu7
I0406 08:25:02.331360 24091 net.cpp:103] Top shape: 32 4096 1 1 (131072)
I0406 08:25:02.331373 24091 net.cpp:67] Creating Layer drop7
I0406 08:25:02.331382 24091 net.cpp:394] drop7 <- fc7
I0406 08:25:02.331392 24091 net.cpp:345] drop7 -> fc7 (in-place)
I0406 08:25:02.331403 24091 net.cpp:96] Setting up drop7
I0406 08:25:02.331450 24091 net.cpp:103] Top shape: 32 4096 1 1 (131072)
I0406 08:25:02.331465 24091 net.cpp:67] Creating Layer fc8_deepfashion
I0406 08:25:02.331475 24091 net.cpp:394] fc8_deepfashion <- fc7
I0406 08:25:02.331490 24091 net.cpp:356] fc8_deepfashion -> fc8_deepfashion
I0406 08:25:02.331504 24091 net.cpp:96] Setting up fc8_deepfashion
I0406 08:25:02.338074 24091 net.cpp:103] Top shape: 32 48 1 1 (1536)
I0406 08:25:02.338117 24091 net.cpp:67] Creating Layer fc8_deepfashion_encode
I0406 08:25:02.338127 24091 net.cpp:394] fc8_deepfashion_encode <- fc8_deepfashion
I0406 08:25:02.338140 24091 net.cpp:356] fc8_deepfashion_encode -> fc8_deepfashion_encode
I0406 08:25:02.338152 24091 net.cpp:96] Setting up fc8_deepfashion_encode
I0406 08:25:02.338172 24091 net.cpp:103] Top shape: 32 48 1 1 (1536)
I0406 08:25:02.338183 24091 net.cpp:67] Creating Layer fc8_deepfashion_encode_fc8_deepfashion_encode_0_split
I0406 08:25:02.338191 24091 net.cpp:394] fc8_deepfashion_encode_fc8_deepfashion_encode_0_split <- fc8_deepfashion_encode
I0406 08:25:02.338206 24091 net.cpp:356] fc8_deepfashion_encode_fc8_deepfashion_encode_0_split -> fc8_deepfashion_encode_fc8_deepfashion_encode_0_split_0
I0406 08:25:02.338218 24091 net.cpp:356] fc8_deepfashion_encode_fc8_deepfashion_encode_0_split -> fc8_deepfashion_encode_fc8_deepfashion_encode_0_split_1
I0406 08:25:02.338229 24091 net.cpp:96] Setting up fc8_deepfashion_encode_fc8_deepfashion_encode_0_split
I0406 08:25:02.338238 24091 net.cpp:103] Top shape: 32 48 1 1 (1536)
I0406 08:25:02.338246 24091 net.cpp:103] Top shape: 32 48 1 1 (1536)
I0406 08:25:02.338263 24091 net.cpp:67] Creating Layer fc8_pascal_label
I0406 08:25:02.338270 24091 net.cpp:394] fc8_pascal_label <- fc8_deepfashion_encode_fc8_deepfashion_encode_0_split_0
I0406 08:25:02.338281 24091 net.cpp:356] fc8_pascal_label -> fc8_pascal_label
I0406 08:25:02.338294 24091 net.cpp:96] Setting up fc8_pascal_label
I0406 08:25:02.338335 24091 net.cpp:103] Top shape: 32 10 1 1 (320)
I0406 08:25:02.338368 24091 net.cpp:67] Creating Layer fc8_pascal_label_fc8_pascal_label_0_split
I0406 08:25:02.338378 24091 net.cpp:394] fc8_pascal_label_fc8_pascal_label_0_split <- fc8_pascal_label
I0406 08:25:02.338389 24091 net.cpp:356] fc8_pascal_label_fc8_pascal_label_0_split -> fc8_pascal_label_fc8_pascal_label_0_split_0
I0406 08:25:02.338402 24091 net.cpp:356] fc8_pascal_label_fc8_pascal_label_0_split -> fc8_pascal_label_fc8_pascal_label_0_split_1
I0406 08:25:02.338413 24091 net.cpp:96] Setting up fc8_pascal_label_fc8_pascal_label_0_split
I0406 08:25:02.338421 24091 net.cpp:103] Top shape: 32 10 1 1 (320)
I0406 08:25:02.338429 24091 net.cpp:103] Top shape: 32 10 1 1 (320)
I0406 08:25:02.338448 24091 net.cpp:67] Creating Layer fc8_pascal_color
I0406 08:25:02.338456 24091 net.cpp:394] fc8_pascal_color <- fc8_deepfashion_encode_fc8_deepfashion_encode_0_split_1
I0406 08:25:02.338467 24091 net.cpp:356] fc8_pascal_color -> fc8_pascal_color
I0406 08:25:02.338479 24091 net.cpp:96] Setting up fc8_pascal_color
I0406 08:25:02.338533 24091 net.cpp:103] Top shape: 32 16 1 1 (512)
I0406 08:25:02.338565 24091 net.cpp:67] Creating Layer fc8_pascal_color_fc8_pascal_color_0_split
I0406 08:25:02.338575 24091 net.cpp:394] fc8_pascal_color_fc8_pascal_color_0_split <- fc8_pascal_color
I0406 08:25:02.338587 24091 net.cpp:356] fc8_pascal_color_fc8_pascal_color_0_split -> fc8_pascal_color_fc8_pascal_color_0_split_0
I0406 08:25:02.338600 24091 net.cpp:356] fc8_pascal_color_fc8_pascal_color_0_split -> fc8_pascal_color_fc8_pascal_color_0_split_1
I0406 08:25:02.338611 24091 net.cpp:96] Setting up fc8_pascal_color_fc8_pascal_color_0_split
I0406 08:25:02.338620 24091 net.cpp:103] Top shape: 32 16 1 1 (512)
I0406 08:25:02.338629 24091 net.cpp:103] Top shape: 32 16 1 1 (512)
I0406 08:25:02.338644 24091 net.cpp:67] Creating Layer loss
I0406 08:25:02.338651 24091 net.cpp:394] loss <- fc8_pascal_color_fc8_pascal_color_0_split_0
I0406 08:25:02.338660 24091 net.cpp:394] loss <- labels1_sliceL_1_split_0
I0406 08:25:02.338675 24091 net.cpp:356] loss -> (automatic)
I0406 08:25:02.338712 24091 net.cpp:96] Setting up loss
I0406 08:25:02.338727 24091 net.cpp:103] Top shape: 1 1 1 1 (1)
I0406 08:25:02.338737 24091 net.cpp:109]     with loss weight 1
I0406 08:25:02.338768 24091 net.cpp:67] Creating Layer accuracy
I0406 08:25:02.338778 24091 net.cpp:394] accuracy <- fc8_pascal_color_fc8_pascal_color_0_split_1
I0406 08:25:02.338788 24091 net.cpp:394] accuracy <- labels1_sliceL_1_split_1
I0406 08:25:02.338799 24091 net.cpp:356] accuracy -> accuracy
I0406 08:25:02.338819 24091 net.cpp:96] Setting up accuracy
I0406 08:25:02.338837 24091 net.cpp:103] Top shape: 1 1 1 1 (1)
I0406 08:25:02.338850 24091 net.cpp:67] Creating Layer accuracy1
I0406 08:25:02.338858 24091 net.cpp:394] accuracy1 <- fc8_pascal_label_fc8_pascal_label_0_split_0
I0406 08:25:02.338867 24091 net.cpp:394] accuracy1 <- labels0_sliceL_0_split_0
I0406 08:25:02.338881 24091 net.cpp:356] accuracy1 -> accuracy1
I0406 08:25:02.338894 24091 net.cpp:96] Setting up accuracy1
I0406 08:25:02.338902 24091 net.cpp:103] Top shape: 1 1 1 1 (1)
I0406 08:25:02.338913 24091 net.cpp:67] Creating Layer silence
I0406 08:25:02.338922 24091 net.cpp:394] silence <- labels0_sliceL_0_split_1
I0406 08:25:02.338932 24091 net.cpp:394] silence <- random
I0406 08:25:02.338939 24091 net.cpp:394] silence <- fc8_pascal_label_fc8_pascal_label_0_split_1
I0406 08:25:02.338948 24091 net.cpp:96] Setting up silence
I0406 08:25:02.338954 24091 net.cpp:172] silence does not need backward computation.
…
