…
  top: "data"
  top: "random"
  name: "data"
  type: DATA
  data_param {
    source: "/data/deepfashion/color_label_multilabel/color_label_multilabel_TRAIN"
    batch_size: 32
    backend: LMDB
  }
  include {
    phase: TRAIN
  }
  transform_param {
    mirror: true
    crop_size: 227
    mean_file: "../../../data/ilsvrc12/imagenet_mean.binaryproto"
  }
}
layers {
  top: "labels"
  name: "labels"
  type: DATA
  data_param {
    source: "/data/deepfashion/color_label_multilabel/color_label_multilabel_TRAIN_ALT"
    batch_size: 32
    backend: LMDB
  }
  include {
    phase: TRAIN
  }
}
layers {
  bottom: "labels"
  top: "labels0"
  top: "labels1"
  name: "sliceL"
  type: SLICE
  slice_param {
    slice_point: 1
  }
}
layers {
  bottom: "data"
  top: "conv1"
  name: "conv1"
  type: CONVOLUTION
  blobs_lr: 0
  blobs_lr: 0
  weight_decay: 1
  weight_decay: 0
  convolution_param {
    num_output: 96
    kernel_size: 11
    stride: 4
    weight_filler {
      type: "gaussian"
      std: 0.01
    }
    bias_filler {
      type: "constant"
      value: 0
    }
  }
}
layers {
  bottom: "conv1"
  top: "conv1"
  name: "relu1"
  type: RELU
}
layers {
  bottom: "conv1"
  top: "pool1"
  name: "pool1"
  type: POOLING
  pooling_param {
    pool: MAX
    kernel_size: 3
    stride: 2
  }
}
layers {
  bottom: "pool1"
  top: "norm1"
  name: "norm1"
  type: LRN
  lrn_param {
    local_size: 5
    alpha: 0.0001
    beta: 0.75
  }
}
layers {
  bottom: "norm1"
  top: "conv2"
  name: "conv2"
  type: CONVOLUTION
  blobs_lr: 0
  blobs_lr: 0
  weight_decay: 1
  weight_decay: 0
  convolution_param {
    num_output: 256
    pad: 2
    kernel_size: 5
    group: 2
    weight_filler {
      type: "gaussian"
      std: 0.01
    }
    bias_filler {
      type: "constant"
      value: 1
    }
  }
}
layers {
  bottom: "conv2"
  top: "conv2"
  name: "relu2"
  type: RELU
}
layers {
  bottom: "conv2"
  top: "pool2"
  name: "pool2"
  type: POOLING
  pooling_param {
    pool: MAX
    kernel_size: 3
    stride: 2
  }
}
layers {
  bottom: "pool2"
  top: "norm2"
  name: "norm2"
  type: LRN
  lrn_param {
    local_size: 5
    alpha: 0.0001
    beta: 0.75
  }
}
layers {
  bottom: "norm2"
  top: "conv3"
  name: "conv3"
  type: CONVOLUTION
  blobs_lr: 0
  blobs_lr: 0
  weight_decay: 1
  weight_decay: 0
  convolution_param {
    num_output: 384
    pad: 1
    kernel_size: 3
    weight_filler {
      type: "gaussian"
      std: 0.01
    }
    bias_filler {
      type: "constant"
      value: 0
    }
  }
}
layers {
  bottom: "conv3"
  top: "conv3"
  name: "relu3"
  type: RELU
}
layers {
  bottom: "conv3"
  top: "conv4"
  name: "conv4"
  type: CONVOLUTION
  blobs_lr: 0
  blobs_lr: 0
  weight_decay: 1
  weight_decay: 0
  convolution_param {
    num_output: 384
    pad: 1
    kernel_size: 3
    group: 2
    weight_filler {
      type: "gaussian"
      std: 0.01
    }
    bias_filler {
      type: "constant"
      value: 1
    }
  }
}
layers {
  bottom: "conv4"
  top: "conv4"
  name: "relu4"
  type: RELU
}
layers {
  bottom: "conv4"
  top: "conv5"
  name: "conv5"
  type: CONVOLUTION
  blobs_lr: 0
  blobs_lr: 0
  weight_decay: 1
  weight_decay: 0
  convolution_param {
    num_output: 256
    pad: 1
    kernel_size: 3
    group: 2
    weight_filler {
      type: "gaussian"
      std: 0.01
    }
    bias_filler {
      type: "constant"
      value: 1
    }
  }
}
layers {
  bottom: "conv5"
  top: "conv5"
  name: "relu5"
  type: RELU
}
layers {
  bottom: "conv5"
  top: "pool5"
  name: "pool5"
  type: POOLING
  pooling_param {
    pool: MAX
    kernel_size: 3
    stride: 2
  }
}
layers {
  bottom: "pool5"
  top: "fc6"
  name: "fc6"
  type: INNER_PRODUCT
  blobs_lr: 0
  blobs_lr: 0
  weight_decay: 1
  weight_decay: 0
  inner_product_param {
    num_output: 4096
    weight_filler {
      type: "gaussian"
      std: 0.005
    }
    bias_filler {
      type: "constant"
      value: 1
    }
  }
}
layers {
  bottom: "fc6"
  top: "fc6"
  name: "relu6"
  type: RELU
}
layers {
  bottom: "fc6"
  top: "fc6"
  name: "drop6"
  type: DROPOUT
  dropout_param {
    dropout_ratio: 0.5
  }
}
layers {
  bottom: "fc6"
  top: "fc7"
  name: "fc7"
  type: INNER_PRODUCT
  blobs_lr: 0
  blobs_lr: 0
  weight_decay: 1
  weight_decay: 0
  inner_product_param {
    num_output: 4096
    weight_filler {
      type: "gaussian"
      std: 0.005
    }
    bias_filler {
      type: "constant"
      value: 1
    }
  }
}
layers {
  bottom: "fc7"
  top: "fc7"
  name: "relu7"
  type: RELU
}
layers {
  bottom: "fc7"
  top: "fc7"
  name: "drop7"
  type: DROPOUT
  dropout_param {
    dropout_ratio: 0.5
  }
}
layers {
  bottom: "fc7"
  top: "fc8_deepfashion"
  name: "fc8_deepfashion"
  type: INNER_PRODUCT
  blobs_lr: 0
  blobs_lr: 0
  weight_decay: 1
  weight_decay: 0
  inner_product_param {
    num_output: 48
    weight_filler {
      type: "gaussian"
      std: 0.01
    }
    bias_filler {
      type: "constant"
      value: 0
    }
  }
}
layers {
  bottom: "fc8_deepfashion"
  top: "fc8_deepfashion_encode"
  name: "fc8_deepfashion_encode"
  type: SIGMOID
}
layers {
  bottom: "fc8_deepfashion_encode"
  top: "fc8_pascal_label"
  name: "fc8_pascal_label"
  type: INNER_PRODUCT
  blobs_lr: 1
  blobs_lr: 2
  weight_decay: 1
  weight_decay: 0
  inner_product_param {
    num_output: 10
    weight_filler {
      type: "gaussian"
      std: 0.01
    }
    bias_filler {
      type: "constant"
      value: 0
    }
  }
}
layers {
  bottom: "fc8_deepfashion_encode"
  top: "fc8_pascal_color"
  name: "fc8_pascal_color"
  type: INNER_PRODUCT
  blobs_lr: 0
  blobs_lr: 0
  weight_decay: 1
  weight_decay: 0
  inner_product_param {
    num_output: 16
    weight_filler {
      type: "gaussian"
      std: 0.01
    }
    bias_filler {
      type: "constant"
      value: 0
    }
  }
}
layers {
  bottom: "fc8_pascal_label"
  bottom: "labels0"
  name: "loss"
  type: SOFTMAX_LOSS
}
layers {
  bottom: "labels1"
  bottom: "random"
  bottom: "fc8_pascal_color"
  name: "silence"
  type: SILENCE
}
state {
  phase: TRAIN
}
I0406 08:36:59.735271   825 net.cpp:67] Creating Layer data
I0406 08:36:59.735285   825 net.cpp:356] data -> data
I0406 08:36:59.735303   825 net.cpp:356] data -> random
I0406 08:36:59.735317   825 net.cpp:96] Setting up data
I0406 08:36:59.736011   825 data_layer.cpp:68] Opening lmdb /data/deepfashion/color_label_multilabel/color_label_multilabel_TRAIN
I0406 08:36:59.736229   825 data_layer.cpp:128] output data size: 32,3,227,227
I0406 08:36:59.736240   825 base_data_layer.cpp:36] Loading mean file from../../../data/ilsvrc12/imagenet_mean.binaryproto
I0406 08:36:59.752471   825 net.cpp:103] Top shape: 32 3 227 227 (4946784)
I0406 08:36:59.752508   825 net.cpp:103] Top shape: 32 1 1 1 (32)
I0406 08:36:59.752526   825 net.cpp:67] Creating Layer labels
I0406 08:36:59.752534   825 net.cpp:356] labels -> labels
I0406 08:36:59.752547   825 net.cpp:96] Setting up labels
I0406 08:36:59.753235   825 data_layer.cpp:68] Opening lmdb /data/deepfashion/color_label_multilabel/color_label_multilabel_TRAIN_ALT
I0406 08:36:59.753268   825 data_layer.cpp:128] output data size: 32,2,1,1
I0406 08:36:59.753368   825 net.cpp:103] Top shape: 32 2 1 1 (64)
I0406 08:36:59.753398   825 net.cpp:67] Creating Layer sliceL
I0406 08:36:59.753448   825 net.cpp:394] sliceL <- labels
I0406 08:36:59.753478   825 net.cpp:356] sliceL -> labels0
I0406 08:36:59.753491   825 net.cpp:356] sliceL -> labels1
I0406 08:36:59.753504   825 net.cpp:96] Setting up sliceL
I0406 08:36:59.753516   825 net.cpp:103] Top shape: 32 1 1 1 (32)
I0406 08:36:59.753523   825 net.cpp:103] Top shape: 32 1 1 1 (32)
I0406 08:36:59.753535   825 net.cpp:67] Creating Layer conv1
I0406 08:36:59.753541   825 net.cpp:394] conv1 <- data
I0406 08:36:59.753554   825 net.cpp:356] conv1 -> conv1
I0406 08:36:59.753566   825 net.cpp:96] Setting up conv1
I0406 08:36:59.781890   825 net.cpp:103] Top shape: 32 96 55 55 (9292800)
I0406 08:36:59.781951   825 net.cpp:67] Creating Layer relu1
I0406 08:36:59.781960   825 net.cpp:394] relu1 <- conv1
I0406 08:36:59.781968   825 net.cpp:345] relu1 -> conv1 (in-place)
I0406 08:36:59.781977   825 net.cpp:96] Setting up relu1
I0406 08:36:59.781990   825 net.cpp:103] Top shape: 32 96 55 55 (9292800)
I0406 08:36:59.781997   825 net.cpp:67] Creating Layer pool1
I0406 08:36:59.782001   825 net.cpp:394] pool1 <- conv1
I0406 08:36:59.782012   825 net.cpp:356] pool1 -> pool1
I0406 08:36:59.782019   825 net.cpp:96] Setting up pool1
I0406 08:36:59.782043   825 net.cpp:103] Top shape: 32 96 27 27 (2239488)
I0406 08:36:59.782050   825 net.cpp:67] Creating Layer norm1
I0406 08:36:59.782054   825 net.cpp:394] norm1 <- pool1
I0406 08:36:59.782060   825 net.cpp:356] norm1 -> norm1
I0406 08:36:59.782066   825 net.cpp:96] Setting up norm1
I0406 08:36:59.782074   825 net.cpp:103] Top shape: 32 96 27 27 (2239488)
I0406 08:36:59.782085   825 net.cpp:67] Creating Layer conv2
I0406 08:36:59.782090   825 net.cpp:394] conv2 <- norm1
I0406 08:36:59.782099   825 net.cpp:356] conv2 -> conv2
I0406 08:36:59.782107   825 net.cpp:96] Setting up conv2
I0406 08:36:59.792284   825 net.cpp:103] Top shape: 32 256 27 27 (5971968)
I0406 08:36:59.792311   825 net.cpp:67] Creating Layer relu2
I0406 08:36:59.792316   825 net.cpp:394] relu2 <- conv2
I0406 08:36:59.792322   825 net.cpp:345] relu2 -> conv2 (in-place)
I0406 08:36:59.792328   825 net.cpp:96] Setting up relu2
I0406 08:36:59.792335   825 net.cpp:103] Top shape: 32 256 27 27 (5971968)
I0406 08:36:59.792341   825 net.cpp:67] Creating Layer pool2
I0406 08:36:59.792346   825 net.cpp:394] pool2 <- conv2
I0406 08:36:59.792351   825 net.cpp:356] pool2 -> pool2
I0406 08:36:59.792357   825 net.cpp:96] Setting up pool2
I0406 08:36:59.792364   825 net.cpp:103] Top shape: 32 256 13 13 (1384448)
I0406 08:36:59.792372   825 net.cpp:67] Creating Layer norm2
I0406 08:36:59.792376   825 net.cpp:394] norm2 <- pool2
I0406 08:36:59.792382   825 net.cpp:356] norm2 -> norm2
I0406 08:36:59.792387   825 net.cpp:96] Setting up norm2
I0406 08:36:59.792392   825 net.cpp:103] Top shape: 32 256 13 13 (1384448)
I0406 08:36:59.792398   825 net.cpp:67] Creating Layer conv3
I0406 08:36:59.792402   825 net.cpp:394] conv3 <- norm2
I0406 08:36:59.792408   825 net.cpp:356] conv3 -> conv3
I0406 08:36:59.792414   825 net.cpp:96] Setting up conv3
I0406 08:36:59.821580   825 net.cpp:103] Top shape: 32 384 13 13 (2076672)
I0406 08:36:59.821606   825 net.cpp:67] Creating Layer relu3
I0406 08:36:59.821611   825 net.cpp:394] relu3 <- conv3
I0406 08:36:59.821617   825 net.cpp:345] relu3 -> conv3 (in-place)
I0406 08:36:59.821624   825 net.cpp:96] Setting up relu3
I0406 08:36:59.821630   825 net.cpp:103] Top shape: 32 384 13 13 (2076672)
I0406 08:36:59.821640   825 net.cpp:67] Creating Layer conv4
I0406 08:36:59.821643   825 net.cpp:394] conv4 <- conv3
I0406 08:36:59.821650   825 net.cpp:356] conv4 -> conv4
I0406 08:36:59.821655   825 net.cpp:96] Setting up conv4
I0406 08:36:59.843330   825 net.cpp:103] Top shape: 32 384 13 13 (2076672)
I0406 08:36:59.843358   825 net.cpp:67] Creating Layer relu4
I0406 08:36:59.843363   825 net.cpp:394] relu4 <- conv4
I0406 08:36:59.843369   825 net.cpp:345] relu4 -> conv4 (in-place)
I0406 08:36:59.843396   825 net.cpp:96] Setting up relu4
I0406 08:36:59.843405   825 net.cpp:103] Top shape: 32 384 13 13 (2076672)
I0406 08:36:59.843413   825 net.cpp:67] Creating Layer conv5
I0406 08:36:59.843418   825 net.cpp:394] conv5 <- conv4
I0406 08:36:59.843425   825 net.cpp:356] conv5 -> conv5
I0406 08:36:59.843430   825 net.cpp:96] Setting up conv5
I0406 08:36:59.858091   825 net.cpp:103] Top shape: 32 256 13 13 (1384448)
I0406 08:36:59.858120   825 net.cpp:67] Creating Layer relu5
I0406 08:36:59.858126   825 net.cpp:394] relu5 <- conv5
I0406 08:36:59.858132   825 net.cpp:345] relu5 -> conv5 (in-place)
I0406 08:36:59.858139   825 net.cpp:96] Setting up relu5
I0406 08:36:59.858145   825 net.cpp:103] Top shape: 32 256 13 13 (1384448)
I0406 08:36:59.858153   825 net.cpp:67] Creating Layer pool5
I0406 08:36:59.858157   825 net.cpp:394] pool5 <- conv5
I0406 08:36:59.858162   825 net.cpp:356] pool5 -> pool5
I0406 08:36:59.858168   825 net.cpp:96] Setting up pool5
I0406 08:36:59.858176   825 net.cpp:103] Top shape: 32 256 6 6 (294912)
I0406 08:36:59.858183   825 net.cpp:67] Creating Layer fc6
I0406 08:36:59.858187   825 net.cpp:394] fc6 <- pool5
I0406 08:36:59.858193   825 net.cpp:356] fc6 -> fc6
I0406 08:36:59.858199   825 net.cpp:96] Setting up fc6
I0406 08:37:01.077142   825 net.cpp:103] Top shape: 32 4096 1 1 (131072)
I0406 08:37:01.077198   825 net.cpp:67] Creating Layer relu6
I0406 08:37:01.077206   825 net.cpp:394] relu6 <- fc6
I0406 08:37:01.077215   825 net.cpp:345] relu6 -> fc6 (in-place)
I0406 08:37:01.077224   825 net.cpp:96] Setting up relu6
I0406 08:37:01.077246   825 net.cpp:103] Top shape: 32 4096 1 1 (131072)
I0406 08:37:01.077253   825 net.cpp:67] Creating Layer drop6
I0406 08:37:01.077257   825 net.cpp:394] drop6 <- fc6
I0406 08:37:01.077265   825 net.cpp:345] drop6 -> fc6 (in-place)
I0406 08:37:01.077271   825 net.cpp:96] Setting up drop6
I0406 08:37:01.077281   825 net.cpp:103] Top shape: 32 4096 1 1 (131072)
I0406 08:37:01.077289   825 net.cpp:67] Creating Layer fc7
I0406 08:37:01.077293   825 net.cpp:394] fc7 <- fc6
I0406 08:37:01.077299   825 net.cpp:356] fc7 -> fc7
I0406 08:37:01.077311   825 net.cpp:96] Setting up fc7
I0406 08:37:01.618396   825 net.cpp:103] Top shape: 32 4096 1 1 (131072)
I0406 08:37:01.618453   825 net.cpp:67] Creating Layer relu7
I0406 08:37:01.618460   825 net.cpp:394] relu7 <- fc7
I0406 08:37:01.618470   825 net.cpp:345] relu7 -> fc7 (in-place)
I0406 08:37:01.618479   825 net.cpp:96] Setting up relu7
I0406 08:37:01.618501   825 net.cpp:103] Top shape: 32 4096 1 1 (131072)
I0406 08:37:01.618508   825 net.cpp:67] Creating Layer drop7
I0406 08:37:01.618512   825 net.cpp:394] drop7 <- fc7
I0406 08:37:01.618517   825 net.cpp:345] drop7 -> fc7 (in-place)
I0406 08:37:01.618523   825 net.cpp:96] Setting up drop7
I0406 08:37:01.618527   825 net.cpp:103] Top shape: 32 4096 1 1 (131072)
I0406 08:37:01.618536   825 net.cpp:67] Creating Layer fc8_deepfashion
I0406 08:37:01.618541   825 net.cpp:394] fc8_deepfashion <- fc7
I0406 08:37:01.618547   825 net.cpp:356] fc8_deepfashion -> fc8_deepfashion
I0406 08:37:01.618554   825 net.cpp:96] Setting up fc8_deepfashion
I0406 08:37:01.625288   825 net.cpp:103] Top shape: 32 48 1 1 (1536)
I0406 08:37:01.625311   825 net.cpp:67] Creating Layer fc8_deepfashion_encode
I0406 08:37:01.625318   825 net.cpp:394] fc8_deepfashion_encode <- fc8_deepfashion
I0406 08:37:01.625324   825 net.cpp:356] fc8_deepfashion_encode -> fc8_deepfashion_encode
I0406 08:37:01.625329   825 net.cpp:96] Setting up fc8_deepfashion_encode
I0406 08:37:01.625342   825 net.cpp:103] Top shape: 32 48 1 1 (1536)
I0406 08:37:01.625350   825 net.cpp:67] Creating Layer fc8_deepfashion_encode_fc8_deepfashion_encode_0_split
I0406 08:37:01.625355   825 net.cpp:394] fc8_deepfashion_encode_fc8_deepfashion_encode_0_split <- fc8_deepfashion_encode
I0406 08:37:01.625360   825 net.cpp:356] fc8_deepfashion_encode_fc8_deepfashion_encode_0_split -> fc8_deepfashion_encode_fc8_deepfashion_encode_0_split_0
I0406 08:37:01.625367   825 net.cpp:356] fc8_deepfashion_encode_fc8_deepfashion_encode_0_split -> fc8_deepfashion_encode_fc8_deepfashion_encode_0_split_1
I0406 08:37:01.625396   825 net.cpp:96] Setting up fc8_deepfashion_encode_fc8_deepfashion_encode_0_split
I0406 08:37:01.625403   825 net.cpp:103] Top shape: 32 48 1 1 (1536)
I0406 08:37:01.625408   825 net.cpp:103] Top shape: 32 48 1 1 (1536)
I0406 08:37:01.625416   825 net.cpp:67] Creating Layer fc8_pascal_label
I0406 08:37:01.625421   825 net.cpp:394] fc8_pascal_label <- fc8_deepfashion_encode_fc8_deepfashion_encode_0_split_0
I0406 08:37:01.625427   825 net.cpp:356] fc8_pascal_label -> fc8_pascal_label
I0406 08:37:01.625433   825 net.cpp:96] Setting up fc8_pascal_label
I0406 08:37:01.625459   825 net.cpp:103] Top shape: 32 10 1 1 (320)
I0406 08:37:01.625474   825 net.cpp:67] Creating Layer fc8_pascal_color
I0406 08:37:01.625479   825 net.cpp:394] fc8_pascal_color <- fc8_deepfashion_encode_fc8_deepfashion_encode_0_split_1
I0406 08:37:01.625488   825 net.cpp:356] fc8_pascal_color -> fc8_pascal_color
I0406 08:37:01.625494   825 net.cpp:96] Setting up fc8_pascal_color
I0406 08:37:01.625527   825 net.cpp:103] Top shape: 32 16 1 1 (512)
I0406 08:37:01.625545   825 net.cpp:67] Creating Layer loss
I0406 08:37:01.625550   825 net.cpp:394] loss <- fc8_pascal_label
I0406 08:37:01.625555   825 net.cpp:394] loss <- labels0
I0406 08:37:01.625562   825 net.cpp:356] loss -> (automatic)
I0406 08:37:01.625567   825 net.cpp:96] Setting up loss
I0406 08:37:01.625578   825 net.cpp:103] Top shape: 1 1 1 1 (1)
I0406 08:37:01.625582   825 net.cpp:109]     with loss weight 1
I0406 08:37:01.625629   825 net.cpp:67] Creating Layer silence
I0406 08:37:01.625634   825 net.cpp:394] silence <- labels1
I0406 08:37:01.625639   825 net.cpp:394] silence <- random
I0406 08:37:01.625644   825 net.cpp:394] silence <- fc8_pascal_color
I0406 08:37:01.625649   825 net.cpp:96] Setting up silence
I0406 08:37:01.625653   825 net.cpp:172] silence does not need backward computation.
…
layers {
  top: "data"
  top: "random"
  name: "data"
  type: DATA
  data_param {
    source: "/data/deepfashion/color_label_multilabel/color_label_multilabel_test"
    batch_size: 32
    backend: LMDB
  }
  include {
    phase: TEST
  }
  transform_param {
    mirror: true
    crop_size: 227
    mean_file: "../../../data/ilsvrc12/imagenet_mean.binaryproto"
  }
}
layers {
  top: "labels"
  name: "labels"
  type: DATA
  data_param {
    source: "/data/deepfashion/color_label_multilabel/color_label_multilabel_test_alt"
    batch_size: 32
    backend: LMDB
  }
  include {
    phase: TEST
  }
}
layers {
  bottom: "labels"
  top: "labels0"
  top: "labels1"
  name: "sliceL"
  type: SLICE
  slice_param {
    slice_point: 1
  }
}
layers {
  bottom: "data"
  top: "conv1"
  name: "conv1"
  type: CONVOLUTION
  blobs_lr: 0
  blobs_lr: 0
  weight_decay: 1
  weight_decay: 0
  convolution_param {
    num_output: 96
    kernel_size: 11
    stride: 4
    weight_filler {
      type: "gaussian"
      std: 0.01
    }
    bias_filler {
      type: "constant"
      value: 0
    }
  }
}
layers {
  bottom: "conv1"
  top: "conv1"
  name: "relu1"
  type: RELU
}
layers {
  bottom: "conv1"
  top: "pool1"
  name: "pool1"
  type: POOLING
  pooling_param {
    pool: MAX
    kernel_size: 3
    stride: 2
  }
}
layers {
  bottom: "pool1"
  top: "norm1"
  name: "norm1"
  type: LRN
  lrn_param {
    local_size: 5
    alpha: 0.0001
    beta: 0.75
  }
}
layers {
  bottom: "norm1"
  top: "conv2"
  name: "conv2"
  type: CONVOLUTION
  blobs_lr: 0
  blobs_lr: 0
  weight_decay: 1
  weight_decay: 0
  convolution_param {
    num_output: 256
    pad: 2
    kernel_size: 5
    group: 2
    weight_filler {
      type: "gaussian"
      std: 0.01
    }
    bias_filler {
      type: "constant"
      value: 1
    }
  }
}
layers {
  bottom: "conv2"
  top: "conv2"
  name: "relu2"
  type: RELU
}
layers {
  bottom: "conv2"
  top: "pool2"
  name: "pool2"
  type: POOLING
  pooling_param {
    pool: MAX
    kernel_size: 3
    stride: 2
  }
}
layers {
  bottom: "pool2"
  top: "norm2"
  name: "norm2"
  type: LRN
  lrn_param {
    local_size: 5
    alpha: 0.0001
    beta: 0.75
  }
}
layers {
  bottom: "norm2"
  top: "conv3"
  name: "conv3"
  type: CONVOLUTION
  blobs_lr: 0
  blobs_lr: 0
  weight_decay: 1
  weight_decay: 0
  convolution_param {
    num_output: 384
    pad: 1
    kernel_size: 3
    weight_filler {
      type: "gaussian"
      std: 0.01
    }
    bias_filler {
      type: "constant"
      value: 0
    }
  }
}
layers {
  bottom: "conv3"
  top: "conv3"
  name: "relu3"
  type: RELU
}
layers {
  bottom: "conv3"
  top: "conv4"
  name: "conv4"
  type: CONVOLUTION
  blobs_lr: 0
  blobs_lr: 0
  weight_decay: 1
  weight_decay: 0
  convolution_param {
    num_output: 384
    pad: 1
    kernel_size: 3
    group: 2
    weight_filler {
      type: "gaussian"
      std: 0.01
    }
    bias_filler {
      type: "constant"
      value: 1
    }
  }
}
layers {
  bottom: "conv4"
  top: "conv4"
  name: "relu4"
  type: RELU
}
layers {
  bottom: "conv4"
  top: "conv5"
  name: "conv5"
  type: CONVOLUTION
  blobs_lr: 0
  blobs_lr: 0
  weight_decay: 1
  weight_decay: 0
  convolution_param {
    num_output: 256
    pad: 1
    kernel_size: 3
    group: 2
    weight_filler {
      type: "gaussian"
      std: 0.01
    }
    bias_filler {
      type: "constant"
      value: 1
    }
  }
}
layers {
  bottom: "conv5"
  top: "conv5"
  name: "relu5"
  type: RELU
}
layers {
  bottom: "conv5"
  top: "pool5"
  name: "pool5"
  type: POOLING
  pooling_param {
    pool: MAX
    kernel_size: 3
    stride: 2
  }
}
layers {
  bottom: "pool5"
  top: "fc6"
  name: "fc6"
  type: INNER_PRODUCT
  blobs_lr: 0
  blobs_lr: 0
  weight_decay: 1
  weight_decay: 0
  inner_product_param {
    num_output: 4096
    weight_filler {
      type: "gaussian"
      std: 0.005
    }
    bias_filler {
      type: "constant"
      value: 1
    }
  }
}
layers {
  bottom: "fc6"
  top: "fc6"
  name: "relu6"
  type: RELU
}
layers {
  bottom: "fc6"
  top: "fc6"
  name: "drop6"
  type: DROPOUT
  dropout_param {
    dropout_ratio: 0.5
  }
}
layers {
  bottom: "fc6"
  top: "fc7"
  name: "fc7"
  type: INNER_PRODUCT
  blobs_lr: 0
  blobs_lr: 0
  weight_decay: 1
  weight_decay: 0
  inner_product_param {
    num_output: 4096
    weight_filler {
      type: "gaussian"
      std: 0.005
    }
    bias_filler {
      type: "constant"
      value: 1
    }
  }
}
layers {
  bottom: "fc7"
  top: "fc7"
  name: "relu7"
  type: RELU
}
layers {
  bottom: "fc7"
  top: "fc7"
  name: "drop7"
  type: DROPOUT
  dropout_param {
    dropout_ratio: 0.5
  }
}
layers {
  bottom: "fc7"
  top: "fc8_deepfashion"
  name: "fc8_deepfashion"
  type: INNER_PRODUCT
  blobs_lr: 0
  blobs_lr: 0
  weight_decay: 1
  weight_decay: 0
  inner_product_param {
    num_output: 48
    weight_filler {
      type: "gaussian"
      std: 0.01
    }
    bias_filler {
      type: "constant"
      value: 0
    }
  }
}
layers {
  bottom: "fc8_deepfashion"
  top: "fc8_deepfashion_encode"
  name: "fc8_deepfashion_encode"
  type: SIGMOID
}
layers {
  bottom: "fc8_deepfashion_encode"
  top: "fc8_pascal_label"
  name: "fc8_pascal_label"
  type: INNER_PRODUCT
  blobs_lr: 1
  blobs_lr: 2
  weight_decay: 1
  weight_decay: 0
  inner_product_param {
    num_output: 10
    weight_filler {
      type: "gaussian"
      std: 0.01
    }
    bias_filler {
      type: "constant"
      value: 0
    }
  }
}
layers {
  bottom: "fc8_deepfashion_encode"
  top: "fc8_pascal_color"
  name: "fc8_pascal_color"
  type: INNER_PRODUCT
  blobs_lr: 0
  blobs_lr: 0
  weight_decay: 1
  weight_decay: 0
  inner_product_param {
    num_output: 16
    weight_filler {
      type: "gaussian"
      std: 0.01
    }
    bias_filler {
      type: "constant"
      value: 0
    }
  }
}
layers {
  bottom: "fc8_pascal_label"
  bottom: "labels0"
  name: "loss"
  type: SOFTMAX_LOSS
}
layers {
  bottom: "fc8_pascal_color"
  bottom: "labels1"
  top: "accuracy"
  name: "accuracy"
  type: ACCURACY
  include {
    phase: TEST
  }
}
layers {
  bottom: "fc8_pascal_label"
  bottom: "labels0"
  top: "accuracy1"
  name: "accuracy1"
  type: ACCURACY
  include {
    phase: TEST
  }
}
layers {
  bottom: "labels1"
  bottom: "random"
  bottom: "fc8_pascal_color"
  name: "silence"
  type: SILENCE
}
state {
  phase: TEST
}
I0406 08:37:01.626963   825 net.cpp:67] Creating Layer data
I0406 08:37:01.626972   825 net.cpp:356] data -> data
I0406 08:37:01.626981   825 net.cpp:356] data -> random
I0406 08:37:01.626987   825 net.cpp:96] Setting up data
I0406 08:37:01.627750   825 data_layer.cpp:68] Opening lmdb /data/deepfashion/color_label_multilabel/color_label_multilabel_test
I0406 08:37:01.627964   825 data_layer.cpp:128] output data size: 32,3,227,227
I0406 08:37:01.627974   825 base_data_layer.cpp:36] Loading mean file from../../../data/ilsvrc12/imagenet_mean.binaryproto
I0406 08:37:01.635269   825 net.cpp:103] Top shape: 32 3 227 227 (4946784)
I0406 08:37:01.635303   825 net.cpp:103] Top shape: 32 1 1 1 (32)
I0406 08:37:01.635321   825 net.cpp:67] Creating Layer labels
I0406 08:37:01.635329   825 net.cpp:356] labels -> labels
I0406 08:37:01.635372   825 net.cpp:96] Setting up labels
I0406 08:37:01.635444   825 data_layer.cpp:68] Opening lmdb /data/deepfashion/color_label_multilabel/color_label_multilabel_test_alt
I0406 08:37:01.635464   825 data_layer.cpp:128] output data size: 32,2,1,1
I0406 08:37:01.635499   825 net.cpp:103] Top shape: 32 2 1 1 (64)
I0406 08:37:01.635516   825 net.cpp:67] Creating Layer sliceL
I0406 08:37:01.635521   825 net.cpp:394] sliceL <- labels
I0406 08:37:01.635529   825 net.cpp:356] sliceL -> labels0
I0406 08:37:01.635536   825 net.cpp:356] sliceL -> labels1
I0406 08:37:01.635543   825 net.cpp:96] Setting up sliceL
I0406 08:37:01.635551   825 net.cpp:103] Top shape: 32 1 1 1 (32)
I0406 08:37:01.635555   825 net.cpp:103] Top shape: 32 1 1 1 (32)
I0406 08:37:01.635561   825 net.cpp:67] Creating Layer labels0_sliceL_0_split
I0406 08:37:01.635565   825 net.cpp:394] labels0_sliceL_0_split <- labels0
I0406 08:37:01.635571   825 net.cpp:356] labels0_sliceL_0_split -> labels0_sliceL_0_split_0
I0406 08:37:01.635578   825 net.cpp:356] labels0_sliceL_0_split -> labels0_sliceL_0_split_1
I0406 08:37:01.635584   825 net.cpp:96] Setting up labels0_sliceL_0_split
I0406 08:37:01.635589   825 net.cpp:103] Top shape: 32 1 1 1 (32)
I0406 08:37:01.635593   825 net.cpp:103] Top shape: 32 1 1 1 (32)
I0406 08:37:01.635599   825 net.cpp:67] Creating Layer labels1_sliceL_1_split
I0406 08:37:01.635603   825 net.cpp:394] labels1_sliceL_1_split <- labels1
I0406 08:37:01.635608   825 net.cpp:356] labels1_sliceL_1_split -> labels1_sliceL_1_split_0
I0406 08:37:01.635614   825 net.cpp:356] labels1_sliceL_1_split -> labels1_sliceL_1_split_1
I0406 08:37:01.635620   825 net.cpp:96] Setting up labels1_sliceL_1_split
I0406 08:37:01.635624   825 net.cpp:103] Top shape: 32 1 1 1 (32)
I0406 08:37:01.635629   825 net.cpp:103] Top shape: 32 1 1 1 (32)
I0406 08:37:01.635637   825 net.cpp:67] Creating Layer conv1
I0406 08:37:01.635640   825 net.cpp:394] conv1 <- data
I0406 08:37:01.635648   825 net.cpp:356] conv1 -> conv1
I0406 08:37:01.635653   825 net.cpp:96] Setting up conv1
I0406 08:37:01.636904   825 net.cpp:103] Top shape: 32 96 55 55 (9292800)
I0406 08:37:01.636931   825 net.cpp:67] Creating Layer relu1
I0406 08:37:01.636937   825 net.cpp:394] relu1 <- conv1
I0406 08:37:01.636945   825 net.cpp:345] relu1 -> conv1 (in-place)
I0406 08:37:01.636950   825 net.cpp:96] Setting up relu1
I0406 08:37:01.636957   825 net.cpp:103] Top shape: 32 96 55 55 (9292800)
I0406 08:37:01.636965   825 net.cpp:67] Creating Layer pool1
I0406 08:37:01.636970   825 net.cpp:394] pool1 <- conv1
I0406 08:37:01.636976   825 net.cpp:356] pool1 -> pool1
I0406 08:37:01.636981   825 net.cpp:96] Setting up pool1
I0406 08:37:01.636991   825 net.cpp:103] Top shape: 32 96 27 27 (2239488)
I0406 08:37:01.636999   825 net.cpp:67] Creating Layer norm1
I0406 08:37:01.637013   825 net.cpp:394] norm1 <- pool1
I0406 08:37:01.637022   825 net.cpp:356] norm1 -> norm1
I0406 08:37:01.637027   825 net.cpp:96] Setting up norm1
I0406 08:37:01.637032   825 net.cpp:103] Top shape: 32 96 27 27 (2239488)
I0406 08:37:01.637040   825 net.cpp:67] Creating Layer conv2
I0406 08:37:01.637044   825 net.cpp:394] conv2 <- norm1
I0406 08:37:01.637050   825 net.cpp:356] conv2 -> conv2
I0406 08:37:01.637058   825 net.cpp:96] Setting up conv2
I0406 08:37:01.647297   825 net.cpp:103] Top shape: 32 256 27 27 (5971968)
I0406 08:37:01.647341   825 net.cpp:67] Creating Layer relu2
I0406 08:37:01.647348   825 net.cpp:394] relu2 <- conv2
I0406 08:37:01.647356   825 net.cpp:345] relu2 -> conv2 (in-place)
I0406 08:37:01.647363   825 net.cpp:96] Setting up relu2
I0406 08:37:01.647370   825 net.cpp:103] Top shape: 32 256 27 27 (5971968)
I0406 08:37:01.647377   825 net.cpp:67] Creating Layer pool2
I0406 08:37:01.647382   825 net.cpp:394] pool2 <- conv2
I0406 08:37:01.647390   825 net.cpp:356] pool2 -> pool2
I0406 08:37:01.647397   825 net.cpp:96] Setting up pool2
I0406 08:37:01.647405   825 net.cpp:103] Top shape: 32 256 13 13 (1384448)
I0406 08:37:01.647413   825 net.cpp:67] Creating Layer norm2
I0406 08:37:01.647418   825 net.cpp:394] norm2 <- pool2
I0406 08:37:01.647444   825 net.cpp:356] norm2 -> norm2
I0406 08:37:01.647450   825 net.cpp:96] Setting up norm2
I0406 08:37:01.647454   825 net.cpp:103] Top shape: 32 256 13 13 (1384448)
I0406 08:37:01.647464   825 net.cpp:67] Creating Layer conv3
I0406 08:37:01.647469   825 net.cpp:394] conv3 <- norm2
I0406 08:37:01.647475   825 net.cpp:356] conv3 -> conv3
I0406 08:37:01.647481   825 net.cpp:96] Setting up conv3
I0406 08:37:01.676556   825 net.cpp:103] Top shape: 32 384 13 13 (2076672)
I0406 08:37:01.676605   825 net.cpp:67] Creating Layer relu3
I0406 08:37:01.676614   825 net.cpp:394] relu3 <- conv3
I0406 08:37:01.676620   825 net.cpp:345] relu3 -> conv3 (in-place)
I0406 08:37:01.676628   825 net.cpp:96] Setting up relu3
I0406 08:37:01.676636   825 net.cpp:103] Top shape: 32 384 13 13 (2076672)
I0406 08:37:01.676645   825 net.cpp:67] Creating Layer conv4
I0406 08:37:01.676648   825 net.cpp:394] conv4 <- conv3
I0406 08:37:01.676656   825 net.cpp:356] conv4 -> conv4
I0406 08:37:01.676666   825 net.cpp:96] Setting up conv4
I0406 08:37:01.698629   825 net.cpp:103] Top shape: 32 384 13 13 (2076672)
I0406 08:37:01.698657   825 net.cpp:67] Creating Layer relu4
I0406 08:37:01.698662   825 net.cpp:394] relu4 <- conv4
I0406 08:37:01.698668   825 net.cpp:345] relu4 -> conv4 (in-place)
I0406 08:37:01.698674   825 net.cpp:96] Setting up relu4
I0406 08:37:01.698681   825 net.cpp:103] Top shape: 32 384 13 13 (2076672)
I0406 08:37:01.698688   825 net.cpp:67] Creating Layer conv5
I0406 08:37:01.698693   825 net.cpp:394] conv5 <- conv4
I0406 08:37:01.698701   825 net.cpp:356] conv5 -> conv5
I0406 08:37:01.698709   825 net.cpp:96] Setting up conv5
I0406 08:37:01.713732   825 net.cpp:103] Top shape: 32 256 13 13 (1384448)
I0406 08:37:01.713762   825 net.cpp:67] Creating Layer relu5
I0406 08:37:01.713768   825 net.cpp:394] relu5 <- conv5
I0406 08:37:01.713776   825 net.cpp:345] relu5 -> conv5 (in-place)
I0406 08:37:01.713783   825 net.cpp:96] Setting up relu5
I0406 08:37:01.713790   825 net.cpp:103] Top shape: 32 256 13 13 (1384448)
I0406 08:37:01.713798   825 net.cpp:67] Creating Layer pool5
I0406 08:37:01.713801   825 net.cpp:394] pool5 <- conv5
I0406 08:37:01.713809   825 net.cpp:356] pool5 -> pool5
I0406 08:37:01.713814   825 net.cpp:96] Setting up pool5
I0406 08:37:01.713824   825 net.cpp:103] Top shape: 32 256 6 6 (294912)
I0406 08:37:01.713841   825 net.cpp:67] Creating Layer fc6
I0406 08:37:01.713846   825 net.cpp:394] fc6 <- pool5
I0406 08:37:01.713852   825 net.cpp:356] fc6 -> fc6
I0406 08:37:01.713860   825 net.cpp:96] Setting up fc6
I0406 08:37:02.960850   825 net.cpp:103] Top shape: 32 4096 1 1 (131072)
I0406 08:37:02.960902   825 net.cpp:67] Creating Layer relu6
I0406 08:37:02.960911   825 net.cpp:394] relu6 <- fc6
I0406 08:37:02.960919   825 net.cpp:345] relu6 -> fc6 (in-place)
I0406 08:37:02.960928   825 net.cpp:96] Setting up relu6
I0406 08:37:02.960955   825 net.cpp:103] Top shape: 32 4096 1 1 (131072)
I0406 08:37:02.960963   825 net.cpp:67] Creating Layer drop6
I0406 08:37:02.960968   825 net.cpp:394] drop6 <- fc6
I0406 08:37:02.960975   825 net.cpp:345] drop6 -> fc6 (in-place)
I0406 08:37:02.960983   825 net.cpp:96] Setting up drop6
I0406 08:37:02.960986   825 net.cpp:103] Top shape: 32 4096 1 1 (131072)
I0406 08:37:02.960995   825 net.cpp:67] Creating Layer fc7
I0406 08:37:02.960999   825 net.cpp:394] fc7 <- fc6
I0406 08:37:02.961005   825 net.cpp:356] fc7 -> fc7
I0406 08:37:02.961014   825 net.cpp:96] Setting up fc7
I0406 08:37:03.506624   825 net.cpp:103] Top shape: 32 4096 1 1 (131072)
I0406 08:37:03.506681   825 net.cpp:67] Creating Layer relu7
I0406 08:37:03.506690   825 net.cpp:394] relu7 <- fc7
I0406 08:37:03.506700   825 net.cpp:345] relu7 -> fc7 (in-place)
I0406 08:37:03.506710   825 net.cpp:96] Setting up relu7
I0406 08:37:03.506733   825 net.cpp:103] Top shape: 32 4096 1 1 (131072)
I0406 08:37:03.506741   825 net.cpp:67] Creating Layer drop7
I0406 08:37:03.506744   825 net.cpp:394] drop7 <- fc7
I0406 08:37:03.506750   825 net.cpp:345] drop7 -> fc7 (in-place)
I0406 08:37:03.506755   825 net.cpp:96] Setting up drop7
I0406 08:37:03.506790   825 net.cpp:103] Top shape: 32 4096 1 1 (131072)
I0406 08:37:03.506803   825 net.cpp:67] Creating Layer fc8_deepfashion
I0406 08:37:03.506806   825 net.cpp:394] fc8_deepfashion <- fc7
I0406 08:37:03.506814   825 net.cpp:356] fc8_deepfashion -> fc8_deepfashion
I0406 08:37:03.506820   825 net.cpp:96] Setting up fc8_deepfashion
I0406 08:37:03.513411   825 net.cpp:103] Top shape: 32 48 1 1 (1536)
I0406 08:37:03.513435   825 net.cpp:67] Creating Layer fc8_deepfashion_encode
I0406 08:37:03.513440   825 net.cpp:394] fc8_deepfashion_encode <- fc8_deepfashion
I0406 08:37:03.513447   825 net.cpp:356] fc8_deepfashion_encode -> fc8_deepfashion_encode
I0406 08:37:03.513453   825 net.cpp:96] Setting up fc8_deepfashion_encode
I0406 08:37:03.513463   825 net.cpp:103] Top shape: 32 48 1 1 (1536)
I0406 08:37:03.513471   825 net.cpp:67] Creating Layer fc8_deepfashion_encode_fc8_deepfashion_encode_0_split
I0406 08:37:03.513475   825 net.cpp:394] fc8_deepfashion_encode_fc8_deepfashion_encode_0_split <- fc8_deepfashion_encode
I0406 08:37:03.513480   825 net.cpp:356] fc8_deepfashion_encode_fc8_deepfashion_encode_0_split -> fc8_deepfashion_encode_fc8_deepfashion_encode_0_split_0
I0406 08:37:03.513487   825 net.cpp:356] fc8_deepfashion_encode_fc8_deepfashion_encode_0_split -> fc8_deepfashion_encode_fc8_deepfashion_encode_0_split_1
I0406 08:37:03.513494   825 net.cpp:96] Setting up fc8_deepfashion_encode_fc8_deepfashion_encode_0_split
I0406 08:37:03.513499   825 net.cpp:103] Top shape: 32 48 1 1 (1536)
I0406 08:37:03.513504   825 net.cpp:103] Top shape: 32 48 1 1 (1536)
I0406 08:37:03.513511   825 net.cpp:67] Creating Layer fc8_pascal_label
I0406 08:37:03.513516   825 net.cpp:394] fc8_pascal_label <- fc8_deepfashion_encode_fc8_deepfashion_encode_0_split_0
I0406 08:37:03.513522   825 net.cpp:356] fc8_pascal_label -> fc8_pascal_label
I0406 08:37:03.513528   825 net.cpp:96] Setting up fc8_pascal_label
I0406 08:37:03.513553   825 net.cpp:103] Top shape: 32 10 1 1 (320)
I0406 08:37:03.513576   825 net.cpp:67] Creating Layer fc8_pascal_label_fc8_pascal_label_0_split
I0406 08:37:03.513584   825 net.cpp:394] fc8_pascal_label_fc8_pascal_label_0_split <- fc8_pascal_label
I0406 08:37:03.513591   825 net.cpp:356] fc8_pascal_label_fc8_pascal_label_0_split -> fc8_pascal_label_fc8_pascal_label_0_split_0
I0406 08:37:03.513598   825 net.cpp:356] fc8_pascal_label_fc8_pascal_label_0_split -> fc8_pascal_label_fc8_pascal_label_0_split_1
I0406 08:37:03.513604   825 net.cpp:96] Setting up fc8_pascal_label_fc8_pascal_label_0_split
I0406 08:37:03.513609   825 net.cpp:103] Top shape: 32 10 1 1 (320)
I0406 08:37:03.513612   825 net.cpp:103] Top shape: 32 10 1 1 (320)
I0406 08:37:03.513619   825 net.cpp:67] Creating Layer fc8_pascal_color
I0406 08:37:03.513623   825 net.cpp:394] fc8_pascal_color <- fc8_deepfashion_encode_fc8_deepfashion_encode_0_split_1
I0406 08:37:03.513629   825 net.cpp:356] fc8_pascal_color -> fc8_pascal_color
I0406 08:37:03.513635   825 net.cpp:96] Setting up fc8_pascal_color
I0406 08:37:03.513671   825 net.cpp:103] Top shape: 32 16 1 1 (512)
I0406 08:37:03.513691   825 net.cpp:67] Creating Layer fc8_pascal_color_fc8_pascal_color_0_split
I0406 08:37:03.513697   825 net.cpp:394] fc8_pascal_color_fc8_pascal_color_0_split <- fc8_pascal_color
I0406 08:37:03.513703   825 net.cpp:356] fc8_pascal_color_fc8_pascal_color_0_split -> fc8_pascal_color_fc8_pascal_color_0_split_0
I0406 08:37:03.513713   825 net.cpp:356] fc8_pascal_color_fc8_pascal_color_0_split -> fc8_pascal_color_fc8_pascal_color_0_split_1
I0406 08:37:03.513722   825 net.cpp:96] Setting up fc8_pascal_color_fc8_pascal_color_0_split
I0406 08:37:03.513726   825 net.cpp:103] Top shape: 32 16 1 1 (512)
I0406 08:37:03.513731   825 net.cpp:103] Top shape: 32 16 1 1 (512)
I0406 08:37:03.513736   825 net.cpp:67] Creating Layer loss
I0406 08:37:03.513739   825 net.cpp:394] loss <- fc8_pascal_label_fc8_pascal_label_0_split_0
I0406 08:37:03.513746   825 net.cpp:394] loss <- labels0_sliceL_0_split_0
I0406 08:37:03.513753   825 net.cpp:356] loss -> (automatic)
I0406 08:37:03.513772   825 net.cpp:96] Setting up loss
I0406 08:37:03.513782   825 net.cpp:103] Top shape: 1 1 1 1 (1)
I0406 08:37:03.513785   825 net.cpp:109]     with loss weight 1
I0406 08:37:03.513808   825 net.cpp:67] Creating Layer accuracy
I0406 08:37:03.513813   825 net.cpp:394] accuracy <- fc8_pascal_color_fc8_pascal_color_0_split_0
I0406 08:37:03.513818   825 net.cpp:394] accuracy <- labels1_sliceL_1_split_0
I0406 08:37:03.513828   825 net.cpp:356] accuracy -> accuracy
I0406 08:37:03.513836   825 net.cpp:96] Setting up accuracy
I0406 08:37:03.513846   825 net.cpp:103] Top shape: 1 1 1 1 (1)
I0406 08:37:03.513854   825 net.cpp:67] Creating Layer accuracy1
I0406 08:37:03.513859   825 net.cpp:394] accuracy1 <- fc8_pascal_label_fc8_pascal_label_0_split_1
I0406 08:37:03.513864   825 net.cpp:394] accuracy1 <- labels0_sliceL_0_split_1
I0406 08:37:03.513871   825 net.cpp:356] accuracy1 -> accuracy1
I0406 08:37:03.513878   825 net.cpp:96] Setting up accuracy1
I0406 08:37:03.513882   825 net.cpp:103] Top shape: 1 1 1 1 (1)
I0406 08:37:03.513887   825 net.cpp:67] Creating Layer silence
I0406 08:37:03.513892   825 net.cpp:394] silence <- labels1_sliceL_1_split_1
I0406 08:37:03.513897   825 net.cpp:394] silence <- random
I0406 08:37:03.513902   825 net.cpp:394] silence <- fc8_pascal_color_fc8_pascal_color_0_split_1
I0406 08:37:03.513906   825 net.cpp:96] Setting up silence
I0406 08:37:03.513911   825 net.cpp:172] silence does not need backward computation.
…
