…
  top: "data"
  top: "random"
  name: "data"
  type: DATA
  data_param {
    source: "/data/deepfashion/color_label_multilabel/color_label_multilabel_TRAIN"
    batch_size: 32
    backend: LMDB
  }
  include {
    phase: TRAIN
  }
  transform_param {
    mirror: true
    crop_size: 227
    mean_file: "../../../data/ilsvrc12/imagenet_mean.binaryproto"
  }
}
layers {
  top: "labels"
  name: "labels"
  type: DATA
  data_param {
    source: "/data/deepfashion/color_label_multilabel/color_label_multilabel_TRAIN_ALT"
    batch_size: 32
    backend: LMDB
  }
  include {
    phase: TRAIN
  }
}
layers {
  bottom: "labels"
  top: "labels0"
  top: "labels1"
  name: "sliceL"
  type: SLICE
  slice_param {
    slice_point: 1
  }
}
layers {
  bottom: "data"
  top: "conv1"
  name: "conv1"
  type: CONVOLUTION
  blobs_lr: 0
  blobs_lr: 0
  weight_decay: 1
  weight_decay: 0
  convolution_param {
    num_output: 96
    kernel_size: 11
    stride: 4
    weight_filler {
      type: "gaussian"
      std: 0.01
    }
    bias_filler {
      type: "constant"
      value: 0
    }
  }
}
layers {
  bottom: "conv1"
  top: "conv1"
  name: "relu1"
  type: RELU
}
layers {
  bottom: "conv1"
  top: "pool1"
  name: "pool1"
  type: POOLING
  pooling_param {
    pool: MAX
    kernel_size: 3
    stride: 2
  }
}
layers {
  bottom: "pool1"
  top: "norm1"
  name: "norm1"
  type: LRN
  lrn_param {
    local_size: 5
    alpha: 0.0001
    beta: 0.75
  }
}
layers {
  bottom: "norm1"
  top: "conv2"
  name: "conv2"
  type: CONVOLUTION
  blobs_lr: 0
  blobs_lr: 0
  weight_decay: 1
  weight_decay: 0
  convolution_param {
    num_output: 256
    pad: 2
    kernel_size: 5
    group: 2
    weight_filler {
      type: "gaussian"
      std: 0.01
    }
    bias_filler {
      type: "constant"
      value: 1
    }
  }
}
layers {
  bottom: "conv2"
  top: "conv2"
  name: "relu2"
  type: RELU
}
layers {
  bottom: "conv2"
  top: "pool2"
  name: "pool2"
  type: POOLING
  pooling_param {
    pool: MAX
    kernel_size: 3
    stride: 2
  }
}
layers {
  bottom: "pool2"
  top: "norm2"
  name: "norm2"
  type: LRN
  lrn_param {
    local_size: 5
    alpha: 0.0001
    beta: 0.75
  }
}
layers {
  bottom: "norm2"
  top: "conv3"
  name: "conv3"
  type: CONVOLUTION
  blobs_lr: 0
  blobs_lr: 0
  weight_decay: 1
  weight_decay: 0
  convolution_param {
    num_output: 384
    pad: 1
    kernel_size: 3
    weight_filler {
      type: "gaussian"
      std: 0.01
    }
    bias_filler {
      type: "constant"
      value: 0
    }
  }
}
layers {
  bottom: "conv3"
  top: "conv3"
  name: "relu3"
  type: RELU
}
layers {
  bottom: "conv3"
  top: "conv4"
  name: "conv4"
  type: CONVOLUTION
  blobs_lr: 0
  blobs_lr: 0
  weight_decay: 1
  weight_decay: 0
  convolution_param {
    num_output: 384
    pad: 1
    kernel_size: 3
    group: 2
    weight_filler {
      type: "gaussian"
      std: 0.01
    }
    bias_filler {
      type: "constant"
      value: 1
    }
  }
}
layers {
  bottom: "conv4"
  top: "conv4"
  name: "relu4"
  type: RELU
}
layers {
  bottom: "conv4"
  top: "conv5"
  name: "conv5"
  type: CONVOLUTION
  blobs_lr: 0
  blobs_lr: 0
  weight_decay: 1
  weight_decay: 0
  convolution_param {
    num_output: 256
    pad: 1
    kernel_size: 3
    group: 2
    weight_filler {
      type: "gaussian"
      std: 0.01
    }
    bias_filler {
      type: "constant"
      value: 1
    }
  }
}
layers {
  bottom: "conv5"
  top: "conv5"
  name: "relu5"
  type: RELU
}
layers {
  bottom: "conv5"
  top: "pool5"
  name: "pool5"
  type: POOLING
  pooling_param {
    pool: MAX
    kernel_size: 3
    stride: 2
  }
}
layers {
  bottom: "pool5"
  top: "fc6"
  name: "fc6"
  type: INNER_PRODUCT
  blobs_lr: 0
  blobs_lr: 0
  weight_decay: 1
  weight_decay: 0
  inner_product_param {
    num_output: 4096
    weight_filler {
      type: "gaussian"
      std: 0.005
    }
    bias_filler {
      type: "constant"
      value: 1
    }
  }
}
layers {
  bottom: "fc6"
  top: "fc6"
  name: "relu6"
  type: RELU
}
layers {
  bottom: "fc6"
  top: "fc6"
  name: "drop6"
  type: DROPOUT
  dropout_param {
    dropout_ratio: 0.5
  }
}
layers {
  bottom: "fc6"
  top: "fc7"
  name: "fc7"
  type: INNER_PRODUCT
  blobs_lr: 0
  blobs_lr: 0
  weight_decay: 1
  weight_decay: 0
  inner_product_param {
    num_output: 4096
    weight_filler {
      type: "gaussian"
      std: 0.005
    }
    bias_filler {
      type: "constant"
      value: 1
    }
  }
}
layers {
  bottom: "fc7"
  top: "fc7"
  name: "relu7"
  type: RELU
}
layers {
  bottom: "fc7"
  top: "fc7"
  name: "drop7"
  type: DROPOUT
  dropout_param {
    dropout_ratio: 0.5
  }
}
layers {
  bottom: "fc7"
  top: "fc8_deepfashion"
  name: "fc8_deepfashion"
  type: INNER_PRODUCT
  blobs_lr: 1
  blobs_lr: 2
  weight_decay: 1
  weight_decay: 0
  inner_product_param {
    num_output: 48
    weight_filler {
      type: "gaussian"
      std: 0.01
    }
    bias_filler {
      type: "constant"
      value: 0
    }
  }
}
layers {
  bottom: "fc8_deepfashion"
  top: "fc8_deepfashion_encode"
  name: "fc8_deepfashion_encode"
  type: SIGMOID
}
layers {
  bottom: "fc8_deepfashion_encode"
  top: "fc8_pascal_label"
  name: "fc8_pascal_label"
  type: INNER_PRODUCT
  blobs_lr: 1
  blobs_lr: 2
  weight_decay: 1
  weight_decay: 0
  inner_product_param {
    num_output: 10
    weight_filler {
      type: "gaussian"
      std: 0.01
    }
    bias_filler {
      type: "constant"
      value: 0
    }
  }
}
layers {
  bottom: "fc8_deepfashion_encode"
  top: "fc8_pascal_color"
  name: "fc8_pascal_color"
  type: INNER_PRODUCT
  blobs_lr: 0
  blobs_lr: 0
  weight_decay: 1
  weight_decay: 0
  inner_product_param {
    num_output: 16
    weight_filler {
      type: "gaussian"
      std: 0.01
    }
    bias_filler {
      type: "constant"
      value: 0
    }
  }
}
layers {
  bottom: "fc8_pascal_label"
  bottom: "labels0"
  name: "loss"
  type: SOFTMAX_LOSS
}
layers {
  bottom: "labels1"
  bottom: "random"
  bottom: "fc8_pascal_color"
  name: "silence"
  type: SILENCE
}
state {
  phase: TRAIN
}
I0406 09:16:21.539649 17481 net.cpp:67] Creating Layer data
I0406 09:16:21.539661 17481 net.cpp:356] data -> data
I0406 09:16:21.539679 17481 net.cpp:356] data -> random
I0406 09:16:21.539693 17481 net.cpp:96] Setting up data
I0406 09:16:21.539793 17481 data_layer.cpp:68] Opening lmdb /data/deepfashion/color_label_multilabel/color_label_multilabel_TRAIN
I0406 09:16:21.539976 17481 data_layer.cpp:128] output data size: 32,3,227,227
I0406 09:16:21.539984 17481 base_data_layer.cpp:36] Loading mean file from../../../data/ilsvrc12/imagenet_mean.binaryproto
I0406 09:16:21.547431 17481 net.cpp:103] Top shape: 32 3 227 227 (4946784)
I0406 09:16:21.547466 17481 net.cpp:103] Top shape: 32 1 1 1 (32)
I0406 09:16:21.547483 17481 net.cpp:67] Creating Layer labels
I0406 09:16:21.547492 17481 net.cpp:356] labels -> labels
I0406 09:16:21.547504 17481 net.cpp:96] Setting up labels
I0406 09:16:21.547611 17481 data_layer.cpp:68] Opening lmdb /data/deepfashion/color_label_multilabel/color_label_multilabel_TRAIN_ALT
I0406 09:16:21.547636 17481 data_layer.cpp:128] output data size: 32,2,1,1
I0406 09:16:21.547744 17481 net.cpp:103] Top shape: 32 2 1 1 (64)
I0406 09:16:21.547771 17481 net.cpp:67] Creating Layer sliceL
I0406 09:16:21.547781 17481 net.cpp:394] sliceL <- labels
I0406 09:16:21.547794 17481 net.cpp:356] sliceL -> labels0
I0406 09:16:21.547802 17481 net.cpp:356] sliceL -> labels1
I0406 09:16:21.547811 17481 net.cpp:96] Setting up sliceL
I0406 09:16:21.547821 17481 net.cpp:103] Top shape: 32 1 1 1 (32)
I0406 09:16:21.547826 17481 net.cpp:103] Top shape: 32 1 1 1 (32)
I0406 09:16:21.547835 17481 net.cpp:67] Creating Layer conv1
I0406 09:16:21.547839 17481 net.cpp:394] conv1 <- data
I0406 09:16:21.547849 17481 net.cpp:356] conv1 -> conv1
I0406 09:16:21.547857 17481 net.cpp:96] Setting up conv1
I0406 09:16:21.570827 17481 net.cpp:103] Top shape: 32 96 55 55 (9292800)
I0406 09:16:21.570884 17481 net.cpp:67] Creating Layer relu1
I0406 09:16:21.570893 17481 net.cpp:394] relu1 <- conv1
I0406 09:16:21.570900 17481 net.cpp:345] relu1 -> conv1 (in-place)
I0406 09:16:21.570909 17481 net.cpp:96] Setting up relu1
I0406 09:16:21.570921 17481 net.cpp:103] Top shape: 32 96 55 55 (9292800)
I0406 09:16:21.570930 17481 net.cpp:67] Creating Layer pool1
I0406 09:16:21.570935 17481 net.cpp:394] pool1 <- conv1
I0406 09:16:21.570940 17481 net.cpp:356] pool1 -> pool1
I0406 09:16:21.570948 17481 net.cpp:96] Setting up pool1
I0406 09:16:21.570972 17481 net.cpp:103] Top shape: 32 96 27 27 (2239488)
I0406 09:16:21.570988 17481 net.cpp:67] Creating Layer norm1
I0406 09:16:21.570992 17481 net.cpp:394] norm1 <- pool1
I0406 09:16:21.570998 17481 net.cpp:356] norm1 -> norm1
I0406 09:16:21.571004 17481 net.cpp:96] Setting up norm1
I0406 09:16:21.571012 17481 net.cpp:103] Top shape: 32 96 27 27 (2239488)
I0406 09:16:21.571022 17481 net.cpp:67] Creating Layer conv2
I0406 09:16:21.571025 17481 net.cpp:394] conv2 <- norm1
I0406 09:16:21.571032 17481 net.cpp:356] conv2 -> conv2
I0406 09:16:21.571039 17481 net.cpp:96] Setting up conv2
I0406 09:16:21.581348 17481 net.cpp:103] Top shape: 32 256 27 27 (5971968)
I0406 09:16:21.581375 17481 net.cpp:67] Creating Layer relu2
I0406 09:16:21.581380 17481 net.cpp:394] relu2 <- conv2
I0406 09:16:21.581393 17481 net.cpp:345] relu2 -> conv2 (in-place)
I0406 09:16:21.581398 17481 net.cpp:96] Setting up relu2
I0406 09:16:21.581405 17481 net.cpp:103] Top shape: 32 256 27 27 (5971968)
I0406 09:16:21.581423 17481 net.cpp:67] Creating Layer pool2
I0406 09:16:21.581429 17481 net.cpp:394] pool2 <- conv2
I0406 09:16:21.581434 17481 net.cpp:356] pool2 -> pool2
I0406 09:16:21.581440 17481 net.cpp:96] Setting up pool2
I0406 09:16:21.581449 17481 net.cpp:103] Top shape: 32 256 13 13 (1384448)
I0406 09:16:21.581457 17481 net.cpp:67] Creating Layer norm2
I0406 09:16:21.581461 17481 net.cpp:394] norm2 <- pool2
I0406 09:16:21.581468 17481 net.cpp:356] norm2 -> norm2
I0406 09:16:21.581475 17481 net.cpp:96] Setting up norm2
I0406 09:16:21.581478 17481 net.cpp:103] Top shape: 32 256 13 13 (1384448)
I0406 09:16:21.581486 17481 net.cpp:67] Creating Layer conv3
I0406 09:16:21.581490 17481 net.cpp:394] conv3 <- norm2
I0406 09:16:21.581497 17481 net.cpp:356] conv3 -> conv3
I0406 09:16:21.581503 17481 net.cpp:96] Setting up conv3
I0406 09:16:21.610491 17481 net.cpp:103] Top shape: 32 384 13 13 (2076672)
I0406 09:16:21.610517 17481 net.cpp:67] Creating Layer relu3
I0406 09:16:21.610522 17481 net.cpp:394] relu3 <- conv3
I0406 09:16:21.610532 17481 net.cpp:345] relu3 -> conv3 (in-place)
I0406 09:16:21.610538 17481 net.cpp:96] Setting up relu3
I0406 09:16:21.610544 17481 net.cpp:103] Top shape: 32 384 13 13 (2076672)
I0406 09:16:21.610553 17481 net.cpp:67] Creating Layer conv4
I0406 09:16:21.610556 17481 net.cpp:394] conv4 <- conv3
I0406 09:16:21.610561 17481 net.cpp:356] conv4 -> conv4
I0406 09:16:21.610569 17481 net.cpp:96] Setting up conv4
I0406 09:16:21.632604 17481 net.cpp:103] Top shape: 32 384 13 13 (2076672)
I0406 09:16:21.632632 17481 net.cpp:67] Creating Layer relu4
I0406 09:16:21.632638 17481 net.cpp:394] relu4 <- conv4
I0406 09:16:21.632644 17481 net.cpp:345] relu4 -> conv4 (in-place)
I0406 09:16:21.632676 17481 net.cpp:96] Setting up relu4
I0406 09:16:21.632683 17481 net.cpp:103] Top shape: 32 384 13 13 (2076672)
I0406 09:16:21.632691 17481 net.cpp:67] Creating Layer conv5
I0406 09:16:21.632695 17481 net.cpp:394] conv5 <- conv4
I0406 09:16:21.632706 17481 net.cpp:356] conv5 -> conv5
I0406 09:16:21.632714 17481 net.cpp:96] Setting up conv5
I0406 09:16:21.647495 17481 net.cpp:103] Top shape: 32 256 13 13 (1384448)
I0406 09:16:21.647524 17481 net.cpp:67] Creating Layer relu5
I0406 09:16:21.647529 17481 net.cpp:394] relu5 <- conv5
I0406 09:16:21.647537 17481 net.cpp:345] relu5 -> conv5 (in-place)
I0406 09:16:21.647544 17481 net.cpp:96] Setting up relu5
I0406 09:16:21.647552 17481 net.cpp:103] Top shape: 32 256 13 13 (1384448)
I0406 09:16:21.647558 17481 net.cpp:67] Creating Layer pool5
I0406 09:16:21.647562 17481 net.cpp:394] pool5 <- conv5
I0406 09:16:21.647570 17481 net.cpp:356] pool5 -> pool5
I0406 09:16:21.647577 17481 net.cpp:96] Setting up pool5
I0406 09:16:21.647583 17481 net.cpp:103] Top shape: 32 256 6 6 (294912)
I0406 09:16:21.647593 17481 net.cpp:67] Creating Layer fc6
I0406 09:16:21.647608 17481 net.cpp:394] fc6 <- pool5
I0406 09:16:21.647614 17481 net.cpp:356] fc6 -> fc6
I0406 09:16:21.647621 17481 net.cpp:96] Setting up fc6
I0406 09:16:22.867789 17481 net.cpp:103] Top shape: 32 4096 1 1 (131072)
I0406 09:16:22.867843 17481 net.cpp:67] Creating Layer relu6
I0406 09:16:22.867851 17481 net.cpp:394] relu6 <- fc6
I0406 09:16:22.867861 17481 net.cpp:345] relu6 -> fc6 (in-place)
I0406 09:16:22.867871 17481 net.cpp:96] Setting up relu6
I0406 09:16:22.867892 17481 net.cpp:103] Top shape: 32 4096 1 1 (131072)
I0406 09:16:22.867898 17481 net.cpp:67] Creating Layer drop6
I0406 09:16:22.867902 17481 net.cpp:394] drop6 <- fc6
I0406 09:16:22.867908 17481 net.cpp:345] drop6 -> fc6 (in-place)
I0406 09:16:22.867913 17481 net.cpp:96] Setting up drop6
I0406 09:16:22.867923 17481 net.cpp:103] Top shape: 32 4096 1 1 (131072)
I0406 09:16:22.867933 17481 net.cpp:67] Creating Layer fc7
I0406 09:16:22.867936 17481 net.cpp:394] fc7 <- fc6
I0406 09:16:22.867944 17481 net.cpp:356] fc7 -> fc7
I0406 09:16:22.867960 17481 net.cpp:96] Setting up fc7
I0406 09:16:23.410656 17481 net.cpp:103] Top shape: 32 4096 1 1 (131072)
I0406 09:16:23.410711 17481 net.cpp:67] Creating Layer relu7
I0406 09:16:23.410717 17481 net.cpp:394] relu7 <- fc7
I0406 09:16:23.410725 17481 net.cpp:345] relu7 -> fc7 (in-place)
I0406 09:16:23.410734 17481 net.cpp:96] Setting up relu7
I0406 09:16:23.410756 17481 net.cpp:103] Top shape: 32 4096 1 1 (131072)
I0406 09:16:23.410763 17481 net.cpp:67] Creating Layer drop7
I0406 09:16:23.410768 17481 net.cpp:394] drop7 <- fc7
I0406 09:16:23.410775 17481 net.cpp:345] drop7 -> fc7 (in-place)
I0406 09:16:23.410781 17481 net.cpp:96] Setting up drop7
I0406 09:16:23.410785 17481 net.cpp:103] Top shape: 32 4096 1 1 (131072)
I0406 09:16:23.410794 17481 net.cpp:67] Creating Layer fc8_deepfashion
I0406 09:16:23.410797 17481 net.cpp:394] fc8_deepfashion <- fc7
I0406 09:16:23.410805 17481 net.cpp:356] fc8_deepfashion -> fc8_deepfashion
I0406 09:16:23.410812 17481 net.cpp:96] Setting up fc8_deepfashion
I0406 09:16:23.417335 17481 net.cpp:103] Top shape: 32 48 1 1 (1536)
I0406 09:16:23.417357 17481 net.cpp:67] Creating Layer fc8_deepfashion_encode
I0406 09:16:23.417362 17481 net.cpp:394] fc8_deepfashion_encode <- fc8_deepfashion
I0406 09:16:23.417371 17481 net.cpp:356] fc8_deepfashion_encode -> fc8_deepfashion_encode
I0406 09:16:23.417377 17481 net.cpp:96] Setting up fc8_deepfashion_encode
I0406 09:16:23.417390 17481 net.cpp:103] Top shape: 32 48 1 1 (1536)
I0406 09:16:23.417397 17481 net.cpp:67] Creating Layer fc8_deepfashion_encode_fc8_deepfashion_encode_0_split
I0406 09:16:23.417402 17481 net.cpp:394] fc8_deepfashion_encode_fc8_deepfashion_encode_0_split <- fc8_deepfashion_encode
I0406 09:16:23.417408 17481 net.cpp:356] fc8_deepfashion_encode_fc8_deepfashion_encode_0_split -> fc8_deepfashion_encode_fc8_deepfashion_encode_0_split_0
I0406 09:16:23.417415 17481 net.cpp:356] fc8_deepfashion_encode_fc8_deepfashion_encode_0_split -> fc8_deepfashion_encode_fc8_deepfashion_encode_0_split_1
I0406 09:16:23.417445 17481 net.cpp:96] Setting up fc8_deepfashion_encode_fc8_deepfashion_encode_0_split
I0406 09:16:23.417453 17481 net.cpp:103] Top shape: 32 48 1 1 (1536)
I0406 09:16:23.417456 17481 net.cpp:103] Top shape: 32 48 1 1 (1536)
I0406 09:16:23.417464 17481 net.cpp:67] Creating Layer fc8_pascal_label
I0406 09:16:23.417467 17481 net.cpp:394] fc8_pascal_label <- fc8_deepfashion_encode_fc8_deepfashion_encode_0_split_0
I0406 09:16:23.417474 17481 net.cpp:356] fc8_pascal_label -> fc8_pascal_label
I0406 09:16:23.417481 17481 net.cpp:96] Setting up fc8_pascal_label
I0406 09:16:23.417507 17481 net.cpp:103] Top shape: 32 10 1 1 (320)
I0406 09:16:23.417523 17481 net.cpp:67] Creating Layer fc8_pascal_color
I0406 09:16:23.417527 17481 net.cpp:394] fc8_pascal_color <- fc8_deepfashion_encode_fc8_deepfashion_encode_0_split_1
I0406 09:16:23.417533 17481 net.cpp:356] fc8_pascal_color -> fc8_pascal_color
I0406 09:16:23.417538 17481 net.cpp:96] Setting up fc8_pascal_color
I0406 09:16:23.417573 17481 net.cpp:103] Top shape: 32 16 1 1 (512)
I0406 09:16:23.417598 17481 net.cpp:67] Creating Layer loss
I0406 09:16:23.417603 17481 net.cpp:394] loss <- fc8_pascal_label
I0406 09:16:23.417608 17481 net.cpp:394] loss <- labels0
I0406 09:16:23.417613 17481 net.cpp:356] loss -> (automatic)
I0406 09:16:23.417618 17481 net.cpp:96] Setting up loss
I0406 09:16:23.417629 17481 net.cpp:103] Top shape: 1 1 1 1 (1)
I0406 09:16:23.417634 17481 net.cpp:109]     with loss weight 1
I0406 09:16:23.417681 17481 net.cpp:67] Creating Layer silence
I0406 09:16:23.417687 17481 net.cpp:394] silence <- labels1
I0406 09:16:23.417693 17481 net.cpp:394] silence <- random
I0406 09:16:23.417698 17481 net.cpp:394] silence <- fc8_pascal_color
I0406 09:16:23.417702 17481 net.cpp:96] Setting up silence
I0406 09:16:23.417706 17481 net.cpp:172] silence does not need backward computation.
…
layers {
  top: "data"
  top: "random"
  name: "data"
  type: DATA
  data_param {
    source: "/data/deepfashion/color_label_multilabel/color_label_multilabel_test"
    batch_size: 32
    backend: LMDB
  }
  include {
    phase: TEST
  }
  transform_param {
    mirror: true
    crop_size: 227
    mean_file: "../../../data/ilsvrc12/imagenet_mean.binaryproto"
  }
}
layers {
  top: "labels"
  name: "labels"
  type: DATA
  data_param {
    source: "/data/deepfashion/color_label_multilabel/color_label_multilabel_test_alt"
    batch_size: 32
    backend: LMDB
  }
  include {
    phase: TEST
  }
}
layers {
  bottom: "labels"
  top: "labels0"
  top: "labels1"
  name: "sliceL"
  type: SLICE
  slice_param {
    slice_point: 1
  }
}
layers {
  bottom: "data"
  top: "conv1"
  name: "conv1"
  type: CONVOLUTION
  blobs_lr: 0
  blobs_lr: 0
  weight_decay: 1
  weight_decay: 0
  convolution_param {
    num_output: 96
    kernel_size: 11
    stride: 4
    weight_filler {
      type: "gaussian"
      std: 0.01
    }
    bias_filler {
      type: "constant"
      value: 0
    }
  }
}
layers {
  bottom: "conv1"
  top: "conv1"
  name: "relu1"
  type: RELU
}
layers {
  bottom: "conv1"
  top: "pool1"
  name: "pool1"
  type: POOLING
  pooling_param {
    pool: MAX
    kernel_size: 3
    stride: 2
  }
}
layers {
  bottom: "pool1"
  top: "norm1"
  name: "norm1"
  type: LRN
  lrn_param {
    local_size: 5
    alpha: 0.0001
    beta: 0.75
  }
}
layers {
  bottom: "norm1"
  top: "conv2"
  name: "conv2"
  type: CONVOLUTION
  blobs_lr: 0
  blobs_lr: 0
  weight_decay: 1
  weight_decay: 0
  convolution_param {
    num_output: 256
    pad: 2
    kernel_size: 5
    group: 2
    weight_filler {
      type: "gaussian"
      std: 0.01
    }
    bias_filler {
      type: "constant"
      value: 1
    }
  }
}
layers {
  bottom: "conv2"
  top: "conv2"
  name: "relu2"
  type: RELU
}
layers {
  bottom: "conv2"
  top: "pool2"
  name: "pool2"
  type: POOLING
  pooling_param {
    pool: MAX
    kernel_size: 3
    stride: 2
  }
}
layers {
  bottom: "pool2"
  top: "norm2"
  name: "norm2"
  type: LRN
  lrn_param {
    local_size: 5
    alpha: 0.0001
    beta: 0.75
  }
}
layers {
  bottom: "norm2"
  top: "conv3"
  name: "conv3"
  type: CONVOLUTION
  blobs_lr: 0
  blobs_lr: 0
  weight_decay: 1
  weight_decay: 0
  convolution_param {
    num_output: 384
    pad: 1
    kernel_size: 3
    weight_filler {
      type: "gaussian"
      std: 0.01
    }
    bias_filler {
      type: "constant"
      value: 0
    }
  }
}
layers {
  bottom: "conv3"
  top: "conv3"
  name: "relu3"
  type: RELU
}
layers {
  bottom: "conv3"
  top: "conv4"
  name: "conv4"
  type: CONVOLUTION
  blobs_lr: 0
  blobs_lr: 0
  weight_decay: 1
  weight_decay: 0
  convolution_param {
    num_output: 384
    pad: 1
    kernel_size: 3
    group: 2
    weight_filler {
      type: "gaussian"
      std: 0.01
    }
    bias_filler {
      type: "constant"
      value: 1
    }
  }
}
layers {
  bottom: "conv4"
  top: "conv4"
  name: "relu4"
  type: RELU
}
layers {
  bottom: "conv4"
  top: "conv5"
  name: "conv5"
  type: CONVOLUTION
  blobs_lr: 0
  blobs_lr: 0
  weight_decay: 1
  weight_decay: 0
  convolution_param {
    num_output: 256
    pad: 1
    kernel_size: 3
    group: 2
    weight_filler {
      type: "gaussian"
      std: 0.01
    }
    bias_filler {
      type: "constant"
      value: 1
    }
  }
}
layers {
  bottom: "conv5"
  top: "conv5"
  name: "relu5"
  type: RELU
}
layers {
  bottom: "conv5"
  top: "pool5"
  name: "pool5"
  type: POOLING
  pooling_param {
    pool: MAX
    kernel_size: 3
    stride: 2
  }
}
layers {
  bottom: "pool5"
  top: "fc6"
  name: "fc6"
  type: INNER_PRODUCT
  blobs_lr: 0
  blobs_lr: 0
  weight_decay: 1
  weight_decay: 0
  inner_product_param {
    num_output: 4096
    weight_filler {
      type: "gaussian"
      std: 0.005
    }
    bias_filler {
      type: "constant"
      value: 1
    }
  }
}
layers {
  bottom: "fc6"
  top: "fc6"
  name: "relu6"
  type: RELU
}
layers {
  bottom: "fc6"
  top: "fc6"
  name: "drop6"
  type: DROPOUT
  dropout_param {
    dropout_ratio: 0.5
  }
}
layers {
  bottom: "fc6"
  top: "fc7"
  name: "fc7"
  type: INNER_PRODUCT
  blobs_lr: 0
  blobs_lr: 0
  weight_decay: 1
  weight_decay: 0
  inner_product_param {
    num_output: 4096
    weight_filler {
      type: "gaussian"
      std: 0.005
    }
    bias_filler {
      type: "constant"
      value: 1
    }
  }
}
layers {
  bottom: "fc7"
  top: "fc7"
  name: "relu7"
  type: RELU
}
layers {
  bottom: "fc7"
  top: "fc7"
  name: "drop7"
  type: DROPOUT
  dropout_param {
    dropout_ratio: 0.5
  }
}
layers {
  bottom: "fc7"
  top: "fc8_deepfashion"
  name: "fc8_deepfashion"
  type: INNER_PRODUCT
  blobs_lr: 1
  blobs_lr: 2
  weight_decay: 1
  weight_decay: 0
  inner_product_param {
    num_output: 48
    weight_filler {
      type: "gaussian"
      std: 0.01
    }
    bias_filler {
      type: "constant"
      value: 0
    }
  }
}
layers {
  bottom: "fc8_deepfashion"
  top: "fc8_deepfashion_encode"
  name: "fc8_deepfashion_encode"
  type: SIGMOID
}
layers {
  bottom: "fc8_deepfashion_encode"
  top: "fc8_pascal_label"
  name: "fc8_pascal_label"
  type: INNER_PRODUCT
  blobs_lr: 1
  blobs_lr: 2
  weight_decay: 1
  weight_decay: 0
  inner_product_param {
    num_output: 10
    weight_filler {
      type: "gaussian"
      std: 0.01
    }
    bias_filler {
      type: "constant"
      value: 0
    }
  }
}
layers {
  bottom: "fc8_deepfashion_encode"
  top: "fc8_pascal_color"
  name: "fc8_pascal_color"
  type: INNER_PRODUCT
  blobs_lr: 0
  blobs_lr: 0
  weight_decay: 1
  weight_decay: 0
  inner_product_param {
    num_output: 16
    weight_filler {
      type: "gaussian"
      std: 0.01
    }
    bias_filler {
      type: "constant"
      value: 0
    }
  }
}
layers {
  bottom: "fc8_pascal_label"
  bottom: "labels0"
  name: "loss"
  type: SOFTMAX_LOSS
}
layers {
  bottom: "fc8_pascal_color"
  bottom: "labels1"
  top: "colorAccuracy"
  name: "accuracy"
  type: ACCURACY
  include {
    phase: TEST
  }
}
layers {
  bottom: "fc8_pascal_label"
  bottom: "labels0"
  top: "labelAccuracy"
  name: "accuracy1"
  type: ACCURACY
  include {
    phase: TEST
  }
}
layers {
  bottom: "labels1"
  bottom: "random"
  bottom: "fc8_pascal_color"
  name: "silence"
  type: SILENCE
}
state {
  phase: TEST
}
I0406 09:16:23.419086 17481 net.cpp:67] Creating Layer data
I0406 09:16:23.419095 17481 net.cpp:356] data -> data
I0406 09:16:23.419102 17481 net.cpp:356] data -> random
I0406 09:16:23.419109 17481 net.cpp:96] Setting up data
I0406 09:16:23.419167 17481 data_layer.cpp:68] Opening lmdb /data/deepfashion/color_label_multilabel/color_label_multilabel_test
I0406 09:16:23.419332 17481 data_layer.cpp:128] output data size: 32,3,227,227
I0406 09:16:23.419340 17481 base_data_layer.cpp:36] Loading mean file from../../../data/ilsvrc12/imagenet_mean.binaryproto
I0406 09:16:23.426954 17481 net.cpp:103] Top shape: 32 3 227 227 (4946784)
I0406 09:16:23.426988 17481 net.cpp:103] Top shape: 32 1 1 1 (32)
I0406 09:16:23.427007 17481 net.cpp:67] Creating Layer labels
I0406 09:16:23.427014 17481 net.cpp:356] labels -> labels
I0406 09:16:23.427058 17481 net.cpp:96] Setting up labels
I0406 09:16:23.427122 17481 data_layer.cpp:68] Opening lmdb /data/deepfashion/color_label_multilabel/color_label_multilabel_test_alt
I0406 09:16:23.427145 17481 data_layer.cpp:128] output data size: 32,2,1,1
I0406 09:16:23.427183 17481 net.cpp:103] Top shape: 32 2 1 1 (64)
I0406 09:16:23.427201 17481 net.cpp:67] Creating Layer sliceL
I0406 09:16:23.427206 17481 net.cpp:394] sliceL <- labels
I0406 09:16:23.427212 17481 net.cpp:356] sliceL -> labels0
I0406 09:16:23.427220 17481 net.cpp:356] sliceL -> labels1
I0406 09:16:23.427227 17481 net.cpp:96] Setting up sliceL
I0406 09:16:23.427234 17481 net.cpp:103] Top shape: 32 1 1 1 (32)
I0406 09:16:23.427238 17481 net.cpp:103] Top shape: 32 1 1 1 (32)
I0406 09:16:23.427244 17481 net.cpp:67] Creating Layer labels0_sliceL_0_split
I0406 09:16:23.427248 17481 net.cpp:394] labels0_sliceL_0_split <- labels0
I0406 09:16:23.427255 17481 net.cpp:356] labels0_sliceL_0_split -> labels0_sliceL_0_split_0
I0406 09:16:23.427261 17481 net.cpp:356] labels0_sliceL_0_split -> labels0_sliceL_0_split_1
I0406 09:16:23.427268 17481 net.cpp:96] Setting up labels0_sliceL_0_split
I0406 09:16:23.427271 17481 net.cpp:103] Top shape: 32 1 1 1 (32)
I0406 09:16:23.427275 17481 net.cpp:103] Top shape: 32 1 1 1 (32)
I0406 09:16:23.427281 17481 net.cpp:67] Creating Layer labels1_sliceL_1_split
I0406 09:16:23.427285 17481 net.cpp:394] labels1_sliceL_1_split <- labels1
I0406 09:16:23.427291 17481 net.cpp:356] labels1_sliceL_1_split -> labels1_sliceL_1_split_0
I0406 09:16:23.427297 17481 net.cpp:356] labels1_sliceL_1_split -> labels1_sliceL_1_split_1
I0406 09:16:23.427304 17481 net.cpp:96] Setting up labels1_sliceL_1_split
I0406 09:16:23.427307 17481 net.cpp:103] Top shape: 32 1 1 1 (32)
I0406 09:16:23.427312 17481 net.cpp:103] Top shape: 32 1 1 1 (32)
I0406 09:16:23.427320 17481 net.cpp:67] Creating Layer conv1
I0406 09:16:23.427325 17481 net.cpp:394] conv1 <- data
I0406 09:16:23.427330 17481 net.cpp:356] conv1 -> conv1
I0406 09:16:23.427337 17481 net.cpp:96] Setting up conv1
I0406 09:16:23.428588 17481 net.cpp:103] Top shape: 32 96 55 55 (9292800)
I0406 09:16:23.428616 17481 net.cpp:67] Creating Layer relu1
I0406 09:16:23.428620 17481 net.cpp:394] relu1 <- conv1
I0406 09:16:23.428627 17481 net.cpp:345] relu1 -> conv1 (in-place)
I0406 09:16:23.428633 17481 net.cpp:96] Setting up relu1
I0406 09:16:23.428640 17481 net.cpp:103] Top shape: 32 96 55 55 (9292800)
I0406 09:16:23.428648 17481 net.cpp:67] Creating Layer pool1
I0406 09:16:23.428653 17481 net.cpp:394] pool1 <- conv1
I0406 09:16:23.428658 17481 net.cpp:356] pool1 -> pool1
I0406 09:16:23.428664 17481 net.cpp:96] Setting up pool1
I0406 09:16:23.428673 17481 net.cpp:103] Top shape: 32 96 27 27 (2239488)
I0406 09:16:23.428683 17481 net.cpp:67] Creating Layer norm1
I0406 09:16:23.428686 17481 net.cpp:394] norm1 <- pool1
I0406 09:16:23.428692 17481 net.cpp:356] norm1 -> norm1
I0406 09:16:23.428699 17481 net.cpp:96] Setting up norm1
I0406 09:16:23.428704 17481 net.cpp:103] Top shape: 32 96 27 27 (2239488)
I0406 09:16:23.428711 17481 net.cpp:67] Creating Layer conv2
I0406 09:16:23.428715 17481 net.cpp:394] conv2 <- norm1
I0406 09:16:23.428721 17481 net.cpp:356] conv2 -> conv2
I0406 09:16:23.428727 17481 net.cpp:96] Setting up conv2
I0406 09:16:23.438958 17481 net.cpp:103] Top shape: 32 256 27 27 (5971968)
I0406 09:16:23.439002 17481 net.cpp:67] Creating Layer relu2
I0406 09:16:23.439009 17481 net.cpp:394] relu2 <- conv2
I0406 09:16:23.439018 17481 net.cpp:345] relu2 -> conv2 (in-place)
I0406 09:16:23.439026 17481 net.cpp:96] Setting up relu2
I0406 09:16:23.439034 17481 net.cpp:103] Top shape: 32 256 27 27 (5971968)
I0406 09:16:23.439041 17481 net.cpp:67] Creating Layer pool2
I0406 09:16:23.439045 17481 net.cpp:394] pool2 <- conv2
I0406 09:16:23.439054 17481 net.cpp:356] pool2 -> pool2
I0406 09:16:23.439060 17481 net.cpp:96] Setting up pool2
I0406 09:16:23.439069 17481 net.cpp:103] Top shape: 32 256 13 13 (1384448)
I0406 09:16:23.439076 17481 net.cpp:67] Creating Layer norm2
I0406 09:16:23.439080 17481 net.cpp:394] norm2 <- pool2
I0406 09:16:23.439105 17481 net.cpp:356] norm2 -> norm2
I0406 09:16:23.439111 17481 net.cpp:96] Setting up norm2
I0406 09:16:23.439116 17481 net.cpp:103] Top shape: 32 256 13 13 (1384448)
I0406 09:16:23.439126 17481 net.cpp:67] Creating Layer conv3
I0406 09:16:23.439131 17481 net.cpp:394] conv3 <- norm2
I0406 09:16:23.439137 17481 net.cpp:356] conv3 -> conv3
I0406 09:16:23.439143 17481 net.cpp:96] Setting up conv3
I0406 09:16:23.468721 17481 net.cpp:103] Top shape: 32 384 13 13 (2076672)
I0406 09:16:23.468770 17481 net.cpp:67] Creating Layer relu3
I0406 09:16:23.468776 17481 net.cpp:394] relu3 <- conv3
I0406 09:16:23.468785 17481 net.cpp:345] relu3 -> conv3 (in-place)
I0406 09:16:23.468792 17481 net.cpp:96] Setting up relu3
I0406 09:16:23.468799 17481 net.cpp:103] Top shape: 32 384 13 13 (2076672)
I0406 09:16:23.468811 17481 net.cpp:67] Creating Layer conv4
I0406 09:16:23.468814 17481 net.cpp:394] conv4 <- conv3
I0406 09:16:23.468822 17481 net.cpp:356] conv4 -> conv4
I0406 09:16:23.468832 17481 net.cpp:96] Setting up conv4
I0406 09:16:23.490809 17481 net.cpp:103] Top shape: 32 384 13 13 (2076672)
I0406 09:16:23.490836 17481 net.cpp:67] Creating Layer relu4
I0406 09:16:23.490842 17481 net.cpp:394] relu4 <- conv4
I0406 09:16:23.490847 17481 net.cpp:345] relu4 -> conv4 (in-place)
I0406 09:16:23.490854 17481 net.cpp:96] Setting up relu4
I0406 09:16:23.490860 17481 net.cpp:103] Top shape: 32 384 13 13 (2076672)
I0406 09:16:23.490870 17481 net.cpp:67] Creating Layer conv5
I0406 09:16:23.490875 17481 net.cpp:394] conv5 <- conv4
I0406 09:16:23.490882 17481 net.cpp:356] conv5 -> conv5
I0406 09:16:23.490890 17481 net.cpp:96] Setting up conv5
I0406 09:16:23.505753 17481 net.cpp:103] Top shape: 32 256 13 13 (1384448)
I0406 09:16:23.505784 17481 net.cpp:67] Creating Layer relu5
I0406 09:16:23.505790 17481 net.cpp:394] relu5 <- conv5
I0406 09:16:23.505796 17481 net.cpp:345] relu5 -> conv5 (in-place)
I0406 09:16:23.505802 17481 net.cpp:96] Setting up relu5
I0406 09:16:23.505810 17481 net.cpp:103] Top shape: 32 256 13 13 (1384448)
I0406 09:16:23.505816 17481 net.cpp:67] Creating Layer pool5
I0406 09:16:23.505820 17481 net.cpp:394] pool5 <- conv5
I0406 09:16:23.505828 17481 net.cpp:356] pool5 -> pool5
I0406 09:16:23.505834 17481 net.cpp:96] Setting up pool5
I0406 09:16:23.505844 17481 net.cpp:103] Top shape: 32 256 6 6 (294912)
I0406 09:16:23.505856 17481 net.cpp:67] Creating Layer fc6
I0406 09:16:23.505859 17481 net.cpp:394] fc6 <- pool5
I0406 09:16:23.505867 17481 net.cpp:356] fc6 -> fc6
I0406 09:16:23.505874 17481 net.cpp:96] Setting up fc6
I0406 09:16:24.730146 17481 net.cpp:103] Top shape: 32 4096 1 1 (131072)
I0406 09:16:24.730203 17481 net.cpp:67] Creating Layer relu6
I0406 09:16:24.730211 17481 net.cpp:394] relu6 <- fc6
I0406 09:16:24.730221 17481 net.cpp:345] relu6 -> fc6 (in-place)
I0406 09:16:24.730231 17481 net.cpp:96] Setting up relu6
I0406 09:16:24.730252 17481 net.cpp:103] Top shape: 32 4096 1 1 (131072)
I0406 09:16:24.730260 17481 net.cpp:67] Creating Layer drop6
I0406 09:16:24.730264 17481 net.cpp:394] drop6 <- fc6
I0406 09:16:24.730270 17481 net.cpp:345] drop6 -> fc6 (in-place)
I0406 09:16:24.730278 17481 net.cpp:96] Setting up drop6
I0406 09:16:24.730283 17481 net.cpp:103] Top shape: 32 4096 1 1 (131072)
I0406 09:16:24.730291 17481 net.cpp:67] Creating Layer fc7
I0406 09:16:24.730294 17481 net.cpp:394] fc7 <- fc6
I0406 09:16:24.730300 17481 net.cpp:356] fc7 -> fc7
I0406 09:16:24.730307 17481 net.cpp:96] Setting up fc7
I0406 09:16:25.274641 17481 net.cpp:103] Top shape: 32 4096 1 1 (131072)
I0406 09:16:25.274700 17481 net.cpp:67] Creating Layer relu7
I0406 09:16:25.274708 17481 net.cpp:394] relu7 <- fc7
I0406 09:16:25.274716 17481 net.cpp:345] relu7 -> fc7 (in-place)
I0406 09:16:25.274725 17481 net.cpp:96] Setting up relu7
I0406 09:16:25.274746 17481 net.cpp:103] Top shape: 32 4096 1 1 (131072)
I0406 09:16:25.274757 17481 net.cpp:67] Creating Layer drop7
I0406 09:16:25.274762 17481 net.cpp:394] drop7 <- fc7
I0406 09:16:25.274767 17481 net.cpp:345] drop7 -> fc7 (in-place)
I0406 09:16:25.274772 17481 net.cpp:96] Setting up drop7
I0406 09:16:25.274808 17481 net.cpp:103] Top shape: 32 4096 1 1 (131072)
I0406 09:16:25.274818 17481 net.cpp:67] Creating Layer fc8_deepfashion
I0406 09:16:25.274822 17481 net.cpp:394] fc8_deepfashion <- fc7
I0406 09:16:25.274834 17481 net.cpp:356] fc8_deepfashion -> fc8_deepfashion
I0406 09:16:25.274842 17481 net.cpp:96] Setting up fc8_deepfashion
I0406 09:16:25.281329 17481 net.cpp:103] Top shape: 32 48 1 1 (1536)
I0406 09:16:25.281352 17481 net.cpp:67] Creating Layer fc8_deepfashion_encode
I0406 09:16:25.281360 17481 net.cpp:394] fc8_deepfashion_encode <- fc8_deepfashion
I0406 09:16:25.281366 17481 net.cpp:356] fc8_deepfashion_encode -> fc8_deepfashion_encode
I0406 09:16:25.281373 17481 net.cpp:96] Setting up fc8_deepfashion_encode
I0406 09:16:25.281381 17481 net.cpp:103] Top shape: 32 48 1 1 (1536)
I0406 09:16:25.281388 17481 net.cpp:67] Creating Layer fc8_deepfashion_encode_fc8_deepfashion_encode_0_split
I0406 09:16:25.281393 17481 net.cpp:394] fc8_deepfashion_encode_fc8_deepfashion_encode_0_split <- fc8_deepfashion_encode
I0406 09:16:25.281397 17481 net.cpp:356] fc8_deepfashion_encode_fc8_deepfashion_encode_0_split -> fc8_deepfashion_encode_fc8_deepfashion_encode_0_split_0
I0406 09:16:25.281405 17481 net.cpp:356] fc8_deepfashion_encode_fc8_deepfashion_encode_0_split -> fc8_deepfashion_encode_fc8_deepfashion_encode_0_split_1
I0406 09:16:25.281411 17481 net.cpp:96] Setting up fc8_deepfashion_encode_fc8_deepfashion_encode_0_split
I0406 09:16:25.281416 17481 net.cpp:103] Top shape: 32 48 1 1 (1536)
I0406 09:16:25.281420 17481 net.cpp:103] Top shape: 32 48 1 1 (1536)
I0406 09:16:25.281427 17481 net.cpp:67] Creating Layer fc8_pascal_label
I0406 09:16:25.281431 17481 net.cpp:394] fc8_pascal_label <- fc8_deepfashion_encode_fc8_deepfashion_encode_0_split_0
I0406 09:16:25.281438 17481 net.cpp:356] fc8_pascal_label -> fc8_pascal_label
I0406 09:16:25.281445 17481 net.cpp:96] Setting up fc8_pascal_label
I0406 09:16:25.281471 17481 net.cpp:103] Top shape: 32 10 1 1 (320)
I0406 09:16:25.281492 17481 net.cpp:67] Creating Layer fc8_pascal_label_fc8_pascal_label_0_split
I0406 09:16:25.281500 17481 net.cpp:394] fc8_pascal_label_fc8_pascal_label_0_split <- fc8_pascal_label
I0406 09:16:25.281507 17481 net.cpp:356] fc8_pascal_label_fc8_pascal_label_0_split -> fc8_pascal_label_fc8_pascal_label_0_split_0
I0406 09:16:25.281513 17481 net.cpp:356] fc8_pascal_label_fc8_pascal_label_0_split -> fc8_pascal_label_fc8_pascal_label_0_split_1
I0406 09:16:25.281519 17481 net.cpp:96] Setting up fc8_pascal_label_fc8_pascal_label_0_split
I0406 09:16:25.281523 17481 net.cpp:103] Top shape: 32 10 1 1 (320)
I0406 09:16:25.281527 17481 net.cpp:103] Top shape: 32 10 1 1 (320)
I0406 09:16:25.281533 17481 net.cpp:67] Creating Layer fc8_pascal_color
I0406 09:16:25.281538 17481 net.cpp:394] fc8_pascal_color <- fc8_deepfashion_encode_fc8_deepfashion_encode_0_split_1
I0406 09:16:25.281545 17481 net.cpp:356] fc8_pascal_color -> fc8_pascal_color
I0406 09:16:25.281553 17481 net.cpp:96] Setting up fc8_pascal_color
I0406 09:16:25.281586 17481 net.cpp:103] Top shape: 32 16 1 1 (512)
I0406 09:16:25.281608 17481 net.cpp:67] Creating Layer fc8_pascal_color_fc8_pascal_color_0_split
I0406 09:16:25.281616 17481 net.cpp:394] fc8_pascal_color_fc8_pascal_color_0_split <- fc8_pascal_color
I0406 09:16:25.281622 17481 net.cpp:356] fc8_pascal_color_fc8_pascal_color_0_split -> fc8_pascal_color_fc8_pascal_color_0_split_0
I0406 09:16:25.281630 17481 net.cpp:356] fc8_pascal_color_fc8_pascal_color_0_split -> fc8_pascal_color_fc8_pascal_color_0_split_1
I0406 09:16:25.281635 17481 net.cpp:96] Setting up fc8_pascal_color_fc8_pascal_color_0_split
I0406 09:16:25.281640 17481 net.cpp:103] Top shape: 32 16 1 1 (512)
I0406 09:16:25.281642 17481 net.cpp:103] Top shape: 32 16 1 1 (512)
I0406 09:16:25.281651 17481 net.cpp:67] Creating Layer loss
I0406 09:16:25.281656 17481 net.cpp:394] loss <- fc8_pascal_label_fc8_pascal_label_0_split_0
I0406 09:16:25.281661 17481 net.cpp:394] loss <- labels0_sliceL_0_split_0
I0406 09:16:25.281667 17481 net.cpp:356] loss -> (automatic)
I0406 09:16:25.281687 17481 net.cpp:96] Setting up loss
I0406 09:16:25.281694 17481 net.cpp:103] Top shape: 1 1 1 1 (1)
I0406 09:16:25.281698 17481 net.cpp:109]     with loss weight 1
I0406 09:16:25.281719 17481 net.cpp:67] Creating Layer accuracy
I0406 09:16:25.281724 17481 net.cpp:394] accuracy <- fc8_pascal_color_fc8_pascal_color_0_split_0
I0406 09:16:25.281729 17481 net.cpp:394] accuracy <- labels1_sliceL_1_split_0
I0406 09:16:25.281735 17481 net.cpp:356] accuracy -> colorAccuracy
I0406 09:16:25.281744 17481 net.cpp:96] Setting up accuracy
I0406 09:16:25.281755 17481 net.cpp:103] Top shape: 1 1 1 1 (1)
I0406 09:16:25.281769 17481 net.cpp:67] Creating Layer accuracy1
I0406 09:16:25.281774 17481 net.cpp:394] accuracy1 <- fc8_pascal_label_fc8_pascal_label_0_split_1
I0406 09:16:25.281779 17481 net.cpp:394] accuracy1 <- labels0_sliceL_0_split_1
I0406 09:16:25.281783 17481 net.cpp:356] accuracy1 -> labelAccuracy
I0406 09:16:25.281790 17481 net.cpp:96] Setting up accuracy1
I0406 09:16:25.281793 17481 net.cpp:103] Top shape: 1 1 1 1 (1)
I0406 09:16:25.281800 17481 net.cpp:67] Creating Layer silence
I0406 09:16:25.281805 17481 net.cpp:394] silence <- labels1_sliceL_1_split_1
I0406 09:16:25.281810 17481 net.cpp:394] silence <- random
I0406 09:16:25.281815 17481 net.cpp:394] silence <- fc8_pascal_color_fc8_pascal_color_0_split_1
I0406 09:16:25.281818 17481 net.cpp:96] Setting up silence
I0406 09:16:25.281822 17481 net.cpp:172] silence does not need backward computation.
…
