…
  top: "data"
  top: "random"
  name: "data"
  type: DATA
  data_param {
    source: "/data/deepfashion/color_label_multilabel/color_label_multilabel_TRAIN"
    batch_size: 32
    backend: LMDB
  }
  include {
    phase: TRAIN
  }
  transform_param {
    mirror: true
    crop_size: 227
    mean_file: "../../../data/ilsvrc12/imagenet_mean.binaryproto"
  }
}
layers {
  top: "labels"
  name: "labels"
  type: DATA
  data_param {
    source: "/data/deepfashion/color_label_multilabel/color_label_multilabel_TRAIN_ALT"
    batch_size: 32
    backend: LMDB
  }
  include {
    phase: TRAIN
  }
}
layers {
  bottom: "labels"
  top: "labels0"
  top: "labels1"
  name: "sliceL"
  type: SLICE
  slice_param {
    slice_point: 1
  }
}
layers {
  bottom: "data"
  top: "conv1"
  name: "conv1"
  type: CONVOLUTION
  blobs_lr: 0
  blobs_lr: 0
  weight_decay: 1
  weight_decay: 0
  convolution_param {
    num_output: 96
    kernel_size: 11
    stride: 4
    weight_filler {
      type: "gaussian"
      std: 0.01
    }
    bias_filler {
      type: "constant"
      value: 0
    }
  }
}
layers {
  bottom: "conv1"
  top: "conv1"
  name: "relu1"
  type: RELU
}
layers {
  bottom: "conv1"
  top: "pool1"
  name: "pool1"
  type: POOLING
  pooling_param {
    pool: MAX
    kernel_size: 3
    stride: 2
  }
}
layers {
  bottom: "pool1"
  top: "norm1"
  name: "norm1"
  type: LRN
  lrn_param {
    local_size: 5
    alpha: 0.0001
    beta: 0.75
  }
}
layers {
  bottom: "norm1"
  top: "conv2"
  name: "conv2"
  type: CONVOLUTION
  blobs_lr: 0
  blobs_lr: 0
  weight_decay: 1
  weight_decay: 0
  convolution_param {
    num_output: 256
    pad: 2
    kernel_size: 5
    group: 2
    weight_filler {
      type: "gaussian"
      std: 0.01
    }
    bias_filler {
      type: "constant"
      value: 1
    }
  }
}
layers {
  bottom: "conv2"
  top: "conv2"
  name: "relu2"
  type: RELU
}
layers {
  bottom: "conv2"
  top: "pool2"
  name: "pool2"
  type: POOLING
  pooling_param {
    pool: MAX
    kernel_size: 3
    stride: 2
  }
}
layers {
  bottom: "pool2"
  top: "norm2"
  name: "norm2"
  type: LRN
  lrn_param {
    local_size: 5
    alpha: 0.0001
    beta: 0.75
  }
}
layers {
  bottom: "norm2"
  top: "conv3"
  name: "conv3"
  type: CONVOLUTION
  blobs_lr: 0
  blobs_lr: 0
  weight_decay: 1
  weight_decay: 0
  convolution_param {
    num_output: 384
    pad: 1
    kernel_size: 3
    weight_filler {
      type: "gaussian"
      std: 0.01
    }
    bias_filler {
      type: "constant"
      value: 0
    }
  }
}
layers {
  bottom: "conv3"
  top: "conv3"
  name: "relu3"
  type: RELU
}
layers {
  bottom: "conv3"
  top: "conv4"
  name: "conv4"
  type: CONVOLUTION
  blobs_lr: 0
  blobs_lr: 0
  weight_decay: 1
  weight_decay: 0
  convolution_param {
    num_output: 384
    pad: 1
    kernel_size: 3
    group: 2
    weight_filler {
      type: "gaussian"
      std: 0.01
    }
    bias_filler {
      type: "constant"
      value: 1
    }
  }
}
layers {
  bottom: "conv4"
  top: "conv4"
  name: "relu4"
  type: RELU
}
layers {
  bottom: "conv4"
  top: "conv5"
  name: "conv5"
  type: CONVOLUTION
  blobs_lr: 0
  blobs_lr: 0
  weight_decay: 1
  weight_decay: 0
  convolution_param {
    num_output: 256
    pad: 1
    kernel_size: 3
    group: 2
    weight_filler {
      type: "gaussian"
      std: 0.01
    }
    bias_filler {
      type: "constant"
      value: 1
    }
  }
}
layers {
  bottom: "conv5"
  top: "conv5"
  name: "relu5"
  type: RELU
}
layers {
  bottom: "conv5"
  top: "pool5"
  name: "pool5"
  type: POOLING
  pooling_param {
    pool: MAX
    kernel_size: 3
    stride: 2
  }
}
layers {
  bottom: "pool5"
  top: "fc6"
  name: "fc6"
  type: INNER_PRODUCT
  blobs_lr: 1
  blobs_lr: 2
  weight_decay: 1
  weight_decay: 0
  inner_product_param {
    num_output: 4096
    weight_filler {
      type: "gaussian"
      std: 0.005
    }
    bias_filler {
      type: "constant"
      value: 1
    }
  }
}
layers {
  bottom: "fc6"
  top: "fc6"
  name: "relu6"
  type: RELU
}
layers {
  bottom: "fc6"
  top: "fc6"
  name: "drop6"
  type: DROPOUT
  dropout_param {
    dropout_ratio: 0.5
  }
}
layers {
  bottom: "fc6"
  top: "fc7"
  name: "fc7"
  type: INNER_PRODUCT
  blobs_lr: 1
  blobs_lr: 2
  weight_decay: 1
  weight_decay: 0
  inner_product_param {
    num_output: 4096
    weight_filler {
      type: "gaussian"
      std: 0.005
    }
    bias_filler {
      type: "constant"
      value: 1
    }
  }
}
layers {
  bottom: "fc7"
  top: "fc7"
  name: "relu7"
  type: RELU
}
layers {
  bottom: "fc7"
  top: "fc7"
  name: "drop7"
  type: DROPOUT
  dropout_param {
    dropout_ratio: 0.5
  }
}
layers {
  bottom: "fc7"
  top: "fc8_deepfashion"
  name: "fc8_deepfashion"
  type: INNER_PRODUCT
  blobs_lr: 1
  blobs_lr: 2
  weight_decay: 1
  weight_decay: 0
  inner_product_param {
    num_output: 48
    weight_filler {
      type: "gaussian"
      std: 0.01
    }
    bias_filler {
      type: "constant"
      value: 0
    }
  }
}
layers {
  bottom: "fc8_deepfashion"
  top: "fc8_deepfashion_encode"
  name: "fc8_deepfashion_encode"
  type: SIGMOID
}
layers {
  bottom: "fc8_deepfashion_encode"
  top: "fc8_pascal_label_mod"
  name: "fc8_pascal_label_mod"
  type: INNER_PRODUCT
  blobs_lr: 1
  blobs_lr: 2
  weight_decay: 1
  weight_decay: 0
  inner_product_param {
    num_output: 10
    weight_filler {
      type: "gaussian"
      std: 0.01
    }
    bias_filler {
      type: "constant"
      value: 0
    }
  }
}
layers {
  bottom: "fc8_deepfashion_encode"
  top: "fc8_pascal_color_mod"
  name: "fc8_pascal_color_mod"
  type: INNER_PRODUCT
  blobs_lr: 1
  blobs_lr: 2
  weight_decay: 1
  weight_decay: 0
  inner_product_param {
    num_output: 16
    weight_filler {
      type: "gaussian"
      std: 0.01
    }
    bias_filler {
      type: "constant"
      value: 0
    }
  }
}
layers {
  bottom: "fc8_pascal_label_mod"
  bottom: "labels0"
  name: "loss"
  type: SOFTMAX_LOSS
}
layers {
  bottom: "fc8_pascal_color_mod"
  bottom: "labels1"
  name: "loss"
  type: SOFTMAX_LOSS
}
layers {
  bottom: "random"
  name: "silence"
  type: SILENCE
}
state {
  phase: TRAIN
}
I0406 10:32:53.257194  9538 net.cpp:67] Creating Layer data
I0406 10:32:53.257205  9538 net.cpp:356] data -> data
I0406 10:32:53.257222  9538 net.cpp:356] data -> random
I0406 10:32:53.257237  9538 net.cpp:96] Setting up data
I0406 10:32:53.257347  9538 data_layer.cpp:68] Opening lmdb /data/deepfashion/color_label_multilabel/color_label_multilabel_TRAIN
I0406 10:32:53.257534  9538 data_layer.cpp:128] output data size: 32,3,227,227
I0406 10:32:53.257542  9538 base_data_layer.cpp:36] Loading mean file from../../../data/ilsvrc12/imagenet_mean.binaryproto
I0406 10:32:53.266373  9538 net.cpp:103] Top shape: 32 3 227 227 (4946784)
I0406 10:32:53.266407  9538 net.cpp:103] Top shape: 32 1 1 1 (32)
I0406 10:32:53.266424  9538 net.cpp:67] Creating Layer labels
I0406 10:32:53.266434  9538 net.cpp:356] labels -> labels
I0406 10:32:53.266448  9538 net.cpp:96] Setting up labels
I0406 10:32:53.266556  9538 data_layer.cpp:68] Opening lmdb /data/deepfashion/color_label_multilabel/color_label_multilabel_TRAIN_ALT
I0406 10:32:53.266600  9538 data_layer.cpp:128] output data size: 32,2,1,1
I0406 10:32:53.266667  9538 net.cpp:103] Top shape: 32 2 1 1 (64)
I0406 10:32:53.266688  9538 net.cpp:67] Creating Layer sliceL
I0406 10:32:53.266695  9538 net.cpp:394] sliceL <- labels
I0406 10:32:53.266705  9538 net.cpp:356] sliceL -> labels0
I0406 10:32:53.266715  9538 net.cpp:356] sliceL -> labels1
I0406 10:32:53.266723  9538 net.cpp:96] Setting up sliceL
I0406 10:32:53.266733  9538 net.cpp:103] Top shape: 32 1 1 1 (32)
I0406 10:32:53.266737  9538 net.cpp:103] Top shape: 32 1 1 1 (32)
I0406 10:32:53.266746  9538 net.cpp:67] Creating Layer conv1
I0406 10:32:53.266752  9538 net.cpp:394] conv1 <- data
I0406 10:32:53.266760  9538 net.cpp:356] conv1 -> conv1
I0406 10:32:53.266769  9538 net.cpp:96] Setting up conv1
I0406 10:32:53.289710  9538 net.cpp:103] Top shape: 32 96 55 55 (9292800)
I0406 10:32:53.289768  9538 net.cpp:67] Creating Layer relu1
I0406 10:32:53.289777  9538 net.cpp:394] relu1 <- conv1
I0406 10:32:53.289784  9538 net.cpp:345] relu1 -> conv1 (in-place)
I0406 10:32:53.289794  9538 net.cpp:96] Setting up relu1
I0406 10:32:53.289805  9538 net.cpp:103] Top shape: 32 96 55 55 (9292800)
I0406 10:32:53.289813  9538 net.cpp:67] Creating Layer pool1
I0406 10:32:53.289818  9538 net.cpp:394] pool1 <- conv1
I0406 10:32:53.289824  9538 net.cpp:356] pool1 -> pool1
I0406 10:32:53.289831  9538 net.cpp:96] Setting up pool1
I0406 10:32:53.289855  9538 net.cpp:103] Top shape: 32 96 27 27 (2239488)
I0406 10:32:53.289870  9538 net.cpp:67] Creating Layer norm1
I0406 10:32:53.289875  9538 net.cpp:394] norm1 <- pool1
I0406 10:32:53.289880  9538 net.cpp:356] norm1 -> norm1
I0406 10:32:53.289886  9538 net.cpp:96] Setting up norm1
I0406 10:32:53.289894  9538 net.cpp:103] Top shape: 32 96 27 27 (2239488)
I0406 10:32:53.289903  9538 net.cpp:67] Creating Layer conv2
I0406 10:32:53.289907  9538 net.cpp:394] conv2 <- norm1
I0406 10:32:53.289916  9538 net.cpp:356] conv2 -> conv2
I0406 10:32:53.289932  9538 net.cpp:96] Setting up conv2
I0406 10:32:53.300156  9538 net.cpp:103] Top shape: 32 256 27 27 (5971968)
I0406 10:32:53.300180  9538 net.cpp:67] Creating Layer relu2
I0406 10:32:53.300186  9538 net.cpp:394] relu2 <- conv2
I0406 10:32:53.300192  9538 net.cpp:345] relu2 -> conv2 (in-place)
I0406 10:32:53.300199  9538 net.cpp:96] Setting up relu2
I0406 10:32:53.300205  9538 net.cpp:103] Top shape: 32 256 27 27 (5971968)
I0406 10:32:53.300216  9538 net.cpp:67] Creating Layer pool2
I0406 10:32:53.300227  9538 net.cpp:394] pool2 <- conv2
I0406 10:32:53.300233  9538 net.cpp:356] pool2 -> pool2
I0406 10:32:53.300241  9538 net.cpp:96] Setting up pool2
I0406 10:32:53.300249  9538 net.cpp:103] Top shape: 32 256 13 13 (1384448)
I0406 10:32:53.300264  9538 net.cpp:67] Creating Layer norm2
I0406 10:32:53.300268  9538 net.cpp:394] norm2 <- pool2
I0406 10:32:53.300274  9538 net.cpp:356] norm2 -> norm2
I0406 10:32:53.300281  9538 net.cpp:96] Setting up norm2
I0406 10:32:53.300284  9538 net.cpp:103] Top shape: 32 256 13 13 (1384448)
I0406 10:32:53.300293  9538 net.cpp:67] Creating Layer conv3
I0406 10:32:53.300298  9538 net.cpp:394] conv3 <- norm2
I0406 10:32:53.300303  9538 net.cpp:356] conv3 -> conv3
I0406 10:32:53.300309  9538 net.cpp:96] Setting up conv3
I0406 10:32:53.329115  9538 net.cpp:103] Top shape: 32 384 13 13 (2076672)
I0406 10:32:53.329140  9538 net.cpp:67] Creating Layer relu3
I0406 10:32:53.329146  9538 net.cpp:394] relu3 <- conv3
I0406 10:32:53.329152  9538 net.cpp:345] relu3 -> conv3 (in-place)
I0406 10:32:53.329159  9538 net.cpp:96] Setting up relu3
I0406 10:32:53.329164  9538 net.cpp:103] Top shape: 32 384 13 13 (2076672)
I0406 10:32:53.329174  9538 net.cpp:67] Creating Layer conv4
I0406 10:32:53.329179  9538 net.cpp:394] conv4 <- conv3
I0406 10:32:53.329185  9538 net.cpp:356] conv4 -> conv4
I0406 10:32:53.329190  9538 net.cpp:96] Setting up conv4
I0406 10:32:53.351197  9538 net.cpp:103] Top shape: 32 384 13 13 (2076672)
I0406 10:32:53.351220  9538 net.cpp:67] Creating Layer relu4
I0406 10:32:53.351225  9538 net.cpp:394] relu4 <- conv4
I0406 10:32:53.351253  9538 net.cpp:345] relu4 -> conv4 (in-place)
I0406 10:32:53.351260  9538 net.cpp:96] Setting up relu4
I0406 10:32:53.351268  9538 net.cpp:103] Top shape: 32 384 13 13 (2076672)
I0406 10:32:53.351277  9538 net.cpp:67] Creating Layer conv5
I0406 10:32:53.351284  9538 net.cpp:394] conv5 <- conv4
I0406 10:32:53.351294  9538 net.cpp:356] conv5 -> conv5
I0406 10:32:53.351300  9538 net.cpp:96] Setting up conv5
I0406 10:32:53.365937  9538 net.cpp:103] Top shape: 32 256 13 13 (1384448)
I0406 10:32:53.365965  9538 net.cpp:67] Creating Layer relu5
I0406 10:32:53.365972  9538 net.cpp:394] relu5 <- conv5
I0406 10:32:53.365978  9538 net.cpp:345] relu5 -> conv5 (in-place)
I0406 10:32:53.365984  9538 net.cpp:96] Setting up relu5
I0406 10:32:53.365991  9538 net.cpp:103] Top shape: 32 256 13 13 (1384448)
I0406 10:32:53.365998  9538 net.cpp:67] Creating Layer pool5
I0406 10:32:53.366001  9538 net.cpp:394] pool5 <- conv5
I0406 10:32:53.366008  9538 net.cpp:356] pool5 -> pool5
I0406 10:32:53.366014  9538 net.cpp:96] Setting up pool5
I0406 10:32:53.366020  9538 net.cpp:103] Top shape: 32 256 6 6 (294912)
I0406 10:32:53.366032  9538 net.cpp:67] Creating Layer fc6
I0406 10:32:53.366039  9538 net.cpp:394] fc6 <- pool5
I0406 10:32:53.366045  9538 net.cpp:356] fc6 -> fc6
I0406 10:32:53.366052  9538 net.cpp:96] Setting up fc6
I0406 10:32:54.583057  9538 net.cpp:103] Top shape: 32 4096 1 1 (131072)
I0406 10:32:54.583112  9538 net.cpp:67] Creating Layer relu6
I0406 10:32:54.583120  9538 net.cpp:394] relu6 <- fc6
I0406 10:32:54.583128  9538 net.cpp:345] relu6 -> fc6 (in-place)
I0406 10:32:54.583137  9538 net.cpp:96] Setting up relu6
I0406 10:32:54.583160  9538 net.cpp:103] Top shape: 32 4096 1 1 (131072)
I0406 10:32:54.583168  9538 net.cpp:67] Creating Layer drop6
I0406 10:32:54.583171  9538 net.cpp:394] drop6 <- fc6
I0406 10:32:54.583179  9538 net.cpp:345] drop6 -> fc6 (in-place)
I0406 10:32:54.583185  9538 net.cpp:96] Setting up drop6
I0406 10:32:54.583195  9538 net.cpp:103] Top shape: 32 4096 1 1 (131072)
I0406 10:32:54.583206  9538 net.cpp:67] Creating Layer fc7
I0406 10:32:54.583210  9538 net.cpp:394] fc7 <- fc6
I0406 10:32:54.583220  9538 net.cpp:356] fc7 -> fc7
I0406 10:32:54.583232  9538 net.cpp:96] Setting up fc7
I0406 10:32:55.126590  9538 net.cpp:103] Top shape: 32 4096 1 1 (131072)
I0406 10:32:55.126643  9538 net.cpp:67] Creating Layer relu7
I0406 10:32:55.126652  9538 net.cpp:394] relu7 <- fc7
I0406 10:32:55.126662  9538 net.cpp:345] relu7 -> fc7 (in-place)
I0406 10:32:55.126672  9538 net.cpp:96] Setting up relu7
I0406 10:32:55.126696  9538 net.cpp:103] Top shape: 32 4096 1 1 (131072)
I0406 10:32:55.126705  9538 net.cpp:67] Creating Layer drop7
I0406 10:32:55.126710  9538 net.cpp:394] drop7 <- fc7
I0406 10:32:55.126718  9538 net.cpp:345] drop7 -> fc7 (in-place)
I0406 10:32:55.126724  9538 net.cpp:96] Setting up drop7
I0406 10:32:55.126729  9538 net.cpp:103] Top shape: 32 4096 1 1 (131072)
I0406 10:32:55.126736  9538 net.cpp:67] Creating Layer fc8_deepfashion
I0406 10:32:55.126740  9538 net.cpp:394] fc8_deepfashion <- fc7
I0406 10:32:55.126746  9538 net.cpp:356] fc8_deepfashion -> fc8_deepfashion
I0406 10:32:55.126754  9538 net.cpp:96] Setting up fc8_deepfashion
I0406 10:32:55.133245  9538 net.cpp:103] Top shape: 32 48 1 1 (1536)
I0406 10:32:55.133265  9538 net.cpp:67] Creating Layer fc8_deepfashion_encode
I0406 10:32:55.133270  9538 net.cpp:394] fc8_deepfashion_encode <- fc8_deepfashion
I0406 10:32:55.133276  9538 net.cpp:356] fc8_deepfashion_encode -> fc8_deepfashion_encode
I0406 10:32:55.133285  9538 net.cpp:96] Setting up fc8_deepfashion_encode
I0406 10:32:55.133298  9538 net.cpp:103] Top shape: 32 48 1 1 (1536)
I0406 10:32:55.133304  9538 net.cpp:67] Creating Layer fc8_deepfashion_encode_fc8_deepfashion_encode_0_split
I0406 10:32:55.133309  9538 net.cpp:394] fc8_deepfashion_encode_fc8_deepfashion_encode_0_split <- fc8_deepfashion_encode
I0406 10:32:55.133314  9538 net.cpp:356] fc8_deepfashion_encode_fc8_deepfashion_encode_0_split -> fc8_deepfashion_encode_fc8_deepfashion_encode_0_split_0
I0406 10:32:55.133352  9538 net.cpp:356] fc8_deepfashion_encode_fc8_deepfashion_encode_0_split -> fc8_deepfashion_encode_fc8_deepfashion_encode_0_split_1
I0406 10:32:55.133359  9538 net.cpp:96] Setting up fc8_deepfashion_encode_fc8_deepfashion_encode_0_split
I0406 10:32:55.133366  9538 net.cpp:103] Top shape: 32 48 1 1 (1536)
I0406 10:32:55.133371  9538 net.cpp:103] Top shape: 32 48 1 1 (1536)
I0406 10:32:55.133383  9538 net.cpp:67] Creating Layer fc8_pascal_label_mod
I0406 10:32:55.133388  9538 net.cpp:394] fc8_pascal_label_mod <- fc8_deepfashion_encode_fc8_deepfashion_encode_0_split_0
I0406 10:32:55.133394  9538 net.cpp:356] fc8_pascal_label_mod -> fc8_pascal_label_mod
I0406 10:32:55.133400  9538 net.cpp:96] Setting up fc8_pascal_label_mod
I0406 10:32:55.133427  9538 net.cpp:103] Top shape: 32 10 1 1 (320)
I0406 10:32:55.133450  9538 net.cpp:67] Creating Layer fc8_pascal_color_mod
I0406 10:32:55.133461  9538 net.cpp:394] fc8_pascal_color_mod <- fc8_deepfashion_encode_fc8_deepfashion_encode_0_split_1
I0406 10:32:55.133469  9538 net.cpp:356] fc8_pascal_color_mod -> fc8_pascal_color_mod
I0406 10:32:55.133476  9538 net.cpp:96] Setting up fc8_pascal_color_mod
I0406 10:32:55.133512  9538 net.cpp:103] Top shape: 32 16 1 1 (512)
I0406 10:32:55.133527  9538 net.cpp:67] Creating Layer loss
I0406 10:32:55.133532  9538 net.cpp:394] loss <- fc8_pascal_label_mod
I0406 10:32:55.133536  9538 net.cpp:394] loss <- labels0
I0406 10:32:55.133543  9538 net.cpp:356] loss -> (automatic)
I0406 10:32:55.133549  9538 net.cpp:96] Setting up loss
I0406 10:32:55.133560  9538 net.cpp:103] Top shape: 1 1 1 1 (1)
I0406 10:32:55.133565  9538 net.cpp:109]     with loss weight 1
I0406 10:32:55.133613  9538 net.cpp:67] Creating Layer loss
I0406 10:32:55.133620  9538 net.cpp:394] loss <- fc8_pascal_color_mod
I0406 10:32:55.133625  9538 net.cpp:394] loss <- labels1
I0406 10:32:55.133630  9538 net.cpp:356] loss -> (automatic)
I0406 10:32:55.133635  9538 net.cpp:96] Setting up loss
I0406 10:32:55.133641  9538 net.cpp:103] Top shape: 1 1 1 1 (1)
I0406 10:32:55.133644  9538 net.cpp:109]     with loss weight 1
I0406 10:32:55.133653  9538 net.cpp:67] Creating Layer silence
I0406 10:32:55.133658  9538 net.cpp:394] silence <- random
I0406 10:32:55.133662  9538 net.cpp:96] Setting up silence
I0406 10:32:55.133666  9538 net.cpp:172] silence does not need backward computation.
I0406 10:32:55.133671  9538 net.cpp:170] loss needs backward computation.
…
layers {
  top: "data"
  top: "random"
  name: "data"
  type: DATA
  data_param {
    source: "/data/deepfashion/color_label_multilabel/color_label_multilabel_test"
    batch_size: 32
    backend: LMDB
  }
  include {
    phase: TEST
  }
  transform_param {
    mirror: true
    crop_size: 227
    mean_file: "../../../data/ilsvrc12/imagenet_mean.binaryproto"
  }
}
layers {
  top: "labels"
  name: "labels"
  type: DATA
  data_param {
    source: "/data/deepfashion/color_label_multilabel/color_label_multilabel_test_alt"
    batch_size: 32
    backend: LMDB
  }
  include {
    phase: TEST
  }
}
layers {
  bottom: "labels"
  top: "labels0"
  top: "labels1"
  name: "sliceL"
  type: SLICE
  slice_param {
    slice_point: 1
  }
}
layers {
  bottom: "data"
  top: "conv1"
  name: "conv1"
  type: CONVOLUTION
  blobs_lr: 0
  blobs_lr: 0
  weight_decay: 1
  weight_decay: 0
  convolution_param {
    num_output: 96
    kernel_size: 11
    stride: 4
    weight_filler {
      type: "gaussian"
      std: 0.01
    }
    bias_filler {
      type: "constant"
      value: 0
    }
  }
}
layers {
  bottom: "conv1"
  top: "conv1"
  name: "relu1"
  type: RELU
}
layers {
  bottom: "conv1"
  top: "pool1"
  name: "pool1"
  type: POOLING
  pooling_param {
    pool: MAX
    kernel_size: 3
    stride: 2
  }
}
layers {
  bottom: "pool1"
  top: "norm1"
  name: "norm1"
  type: LRN
  lrn_param {
    local_size: 5
    alpha: 0.0001
    beta: 0.75
  }
}
layers {
  bottom: "norm1"
  top: "conv2"
  name: "conv2"
  type: CONVOLUTION
  blobs_lr: 0
  blobs_lr: 0
  weight_decay: 1
  weight_decay: 0
  convolution_param {
    num_output: 256
    pad: 2
    kernel_size: 5
    group: 2
    weight_filler {
      type: "gaussian"
      std: 0.01
    }
    bias_filler {
      type: "constant"
      value: 1
    }
  }
}
layers {
  bottom: "conv2"
  top: "conv2"
  name: "relu2"
  type: RELU
}
layers {
  bottom: "conv2"
  top: "pool2"
  name: "pool2"
  type: POOLING
  pooling_param {
    pool: MAX
    kernel_size: 3
    stride: 2
  }
}
layers {
  bottom: "pool2"
  top: "norm2"
  name: "norm2"
  type: LRN
  lrn_param {
    local_size: 5
    alpha: 0.0001
    beta: 0.75
  }
}
layers {
  bottom: "norm2"
  top: "conv3"
  name: "conv3"
  type: CONVOLUTION
  blobs_lr: 0
  blobs_lr: 0
  weight_decay: 1
  weight_decay: 0
  convolution_param {
    num_output: 384
    pad: 1
    kernel_size: 3
    weight_filler {
      type: "gaussian"
      std: 0.01
    }
    bias_filler {
      type: "constant"
      value: 0
    }
  }
}
layers {
  bottom: "conv3"
  top: "conv3"
  name: "relu3"
  type: RELU
}
layers {
  bottom: "conv3"
  top: "conv4"
  name: "conv4"
  type: CONVOLUTION
  blobs_lr: 0
  blobs_lr: 0
  weight_decay: 1
  weight_decay: 0
  convolution_param {
    num_output: 384
    pad: 1
    kernel_size: 3
    group: 2
    weight_filler {
      type: "gaussian"
      std: 0.01
    }
    bias_filler {
      type: "constant"
      value: 1
    }
  }
}
layers {
  bottom: "conv4"
  top: "conv4"
  name: "relu4"
  type: RELU
}
layers {
  bottom: "conv4"
  top: "conv5"
  name: "conv5"
  type: CONVOLUTION
  blobs_lr: 0
  blobs_lr: 0
  weight_decay: 1
  weight_decay: 0
  convolution_param {
    num_output: 256
    pad: 1
    kernel_size: 3
    group: 2
    weight_filler {
      type: "gaussian"
      std: 0.01
    }
    bias_filler {
      type: "constant"
      value: 1
    }
  }
}
layers {
  bottom: "conv5"
  top: "conv5"
  name: "relu5"
  type: RELU
}
layers {
  bottom: "conv5"
  top: "pool5"
  name: "pool5"
  type: POOLING
  pooling_param {
    pool: MAX
    kernel_size: 3
    stride: 2
  }
}
layers {
  bottom: "pool5"
  top: "fc6"
  name: "fc6"
  type: INNER_PRODUCT
  blobs_lr: 1
  blobs_lr: 2
  weight_decay: 1
  weight_decay: 0
  inner_product_param {
    num_output: 4096
    weight_filler {
      type: "gaussian"
      std: 0.005
    }
    bias_filler {
      type: "constant"
      value: 1
    }
  }
}
layers {
  bottom: "fc6"
  top: "fc6"
  name: "relu6"
  type: RELU
}
layers {
  bottom: "fc6"
  top: "fc6"
  name: "drop6"
  type: DROPOUT
  dropout_param {
    dropout_ratio: 0.5
  }
}
layers {
  bottom: "fc6"
  top: "fc7"
  name: "fc7"
  type: INNER_PRODUCT
  blobs_lr: 1
  blobs_lr: 2
  weight_decay: 1
  weight_decay: 0
  inner_product_param {
    num_output: 4096
    weight_filler {
      type: "gaussian"
      std: 0.005
    }
    bias_filler {
      type: "constant"
      value: 1
    }
  }
}
layers {
  bottom: "fc7"
  top: "fc7"
  name: "relu7"
  type: RELU
}
layers {
  bottom: "fc7"
  top: "fc7"
  name: "drop7"
  type: DROPOUT
  dropout_param {
    dropout_ratio: 0.5
  }
}
layers {
  bottom: "fc7"
  top: "fc8_deepfashion"
  name: "fc8_deepfashion"
  type: INNER_PRODUCT
  blobs_lr: 1
  blobs_lr: 2
  weight_decay: 1
  weight_decay: 0
  inner_product_param {
    num_output: 48
    weight_filler {
      type: "gaussian"
      std: 0.01
    }
    bias_filler {
      type: "constant"
      value: 0
    }
  }
}
layers {
  bottom: "fc8_deepfashion"
  top: "fc8_deepfashion_encode"
  name: "fc8_deepfashion_encode"
  type: SIGMOID
}
layers {
  bottom: "fc8_deepfashion_encode"
  top: "fc8_pascal_label_mod"
  name: "fc8_pascal_label_mod"
  type: INNER_PRODUCT
  blobs_lr: 1
  blobs_lr: 2
  weight_decay: 1
  weight_decay: 0
  inner_product_param {
    num_output: 10
    weight_filler {
      type: "gaussian"
      std: 0.01
    }
    bias_filler {
      type: "constant"
      value: 0
    }
  }
}
layers {
  bottom: "fc8_deepfashion_encode"
  top: "fc8_pascal_color_mod"
  name: "fc8_pascal_color_mod"
  type: INNER_PRODUCT
  blobs_lr: 1
  blobs_lr: 2
  weight_decay: 1
  weight_decay: 0
  inner_product_param {
    num_output: 16
    weight_filler {
      type: "gaussian"
      std: 0.01
    }
    bias_filler {
      type: "constant"
      value: 0
    }
  }
}
layers {
  bottom: "fc8_pascal_label_mod"
  bottom: "labels0"
  name: "loss"
  type: SOFTMAX_LOSS
}
layers {
  bottom: "fc8_pascal_color_mod"
  bottom: "labels1"
  name: "loss"
  type: SOFTMAX_LOSS
}
layers {
  bottom: "fc8_pascal_color_mod"
  bottom: "labels1"
  top: "colorAccuracy"
  name: "accuracy"
  type: ACCURACY
  include {
    phase: TEST
  }
}
layers {
  bottom: "fc8_pascal_label_mod"
  bottom: "labels0"
  top: "labelAccuracy"
  name: "accuracy1"
  type: ACCURACY
  include {
    phase: TEST
  }
}
layers {
  bottom: "random"
  name: "silence"
  type: SILENCE
}
state {
  phase: TEST
}
I0406 10:32:55.135005  9538 net.cpp:67] Creating Layer data
I0406 10:32:55.135013  9538 net.cpp:356] data -> data
I0406 10:32:55.135022  9538 net.cpp:356] data -> random
I0406 10:32:55.135037  9538 net.cpp:96] Setting up data
I0406 10:32:55.135097  9538 data_layer.cpp:68] Opening lmdb /data/deepfashion/color_label_multilabel/color_label_multilabel_test
I0406 10:32:55.135294  9538 data_layer.cpp:128] output data size: 32,3,227,227
I0406 10:32:55.135309  9538 base_data_layer.cpp:36] Loading mean file from../../../data/ilsvrc12/imagenet_mean.binaryproto
I0406 10:32:55.142427  9538 net.cpp:103] Top shape: 32 3 227 227 (4946784)
I0406 10:32:55.142459  9538 net.cpp:103] Top shape: 32 1 1 1 (32)
I0406 10:32:55.142478  9538 net.cpp:67] Creating Layer labels
I0406 10:32:55.142484  9538 net.cpp:356] labels -> labels
I0406 10:32:55.142498  9538 net.cpp:96] Setting up labels
I0406 10:32:55.142566  9538 data_layer.cpp:68] Opening lmdb /data/deepfashion/color_label_multilabel/color_label_multilabel_test_alt
I0406 10:32:55.142588  9538 data_layer.cpp:128] output data size: 32,2,1,1
I0406 10:32:55.142616  9538 net.cpp:103] Top shape: 32 2 1 1 (64)
I0406 10:32:55.142633  9538 net.cpp:67] Creating Layer sliceL
I0406 10:32:55.142638  9538 net.cpp:394] sliceL <- labels
I0406 10:32:55.142647  9538 net.cpp:356] sliceL -> labels0
I0406 10:32:55.142654  9538 net.cpp:356] sliceL -> labels1
I0406 10:32:55.142662  9538 net.cpp:96] Setting up sliceL
I0406 10:32:55.142668  9538 net.cpp:103] Top shape: 32 1 1 1 (32)
I0406 10:32:55.142673  9538 net.cpp:103] Top shape: 32 1 1 1 (32)
I0406 10:32:55.142679  9538 net.cpp:67] Creating Layer labels0_sliceL_0_split
I0406 10:32:55.142683  9538 net.cpp:394] labels0_sliceL_0_split <- labels0
I0406 10:32:55.142688  9538 net.cpp:356] labels0_sliceL_0_split -> labels0_sliceL_0_split_0
I0406 10:32:55.142695  9538 net.cpp:356] labels0_sliceL_0_split -> labels0_sliceL_0_split_1
I0406 10:32:55.142700  9538 net.cpp:96] Setting up labels0_sliceL_0_split
I0406 10:32:55.142705  9538 net.cpp:103] Top shape: 32 1 1 1 (32)
I0406 10:32:55.142709  9538 net.cpp:103] Top shape: 32 1 1 1 (32)
I0406 10:32:55.142715  9538 net.cpp:67] Creating Layer labels1_sliceL_1_split
I0406 10:32:55.142719  9538 net.cpp:394] labels1_sliceL_1_split <- labels1
I0406 10:32:55.142724  9538 net.cpp:356] labels1_sliceL_1_split -> labels1_sliceL_1_split_0
I0406 10:32:55.142730  9538 net.cpp:356] labels1_sliceL_1_split -> labels1_sliceL_1_split_1
I0406 10:32:55.142736  9538 net.cpp:96] Setting up labels1_sliceL_1_split
I0406 10:32:55.142741  9538 net.cpp:103] Top shape: 32 1 1 1 (32)
I0406 10:32:55.142745  9538 net.cpp:103] Top shape: 32 1 1 1 (32)
I0406 10:32:55.142755  9538 net.cpp:67] Creating Layer conv1
I0406 10:32:55.142757  9538 net.cpp:394] conv1 <- data
I0406 10:32:55.142765  9538 net.cpp:356] conv1 -> conv1
I0406 10:32:55.142772  9538 net.cpp:96] Setting up conv1
I0406 10:32:55.144008  9538 net.cpp:103] Top shape: 32 96 55 55 (9292800)
I0406 10:32:55.144034  9538 net.cpp:67] Creating Layer relu1
I0406 10:32:55.144040  9538 net.cpp:394] relu1 <- conv1
I0406 10:32:55.144047  9538 net.cpp:345] relu1 -> conv1 (in-place)
I0406 10:32:55.144053  9538 net.cpp:96] Setting up relu1
I0406 10:32:55.144062  9538 net.cpp:103] Top shape: 32 96 55 55 (9292800)
I0406 10:32:55.144069  9538 net.cpp:67] Creating Layer pool1
I0406 10:32:55.144073  9538 net.cpp:394] pool1 <- conv1
I0406 10:32:55.144079  9538 net.cpp:356] pool1 -> pool1
I0406 10:32:55.144086  9538 net.cpp:96] Setting up pool1
I0406 10:32:55.144095  9538 net.cpp:103] Top shape: 32 96 27 27 (2239488)
I0406 10:32:55.144104  9538 net.cpp:67] Creating Layer norm1
I0406 10:32:55.144109  9538 net.cpp:394] norm1 <- pool1
I0406 10:32:55.144115  9538 net.cpp:356] norm1 -> norm1
I0406 10:32:55.144121  9538 net.cpp:96] Setting up norm1
I0406 10:32:55.144145  9538 net.cpp:103] Top shape: 32 96 27 27 (2239488)
I0406 10:32:55.144171  9538 net.cpp:67] Creating Layer conv2
I0406 10:32:55.144179  9538 net.cpp:394] conv2 <- norm1
I0406 10:32:55.144191  9538 net.cpp:356] conv2 -> conv2
I0406 10:32:55.144202  9538 net.cpp:96] Setting up conv2
I0406 10:32:55.154474  9538 net.cpp:103] Top shape: 32 256 27 27 (5971968)
I0406 10:32:55.154525  9538 net.cpp:67] Creating Layer relu2
I0406 10:32:55.154537  9538 net.cpp:394] relu2 <- conv2
I0406 10:32:55.154549  9538 net.cpp:345] relu2 -> conv2 (in-place)
I0406 10:32:55.154589  9538 net.cpp:96] Setting up relu2
I0406 10:32:55.154604  9538 net.cpp:103] Top shape: 32 256 27 27 (5971968)
I0406 10:32:55.154623  9538 net.cpp:67] Creating Layer pool2
I0406 10:32:55.154631  9538 net.cpp:394] pool2 <- conv2
I0406 10:32:55.154642  9538 net.cpp:356] pool2 -> pool2
I0406 10:32:55.154655  9538 net.cpp:96] Setting up pool2
I0406 10:32:55.154675  9538 net.cpp:103] Top shape: 32 256 13 13 (1384448)
I0406 10:32:55.154692  9538 net.cpp:67] Creating Layer norm2
I0406 10:32:55.154700  9538 net.cpp:394] norm2 <- pool2
I0406 10:32:55.154717  9538 net.cpp:356] norm2 -> norm2
I0406 10:32:55.154731  9538 net.cpp:96] Setting up norm2
I0406 10:32:55.154739  9538 net.cpp:103] Top shape: 32 256 13 13 (1384448)
I0406 10:32:55.154757  9538 net.cpp:67] Creating Layer conv3
I0406 10:32:55.154764  9538 net.cpp:394] conv3 <- norm2
I0406 10:32:55.154777  9538 net.cpp:356] conv3 -> conv3
I0406 10:32:55.154788  9538 net.cpp:96] Setting up conv3
I0406 10:32:55.183820  9538 net.cpp:103] Top shape: 32 384 13 13 (2076672)
I0406 10:32:55.183869  9538 net.cpp:67] Creating Layer relu3
I0406 10:32:55.183881  9538 net.cpp:394] relu3 <- conv3
I0406 10:32:55.183897  9538 net.cpp:345] relu3 -> conv3 (in-place)
I0406 10:32:55.183908  9538 net.cpp:96] Setting up relu3
I0406 10:32:55.183923  9538 net.cpp:103] Top shape: 32 384 13 13 (2076672)
I0406 10:32:55.183938  9538 net.cpp:67] Creating Layer conv4
I0406 10:32:55.183949  9538 net.cpp:394] conv4 <- conv3
I0406 10:32:55.183961  9538 net.cpp:356] conv4 -> conv4
I0406 10:32:55.183979  9538 net.cpp:96] Setting up conv4
I0406 10:32:55.205967  9538 net.cpp:103] Top shape: 32 384 13 13 (2076672)
I0406 10:32:55.205998  9538 net.cpp:67] Creating Layer relu4
I0406 10:32:55.206008  9538 net.cpp:394] relu4 <- conv4
I0406 10:32:55.206027  9538 net.cpp:345] relu4 -> conv4 (in-place)
I0406 10:32:55.206040  9538 net.cpp:96] Setting up relu4
I0406 10:32:55.206053  9538 net.cpp:103] Top shape: 32 384 13 13 (2076672)
I0406 10:32:55.206073  9538 net.cpp:67] Creating Layer conv5
I0406 10:32:55.206089  9538 net.cpp:394] conv5 <- conv4
I0406 10:32:55.206104  9538 net.cpp:356] conv5 -> conv5
I0406 10:32:55.206117  9538 net.cpp:96] Setting up conv5
I0406 10:32:55.220958  9538 net.cpp:103] Top shape: 32 256 13 13 (1384448)
I0406 10:32:55.220994  9538 net.cpp:67] Creating Layer relu5
I0406 10:32:55.221004  9538 net.cpp:394] relu5 <- conv5
I0406 10:32:55.221014  9538 net.cpp:345] relu5 -> conv5 (in-place)
I0406 10:32:55.221025  9538 net.cpp:96] Setting up relu5
I0406 10:32:55.221038  9538 net.cpp:103] Top shape: 32 256 13 13 (1384448)
I0406 10:32:55.221060  9538 net.cpp:67] Creating Layer pool5
I0406 10:32:55.221068  9538 net.cpp:394] pool5 <- conv5
I0406 10:32:55.221081  9538 net.cpp:356] pool5 -> pool5
I0406 10:32:55.221092  9538 net.cpp:96] Setting up pool5
I0406 10:32:55.221108  9538 net.cpp:103] Top shape: 32 256 6 6 (294912)
I0406 10:32:55.221132  9538 net.cpp:67] Creating Layer fc6
I0406 10:32:55.221139  9538 net.cpp:394] fc6 <- pool5
I0406 10:32:55.221151  9538 net.cpp:356] fc6 -> fc6
I0406 10:32:55.221164  9538 net.cpp:96] Setting up fc6
I0406 10:32:56.439322  9538 net.cpp:103] Top shape: 32 4096 1 1 (131072)
I0406 10:32:56.439388  9538 net.cpp:67] Creating Layer relu6
I0406 10:32:56.439402  9538 net.cpp:394] relu6 <- fc6
I0406 10:32:56.439414  9538 net.cpp:345] relu6 -> fc6 (in-place)
I0406 10:32:56.439429  9538 net.cpp:96] Setting up relu6
I0406 10:32:56.439455  9538 net.cpp:103] Top shape: 32 4096 1 1 (131072)
I0406 10:32:56.439470  9538 net.cpp:67] Creating Layer drop6
I0406 10:32:56.439481  9538 net.cpp:394] drop6 <- fc6
I0406 10:32:56.439492  9538 net.cpp:345] drop6 -> fc6 (in-place)
I0406 10:32:56.439503  9538 net.cpp:96] Setting up drop6
I0406 10:32:56.439512  9538 net.cpp:103] Top shape: 32 4096 1 1 (131072)
I0406 10:32:56.439525  9538 net.cpp:67] Creating Layer fc7
I0406 10:32:56.439533  9538 net.cpp:394] fc7 <- fc6
I0406 10:32:56.439553  9538 net.cpp:356] fc7 -> fc7
I0406 10:32:56.439568  9538 net.cpp:96] Setting up fc7
I0406 10:32:56.983794  9538 net.cpp:103] Top shape: 32 4096 1 1 (131072)
I0406 10:32:56.983891  9538 net.cpp:67] Creating Layer relu7
I0406 10:32:56.983904  9538 net.cpp:394] relu7 <- fc7
I0406 10:32:56.983921  9538 net.cpp:345] relu7 -> fc7 (in-place)
I0406 10:32:56.983935  9538 net.cpp:96] Setting up relu7
I0406 10:32:56.983969  9538 net.cpp:103] Top shape: 32 4096 1 1 (131072)
I0406 10:32:56.983983  9538 net.cpp:67] Creating Layer drop7
I0406 10:32:56.983991  9538 net.cpp:394] drop7 <- fc7
I0406 10:32:56.984002  9538 net.cpp:345] drop7 -> fc7 (in-place)
I0406 10:32:56.984014  9538 net.cpp:96] Setting up drop7
I0406 10:32:56.984021  9538 net.cpp:103] Top shape: 32 4096 1 1 (131072)
I0406 10:32:56.984035  9538 net.cpp:67] Creating Layer fc8_deepfashion
I0406 10:32:56.984042  9538 net.cpp:394] fc8_deepfashion <- fc7
I0406 10:32:56.984060  9538 net.cpp:356] fc8_deepfashion -> fc8_deepfashion
I0406 10:32:56.984073  9538 net.cpp:96] Setting up fc8_deepfashion
I0406 10:32:56.990598  9538 net.cpp:103] Top shape: 32 48 1 1 (1536)
I0406 10:32:56.990628  9538 net.cpp:67] Creating Layer fc8_deepfashion_encode
I0406 10:32:56.990638  9538 net.cpp:394] fc8_deepfashion_encode <- fc8_deepfashion
I0406 10:32:56.990649  9538 net.cpp:356] fc8_deepfashion_encode -> fc8_deepfashion_encode
I0406 10:32:56.990663  9538 net.cpp:96] Setting up fc8_deepfashion_encode
I0406 10:32:56.990676  9538 net.cpp:103] Top shape: 32 48 1 1 (1536)
I0406 10:32:56.990689  9538 net.cpp:67] Creating Layer fc8_deepfashion_encode_fc8_deepfashion_encode_0_split
I0406 10:32:56.990696  9538 net.cpp:394] fc8_deepfashion_encode_fc8_deepfashion_encode_0_split <- fc8_deepfashion_encode
I0406 10:32:56.990711  9538 net.cpp:356] fc8_deepfashion_encode_fc8_deepfashion_encode_0_split -> fc8_deepfashion_encode_fc8_deepfashion_encode_0_split_0
I0406 10:32:56.990725  9538 net.cpp:356] fc8_deepfashion_encode_fc8_deepfashion_encode_0_split -> fc8_deepfashion_encode_fc8_deepfashion_encode_0_split_1
I0406 10:32:56.990736  9538 net.cpp:96] Setting up fc8_deepfashion_encode_fc8_deepfashion_encode_0_split
I0406 10:32:56.990746  9538 net.cpp:103] Top shape: 32 48 1 1 (1536)
I0406 10:32:56.990753  9538 net.cpp:103] Top shape: 32 48 1 1 (1536)
I0406 10:32:56.990769  9538 net.cpp:67] Creating Layer fc8_pascal_label_mod
I0406 10:32:56.990778  9538 net.cpp:394] fc8_pascal_label_mod <- fc8_deepfashion_encode_fc8_deepfashion_encode_0_split_0
I0406 10:32:56.990789  9538 net.cpp:356] fc8_pascal_label_mod -> fc8_pascal_label_mod
I0406 10:32:56.990802  9538 net.cpp:96] Setting up fc8_pascal_label_mod
I0406 10:32:56.990844  9538 net.cpp:103] Top shape: 32 10 1 1 (320)
I0406 10:32:56.990880  9538 net.cpp:67] Creating Layer fc8_pascal_label_mod_fc8_pascal_label_mod_0_split
I0406 10:32:56.990898  9538 net.cpp:394] fc8_pascal_label_mod_fc8_pascal_label_mod_0_split <- fc8_pascal_label_mod
I0406 10:32:56.990911  9538 net.cpp:356] fc8_pascal_label_mod_fc8_pascal_label_mod_0_split -> fc8_pascal_label_mod_fc8_pascal_label_mod_0_split_0
I0406 10:32:56.990923  9538 net.cpp:356] fc8_pascal_label_mod_fc8_pascal_label_mod_0_split -> fc8_pascal_label_mod_fc8_pascal_label_mod_0_split_1
I0406 10:32:56.990934  9538 net.cpp:96] Setting up fc8_pascal_label_mod_fc8_pascal_label_mod_0_split
I0406 10:32:56.990943  9538 net.cpp:103] Top shape: 32 10 1 1 (320)
I0406 10:32:56.990950  9538 net.cpp:103] Top shape: 32 10 1 1 (320)
I0406 10:32:56.990967  9538 net.cpp:67] Creating Layer fc8_pascal_color_mod
I0406 10:32:56.990975  9538 net.cpp:394] fc8_pascal_color_mod <- fc8_deepfashion_encode_fc8_deepfashion_encode_0_split_1
I0406 10:32:56.990988  9538 net.cpp:356] fc8_pascal_color_mod -> fc8_pascal_color_mod
I0406 10:32:56.990998  9538 net.cpp:96] Setting up fc8_pascal_color_mod
I0406 10:32:56.991055  9538 net.cpp:103] Top shape: 32 16 1 1 (512)
I0406 10:32:56.991087  9538 net.cpp:67] Creating Layer fc8_pascal_color_mod_fc8_pascal_color_mod_0_split
I0406 10:32:56.991098  9538 net.cpp:394] fc8_pascal_color_mod_fc8_pascal_color_mod_0_split <- fc8_pascal_color_mod
I0406 10:32:56.991109  9538 net.cpp:356] fc8_pascal_color_mod_fc8_pascal_color_mod_0_split -> fc8_pascal_color_mod_fc8_pascal_color_mod_0_split_0
I0406 10:32:56.991140  9538 net.cpp:356] fc8_pascal_color_mod_fc8_pascal_color_mod_0_split -> fc8_pascal_color_mod_fc8_pascal_color_mod_0_split_1
I0406 10:32:56.991153  9538 net.cpp:96] Setting up fc8_pascal_color_mod_fc8_pascal_color_mod_0_split
I0406 10:32:56.991161  9538 net.cpp:103] Top shape: 32 16 1 1 (512)
I0406 10:32:56.991168  9538 net.cpp:103] Top shape: 32 16 1 1 (512)
I0406 10:32:56.991183  9538 net.cpp:67] Creating Layer loss
I0406 10:32:56.991192  9538 net.cpp:394] loss <- fc8_pascal_label_mod_fc8_pascal_label_mod_0_split_0
I0406 10:32:56.991202  9538 net.cpp:394] loss <- labels0_sliceL_0_split_0
I0406 10:32:56.991216  9538 net.cpp:356] loss -> (automatic)
I0406 10:32:56.991226  9538 net.cpp:96] Setting up loss
I0406 10:32:56.991238  9538 net.cpp:103] Top shape: 1 1 1 1 (1)
I0406 10:32:56.991246  9538 net.cpp:109]     with loss weight 1
I0406 10:32:56.991273  9538 net.cpp:67] Creating Layer loss
I0406 10:32:56.991286  9538 net.cpp:394] loss <- fc8_pascal_color_mod_fc8_pascal_color_mod_0_split_0
I0406 10:32:56.991296  9538 net.cpp:394] loss <- labels1_sliceL_1_split_0
I0406 10:32:56.991309  9538 net.cpp:356] loss -> (automatic)
I0406 10:32:56.991324  9538 net.cpp:96] Setting up loss
I0406 10:32:56.991340  9538 net.cpp:103] Top shape: 1 1 1 1 (1)
I0406 10:32:56.991351  9538 net.cpp:109]     with loss weight 1
I0406 10:32:56.991367  9538 net.cpp:67] Creating Layer accuracy
I0406 10:32:56.991376  9538 net.cpp:394] accuracy <- fc8_pascal_color_mod_fc8_pascal_color_mod_0_split_1
I0406 10:32:56.991386  9538 net.cpp:394] accuracy <- labels1_sliceL_1_split_1
I0406 10:32:56.991397  9538 net.cpp:356] accuracy -> colorAccuracy
I0406 10:32:56.991410  9538 net.cpp:96] Setting up accuracy
I0406 10:32:56.991422  9538 net.cpp:103] Top shape: 1 1 1 1 (1)
I0406 10:32:56.991437  9538 net.cpp:67] Creating Layer accuracy1
I0406 10:32:56.991448  9538 net.cpp:394] accuracy1 <- fc8_pascal_label_mod_fc8_pascal_label_mod_0_split_1
I0406 10:32:56.991457  9538 net.cpp:394] accuracy1 <- labels0_sliceL_0_split_1
I0406 10:32:56.991467  9538 net.cpp:356] accuracy1 -> labelAccuracy
I0406 10:32:56.991478  9538 net.cpp:96] Setting up accuracy1
I0406 10:32:56.991487  9538 net.cpp:103] Top shape: 1 1 1 1 (1)
I0406 10:32:56.991497  9538 net.cpp:67] Creating Layer silence
I0406 10:32:56.991505  9538 net.cpp:394] silence <- random
I0406 10:32:56.991513  9538 net.cpp:96] Setting up silence
I0406 10:32:56.991521  9538 net.cpp:172] silence does not need backward computation.
I0406 10:32:56.991528  9538 net.cpp:172] accuracy1 does not need backward computation.
I0406 10:32:56.991534  9538 net.cpp:172] accuracy does not need backward computation.
…
