…
  top: "data"
  top: "random"
  name: "data"
  type: DATA
  data_param {
    source: "/data/deepfashion/color_label_multilabel/color_label_multilabel_TRAIN"
    batch_size: 32
    backend: LMDB
  }
  include {
    phase: TRAIN
  }
  transform_param {
    mirror: true
    crop_size: 227
    mean_file: "../../../data/ilsvrc12/imagenet_mean.binaryproto"
  }
}
layers {
  top: "labels"
  name: "labels"
  type: DATA
  data_param {
    source: "/data/deepfashion/color_label_multilabel/color_label_multilabel_TRAIN_ALT"
    batch_size: 32
    backend: LMDB
  }
  include {
    phase: TRAIN
  }
}
layers {
  bottom: "labels"
  top: "labels0"
  top: "labels1"
  name: "sliceL"
  type: SLICE
  slice_param {
    slice_point: 1
  }
}
layers {
  bottom: "data"
  top: "conv1"
  name: "conv1"
  type: CONVOLUTION
  blobs_lr: 0
  blobs_lr: 0
  weight_decay: 1
  weight_decay: 0
  convolution_param {
    num_output: 96
    kernel_size: 11
    stride: 4
    weight_filler {
      type: "gaussian"
      std: 0.01
    }
    bias_filler {
      type: "constant"
      value: 0
    }
  }
}
layers {
  bottom: "conv1"
  top: "conv1"
  name: "relu1"
  type: RELU
}
layers {
  bottom: "conv1"
  top: "pool1"
  name: "pool1"
  type: POOLING
  pooling_param {
    pool: MAX
    kernel_size: 3
    stride: 2
  }
}
layers {
  bottom: "pool1"
  top: "norm1"
  name: "norm1"
  type: LRN
  lrn_param {
    local_size: 5
    alpha: 0.0001
    beta: 0.75
  }
}
layers {
  bottom: "norm1"
  top: "conv2"
  name: "conv2"
  type: CONVOLUTION
  blobs_lr: 0
  blobs_lr: 0
  weight_decay: 1
  weight_decay: 0
  convolution_param {
    num_output: 256
    pad: 2
    kernel_size: 5
    group: 2
    weight_filler {
      type: "gaussian"
      std: 0.01
    }
    bias_filler {
      type: "constant"
      value: 1
    }
  }
}
layers {
  bottom: "conv2"
  top: "conv2"
  name: "relu2"
  type: RELU
}
layers {
  bottom: "conv2"
  top: "pool2"
  name: "pool2"
  type: POOLING
  pooling_param {
    pool: MAX
    kernel_size: 3
    stride: 2
  }
}
layers {
  bottom: "pool2"
  top: "norm2"
  name: "norm2"
  type: LRN
  lrn_param {
    local_size: 5
    alpha: 0.0001
    beta: 0.75
  }
}
layers {
  bottom: "norm2"
  top: "conv3"
  name: "conv3"
  type: CONVOLUTION
  blobs_lr: 0
  blobs_lr: 0
  weight_decay: 1
  weight_decay: 0
  convolution_param {
    num_output: 384
    pad: 1
    kernel_size: 3
    weight_filler {
      type: "gaussian"
      std: 0.01
    }
    bias_filler {
      type: "constant"
      value: 0
    }
  }
}
layers {
  bottom: "conv3"
  top: "conv3"
  name: "relu3"
  type: RELU
}
layers {
  bottom: "conv3"
  top: "conv4"
  name: "conv4"
  type: CONVOLUTION
  blobs_lr: 0
  blobs_lr: 0
  weight_decay: 1
  weight_decay: 0
  convolution_param {
    num_output: 384
    pad: 1
    kernel_size: 3
    group: 2
    weight_filler {
      type: "gaussian"
      std: 0.01
    }
    bias_filler {
      type: "constant"
      value: 1
    }
  }
}
layers {
  bottom: "conv4"
  top: "conv4"
  name: "relu4"
  type: RELU
}
layers {
  bottom: "conv4"
  top: "conv5"
  name: "conv5"
  type: CONVOLUTION
  blobs_lr: 0
  blobs_lr: 0
  weight_decay: 1
  weight_decay: 0
  convolution_param {
    num_output: 256
    pad: 1
    kernel_size: 3
    group: 2
    weight_filler {
      type: "gaussian"
      std: 0.01
    }
    bias_filler {
      type: "constant"
      value: 1
    }
  }
}
layers {
  bottom: "conv5"
  top: "conv5"
  name: "relu5"
  type: RELU
}
layers {
  bottom: "conv5"
  top: "pool5"
  name: "pool5"
  type: POOLING
  pooling_param {
    pool: MAX
    kernel_size: 3
    stride: 2
  }
}
layers {
  bottom: "pool5"
  top: "fc6"
  name: "fc6"
  type: INNER_PRODUCT
  blobs_lr: 1
  blobs_lr: 2
  weight_decay: 1
  weight_decay: 0
  inner_product_param {
    num_output: 4096
    weight_filler {
      type: "gaussian"
      std: 0.005
    }
    bias_filler {
      type: "constant"
      value: 1
    }
  }
}
layers {
  bottom: "fc6"
  top: "fc6"
  name: "relu6"
  type: RELU
}
layers {
  bottom: "fc6"
  top: "fc6"
  name: "drop6"
  type: DROPOUT
  dropout_param {
    dropout_ratio: 0.5
  }
}
layers {
  bottom: "fc6"
  top: "fc7"
  name: "fc7"
  type: INNER_PRODUCT
  blobs_lr: 1
  blobs_lr: 2
  weight_decay: 1
  weight_decay: 0
  inner_product_param {
    num_output: 4096
    weight_filler {
      type: "gaussian"
      std: 0.005
    }
    bias_filler {
      type: "constant"
      value: 1
    }
  }
}
layers {
  bottom: "fc7"
  top: "fc7"
  name: "relu7"
  type: RELU
}
layers {
  bottom: "fc7"
  top: "fc7"
  name: "drop7"
  type: DROPOUT
  dropout_param {
    dropout_ratio: 0.5
  }
}
layers {
  bottom: "fc7"
  top: "fc8_deepfashion"
  name: "fc8_deepfashion"
  type: INNER_PRODUCT
  blobs_lr: 1
  blobs_lr: 2
  weight_decay: 1
  weight_decay: 0
  inner_product_param {
    num_output: 48
    weight_filler {
      type: "gaussian"
      std: 0.01
    }
    bias_filler {
      type: "constant"
      value: 0
    }
  }
}
layers {
  bottom: "fc8_deepfashion"
  top: "fc8_deepfashion_encode"
  name: "fc8_deepfashion_encode"
  type: SIGMOID
}
layers {
  bottom: "fc8_deepfashion_encode"
  top: "fc8_pascal_label_mod"
  name: "fc8_pascal_label_mod"
  type: INNER_PRODUCT
  blobs_lr: 1
  blobs_lr: 2
  weight_decay: 1
  weight_decay: 0
  inner_product_param {
    num_output: 10
    weight_filler {
      type: "gaussian"
      std: 0.01
    }
    bias_filler {
      type: "constant"
      value: 0
    }
  }
}
layers {
  bottom: "fc8_deepfashion_encode"
  top: "fc8_pascal_color_mod"
  name: "fc8_pascal_color_mod"
  type: INNER_PRODUCT
  blobs_lr: 1
  blobs_lr: 2
  weight_decay: 1
  weight_decay: 0
  inner_product_param {
    num_output: 16
    weight_filler {
      type: "gaussian"
      std: 0.01
    }
    bias_filler {
      type: "constant"
      value: 0
    }
  }
}
layers {
  bottom: "fc8_pascal_label_mod"
  bottom: "labels0"
  name: "loss"
  type: SOFTMAX_LOSS
}
layers {
  bottom: "fc8_pascal_color_mod"
  bottom: "labels1"
  name: "loss"
  type: SOFTMAX_LOSS
}
layers {
  bottom: "random"
  name: "silence"
  type: SILENCE
}
state {
  phase: TRAIN
}
I0406 11:06:27.929920 18426 net.cpp:67] Creating Layer data
I0406 11:06:27.929939 18426 net.cpp:356] data -> data
I0406 11:06:27.929961 18426 net.cpp:356] data -> random
I0406 11:06:27.929976 18426 net.cpp:96] Setting up data
I0406 11:06:27.930107 18426 data_layer.cpp:68] Opening lmdb /data/deepfashion/color_label_multilabel/color_label_multilabel_TRAIN
I0406 11:06:27.930330 18426 data_layer.cpp:128] output data size: 32,3,227,227
I0406 11:06:27.930340 18426 base_data_layer.cpp:36] Loading mean file from../../../data/ilsvrc12/imagenet_mean.binaryproto
I0406 11:06:27.938258 18426 net.cpp:103] Top shape: 32 3 227 227 (4946784)
I0406 11:06:27.938292 18426 net.cpp:103] Top shape: 32 1 1 1 (32)
I0406 11:06:27.938309 18426 net.cpp:67] Creating Layer labels
I0406 11:06:27.938319 18426 net.cpp:356] labels -> labels
I0406 11:06:27.938333 18426 net.cpp:96] Setting up labels
I0406 11:06:27.938452 18426 data_layer.cpp:68] Opening lmdb /data/deepfashion/color_label_multilabel/color_label_multilabel_TRAIN_ALT
I0406 11:06:27.938498 18426 data_layer.cpp:128] output data size: 32,2,1,1
I0406 11:06:27.938532 18426 net.cpp:103] Top shape: 32 2 1 1 (64)
I0406 11:06:27.938547 18426 net.cpp:67] Creating Layer sliceL
I0406 11:06:27.938555 18426 net.cpp:394] sliceL <- labels
I0406 11:06:27.938565 18426 net.cpp:356] sliceL -> labels0
I0406 11:06:27.938575 18426 net.cpp:356] sliceL -> labels1
I0406 11:06:27.938613 18426 net.cpp:96] Setting up sliceL
I0406 11:06:27.938647 18426 net.cpp:103] Top shape: 32 1 1 1 (32)
I0406 11:06:27.938654 18426 net.cpp:103] Top shape: 32 1 1 1 (32)
I0406 11:06:27.938664 18426 net.cpp:67] Creating Layer conv1
I0406 11:06:27.938668 18426 net.cpp:394] conv1 <- data
I0406 11:06:27.938679 18426 net.cpp:356] conv1 -> conv1
I0406 11:06:27.938688 18426 net.cpp:96] Setting up conv1
I0406 11:06:27.965428 18426 net.cpp:103] Top shape: 32 96 55 55 (9292800)
I0406 11:06:27.965489 18426 net.cpp:67] Creating Layer relu1
I0406 11:06:27.965497 18426 net.cpp:394] relu1 <- conv1
I0406 11:06:27.965507 18426 net.cpp:345] relu1 -> conv1 (in-place)
I0406 11:06:27.965517 18426 net.cpp:96] Setting up relu1
I0406 11:06:27.965528 18426 net.cpp:103] Top shape: 32 96 55 55 (9292800)
I0406 11:06:27.965538 18426 net.cpp:67] Creating Layer pool1
I0406 11:06:27.965546 18426 net.cpp:394] pool1 <- conv1
I0406 11:06:27.965556 18426 net.cpp:356] pool1 -> pool1
I0406 11:06:27.965587 18426 net.cpp:96] Setting up pool1
I0406 11:06:27.965631 18426 net.cpp:103] Top shape: 32 96 27 27 (2239488)
I0406 11:06:27.965657 18426 net.cpp:67] Creating Layer norm1
I0406 11:06:27.965672 18426 net.cpp:394] norm1 <- pool1
I0406 11:06:27.965683 18426 net.cpp:356] norm1 -> norm1
I0406 11:06:27.965705 18426 net.cpp:96] Setting up norm1
I0406 11:06:27.965721 18426 net.cpp:103] Top shape: 32 96 27 27 (2239488)
I0406 11:06:27.965740 18426 net.cpp:67] Creating Layer conv2
I0406 11:06:27.965757 18426 net.cpp:394] conv2 <- norm1
I0406 11:06:27.965770 18426 net.cpp:356] conv2 -> conv2
I0406 11:06:27.965793 18426 net.cpp:96] Setting up conv2
I0406 11:06:27.976744 18426 net.cpp:103] Top shape: 32 256 27 27 (5971968)
I0406 11:06:27.976781 18426 net.cpp:67] Creating Layer relu2
I0406 11:06:27.976788 18426 net.cpp:394] relu2 <- conv2
I0406 11:06:27.976797 18426 net.cpp:345] relu2 -> conv2 (in-place)
I0406 11:06:27.976805 18426 net.cpp:96] Setting up relu2
I0406 11:06:27.976812 18426 net.cpp:103] Top shape: 32 256 27 27 (5971968)
I0406 11:06:27.976819 18426 net.cpp:67] Creating Layer pool2
I0406 11:06:27.976824 18426 net.cpp:394] pool2 <- conv2
I0406 11:06:27.976832 18426 net.cpp:356] pool2 -> pool2
I0406 11:06:27.976840 18426 net.cpp:96] Setting up pool2
I0406 11:06:27.976847 18426 net.cpp:103] Top shape: 32 256 13 13 (1384448)
I0406 11:06:27.976855 18426 net.cpp:67] Creating Layer norm2
I0406 11:06:27.976858 18426 net.cpp:394] norm2 <- pool2
I0406 11:06:27.976866 18426 net.cpp:356] norm2 -> norm2
I0406 11:06:27.976871 18426 net.cpp:96] Setting up norm2
I0406 11:06:27.976876 18426 net.cpp:103] Top shape: 32 256 13 13 (1384448)
I0406 11:06:27.976883 18426 net.cpp:67] Creating Layer conv3
I0406 11:06:27.976887 18426 net.cpp:394] conv3 <- norm2
I0406 11:06:27.976896 18426 net.cpp:356] conv3 -> conv3
I0406 11:06:27.976902 18426 net.cpp:96] Setting up conv3
I0406 11:06:28.006373 18426 net.cpp:103] Top shape: 32 384 13 13 (2076672)
I0406 11:06:28.006429 18426 net.cpp:67] Creating Layer relu3
I0406 11:06:28.006439 18426 net.cpp:394] relu3 <- conv3
I0406 11:06:28.006450 18426 net.cpp:345] relu3 -> conv3 (in-place)
I0406 11:06:28.006459 18426 net.cpp:96] Setting up relu3
I0406 11:06:28.006469 18426 net.cpp:103] Top shape: 32 384 13 13 (2076672)
I0406 11:06:28.006476 18426 net.cpp:67] Creating Layer conv4
I0406 11:06:28.006481 18426 net.cpp:394] conv4 <- conv3
I0406 11:06:28.006494 18426 net.cpp:356] conv4 -> conv4
I0406 11:06:28.006505 18426 net.cpp:96] Setting up conv4
I0406 11:06:28.028851 18426 net.cpp:103] Top shape: 32 384 13 13 (2076672)
I0406 11:06:28.028879 18426 net.cpp:67] Creating Layer relu4
I0406 11:06:28.028885 18426 net.cpp:394] relu4 <- conv4
I0406 11:06:28.028913 18426 net.cpp:345] relu4 -> conv4 (in-place)
I0406 11:06:28.028920 18426 net.cpp:96] Setting up relu4
I0406 11:06:28.028928 18426 net.cpp:103] Top shape: 32 384 13 13 (2076672)
I0406 11:06:28.028939 18426 net.cpp:67] Creating Layer conv5
I0406 11:06:28.028944 18426 net.cpp:394] conv5 <- conv4
I0406 11:06:28.028951 18426 net.cpp:356] conv5 -> conv5
I0406 11:06:28.028959 18426 net.cpp:96] Setting up conv5
I0406 11:06:28.044097 18426 net.cpp:103] Top shape: 32 256 13 13 (1384448)
I0406 11:06:28.044144 18426 net.cpp:67] Creating Layer relu5
I0406 11:06:28.044152 18426 net.cpp:394] relu5 <- conv5
I0406 11:06:28.044158 18426 net.cpp:345] relu5 -> conv5 (in-place)
I0406 11:06:28.044165 18426 net.cpp:96] Setting up relu5
I0406 11:06:28.044173 18426 net.cpp:103] Top shape: 32 256 13 13 (1384448)
I0406 11:06:28.044179 18426 net.cpp:67] Creating Layer pool5
I0406 11:06:28.044186 18426 net.cpp:394] pool5 <- conv5
I0406 11:06:28.044194 18426 net.cpp:356] pool5 -> pool5
I0406 11:06:28.044203 18426 net.cpp:96] Setting up pool5
I0406 11:06:28.044211 18426 net.cpp:103] Top shape: 32 256 6 6 (294912)
I0406 11:06:28.044220 18426 net.cpp:67] Creating Layer fc6
I0406 11:06:28.044224 18426 net.cpp:394] fc6 <- pool5
I0406 11:06:28.044230 18426 net.cpp:356] fc6 -> fc6
I0406 11:06:28.044236 18426 net.cpp:96] Setting up fc6
I0406 11:06:29.264978 18426 net.cpp:103] Top shape: 32 4096 1 1 (131072)
I0406 11:06:29.265033 18426 net.cpp:67] Creating Layer relu6
I0406 11:06:29.265041 18426 net.cpp:394] relu6 <- fc6
I0406 11:06:29.265053 18426 net.cpp:345] relu6 -> fc6 (in-place)
I0406 11:06:29.265061 18426 net.cpp:96] Setting up relu6
I0406 11:06:29.265084 18426 net.cpp:103] Top shape: 32 4096 1 1 (131072)
I0406 11:06:29.265091 18426 net.cpp:67] Creating Layer drop6
I0406 11:06:29.265095 18426 net.cpp:394] drop6 <- fc6
I0406 11:06:29.265101 18426 net.cpp:345] drop6 -> fc6 (in-place)
I0406 11:06:29.265107 18426 net.cpp:96] Setting up drop6
I0406 11:06:29.265117 18426 net.cpp:103] Top shape: 32 4096 1 1 (131072)
I0406 11:06:29.265128 18426 net.cpp:67] Creating Layer fc7
I0406 11:06:29.265138 18426 net.cpp:394] fc7 <- fc6
I0406 11:06:29.265146 18426 net.cpp:356] fc7 -> fc7
I0406 11:06:29.265156 18426 net.cpp:96] Setting up fc7
I0406 11:06:29.810912 18426 net.cpp:103] Top shape: 32 4096 1 1 (131072)
I0406 11:06:29.810966 18426 net.cpp:67] Creating Layer relu7
I0406 11:06:29.810974 18426 net.cpp:394] relu7 <- fc7
I0406 11:06:29.810982 18426 net.cpp:345] relu7 -> fc7 (in-place)
I0406 11:06:29.810995 18426 net.cpp:96] Setting up relu7
I0406 11:06:29.811017 18426 net.cpp:103] Top shape: 32 4096 1 1 (131072)
I0406 11:06:29.811024 18426 net.cpp:67] Creating Layer drop7
I0406 11:06:29.811028 18426 net.cpp:394] drop7 <- fc7
I0406 11:06:29.811034 18426 net.cpp:345] drop7 -> fc7 (in-place)
I0406 11:06:29.811040 18426 net.cpp:96] Setting up drop7
I0406 11:06:29.811044 18426 net.cpp:103] Top shape: 32 4096 1 1 (131072)
I0406 11:06:29.811051 18426 net.cpp:67] Creating Layer fc8_deepfashion
I0406 11:06:29.811055 18426 net.cpp:394] fc8_deepfashion <- fc7
I0406 11:06:29.811064 18426 net.cpp:356] fc8_deepfashion -> fc8_deepfashion
I0406 11:06:29.811072 18426 net.cpp:96] Setting up fc8_deepfashion
I0406 11:06:29.817630 18426 net.cpp:103] Top shape: 32 48 1 1 (1536)
I0406 11:06:29.817656 18426 net.cpp:67] Creating Layer fc8_deepfashion_encode
I0406 11:06:29.817662 18426 net.cpp:394] fc8_deepfashion_encode <- fc8_deepfashion
I0406 11:06:29.817667 18426 net.cpp:356] fc8_deepfashion_encode -> fc8_deepfashion_encode
I0406 11:06:29.817674 18426 net.cpp:96] Setting up fc8_deepfashion_encode
I0406 11:06:29.817687 18426 net.cpp:103] Top shape: 32 48 1 1 (1536)
I0406 11:06:29.817694 18426 net.cpp:67] Creating Layer fc8_deepfashion_encode_fc8_deepfashion_encode_0_split
I0406 11:06:29.817698 18426 net.cpp:394] fc8_deepfashion_encode_fc8_deepfashion_encode_0_split <- fc8_deepfashion_encode
I0406 11:06:29.817708 18426 net.cpp:356] fc8_deepfashion_encode_fc8_deepfashion_encode_0_split -> fc8_deepfashion_encode_fc8_deepfashion_encode_0_split_0
I0406 11:06:29.817745 18426 net.cpp:356] fc8_deepfashion_encode_fc8_deepfashion_encode_0_split -> fc8_deepfashion_encode_fc8_deepfashion_encode_0_split_1
I0406 11:06:29.817754 18426 net.cpp:96] Setting up fc8_deepfashion_encode_fc8_deepfashion_encode_0_split
I0406 11:06:29.817760 18426 net.cpp:103] Top shape: 32 48 1 1 (1536)
I0406 11:06:29.817764 18426 net.cpp:103] Top shape: 32 48 1 1 (1536)
I0406 11:06:29.817771 18426 net.cpp:67] Creating Layer fc8_pascal_label_mod
I0406 11:06:29.817775 18426 net.cpp:394] fc8_pascal_label_mod <- fc8_deepfashion_encode_fc8_deepfashion_encode_0_split_0
I0406 11:06:29.817785 18426 net.cpp:356] fc8_pascal_label_mod -> fc8_pascal_label_mod
I0406 11:06:29.817793 18426 net.cpp:96] Setting up fc8_pascal_label_mod
I0406 11:06:29.817826 18426 net.cpp:103] Top shape: 32 10 1 1 (320)
I0406 11:06:29.817849 18426 net.cpp:67] Creating Layer fc8_pascal_color_mod
I0406 11:06:29.817854 18426 net.cpp:394] fc8_pascal_color_mod <- fc8_deepfashion_encode_fc8_deepfashion_encode_0_split_1
I0406 11:06:29.817860 18426 net.cpp:356] fc8_pascal_color_mod -> fc8_pascal_color_mod
I0406 11:06:29.817878 18426 net.cpp:96] Setting up fc8_pascal_color_mod
I0406 11:06:29.817914 18426 net.cpp:103] Top shape: 32 16 1 1 (512)
I0406 11:06:29.817935 18426 net.cpp:67] Creating Layer loss
I0406 11:06:29.817941 18426 net.cpp:394] loss <- fc8_pascal_label_mod
I0406 11:06:29.817946 18426 net.cpp:394] loss <- labels0
I0406 11:06:29.817952 18426 net.cpp:356] loss -> (automatic)
I0406 11:06:29.817958 18426 net.cpp:96] Setting up loss
I0406 11:06:29.817971 18426 net.cpp:103] Top shape: 1 1 1 1 (1)
I0406 11:06:29.817975 18426 net.cpp:109]     with loss weight 1
I0406 11:06:29.818027 18426 net.cpp:67] Creating Layer loss
I0406 11:06:29.818032 18426 net.cpp:394] loss <- fc8_pascal_color_mod
I0406 11:06:29.818037 18426 net.cpp:394] loss <- labels1
I0406 11:06:29.818051 18426 net.cpp:356] loss -> (automatic)
I0406 11:06:29.818058 18426 net.cpp:96] Setting up loss
I0406 11:06:29.818063 18426 net.cpp:103] Top shape: 1 1 1 1 (1)
I0406 11:06:29.818068 18426 net.cpp:109]     with loss weight 1
I0406 11:06:29.818075 18426 net.cpp:67] Creating Layer silence
I0406 11:06:29.818079 18426 net.cpp:394] silence <- random
I0406 11:06:29.818084 18426 net.cpp:96] Setting up silence
I0406 11:06:29.818089 18426 net.cpp:172] silence does not need backward computation.
I0406 11:06:29.818092 18426 net.cpp:170] loss needs backward computation.
…
layers {
  top: "data"
  top: "random"
  name: "data"
  type: DATA
  data_param {
    source: "/data/deepfashion/color_label_multilabel/color_label_multilabel_test"
    batch_size: 32
    backend: LMDB
  }
  include {
    phase: TEST
  }
  transform_param {
    mirror: true
    crop_size: 227
    mean_file: "../../../data/ilsvrc12/imagenet_mean.binaryproto"
  }
}
layers {
  top: "labels"
  name: "labels"
  type: DATA
  data_param {
    source: "/data/deepfashion/color_label_multilabel/color_label_multilabel_test_alt"
    batch_size: 32
    backend: LMDB
  }
  include {
    phase: TEST
  }
}
layers {
  bottom: "labels"
  top: "labels0"
  top: "labels1"
  name: "sliceL"
  type: SLICE
  slice_param {
    slice_point: 1
  }
}
layers {
  bottom: "data"
  top: "conv1"
  name: "conv1"
  type: CONVOLUTION
  blobs_lr: 0
  blobs_lr: 0
  weight_decay: 1
  weight_decay: 0
  convolution_param {
    num_output: 96
    kernel_size: 11
    stride: 4
    weight_filler {
      type: "gaussian"
      std: 0.01
    }
    bias_filler {
      type: "constant"
      value: 0
    }
  }
}
layers {
  bottom: "conv1"
  top: "conv1"
  name: "relu1"
  type: RELU
}
layers {
  bottom: "conv1"
  top: "pool1"
  name: "pool1"
  type: POOLING
  pooling_param {
    pool: MAX
    kernel_size: 3
    stride: 2
  }
}
layers {
  bottom: "pool1"
  top: "norm1"
  name: "norm1"
  type: LRN
  lrn_param {
    local_size: 5
    alpha: 0.0001
    beta: 0.75
  }
}
layers {
  bottom: "norm1"
  top: "conv2"
  name: "conv2"
  type: CONVOLUTION
  blobs_lr: 0
  blobs_lr: 0
  weight_decay: 1
  weight_decay: 0
  convolution_param {
    num_output: 256
    pad: 2
    kernel_size: 5
    group: 2
    weight_filler {
      type: "gaussian"
      std: 0.01
    }
    bias_filler {
      type: "constant"
      value: 1
    }
  }
}
layers {
  bottom: "conv2"
  top: "conv2"
  name: "relu2"
  type: RELU
}
layers {
  bottom: "conv2"
  top: "pool2"
  name: "pool2"
  type: POOLING
  pooling_param {
    pool: MAX
    kernel_size: 3
    stride: 2
  }
}
layers {
  bottom: "pool2"
  top: "norm2"
  name: "norm2"
  type: LRN
  lrn_param {
    local_size: 5
    alpha: 0.0001
    beta: 0.75
  }
}
layers {
  bottom: "norm2"
  top: "conv3"
  name: "conv3"
  type: CONVOLUTION
  blobs_lr: 0
  blobs_lr: 0
  weight_decay: 1
  weight_decay: 0
  convolution_param {
    num_output: 384
    pad: 1
    kernel_size: 3
    weight_filler {
      type: "gaussian"
      std: 0.01
    }
    bias_filler {
      type: "constant"
      value: 0
    }
  }
}
layers {
  bottom: "conv3"
  top: "conv3"
  name: "relu3"
  type: RELU
}
layers {
  bottom: "conv3"
  top: "conv4"
  name: "conv4"
  type: CONVOLUTION
  blobs_lr: 0
  blobs_lr: 0
  weight_decay: 1
  weight_decay: 0
  convolution_param {
    num_output: 384
    pad: 1
    kernel_size: 3
    group: 2
    weight_filler {
      type: "gaussian"
      std: 0.01
    }
    bias_filler {
      type: "constant"
      value: 1
    }
  }
}
layers {
  bottom: "conv4"
  top: "conv4"
  name: "relu4"
  type: RELU
}
layers {
  bottom: "conv4"
  top: "conv5"
  name: "conv5"
  type: CONVOLUTION
  blobs_lr: 0
  blobs_lr: 0
  weight_decay: 1
  weight_decay: 0
  convolution_param {
    num_output: 256
    pad: 1
    kernel_size: 3
    group: 2
    weight_filler {
      type: "gaussian"
      std: 0.01
    }
    bias_filler {
      type: "constant"
      value: 1
    }
  }
}
layers {
  bottom: "conv5"
  top: "conv5"
  name: "relu5"
  type: RELU
}
layers {
  bottom: "conv5"
  top: "pool5"
  name: "pool5"
  type: POOLING
  pooling_param {
    pool: MAX
    kernel_size: 3
    stride: 2
  }
}
layers {
  bottom: "pool5"
  top: "fc6"
  name: "fc6"
  type: INNER_PRODUCT
  blobs_lr: 1
  blobs_lr: 2
  weight_decay: 1
  weight_decay: 0
  inner_product_param {
    num_output: 4096
    weight_filler {
      type: "gaussian"
      std: 0.005
    }
    bias_filler {
      type: "constant"
      value: 1
    }
  }
}
layers {
  bottom: "fc6"
  top: "fc6"
  name: "relu6"
  type: RELU
}
layers {
  bottom: "fc6"
  top: "fc6"
  name: "drop6"
  type: DROPOUT
  dropout_param {
    dropout_ratio: 0.5
  }
}
layers {
  bottom: "fc6"
  top: "fc7"
  name: "fc7"
  type: INNER_PRODUCT
  blobs_lr: 1
  blobs_lr: 2
  weight_decay: 1
  weight_decay: 0
  inner_product_param {
    num_output: 4096
    weight_filler {
      type: "gaussian"
      std: 0.005
    }
    bias_filler {
      type: "constant"
      value: 1
    }
  }
}
layers {
  bottom: "fc7"
  top: "fc7"
  name: "relu7"
  type: RELU
}
layers {
  bottom: "fc7"
  top: "fc7"
  name: "drop7"
  type: DROPOUT
  dropout_param {
    dropout_ratio: 0.5
  }
}
layers {
  bottom: "fc7"
  top: "fc8_deepfashion"
  name: "fc8_deepfashion"
  type: INNER_PRODUCT
  blobs_lr: 1
  blobs_lr: 2
  weight_decay: 1
  weight_decay: 0
  inner_product_param {
    num_output: 48
    weight_filler {
      type: "gaussian"
      std: 0.01
    }
    bias_filler {
      type: "constant"
      value: 0
    }
  }
}
layers {
  bottom: "fc8_deepfashion"
  top: "fc8_deepfashion_encode"
  name: "fc8_deepfashion_encode"
  type: SIGMOID
}
layers {
  bottom: "fc8_deepfashion_encode"
  top: "fc8_pascal_label_mod"
  name: "fc8_pascal_label_mod"
  type: INNER_PRODUCT
  blobs_lr: 1
  blobs_lr: 2
  weight_decay: 1
  weight_decay: 0
  inner_product_param {
    num_output: 10
    weight_filler {
      type: "gaussian"
      std: 0.01
    }
    bias_filler {
      type: "constant"
      value: 0
    }
  }
}
layers {
  bottom: "fc8_deepfashion_encode"
  top: "fc8_pascal_color_mod"
  name: "fc8_pascal_color_mod"
  type: INNER_PRODUCT
  blobs_lr: 1
  blobs_lr: 2
  weight_decay: 1
  weight_decay: 0
  inner_product_param {
    num_output: 16
    weight_filler {
      type: "gaussian"
      std: 0.01
    }
    bias_filler {
      type: "constant"
      value: 0
    }
  }
}
layers {
  bottom: "fc8_pascal_label_mod"
  bottom: "labels0"
  name: "loss"
  type: SOFTMAX_LOSS
}
layers {
  bottom: "fc8_pascal_color_mod"
  bottom: "labels1"
  name: "loss"
  type: SOFTMAX_LOSS
}
layers {
  bottom: "fc8_pascal_color_mod"
  bottom: "labels1"
  top: "colorAccuracy"
  name: "accuracy"
  type: ACCURACY
  include {
    phase: TEST
  }
}
layers {
  bottom: "fc8_pascal_label_mod"
  bottom: "labels0"
  top: "labelAccuracy"
  name: "accuracy1"
  type: ACCURACY
  include {
    phase: TEST
  }
}
layers {
  bottom: "random"
  name: "silence"
  type: SILENCE
}
state {
  phase: TEST
}
I0406 11:06:29.819434 18426 net.cpp:67] Creating Layer data
I0406 11:06:29.819443 18426 net.cpp:356] data -> data
I0406 11:06:29.819453 18426 net.cpp:356] data -> random
I0406 11:06:29.819459 18426 net.cpp:96] Setting up data
I0406 11:06:29.819516 18426 data_layer.cpp:68] Opening lmdb /data/deepfashion/color_label_multilabel/color_label_multilabel_test
I0406 11:06:29.819710 18426 data_layer.cpp:128] output data size: 32,3,227,227
I0406 11:06:29.819717 18426 base_data_layer.cpp:36] Loading mean file from../../../data/ilsvrc12/imagenet_mean.binaryproto
I0406 11:06:29.826822 18426 net.cpp:103] Top shape: 32 3 227 227 (4946784)
I0406 11:06:29.826858 18426 net.cpp:103] Top shape: 32 1 1 1 (32)
I0406 11:06:29.826876 18426 net.cpp:67] Creating Layer labels
I0406 11:06:29.826884 18426 net.cpp:356] labels -> labels
I0406 11:06:29.826896 18426 net.cpp:96] Setting up labels
I0406 11:06:29.826963 18426 data_layer.cpp:68] Opening lmdb /data/deepfashion/color_label_multilabel/color_label_multilabel_test_alt
I0406 11:06:29.827647 18426 data_layer.cpp:128] output data size: 32,2,1,1
I0406 11:06:29.827718 18426 net.cpp:103] Top shape: 32 2 1 1 (64)
I0406 11:06:29.827747 18426 net.cpp:67] Creating Layer sliceL
I0406 11:06:29.827759 18426 net.cpp:394] sliceL <- labels
I0406 11:06:29.827774 18426 net.cpp:356] sliceL -> labels0
I0406 11:06:29.827790 18426 net.cpp:356] sliceL -> labels1
I0406 11:06:29.827806 18426 net.cpp:96] Setting up sliceL
I0406 11:06:29.827818 18426 net.cpp:103] Top shape: 32 1 1 1 (32)
I0406 11:06:29.827827 18426 net.cpp:103] Top shape: 32 1 1 1 (32)
I0406 11:06:29.827837 18426 net.cpp:67] Creating Layer labels0_sliceL_0_split
I0406 11:06:29.827853 18426 net.cpp:394] labels0_sliceL_0_split <- labels0
I0406 11:06:29.827865 18426 net.cpp:356] labels0_sliceL_0_split -> labels0_sliceL_0_split_0
I0406 11:06:29.827882 18426 net.cpp:356] labels0_sliceL_0_split -> labels0_sliceL_0_split_1
I0406 11:06:29.827893 18426 net.cpp:96] Setting up labels0_sliceL_0_split
I0406 11:06:29.827908 18426 net.cpp:103] Top shape: 32 1 1 1 (32)
I0406 11:06:29.827916 18426 net.cpp:103] Top shape: 32 1 1 1 (32)
I0406 11:06:29.827927 18426 net.cpp:67] Creating Layer labels1_sliceL_1_split
I0406 11:06:29.827937 18426 net.cpp:394] labels1_sliceL_1_split <- labels1
I0406 11:06:29.827947 18426 net.cpp:356] labels1_sliceL_1_split -> labels1_sliceL_1_split_0
I0406 11:06:29.827961 18426 net.cpp:356] labels1_sliceL_1_split -> labels1_sliceL_1_split_1
I0406 11:06:29.827977 18426 net.cpp:96] Setting up labels1_sliceL_1_split
I0406 11:06:29.827988 18426 net.cpp:103] Top shape: 32 1 1 1 (32)
I0406 11:06:29.827996 18426 net.cpp:103] Top shape: 32 1 1 1 (32)
I0406 11:06:29.828011 18426 net.cpp:67] Creating Layer conv1
I0406 11:06:29.828025 18426 net.cpp:394] conv1 <- data
I0406 11:06:29.828037 18426 net.cpp:356] conv1 -> conv1
I0406 11:06:29.828049 18426 net.cpp:96] Setting up conv1
I0406 11:06:29.829370 18426 net.cpp:103] Top shape: 32 96 55 55 (9292800)
I0406 11:06:29.829398 18426 net.cpp:67] Creating Layer relu1
I0406 11:06:29.829406 18426 net.cpp:394] relu1 <- conv1
I0406 11:06:29.829416 18426 net.cpp:345] relu1 -> conv1 (in-place)
I0406 11:06:29.829427 18426 net.cpp:96] Setting up relu1
I0406 11:06:29.829447 18426 net.cpp:103] Top shape: 32 96 55 55 (9292800)
I0406 11:06:29.829468 18426 net.cpp:67] Creating Layer pool1
I0406 11:06:29.829483 18426 net.cpp:394] pool1 <- conv1
I0406 11:06:29.829495 18426 net.cpp:356] pool1 -> pool1
I0406 11:06:29.829514 18426 net.cpp:96] Setting up pool1
I0406 11:06:29.829537 18426 net.cpp:103] Top shape: 32 96 27 27 (2239488)
I0406 11:06:29.829560 18426 net.cpp:67] Creating Layer norm1
I0406 11:06:29.829577 18426 net.cpp:394] norm1 <- pool1
I0406 11:06:29.829589 18426 net.cpp:356] norm1 -> norm1
I0406 11:06:29.829608 18426 net.cpp:96] Setting up norm1
I0406 11:06:29.829627 18426 net.cpp:103] Top shape: 32 96 27 27 (2239488)
I0406 11:06:29.829640 18426 net.cpp:67] Creating Layer conv2
I0406 11:06:29.829655 18426 net.cpp:394] conv2 <- norm1
I0406 11:06:29.829669 18426 net.cpp:356] conv2 -> conv2
I0406 11:06:29.829689 18426 net.cpp:96] Setting up conv2
I0406 11:06:29.840003 18426 net.cpp:103] Top shape: 32 256 27 27 (5971968)
I0406 11:06:29.840034 18426 net.cpp:67] Creating Layer relu2
I0406 11:06:29.840040 18426 net.cpp:394] relu2 <- conv2
I0406 11:06:29.840049 18426 net.cpp:345] relu2 -> conv2 (in-place)
I0406 11:06:29.840087 18426 net.cpp:96] Setting up relu2
I0406 11:06:29.840102 18426 net.cpp:103] Top shape: 32 256 27 27 (5971968)
I0406 11:06:29.840118 18426 net.cpp:67] Creating Layer pool2
I0406 11:06:29.840142 18426 net.cpp:394] pool2 <- conv2
I0406 11:06:29.840158 18426 net.cpp:356] pool2 -> pool2
I0406 11:06:29.840169 18426 net.cpp:96] Setting up pool2
I0406 11:06:29.840184 18426 net.cpp:103] Top shape: 32 256 13 13 (1384448)
I0406 11:06:29.840204 18426 net.cpp:67] Creating Layer norm2
I0406 11:06:29.840226 18426 net.cpp:394] norm2 <- pool2
I0406 11:06:29.840241 18426 net.cpp:356] norm2 -> norm2
I0406 11:06:29.840253 18426 net.cpp:96] Setting up norm2
I0406 11:06:29.840270 18426 net.cpp:103] Top shape: 32 256 13 13 (1384448)
I0406 11:06:29.840283 18426 net.cpp:67] Creating Layer conv3
I0406 11:06:29.840298 18426 net.cpp:394] conv3 <- norm2
I0406 11:06:29.840314 18426 net.cpp:356] conv3 -> conv3
I0406 11:06:29.840328 18426 net.cpp:96] Setting up conv3
I0406 11:06:29.869606 18426 net.cpp:103] Top shape: 32 384 13 13 (2076672)
I0406 11:06:29.869658 18426 net.cpp:67] Creating Layer relu3
I0406 11:06:29.869666 18426 net.cpp:394] relu3 <- conv3
I0406 11:06:29.869676 18426 net.cpp:345] relu3 -> conv3 (in-place)
I0406 11:06:29.869689 18426 net.cpp:96] Setting up relu3
I0406 11:06:29.869701 18426 net.cpp:103] Top shape: 32 384 13 13 (2076672)
I0406 11:06:29.869719 18426 net.cpp:67] Creating Layer conv4
I0406 11:06:29.869730 18426 net.cpp:394] conv4 <- conv3
I0406 11:06:29.869741 18426 net.cpp:356] conv4 -> conv4
I0406 11:06:29.869755 18426 net.cpp:96] Setting up conv4
I0406 11:06:29.891791 18426 net.cpp:103] Top shape: 32 384 13 13 (2076672)
I0406 11:06:29.891821 18426 net.cpp:67] Creating Layer relu4
I0406 11:06:29.891830 18426 net.cpp:394] relu4 <- conv4
I0406 11:06:29.891841 18426 net.cpp:345] relu4 -> conv4 (in-place)
I0406 11:06:29.891855 18426 net.cpp:96] Setting up relu4
I0406 11:06:29.891866 18426 net.cpp:103] Top shape: 32 384 13 13 (2076672)
I0406 11:06:29.891892 18426 net.cpp:67] Creating Layer conv5
I0406 11:06:29.891903 18426 net.cpp:394] conv5 <- conv4
I0406 11:06:29.891916 18426 net.cpp:356] conv5 -> conv5
I0406 11:06:29.891928 18426 net.cpp:96] Setting up conv5
I0406 11:06:29.906841 18426 net.cpp:103] Top shape: 32 256 13 13 (1384448)
I0406 11:06:29.906874 18426 net.cpp:67] Creating Layer relu5
I0406 11:06:29.906884 18426 net.cpp:394] relu5 <- conv5
I0406 11:06:29.906895 18426 net.cpp:345] relu5 -> conv5 (in-place)
I0406 11:06:29.906914 18426 net.cpp:96] Setting up relu5
I0406 11:06:29.906927 18426 net.cpp:103] Top shape: 32 256 13 13 (1384448)
I0406 11:06:29.906947 18426 net.cpp:67] Creating Layer pool5
I0406 11:06:29.906956 18426 net.cpp:394] pool5 <- conv5
I0406 11:06:29.906967 18426 net.cpp:356] pool5 -> pool5
I0406 11:06:29.906980 18426 net.cpp:96] Setting up pool5
I0406 11:06:29.906999 18426 net.cpp:103] Top shape: 32 256 6 6 (294912)
I0406 11:06:29.907023 18426 net.cpp:67] Creating Layer fc6
I0406 11:06:29.907043 18426 net.cpp:394] fc6 <- pool5
I0406 11:06:29.907060 18426 net.cpp:356] fc6 -> fc6
I0406 11:06:29.907081 18426 net.cpp:96] Setting up fc6
I0406 11:06:31.132518 18426 net.cpp:103] Top shape: 32 4096 1 1 (131072)
I0406 11:06:31.132576 18426 net.cpp:67] Creating Layer relu6
I0406 11:06:31.132586 18426 net.cpp:394] relu6 <- fc6
I0406 11:06:31.132599 18426 net.cpp:345] relu6 -> fc6 (in-place)
I0406 11:06:31.132614 18426 net.cpp:96] Setting up relu6
I0406 11:06:31.132647 18426 net.cpp:103] Top shape: 32 4096 1 1 (131072)
I0406 11:06:31.132668 18426 net.cpp:67] Creating Layer drop6
I0406 11:06:31.132674 18426 net.cpp:394] drop6 <- fc6
I0406 11:06:31.132684 18426 net.cpp:345] drop6 -> fc6 (in-place)
I0406 11:06:31.132694 18426 net.cpp:96] Setting up drop6
I0406 11:06:31.132709 18426 net.cpp:103] Top shape: 32 4096 1 1 (131072)
I0406 11:06:31.132727 18426 net.cpp:67] Creating Layer fc7
I0406 11:06:31.132742 18426 net.cpp:394] fc7 <- fc6
I0406 11:06:31.132755 18426 net.cpp:356] fc7 -> fc7
I0406 11:06:31.132777 18426 net.cpp:96] Setting up fc7
I0406 11:06:31.676143 18426 net.cpp:103] Top shape: 32 4096 1 1 (131072)
I0406 11:06:31.676231 18426 net.cpp:67] Creating Layer relu7
I0406 11:06:31.676239 18426 net.cpp:394] relu7 <- fc7
I0406 11:06:31.676249 18426 net.cpp:345] relu7 -> fc7 (in-place)
I0406 11:06:31.676264 18426 net.cpp:96] Setting up relu7
I0406 11:06:31.676291 18426 net.cpp:103] Top shape: 32 4096 1 1 (131072)
I0406 11:06:31.676316 18426 net.cpp:67] Creating Layer drop7
I0406 11:06:31.676323 18426 net.cpp:394] drop7 <- fc7
I0406 11:06:31.676336 18426 net.cpp:345] drop7 -> fc7 (in-place)
I0406 11:06:31.676348 18426 net.cpp:96] Setting up drop7
I0406 11:06:31.676360 18426 net.cpp:103] Top shape: 32 4096 1 1 (131072)
I0406 11:06:31.676373 18426 net.cpp:67] Creating Layer fc8_deepfashion
I0406 11:06:31.676388 18426 net.cpp:394] fc8_deepfashion <- fc7
I0406 11:06:31.676404 18426 net.cpp:356] fc8_deepfashion -> fc8_deepfashion
I0406 11:06:31.676426 18426 net.cpp:96] Setting up fc8_deepfashion
I0406 11:06:31.683019 18426 net.cpp:103] Top shape: 32 48 1 1 (1536)
I0406 11:06:31.683044 18426 net.cpp:67] Creating Layer fc8_deepfashion_encode
I0406 11:06:31.683050 18426 net.cpp:394] fc8_deepfashion_encode <- fc8_deepfashion
I0406 11:06:31.683063 18426 net.cpp:356] fc8_deepfashion_encode -> fc8_deepfashion_encode
I0406 11:06:31.683090 18426 net.cpp:96] Setting up fc8_deepfashion_encode
I0406 11:06:31.683114 18426 net.cpp:103] Top shape: 32 48 1 1 (1536)
I0406 11:06:31.683133 18426 net.cpp:67] Creating Layer fc8_deepfashion_encode_fc8_deepfashion_encode_0_split
I0406 11:06:31.683142 18426 net.cpp:394] fc8_deepfashion_encode_fc8_deepfashion_encode_0_split <- fc8_deepfashion_encode
I0406 11:06:31.683161 18426 net.cpp:356] fc8_deepfashion_encode_fc8_deepfashion_encode_0_split -> fc8_deepfashion_encode_fc8_deepfashion_encode_0_split_0
I0406 11:06:31.683187 18426 net.cpp:356] fc8_deepfashion_encode_fc8_deepfashion_encode_0_split -> fc8_deepfashion_encode_fc8_deepfashion_encode_0_split_1
I0406 11:06:31.683207 18426 net.cpp:96] Setting up fc8_deepfashion_encode_fc8_deepfashion_encode_0_split
I0406 11:06:31.683217 18426 net.cpp:103] Top shape: 32 48 1 1 (1536)
I0406 11:06:31.683230 18426 net.cpp:103] Top shape: 32 48 1 1 (1536)
I0406 11:06:31.683244 18426 net.cpp:67] Creating Layer fc8_pascal_label_mod
I0406 11:06:31.683260 18426 net.cpp:394] fc8_pascal_label_mod <- fc8_deepfashion_encode_fc8_deepfashion_encode_0_split_0
I0406 11:06:31.683271 18426 net.cpp:356] fc8_pascal_label_mod -> fc8_pascal_label_mod
I0406 11:06:31.683284 18426 net.cpp:96] Setting up fc8_pascal_label_mod
I0406 11:06:31.683332 18426 net.cpp:103] Top shape: 32 10 1 1 (320)
I0406 11:06:31.683363 18426 net.cpp:67] Creating Layer fc8_pascal_label_mod_fc8_pascal_label_mod_0_split
I0406 11:06:31.683382 18426 net.cpp:394] fc8_pascal_label_mod_fc8_pascal_label_mod_0_split <- fc8_pascal_label_mod
I0406 11:06:31.683396 18426 net.cpp:356] fc8_pascal_label_mod_fc8_pascal_label_mod_0_split -> fc8_pascal_label_mod_fc8_pascal_label_mod_0_split_0
I0406 11:06:31.683416 18426 net.cpp:356] fc8_pascal_label_mod_fc8_pascal_label_mod_0_split -> fc8_pascal_label_mod_fc8_pascal_label_mod_0_split_1
I0406 11:06:31.683428 18426 net.cpp:96] Setting up fc8_pascal_label_mod_fc8_pascal_label_mod_0_split
I0406 11:06:31.683435 18426 net.cpp:103] Top shape: 32 10 1 1 (320)
I0406 11:06:31.683444 18426 net.cpp:103] Top shape: 32 10 1 1 (320)
I0406 11:06:31.683465 18426 net.cpp:67] Creating Layer fc8_pascal_color_mod
I0406 11:06:31.683480 18426 net.cpp:394] fc8_pascal_color_mod <- fc8_deepfashion_encode_fc8_deepfashion_encode_0_split_1
I0406 11:06:31.683496 18426 net.cpp:356] fc8_pascal_color_mod -> fc8_pascal_color_mod
I0406 11:06:31.683516 18426 net.cpp:96] Setting up fc8_pascal_color_mod
I0406 11:06:31.683568 18426 net.cpp:103] Top shape: 32 16 1 1 (512)
I0406 11:06:31.683596 18426 net.cpp:67] Creating Layer fc8_pascal_color_mod_fc8_pascal_color_mod_0_split
I0406 11:06:31.683612 18426 net.cpp:394] fc8_pascal_color_mod_fc8_pascal_color_mod_0_split <- fc8_pascal_color_mod
I0406 11:06:31.683629 18426 net.cpp:356] fc8_pascal_color_mod_fc8_pascal_color_mod_0_split -> fc8_pascal_color_mod_fc8_pascal_color_mod_0_split_0
I0406 11:06:31.683673 18426 net.cpp:356] fc8_pascal_color_mod_fc8_pascal_color_mod_0_split -> fc8_pascal_color_mod_fc8_pascal_color_mod_0_split_1
I0406 11:06:31.683686 18426 net.cpp:96] Setting up fc8_pascal_color_mod_fc8_pascal_color_mod_0_split
I0406 11:06:31.683693 18426 net.cpp:103] Top shape: 32 16 1 1 (512)
I0406 11:06:31.683701 18426 net.cpp:103] Top shape: 32 16 1 1 (512)
I0406 11:06:31.683715 18426 net.cpp:67] Creating Layer loss
I0406 11:06:31.683722 18426 net.cpp:394] loss <- fc8_pascal_label_mod_fc8_pascal_label_mod_0_split_0
I0406 11:06:31.683732 18426 net.cpp:394] loss <- labels0_sliceL_0_split_0
I0406 11:06:31.683744 18426 net.cpp:356] loss -> (automatic)
I0406 11:06:31.683753 18426 net.cpp:96] Setting up loss
I0406 11:06:31.683768 18426 net.cpp:103] Top shape: 1 1 1 1 (1)
I0406 11:06:31.683784 18426 net.cpp:109]     with loss weight 1
I0406 11:06:31.683820 18426 net.cpp:67] Creating Layer loss
I0406 11:06:31.683837 18426 net.cpp:394] loss <- fc8_pascal_color_mod_fc8_pascal_color_mod_0_split_0
I0406 11:06:31.683847 18426 net.cpp:394] loss <- labels1_sliceL_1_split_0
I0406 11:06:31.683857 18426 net.cpp:356] loss -> (automatic)
I0406 11:06:31.683876 18426 net.cpp:96] Setting up loss
I0406 11:06:31.683893 18426 net.cpp:103] Top shape: 1 1 1 1 (1)
I0406 11:06:31.683902 18426 net.cpp:109]     with loss weight 1
I0406 11:06:31.683917 18426 net.cpp:67] Creating Layer accuracy
I0406 11:06:31.683926 18426 net.cpp:394] accuracy <- fc8_pascal_color_mod_fc8_pascal_color_mod_0_split_1
I0406 11:06:31.683936 18426 net.cpp:394] accuracy <- labels1_sliceL_1_split_1
I0406 11:06:31.683951 18426 net.cpp:356] accuracy -> colorAccuracy
I0406 11:06:31.683971 18426 net.cpp:96] Setting up accuracy
I0406 11:06:31.683986 18426 net.cpp:103] Top shape: 1 1 1 1 (1)
I0406 11:06:31.684005 18426 net.cpp:67] Creating Layer accuracy1
I0406 11:06:31.684013 18426 net.cpp:394] accuracy1 <- fc8_pascal_label_mod_fc8_pascal_label_mod_0_split_1
I0406 11:06:31.684021 18426 net.cpp:394] accuracy1 <- labels0_sliceL_0_split_1
I0406 11:06:31.684033 18426 net.cpp:356] accuracy1 -> labelAccuracy
I0406 11:06:31.684043 18426 net.cpp:96] Setting up accuracy1
I0406 11:06:31.684058 18426 net.cpp:103] Top shape: 1 1 1 1 (1)
I0406 11:06:31.684067 18426 net.cpp:67] Creating Layer silence
I0406 11:06:31.684075 18426 net.cpp:394] silence <- random
I0406 11:06:31.684083 18426 net.cpp:96] Setting up silence
I0406 11:06:31.684090 18426 net.cpp:172] silence does not need backward computation.
I0406 11:06:31.684099 18426 net.cpp:172] accuracy1 does not need backward computation.
I0406 11:06:31.684105 18426 net.cpp:172] accuracy does not need backward computation.
…
