…
  top: "data"
  top: "random"
  name: "data"
  type: DATA
  data_param {
    source: "/data/deepfashion/color_label_multilabel/color_label_multilabel_TRAIN"
    batch_size: 32
    backend: LMDB
  }
  include {
    phase: TRAIN
  }
  transform_param {
    mirror: true
    crop_size: 227
    mean_file: "../../../data/ilsvrc12/imagenet_mean.binaryproto"
  }
}
layers {
  top: "labels"
  name: "labels"
  type: DATA
  data_param {
    source: "/data/deepfashion/color_label_multilabel/color_label_multilabel_TRAIN_ALT"
    batch_size: 32
    backend: LMDB
  }
  include {
    phase: TRAIN
  }
}
layers {
  bottom: "labels"
  top: "labels0"
  top: "labels1"
  name: "sliceL"
  type: SLICE
  slice_param {
    slice_point: 1
  }
}
layers {
  bottom: "data"
  top: "conv1"
  name: "conv1"
  type: CONVOLUTION
  blobs_lr: 1
  blobs_lr: 2
  weight_decay: 1
  weight_decay: 0
  convolution_param {
    num_output: 96
    kernel_size: 11
    stride: 4
    weight_filler {
      type: "gaussian"
      std: 0.01
    }
    bias_filler {
      type: "constant"
      value: 0
    }
  }
}
layers {
  bottom: "conv1"
  top: "conv1"
  name: "relu1"
  type: RELU
}
layers {
  bottom: "conv1"
  top: "pool1"
  name: "pool1"
  type: POOLING
  pooling_param {
    pool: MAX
    kernel_size: 3
    stride: 2
  }
}
layers {
  bottom: "pool1"
  top: "norm1"
  name: "norm1"
  type: LRN
  lrn_param {
    local_size: 5
    alpha: 0.0001
    beta: 0.75
  }
}
layers {
  bottom: "norm1"
  top: "conv2"
  name: "conv2"
  type: CONVOLUTION
  blobs_lr: 1
  blobs_lr: 2
  weight_decay: 1
  weight_decay: 0
  convolution_param {
    num_output: 256
    pad: 2
    kernel_size: 5
    group: 2
    weight_filler {
      type: "gaussian"
      std: 0.01
    }
    bias_filler {
      type: "constant"
      value: 1
    }
  }
}
layers {
  bottom: "conv2"
  top: "conv2"
  name: "relu2"
  type: RELU
}
layers {
  bottom: "conv2"
  top: "pool2"
  name: "pool2"
  type: POOLING
  pooling_param {
    pool: MAX
    kernel_size: 3
    stride: 2
  }
}
layers {
  bottom: "pool2"
  top: "norm2"
  name: "norm2"
  type: LRN
  lrn_param {
    local_size: 5
    alpha: 0.0001
    beta: 0.75
  }
}
layers {
  bottom: "norm2"
  top: "conv3"
  name: "conv3"
  type: CONVOLUTION
  blobs_lr: 1
  blobs_lr: 2
  weight_decay: 1
  weight_decay: 0
  convolution_param {
    num_output: 384
    pad: 1
    kernel_size: 3
    weight_filler {
      type: "gaussian"
      std: 0.01
    }
    bias_filler {
      type: "constant"
      value: 0
    }
  }
}
layers {
  bottom: "conv3"
  top: "conv3"
  name: "relu3"
  type: RELU
}
layers {
  bottom: "conv3"
  top: "conv4"
  name: "conv4"
  type: CONVOLUTION
  blobs_lr: 1
  blobs_lr: 2
  weight_decay: 1
  weight_decay: 0
  convolution_param {
    num_output: 384
    pad: 1
    kernel_size: 3
    group: 2
    weight_filler {
      type: "gaussian"
      std: 0.01
    }
    bias_filler {
      type: "constant"
      value: 1
    }
  }
}
layers {
  bottom: "conv4"
  top: "conv4"
  name: "relu4"
  type: RELU
}
layers {
  bottom: "conv4"
  top: "conv5"
  name: "conv5"
  type: CONVOLUTION
  blobs_lr: 1
  blobs_lr: 2
  weight_decay: 1
  weight_decay: 0
  convolution_param {
    num_output: 256
    pad: 1
    kernel_size: 3
    group: 2
    weight_filler {
      type: "gaussian"
      std: 0.01
    }
    bias_filler {
      type: "constant"
      value: 1
    }
  }
}
layers {
  bottom: "conv5"
  top: "conv5"
  name: "relu5"
  type: RELU
}
layers {
  bottom: "conv5"
  top: "pool5"
  name: "pool5"
  type: POOLING
  pooling_param {
    pool: MAX
    kernel_size: 3
    stride: 2
  }
}
layers {
  bottom: "pool5"
  top: "fc6"
  name: "fc6"
  type: INNER_PRODUCT
  blobs_lr: 1
  blobs_lr: 2
  weight_decay: 1
  weight_decay: 0
  inner_product_param {
    num_output: 4096
    weight_filler {
      type: "gaussian"
      std: 0.005
    }
    bias_filler {
      type: "constant"
      value: 1
    }
  }
}
layers {
  bottom: "fc6"
  top: "fc6"
  name: "relu6"
  type: RELU
}
layers {
  bottom: "fc6"
  top: "fc6"
  name: "drop6"
  type: DROPOUT
  dropout_param {
    dropout_ratio: 0.5
  }
}
layers {
  bottom: "fc6"
  top: "fc7"
  name: "fc7"
  type: INNER_PRODUCT
  blobs_lr: 1
  blobs_lr: 2
  weight_decay: 1
  weight_decay: 0
  inner_product_param {
    num_output: 4096
    weight_filler {
      type: "gaussian"
      std: 0.005
    }
    bias_filler {
      type: "constant"
      value: 1
    }
  }
}
layers {
  bottom: "fc7"
  top: "fc7"
  name: "relu7"
  type: RELU
}
layers {
  bottom: "fc7"
  top: "fc7"
  name: "drop7"
  type: DROPOUT
  dropout_param {
    dropout_ratio: 0.5
  }
}
layers {
  bottom: "fc7"
  top: "fc8_deepfashion"
  name: "fc8_deepfashion"
  type: INNER_PRODUCT
  blobs_lr: 1
  blobs_lr: 2
  weight_decay: 1
  weight_decay: 0
  inner_product_param {
    num_output: 48
    weight_filler {
      type: "gaussian"
      std: 0.01
    }
    bias_filler {
      type: "constant"
      value: 0
    }
  }
}
layers {
  bottom: "fc8_deepfashion"
  top: "fc8_deepfashion_encode"
  name: "fc8_deepfashion_encode"
  type: SIGMOID
}
layers {
  bottom: "fc8_deepfashion_encode"
  top: "fc8_pascal_label_mod"
  name: "fc8_pascal_label_mod"
  type: INNER_PRODUCT
  blobs_lr: 1
  blobs_lr: 2
  weight_decay: 1
  weight_decay: 0
  inner_product_param {
    num_output: 10
    weight_filler {
      type: "gaussian"
      std: 0.01
    }
    bias_filler {
      type: "constant"
      value: 0
    }
  }
}
layers {
  bottom: "fc8_deepfashion_encode"
  top: "fc8_pascal_color_mod"
  name: "fc8_pascal_color_mod"
  type: INNER_PRODUCT
  blobs_lr: 1
  blobs_lr: 2
  weight_decay: 1
  weight_decay: 0
  inner_product_param {
    num_output: 16
    weight_filler {
      type: "gaussian"
      std: 0.01
    }
    bias_filler {
      type: "constant"
      value: 0
    }
  }
}
layers {
  bottom: "fc8_pascal_label_mod"
  bottom: "labels0"
  name: "loss"
  type: SOFTMAX_LOSS
}
layers {
  bottom: "fc8_pascal_color_mod"
  bottom: "labels1"
  name: "loss"
  type: SOFTMAX_LOSS
}
layers {
  bottom: "random"
  name: "silence"
  type: SILENCE
}
state {
  phase: TRAIN
}
I0406 17:41:33.851668   547 net.cpp:67] Creating Layer data
I0406 17:41:33.851688   547 net.cpp:356] data -> data
I0406 17:41:33.851716   547 net.cpp:356] data -> random
I0406 17:41:33.851739   547 net.cpp:96] Setting up data
I0406 17:41:33.851876   547 data_layer.cpp:68] Opening lmdb /data/deepfashion/color_label_multilabel/color_label_multilabel_TRAIN
I0406 17:41:33.852124   547 data_layer.cpp:128] output data size: 32,3,227,227
I0406 17:41:33.852144   547 base_data_layer.cpp:36] Loading mean file from../../../data/ilsvrc12/imagenet_mean.binaryproto
I0406 17:41:33.860400   547 net.cpp:103] Top shape: 32 3 227 227 (4946784)
I0406 17:41:33.860435   547 net.cpp:103] Top shape: 32 1 1 1 (32)
I0406 17:41:33.860460   547 net.cpp:67] Creating Layer labels
I0406 17:41:33.860471   547 net.cpp:356] labels -> labels
I0406 17:41:33.860491   547 net.cpp:96] Setting up labels
I0406 17:41:33.860607   547 data_layer.cpp:68] Opening lmdb /data/deepfashion/color_label_multilabel/color_label_multilabel_TRAIN_ALT
I0406 17:41:33.860657   547 data_layer.cpp:128] output data size: 32,2,1,1
I0406 17:41:33.860725   547 net.cpp:103] Top shape: 32 2 1 1 (64)
I0406 17:41:33.860751   547 net.cpp:67] Creating Layer sliceL
I0406 17:41:33.860770   547 net.cpp:394] sliceL <- labels
I0406 17:41:33.860788   547 net.cpp:356] sliceL -> labels0
I0406 17:41:33.860802   547 net.cpp:356] sliceL -> labels1
I0406 17:41:33.860833   547 net.cpp:96] Setting up sliceL
I0406 17:41:33.860852   547 net.cpp:103] Top shape: 32 1 1 1 (32)
I0406 17:41:33.860867   547 net.cpp:103] Top shape: 32 1 1 1 (32)
I0406 17:41:33.860882   547 net.cpp:67] Creating Layer conv1
I0406 17:41:33.860890   547 net.cpp:394] conv1 <- data
I0406 17:41:33.860908   547 net.cpp:356] conv1 -> conv1
I0406 17:41:33.860923   547 net.cpp:96] Setting up conv1
I0406 17:41:33.883234   547 net.cpp:103] Top shape: 32 96 55 55 (9292800)
I0406 17:41:33.883301   547 net.cpp:67] Creating Layer relu1
I0406 17:41:33.883312   547 net.cpp:394] relu1 <- conv1
I0406 17:41:33.883324   547 net.cpp:345] relu1 -> conv1 (in-place)
I0406 17:41:33.883337   547 net.cpp:96] Setting up relu1
I0406 17:41:33.883355   547 net.cpp:103] Top shape: 32 96 55 55 (9292800)
I0406 17:41:33.883378   547 net.cpp:67] Creating Layer pool1
I0406 17:41:33.883385   547 net.cpp:394] pool1 <- conv1
I0406 17:41:33.883400   547 net.cpp:356] pool1 -> pool1
I0406 17:41:33.883414   547 net.cpp:96] Setting up pool1
I0406 17:41:33.883460   547 net.cpp:103] Top shape: 32 96 27 27 (2239488)
I0406 17:41:33.883486   547 net.cpp:67] Creating Layer norm1
I0406 17:41:33.883496   547 net.cpp:394] norm1 <- pool1
I0406 17:41:33.883507   547 net.cpp:356] norm1 -> norm1
I0406 17:41:33.883518   547 net.cpp:96] Setting up norm1
I0406 17:41:33.883532   547 net.cpp:103] Top shape: 32 96 27 27 (2239488)
I0406 17:41:33.883546   547 net.cpp:67] Creating Layer conv2
I0406 17:41:33.883553   547 net.cpp:394] conv2 <- norm1
I0406 17:41:33.883569   547 net.cpp:356] conv2 -> conv2
I0406 17:41:33.883582   547 net.cpp:96] Setting up conv2
I0406 17:41:33.893842   547 net.cpp:103] Top shape: 32 256 27 27 (5971968)
I0406 17:41:33.893873   547 net.cpp:67] Creating Layer relu2
I0406 17:41:33.893883   547 net.cpp:394] relu2 <- conv2
I0406 17:41:33.893894   547 net.cpp:345] relu2 -> conv2 (in-place)
I0406 17:41:33.893905   547 net.cpp:96] Setting up relu2
I0406 17:41:33.893918   547 net.cpp:103] Top shape: 32 256 27 27 (5971968)
I0406 17:41:33.893934   547 net.cpp:67] Creating Layer pool2
I0406 17:41:33.893942   547 net.cpp:394] pool2 <- conv2
I0406 17:41:33.893952   547 net.cpp:356] pool2 -> pool2
I0406 17:41:33.893965   547 net.cpp:96] Setting up pool2
I0406 17:41:33.893978   547 net.cpp:103] Top shape: 32 256 13 13 (1384448)
I0406 17:41:33.893990   547 net.cpp:67] Creating Layer norm2
I0406 17:41:33.893997   547 net.cpp:394] norm2 <- pool2
I0406 17:41:33.894008   547 net.cpp:356] norm2 -> norm2
I0406 17:41:33.894018   547 net.cpp:96] Setting up norm2
I0406 17:41:33.894044   547 net.cpp:103] Top shape: 32 256 13 13 (1384448)
I0406 17:41:33.894062   547 net.cpp:67] Creating Layer conv3
I0406 17:41:33.894069   547 net.cpp:394] conv3 <- norm2
I0406 17:41:33.894081   547 net.cpp:356] conv3 -> conv3
I0406 17:41:33.894093   547 net.cpp:96] Setting up conv3
I0406 17:41:33.923279   547 net.cpp:103] Top shape: 32 384 13 13 (2076672)
I0406 17:41:33.923307   547 net.cpp:67] Creating Layer relu3
I0406 17:41:33.923317   547 net.cpp:394] relu3 <- conv3
I0406 17:41:33.923328   547 net.cpp:345] relu3 -> conv3 (in-place)
I0406 17:41:33.923339   547 net.cpp:96] Setting up relu3
I0406 17:41:33.923352   547 net.cpp:103] Top shape: 32 384 13 13 (2076672)
I0406 17:41:33.923372   547 net.cpp:67] Creating Layer conv4
I0406 17:41:33.923389   547 net.cpp:394] conv4 <- conv3
I0406 17:41:33.923401   547 net.cpp:356] conv4 -> conv4
I0406 17:41:33.923413   547 net.cpp:96] Setting up conv4
I0406 17:41:33.945161   547 net.cpp:103] Top shape: 32 384 13 13 (2076672)
I0406 17:41:33.945194   547 net.cpp:67] Creating Layer relu4
I0406 17:41:33.945204   547 net.cpp:394] relu4 <- conv4
I0406 17:41:33.945247   547 net.cpp:345] relu4 -> conv4 (in-place)
I0406 17:41:33.945261   547 net.cpp:96] Setting up relu4
I0406 17:41:33.945274   547 net.cpp:103] Top shape: 32 384 13 13 (2076672)
I0406 17:41:33.945297   547 net.cpp:67] Creating Layer conv5
I0406 17:41:33.945307   547 net.cpp:394] conv5 <- conv4
I0406 17:41:33.945322   547 net.cpp:356] conv5 -> conv5
I0406 17:41:33.945336   547 net.cpp:96] Setting up conv5
I0406 17:41:33.960005   547 net.cpp:103] Top shape: 32 256 13 13 (1384448)
I0406 17:41:33.960042   547 net.cpp:67] Creating Layer relu5
I0406 17:41:33.960053   547 net.cpp:394] relu5 <- conv5
I0406 17:41:33.960067   547 net.cpp:345] relu5 -> conv5 (in-place)
I0406 17:41:33.960080   547 net.cpp:96] Setting up relu5
I0406 17:41:33.960093   547 net.cpp:103] Top shape: 32 256 13 13 (1384448)
I0406 17:41:33.960106   547 net.cpp:67] Creating Layer pool5
I0406 17:41:33.960115   547 net.cpp:394] pool5 <- conv5
I0406 17:41:33.960125   547 net.cpp:356] pool5 -> pool5
I0406 17:41:33.960137   547 net.cpp:96] Setting up pool5
I0406 17:41:33.960152   547 net.cpp:103] Top shape: 32 256 6 6 (294912)
I0406 17:41:33.960180   547 net.cpp:67] Creating Layer fc6
I0406 17:41:33.960188   547 net.cpp:394] fc6 <- pool5
I0406 17:41:33.960201   547 net.cpp:356] fc6 -> fc6
I0406 17:41:33.960213   547 net.cpp:96] Setting up fc6
I0406 17:41:35.182188   547 net.cpp:103] Top shape: 32 4096 1 1 (131072)
I0406 17:41:35.182246   547 net.cpp:67] Creating Layer relu6
I0406 17:41:35.182258   547 net.cpp:394] relu6 <- fc6
I0406 17:41:35.182271   547 net.cpp:345] relu6 -> fc6 (in-place)
I0406 17:41:35.182284   547 net.cpp:96] Setting up relu6
I0406 17:41:35.182312   547 net.cpp:103] Top shape: 32 4096 1 1 (131072)
I0406 17:41:35.182329   547 net.cpp:67] Creating Layer drop6
I0406 17:41:35.182337   547 net.cpp:394] drop6 <- fc6
I0406 17:41:35.182348   547 net.cpp:345] drop6 -> fc6 (in-place)
I0406 17:41:35.182359   547 net.cpp:96] Setting up drop6
I0406 17:41:35.182375   547 net.cpp:103] Top shape: 32 4096 1 1 (131072)
I0406 17:41:35.182389   547 net.cpp:67] Creating Layer fc7
I0406 17:41:35.182397   547 net.cpp:394] fc7 <- fc6
I0406 17:41:35.182410   547 net.cpp:356] fc7 -> fc7
I0406 17:41:35.182427   547 net.cpp:96] Setting up fc7
I0406 17:41:35.729079   547 net.cpp:103] Top shape: 32 4096 1 1 (131072)
I0406 17:41:35.729142   547 net.cpp:67] Creating Layer relu7
I0406 17:41:35.729153   547 net.cpp:394] relu7 <- fc7
I0406 17:41:35.729166   547 net.cpp:345] relu7 -> fc7 (in-place)
I0406 17:41:35.729179   547 net.cpp:96] Setting up relu7
I0406 17:41:35.729207   547 net.cpp:103] Top shape: 32 4096 1 1 (131072)
I0406 17:41:35.729219   547 net.cpp:67] Creating Layer drop7
I0406 17:41:35.729228   547 net.cpp:394] drop7 <- fc7
I0406 17:41:35.729243   547 net.cpp:345] drop7 -> fc7 (in-place)
I0406 17:41:35.729254   547 net.cpp:96] Setting up drop7
I0406 17:41:35.729262   547 net.cpp:103] Top shape: 32 4096 1 1 (131072)
I0406 17:41:35.729276   547 net.cpp:67] Creating Layer fc8_deepfashion
I0406 17:41:35.729284   547 net.cpp:394] fc8_deepfashion <- fc7
I0406 17:41:35.729295   547 net.cpp:356] fc8_deepfashion -> fc8_deepfashion
I0406 17:41:35.729311   547 net.cpp:96] Setting up fc8_deepfashion
I0406 17:41:35.735844   547 net.cpp:103] Top shape: 32 48 1 1 (1536)
I0406 17:41:35.735872   547 net.cpp:67] Creating Layer fc8_deepfashion_encode
I0406 17:41:35.735880   547 net.cpp:394] fc8_deepfashion_encode <- fc8_deepfashion
I0406 17:41:35.735896   547 net.cpp:356] fc8_deepfashion_encode -> fc8_deepfashion_encode
I0406 17:41:35.735908   547 net.cpp:96] Setting up fc8_deepfashion_encode
I0406 17:41:35.735929   547 net.cpp:103] Top shape: 32 48 1 1 (1536)
I0406 17:41:35.735950   547 net.cpp:67] Creating Layer fc8_deepfashion_encode_fc8_deepfashion_encode_0_split
I0406 17:41:35.735960   547 net.cpp:394] fc8_deepfashion_encode_fc8_deepfashion_encode_0_split <- fc8_deepfashion_encode
I0406 17:41:35.735970   547 net.cpp:356] fc8_deepfashion_encode_fc8_deepfashion_encode_0_split -> fc8_deepfashion_encode_fc8_deepfashion_encode_0_split_0
I0406 17:41:35.736012   547 net.cpp:356] fc8_deepfashion_encode_fc8_deepfashion_encode_0_split -> fc8_deepfashion_encode_fc8_deepfashion_encode_0_split_1
I0406 17:41:35.736027   547 net.cpp:96] Setting up fc8_deepfashion_encode_fc8_deepfashion_encode_0_split
I0406 17:41:35.736039   547 net.cpp:103] Top shape: 32 48 1 1 (1536)
I0406 17:41:35.736055   547 net.cpp:103] Top shape: 32 48 1 1 (1536)
I0406 17:41:35.736073   547 net.cpp:67] Creating Layer fc8_pascal_label_mod
I0406 17:41:35.736090   547 net.cpp:394] fc8_pascal_label_mod <- fc8_deepfashion_encode_fc8_deepfashion_encode_0_split_0
I0406 17:41:35.736104   547 net.cpp:356] fc8_pascal_label_mod -> fc8_pascal_label_mod
I0406 17:41:35.736120   547 net.cpp:96] Setting up fc8_pascal_label_mod
I0406 17:41:35.736161   547 net.cpp:103] Top shape: 32 10 1 1 (320)
I0406 17:41:35.736196   547 net.cpp:67] Creating Layer fc8_pascal_color_mod
I0406 17:41:35.736207   547 net.cpp:394] fc8_pascal_color_mod <- fc8_deepfashion_encode_fc8_deepfashion_encode_0_split_1
I0406 17:41:35.736218   547 net.cpp:356] fc8_pascal_color_mod -> fc8_pascal_color_mod
I0406 17:41:35.736232   547 net.cpp:96] Setting up fc8_pascal_color_mod
I0406 17:41:35.736294   547 net.cpp:103] Top shape: 32 16 1 1 (512)
I0406 17:41:35.736317   547 net.cpp:67] Creating Layer loss
I0406 17:41:35.736340   547 net.cpp:394] loss <- fc8_pascal_label_mod
I0406 17:41:35.736354   547 net.cpp:394] loss <- labels0
I0406 17:41:35.736366   547 net.cpp:356] loss -> (automatic)
I0406 17:41:35.736376   547 net.cpp:96] Setting up loss
I0406 17:41:35.736404   547 net.cpp:103] Top shape: 1 1 1 1 (1)
I0406 17:41:35.736413   547 net.cpp:109]     with loss weight 1
I0406 17:41:35.736488   547 net.cpp:67] Creating Layer loss
I0406 17:41:35.736500   547 net.cpp:394] loss <- fc8_pascal_color_mod
I0406 17:41:35.736516   547 net.cpp:394] loss <- labels1
I0406 17:41:35.736529   547 net.cpp:356] loss -> (automatic)
I0406 17:41:35.736539   547 net.cpp:96] Setting up loss
I0406 17:41:35.736551   547 net.cpp:103] Top shape: 1 1 1 1 (1)
I0406 17:41:35.736558   547 net.cpp:109]     with loss weight 1
I0406 17:41:35.736578   547 net.cpp:67] Creating Layer silence
I0406 17:41:35.736589   547 net.cpp:394] silence <- random
I0406 17:41:35.736598   547 net.cpp:96] Setting up silence
I0406 17:41:35.736606   547 net.cpp:172] silence does not need backward computation.
I0406 17:41:35.736613   547 net.cpp:170] loss needs backward computation.
…
layers {
  top: "data"
  top: "random"
  name: "data"
  type: DATA
  data_param {
    source: "/data/deepfashion/color_label_multilabel/color_label_multilabel_test"
    batch_size: 32
    backend: LMDB
  }
  include {
    phase: TEST
  }
  transform_param {
    mirror: true
    crop_size: 227
    mean_file: "../../../data/ilsvrc12/imagenet_mean.binaryproto"
  }
}
layers {
  top: "labels"
  name: "labels"
  type: DATA
  data_param {
    source: "/data/deepfashion/color_label_multilabel/color_label_multilabel_test_alt"
    batch_size: 32
    backend: LMDB
  }
  include {
    phase: TEST
  }
}
layers {
  bottom: "labels"
  top: "labels0"
  top: "labels1"
  name: "sliceL"
  type: SLICE
  slice_param {
    slice_point: 1
  }
}
layers {
  bottom: "data"
  top: "conv1"
  name: "conv1"
  type: CONVOLUTION
  blobs_lr: 1
  blobs_lr: 2
  weight_decay: 1
  weight_decay: 0
  convolution_param {
    num_output: 96
    kernel_size: 11
    stride: 4
    weight_filler {
      type: "gaussian"
      std: 0.01
    }
    bias_filler {
      type: "constant"
      value: 0
    }
  }
}
layers {
  bottom: "conv1"
  top: "conv1"
  name: "relu1"
  type: RELU
}
layers {
  bottom: "conv1"
  top: "pool1"
  name: "pool1"
  type: POOLING
  pooling_param {
    pool: MAX
    kernel_size: 3
    stride: 2
  }
}
layers {
  bottom: "pool1"
  top: "norm1"
  name: "norm1"
  type: LRN
  lrn_param {
    local_size: 5
    alpha: 0.0001
    beta: 0.75
  }
}
layers {
  bottom: "norm1"
  top: "conv2"
  name: "conv2"
  type: CONVOLUTION
  blobs_lr: 1
  blobs_lr: 2
  weight_decay: 1
  weight_decay: 0
  convolution_param {
    num_output: 256
    pad: 2
    kernel_size: 5
    group: 2
    weight_filler {
      type: "gaussian"
      std: 0.01
    }
    bias_filler {
      type: "constant"
      value: 1
    }
  }
}
layers {
  bottom: "conv2"
  top: "conv2"
  name: "relu2"
  type: RELU
}
layers {
  bottom: "conv2"
  top: "pool2"
  name: "pool2"
  type: POOLING
  pooling_param {
    pool: MAX
    kernel_size: 3
    stride: 2
  }
}
layers {
  bottom: "pool2"
  top: "norm2"
  name: "norm2"
  type: LRN
  lrn_param {
    local_size: 5
    alpha: 0.0001
    beta: 0.75
  }
}
layers {
  bottom: "norm2"
  top: "conv3"
  name: "conv3"
  type: CONVOLUTION
  blobs_lr: 1
  blobs_lr: 2
  weight_decay: 1
  weight_decay: 0
  convolution_param {
    num_output: 384
    pad: 1
    kernel_size: 3
    weight_filler {
      type: "gaussian"
      std: 0.01
    }
    bias_filler {
      type: "constant"
      value: 0
    }
  }
}
layers {
  bottom: "conv3"
  top: "conv3"
  name: "relu3"
  type: RELU
}
layers {
  bottom: "conv3"
  top: "conv4"
  name: "conv4"
  type: CONVOLUTION
  blobs_lr: 1
  blobs_lr: 2
  weight_decay: 1
  weight_decay: 0
  convolution_param {
    num_output: 384
    pad: 1
    kernel_size: 3
    group: 2
    weight_filler {
      type: "gaussian"
      std: 0.01
    }
    bias_filler {
      type: "constant"
      value: 1
    }
  }
}
layers {
  bottom: "conv4"
  top: "conv4"
  name: "relu4"
  type: RELU
}
layers {
  bottom: "conv4"
  top: "conv5"
  name: "conv5"
  type: CONVOLUTION
  blobs_lr: 1
  blobs_lr: 2
  weight_decay: 1
  weight_decay: 0
  convolution_param {
    num_output: 256
    pad: 1
    kernel_size: 3
    group: 2
    weight_filler {
      type: "gaussian"
      std: 0.01
    }
    bias_filler {
      type: "constant"
      value: 1
    }
  }
}
layers {
  bottom: "conv5"
  top: "conv5"
  name: "relu5"
  type: RELU
}
layers {
  bottom: "conv5"
  top: "pool5"
  name: "pool5"
  type: POOLING
  pooling_param {
    pool: MAX
    kernel_size: 3
    stride: 2
  }
}
layers {
  bottom: "pool5"
  top: "fc6"
  name: "fc6"
  type: INNER_PRODUCT
  blobs_lr: 1
  blobs_lr: 2
  weight_decay: 1
  weight_decay: 0
  inner_product_param {
    num_output: 4096
    weight_filler {
      type: "gaussian"
      std: 0.005
    }
    bias_filler {
      type: "constant"
      value: 1
    }
  }
}
layers {
  bottom: "fc6"
  top: "fc6"
  name: "relu6"
  type: RELU
}
layers {
  bottom: "fc6"
  top: "fc6"
  name: "drop6"
  type: DROPOUT
  dropout_param {
    dropout_ratio: 0.5
  }
}
layers {
  bottom: "fc6"
  top: "fc7"
  name: "fc7"
  type: INNER_PRODUCT
  blobs_lr: 1
  blobs_lr: 2
  weight_decay: 1
  weight_decay: 0
  inner_product_param {
    num_output: 4096
    weight_filler {
      type: "gaussian"
      std: 0.005
    }
    bias_filler {
      type: "constant"
      value: 1
    }
  }
}
layers {
  bottom: "fc7"
  top: "fc7"
  name: "relu7"
  type: RELU
}
layers {
  bottom: "fc7"
  top: "fc7"
  name: "drop7"
  type: DROPOUT
  dropout_param {
    dropout_ratio: 0.5
  }
}
layers {
  bottom: "fc7"
  top: "fc8_deepfashion"
  name: "fc8_deepfashion"
  type: INNER_PRODUCT
  blobs_lr: 1
  blobs_lr: 2
  weight_decay: 1
  weight_decay: 0
  inner_product_param {
    num_output: 48
    weight_filler {
      type: "gaussian"
      std: 0.01
    }
    bias_filler {
      type: "constant"
      value: 0
    }
  }
}
layers {
  bottom: "fc8_deepfashion"
  top: "fc8_deepfashion_encode"
  name: "fc8_deepfashion_encode"
  type: SIGMOID
}
layers {
  bottom: "fc8_deepfashion_encode"
  top: "fc8_pascal_label_mod"
  name: "fc8_pascal_label_mod"
  type: INNER_PRODUCT
  blobs_lr: 1
  blobs_lr: 2
  weight_decay: 1
  weight_decay: 0
  inner_product_param {
    num_output: 10
    weight_filler {
      type: "gaussian"
      std: 0.01
    }
    bias_filler {
      type: "constant"
      value: 0
    }
  }
}
layers {
  bottom: "fc8_deepfashion_encode"
  top: "fc8_pascal_color_mod"
  name: "fc8_pascal_color_mod"
  type: INNER_PRODUCT
  blobs_lr: 1
  blobs_lr: 2
  weight_decay: 1
  weight_decay: 0
  inner_product_param {
    num_output: 16
    weight_filler {
      type: "gaussian"
      std: 0.01
    }
    bias_filler {
      type: "constant"
      value: 0
    }
  }
}
layers {
  bottom: "fc8_pascal_label_mod"
  bottom: "labels0"
  name: "loss"
  type: SOFTMAX_LOSS
}
layers {
  bottom: "fc8_pascal_color_mod"
  bottom: "labels1"
  name: "loss"
  type: SOFTMAX_LOSS
}
layers {
  bottom: "fc8_pascal_color_mod"
  bottom: "labels1"
  top: "colorAccuracy"
  name: "accuracy"
  type: ACCURACY
  include {
    phase: TEST
  }
}
layers {
  bottom: "fc8_pascal_label_mod"
  bottom: "labels0"
  top: "labelAccuracy"
  name: "accuracy1"
  type: ACCURACY
  include {
    phase: TEST
  }
}
layers {
  bottom: "random"
  name: "silence"
  type: SILENCE
}
state {
  phase: TEST
}
I0406 17:41:35.738301   547 net.cpp:67] Creating Layer data
I0406 17:41:35.738315   547 net.cpp:356] data -> data
I0406 17:41:35.738330   547 net.cpp:356] data -> random
I0406 17:41:35.738343   547 net.cpp:96] Setting up data
I0406 17:41:35.738420   547 data_layer.cpp:68] Opening lmdb /data/deepfashion/color_label_multilabel/color_label_multilabel_test
I0406 17:41:35.738648   547 data_layer.cpp:128] output data size: 32,3,227,227
I0406 17:41:35.738675   547 base_data_layer.cpp:36] Loading mean file from../../../data/ilsvrc12/imagenet_mean.binaryproto
I0406 17:41:35.746446   547 net.cpp:103] Top shape: 32 3 227 227 (4946784)
I0406 17:41:35.746482   547 net.cpp:103] Top shape: 32 1 1 1 (32)
I0406 17:41:35.746505   547 net.cpp:67] Creating Layer labels
I0406 17:41:35.746517   547 net.cpp:356] labels -> labels
I0406 17:41:35.746536   547 net.cpp:96] Setting up labels
I0406 17:41:35.746618   547 data_layer.cpp:68] Opening lmdb /data/deepfashion/color_label_multilabel/color_label_multilabel_test_alt
I0406 17:41:35.746645   547 data_layer.cpp:128] output data size: 32,2,1,1
I0406 17:41:35.746693   547 net.cpp:103] Top shape: 32 2 1 1 (64)
I0406 17:41:35.746716   547 net.cpp:67] Creating Layer sliceL
I0406 17:41:35.746726   547 net.cpp:394] sliceL <- labels
I0406 17:41:35.746737   547 net.cpp:356] sliceL -> labels0
I0406 17:41:35.746752   547 net.cpp:356] sliceL -> labels1
I0406 17:41:35.746765   547 net.cpp:96] Setting up sliceL
I0406 17:41:35.746776   547 net.cpp:103] Top shape: 32 1 1 1 (32)
I0406 17:41:35.746785   547 net.cpp:103] Top shape: 32 1 1 1 (32)
I0406 17:41:35.746796   547 net.cpp:67] Creating Layer labels0_sliceL_0_split
I0406 17:41:35.746819   547 net.cpp:394] labels0_sliceL_0_split <- labels0
I0406 17:41:35.746830   547 net.cpp:356] labels0_sliceL_0_split -> labels0_sliceL_0_split_0
I0406 17:41:35.746845   547 net.cpp:356] labels0_sliceL_0_split -> labels0_sliceL_0_split_1
I0406 17:41:35.746856   547 net.cpp:96] Setting up labels0_sliceL_0_split
I0406 17:41:35.746865   547 net.cpp:103] Top shape: 32 1 1 1 (32)
I0406 17:41:35.746873   547 net.cpp:103] Top shape: 32 1 1 1 (32)
I0406 17:41:35.746886   547 net.cpp:67] Creating Layer labels1_sliceL_1_split
I0406 17:41:35.746894   547 net.cpp:394] labels1_sliceL_1_split <- labels1
I0406 17:41:35.746906   547 net.cpp:356] labels1_sliceL_1_split -> labels1_sliceL_1_split_0
I0406 17:41:35.746918   547 net.cpp:356] labels1_sliceL_1_split -> labels1_sliceL_1_split_1
I0406 17:41:35.746932   547 net.cpp:96] Setting up labels1_sliceL_1_split
I0406 17:41:35.746940   547 net.cpp:103] Top shape: 32 1 1 1 (32)
I0406 17:41:35.746949   547 net.cpp:103] Top shape: 32 1 1 1 (32)
I0406 17:41:35.746963   547 net.cpp:67] Creating Layer conv1
I0406 17:41:35.746970   547 net.cpp:394] conv1 <- data
I0406 17:41:35.746983   547 net.cpp:356] conv1 -> conv1
I0406 17:41:35.746994   547 net.cpp:96] Setting up conv1
I0406 17:41:35.748224   547 net.cpp:103] Top shape: 32 96 55 55 (9292800)
I0406 17:41:35.748260   547 net.cpp:67] Creating Layer relu1
I0406 17:41:35.748268   547 net.cpp:394] relu1 <- conv1
I0406 17:41:35.748281   547 net.cpp:345] relu1 -> conv1 (in-place)
I0406 17:41:35.748291   547 net.cpp:96] Setting up relu1
I0406 17:41:35.748304   547 net.cpp:103] Top shape: 32 96 55 55 (9292800)
I0406 17:41:35.748317   547 net.cpp:67] Creating Layer pool1
I0406 17:41:35.748325   547 net.cpp:394] pool1 <- conv1
I0406 17:41:35.748342   547 net.cpp:356] pool1 -> pool1
I0406 17:41:35.748354   547 net.cpp:96] Setting up pool1
I0406 17:41:35.748370   547 net.cpp:103] Top shape: 32 96 27 27 (2239488)
I0406 17:41:35.748385   547 net.cpp:67] Creating Layer norm1
I0406 17:41:35.748402   547 net.cpp:394] norm1 <- pool1
I0406 17:41:35.748414   547 net.cpp:356] norm1 -> norm1
I0406 17:41:35.748425   547 net.cpp:96] Setting up norm1
I0406 17:41:35.748435   547 net.cpp:103] Top shape: 32 96 27 27 (2239488)
I0406 17:41:35.748447   547 net.cpp:67] Creating Layer conv2
I0406 17:41:35.748455   547 net.cpp:394] conv2 <- norm1
I0406 17:41:35.748466   547 net.cpp:356] conv2 -> conv2
I0406 17:41:35.748477   547 net.cpp:96] Setting up conv2
I0406 17:41:35.758666   547 net.cpp:103] Top shape: 32 256 27 27 (5971968)
I0406 17:41:35.758714   547 net.cpp:67] Creating Layer relu2
I0406 17:41:35.758726   547 net.cpp:394] relu2 <- conv2
I0406 17:41:35.758740   547 net.cpp:345] relu2 -> conv2 (in-place)
I0406 17:41:35.758754   547 net.cpp:96] Setting up relu2
I0406 17:41:35.758767   547 net.cpp:103] Top shape: 32 256 27 27 (5971968)
I0406 17:41:35.758817   547 net.cpp:67] Creating Layer pool2
I0406 17:41:35.758826   547 net.cpp:394] pool2 <- conv2
I0406 17:41:35.758838   547 net.cpp:356] pool2 -> pool2
I0406 17:41:35.758852   547 net.cpp:96] Setting up pool2
I0406 17:41:35.758867   547 net.cpp:103] Top shape: 32 256 13 13 (1384448)
I0406 17:41:35.758884   547 net.cpp:67] Creating Layer norm2
I0406 17:41:35.758901   547 net.cpp:394] norm2 <- pool2
I0406 17:41:35.758913   547 net.cpp:356] norm2 -> norm2
I0406 17:41:35.758924   547 net.cpp:96] Setting up norm2
I0406 17:41:35.758934   547 net.cpp:103] Top shape: 32 256 13 13 (1384448)
I0406 17:41:35.758951   547 net.cpp:67] Creating Layer conv3
I0406 17:41:35.758960   547 net.cpp:394] conv3 <- norm2
I0406 17:41:35.758971   547 net.cpp:356] conv3 -> conv3
I0406 17:41:35.758983   547 net.cpp:96] Setting up conv3
I0406 17:41:35.787982   547 net.cpp:103] Top shape: 32 384 13 13 (2076672)
I0406 17:41:35.788036   547 net.cpp:67] Creating Layer relu3
I0406 17:41:35.788048   547 net.cpp:394] relu3 <- conv3
I0406 17:41:35.788060   547 net.cpp:345] relu3 -> conv3 (in-place)
I0406 17:41:35.788072   547 net.cpp:96] Setting up relu3
I0406 17:41:35.788085   547 net.cpp:103] Top shape: 32 384 13 13 (2076672)
I0406 17:41:35.788103   547 net.cpp:67] Creating Layer conv4
I0406 17:41:35.788112   547 net.cpp:394] conv4 <- conv3
I0406 17:41:35.788128   547 net.cpp:356] conv4 -> conv4
I0406 17:41:35.788146   547 net.cpp:96] Setting up conv4
I0406 17:41:35.810081   547 net.cpp:103] Top shape: 32 384 13 13 (2076672)
I0406 17:41:35.810109   547 net.cpp:67] Creating Layer relu4
I0406 17:41:35.810119   547 net.cpp:394] relu4 <- conv4
I0406 17:41:35.810133   547 net.cpp:345] relu4 -> conv4 (in-place)
I0406 17:41:35.810147   547 net.cpp:96] Setting up relu4
I0406 17:41:35.810158   547 net.cpp:103] Top shape: 32 384 13 13 (2076672)
I0406 17:41:35.810173   547 net.cpp:67] Creating Layer conv5
I0406 17:41:35.810180   547 net.cpp:394] conv5 <- conv4
I0406 17:41:35.810199   547 net.cpp:356] conv5 -> conv5
I0406 17:41:35.810214   547 net.cpp:96] Setting up conv5
I0406 17:41:35.825018   547 net.cpp:103] Top shape: 32 256 13 13 (1384448)
I0406 17:41:35.825049   547 net.cpp:67] Creating Layer relu5
I0406 17:41:35.825059   547 net.cpp:394] relu5 <- conv5
I0406 17:41:35.825070   547 net.cpp:345] relu5 -> conv5 (in-place)
I0406 17:41:35.825083   547 net.cpp:96] Setting up relu5
I0406 17:41:35.825095   547 net.cpp:103] Top shape: 32 256 13 13 (1384448)
I0406 17:41:35.825114   547 net.cpp:67] Creating Layer pool5
I0406 17:41:35.825132   547 net.cpp:394] pool5 <- conv5
I0406 17:41:35.825145   547 net.cpp:356] pool5 -> pool5
I0406 17:41:35.825157   547 net.cpp:96] Setting up pool5
I0406 17:41:35.825175   547 net.cpp:103] Top shape: 32 256 6 6 (294912)
I0406 17:41:35.825197   547 net.cpp:67] Creating Layer fc6
I0406 17:41:35.825206   547 net.cpp:394] fc6 <- pool5
I0406 17:41:35.825217   547 net.cpp:356] fc6 -> fc6
I0406 17:41:35.825230   547 net.cpp:96] Setting up fc6
I0406 17:41:37.048444   547 net.cpp:103] Top shape: 32 4096 1 1 (131072)
I0406 17:41:37.048507   547 net.cpp:67] Creating Layer relu6
I0406 17:41:37.048519   547 net.cpp:394] relu6 <- fc6
I0406 17:41:37.048532   547 net.cpp:345] relu6 -> fc6 (in-place)
I0406 17:41:37.048545   547 net.cpp:96] Setting up relu6
I0406 17:41:37.048573   547 net.cpp:103] Top shape: 32 4096 1 1 (131072)
I0406 17:41:37.048590   547 net.cpp:67] Creating Layer drop6
I0406 17:41:37.048599   547 net.cpp:394] drop6 <- fc6
I0406 17:41:37.048610   547 net.cpp:345] drop6 -> fc6 (in-place)
I0406 17:41:37.048621   547 net.cpp:96] Setting up drop6
I0406 17:41:37.048630   547 net.cpp:103] Top shape: 32 4096 1 1 (131072)
I0406 17:41:37.048645   547 net.cpp:67] Creating Layer fc7
I0406 17:41:37.048652   547 net.cpp:394] fc7 <- fc6
I0406 17:41:37.048666   547 net.cpp:356] fc7 -> fc7
I0406 17:41:37.048679   547 net.cpp:96] Setting up fc7
I0406 17:41:37.592875   547 net.cpp:103] Top shape: 32 4096 1 1 (131072)
I0406 17:41:37.592934   547 net.cpp:67] Creating Layer relu7
I0406 17:41:37.592946   547 net.cpp:394] relu7 <- fc7
I0406 17:41:37.593003   547 net.cpp:345] relu7 -> fc7 (in-place)
I0406 17:41:37.593019   547 net.cpp:96] Setting up relu7
I0406 17:41:37.593050   547 net.cpp:103] Top shape: 32 4096 1 1 (131072)
I0406 17:41:37.593070   547 net.cpp:67] Creating Layer drop7
I0406 17:41:37.593080   547 net.cpp:394] drop7 <- fc7
I0406 17:41:37.593091   547 net.cpp:345] drop7 -> fc7 (in-place)
I0406 17:41:37.593106   547 net.cpp:96] Setting up drop7
I0406 17:41:37.593116   547 net.cpp:103] Top shape: 32 4096 1 1 (131072)
I0406 17:41:37.593132   547 net.cpp:67] Creating Layer fc8_deepfashion
I0406 17:41:37.593140   547 net.cpp:394] fc8_deepfashion <- fc7
I0406 17:41:37.593152   547 net.cpp:356] fc8_deepfashion -> fc8_deepfashion
I0406 17:41:37.593166   547 net.cpp:96] Setting up fc8_deepfashion
I0406 17:41:37.599695   547 net.cpp:103] Top shape: 32 48 1 1 (1536)
I0406 17:41:37.599723   547 net.cpp:67] Creating Layer fc8_deepfashion_encode
I0406 17:41:37.599732   547 net.cpp:394] fc8_deepfashion_encode <- fc8_deepfashion
I0406 17:41:37.599743   547 net.cpp:356] fc8_deepfashion_encode -> fc8_deepfashion_encode
I0406 17:41:37.599756   547 net.cpp:96] Setting up fc8_deepfashion_encode
I0406 17:41:37.599771   547 net.cpp:103] Top shape: 32 48 1 1 (1536)
I0406 17:41:37.599787   547 net.cpp:67] Creating Layer fc8_deepfashion_encode_fc8_deepfashion_encode_0_split
I0406 17:41:37.599797   547 net.cpp:394] fc8_deepfashion_encode_fc8_deepfashion_encode_0_split <- fc8_deepfashion_encode
I0406 17:41:37.599807   547 net.cpp:356] fc8_deepfashion_encode_fc8_deepfashion_encode_0_split -> fc8_deepfashion_encode_fc8_deepfashion_encode_0_split_0
I0406 17:41:37.599819   547 net.cpp:356] fc8_deepfashion_encode_fc8_deepfashion_encode_0_split -> fc8_deepfashion_encode_fc8_deepfashion_encode_0_split_1
I0406 17:41:37.599830   547 net.cpp:96] Setting up fc8_deepfashion_encode_fc8_deepfashion_encode_0_split
I0406 17:41:37.599839   547 net.cpp:103] Top shape: 32 48 1 1 (1536)
I0406 17:41:37.599848   547 net.cpp:103] Top shape: 32 48 1 1 (1536)
I0406 17:41:37.599864   547 net.cpp:67] Creating Layer fc8_pascal_label_mod
I0406 17:41:37.599871   547 net.cpp:394] fc8_pascal_label_mod <- fc8_deepfashion_encode_fc8_deepfashion_encode_0_split_0
I0406 17:41:37.599884   547 net.cpp:356] fc8_pascal_label_mod -> fc8_pascal_label_mod
I0406 17:41:37.599895   547 net.cpp:96] Setting up fc8_pascal_label_mod
I0406 17:41:37.599936   547 net.cpp:103] Top shape: 32 10 1 1 (320)
I0406 17:41:37.599970   547 net.cpp:67] Creating Layer fc8_pascal_label_mod_fc8_pascal_label_mod_0_split
I0406 17:41:37.599982   547 net.cpp:394] fc8_pascal_label_mod_fc8_pascal_label_mod_0_split <- fc8_pascal_label_mod
I0406 17:41:37.599992   547 net.cpp:356] fc8_pascal_label_mod_fc8_pascal_label_mod_0_split -> fc8_pascal_label_mod_fc8_pascal_label_mod_0_split_0
I0406 17:41:37.600005   547 net.cpp:356] fc8_pascal_label_mod_fc8_pascal_label_mod_0_split -> fc8_pascal_label_mod_fc8_pascal_label_mod_0_split_1
I0406 17:41:37.600016   547 net.cpp:96] Setting up fc8_pascal_label_mod_fc8_pascal_label_mod_0_split
I0406 17:41:37.600025   547 net.cpp:103] Top shape: 32 10 1 1 (320)
I0406 17:41:37.600033   547 net.cpp:103] Top shape: 32 10 1 1 (320)
I0406 17:41:37.600049   547 net.cpp:67] Creating Layer fc8_pascal_color_mod
I0406 17:41:37.600057   547 net.cpp:394] fc8_pascal_color_mod <- fc8_deepfashion_encode_fc8_deepfashion_encode_0_split_1
I0406 17:41:37.600071   547 net.cpp:356] fc8_pascal_color_mod -> fc8_pascal_color_mod
I0406 17:41:37.600085   547 net.cpp:96] Setting up fc8_pascal_color_mod
I0406 17:41:37.600134   547 net.cpp:103] Top shape: 32 16 1 1 (512)
I0406 17:41:37.600167   547 net.cpp:67] Creating Layer fc8_pascal_color_mod_fc8_pascal_color_mod_0_split
I0406 17:41:37.600177   547 net.cpp:394] fc8_pascal_color_mod_fc8_pascal_color_mod_0_split <- fc8_pascal_color_mod
I0406 17:41:37.600188   547 net.cpp:356] fc8_pascal_color_mod_fc8_pascal_color_mod_0_split -> fc8_pascal_color_mod_fc8_pascal_color_mod_0_split_0
I0406 17:41:37.600201   547 net.cpp:356] fc8_pascal_color_mod_fc8_pascal_color_mod_0_split -> fc8_pascal_color_mod_fc8_pascal_color_mod_0_split_1
I0406 17:41:37.600230   547 net.cpp:96] Setting up fc8_pascal_color_mod_fc8_pascal_color_mod_0_split
I0406 17:41:37.600239   547 net.cpp:103] Top shape: 32 16 1 1 (512)
I0406 17:41:37.600247   547 net.cpp:103] Top shape: 32 16 1 1 (512)
I0406 17:41:37.600262   547 net.cpp:67] Creating Layer loss
I0406 17:41:37.600271   547 net.cpp:394] loss <- fc8_pascal_label_mod_fc8_pascal_label_mod_0_split_0
I0406 17:41:37.600281   547 net.cpp:394] loss <- labels0_sliceL_0_split_0
I0406 17:41:37.600296   547 net.cpp:356] loss -> (automatic)
I0406 17:41:37.600306   547 net.cpp:96] Setting up loss
I0406 17:41:37.600319   547 net.cpp:103] Top shape: 1 1 1 1 (1)
I0406 17:41:37.600328   547 net.cpp:109]     with loss weight 1
I0406 17:41:37.600361   547 net.cpp:67] Creating Layer loss
I0406 17:41:37.600371   547 net.cpp:394] loss <- fc8_pascal_color_mod_fc8_pascal_color_mod_0_split_0
I0406 17:41:37.600381   547 net.cpp:394] loss <- labels1_sliceL_1_split_0
I0406 17:41:37.600395   547 net.cpp:356] loss -> (automatic)
I0406 17:41:37.600409   547 net.cpp:96] Setting up loss
I0406 17:41:37.600425   547 net.cpp:103] Top shape: 1 1 1 1 (1)
I0406 17:41:37.600433   547 net.cpp:109]     with loss weight 1
I0406 17:41:37.600450   547 net.cpp:67] Creating Layer accuracy
I0406 17:41:37.600463   547 net.cpp:394] accuracy <- fc8_pascal_color_mod_fc8_pascal_color_mod_0_split_1
I0406 17:41:37.600473   547 net.cpp:394] accuracy <- labels1_sliceL_1_split_1
I0406 17:41:37.600484   547 net.cpp:356] accuracy -> colorAccuracy
I0406 17:41:37.600497   547 net.cpp:96] Setting up accuracy
I0406 17:41:37.600510   547 net.cpp:103] Top shape: 1 1 1 1 (1)
I0406 17:41:37.600527   547 net.cpp:67] Creating Layer accuracy1
I0406 17:41:37.600535   547 net.cpp:394] accuracy1 <- fc8_pascal_label_mod_fc8_pascal_label_mod_0_split_1
I0406 17:41:37.600544   547 net.cpp:394] accuracy1 <- labels0_sliceL_0_split_1
I0406 17:41:37.600554   547 net.cpp:356] accuracy1 -> labelAccuracy
I0406 17:41:37.600566   547 net.cpp:96] Setting up accuracy1
I0406 17:41:37.600574   547 net.cpp:103] Top shape: 1 1 1 1 (1)
I0406 17:41:37.600584   547 net.cpp:67] Creating Layer silence
I0406 17:41:37.600594   547 net.cpp:394] silence <- random
I0406 17:41:37.600602   547 net.cpp:96] Setting up silence
I0406 17:41:37.600610   547 net.cpp:172] silence does not need backward computation.
I0406 17:41:37.600617   547 net.cpp:172] accuracy1 does not need backward computation.
I0406 17:41:37.600625   547 net.cpp:172] accuracy does not need backward computation.
…
