…
  top: "data"
  top: "random"
  name: "data"
  type: DATA
  data_param {
    source: "/data/deepfashion/color_label_multilabel/color_label_multilabel_TRAIN"
    batch_size: 32
    backend: LMDB
  }
  include {
    phase: TRAIN
  }
  transform_param {
    mirror: true
    crop_size: 227
    mean_file: "../../../data/ilsvrc12/imagenet_mean.binaryproto"
  }
}
layers {
  top: "labels"
  name: "labels"
  type: DATA
  data_param {
    source: "/data/deepfashion/color_label_multilabel/color_label_multilabel_TRAIN_ALT"
    batch_size: 32
    backend: LMDB
  }
  include {
    phase: TRAIN
  }
}
layers {
  bottom: "labels"
  top: "labels0"
  top: "labels1"
  name: "sliceL"
  type: SLICE
  slice_param {
    slice_point: 1
  }
}
layers {
  bottom: "data"
  top: "conv1"
  name: "conv1"
  type: CONVOLUTION
  blobs_lr: 0
  blobs_lr: 0
  weight_decay: 1
  weight_decay: 0
  convolution_param {
    num_output: 96
    kernel_size: 11
    stride: 4
    weight_filler {
      type: "gaussian"
      std: 0.01
    }
    bias_filler {
      type: "constant"
      value: 0
    }
  }
}
layers {
  bottom: "conv1"
  top: "conv1"
  name: "relu1"
  type: RELU
}
layers {
  bottom: "conv1"
  top: "pool1"
  name: "pool1"
  type: POOLING
  pooling_param {
    pool: MAX
    kernel_size: 3
    stride: 2
  }
}
layers {
  bottom: "pool1"
  top: "norm1"
  name: "norm1"
  type: LRN
  lrn_param {
    local_size: 5
    alpha: 0.0001
    beta: 0.75
  }
}
layers {
  bottom: "norm1"
  top: "conv2"
  name: "conv2"
  type: CONVOLUTION
  blobs_lr: 0
  blobs_lr: 0
  weight_decay: 1
  weight_decay: 0
  convolution_param {
    num_output: 256
    pad: 2
    kernel_size: 5
    group: 2
    weight_filler {
      type: "gaussian"
      std: 0.01
    }
    bias_filler {
      type: "constant"
      value: 1
    }
  }
}
layers {
  bottom: "conv2"
  top: "conv2"
  name: "relu2"
  type: RELU
}
layers {
  bottom: "conv2"
  top: "pool2"
  name: "pool2"
  type: POOLING
  pooling_param {
    pool: MAX
    kernel_size: 3
    stride: 2
  }
}
layers {
  bottom: "pool2"
  top: "norm2"
  name: "norm2"
  type: LRN
  lrn_param {
    local_size: 5
    alpha: 0.0001
    beta: 0.75
  }
}
layers {
  bottom: "norm2"
  top: "conv3"
  name: "conv3"
  type: CONVOLUTION
  blobs_lr: 0
  blobs_lr: 0
  weight_decay: 1
  weight_decay: 0
  convolution_param {
    num_output: 384
    pad: 1
    kernel_size: 3
    weight_filler {
      type: "gaussian"
      std: 0.01
    }
    bias_filler {
      type: "constant"
      value: 0
    }
  }
}
layers {
  bottom: "conv3"
  top: "conv3"
  name: "relu3"
  type: RELU
}
layers {
  bottom: "conv3"
  top: "conv4"
  name: "conv4"
  type: CONVOLUTION
  blobs_lr: 1
  blobs_lr: 2
  weight_decay: 1
  weight_decay: 0
  convolution_param {
    num_output: 384
    pad: 1
    kernel_size: 3
    group: 2
    weight_filler {
      type: "gaussian"
      std: 0.01
    }
    bias_filler {
      type: "constant"
      value: 1
    }
  }
}
layers {
  bottom: "conv4"
  top: "conv4"
  name: "relu4"
  type: RELU
}
layers {
  bottom: "conv4"
  top: "conv5"
  name: "conv5"
  type: CONVOLUTION
  blobs_lr: 1
  blobs_lr: 2
  weight_decay: 1
  weight_decay: 0
  convolution_param {
    num_output: 256
    pad: 1
    kernel_size: 3
    group: 2
    weight_filler {
      type: "gaussian"
      std: 0.01
    }
    bias_filler {
      type: "constant"
      value: 1
    }
  }
}
layers {
  bottom: "conv5"
  top: "conv5"
  name: "relu5"
  type: RELU
}
layers {
  bottom: "conv5"
  top: "pool5"
  name: "pool5"
  type: POOLING
  pooling_param {
    pool: MAX
    kernel_size: 3
    stride: 2
  }
}
layers {
  bottom: "pool5"
  top: "fc6"
  name: "fc6"
  type: INNER_PRODUCT
  blobs_lr: 1
  blobs_lr: 2
  weight_decay: 1
  weight_decay: 0
  inner_product_param {
    num_output: 4096
    weight_filler {
      type: "gaussian"
      std: 0.005
    }
    bias_filler {
      type: "constant"
      value: 1
    }
  }
}
layers {
  bottom: "fc6"
  top: "fc6"
  name: "relu6"
  type: RELU
}
layers {
  bottom: "fc6"
  top: "fc6"
  name: "drop6"
  type: DROPOUT
  dropout_param {
    dropout_ratio: 0.5
  }
}
layers {
  bottom: "fc6"
  top: "fc7"
  name: "fc7"
  type: INNER_PRODUCT
  blobs_lr: 1
  blobs_lr: 2
  weight_decay: 1
  weight_decay: 0
  inner_product_param {
    num_output: 4096
    weight_filler {
      type: "gaussian"
      std: 0.005
    }
    bias_filler {
      type: "constant"
      value: 1
    }
  }
}
layers {
  bottom: "fc7"
  top: "fc7"
  name: "relu7"
  type: RELU
}
layers {
  bottom: "fc7"
  top: "fc7"
  name: "drop7"
  type: DROPOUT
  dropout_param {
    dropout_ratio: 0.5
  }
}
layers {
  bottom: "fc7"
  top: "fc8_deepfashion"
  name: "fc8_deepfashion"
  type: INNER_PRODUCT
  blobs_lr: 1
  blobs_lr: 2
  weight_decay: 1
  weight_decay: 0
  inner_product_param {
    num_output: 48
    weight_filler {
      type: "gaussian"
      std: 0.01
    }
    bias_filler {
      type: "constant"
      value: 0
    }
  }
}
layers {
  bottom: "fc8_deepfashion"
  top: "fc8_deepfashion_encode"
  name: "fc8_deepfashion_encode"
  type: SIGMOID
}
layers {
  bottom: "fc8_deepfashion_encode"
  top: "fc8_pascal_label_mod"
  name: "fc8_pascal_label_mod"
  type: INNER_PRODUCT
  blobs_lr: 1
  blobs_lr: 2
  weight_decay: 1
  weight_decay: 0
  inner_product_param {
    num_output: 10
    weight_filler {
      type: "gaussian"
      std: 0.01
    }
    bias_filler {
      type: "constant"
      value: 0
    }
  }
}
layers {
  bottom: "fc8_deepfashion_encode"
  top: "fc8_pascal_color_mod"
  name: "fc8_pascal_color_mod"
  type: INNER_PRODUCT
  blobs_lr: 1
  blobs_lr: 2
  weight_decay: 1
  weight_decay: 0
  inner_product_param {
    num_output: 16
    weight_filler {
      type: "gaussian"
      std: 0.01
    }
    bias_filler {
      type: "constant"
      value: 0
    }
  }
}
layers {
  bottom: "fc8_pascal_label_mod"
  bottom: "labels0"
  name: "loss"
  type: SOFTMAX_LOSS
}
layers {
  bottom: "fc8_pascal_color_mod"
  bottom: "labels1"
  name: "loss"
  type: SOFTMAX_LOSS
}
layers {
  bottom: "random"
  name: "silence"
  type: SILENCE
}
state {
  phase: TRAIN
}
I0406 15:23:57.080122 31641 net.cpp:67] Creating Layer data
I0406 15:23:57.080137 31641 net.cpp:356] data -> data
I0406 15:23:57.080157 31641 net.cpp:356] data -> random
I0406 15:23:57.080173 31641 net.cpp:96] Setting up data
I0406 15:23:57.080273 31641 data_layer.cpp:68] Opening lmdb /data/deepfashion/color_label_multilabel/color_label_multilabel_TRAIN
I0406 15:23:57.080447 31641 data_layer.cpp:128] output data size: 32,3,227,227
I0406 15:23:57.080456 31641 base_data_layer.cpp:36] Loading mean file from../../../data/ilsvrc12/imagenet_mean.binaryproto
I0406 15:23:57.095875 31641 net.cpp:103] Top shape: 32 3 227 227 (4946784)
I0406 15:23:57.095911 31641 net.cpp:103] Top shape: 32 1 1 1 (32)
I0406 15:23:57.095927 31641 net.cpp:67] Creating Layer labels
I0406 15:23:57.095935 31641 net.cpp:356] labels -> labels
I0406 15:23:57.095948 31641 net.cpp:96] Setting up labels
I0406 15:23:57.096043 31641 data_layer.cpp:68] Opening lmdb /data/deepfashion/color_label_multilabel/color_label_multilabel_TRAIN_ALT
I0406 15:23:57.096084 31641 data_layer.cpp:128] output data size: 32,2,1,1
I0406 15:23:57.096135 31641 net.cpp:103] Top shape: 32 2 1 1 (64)
I0406 15:23:57.096153 31641 net.cpp:67] Creating Layer sliceL
I0406 15:23:57.096160 31641 net.cpp:394] sliceL <- labels
I0406 15:23:57.096170 31641 net.cpp:356] sliceL -> labels0
I0406 15:23:57.096179 31641 net.cpp:356] sliceL -> labels1
I0406 15:23:57.096189 31641 net.cpp:96] Setting up sliceL
I0406 15:23:57.096197 31641 net.cpp:103] Top shape: 32 1 1 1 (32)
I0406 15:23:57.096201 31641 net.cpp:103] Top shape: 32 1 1 1 (32)
I0406 15:23:57.096210 31641 net.cpp:67] Creating Layer conv1
I0406 15:23:57.096215 31641 net.cpp:394] conv1 <- data
I0406 15:23:57.096223 31641 net.cpp:356] conv1 -> conv1
I0406 15:23:57.096231 31641 net.cpp:96] Setting up conv1
I0406 15:23:57.118957 31641 net.cpp:103] Top shape: 32 96 55 55 (9292800)
I0406 15:23:57.119014 31641 net.cpp:67] Creating Layer relu1
I0406 15:23:57.119021 31641 net.cpp:394] relu1 <- conv1
I0406 15:23:57.119029 31641 net.cpp:345] relu1 -> conv1 (in-place)
I0406 15:23:57.119042 31641 net.cpp:96] Setting up relu1
I0406 15:23:57.119053 31641 net.cpp:103] Top shape: 32 96 55 55 (9292800)
I0406 15:23:57.119061 31641 net.cpp:67] Creating Layer pool1
I0406 15:23:57.119065 31641 net.cpp:394] pool1 <- conv1
I0406 15:23:57.119071 31641 net.cpp:356] pool1 -> pool1
I0406 15:23:57.119078 31641 net.cpp:96] Setting up pool1
I0406 15:23:57.119101 31641 net.cpp:103] Top shape: 32 96 27 27 (2239488)
I0406 15:23:57.119115 31641 net.cpp:67] Creating Layer norm1
I0406 15:23:57.119120 31641 net.cpp:394] norm1 <- pool1
I0406 15:23:57.119125 31641 net.cpp:356] norm1 -> norm1
I0406 15:23:57.119138 31641 net.cpp:96] Setting up norm1
I0406 15:23:57.119146 31641 net.cpp:103] Top shape: 32 96 27 27 (2239488)
I0406 15:23:57.119154 31641 net.cpp:67] Creating Layer conv2
I0406 15:23:57.119158 31641 net.cpp:394] conv2 <- norm1
I0406 15:23:57.119164 31641 net.cpp:356] conv2 -> conv2
I0406 15:23:57.119173 31641 net.cpp:96] Setting up conv2
I0406 15:23:57.129474 31641 net.cpp:103] Top shape: 32 256 27 27 (5971968)
I0406 15:23:57.129500 31641 net.cpp:67] Creating Layer relu2
I0406 15:23:57.129505 31641 net.cpp:394] relu2 <- conv2
I0406 15:23:57.129511 31641 net.cpp:345] relu2 -> conv2 (in-place)
I0406 15:23:57.129518 31641 net.cpp:96] Setting up relu2
I0406 15:23:57.129524 31641 net.cpp:103] Top shape: 32 256 27 27 (5971968)
I0406 15:23:57.129533 31641 net.cpp:67] Creating Layer pool2
I0406 15:23:57.129537 31641 net.cpp:394] pool2 <- conv2
I0406 15:23:57.129554 31641 net.cpp:356] pool2 -> pool2
I0406 15:23:57.129566 31641 net.cpp:96] Setting up pool2
I0406 15:23:57.129575 31641 net.cpp:103] Top shape: 32 256 13 13 (1384448)
I0406 15:23:57.129583 31641 net.cpp:67] Creating Layer norm2
I0406 15:23:57.129587 31641 net.cpp:394] norm2 <- pool2
I0406 15:23:57.129593 31641 net.cpp:356] norm2 -> norm2
I0406 15:23:57.129598 31641 net.cpp:96] Setting up norm2
I0406 15:23:57.129603 31641 net.cpp:103] Top shape: 32 256 13 13 (1384448)
I0406 15:23:57.129618 31641 net.cpp:67] Creating Layer conv3
I0406 15:23:57.129622 31641 net.cpp:394] conv3 <- norm2
I0406 15:23:57.129628 31641 net.cpp:356] conv3 -> conv3
I0406 15:23:57.129634 31641 net.cpp:96] Setting up conv3
I0406 15:23:57.158535 31641 net.cpp:103] Top shape: 32 384 13 13 (2076672)
I0406 15:23:57.158561 31641 net.cpp:67] Creating Layer relu3
I0406 15:23:57.158567 31641 net.cpp:394] relu3 <- conv3
I0406 15:23:57.158573 31641 net.cpp:345] relu3 -> conv3 (in-place)
I0406 15:23:57.158578 31641 net.cpp:96] Setting up relu3
I0406 15:23:57.158586 31641 net.cpp:103] Top shape: 32 384 13 13 (2076672)
I0406 15:23:57.158596 31641 net.cpp:67] Creating Layer conv4
I0406 15:23:57.158601 31641 net.cpp:394] conv4 <- conv3
I0406 15:23:57.158606 31641 net.cpp:356] conv4 -> conv4
I0406 15:23:57.158612 31641 net.cpp:96] Setting up conv4
I0406 15:23:57.180644 31641 net.cpp:103] Top shape: 32 384 13 13 (2076672)
I0406 15:23:57.180675 31641 net.cpp:67] Creating Layer relu4
I0406 15:23:57.180680 31641 net.cpp:394] relu4 <- conv4
I0406 15:23:57.180708 31641 net.cpp:345] relu4 -> conv4 (in-place)
I0406 15:23:57.180716 31641 net.cpp:96] Setting up relu4
I0406 15:23:57.180722 31641 net.cpp:103] Top shape: 32 384 13 13 (2076672)
I0406 15:23:57.180734 31641 net.cpp:67] Creating Layer conv5
I0406 15:23:57.180742 31641 net.cpp:394] conv5 <- conv4
I0406 15:23:57.180750 31641 net.cpp:356] conv5 -> conv5
I0406 15:23:57.180757 31641 net.cpp:96] Setting up conv5
I0406 15:23:57.195452 31641 net.cpp:103] Top shape: 32 256 13 13 (1384448)
I0406 15:23:57.195483 31641 net.cpp:67] Creating Layer relu5
I0406 15:23:57.195489 31641 net.cpp:394] relu5 <- conv5
I0406 15:23:57.195497 31641 net.cpp:345] relu5 -> conv5 (in-place)
I0406 15:23:57.195503 31641 net.cpp:96] Setting up relu5
I0406 15:23:57.195510 31641 net.cpp:103] Top shape: 32 256 13 13 (1384448)
I0406 15:23:57.195518 31641 net.cpp:67] Creating Layer pool5
I0406 15:23:57.195523 31641 net.cpp:394] pool5 <- conv5
I0406 15:23:57.195528 31641 net.cpp:356] pool5 -> pool5
I0406 15:23:57.195533 31641 net.cpp:96] Setting up pool5
I0406 15:23:57.195541 31641 net.cpp:103] Top shape: 32 256 6 6 (294912)
I0406 15:23:57.195550 31641 net.cpp:67] Creating Layer fc6
I0406 15:23:57.195561 31641 net.cpp:394] fc6 <- pool5
I0406 15:23:57.195569 31641 net.cpp:356] fc6 -> fc6
I0406 15:23:57.195576 31641 net.cpp:96] Setting up fc6
I0406 15:23:58.419209 31641 net.cpp:103] Top shape: 32 4096 1 1 (131072)
I0406 15:23:58.419262 31641 net.cpp:67] Creating Layer relu6
I0406 15:23:58.419270 31641 net.cpp:394] relu6 <- fc6
I0406 15:23:58.419277 31641 net.cpp:345] relu6 -> fc6 (in-place)
I0406 15:23:58.419286 31641 net.cpp:96] Setting up relu6
I0406 15:23:58.419306 31641 net.cpp:103] Top shape: 32 4096 1 1 (131072)
I0406 15:23:58.419312 31641 net.cpp:67] Creating Layer drop6
I0406 15:23:58.419317 31641 net.cpp:394] drop6 <- fc6
I0406 15:23:58.419324 31641 net.cpp:345] drop6 -> fc6 (in-place)
I0406 15:23:58.419329 31641 net.cpp:96] Setting up drop6
I0406 15:23:58.419339 31641 net.cpp:103] Top shape: 32 4096 1 1 (131072)
I0406 15:23:58.419347 31641 net.cpp:67] Creating Layer fc7
I0406 15:23:58.419350 31641 net.cpp:394] fc7 <- fc6
I0406 15:23:58.419358 31641 net.cpp:356] fc7 -> fc7
I0406 15:23:58.419368 31641 net.cpp:96] Setting up fc7
I0406 15:23:58.962697 31641 net.cpp:103] Top shape: 32 4096 1 1 (131072)
I0406 15:23:58.962754 31641 net.cpp:67] Creating Layer relu7
I0406 15:23:58.962761 31641 net.cpp:394] relu7 <- fc7
I0406 15:23:58.962771 31641 net.cpp:345] relu7 -> fc7 (in-place)
I0406 15:23:58.962780 31641 net.cpp:96] Setting up relu7
I0406 15:23:58.962802 31641 net.cpp:103] Top shape: 32 4096 1 1 (131072)
I0406 15:23:58.962810 31641 net.cpp:67] Creating Layer drop7
I0406 15:23:58.962813 31641 net.cpp:394] drop7 <- fc7
I0406 15:23:58.962821 31641 net.cpp:345] drop7 -> fc7 (in-place)
I0406 15:23:58.962826 31641 net.cpp:96] Setting up drop7
I0406 15:23:58.962831 31641 net.cpp:103] Top shape: 32 4096 1 1 (131072)
I0406 15:23:58.962838 31641 net.cpp:67] Creating Layer fc8_deepfashion
I0406 15:23:58.962842 31641 net.cpp:394] fc8_deepfashion <- fc7
I0406 15:23:58.962848 31641 net.cpp:356] fc8_deepfashion -> fc8_deepfashion
I0406 15:23:58.962855 31641 net.cpp:96] Setting up fc8_deepfashion
I0406 15:23:58.969360 31641 net.cpp:103] Top shape: 32 48 1 1 (1536)
I0406 15:23:58.969380 31641 net.cpp:67] Creating Layer fc8_deepfashion_encode
I0406 15:23:58.969386 31641 net.cpp:394] fc8_deepfashion_encode <- fc8_deepfashion
I0406 15:23:58.969393 31641 net.cpp:356] fc8_deepfashion_encode -> fc8_deepfashion_encode
I0406 15:23:58.969401 31641 net.cpp:96] Setting up fc8_deepfashion_encode
I0406 15:23:58.969413 31641 net.cpp:103] Top shape: 32 48 1 1 (1536)
I0406 15:23:58.969420 31641 net.cpp:67] Creating Layer fc8_deepfashion_encode_fc8_deepfashion_encode_0_split
I0406 15:23:58.969424 31641 net.cpp:394] fc8_deepfashion_encode_fc8_deepfashion_encode_0_split <- fc8_deepfashion_encode
I0406 15:23:58.969430 31641 net.cpp:356] fc8_deepfashion_encode_fc8_deepfashion_encode_0_split -> fc8_deepfashion_encode_fc8_deepfashion_encode_0_split_0
I0406 15:23:58.969466 31641 net.cpp:356] fc8_deepfashion_encode_fc8_deepfashion_encode_0_split -> fc8_deepfashion_encode_fc8_deepfashion_encode_0_split_1
I0406 15:23:58.969475 31641 net.cpp:96] Setting up fc8_deepfashion_encode_fc8_deepfashion_encode_0_split
I0406 15:23:58.969481 31641 net.cpp:103] Top shape: 32 48 1 1 (1536)
I0406 15:23:58.969486 31641 net.cpp:103] Top shape: 32 48 1 1 (1536)
I0406 15:23:58.969494 31641 net.cpp:67] Creating Layer fc8_pascal_label_mod
I0406 15:23:58.969498 31641 net.cpp:394] fc8_pascal_label_mod <- fc8_deepfashion_encode_fc8_deepfashion_encode_0_split_0
I0406 15:23:58.969504 31641 net.cpp:356] fc8_pascal_label_mod -> fc8_pascal_label_mod
I0406 15:23:58.969511 31641 net.cpp:96] Setting up fc8_pascal_label_mod
I0406 15:23:58.969537 31641 net.cpp:103] Top shape: 32 10 1 1 (320)
I0406 15:23:58.969552 31641 net.cpp:67] Creating Layer fc8_pascal_color_mod
I0406 15:23:58.969558 31641 net.cpp:394] fc8_pascal_color_mod <- fc8_deepfashion_encode_fc8_deepfashion_encode_0_split_1
I0406 15:23:58.969566 31641 net.cpp:356] fc8_pascal_color_mod -> fc8_pascal_color_mod
I0406 15:23:58.969573 31641 net.cpp:96] Setting up fc8_pascal_color_mod
I0406 15:23:58.969609 31641 net.cpp:103] Top shape: 32 16 1 1 (512)
I0406 15:23:58.969624 31641 net.cpp:67] Creating Layer loss
I0406 15:23:58.969629 31641 net.cpp:394] loss <- fc8_pascal_label_mod
I0406 15:23:58.969633 31641 net.cpp:394] loss <- labels0
I0406 15:23:58.969641 31641 net.cpp:356] loss -> (automatic)
I0406 15:23:58.969646 31641 net.cpp:96] Setting up loss
I0406 15:23:58.969666 31641 net.cpp:103] Top shape: 1 1 1 1 (1)
I0406 15:23:58.969671 31641 net.cpp:109]     with loss weight 1
I0406 15:23:58.969725 31641 net.cpp:67] Creating Layer loss
I0406 15:23:58.969732 31641 net.cpp:394] loss <- fc8_pascal_color_mod
I0406 15:23:58.969737 31641 net.cpp:394] loss <- labels1
I0406 15:23:58.969741 31641 net.cpp:356] loss -> (automatic)
I0406 15:23:58.969746 31641 net.cpp:96] Setting up loss
I0406 15:23:58.969753 31641 net.cpp:103] Top shape: 1 1 1 1 (1)
I0406 15:23:58.969756 31641 net.cpp:109]     with loss weight 1
I0406 15:23:58.969765 31641 net.cpp:67] Creating Layer silence
I0406 15:23:58.969769 31641 net.cpp:394] silence <- random
I0406 15:23:58.969782 31641 net.cpp:96] Setting up silence
I0406 15:23:58.969786 31641 net.cpp:172] silence does not need backward computation.
I0406 15:23:58.969790 31641 net.cpp:170] loss needs backward computation.
…
layers {
  top: "data"
  top: "random"
  name: "data"
  type: DATA
  data_param {
    source: "/data/deepfashion/color_label_multilabel/color_label_multilabel_test"
    batch_size: 32
    backend: LMDB
  }
  include {
    phase: TEST
  }
  transform_param {
    mirror: true
    crop_size: 227
    mean_file: "../../../data/ilsvrc12/imagenet_mean.binaryproto"
  }
}
layers {
  top: "labels"
  name: "labels"
  type: DATA
  data_param {
    source: "/data/deepfashion/color_label_multilabel/color_label_multilabel_test_alt"
    batch_size: 32
    backend: LMDB
  }
  include {
    phase: TEST
  }
}
layers {
  bottom: "labels"
  top: "labels0"
  top: "labels1"
  name: "sliceL"
  type: SLICE
  slice_param {
    slice_point: 1
  }
}
layers {
  bottom: "data"
  top: "conv1"
  name: "conv1"
  type: CONVOLUTION
  blobs_lr: 0
  blobs_lr: 0
  weight_decay: 1
  weight_decay: 0
  convolution_param {
    num_output: 96
    kernel_size: 11
    stride: 4
    weight_filler {
      type: "gaussian"
      std: 0.01
    }
    bias_filler {
      type: "constant"
      value: 0
    }
  }
}
layers {
  bottom: "conv1"
  top: "conv1"
  name: "relu1"
  type: RELU
}
layers {
  bottom: "conv1"
  top: "pool1"
  name: "pool1"
  type: POOLING
  pooling_param {
    pool: MAX
    kernel_size: 3
    stride: 2
  }
}
layers {
  bottom: "pool1"
  top: "norm1"
  name: "norm1"
  type: LRN
  lrn_param {
    local_size: 5
    alpha: 0.0001
    beta: 0.75
  }
}
layers {
  bottom: "norm1"
  top: "conv2"
  name: "conv2"
  type: CONVOLUTION
  blobs_lr: 0
  blobs_lr: 0
  weight_decay: 1
  weight_decay: 0
  convolution_param {
    num_output: 256
    pad: 2
    kernel_size: 5
    group: 2
    weight_filler {
      type: "gaussian"
      std: 0.01
    }
    bias_filler {
      type: "constant"
      value: 1
    }
  }
}
layers {
  bottom: "conv2"
  top: "conv2"
  name: "relu2"
  type: RELU
}
layers {
  bottom: "conv2"
  top: "pool2"
  name: "pool2"
  type: POOLING
  pooling_param {
    pool: MAX
    kernel_size: 3
    stride: 2
  }
}
layers {
  bottom: "pool2"
  top: "norm2"
  name: "norm2"
  type: LRN
  lrn_param {
    local_size: 5
    alpha: 0.0001
    beta: 0.75
  }
}
layers {
  bottom: "norm2"
  top: "conv3"
  name: "conv3"
  type: CONVOLUTION
  blobs_lr: 0
  blobs_lr: 0
  weight_decay: 1
  weight_decay: 0
  convolution_param {
    num_output: 384
    pad: 1
    kernel_size: 3
    weight_filler {
      type: "gaussian"
      std: 0.01
    }
    bias_filler {
      type: "constant"
      value: 0
    }
  }
}
layers {
  bottom: "conv3"
  top: "conv3"
  name: "relu3"
  type: RELU
}
layers {
  bottom: "conv3"
  top: "conv4"
  name: "conv4"
  type: CONVOLUTION
  blobs_lr: 1
  blobs_lr: 2
  weight_decay: 1
  weight_decay: 0
  convolution_param {
    num_output: 384
    pad: 1
    kernel_size: 3
    group: 2
    weight_filler {
      type: "gaussian"
      std: 0.01
    }
    bias_filler {
      type: "constant"
      value: 1
    }
  }
}
layers {
  bottom: "conv4"
  top: "conv4"
  name: "relu4"
  type: RELU
}
layers {
  bottom: "conv4"
  top: "conv5"
  name: "conv5"
  type: CONVOLUTION
  blobs_lr: 1
  blobs_lr: 2
  weight_decay: 1
  weight_decay: 0
  convolution_param {
    num_output: 256
    pad: 1
    kernel_size: 3
    group: 2
    weight_filler {
      type: "gaussian"
      std: 0.01
    }
    bias_filler {
      type: "constant"
      value: 1
    }
  }
}
layers {
  bottom: "conv5"
  top: "conv5"
  name: "relu5"
  type: RELU
}
layers {
  bottom: "conv5"
  top: "pool5"
  name: "pool5"
  type: POOLING
  pooling_param {
    pool: MAX
    kernel_size: 3
    stride: 2
  }
}
layers {
  bottom: "pool5"
  top: "fc6"
  name: "fc6"
  type: INNER_PRODUCT
  blobs_lr: 1
  blobs_lr: 2
  weight_decay: 1
  weight_decay: 0
  inner_product_param {
    num_output: 4096
    weight_filler {
      type: "gaussian"
      std: 0.005
    }
    bias_filler {
      type: "constant"
      value: 1
    }
  }
}
layers {
  bottom: "fc6"
  top: "fc6"
  name: "relu6"
  type: RELU
}
layers {
  bottom: "fc6"
  top: "fc6"
  name: "drop6"
  type: DROPOUT
  dropout_param {
    dropout_ratio: 0.5
  }
}
layers {
  bottom: "fc6"
  top: "fc7"
  name: "fc7"
  type: INNER_PRODUCT
  blobs_lr: 1
  blobs_lr: 2
  weight_decay: 1
  weight_decay: 0
  inner_product_param {
    num_output: 4096
    weight_filler {
      type: "gaussian"
      std: 0.005
    }
    bias_filler {
      type: "constant"
      value: 1
    }
  }
}
layers {
  bottom: "fc7"
  top: "fc7"
  name: "relu7"
  type: RELU
}
layers {
  bottom: "fc7"
  top: "fc7"
  name: "drop7"
  type: DROPOUT
  dropout_param {
    dropout_ratio: 0.5
  }
}
layers {
  bottom: "fc7"
  top: "fc8_deepfashion"
  name: "fc8_deepfashion"
  type: INNER_PRODUCT
  blobs_lr: 1
  blobs_lr: 2
  weight_decay: 1
  weight_decay: 0
  inner_product_param {
    num_output: 48
    weight_filler {
      type: "gaussian"
      std: 0.01
    }
    bias_filler {
      type: "constant"
      value: 0
    }
  }
}
layers {
  bottom: "fc8_deepfashion"
  top: "fc8_deepfashion_encode"
  name: "fc8_deepfashion_encode"
  type: SIGMOID
}
layers {
  bottom: "fc8_deepfashion_encode"
  top: "fc8_pascal_label_mod"
  name: "fc8_pascal_label_mod"
  type: INNER_PRODUCT
  blobs_lr: 1
  blobs_lr: 2
  weight_decay: 1
  weight_decay: 0
  inner_product_param {
    num_output: 10
    weight_filler {
      type: "gaussian"
      std: 0.01
    }
    bias_filler {
      type: "constant"
      value: 0
    }
  }
}
layers {
  bottom: "fc8_deepfashion_encode"
  top: "fc8_pascal_color_mod"
  name: "fc8_pascal_color_mod"
  type: INNER_PRODUCT
  blobs_lr: 1
  blobs_lr: 2
  weight_decay: 1
  weight_decay: 0
  inner_product_param {
    num_output: 16
    weight_filler {
      type: "gaussian"
      std: 0.01
    }
    bias_filler {
      type: "constant"
      value: 0
    }
  }
}
layers {
  bottom: "fc8_pascal_label_mod"
  bottom: "labels0"
  name: "loss"
  type: SOFTMAX_LOSS
}
layers {
  bottom: "fc8_pascal_color_mod"
  bottom: "labels1"
  name: "loss"
  type: SOFTMAX_LOSS
}
layers {
  bottom: "fc8_pascal_color_mod"
  bottom: "labels1"
  top: "colorAccuracy"
  name: "accuracy"
  type: ACCURACY
  include {
    phase: TEST
  }
}
layers {
  bottom: "fc8_pascal_label_mod"
  bottom: "labels0"
  top: "labelAccuracy"
  name: "accuracy1"
  type: ACCURACY
  include {
    phase: TEST
  }
}
layers {
  bottom: "random"
  name: "silence"
  type: SILENCE
}
state {
  phase: TEST
}
I0406 15:23:58.971164 31641 net.cpp:67] Creating Layer data
I0406 15:23:58.971174 31641 net.cpp:356] data -> data
I0406 15:23:58.971182 31641 net.cpp:356] data -> random
I0406 15:23:58.971189 31641 net.cpp:96] Setting up data
I0406 15:23:58.971246 31641 data_layer.cpp:68] Opening lmdb /data/deepfashion/color_label_multilabel/color_label_multilabel_test
I0406 15:23:58.971422 31641 data_layer.cpp:128] output data size: 32,3,227,227
I0406 15:23:58.971431 31641 base_data_layer.cpp:36] Loading mean file from../../../data/ilsvrc12/imagenet_mean.binaryproto
I0406 15:23:58.978512 31641 net.cpp:103] Top shape: 32 3 227 227 (4946784)
I0406 15:23:58.978544 31641 net.cpp:103] Top shape: 32 1 1 1 (32)
I0406 15:23:58.978560 31641 net.cpp:67] Creating Layer labels
I0406 15:23:58.978566 31641 net.cpp:356] labels -> labels
I0406 15:23:58.978579 31641 net.cpp:96] Setting up labels
I0406 15:23:58.978651 31641 data_layer.cpp:68] Opening lmdb /data/deepfashion/color_label_multilabel/color_label_multilabel_test_alt
I0406 15:23:58.978672 31641 data_layer.cpp:128] output data size: 32,2,1,1
I0406 15:23:58.978703 31641 net.cpp:103] Top shape: 32 2 1 1 (64)
I0406 15:23:58.978718 31641 net.cpp:67] Creating Layer sliceL
I0406 15:23:58.978724 31641 net.cpp:394] sliceL <- labels
I0406 15:23:58.978730 31641 net.cpp:356] sliceL -> labels0
I0406 15:23:58.978739 31641 net.cpp:356] sliceL -> labels1
I0406 15:23:58.978745 31641 net.cpp:96] Setting up sliceL
I0406 15:23:58.978751 31641 net.cpp:103] Top shape: 32 1 1 1 (32)
I0406 15:23:58.978756 31641 net.cpp:103] Top shape: 32 1 1 1 (32)
I0406 15:23:58.978762 31641 net.cpp:67] Creating Layer labels0_sliceL_0_split
I0406 15:23:58.978766 31641 net.cpp:394] labels0_sliceL_0_split <- labels0
I0406 15:23:58.978772 31641 net.cpp:356] labels0_sliceL_0_split -> labels0_sliceL_0_split_0
I0406 15:23:58.978778 31641 net.cpp:356] labels0_sliceL_0_split -> labels0_sliceL_0_split_1
I0406 15:23:58.978785 31641 net.cpp:96] Setting up labels0_sliceL_0_split
I0406 15:23:58.978790 31641 net.cpp:103] Top shape: 32 1 1 1 (32)
I0406 15:23:58.978793 31641 net.cpp:103] Top shape: 32 1 1 1 (32)
I0406 15:23:58.978799 31641 net.cpp:67] Creating Layer labels1_sliceL_1_split
I0406 15:23:58.978803 31641 net.cpp:394] labels1_sliceL_1_split <- labels1
I0406 15:23:58.978809 31641 net.cpp:356] labels1_sliceL_1_split -> labels1_sliceL_1_split_0
I0406 15:23:58.978816 31641 net.cpp:356] labels1_sliceL_1_split -> labels1_sliceL_1_split_1
I0406 15:23:58.978821 31641 net.cpp:96] Setting up labels1_sliceL_1_split
I0406 15:23:58.978826 31641 net.cpp:103] Top shape: 32 1 1 1 (32)
I0406 15:23:58.978831 31641 net.cpp:103] Top shape: 32 1 1 1 (32)
I0406 15:23:58.978837 31641 net.cpp:67] Creating Layer conv1
I0406 15:23:58.978842 31641 net.cpp:394] conv1 <- data
I0406 15:23:58.978847 31641 net.cpp:356] conv1 -> conv1
I0406 15:23:58.978853 31641 net.cpp:96] Setting up conv1
I0406 15:23:58.980074 31641 net.cpp:103] Top shape: 32 96 55 55 (9292800)
I0406 15:23:58.980101 31641 net.cpp:67] Creating Layer relu1
I0406 15:23:58.980108 31641 net.cpp:394] relu1 <- conv1
I0406 15:23:58.980113 31641 net.cpp:345] relu1 -> conv1 (in-place)
I0406 15:23:58.980119 31641 net.cpp:96] Setting up relu1
I0406 15:23:58.980126 31641 net.cpp:103] Top shape: 32 96 55 55 (9292800)
I0406 15:23:58.980134 31641 net.cpp:67] Creating Layer pool1
I0406 15:23:58.980137 31641 net.cpp:394] pool1 <- conv1
I0406 15:23:58.980144 31641 net.cpp:356] pool1 -> pool1
I0406 15:23:58.980149 31641 net.cpp:96] Setting up pool1
I0406 15:23:58.980159 31641 net.cpp:103] Top shape: 32 96 27 27 (2239488)
I0406 15:23:58.980166 31641 net.cpp:67] Creating Layer norm1
I0406 15:23:58.980175 31641 net.cpp:394] norm1 <- pool1
I0406 15:23:58.980180 31641 net.cpp:356] norm1 -> norm1
I0406 15:23:58.980186 31641 net.cpp:96] Setting up norm1
I0406 15:23:58.980191 31641 net.cpp:103] Top shape: 32 96 27 27 (2239488)
I0406 15:23:58.980198 31641 net.cpp:67] Creating Layer conv2
I0406 15:23:58.980203 31641 net.cpp:394] conv2 <- norm1
I0406 15:23:58.980209 31641 net.cpp:356] conv2 -> conv2
I0406 15:23:58.980214 31641 net.cpp:96] Setting up conv2
I0406 15:23:58.990423 31641 net.cpp:103] Top shape: 32 256 27 27 (5971968)
I0406 15:23:58.990464 31641 net.cpp:67] Creating Layer relu2
I0406 15:23:58.990471 31641 net.cpp:394] relu2 <- conv2
I0406 15:23:58.990478 31641 net.cpp:345] relu2 -> conv2 (in-place)
I0406 15:23:58.990485 31641 net.cpp:96] Setting up relu2
I0406 15:23:58.990512 31641 net.cpp:103] Top shape: 32 256 27 27 (5971968)
I0406 15:23:58.990521 31641 net.cpp:67] Creating Layer pool2
I0406 15:23:58.990525 31641 net.cpp:394] pool2 <- conv2
I0406 15:23:58.990531 31641 net.cpp:356] pool2 -> pool2
I0406 15:23:58.990538 31641 net.cpp:96] Setting up pool2
I0406 15:23:58.990546 31641 net.cpp:103] Top shape: 32 256 13 13 (1384448)
I0406 15:23:58.990553 31641 net.cpp:67] Creating Layer norm2
I0406 15:23:58.990557 31641 net.cpp:394] norm2 <- pool2
I0406 15:23:58.990564 31641 net.cpp:356] norm2 -> norm2
I0406 15:23:58.990571 31641 net.cpp:96] Setting up norm2
I0406 15:23:58.990574 31641 net.cpp:103] Top shape: 32 256 13 13 (1384448)
I0406 15:23:58.990583 31641 net.cpp:67] Creating Layer conv3
I0406 15:23:58.990587 31641 net.cpp:394] conv3 <- norm2
I0406 15:23:58.990593 31641 net.cpp:356] conv3 -> conv3
I0406 15:23:58.990599 31641 net.cpp:96] Setting up conv3
I0406 15:23:59.019655 31641 net.cpp:103] Top shape: 32 384 13 13 (2076672)
I0406 15:23:59.019698 31641 net.cpp:67] Creating Layer relu3
I0406 15:23:59.019704 31641 net.cpp:394] relu3 <- conv3
I0406 15:23:59.019714 31641 net.cpp:345] relu3 -> conv3 (in-place)
I0406 15:23:59.019722 31641 net.cpp:96] Setting up relu3
I0406 15:23:59.019729 31641 net.cpp:103] Top shape: 32 384 13 13 (2076672)
I0406 15:23:59.019737 31641 net.cpp:67] Creating Layer conv4
I0406 15:23:59.019743 31641 net.cpp:394] conv4 <- conv3
I0406 15:23:59.019749 31641 net.cpp:356] conv4 -> conv4
I0406 15:23:59.019759 31641 net.cpp:96] Setting up conv4
I0406 15:23:59.041676 31641 net.cpp:103] Top shape: 32 384 13 13 (2076672)
I0406 15:23:59.041699 31641 net.cpp:67] Creating Layer relu4
I0406 15:23:59.041704 31641 net.cpp:394] relu4 <- conv4
I0406 15:23:59.041712 31641 net.cpp:345] relu4 -> conv4 (in-place)
I0406 15:23:59.041718 31641 net.cpp:96] Setting up relu4
I0406 15:23:59.041725 31641 net.cpp:103] Top shape: 32 384 13 13 (2076672)
I0406 15:23:59.041733 31641 net.cpp:67] Creating Layer conv5
I0406 15:23:59.041736 31641 net.cpp:394] conv5 <- conv4
I0406 15:23:59.041744 31641 net.cpp:356] conv5 -> conv5
I0406 15:23:59.041751 31641 net.cpp:96] Setting up conv5
I0406 15:23:59.056577 31641 net.cpp:103] Top shape: 32 256 13 13 (1384448)
I0406 15:23:59.056603 31641 net.cpp:67] Creating Layer relu5
I0406 15:23:59.056609 31641 net.cpp:394] relu5 <- conv5
I0406 15:23:59.056614 31641 net.cpp:345] relu5 -> conv5 (in-place)
I0406 15:23:59.056622 31641 net.cpp:96] Setting up relu5
I0406 15:23:59.056627 31641 net.cpp:103] Top shape: 32 256 13 13 (1384448)
I0406 15:23:59.056637 31641 net.cpp:67] Creating Layer pool5
I0406 15:23:59.056641 31641 net.cpp:394] pool5 <- conv5
I0406 15:23:59.056646 31641 net.cpp:356] pool5 -> pool5
I0406 15:23:59.056653 31641 net.cpp:96] Setting up pool5
I0406 15:23:59.056663 31641 net.cpp:103] Top shape: 32 256 6 6 (294912)
I0406 15:23:59.056669 31641 net.cpp:67] Creating Layer fc6
I0406 15:23:59.056674 31641 net.cpp:394] fc6 <- pool5
I0406 15:23:59.056679 31641 net.cpp:356] fc6 -> fc6
I0406 15:23:59.056685 31641 net.cpp:96] Setting up fc6
I0406 15:24:00.282233 31641 net.cpp:103] Top shape: 32 4096 1 1 (131072)
I0406 15:24:00.282299 31641 net.cpp:67] Creating Layer relu6
I0406 15:24:00.282310 31641 net.cpp:394] relu6 <- fc6
I0406 15:24:00.282317 31641 net.cpp:345] relu6 -> fc6 (in-place)
I0406 15:24:00.282325 31641 net.cpp:96] Setting up relu6
I0406 15:24:00.282356 31641 net.cpp:103] Top shape: 32 4096 1 1 (131072)
I0406 15:24:00.282364 31641 net.cpp:67] Creating Layer drop6
I0406 15:24:00.282368 31641 net.cpp:394] drop6 <- fc6
I0406 15:24:00.282374 31641 net.cpp:345] drop6 -> fc6 (in-place)
I0406 15:24:00.282380 31641 net.cpp:96] Setting up drop6
I0406 15:24:00.282385 31641 net.cpp:103] Top shape: 32 4096 1 1 (131072)
I0406 15:24:00.282392 31641 net.cpp:67] Creating Layer fc7
I0406 15:24:00.282397 31641 net.cpp:394] fc7 <- fc6
I0406 15:24:00.282404 31641 net.cpp:356] fc7 -> fc7
I0406 15:24:00.282412 31641 net.cpp:96] Setting up fc7
I0406 15:24:00.825986 31641 net.cpp:103] Top shape: 32 4096 1 1 (131072)
I0406 15:24:00.826045 31641 net.cpp:67] Creating Layer relu7
I0406 15:24:00.826092 31641 net.cpp:394] relu7 <- fc7
I0406 15:24:00.826104 31641 net.cpp:345] relu7 -> fc7 (in-place)
I0406 15:24:00.826113 31641 net.cpp:96] Setting up relu7
I0406 15:24:00.826134 31641 net.cpp:103] Top shape: 32 4096 1 1 (131072)
I0406 15:24:00.826148 31641 net.cpp:67] Creating Layer drop7
I0406 15:24:00.826153 31641 net.cpp:394] drop7 <- fc7
I0406 15:24:00.826158 31641 net.cpp:345] drop7 -> fc7 (in-place)
I0406 15:24:00.826164 31641 net.cpp:96] Setting up drop7
I0406 15:24:00.826169 31641 net.cpp:103] Top shape: 32 4096 1 1 (131072)
I0406 15:24:00.826175 31641 net.cpp:67] Creating Layer fc8_deepfashion
I0406 15:24:00.826179 31641 net.cpp:394] fc8_deepfashion <- fc7
I0406 15:24:00.826195 31641 net.cpp:356] fc8_deepfashion -> fc8_deepfashion
I0406 15:24:00.826203 31641 net.cpp:96] Setting up fc8_deepfashion
I0406 15:24:00.832705 31641 net.cpp:103] Top shape: 32 48 1 1 (1536)
I0406 15:24:00.832727 31641 net.cpp:67] Creating Layer fc8_deepfashion_encode
I0406 15:24:00.832732 31641 net.cpp:394] fc8_deepfashion_encode <- fc8_deepfashion
I0406 15:24:00.832738 31641 net.cpp:356] fc8_deepfashion_encode -> fc8_deepfashion_encode
I0406 15:24:00.832744 31641 net.cpp:96] Setting up fc8_deepfashion_encode
I0406 15:24:00.832752 31641 net.cpp:103] Top shape: 32 48 1 1 (1536)
I0406 15:24:00.832759 31641 net.cpp:67] Creating Layer fc8_deepfashion_encode_fc8_deepfashion_encode_0_split
I0406 15:24:00.832763 31641 net.cpp:394] fc8_deepfashion_encode_fc8_deepfashion_encode_0_split <- fc8_deepfashion_encode
I0406 15:24:00.832772 31641 net.cpp:356] fc8_deepfashion_encode_fc8_deepfashion_encode_0_split -> fc8_deepfashion_encode_fc8_deepfashion_encode_0_split_0
I0406 15:24:00.832778 31641 net.cpp:356] fc8_deepfashion_encode_fc8_deepfashion_encode_0_split -> fc8_deepfashion_encode_fc8_deepfashion_encode_0_split_1
I0406 15:24:00.832784 31641 net.cpp:96] Setting up fc8_deepfashion_encode_fc8_deepfashion_encode_0_split
I0406 15:24:00.832789 31641 net.cpp:103] Top shape: 32 48 1 1 (1536)
I0406 15:24:00.832793 31641 net.cpp:103] Top shape: 32 48 1 1 (1536)
I0406 15:24:00.832801 31641 net.cpp:67] Creating Layer fc8_pascal_label_mod
I0406 15:24:00.832805 31641 net.cpp:394] fc8_pascal_label_mod <- fc8_deepfashion_encode_fc8_deepfashion_encode_0_split_0
I0406 15:24:00.832811 31641 net.cpp:356] fc8_pascal_label_mod -> fc8_pascal_label_mod
I0406 15:24:00.832818 31641 net.cpp:96] Setting up fc8_pascal_label_mod
I0406 15:24:00.832845 31641 net.cpp:103] Top shape: 32 10 1 1 (320)
I0406 15:24:00.832875 31641 net.cpp:67] Creating Layer fc8_pascal_label_mod_fc8_pascal_label_mod_0_split
I0406 15:24:00.832880 31641 net.cpp:394] fc8_pascal_label_mod_fc8_pascal_label_mod_0_split <- fc8_pascal_label_mod
I0406 15:24:00.832885 31641 net.cpp:356] fc8_pascal_label_mod_fc8_pascal_label_mod_0_split -> fc8_pascal_label_mod_fc8_pascal_label_mod_0_split_0
I0406 15:24:00.832892 31641 net.cpp:356] fc8_pascal_label_mod_fc8_pascal_label_mod_0_split -> fc8_pascal_label_mod_fc8_pascal_label_mod_0_split_1
I0406 15:24:00.832898 31641 net.cpp:96] Setting up fc8_pascal_label_mod_fc8_pascal_label_mod_0_split
I0406 15:24:00.832902 31641 net.cpp:103] Top shape: 32 10 1 1 (320)
I0406 15:24:00.832906 31641 net.cpp:103] Top shape: 32 10 1 1 (320)
I0406 15:24:00.832914 31641 net.cpp:67] Creating Layer fc8_pascal_color_mod
I0406 15:24:00.832918 31641 net.cpp:394] fc8_pascal_color_mod <- fc8_deepfashion_encode_fc8_deepfashion_encode_0_split_1
I0406 15:24:00.832924 31641 net.cpp:356] fc8_pascal_color_mod -> fc8_pascal_color_mod
I0406 15:24:00.832931 31641 net.cpp:96] Setting up fc8_pascal_color_mod
I0406 15:24:00.832965 31641 net.cpp:103] Top shape: 32 16 1 1 (512)
I0406 15:24:00.832986 31641 net.cpp:67] Creating Layer fc8_pascal_color_mod_fc8_pascal_color_mod_0_split
I0406 15:24:00.832991 31641 net.cpp:394] fc8_pascal_color_mod_fc8_pascal_color_mod_0_split <- fc8_pascal_color_mod
I0406 15:24:00.832996 31641 net.cpp:356] fc8_pascal_color_mod_fc8_pascal_color_mod_0_split -> fc8_pascal_color_mod_fc8_pascal_color_mod_0_split_0
I0406 15:24:00.833017 31641 net.cpp:356] fc8_pascal_color_mod_fc8_pascal_color_mod_0_split -> fc8_pascal_color_mod_fc8_pascal_color_mod_0_split_1
I0406 15:24:00.833024 31641 net.cpp:96] Setting up fc8_pascal_color_mod_fc8_pascal_color_mod_0_split
I0406 15:24:00.833029 31641 net.cpp:103] Top shape: 32 16 1 1 (512)
I0406 15:24:00.833032 31641 net.cpp:103] Top shape: 32 16 1 1 (512)
I0406 15:24:00.833040 31641 net.cpp:67] Creating Layer loss
I0406 15:24:00.833045 31641 net.cpp:394] loss <- fc8_pascal_label_mod_fc8_pascal_label_mod_0_split_0
I0406 15:24:00.833050 31641 net.cpp:394] loss <- labels0_sliceL_0_split_0
I0406 15:24:00.833058 31641 net.cpp:356] loss -> (automatic)
I0406 15:24:00.833063 31641 net.cpp:96] Setting up loss
I0406 15:24:00.833071 31641 net.cpp:103] Top shape: 1 1 1 1 (1)
I0406 15:24:00.833076 31641 net.cpp:109]     with loss weight 1
I0406 15:24:00.833096 31641 net.cpp:67] Creating Layer loss
I0406 15:24:00.833101 31641 net.cpp:394] loss <- fc8_pascal_color_mod_fc8_pascal_color_mod_0_split_0
I0406 15:24:00.833104 31641 net.cpp:394] loss <- labels1_sliceL_1_split_0
I0406 15:24:00.833112 31641 net.cpp:356] loss -> (automatic)
I0406 15:24:00.833119 31641 net.cpp:96] Setting up loss
I0406 15:24:00.833132 31641 net.cpp:103] Top shape: 1 1 1 1 (1)
I0406 15:24:00.833137 31641 net.cpp:109]     with loss weight 1
I0406 15:24:00.833145 31641 net.cpp:67] Creating Layer accuracy
I0406 15:24:00.833149 31641 net.cpp:394] accuracy <- fc8_pascal_color_mod_fc8_pascal_color_mod_0_split_1
I0406 15:24:00.833154 31641 net.cpp:394] accuracy <- labels1_sliceL_1_split_1
I0406 15:24:00.833159 31641 net.cpp:356] accuracy -> colorAccuracy
I0406 15:24:00.833165 31641 net.cpp:96] Setting up accuracy
I0406 15:24:00.833174 31641 net.cpp:103] Top shape: 1 1 1 1 (1)
I0406 15:24:00.833183 31641 net.cpp:67] Creating Layer accuracy1
I0406 15:24:00.833186 31641 net.cpp:394] accuracy1 <- fc8_pascal_label_mod_fc8_pascal_label_mod_0_split_1
I0406 15:24:00.833191 31641 net.cpp:394] accuracy1 <- labels0_sliceL_0_split_1
I0406 15:24:00.833196 31641 net.cpp:356] accuracy1 -> labelAccuracy
I0406 15:24:00.833202 31641 net.cpp:96] Setting up accuracy1
I0406 15:24:00.833206 31641 net.cpp:103] Top shape: 1 1 1 1 (1)
I0406 15:24:00.833211 31641 net.cpp:67] Creating Layer silence
I0406 15:24:00.833215 31641 net.cpp:394] silence <- random
I0406 15:24:00.833220 31641 net.cpp:96] Setting up silence
I0406 15:24:00.833223 31641 net.cpp:172] silence does not need backward computation.
I0406 15:24:00.833227 31641 net.cpp:172] accuracy1 does not need backward computation.
I0406 15:24:00.833230 31641 net.cpp:172] accuracy does not need backward computation.
…
