…
  top: "data"
  top: "random"
  name: "data"
  type: DATA
  data_param {
    source: "/data/deepfashion/color_label_multilabel/color_label_multilabel_TRAIN"
    batch_size: 32
    backend: LMDB
  }
  include {
    phase: TRAIN
  }
  transform_param {
    mirror: true
    crop_size: 227
    mean_file: "../../../data/ilsvrc12/imagenet_mean.binaryproto"
  }
}
layers {
  top: "labels"
  name: "labels"
  type: DATA
  data_param {
    source: "/data/deepfashion/color_label_multilabel/color_label_multilabel_TRAIN_ALT"
    batch_size: 32
    backend: LMDB
  }
  include {
    phase: TRAIN
  }
}
layers {
  bottom: "labels"
  top: "labels0"
  top: "labels1"
  name: "sliceL"
  type: SLICE
  slice_param {
    slice_point: 1
  }
}
layers {
  bottom: "data"
  top: "conv1"
  name: "conv1"
  type: CONVOLUTION
  blobs_lr: 0
  blobs_lr: 0
  weight_decay: 1
  weight_decay: 0
  convolution_param {
    num_output: 96
    kernel_size: 11
    stride: 4
    weight_filler {
      type: "gaussian"
      std: 0.01
    }
    bias_filler {
      type: "constant"
      value: 0
    }
  }
}
layers {
  bottom: "conv1"
  top: "conv1"
  name: "relu1"
  type: RELU
}
layers {
  bottom: "conv1"
  top: "pool1"
  name: "pool1"
  type: POOLING
  pooling_param {
    pool: MAX
    kernel_size: 3
    stride: 2
  }
}
layers {
  bottom: "pool1"
  top: "norm1"
  name: "norm1"
  type: LRN
  lrn_param {
    local_size: 5
    alpha: 0.0001
    beta: 0.75
  }
}
layers {
  bottom: "norm1"
  top: "conv2"
  name: "conv2"
  type: CONVOLUTION
  blobs_lr: 0
  blobs_lr: 0
  weight_decay: 1
  weight_decay: 0
  convolution_param {
    num_output: 256
    pad: 2
    kernel_size: 5
    group: 2
    weight_filler {
      type: "gaussian"
      std: 0.01
    }
    bias_filler {
      type: "constant"
      value: 1
    }
  }
}
layers {
  bottom: "conv2"
  top: "conv2"
  name: "relu2"
  type: RELU
}
layers {
  bottom: "conv2"
  top: "pool2"
  name: "pool2"
  type: POOLING
  pooling_param {
    pool: MAX
    kernel_size: 3
    stride: 2
  }
}
layers {
  bottom: "pool2"
  top: "norm2"
  name: "norm2"
  type: LRN
  lrn_param {
    local_size: 5
    alpha: 0.0001
    beta: 0.75
  }
}
layers {
  bottom: "norm2"
  top: "conv3"
  name: "conv3"
  type: CONVOLUTION
  blobs_lr: 0
  blobs_lr: 0
  weight_decay: 1
  weight_decay: 0
  convolution_param {
    num_output: 384
    pad: 1
    kernel_size: 3
    weight_filler {
      type: "gaussian"
      std: 0.01
    }
    bias_filler {
      type: "constant"
      value: 0
    }
  }
}
layers {
  bottom: "conv3"
  top: "conv3"
  name: "relu3"
  type: RELU
}
layers {
  bottom: "conv3"
  top: "conv4"
  name: "conv4"
  type: CONVOLUTION
  blobs_lr: 0
  blobs_lr: 0
  weight_decay: 1
  weight_decay: 0
  convolution_param {
    num_output: 384
    pad: 1
    kernel_size: 3
    group: 2
    weight_filler {
      type: "gaussian"
      std: 0.01
    }
    bias_filler {
      type: "constant"
      value: 1
    }
  }
}
layers {
  bottom: "conv4"
  top: "conv4"
  name: "relu4"
  type: RELU
}
layers {
  bottom: "conv4"
  top: "conv5"
  name: "conv5"
  type: CONVOLUTION
  blobs_lr: 0
  blobs_lr: 0
  weight_decay: 1
  weight_decay: 0
  convolution_param {
    num_output: 256
    pad: 1
    kernel_size: 3
    group: 2
    weight_filler {
      type: "gaussian"
      std: 0.01
    }
    bias_filler {
      type: "constant"
      value: 1
    }
  }
}
layers {
  bottom: "conv5"
  top: "conv5"
  name: "relu5"
  type: RELU
}
layers {
  bottom: "conv5"
  top: "pool5"
  name: "pool5"
  type: POOLING
  pooling_param {
    pool: MAX
    kernel_size: 3
    stride: 2
  }
}
layers {
  bottom: "pool5"
  top: "fc6"
  name: "fc6"
  type: INNER_PRODUCT
  blobs_lr: 0
  blobs_lr: 0
  weight_decay: 1
  weight_decay: 0
  inner_product_param {
    num_output: 4096
    weight_filler {
      type: "gaussian"
      std: 0.005
    }
    bias_filler {
      type: "constant"
      value: 1
    }
  }
}
layers {
  bottom: "fc6"
  top: "fc6"
  name: "relu6"
  type: RELU
}
layers {
  bottom: "fc6"
  top: "fc6"
  name: "drop6"
  type: DROPOUT
  dropout_param {
    dropout_ratio: 0.5
  }
}
layers {
  bottom: "fc6"
  top: "fc7"
  name: "fc7"
  type: INNER_PRODUCT
  blobs_lr: 0
  blobs_lr: 0
  weight_decay: 1
  weight_decay: 0
  inner_product_param {
    num_output: 4096
    weight_filler {
      type: "gaussian"
      std: 0.005
    }
    bias_filler {
      type: "constant"
      value: 1
    }
  }
}
layers {
  bottom: "fc7"
  top: "fc7"
  name: "relu7"
  type: RELU
}
layers {
  bottom: "fc7"
  top: "fc7"
  name: "drop7"
  type: DROPOUT
  dropout_param {
    dropout_ratio: 0.5
  }
}
layers {
  bottom: "fc7"
  top: "fc8_deepfashion"
  name: "fc8_deepfashion"
  type: INNER_PRODUCT
  blobs_lr: 1
  blobs_lr: 2
  weight_decay: 1
  weight_decay: 0
  inner_product_param {
    num_output: 48
    weight_filler {
      type: "gaussian"
      std: 0.01
    }
    bias_filler {
      type: "constant"
      value: 0
    }
  }
}
layers {
  bottom: "fc8_deepfashion"
  top: "fc8_deepfashion_encode"
  name: "fc8_deepfashion_encode"
  type: SIGMOID
}
layers {
  bottom: "fc8_deepfashion_encode"
  top: "fc8_pascal_label_mod"
  name: "fc8_pascal_label_mod"
  type: INNER_PRODUCT
  blobs_lr: 1
  blobs_lr: 2
  weight_decay: 1
  weight_decay: 0
  inner_product_param {
    num_output: 10
    weight_filler {
      type: "gaussian"
      std: 0.01
    }
    bias_filler {
      type: "constant"
      value: 0
    }
  }
}
layers {
  bottom: "fc8_deepfashion_encode"
  top: "fc8_pascal_color_mod"
  name: "fc8_pascal_color_mod"
  type: INNER_PRODUCT
  blobs_lr: 1
  blobs_lr: 2
  weight_decay: 1
  weight_decay: 0
  inner_product_param {
    num_output: 16
    weight_filler {
      type: "gaussian"
      std: 0.01
    }
    bias_filler {
      type: "constant"
      value: 0
    }
  }
}
layers {
  bottom: "fc8_pascal_label_mod"
  bottom: "labels0"
  name: "loss"
  type: SOFTMAX_LOSS
}
layers {
  bottom: "fc8_pascal_color_mod"
  bottom: "labels1"
  name: "loss"
  type: SOFTMAX_LOSS
}
layers {
  bottom: "random"
  name: "silence"
  type: SILENCE
}
state {
  phase: TRAIN
}
I0406 10:15:26.837708 31706 net.cpp:67] Creating Layer data
I0406 10:15:26.837721 31706 net.cpp:356] data -> data
I0406 10:15:26.837739 31706 net.cpp:356] data -> random
I0406 10:15:26.837755 31706 net.cpp:96] Setting up data
I0406 10:15:26.837857 31706 data_layer.cpp:68] Opening lmdb /data/deepfashion/color_label_multilabel/color_label_multilabel_TRAIN
I0406 10:15:26.838035 31706 data_layer.cpp:128] output data size: 32,3,227,227
I0406 10:15:26.838043 31706 base_data_layer.cpp:36] Loading mean file from../../../data/ilsvrc12/imagenet_mean.binaryproto
I0406 10:15:26.845336 31706 net.cpp:103] Top shape: 32 3 227 227 (4946784)
I0406 10:15:26.845371 31706 net.cpp:103] Top shape: 32 1 1 1 (32)
I0406 10:15:26.845389 31706 net.cpp:67] Creating Layer labels
I0406 10:15:26.845397 31706 net.cpp:356] labels -> labels
I0406 10:15:26.845410 31706 net.cpp:96] Setting up labels
I0406 10:15:26.845512 31706 data_layer.cpp:68] Opening lmdb /data/deepfashion/color_label_multilabel/color_label_multilabel_TRAIN_ALT
I0406 10:15:26.845556 31706 data_layer.cpp:128] output data size: 32,2,1,1
I0406 10:15:26.845610 31706 net.cpp:103] Top shape: 32 2 1 1 (64)
I0406 10:15:26.845630 31706 net.cpp:67] Creating Layer sliceL
I0406 10:15:26.845636 31706 net.cpp:394] sliceL <- labels
I0406 10:15:26.845650 31706 net.cpp:356] sliceL -> labels0
I0406 10:15:26.845659 31706 net.cpp:356] sliceL -> labels1
I0406 10:15:26.845669 31706 net.cpp:96] Setting up sliceL
I0406 10:15:26.845679 31706 net.cpp:103] Top shape: 32 1 1 1 (32)
I0406 10:15:26.845684 31706 net.cpp:103] Top shape: 32 1 1 1 (32)
I0406 10:15:26.845693 31706 net.cpp:67] Creating Layer conv1
I0406 10:15:26.845698 31706 net.cpp:394] conv1 <- data
I0406 10:15:26.845708 31706 net.cpp:356] conv1 -> conv1
I0406 10:15:26.845717 31706 net.cpp:96] Setting up conv1
I0406 10:15:26.869310 31706 net.cpp:103] Top shape: 32 96 55 55 (9292800)
I0406 10:15:26.869367 31706 net.cpp:67] Creating Layer relu1
I0406 10:15:26.869374 31706 net.cpp:394] relu1 <- conv1
I0406 10:15:26.869384 31706 net.cpp:345] relu1 -> conv1 (in-place)
I0406 10:15:26.869392 31706 net.cpp:96] Setting up relu1
I0406 10:15:26.869405 31706 net.cpp:103] Top shape: 32 96 55 55 (9292800)
I0406 10:15:26.869412 31706 net.cpp:67] Creating Layer pool1
I0406 10:15:26.869416 31706 net.cpp:394] pool1 <- conv1
I0406 10:15:26.869422 31706 net.cpp:356] pool1 -> pool1
I0406 10:15:26.869431 31706 net.cpp:96] Setting up pool1
I0406 10:15:26.869454 31706 net.cpp:103] Top shape: 32 96 27 27 (2239488)
I0406 10:15:26.869469 31706 net.cpp:67] Creating Layer norm1
I0406 10:15:26.869474 31706 net.cpp:394] norm1 <- pool1
I0406 10:15:26.869480 31706 net.cpp:356] norm1 -> norm1
I0406 10:15:26.869488 31706 net.cpp:96] Setting up norm1
I0406 10:15:26.869495 31706 net.cpp:103] Top shape: 32 96 27 27 (2239488)
I0406 10:15:26.869504 31706 net.cpp:67] Creating Layer conv2
I0406 10:15:26.869516 31706 net.cpp:394] conv2 <- norm1
I0406 10:15:26.869524 31706 net.cpp:356] conv2 -> conv2
I0406 10:15:26.869531 31706 net.cpp:96] Setting up conv2
I0406 10:15:26.880163 31706 net.cpp:103] Top shape: 32 256 27 27 (5971968)
I0406 10:15:26.880193 31706 net.cpp:67] Creating Layer relu2
I0406 10:15:26.880199 31706 net.cpp:394] relu2 <- conv2
I0406 10:15:26.880208 31706 net.cpp:345] relu2 -> conv2 (in-place)
I0406 10:15:26.880214 31706 net.cpp:96] Setting up relu2
I0406 10:15:26.880223 31706 net.cpp:103] Top shape: 32 256 27 27 (5971968)
I0406 10:15:26.880229 31706 net.cpp:67] Creating Layer pool2
I0406 10:15:26.880234 31706 net.cpp:394] pool2 <- conv2
I0406 10:15:26.880240 31706 net.cpp:356] pool2 -> pool2
I0406 10:15:26.880247 31706 net.cpp:96] Setting up pool2
I0406 10:15:26.880255 31706 net.cpp:103] Top shape: 32 256 13 13 (1384448)
I0406 10:15:26.880267 31706 net.cpp:67] Creating Layer norm2
I0406 10:15:26.880271 31706 net.cpp:394] norm2 <- pool2
I0406 10:15:26.880277 31706 net.cpp:356] norm2 -> norm2
I0406 10:15:26.880283 31706 net.cpp:96] Setting up norm2
I0406 10:15:26.880287 31706 net.cpp:103] Top shape: 32 256 13 13 (1384448)
I0406 10:15:26.880297 31706 net.cpp:67] Creating Layer conv3
I0406 10:15:26.880301 31706 net.cpp:394] conv3 <- norm2
I0406 10:15:26.880307 31706 net.cpp:356] conv3 -> conv3
I0406 10:15:26.880314 31706 net.cpp:96] Setting up conv3
I0406 10:15:26.910254 31706 net.cpp:103] Top shape: 32 384 13 13 (2076672)
I0406 10:15:26.910290 31706 net.cpp:67] Creating Layer relu3
I0406 10:15:26.910295 31706 net.cpp:394] relu3 <- conv3
I0406 10:15:26.910302 31706 net.cpp:345] relu3 -> conv3 (in-place)
I0406 10:15:26.910310 31706 net.cpp:96] Setting up relu3
I0406 10:15:26.910316 31706 net.cpp:103] Top shape: 32 384 13 13 (2076672)
I0406 10:15:26.910326 31706 net.cpp:67] Creating Layer conv4
I0406 10:15:26.910329 31706 net.cpp:394] conv4 <- conv3
I0406 10:15:26.910337 31706 net.cpp:356] conv4 -> conv4
I0406 10:15:26.910346 31706 net.cpp:96] Setting up conv4
I0406 10:15:26.933343 31706 net.cpp:103] Top shape: 32 384 13 13 (2076672)
I0406 10:15:26.933377 31706 net.cpp:67] Creating Layer relu4
I0406 10:15:26.933383 31706 net.cpp:394] relu4 <- conv4
I0406 10:15:26.933413 31706 net.cpp:345] relu4 -> conv4 (in-place)
I0406 10:15:26.933423 31706 net.cpp:96] Setting up relu4
I0406 10:15:26.933430 31706 net.cpp:103] Top shape: 32 384 13 13 (2076672)
I0406 10:15:26.933441 31706 net.cpp:67] Creating Layer conv5
I0406 10:15:26.933447 31706 net.cpp:394] conv5 <- conv4
I0406 10:15:26.933454 31706 net.cpp:356] conv5 -> conv5
I0406 10:15:26.933461 31706 net.cpp:96] Setting up conv5
I0406 10:15:26.949251 31706 net.cpp:103] Top shape: 32 256 13 13 (1384448)
I0406 10:15:26.949285 31706 net.cpp:67] Creating Layer relu5
I0406 10:15:26.949291 31706 net.cpp:394] relu5 <- conv5
I0406 10:15:26.949297 31706 net.cpp:345] relu5 -> conv5 (in-place)
I0406 10:15:26.949303 31706 net.cpp:96] Setting up relu5
I0406 10:15:26.949311 31706 net.cpp:103] Top shape: 32 256 13 13 (1384448)
I0406 10:15:26.949321 31706 net.cpp:67] Creating Layer pool5
I0406 10:15:26.949324 31706 net.cpp:394] pool5 <- conv5
I0406 10:15:26.949331 31706 net.cpp:356] pool5 -> pool5
I0406 10:15:26.949337 31706 net.cpp:96] Setting up pool5
I0406 10:15:26.949347 31706 net.cpp:103] Top shape: 32 256 6 6 (294912)
I0406 10:15:26.949358 31706 net.cpp:67] Creating Layer fc6
I0406 10:15:26.949363 31706 net.cpp:394] fc6 <- pool5
I0406 10:15:26.949371 31706 net.cpp:356] fc6 -> fc6
I0406 10:15:26.949378 31706 net.cpp:96] Setting up fc6
I0406 10:15:28.175218 31706 net.cpp:103] Top shape: 32 4096 1 1 (131072)
I0406 10:15:28.175276 31706 net.cpp:67] Creating Layer relu6
I0406 10:15:28.175282 31706 net.cpp:394] relu6 <- fc6
I0406 10:15:28.175292 31706 net.cpp:345] relu6 -> fc6 (in-place)
I0406 10:15:28.175300 31706 net.cpp:96] Setting up relu6
I0406 10:15:28.175323 31706 net.cpp:103] Top shape: 32 4096 1 1 (131072)
I0406 10:15:28.175330 31706 net.cpp:67] Creating Layer drop6
I0406 10:15:28.175335 31706 net.cpp:394] drop6 <- fc6
I0406 10:15:28.175343 31706 net.cpp:345] drop6 -> fc6 (in-place)
I0406 10:15:28.175349 31706 net.cpp:96] Setting up drop6
I0406 10:15:28.175360 31706 net.cpp:103] Top shape: 32 4096 1 1 (131072)
I0406 10:15:28.175372 31706 net.cpp:67] Creating Layer fc7
I0406 10:15:28.175377 31706 net.cpp:394] fc7 <- fc6
I0406 10:15:28.175384 31706 net.cpp:356] fc7 -> fc7
I0406 10:15:28.175395 31706 net.cpp:96] Setting up fc7
I0406 10:15:28.717627 31706 net.cpp:103] Top shape: 32 4096 1 1 (131072)
I0406 10:15:28.717680 31706 net.cpp:67] Creating Layer relu7
I0406 10:15:28.717689 31706 net.cpp:394] relu7 <- fc7
I0406 10:15:28.717699 31706 net.cpp:345] relu7 -> fc7 (in-place)
I0406 10:15:28.717708 31706 net.cpp:96] Setting up relu7
I0406 10:15:28.717732 31706 net.cpp:103] Top shape: 32 4096 1 1 (131072)
I0406 10:15:28.717739 31706 net.cpp:67] Creating Layer drop7
I0406 10:15:28.717743 31706 net.cpp:394] drop7 <- fc7
I0406 10:15:28.717749 31706 net.cpp:345] drop7 -> fc7 (in-place)
I0406 10:15:28.717756 31706 net.cpp:96] Setting up drop7
I0406 10:15:28.717761 31706 net.cpp:103] Top shape: 32 4096 1 1 (131072)
I0406 10:15:28.717775 31706 net.cpp:67] Creating Layer fc8_deepfashion
I0406 10:15:28.717782 31706 net.cpp:394] fc8_deepfashion <- fc7
I0406 10:15:28.717789 31706 net.cpp:356] fc8_deepfashion -> fc8_deepfashion
I0406 10:15:28.717797 31706 net.cpp:96] Setting up fc8_deepfashion
I0406 10:15:28.724308 31706 net.cpp:103] Top shape: 32 48 1 1 (1536)
I0406 10:15:28.724331 31706 net.cpp:67] Creating Layer fc8_deepfashion_encode
I0406 10:15:28.724336 31706 net.cpp:394] fc8_deepfashion_encode <- fc8_deepfashion
I0406 10:15:28.724344 31706 net.cpp:356] fc8_deepfashion_encode -> fc8_deepfashion_encode
I0406 10:15:28.724350 31706 net.cpp:96] Setting up fc8_deepfashion_encode
I0406 10:15:28.724364 31706 net.cpp:103] Top shape: 32 48 1 1 (1536)
I0406 10:15:28.724372 31706 net.cpp:67] Creating Layer fc8_deepfashion_encode_fc8_deepfashion_encode_0_split
I0406 10:15:28.724377 31706 net.cpp:394] fc8_deepfashion_encode_fc8_deepfashion_encode_0_split <- fc8_deepfashion_encode
I0406 10:15:28.724383 31706 net.cpp:356] fc8_deepfashion_encode_fc8_deepfashion_encode_0_split -> fc8_deepfashion_encode_fc8_deepfashion_encode_0_split_0
I0406 10:15:28.724421 31706 net.cpp:356] fc8_deepfashion_encode_fc8_deepfashion_encode_0_split -> fc8_deepfashion_encode_fc8_deepfashion_encode_0_split_1
I0406 10:15:28.724429 31706 net.cpp:96] Setting up fc8_deepfashion_encode_fc8_deepfashion_encode_0_split
I0406 10:15:28.724436 31706 net.cpp:103] Top shape: 32 48 1 1 (1536)
I0406 10:15:28.724442 31706 net.cpp:103] Top shape: 32 48 1 1 (1536)
I0406 10:15:28.724448 31706 net.cpp:67] Creating Layer fc8_pascal_label_mod
I0406 10:15:28.724452 31706 net.cpp:394] fc8_pascal_label_mod <- fc8_deepfashion_encode_fc8_deepfashion_encode_0_split_0
I0406 10:15:28.724460 31706 net.cpp:356] fc8_pascal_label_mod -> fc8_pascal_label_mod
I0406 10:15:28.724467 31706 net.cpp:96] Setting up fc8_pascal_label_mod
I0406 10:15:28.724494 31706 net.cpp:103] Top shape: 32 10 1 1 (320)
I0406 10:15:28.724516 31706 net.cpp:67] Creating Layer fc8_pascal_color_mod
I0406 10:15:28.724526 31706 net.cpp:394] fc8_pascal_color_mod <- fc8_deepfashion_encode_fc8_deepfashion_encode_0_split_1
I0406 10:15:28.724536 31706 net.cpp:356] fc8_pascal_color_mod -> fc8_pascal_color_mod
I0406 10:15:28.724544 31706 net.cpp:96] Setting up fc8_pascal_color_mod
I0406 10:15:28.724578 31706 net.cpp:103] Top shape: 32 16 1 1 (512)
I0406 10:15:28.724594 31706 net.cpp:67] Creating Layer loss
I0406 10:15:28.724599 31706 net.cpp:394] loss <- fc8_pascal_label_mod
I0406 10:15:28.724604 31706 net.cpp:394] loss <- labels0
I0406 10:15:28.724611 31706 net.cpp:356] loss -> (automatic)
I0406 10:15:28.724616 31706 net.cpp:96] Setting up loss
I0406 10:15:28.724629 31706 net.cpp:103] Top shape: 1 1 1 1 (1)
I0406 10:15:28.724642 31706 net.cpp:109]     with loss weight 1
I0406 10:15:28.724689 31706 net.cpp:67] Creating Layer loss
I0406 10:15:28.724694 31706 net.cpp:394] loss <- fc8_pascal_color_mod
I0406 10:15:28.724699 31706 net.cpp:394] loss <- labels1
I0406 10:15:28.724704 31706 net.cpp:356] loss -> (automatic)
I0406 10:15:28.724709 31706 net.cpp:96] Setting up loss
I0406 10:15:28.724715 31706 net.cpp:103] Top shape: 1 1 1 1 (1)
I0406 10:15:28.724720 31706 net.cpp:109]     with loss weight 1
I0406 10:15:28.724726 31706 net.cpp:67] Creating Layer silence
I0406 10:15:28.724730 31706 net.cpp:394] silence <- random
I0406 10:15:28.724735 31706 net.cpp:96] Setting up silence
I0406 10:15:28.724738 31706 net.cpp:172] silence does not need backward computation.
I0406 10:15:28.724742 31706 net.cpp:170] loss needs backward computation.
…
layers {
  top: "data"
  top: "random"
  name: "data"
  type: DATA
  data_param {
    source: "/data/deepfashion/color_label_multilabel/color_label_multilabel_test"
    batch_size: 32
    backend: LMDB
  }
  include {
    phase: TEST
  }
  transform_param {
    mirror: true
    crop_size: 227
    mean_file: "../../../data/ilsvrc12/imagenet_mean.binaryproto"
  }
}
layers {
  top: "labels"
  name: "labels"
  type: DATA
  data_param {
    source: "/data/deepfashion/color_label_multilabel/color_label_multilabel_test_alt"
    batch_size: 32
    backend: LMDB
  }
  include {
    phase: TEST
  }
}
layers {
  bottom: "labels"
  top: "labels0"
  top: "labels1"
  name: "sliceL"
  type: SLICE
  slice_param {
    slice_point: 1
  }
}
layers {
  bottom: "data"
  top: "conv1"
  name: "conv1"
  type: CONVOLUTION
  blobs_lr: 0
  blobs_lr: 0
  weight_decay: 1
  weight_decay: 0
  convolution_param {
    num_output: 96
    kernel_size: 11
    stride: 4
    weight_filler {
      type: "gaussian"
      std: 0.01
    }
    bias_filler {
      type: "constant"
      value: 0
    }
  }
}
layers {
  bottom: "conv1"
  top: "conv1"
  name: "relu1"
  type: RELU
}
layers {
  bottom: "conv1"
  top: "pool1"
  name: "pool1"
  type: POOLING
  pooling_param {
    pool: MAX
    kernel_size: 3
    stride: 2
  }
}
layers {
  bottom: "pool1"
  top: "norm1"
  name: "norm1"
  type: LRN
  lrn_param {
    local_size: 5
    alpha: 0.0001
    beta: 0.75
  }
}
layers {
  bottom: "norm1"
  top: "conv2"
  name: "conv2"
  type: CONVOLUTION
  blobs_lr: 0
  blobs_lr: 0
  weight_decay: 1
  weight_decay: 0
  convolution_param {
    num_output: 256
    pad: 2
    kernel_size: 5
    group: 2
    weight_filler {
      type: "gaussian"
      std: 0.01
    }
    bias_filler {
      type: "constant"
      value: 1
    }
  }
}
layers {
  bottom: "conv2"
  top: "conv2"
  name: "relu2"
  type: RELU
}
layers {
  bottom: "conv2"
  top: "pool2"
  name: "pool2"
  type: POOLING
  pooling_param {
    pool: MAX
    kernel_size: 3
    stride: 2
  }
}
layers {
  bottom: "pool2"
  top: "norm2"
  name: "norm2"
  type: LRN
  lrn_param {
    local_size: 5
    alpha: 0.0001
    beta: 0.75
  }
}
layers {
  bottom: "norm2"
  top: "conv3"
  name: "conv3"
  type: CONVOLUTION
  blobs_lr: 0
  blobs_lr: 0
  weight_decay: 1
  weight_decay: 0
  convolution_param {
    num_output: 384
    pad: 1
    kernel_size: 3
    weight_filler {
      type: "gaussian"
      std: 0.01
    }
    bias_filler {
      type: "constant"
      value: 0
    }
  }
}
layers {
  bottom: "conv3"
  top: "conv3"
  name: "relu3"
  type: RELU
}
layers {
  bottom: "conv3"
  top: "conv4"
  name: "conv4"
  type: CONVOLUTION
  blobs_lr: 0
  blobs_lr: 0
  weight_decay: 1
  weight_decay: 0
  convolution_param {
    num_output: 384
    pad: 1
    kernel_size: 3
    group: 2
    weight_filler {
      type: "gaussian"
      std: 0.01
    }
    bias_filler {
      type: "constant"
      value: 1
    }
  }
}
layers {
  bottom: "conv4"
  top: "conv4"
  name: "relu4"
  type: RELU
}
layers {
  bottom: "conv4"
  top: "conv5"
  name: "conv5"
  type: CONVOLUTION
  blobs_lr: 0
  blobs_lr: 0
  weight_decay: 1
  weight_decay: 0
  convolution_param {
    num_output: 256
    pad: 1
    kernel_size: 3
    group: 2
    weight_filler {
      type: "gaussian"
      std: 0.01
    }
    bias_filler {
      type: "constant"
      value: 1
    }
  }
}
layers {
  bottom: "conv5"
  top: "conv5"
  name: "relu5"
  type: RELU
}
layers {
  bottom: "conv5"
  top: "pool5"
  name: "pool5"
  type: POOLING
  pooling_param {
    pool: MAX
    kernel_size: 3
    stride: 2
  }
}
layers {
  bottom: "pool5"
  top: "fc6"
  name: "fc6"
  type: INNER_PRODUCT
  blobs_lr: 0
  blobs_lr: 0
  weight_decay: 1
  weight_decay: 0
  inner_product_param {
    num_output: 4096
    weight_filler {
      type: "gaussian"
      std: 0.005
    }
    bias_filler {
      type: "constant"
      value: 1
    }
  }
}
layers {
  bottom: "fc6"
  top: "fc6"
  name: "relu6"
  type: RELU
}
layers {
  bottom: "fc6"
  top: "fc6"
  name: "drop6"
  type: DROPOUT
  dropout_param {
    dropout_ratio: 0.5
  }
}
layers {
  bottom: "fc6"
  top: "fc7"
  name: "fc7"
  type: INNER_PRODUCT
  blobs_lr: 0
  blobs_lr: 0
  weight_decay: 1
  weight_decay: 0
  inner_product_param {
    num_output: 4096
    weight_filler {
      type: "gaussian"
      std: 0.005
    }
    bias_filler {
      type: "constant"
      value: 1
    }
  }
}
layers {
  bottom: "fc7"
  top: "fc7"
  name: "relu7"
  type: RELU
}
layers {
  bottom: "fc7"
  top: "fc7"
  name: "drop7"
  type: DROPOUT
  dropout_param {
    dropout_ratio: 0.5
  }
}
layers {
  bottom: "fc7"
  top: "fc8_deepfashion"
  name: "fc8_deepfashion"
  type: INNER_PRODUCT
  blobs_lr: 1
  blobs_lr: 2
  weight_decay: 1
  weight_decay: 0
  inner_product_param {
    num_output: 48
    weight_filler {
      type: "gaussian"
      std: 0.01
    }
    bias_filler {
      type: "constant"
      value: 0
    }
  }
}
layers {
  bottom: "fc8_deepfashion"
  top: "fc8_deepfashion_encode"
  name: "fc8_deepfashion_encode"
  type: SIGMOID
}
layers {
  bottom: "fc8_deepfashion_encode"
  top: "fc8_pascal_label_mod"
  name: "fc8_pascal_label_mod"
  type: INNER_PRODUCT
  blobs_lr: 1
  blobs_lr: 2
  weight_decay: 1
  weight_decay: 0
  inner_product_param {
    num_output: 10
    weight_filler {
      type: "gaussian"
      std: 0.01
    }
    bias_filler {
      type: "constant"
      value: 0
    }
  }
}
layers {
  bottom: "fc8_deepfashion_encode"
  top: "fc8_pascal_color_mod"
  name: "fc8_pascal_color_mod"
  type: INNER_PRODUCT
  blobs_lr: 1
  blobs_lr: 2
  weight_decay: 1
  weight_decay: 0
  inner_product_param {
    num_output: 16
    weight_filler {
      type: "gaussian"
      std: 0.01
    }
    bias_filler {
      type: "constant"
      value: 0
    }
  }
}
layers {
  bottom: "fc8_pascal_label_mod"
  bottom: "labels0"
  name: "loss"
  type: SOFTMAX_LOSS
}
layers {
  bottom: "fc8_pascal_color_mod"
  bottom: "labels1"
  name: "loss"
  type: SOFTMAX_LOSS
}
layers {
  bottom: "fc8_pascal_color_mod"
  bottom: "labels1"
  top: "colorAccuracy"
  name: "accuracy"
  type: ACCURACY
  include {
    phase: TEST
  }
}
layers {
  bottom: "fc8_pascal_label_mod"
  bottom: "labels0"
  top: "labelAccuracy"
  name: "accuracy1"
  type: ACCURACY
  include {
    phase: TEST
  }
}
layers {
  bottom: "random"
  name: "silence"
  type: SILENCE
}
state {
  phase: TEST
}
I0406 10:15:28.726161 31706 net.cpp:67] Creating Layer data
I0406 10:15:28.726168 31706 net.cpp:356] data -> data
I0406 10:15:28.726182 31706 net.cpp:356] data -> random
I0406 10:15:28.726191 31706 net.cpp:96] Setting up data
I0406 10:15:28.726261 31706 data_layer.cpp:68] Opening lmdb /data/deepfashion/color_label_multilabel/color_label_multilabel_test
I0406 10:15:28.726443 31706 data_layer.cpp:128] output data size: 32,3,227,227
I0406 10:15:28.726450 31706 base_data_layer.cpp:36] Loading mean file from../../../data/ilsvrc12/imagenet_mean.binaryproto
I0406 10:15:28.733681 31706 net.cpp:103] Top shape: 32 3 227 227 (4946784)
I0406 10:15:28.733714 31706 net.cpp:103] Top shape: 32 1 1 1 (32)
I0406 10:15:28.733734 31706 net.cpp:67] Creating Layer labels
I0406 10:15:28.733742 31706 net.cpp:356] labels -> labels
I0406 10:15:28.733755 31706 net.cpp:96] Setting up labels
I0406 10:15:28.733829 31706 data_layer.cpp:68] Opening lmdb /data/deepfashion/color_label_multilabel/color_label_multilabel_test_alt
I0406 10:15:28.733853 31706 data_layer.cpp:128] output data size: 32,2,1,1
I0406 10:15:28.733889 31706 net.cpp:103] Top shape: 32 2 1 1 (64)
I0406 10:15:28.733906 31706 net.cpp:67] Creating Layer sliceL
I0406 10:15:28.733911 31706 net.cpp:394] sliceL <- labels
I0406 10:15:28.733919 31706 net.cpp:356] sliceL -> labels0
I0406 10:15:28.733927 31706 net.cpp:356] sliceL -> labels1
I0406 10:15:28.733935 31706 net.cpp:96] Setting up sliceL
I0406 10:15:28.733942 31706 net.cpp:103] Top shape: 32 1 1 1 (32)
I0406 10:15:28.733947 31706 net.cpp:103] Top shape: 32 1 1 1 (32)
I0406 10:15:28.733953 31706 net.cpp:67] Creating Layer labels0_sliceL_0_split
I0406 10:15:28.733958 31706 net.cpp:394] labels0_sliceL_0_split <- labels0
I0406 10:15:28.733963 31706 net.cpp:356] labels0_sliceL_0_split -> labels0_sliceL_0_split_0
I0406 10:15:28.733969 31706 net.cpp:356] labels0_sliceL_0_split -> labels0_sliceL_0_split_1
I0406 10:15:28.733976 31706 net.cpp:96] Setting up labels0_sliceL_0_split
I0406 10:15:28.733981 31706 net.cpp:103] Top shape: 32 1 1 1 (32)
I0406 10:15:28.733985 31706 net.cpp:103] Top shape: 32 1 1 1 (32)
I0406 10:15:28.733991 31706 net.cpp:67] Creating Layer labels1_sliceL_1_split
I0406 10:15:28.733995 31706 net.cpp:394] labels1_sliceL_1_split <- labels1
I0406 10:15:28.734001 31706 net.cpp:356] labels1_sliceL_1_split -> labels1_sliceL_1_split_0
I0406 10:15:28.734007 31706 net.cpp:356] labels1_sliceL_1_split -> labels1_sliceL_1_split_1
I0406 10:15:28.734014 31706 net.cpp:96] Setting up labels1_sliceL_1_split
I0406 10:15:28.734019 31706 net.cpp:103] Top shape: 32 1 1 1 (32)
I0406 10:15:28.734024 31706 net.cpp:103] Top shape: 32 1 1 1 (32)
I0406 10:15:28.734040 31706 net.cpp:67] Creating Layer conv1
I0406 10:15:28.734045 31706 net.cpp:394] conv1 <- data
I0406 10:15:28.734052 31706 net.cpp:356] conv1 -> conv1
I0406 10:15:28.734060 31706 net.cpp:96] Setting up conv1
I0406 10:15:28.735504 31706 net.cpp:103] Top shape: 32 96 55 55 (9292800)
I0406 10:15:28.735530 31706 net.cpp:67] Creating Layer relu1
I0406 10:15:28.735535 31706 net.cpp:394] relu1 <- conv1
I0406 10:15:28.735543 31706 net.cpp:345] relu1 -> conv1 (in-place)
I0406 10:15:28.735548 31706 net.cpp:96] Setting up relu1
I0406 10:15:28.735556 31706 net.cpp:103] Top shape: 32 96 55 55 (9292800)
I0406 10:15:28.735564 31706 net.cpp:67] Creating Layer pool1
I0406 10:15:28.735569 31706 net.cpp:394] pool1 <- conv1
I0406 10:15:28.735574 31706 net.cpp:356] pool1 -> pool1
I0406 10:15:28.735581 31706 net.cpp:96] Setting up pool1
I0406 10:15:28.735590 31706 net.cpp:103] Top shape: 32 96 27 27 (2239488)
I0406 10:15:28.735599 31706 net.cpp:67] Creating Layer norm1
I0406 10:15:28.735604 31706 net.cpp:394] norm1 <- pool1
I0406 10:15:28.735610 31706 net.cpp:356] norm1 -> norm1
I0406 10:15:28.735616 31706 net.cpp:96] Setting up norm1
I0406 10:15:28.735621 31706 net.cpp:103] Top shape: 32 96 27 27 (2239488)
I0406 10:15:28.735630 31706 net.cpp:67] Creating Layer conv2
I0406 10:15:28.735635 31706 net.cpp:394] conv2 <- norm1
I0406 10:15:28.735641 31706 net.cpp:356] conv2 -> conv2
I0406 10:15:28.735651 31706 net.cpp:96] Setting up conv2
I0406 10:15:28.747742 31706 net.cpp:103] Top shape: 32 256 27 27 (5971968)
I0406 10:15:28.747786 31706 net.cpp:67] Creating Layer relu2
I0406 10:15:28.747793 31706 net.cpp:394] relu2 <- conv2
I0406 10:15:28.747828 31706 net.cpp:345] relu2 -> conv2 (in-place)
I0406 10:15:28.747838 31706 net.cpp:96] Setting up relu2
I0406 10:15:28.747848 31706 net.cpp:103] Top shape: 32 256 27 27 (5971968)
I0406 10:15:28.747854 31706 net.cpp:67] Creating Layer pool2
I0406 10:15:28.747859 31706 net.cpp:394] pool2 <- conv2
I0406 10:15:28.747869 31706 net.cpp:356] pool2 -> pool2
I0406 10:15:28.747876 31706 net.cpp:96] Setting up pool2
I0406 10:15:28.747885 31706 net.cpp:103] Top shape: 32 256 13 13 (1384448)
I0406 10:15:28.747894 31706 net.cpp:67] Creating Layer norm2
I0406 10:15:28.747897 31706 net.cpp:394] norm2 <- pool2
I0406 10:15:28.747905 31706 net.cpp:356] norm2 -> norm2
I0406 10:15:28.747912 31706 net.cpp:96] Setting up norm2
I0406 10:15:28.747917 31706 net.cpp:103] Top shape: 32 256 13 13 (1384448)
I0406 10:15:28.747925 31706 net.cpp:67] Creating Layer conv3
I0406 10:15:28.747930 31706 net.cpp:394] conv3 <- norm2
I0406 10:15:28.747937 31706 net.cpp:356] conv3 -> conv3
I0406 10:15:28.747944 31706 net.cpp:96] Setting up conv3
I0406 10:15:28.782518 31706 net.cpp:103] Top shape: 32 384 13 13 (2076672)
I0406 10:15:28.782565 31706 net.cpp:67] Creating Layer relu3
I0406 10:15:28.782572 31706 net.cpp:394] relu3 <- conv3
I0406 10:15:28.782582 31706 net.cpp:345] relu3 -> conv3 (in-place)
I0406 10:15:28.782591 31706 net.cpp:96] Setting up relu3
I0406 10:15:28.782599 31706 net.cpp:103] Top shape: 32 384 13 13 (2076672)
I0406 10:15:28.782608 31706 net.cpp:67] Creating Layer conv4
I0406 10:15:28.782613 31706 net.cpp:394] conv4 <- conv3
I0406 10:15:28.782620 31706 net.cpp:356] conv4 -> conv4
I0406 10:15:28.782631 31706 net.cpp:96] Setting up conv4
I0406 10:15:28.808485 31706 net.cpp:103] Top shape: 32 384 13 13 (2076672)
I0406 10:15:28.808511 31706 net.cpp:67] Creating Layer relu4
I0406 10:15:28.808516 31706 net.cpp:394] relu4 <- conv4
I0406 10:15:28.808522 31706 net.cpp:345] relu4 -> conv4 (in-place)
I0406 10:15:28.808528 31706 net.cpp:96] Setting up relu4
I0406 10:15:28.808537 31706 net.cpp:103] Top shape: 32 384 13 13 (2076672)
I0406 10:15:28.808547 31706 net.cpp:67] Creating Layer conv5
I0406 10:15:28.808557 31706 net.cpp:394] conv5 <- conv4
I0406 10:15:28.808568 31706 net.cpp:356] conv5 -> conv5
I0406 10:15:28.808575 31706 net.cpp:96] Setting up conv5
I0406 10:15:28.826036 31706 net.cpp:103] Top shape: 32 256 13 13 (1384448)
I0406 10:15:28.826066 31706 net.cpp:67] Creating Layer relu5
I0406 10:15:28.826071 31706 net.cpp:394] relu5 <- conv5
I0406 10:15:28.826077 31706 net.cpp:345] relu5 -> conv5 (in-place)
I0406 10:15:28.826084 31706 net.cpp:96] Setting up relu5
I0406 10:15:28.826092 31706 net.cpp:103] Top shape: 32 256 13 13 (1384448)
I0406 10:15:28.826099 31706 net.cpp:67] Creating Layer pool5
I0406 10:15:28.826103 31706 net.cpp:394] pool5 <- conv5
I0406 10:15:28.826112 31706 net.cpp:356] pool5 -> pool5
I0406 10:15:28.826119 31706 net.cpp:96] Setting up pool5
I0406 10:15:28.826129 31706 net.cpp:103] Top shape: 32 256 6 6 (294912)
I0406 10:15:28.826140 31706 net.cpp:67] Creating Layer fc6
I0406 10:15:28.826144 31706 net.cpp:394] fc6 <- pool5
I0406 10:15:28.826150 31706 net.cpp:356] fc6 -> fc6
I0406 10:15:28.826159 31706 net.cpp:96] Setting up fc6
I0406 10:15:30.045518 31706 net.cpp:103] Top shape: 32 4096 1 1 (131072)
I0406 10:15:30.045574 31706 net.cpp:67] Creating Layer relu6
I0406 10:15:30.045583 31706 net.cpp:394] relu6 <- fc6
I0406 10:15:30.045593 31706 net.cpp:345] relu6 -> fc6 (in-place)
I0406 10:15:30.045603 31706 net.cpp:96] Setting up relu6
I0406 10:15:30.045626 31706 net.cpp:103] Top shape: 32 4096 1 1 (131072)
I0406 10:15:30.045636 31706 net.cpp:67] Creating Layer drop6
I0406 10:15:30.045640 31706 net.cpp:394] drop6 <- fc6
I0406 10:15:30.045649 31706 net.cpp:345] drop6 -> fc6 (in-place)
I0406 10:15:30.045655 31706 net.cpp:96] Setting up drop6
I0406 10:15:30.045660 31706 net.cpp:103] Top shape: 32 4096 1 1 (131072)
I0406 10:15:30.045668 31706 net.cpp:67] Creating Layer fc7
I0406 10:15:30.045672 31706 net.cpp:394] fc7 <- fc6
I0406 10:15:30.045678 31706 net.cpp:356] fc7 -> fc7
I0406 10:15:30.045686 31706 net.cpp:96] Setting up fc7
I0406 10:15:30.589614 31706 net.cpp:103] Top shape: 32 4096 1 1 (131072)
I0406 10:15:30.589668 31706 net.cpp:67] Creating Layer relu7
I0406 10:15:30.589676 31706 net.cpp:394] relu7 <- fc7
I0406 10:15:30.589684 31706 net.cpp:345] relu7 -> fc7 (in-place)
I0406 10:15:30.589694 31706 net.cpp:96] Setting up relu7
I0406 10:15:30.589717 31706 net.cpp:103] Top shape: 32 4096 1 1 (131072)
I0406 10:15:30.589730 31706 net.cpp:67] Creating Layer drop7
I0406 10:15:30.589735 31706 net.cpp:394] drop7 <- fc7
I0406 10:15:30.589740 31706 net.cpp:345] drop7 -> fc7 (in-place)
I0406 10:15:30.589746 31706 net.cpp:96] Setting up drop7
I0406 10:15:30.589752 31706 net.cpp:103] Top shape: 32 4096 1 1 (131072)
I0406 10:15:30.589761 31706 net.cpp:67] Creating Layer fc8_deepfashion
I0406 10:15:30.589766 31706 net.cpp:394] fc8_deepfashion <- fc7
I0406 10:15:30.589774 31706 net.cpp:356] fc8_deepfashion -> fc8_deepfashion
I0406 10:15:30.589782 31706 net.cpp:96] Setting up fc8_deepfashion
I0406 10:15:30.596277 31706 net.cpp:103] Top shape: 32 48 1 1 (1536)
I0406 10:15:30.596307 31706 net.cpp:67] Creating Layer fc8_deepfashion_encode
I0406 10:15:30.596312 31706 net.cpp:394] fc8_deepfashion_encode <- fc8_deepfashion
I0406 10:15:30.596319 31706 net.cpp:356] fc8_deepfashion_encode -> fc8_deepfashion_encode
I0406 10:15:30.596326 31706 net.cpp:96] Setting up fc8_deepfashion_encode
I0406 10:15:30.596336 31706 net.cpp:103] Top shape: 32 48 1 1 (1536)
I0406 10:15:30.596343 31706 net.cpp:67] Creating Layer fc8_deepfashion_encode_fc8_deepfashion_encode_0_split
I0406 10:15:30.596348 31706 net.cpp:394] fc8_deepfashion_encode_fc8_deepfashion_encode_0_split <- fc8_deepfashion_encode
I0406 10:15:30.596354 31706 net.cpp:356] fc8_deepfashion_encode_fc8_deepfashion_encode_0_split -> fc8_deepfashion_encode_fc8_deepfashion_encode_0_split_0
I0406 10:15:30.596362 31706 net.cpp:356] fc8_deepfashion_encode_fc8_deepfashion_encode_0_split -> fc8_deepfashion_encode_fc8_deepfashion_encode_0_split_1
I0406 10:15:30.596369 31706 net.cpp:96] Setting up fc8_deepfashion_encode_fc8_deepfashion_encode_0_split
I0406 10:15:30.596386 31706 net.cpp:103] Top shape: 32 48 1 1 (1536)
I0406 10:15:30.596391 31706 net.cpp:103] Top shape: 32 48 1 1 (1536)
I0406 10:15:30.596398 31706 net.cpp:67] Creating Layer fc8_pascal_label_mod
I0406 10:15:30.596402 31706 net.cpp:394] fc8_pascal_label_mod <- fc8_deepfashion_encode_fc8_deepfashion_encode_0_split_0
I0406 10:15:30.596411 31706 net.cpp:356] fc8_pascal_label_mod -> fc8_pascal_label_mod
I0406 10:15:30.596418 31706 net.cpp:96] Setting up fc8_pascal_label_mod
I0406 10:15:30.596446 31706 net.cpp:103] Top shape: 32 10 1 1 (320)
I0406 10:15:30.596467 31706 net.cpp:67] Creating Layer fc8_pascal_label_mod_fc8_pascal_label_mod_0_split
I0406 10:15:30.596474 31706 net.cpp:394] fc8_pascal_label_mod_fc8_pascal_label_mod_0_split <- fc8_pascal_label_mod
I0406 10:15:30.596482 31706 net.cpp:356] fc8_pascal_label_mod_fc8_pascal_label_mod_0_split -> fc8_pascal_label_mod_fc8_pascal_label_mod_0_split_0
I0406 10:15:30.596488 31706 net.cpp:356] fc8_pascal_label_mod_fc8_pascal_label_mod_0_split -> fc8_pascal_label_mod_fc8_pascal_label_mod_0_split_1
I0406 10:15:30.596495 31706 net.cpp:96] Setting up fc8_pascal_label_mod_fc8_pascal_label_mod_0_split
I0406 10:15:30.596500 31706 net.cpp:103] Top shape: 32 10 1 1 (320)
I0406 10:15:30.596504 31706 net.cpp:103] Top shape: 32 10 1 1 (320)
I0406 10:15:30.596513 31706 net.cpp:67] Creating Layer fc8_pascal_color_mod
I0406 10:15:30.596518 31706 net.cpp:394] fc8_pascal_color_mod <- fc8_deepfashion_encode_fc8_deepfashion_encode_0_split_1
I0406 10:15:30.596524 31706 net.cpp:356] fc8_pascal_color_mod -> fc8_pascal_color_mod
I0406 10:15:30.596530 31706 net.cpp:96] Setting up fc8_pascal_color_mod
I0406 10:15:30.596566 31706 net.cpp:103] Top shape: 32 16 1 1 (512)
I0406 10:15:30.596587 31706 net.cpp:67] Creating Layer fc8_pascal_color_mod_fc8_pascal_color_mod_0_split
I0406 10:15:30.596601 31706 net.cpp:394] fc8_pascal_color_mod_fc8_pascal_color_mod_0_split <- fc8_pascal_color_mod
I0406 10:15:30.596608 31706 net.cpp:356] fc8_pascal_color_mod_fc8_pascal_color_mod_0_split -> fc8_pascal_color_mod_fc8_pascal_color_mod_0_split_0
I0406 10:15:30.596640 31706 net.cpp:356] fc8_pascal_color_mod_fc8_pascal_color_mod_0_split -> fc8_pascal_color_mod_fc8_pascal_color_mod_0_split_1
I0406 10:15:30.596648 31706 net.cpp:96] Setting up fc8_pascal_color_mod_fc8_pascal_color_mod_0_split
I0406 10:15:30.596653 31706 net.cpp:103] Top shape: 32 16 1 1 (512)
I0406 10:15:30.596657 31706 net.cpp:103] Top shape: 32 16 1 1 (512)
I0406 10:15:30.596667 31706 net.cpp:67] Creating Layer loss
I0406 10:15:30.596670 31706 net.cpp:394] loss <- fc8_pascal_label_mod_fc8_pascal_label_mod_0_split_0
I0406 10:15:30.596676 31706 net.cpp:394] loss <- labels0_sliceL_0_split_0
I0406 10:15:30.596683 31706 net.cpp:356] loss -> (automatic)
I0406 10:15:30.596688 31706 net.cpp:96] Setting up loss
I0406 10:15:30.596698 31706 net.cpp:103] Top shape: 1 1 1 1 (1)
I0406 10:15:30.596701 31706 net.cpp:109]     with loss weight 1
I0406 10:15:30.596724 31706 net.cpp:67] Creating Layer loss
I0406 10:15:30.596729 31706 net.cpp:394] loss <- fc8_pascal_color_mod_fc8_pascal_color_mod_0_split_0
I0406 10:15:30.596735 31706 net.cpp:394] loss <- labels1_sliceL_1_split_0
I0406 10:15:30.596742 31706 net.cpp:356] loss -> (automatic)
I0406 10:15:30.596751 31706 net.cpp:96] Setting up loss
I0406 10:15:30.596758 31706 net.cpp:103] Top shape: 1 1 1 1 (1)
I0406 10:15:30.596762 31706 net.cpp:109]     with loss weight 1
I0406 10:15:30.596772 31706 net.cpp:67] Creating Layer accuracy
I0406 10:15:30.596779 31706 net.cpp:394] accuracy <- fc8_pascal_color_mod_fc8_pascal_color_mod_0_split_1
I0406 10:15:30.596783 31706 net.cpp:394] accuracy <- labels1_sliceL_1_split_1
I0406 10:15:30.596789 31706 net.cpp:356] accuracy -> colorAccuracy
I0406 10:15:30.596796 31706 net.cpp:96] Setting up accuracy
I0406 10:15:30.596806 31706 net.cpp:103] Top shape: 1 1 1 1 (1)
I0406 10:15:30.596813 31706 net.cpp:67] Creating Layer accuracy1
I0406 10:15:30.596817 31706 net.cpp:394] accuracy1 <- fc8_pascal_label_mod_fc8_pascal_label_mod_0_split_1
I0406 10:15:30.596822 31706 net.cpp:394] accuracy1 <- labels0_sliceL_0_split_1
I0406 10:15:30.596830 31706 net.cpp:356] accuracy1 -> labelAccuracy
I0406 10:15:30.596837 31706 net.cpp:96] Setting up accuracy1
I0406 10:15:30.596842 31706 net.cpp:103] Top shape: 1 1 1 1 (1)
I0406 10:15:30.596846 31706 net.cpp:67] Creating Layer silence
I0406 10:15:30.596851 31706 net.cpp:394] silence <- random
I0406 10:15:30.596856 31706 net.cpp:96] Setting up silence
I0406 10:15:30.596859 31706 net.cpp:172] silence does not need backward computation.
I0406 10:15:30.596863 31706 net.cpp:172] accuracy1 does not need backward computation.
I0406 10:15:30.596866 31706 net.cpp:172] accuracy does not need backward computation.
…
