…
  top: "data"
  top: "random"
  name: "data"
  type: DATA
  data_param {
    source: "/data/deepfashion/color_label_multilabel/color_label_multilabel_TRAIN"
    batch_size: 32
    backend: LMDB
  }
  include {
    phase: TRAIN
  }
  transform_param {
    mirror: true
    crop_size: 227
    mean_file: "../../../data/ilsvrc12/imagenet_mean.binaryproto"
  }
}
layers {
  top: "labels"
  name: "labels"
  type: DATA
  data_param {
    source: "/data/deepfashion/color_label_multilabel/color_label_multilabel_TRAIN_ALT"
    batch_size: 32
    backend: LMDB
  }
  include {
    phase: TRAIN
  }
}
layers {
  bottom: "labels"
  top: "labels0"
  top: "labels1"
  name: "sliceL"
  type: SLICE
  slice_param {
    slice_point: 1
  }
}
layers {
  bottom: "data"
  top: "conv1"
  name: "conv1"
  type: CONVOLUTION
  blobs_lr: 0
  blobs_lr: 0
  weight_decay: 1
  weight_decay: 0
  convolution_param {
    num_output: 96
    kernel_size: 11
    stride: 4
    weight_filler {
      type: "gaussian"
      std: 0.01
    }
    bias_filler {
      type: "constant"
      value: 0
    }
  }
}
layers {
  bottom: "conv1"
  top: "conv1"
  name: "relu1"
  type: RELU
}
layers {
  bottom: "conv1"
  top: "pool1"
  name: "pool1"
  type: POOLING
  pooling_param {
    pool: MAX
    kernel_size: 3
    stride: 2
  }
}
layers {
  bottom: "pool1"
  top: "norm1"
  name: "norm1"
  type: LRN
  lrn_param {
    local_size: 5
    alpha: 0.0001
    beta: 0.75
  }
}
layers {
  bottom: "norm1"
  top: "conv2"
  name: "conv2"
  type: CONVOLUTION
  blobs_lr: 0
  blobs_lr: 0
  weight_decay: 1
  weight_decay: 0
  convolution_param {
    num_output: 256
    pad: 2
    kernel_size: 5
    group: 2
    weight_filler {
      type: "gaussian"
      std: 0.01
    }
    bias_filler {
      type: "constant"
      value: 1
    }
  }
}
layers {
  bottom: "conv2"
  top: "conv2"
  name: "relu2"
  type: RELU
}
layers {
  bottom: "conv2"
  top: "pool2"
  name: "pool2"
  type: POOLING
  pooling_param {
    pool: MAX
    kernel_size: 3
    stride: 2
  }
}
layers {
  bottom: "pool2"
  top: "norm2"
  name: "norm2"
  type: LRN
  lrn_param {
    local_size: 5
    alpha: 0.0001
    beta: 0.75
  }
}
layers {
  bottom: "norm2"
  top: "conv3"
  name: "conv3"
  type: CONVOLUTION
  blobs_lr: 0
  blobs_lr: 0
  weight_decay: 1
  weight_decay: 0
  convolution_param {
    num_output: 384
    pad: 1
    kernel_size: 3
    weight_filler {
      type: "gaussian"
      std: 0.01
    }
    bias_filler {
      type: "constant"
      value: 0
    }
  }
}
layers {
  bottom: "conv3"
  top: "conv3"
  name: "relu3"
  type: RELU
}
layers {
  bottom: "conv3"
  top: "conv4"
  name: "conv4"
  type: CONVOLUTION
  blobs_lr: 0
  blobs_lr: 0
  weight_decay: 1
  weight_decay: 0
  convolution_param {
    num_output: 384
    pad: 1
    kernel_size: 3
    group: 2
    weight_filler {
      type: "gaussian"
      std: 0.01
    }
    bias_filler {
      type: "constant"
      value: 1
    }
  }
}
layers {
  bottom: "conv4"
  top: "conv4"
  name: "relu4"
  type: RELU
}
layers {
  bottom: "conv4"
  top: "conv5"
  name: "conv5"
  type: CONVOLUTION
  blobs_lr: 0
  blobs_lr: 0
  weight_decay: 1
  weight_decay: 0
  convolution_param {
    num_output: 256
    pad: 1
    kernel_size: 3
    group: 2
    weight_filler {
      type: "gaussian"
      std: 0.01
    }
    bias_filler {
      type: "constant"
      value: 1
    }
  }
}
layers {
  bottom: "conv5"
  top: "conv5"
  name: "relu5"
  type: RELU
}
layers {
  bottom: "conv5"
  top: "pool5"
  name: "pool5"
  type: POOLING
  pooling_param {
    pool: MAX
    kernel_size: 3
    stride: 2
  }
}
layers {
  bottom: "pool5"
  top: "fc6"
  name: "fc6"
  type: INNER_PRODUCT
  blobs_lr: 0
  blobs_lr: 0
  weight_decay: 1
  weight_decay: 0
  inner_product_param {
    num_output: 4096
    weight_filler {
      type: "gaussian"
      std: 0.005
    }
    bias_filler {
      type: "constant"
      value: 1
    }
  }
}
layers {
  bottom: "fc6"
  top: "fc6"
  name: "relu6"
  type: RELU
}
layers {
  bottom: "fc6"
  top: "fc6"
  name: "drop6"
  type: DROPOUT
  dropout_param {
    dropout_ratio: 0.5
  }
}
layers {
  bottom: "fc6"
  top: "fc7"
  name: "fc7"
  type: INNER_PRODUCT
  blobs_lr: 0
  blobs_lr: 0
  weight_decay: 1
  weight_decay: 0
  inner_product_param {
    num_output: 4096
    weight_filler {
      type: "gaussian"
      std: 0.005
    }
    bias_filler {
      type: "constant"
      value: 1
    }
  }
}
layers {
  bottom: "fc7"
  top: "fc7"
  name: "relu7"
  type: RELU
}
layers {
  bottom: "fc7"
  top: "fc7"
  name: "drop7"
  type: DROPOUT
  dropout_param {
    dropout_ratio: 0.5
  }
}
layers {
  bottom: "fc7"
  top: "fc8_deepfashion"
  name: "fc8_deepfashion"
  type: INNER_PRODUCT
  blobs_lr: 10
  blobs_lr: 20
  weight_decay: 1
  weight_decay: 0
  inner_product_param {
    num_output: 48
    weight_filler {
      type: "gaussian"
      std: 0.01
    }
    bias_filler {
      type: "constant"
      value: 0
    }
  }
}
layers {
  bottom: "fc8_deepfashion"
  top: "fc8_deepfashion_encode"
  name: "fc8_deepfashion_encode"
  type: SIGMOID
}
layers {
  bottom: "fc8_deepfashion_encode"
  top: "fc8_pascal_label_mod"
  name: "fc8_pascal_label_mod"
  type: INNER_PRODUCT
  blobs_lr: 10
  blobs_lr: 20
  weight_decay: 1
  weight_decay: 0
  inner_product_param {
    num_output: 10
    weight_filler {
      type: "gaussian"
      std: 0.01
    }
    bias_filler {
      type: "constant"
      value: 0
    }
  }
}
layers {
  bottom: "fc8_deepfashion_encode"
  top: "fc8_pascal_color_mod"
  name: "fc8_pascal_color_mod"
  type: INNER_PRODUCT
  blobs_lr: 10
  blobs_lr: 20
  weight_decay: 1
  weight_decay: 0
  inner_product_param {
    num_output: 16
    weight_filler {
      type: "gaussian"
      std: 0.01
    }
    bias_filler {
      type: "constant"
      value: 0
    }
  }
}
layers {
  bottom: "fc8_pascal_label_mod"
  bottom: "labels0"
  name: "loss"
  type: SOFTMAX_LOSS
}
layers {
  bottom: "fc8_pascal_color_mod"
  bottom: "labels1"
  name: "loss"
  type: SOFTMAX_LOSS
}
layers {
  bottom: "random"
  name: "silence"
  type: SILENCE
}
state {
  phase: TRAIN
}
I0406 13:44:35.517050  1441 net.cpp:67] Creating Layer data
I0406 13:44:35.517071  1441 net.cpp:356] data -> data
I0406 13:44:35.517089  1441 net.cpp:356] data -> random
I0406 13:44:35.517107  1441 net.cpp:96] Setting up data
I0406 13:44:35.525813  1441 data_layer.cpp:68] Opening lmdb /data/deepfashion/color_label_multilabel/color_label_multilabel_TRAIN
I0406 13:44:35.539268  1441 data_layer.cpp:128] output data size: 32,3,227,227
I0406 13:44:35.539288  1441 base_data_layer.cpp:36] Loading mean file from../../../data/ilsvrc12/imagenet_mean.binaryproto
I0406 13:44:35.555685  1441 net.cpp:103] Top shape: 32 3 227 227 (4946784)
I0406 13:44:35.555719  1441 net.cpp:103] Top shape: 32 1 1 1 (32)
I0406 13:44:35.555737  1441 net.cpp:67] Creating Layer labels
I0406 13:44:35.555745  1441 net.cpp:356] labels -> labels
I0406 13:44:35.555758  1441 net.cpp:96] Setting up labels
I0406 13:44:35.558526  1441 data_layer.cpp:68] Opening lmdb /data/deepfashion/color_label_multilabel/color_label_multilabel_TRAIN_ALT
I0406 13:44:35.562863  1441 data_layer.cpp:128] output data size: 32,2,1,1
I0406 13:44:35.562913  1441 net.cpp:103] Top shape: 32 2 1 1 (64)
I0406 13:44:35.562953  1441 net.cpp:67] Creating Layer sliceL
I0406 13:44:35.562968  1441 net.cpp:394] sliceL <- labels
I0406 13:44:35.562978  1441 net.cpp:356] sliceL -> labels0
I0406 13:44:35.562988  1441 net.cpp:356] sliceL -> labels1
I0406 13:44:35.562996  1441 net.cpp:96] Setting up sliceL
I0406 13:44:35.565209  1441 net.cpp:103] Top shape: 32 1 1 1 (32)
I0406 13:44:35.565227  1441 net.cpp:103] Top shape: 32 1 1 1 (32)
I0406 13:44:35.565238  1441 net.cpp:67] Creating Layer conv1
I0406 13:44:35.565243  1441 net.cpp:394] conv1 <- data
I0406 13:44:35.565253  1441 net.cpp:356] conv1 -> conv1
I0406 13:44:35.565263  1441 net.cpp:96] Setting up conv1
I0406 13:44:35.692488  1441 net.cpp:103] Top shape: 32 96 55 55 (9292800)
I0406 13:44:35.692548  1441 net.cpp:67] Creating Layer relu1
I0406 13:44:35.692555  1441 net.cpp:394] relu1 <- conv1
I0406 13:44:35.692564  1441 net.cpp:345] relu1 -> conv1 (in-place)
I0406 13:44:35.692572  1441 net.cpp:96] Setting up relu1
I0406 13:44:35.692584  1441 net.cpp:103] Top shape: 32 96 55 55 (9292800)
I0406 13:44:35.692591  1441 net.cpp:67] Creating Layer pool1
I0406 13:44:35.692595  1441 net.cpp:394] pool1 <- conv1
I0406 13:44:35.692603  1441 net.cpp:356] pool1 -> pool1
I0406 13:44:35.692610  1441 net.cpp:96] Setting up pool1
I0406 13:44:35.692634  1441 net.cpp:103] Top shape: 32 96 27 27 (2239488)
I0406 13:44:35.692644  1441 net.cpp:67] Creating Layer norm1
I0406 13:44:35.692651  1441 net.cpp:394] norm1 <- pool1
I0406 13:44:35.692656  1441 net.cpp:356] norm1 -> norm1
I0406 13:44:35.692662  1441 net.cpp:96] Setting up norm1
I0406 13:44:35.692670  1441 net.cpp:103] Top shape: 32 96 27 27 (2239488)
I0406 13:44:35.692679  1441 net.cpp:67] Creating Layer conv2
I0406 13:44:35.692687  1441 net.cpp:394] conv2 <- norm1
I0406 13:44:35.692695  1441 net.cpp:356] conv2 -> conv2
I0406 13:44:35.692703  1441 net.cpp:96] Setting up conv2
I0406 13:44:35.702997  1441 net.cpp:103] Top shape: 32 256 27 27 (5971968)
I0406 13:44:35.703022  1441 net.cpp:67] Creating Layer relu2
I0406 13:44:35.703027  1441 net.cpp:394] relu2 <- conv2
I0406 13:44:35.703033  1441 net.cpp:345] relu2 -> conv2 (in-place)
I0406 13:44:35.703039  1441 net.cpp:96] Setting up relu2
I0406 13:44:35.703045  1441 net.cpp:103] Top shape: 32 256 27 27 (5971968)
I0406 13:44:35.703055  1441 net.cpp:67] Creating Layer pool2
I0406 13:44:35.703059  1441 net.cpp:394] pool2 <- conv2
I0406 13:44:35.703065  1441 net.cpp:356] pool2 -> pool2
I0406 13:44:35.703071  1441 net.cpp:96] Setting up pool2
I0406 13:44:35.703078  1441 net.cpp:103] Top shape: 32 256 13 13 (1384448)
I0406 13:44:35.703084  1441 net.cpp:67] Creating Layer norm2
I0406 13:44:35.703088  1441 net.cpp:394] norm2 <- pool2
I0406 13:44:35.703094  1441 net.cpp:356] norm2 -> norm2
I0406 13:44:35.703099  1441 net.cpp:96] Setting up norm2
I0406 13:44:35.703104  1441 net.cpp:103] Top shape: 32 256 13 13 (1384448)
I0406 13:44:35.703112  1441 net.cpp:67] Creating Layer conv3
I0406 13:44:35.703116  1441 net.cpp:394] conv3 <- norm2
I0406 13:44:35.703122  1441 net.cpp:356] conv3 -> conv3
I0406 13:44:35.703127  1441 net.cpp:96] Setting up conv3
I0406 13:44:35.732197  1441 net.cpp:103] Top shape: 32 384 13 13 (2076672)
I0406 13:44:35.732223  1441 net.cpp:67] Creating Layer relu3
I0406 13:44:35.732228  1441 net.cpp:394] relu3 <- conv3
I0406 13:44:35.732234  1441 net.cpp:345] relu3 -> conv3 (in-place)
I0406 13:44:35.732239  1441 net.cpp:96] Setting up relu3
I0406 13:44:35.732245  1441 net.cpp:103] Top shape: 32 384 13 13 (2076672)
I0406 13:44:35.732257  1441 net.cpp:67] Creating Layer conv4
I0406 13:44:35.732262  1441 net.cpp:394] conv4 <- conv3
I0406 13:44:35.732267  1441 net.cpp:356] conv4 -> conv4
I0406 13:44:35.732275  1441 net.cpp:96] Setting up conv4
I0406 13:44:35.754453  1441 net.cpp:103] Top shape: 32 384 13 13 (2076672)
I0406 13:44:35.754487  1441 net.cpp:67] Creating Layer relu4
I0406 13:44:35.754492  1441 net.cpp:394] relu4 <- conv4
I0406 13:44:35.754520  1441 net.cpp:345] relu4 -> conv4 (in-place)
I0406 13:44:35.754533  1441 net.cpp:96] Setting up relu4
I0406 13:44:35.754540  1441 net.cpp:103] Top shape: 32 384 13 13 (2076672)
I0406 13:44:35.754554  1441 net.cpp:67] Creating Layer conv5
I0406 13:44:35.754570  1441 net.cpp:394] conv5 <- conv4
I0406 13:44:35.754580  1441 net.cpp:356] conv5 -> conv5
I0406 13:44:35.754595  1441 net.cpp:96] Setting up conv5
I0406 13:44:35.769260  1441 net.cpp:103] Top shape: 32 256 13 13 (1384448)
I0406 13:44:35.769290  1441 net.cpp:67] Creating Layer relu5
I0406 13:44:35.769295  1441 net.cpp:394] relu5 <- conv5
I0406 13:44:35.769304  1441 net.cpp:345] relu5 -> conv5 (in-place)
I0406 13:44:35.769309  1441 net.cpp:96] Setting up relu5
I0406 13:44:35.769315  1441 net.cpp:103] Top shape: 32 256 13 13 (1384448)
I0406 13:44:35.769322  1441 net.cpp:67] Creating Layer pool5
I0406 13:44:35.769326  1441 net.cpp:394] pool5 <- conv5
I0406 13:44:35.769331  1441 net.cpp:356] pool5 -> pool5
I0406 13:44:35.769337  1441 net.cpp:96] Setting up pool5
I0406 13:44:35.769345  1441 net.cpp:103] Top shape: 32 256 6 6 (294912)
I0406 13:44:35.769356  1441 net.cpp:67] Creating Layer fc6
I0406 13:44:35.769359  1441 net.cpp:394] fc6 <- pool5
I0406 13:44:35.769366  1441 net.cpp:356] fc6 -> fc6
I0406 13:44:35.769371  1441 net.cpp:96] Setting up fc6
I0406 13:44:37.043907  1441 net.cpp:103] Top shape: 32 4096 1 1 (131072)
I0406 13:44:37.043962  1441 net.cpp:67] Creating Layer relu6
I0406 13:44:37.043969  1441 net.cpp:394] relu6 <- fc6
I0406 13:44:37.043977  1441 net.cpp:345] relu6 -> fc6 (in-place)
I0406 13:44:37.043985  1441 net.cpp:96] Setting up relu6
I0406 13:44:37.044008  1441 net.cpp:103] Top shape: 32 4096 1 1 (131072)
I0406 13:44:37.044014  1441 net.cpp:67] Creating Layer drop6
I0406 13:44:37.044018  1441 net.cpp:394] drop6 <- fc6
I0406 13:44:37.044026  1441 net.cpp:345] drop6 -> fc6 (in-place)
I0406 13:44:37.044031  1441 net.cpp:96] Setting up drop6
I0406 13:44:37.044088  1441 net.cpp:103] Top shape: 32 4096 1 1 (131072)
I0406 13:44:37.044105  1441 net.cpp:67] Creating Layer fc7
I0406 13:44:37.044108  1441 net.cpp:394] fc7 <- fc6
I0406 13:44:37.044116  1441 net.cpp:356] fc7 -> fc7
I0406 13:44:37.044126  1441 net.cpp:96] Setting up fc7
I0406 13:44:37.611146  1441 net.cpp:103] Top shape: 32 4096 1 1 (131072)
I0406 13:44:37.611207  1441 net.cpp:67] Creating Layer relu7
I0406 13:44:37.611215  1441 net.cpp:394] relu7 <- fc7
I0406 13:44:37.611227  1441 net.cpp:345] relu7 -> fc7 (in-place)
I0406 13:44:37.611237  1441 net.cpp:96] Setting up relu7
I0406 13:44:37.611258  1441 net.cpp:103] Top shape: 32 4096 1 1 (131072)
I0406 13:44:37.611265  1441 net.cpp:67] Creating Layer drop7
I0406 13:44:37.611270  1441 net.cpp:394] drop7 <- fc7
I0406 13:44:37.611277  1441 net.cpp:345] drop7 -> fc7 (in-place)
I0406 13:44:37.611284  1441 net.cpp:96] Setting up drop7
I0406 13:44:37.611289  1441 net.cpp:103] Top shape: 32 4096 1 1 (131072)
I0406 13:44:37.611296  1441 net.cpp:67] Creating Layer fc8_deepfashion
I0406 13:44:37.611300  1441 net.cpp:394] fc8_deepfashion <- fc7
I0406 13:44:37.611306  1441 net.cpp:356] fc8_deepfashion -> fc8_deepfashion
I0406 13:44:37.611315  1441 net.cpp:96] Setting up fc8_deepfashion
I0406 13:44:37.618108  1441 net.cpp:103] Top shape: 32 48 1 1 (1536)
I0406 13:44:37.618130  1441 net.cpp:67] Creating Layer fc8_deepfashion_encode
I0406 13:44:37.618135  1441 net.cpp:394] fc8_deepfashion_encode <- fc8_deepfashion
I0406 13:44:37.618144  1441 net.cpp:356] fc8_deepfashion_encode -> fc8_deepfashion_encode
I0406 13:44:37.618150  1441 net.cpp:96] Setting up fc8_deepfashion_encode
I0406 13:44:37.618165  1441 net.cpp:103] Top shape: 32 48 1 1 (1536)
I0406 13:44:37.618171  1441 net.cpp:67] Creating Layer fc8_deepfashion_encode_fc8_deepfashion_encode_0_split
I0406 13:44:37.618175  1441 net.cpp:394] fc8_deepfashion_encode_fc8_deepfashion_encode_0_split <- fc8_deepfashion_encode
I0406 13:44:37.618180  1441 net.cpp:356] fc8_deepfashion_encode_fc8_deepfashion_encode_0_split -> fc8_deepfashion_encode_fc8_deepfashion_encode_0_split_0
I0406 13:44:37.618218  1441 net.cpp:356] fc8_deepfashion_encode_fc8_deepfashion_encode_0_split -> fc8_deepfashion_encode_fc8_deepfashion_encode_0_split_1
I0406 13:44:37.618234  1441 net.cpp:96] Setting up fc8_deepfashion_encode_fc8_deepfashion_encode_0_split
I0406 13:44:37.618242  1441 net.cpp:103] Top shape: 32 48 1 1 (1536)
I0406 13:44:37.618245  1441 net.cpp:103] Top shape: 32 48 1 1 (1536)
I0406 13:44:37.618254  1441 net.cpp:67] Creating Layer fc8_pascal_label_mod
I0406 13:44:37.618259  1441 net.cpp:394] fc8_pascal_label_mod <- fc8_deepfashion_encode_fc8_deepfashion_encode_0_split_0
I0406 13:44:37.618264  1441 net.cpp:356] fc8_pascal_label_mod -> fc8_pascal_label_mod
I0406 13:44:37.618271  1441 net.cpp:96] Setting up fc8_pascal_label_mod
I0406 13:44:37.618297  1441 net.cpp:103] Top shape: 32 10 1 1 (320)
I0406 13:44:37.618330  1441 net.cpp:67] Creating Layer fc8_pascal_color_mod
I0406 13:44:37.618338  1441 net.cpp:394] fc8_pascal_color_mod <- fc8_deepfashion_encode_fc8_deepfashion_encode_0_split_1
I0406 13:44:37.618346  1441 net.cpp:356] fc8_pascal_color_mod -> fc8_pascal_color_mod
I0406 13:44:37.618353  1441 net.cpp:96] Setting up fc8_pascal_color_mod
I0406 13:44:37.618389  1441 net.cpp:103] Top shape: 32 16 1 1 (512)
I0406 13:44:37.618404  1441 net.cpp:67] Creating Layer loss
I0406 13:44:37.618408  1441 net.cpp:394] loss <- fc8_pascal_label_mod
I0406 13:44:37.618413  1441 net.cpp:394] loss <- labels0
I0406 13:44:37.618422  1441 net.cpp:356] loss -> (automatic)
I0406 13:44:37.618427  1441 net.cpp:96] Setting up loss
I0406 13:44:37.618439  1441 net.cpp:103] Top shape: 1 1 1 1 (1)
I0406 13:44:37.618446  1441 net.cpp:109]     with loss weight 1
I0406 13:44:37.618494  1441 net.cpp:67] Creating Layer loss
I0406 13:44:37.618499  1441 net.cpp:394] loss <- fc8_pascal_color_mod
I0406 13:44:37.618505  1441 net.cpp:394] loss <- labels1
I0406 13:44:37.618510  1441 net.cpp:356] loss -> (automatic)
I0406 13:44:37.618515  1441 net.cpp:96] Setting up loss
I0406 13:44:37.618521  1441 net.cpp:103] Top shape: 1 1 1 1 (1)
I0406 13:44:37.618525  1441 net.cpp:109]     with loss weight 1
I0406 13:44:37.618535  1441 net.cpp:67] Creating Layer silence
I0406 13:44:37.618540  1441 net.cpp:394] silence <- random
I0406 13:44:37.618543  1441 net.cpp:96] Setting up silence
I0406 13:44:37.618547  1441 net.cpp:172] silence does not need backward computation.
I0406 13:44:37.618551  1441 net.cpp:170] loss needs backward computation.
…
layers {
  top: "data"
  top: "random"
  name: "data"
  type: DATA
  data_param {
    source: "/data/deepfashion/color_label_multilabel/color_label_multilabel_test"
    batch_size: 32
    backend: LMDB
  }
  include {
    phase: TEST
  }
  transform_param {
    mirror: true
    crop_size: 227
    mean_file: "../../../data/ilsvrc12/imagenet_mean.binaryproto"
  }
}
layers {
  top: "labels"
  name: "labels"
  type: DATA
  data_param {
    source: "/data/deepfashion/color_label_multilabel/color_label_multilabel_test_alt"
    batch_size: 32
    backend: LMDB
  }
  include {
    phase: TEST
  }
}
layers {
  bottom: "labels"
  top: "labels0"
  top: "labels1"
  name: "sliceL"
  type: SLICE
  slice_param {
    slice_point: 1
  }
}
layers {
  bottom: "data"
  top: "conv1"
  name: "conv1"
  type: CONVOLUTION
  blobs_lr: 0
  blobs_lr: 0
  weight_decay: 1
  weight_decay: 0
  convolution_param {
    num_output: 96
    kernel_size: 11
    stride: 4
    weight_filler {
      type: "gaussian"
      std: 0.01
    }
    bias_filler {
      type: "constant"
      value: 0
    }
  }
}
layers {
  bottom: "conv1"
  top: "conv1"
  name: "relu1"
  type: RELU
}
layers {
  bottom: "conv1"
  top: "pool1"
  name: "pool1"
  type: POOLING
  pooling_param {
    pool: MAX
    kernel_size: 3
    stride: 2
  }
}
layers {
  bottom: "pool1"
  top: "norm1"
  name: "norm1"
  type: LRN
  lrn_param {
    local_size: 5
    alpha: 0.0001
    beta: 0.75
  }
}
layers {
  bottom: "norm1"
  top: "conv2"
  name: "conv2"
  type: CONVOLUTION
  blobs_lr: 0
  blobs_lr: 0
  weight_decay: 1
  weight_decay: 0
  convolution_param {
    num_output: 256
    pad: 2
    kernel_size: 5
    group: 2
    weight_filler {
      type: "gaussian"
      std: 0.01
    }
    bias_filler {
      type: "constant"
      value: 1
    }
  }
}
layers {
  bottom: "conv2"
  top: "conv2"
  name: "relu2"
  type: RELU
}
layers {
  bottom: "conv2"
  top: "pool2"
  name: "pool2"
  type: POOLING
  pooling_param {
    pool: MAX
    kernel_size: 3
    stride: 2
  }
}
layers {
  bottom: "pool2"
  top: "norm2"
  name: "norm2"
  type: LRN
  lrn_param {
    local_size: 5
    alpha: 0.0001
    beta: 0.75
  }
}
layers {
  bottom: "norm2"
  top: "conv3"
  name: "conv3"
  type: CONVOLUTION
  blobs_lr: 0
  blobs_lr: 0
  weight_decay: 1
  weight_decay: 0
  convolution_param {
    num_output: 384
    pad: 1
    kernel_size: 3
    weight_filler {
      type: "gaussian"
      std: 0.01
    }
    bias_filler {
      type: "constant"
      value: 0
    }
  }
}
layers {
  bottom: "conv3"
  top: "conv3"
  name: "relu3"
  type: RELU
}
layers {
  bottom: "conv3"
  top: "conv4"
  name: "conv4"
  type: CONVOLUTION
  blobs_lr: 0
  blobs_lr: 0
  weight_decay: 1
  weight_decay: 0
  convolution_param {
    num_output: 384
    pad: 1
    kernel_size: 3
    group: 2
    weight_filler {
      type: "gaussian"
      std: 0.01
    }
    bias_filler {
      type: "constant"
      value: 1
    }
  }
}
layers {
  bottom: "conv4"
  top: "conv4"
  name: "relu4"
  type: RELU
}
layers {
  bottom: "conv4"
  top: "conv5"
  name: "conv5"
  type: CONVOLUTION
  blobs_lr: 0
  blobs_lr: 0
  weight_decay: 1
  weight_decay: 0
  convolution_param {
    num_output: 256
    pad: 1
    kernel_size: 3
    group: 2
    weight_filler {
      type: "gaussian"
      std: 0.01
    }
    bias_filler {
      type: "constant"
      value: 1
    }
  }
}
layers {
  bottom: "conv5"
  top: "conv5"
  name: "relu5"
  type: RELU
}
layers {
  bottom: "conv5"
  top: "pool5"
  name: "pool5"
  type: POOLING
  pooling_param {
    pool: MAX
    kernel_size: 3
    stride: 2
  }
}
layers {
  bottom: "pool5"
  top: "fc6"
  name: "fc6"
  type: INNER_PRODUCT
  blobs_lr: 0
  blobs_lr: 0
  weight_decay: 1
  weight_decay: 0
  inner_product_param {
    num_output: 4096
    weight_filler {
      type: "gaussian"
      std: 0.005
    }
    bias_filler {
      type: "constant"
      value: 1
    }
  }
}
layers {
  bottom: "fc6"
  top: "fc6"
  name: "relu6"
  type: RELU
}
layers {
  bottom: "fc6"
  top: "fc6"
  name: "drop6"
  type: DROPOUT
  dropout_param {
    dropout_ratio: 0.5
  }
}
layers {
  bottom: "fc6"
  top: "fc7"
  name: "fc7"
  type: INNER_PRODUCT
  blobs_lr: 0
  blobs_lr: 0
  weight_decay: 1
  weight_decay: 0
  inner_product_param {
    num_output: 4096
    weight_filler {
      type: "gaussian"
      std: 0.005
    }
    bias_filler {
      type: "constant"
      value: 1
    }
  }
}
layers {
  bottom: "fc7"
  top: "fc7"
  name: "relu7"
  type: RELU
}
layers {
  bottom: "fc7"
  top: "fc7"
  name: "drop7"
  type: DROPOUT
  dropout_param {
    dropout_ratio: 0.5
  }
}
layers {
  bottom: "fc7"
  top: "fc8_deepfashion"
  name: "fc8_deepfashion"
  type: INNER_PRODUCT
  blobs_lr: 10
  blobs_lr: 20
  weight_decay: 1
  weight_decay: 0
  inner_product_param {
    num_output: 48
    weight_filler {
      type: "gaussian"
      std: 0.01
    }
    bias_filler {
      type: "constant"
      value: 0
    }
  }
}
layers {
  bottom: "fc8_deepfashion"
  top: "fc8_deepfashion_encode"
  name: "fc8_deepfashion_encode"
  type: SIGMOID
}
layers {
  bottom: "fc8_deepfashion_encode"
  top: "fc8_pascal_label_mod"
  name: "fc8_pascal_label_mod"
  type: INNER_PRODUCT
  blobs_lr: 10
  blobs_lr: 20
  weight_decay: 1
  weight_decay: 0
  inner_product_param {
    num_output: 10
    weight_filler {
      type: "gaussian"
      std: 0.01
    }
    bias_filler {
      type: "constant"
      value: 0
    }
  }
}
layers {
  bottom: "fc8_deepfashion_encode"
  top: "fc8_pascal_color_mod"
  name: "fc8_pascal_color_mod"
  type: INNER_PRODUCT
  blobs_lr: 10
  blobs_lr: 20
  weight_decay: 1
  weight_decay: 0
  inner_product_param {
    num_output: 16
    weight_filler {
      type: "gaussian"
      std: 0.01
    }
    bias_filler {
      type: "constant"
      value: 0
    }
  }
}
layers {
  bottom: "fc8_pascal_label_mod"
  bottom: "labels0"
  name: "loss"
  type: SOFTMAX_LOSS
}
layers {
  bottom: "fc8_pascal_color_mod"
  bottom: "labels1"
  name: "loss"
  type: SOFTMAX_LOSS
}
layers {
  bottom: "fc8_pascal_color_mod"
  bottom: "labels1"
  top: "colorAccuracy"
  name: "accuracy"
  type: ACCURACY
  include {
    phase: TEST
  }
}
layers {
  bottom: "fc8_pascal_label_mod"
  bottom: "labels0"
  top: "labelAccuracy"
  name: "accuracy1"
  type: ACCURACY
  include {
    phase: TEST
  }
}
layers {
  bottom: "random"
  name: "silence"
  type: SILENCE
}
state {
  phase: TEST
}
I0406 13:44:37.619879  1441 net.cpp:67] Creating Layer data
I0406 13:44:37.619886  1441 net.cpp:356] data -> data
I0406 13:44:37.619895  1441 net.cpp:356] data -> random
I0406 13:44:37.619902  1441 net.cpp:96] Setting up data
I0406 13:44:37.623165  1441 data_layer.cpp:68] Opening lmdb /data/deepfashion/color_label_multilabel/color_label_multilabel_test
I0406 13:44:37.631650  1441 data_layer.cpp:128] output data size: 32,3,227,227
I0406 13:44:37.631669  1441 base_data_layer.cpp:36] Loading mean file from../../../data/ilsvrc12/imagenet_mean.binaryproto
I0406 13:44:37.638677  1441 net.cpp:103] Top shape: 32 3 227 227 (4946784)
I0406 13:44:37.638711  1441 net.cpp:103] Top shape: 32 1 1 1 (32)
I0406 13:44:37.638730  1441 net.cpp:67] Creating Layer labels
I0406 13:44:37.638736  1441 net.cpp:356] labels -> labels
I0406 13:44:37.638748  1441 net.cpp:96] Setting up labels
I0406 13:44:37.641703  1441 data_layer.cpp:68] Opening lmdb /data/deepfashion/color_label_multilabel/color_label_multilabel_test_alt
I0406 13:44:37.644134  1441 data_layer.cpp:128] output data size: 32,2,1,1
I0406 13:44:37.644181  1441 net.cpp:103] Top shape: 32 2 1 1 (64)
I0406 13:44:37.644198  1441 net.cpp:67] Creating Layer sliceL
I0406 13:44:37.644206  1441 net.cpp:394] sliceL <- labels
I0406 13:44:37.644213  1441 net.cpp:356] sliceL -> labels0
I0406 13:44:37.644222  1441 net.cpp:356] sliceL -> labels1
I0406 13:44:37.644229  1441 net.cpp:96] Setting up sliceL
I0406 13:44:37.644235  1441 net.cpp:103] Top shape: 32 1 1 1 (32)
I0406 13:44:37.644240  1441 net.cpp:103] Top shape: 32 1 1 1 (32)
I0406 13:44:37.644248  1441 net.cpp:67] Creating Layer labels0_sliceL_0_split
I0406 13:44:37.644251  1441 net.cpp:394] labels0_sliceL_0_split <- labels0
I0406 13:44:37.644256  1441 net.cpp:356] labels0_sliceL_0_split -> labels0_sliceL_0_split_0
I0406 13:44:37.644263  1441 net.cpp:356] labels0_sliceL_0_split -> labels0_sliceL_0_split_1
I0406 13:44:37.644269  1441 net.cpp:96] Setting up labels0_sliceL_0_split
I0406 13:44:37.644274  1441 net.cpp:103] Top shape: 32 1 1 1 (32)
I0406 13:44:37.644278  1441 net.cpp:103] Top shape: 32 1 1 1 (32)
I0406 13:44:37.644284  1441 net.cpp:67] Creating Layer labels1_sliceL_1_split
I0406 13:44:37.644289  1441 net.cpp:394] labels1_sliceL_1_split <- labels1
I0406 13:44:37.644294  1441 net.cpp:356] labels1_sliceL_1_split -> labels1_sliceL_1_split_0
I0406 13:44:37.644299  1441 net.cpp:356] labels1_sliceL_1_split -> labels1_sliceL_1_split_1
I0406 13:44:37.644305  1441 net.cpp:96] Setting up labels1_sliceL_1_split
I0406 13:44:37.644310  1441 net.cpp:103] Top shape: 32 1 1 1 (32)
I0406 13:44:37.644315  1441 net.cpp:103] Top shape: 32 1 1 1 (32)
I0406 13:44:37.644322  1441 net.cpp:67] Creating Layer conv1
I0406 13:44:37.644326  1441 net.cpp:394] conv1 <- data
I0406 13:44:37.644333  1441 net.cpp:356] conv1 -> conv1
I0406 13:44:37.644340  1441 net.cpp:96] Setting up conv1
I0406 13:44:37.645596  1441 net.cpp:103] Top shape: 32 96 55 55 (9292800)
I0406 13:44:37.645622  1441 net.cpp:67] Creating Layer relu1
I0406 13:44:37.645627  1441 net.cpp:394] relu1 <- conv1
I0406 13:44:37.645634  1441 net.cpp:345] relu1 -> conv1 (in-place)
I0406 13:44:37.645640  1441 net.cpp:96] Setting up relu1
I0406 13:44:37.645648  1441 net.cpp:103] Top shape: 32 96 55 55 (9292800)
I0406 13:44:37.645656  1441 net.cpp:67] Creating Layer pool1
I0406 13:44:37.645660  1441 net.cpp:394] pool1 <- conv1
I0406 13:44:37.645665  1441 net.cpp:356] pool1 -> pool1
I0406 13:44:37.645671  1441 net.cpp:96] Setting up pool1
I0406 13:44:37.645680  1441 net.cpp:103] Top shape: 32 96 27 27 (2239488)
I0406 13:44:37.645690  1441 net.cpp:67] Creating Layer norm1
I0406 13:44:37.645694  1441 net.cpp:394] norm1 <- pool1
I0406 13:44:37.645700  1441 net.cpp:356] norm1 -> norm1
I0406 13:44:37.645706  1441 net.cpp:96] Setting up norm1
I0406 13:44:37.645711  1441 net.cpp:103] Top shape: 32 96 27 27 (2239488)
I0406 13:44:37.645720  1441 net.cpp:67] Creating Layer conv2
I0406 13:44:37.645725  1441 net.cpp:394] conv2 <- norm1
I0406 13:44:37.645730  1441 net.cpp:356] conv2 -> conv2
I0406 13:44:37.645736  1441 net.cpp:96] Setting up conv2
I0406 13:44:37.656076  1441 net.cpp:103] Top shape: 32 256 27 27 (5971968)
I0406 13:44:37.656106  1441 net.cpp:67] Creating Layer relu2
I0406 13:44:37.656113  1441 net.cpp:394] relu2 <- conv2
I0406 13:44:37.656138  1441 net.cpp:345] relu2 -> conv2 (in-place)
I0406 13:44:37.656146  1441 net.cpp:96] Setting up relu2
I0406 13:44:37.656152  1441 net.cpp:103] Top shape: 32 256 27 27 (5971968)
I0406 13:44:37.656162  1441 net.cpp:67] Creating Layer pool2
I0406 13:44:37.656165  1441 net.cpp:394] pool2 <- conv2
I0406 13:44:37.656172  1441 net.cpp:356] pool2 -> pool2
I0406 13:44:37.656177  1441 net.cpp:96] Setting up pool2
I0406 13:44:37.656185  1441 net.cpp:103] Top shape: 32 256 13 13 (1384448)
I0406 13:44:37.656191  1441 net.cpp:67] Creating Layer norm2
I0406 13:44:37.656195  1441 net.cpp:394] norm2 <- pool2
I0406 13:44:37.656203  1441 net.cpp:356] norm2 -> norm2
I0406 13:44:37.656209  1441 net.cpp:96] Setting up norm2
I0406 13:44:37.656213  1441 net.cpp:103] Top shape: 32 256 13 13 (1384448)
I0406 13:44:37.656222  1441 net.cpp:67] Creating Layer conv3
I0406 13:44:37.656226  1441 net.cpp:394] conv3 <- norm2
I0406 13:44:37.656232  1441 net.cpp:356] conv3 -> conv3
I0406 13:44:37.656239  1441 net.cpp:96] Setting up conv3
I0406 13:44:37.685585  1441 net.cpp:103] Top shape: 32 384 13 13 (2076672)
I0406 13:44:37.685631  1441 net.cpp:67] Creating Layer relu3
I0406 13:44:37.685638  1441 net.cpp:394] relu3 <- conv3
I0406 13:44:37.685647  1441 net.cpp:345] relu3 -> conv3 (in-place)
I0406 13:44:37.685655  1441 net.cpp:96] Setting up relu3
I0406 13:44:37.685662  1441 net.cpp:103] Top shape: 32 384 13 13 (2076672)
I0406 13:44:37.685672  1441 net.cpp:67] Creating Layer conv4
I0406 13:44:37.685678  1441 net.cpp:394] conv4 <- conv3
I0406 13:44:37.685683  1441 net.cpp:356] conv4 -> conv4
I0406 13:44:37.685693  1441 net.cpp:96] Setting up conv4
I0406 13:44:37.708109  1441 net.cpp:103] Top shape: 32 384 13 13 (2076672)
I0406 13:44:37.708145  1441 net.cpp:67] Creating Layer relu4
I0406 13:44:37.708151  1441 net.cpp:394] relu4 <- conv4
I0406 13:44:37.708160  1441 net.cpp:345] relu4 -> conv4 (in-place)
I0406 13:44:37.708166  1441 net.cpp:96] Setting up relu4
I0406 13:44:37.708173  1441 net.cpp:103] Top shape: 32 384 13 13 (2076672)
I0406 13:44:37.708183  1441 net.cpp:67] Creating Layer conv5
I0406 13:44:37.708186  1441 net.cpp:394] conv5 <- conv4
I0406 13:44:37.708204  1441 net.cpp:356] conv5 -> conv5
I0406 13:44:37.708209  1441 net.cpp:96] Setting up conv5
I0406 13:44:37.723419  1441 net.cpp:103] Top shape: 32 256 13 13 (1384448)
I0406 13:44:37.723454  1441 net.cpp:67] Creating Layer relu5
I0406 13:44:37.723460  1441 net.cpp:394] relu5 <- conv5
I0406 13:44:37.723467  1441 net.cpp:345] relu5 -> conv5 (in-place)
I0406 13:44:37.723474  1441 net.cpp:96] Setting up relu5
I0406 13:44:37.723489  1441 net.cpp:103] Top shape: 32 256 13 13 (1384448)
I0406 13:44:37.723498  1441 net.cpp:67] Creating Layer pool5
I0406 13:44:37.723502  1441 net.cpp:394] pool5 <- conv5
I0406 13:44:37.723510  1441 net.cpp:356] pool5 -> pool5
I0406 13:44:37.723515  1441 net.cpp:96] Setting up pool5
I0406 13:44:37.723525  1441 net.cpp:103] Top shape: 32 256 6 6 (294912)
I0406 13:44:37.723532  1441 net.cpp:67] Creating Layer fc6
I0406 13:44:37.723536  1441 net.cpp:394] fc6 <- pool5
I0406 13:44:37.723551  1441 net.cpp:356] fc6 -> fc6
I0406 13:44:37.723558  1441 net.cpp:96] Setting up fc6
I0406 13:44:39.192153  1441 net.cpp:103] Top shape: 32 4096 1 1 (131072)
I0406 13:44:39.192206  1441 net.cpp:67] Creating Layer relu6
I0406 13:44:39.192214  1441 net.cpp:394] relu6 <- fc6
I0406 13:44:39.192224  1441 net.cpp:345] relu6 -> fc6 (in-place)
I0406 13:44:39.192231  1441 net.cpp:96] Setting up relu6
I0406 13:44:39.192252  1441 net.cpp:103] Top shape: 32 4096 1 1 (131072)
I0406 13:44:39.192260  1441 net.cpp:67] Creating Layer drop6
I0406 13:44:39.192265  1441 net.cpp:394] drop6 <- fc6
I0406 13:44:39.192271  1441 net.cpp:345] drop6 -> fc6 (in-place)
I0406 13:44:39.192277  1441 net.cpp:96] Setting up drop6
I0406 13:44:39.192281  1441 net.cpp:103] Top shape: 32 4096 1 1 (131072)
I0406 13:44:39.192288  1441 net.cpp:67] Creating Layer fc7
I0406 13:44:39.192292  1441 net.cpp:394] fc7 <- fc6
I0406 13:44:39.192301  1441 net.cpp:356] fc7 -> fc7
I0406 13:44:39.192307  1441 net.cpp:96] Setting up fc7
I0406 13:44:39.842782  1441 net.cpp:103] Top shape: 32 4096 1 1 (131072)
I0406 13:44:39.842836  1441 net.cpp:67] Creating Layer relu7
I0406 13:44:39.842846  1441 net.cpp:394] relu7 <- fc7
I0406 13:44:39.842857  1441 net.cpp:345] relu7 -> fc7 (in-place)
I0406 13:44:39.842865  1441 net.cpp:96] Setting up relu7
I0406 13:44:39.842887  1441 net.cpp:103] Top shape: 32 4096 1 1 (131072)
I0406 13:44:39.842895  1441 net.cpp:67] Creating Layer drop7
I0406 13:44:39.842898  1441 net.cpp:394] drop7 <- fc7
I0406 13:44:39.842905  1441 net.cpp:345] drop7 -> fc7 (in-place)
I0406 13:44:39.842910  1441 net.cpp:96] Setting up drop7
I0406 13:44:39.842914  1441 net.cpp:103] Top shape: 32 4096 1 1 (131072)
I0406 13:44:39.842922  1441 net.cpp:67] Creating Layer fc8_deepfashion
I0406 13:44:39.842926  1441 net.cpp:394] fc8_deepfashion <- fc7
I0406 13:44:39.842934  1441 net.cpp:356] fc8_deepfashion -> fc8_deepfashion
I0406 13:44:39.842941  1441 net.cpp:96] Setting up fc8_deepfashion
I0406 13:44:39.850663  1441 net.cpp:103] Top shape: 32 48 1 1 (1536)
I0406 13:44:39.850688  1441 net.cpp:67] Creating Layer fc8_deepfashion_encode
I0406 13:44:39.850694  1441 net.cpp:394] fc8_deepfashion_encode <- fc8_deepfashion
I0406 13:44:39.850700  1441 net.cpp:356] fc8_deepfashion_encode -> fc8_deepfashion_encode
I0406 13:44:39.850706  1441 net.cpp:96] Setting up fc8_deepfashion_encode
I0406 13:44:39.850716  1441 net.cpp:103] Top shape: 32 48 1 1 (1536)
I0406 13:44:39.850723  1441 net.cpp:67] Creating Layer fc8_deepfashion_encode_fc8_deepfashion_encode_0_split
I0406 13:44:39.850726  1441 net.cpp:394] fc8_deepfashion_encode_fc8_deepfashion_encode_0_split <- fc8_deepfashion_encode
I0406 13:44:39.850734  1441 net.cpp:356] fc8_deepfashion_encode_fc8_deepfashion_encode_0_split -> fc8_deepfashion_encode_fc8_deepfashion_encode_0_split_0
I0406 13:44:39.850741  1441 net.cpp:356] fc8_deepfashion_encode_fc8_deepfashion_encode_0_split -> fc8_deepfashion_encode_fc8_deepfashion_encode_0_split_1
I0406 13:44:39.850749  1441 net.cpp:96] Setting up fc8_deepfashion_encode_fc8_deepfashion_encode_0_split
I0406 13:44:39.850752  1441 net.cpp:103] Top shape: 32 48 1 1 (1536)
I0406 13:44:39.850756  1441 net.cpp:103] Top shape: 32 48 1 1 (1536)
I0406 13:44:39.850765  1441 net.cpp:67] Creating Layer fc8_pascal_label_mod
I0406 13:44:39.850770  1441 net.cpp:394] fc8_pascal_label_mod <- fc8_deepfashion_encode_fc8_deepfashion_encode_0_split_0
I0406 13:44:39.850776  1441 net.cpp:356] fc8_pascal_label_mod -> fc8_pascal_label_mod
I0406 13:44:39.850785  1441 net.cpp:96] Setting up fc8_pascal_label_mod
I0406 13:44:39.850813  1441 net.cpp:103] Top shape: 32 10 1 1 (320)
I0406 13:44:39.850836  1441 net.cpp:67] Creating Layer fc8_pascal_label_mod_fc8_pascal_label_mod_0_split
I0406 13:44:39.850842  1441 net.cpp:394] fc8_pascal_label_mod_fc8_pascal_label_mod_0_split <- fc8_pascal_label_mod
I0406 13:44:39.850847  1441 net.cpp:356] fc8_pascal_label_mod_fc8_pascal_label_mod_0_split -> fc8_pascal_label_mod_fc8_pascal_label_mod_0_split_0
I0406 13:44:39.850854  1441 net.cpp:356] fc8_pascal_label_mod_fc8_pascal_label_mod_0_split -> fc8_pascal_label_mod_fc8_pascal_label_mod_0_split_1
I0406 13:44:39.850860  1441 net.cpp:96] Setting up fc8_pascal_label_mod_fc8_pascal_label_mod_0_split
I0406 13:44:39.850864  1441 net.cpp:103] Top shape: 32 10 1 1 (320)
I0406 13:44:39.850868  1441 net.cpp:103] Top shape: 32 10 1 1 (320)
I0406 13:44:39.850878  1441 net.cpp:67] Creating Layer fc8_pascal_color_mod
I0406 13:44:39.850881  1441 net.cpp:394] fc8_pascal_color_mod <- fc8_deepfashion_encode_fc8_deepfashion_encode_0_split_1
I0406 13:44:39.850888  1441 net.cpp:356] fc8_pascal_color_mod -> fc8_pascal_color_mod
I0406 13:44:39.850893  1441 net.cpp:96] Setting up fc8_pascal_color_mod
I0406 13:44:39.850932  1441 net.cpp:103] Top shape: 32 16 1 1 (512)
I0406 13:44:39.850952  1441 net.cpp:67] Creating Layer fc8_pascal_color_mod_fc8_pascal_color_mod_0_split
I0406 13:44:39.850958  1441 net.cpp:394] fc8_pascal_color_mod_fc8_pascal_color_mod_0_split <- fc8_pascal_color_mod
I0406 13:44:39.850963  1441 net.cpp:356] fc8_pascal_color_mod_fc8_pascal_color_mod_0_split -> fc8_pascal_color_mod_fc8_pascal_color_mod_0_split_0
I0406 13:44:39.850993  1441 net.cpp:356] fc8_pascal_color_mod_fc8_pascal_color_mod_0_split -> fc8_pascal_color_mod_fc8_pascal_color_mod_0_split_1
I0406 13:44:39.851003  1441 net.cpp:96] Setting up fc8_pascal_color_mod_fc8_pascal_color_mod_0_split
I0406 13:44:39.851007  1441 net.cpp:103] Top shape: 32 16 1 1 (512)
I0406 13:44:39.851011  1441 net.cpp:103] Top shape: 32 16 1 1 (512)
I0406 13:44:39.851019  1441 net.cpp:67] Creating Layer loss
I0406 13:44:39.851024  1441 net.cpp:394] loss <- fc8_pascal_label_mod_fc8_pascal_label_mod_0_split_0
I0406 13:44:39.851029  1441 net.cpp:394] loss <- labels0_sliceL_0_split_0
I0406 13:44:39.851037  1441 net.cpp:356] loss -> (automatic)
I0406 13:44:39.851042  1441 net.cpp:96] Setting up loss
I0406 13:44:39.851049  1441 net.cpp:103] Top shape: 1 1 1 1 (1)
I0406 13:44:39.851053  1441 net.cpp:109]     with loss weight 1
I0406 13:44:39.851079  1441 net.cpp:67] Creating Layer loss
I0406 13:44:39.851084  1441 net.cpp:394] loss <- fc8_pascal_color_mod_fc8_pascal_color_mod_0_split_0
I0406 13:44:39.851089  1441 net.cpp:394] loss <- labels1_sliceL_1_split_0
I0406 13:44:39.851097  1441 net.cpp:356] loss -> (automatic)
I0406 13:44:39.851105  1441 net.cpp:96] Setting up loss
I0406 13:44:39.851114  1441 net.cpp:103] Top shape: 1 1 1 1 (1)
I0406 13:44:39.851117  1441 net.cpp:109]     with loss weight 1
I0406 13:44:39.851125  1441 net.cpp:67] Creating Layer accuracy
I0406 13:44:39.851130  1441 net.cpp:394] accuracy <- fc8_pascal_color_mod_fc8_pascal_color_mod_0_split_1
I0406 13:44:39.851135  1441 net.cpp:394] accuracy <- labels1_sliceL_1_split_1
I0406 13:44:39.851140  1441 net.cpp:356] accuracy -> colorAccuracy
I0406 13:44:39.851145  1441 net.cpp:96] Setting up accuracy
I0406 13:44:39.851155  1441 net.cpp:103] Top shape: 1 1 1 1 (1)
I0406 13:44:39.851162  1441 net.cpp:67] Creating Layer accuracy1
I0406 13:44:39.851167  1441 net.cpp:394] accuracy1 <- fc8_pascal_label_mod_fc8_pascal_label_mod_0_split_1
I0406 13:44:39.851171  1441 net.cpp:394] accuracy1 <- labels0_sliceL_0_split_1
I0406 13:44:39.851176  1441 net.cpp:356] accuracy1 -> labelAccuracy
I0406 13:44:39.851182  1441 net.cpp:96] Setting up accuracy1
I0406 13:44:39.851186  1441 net.cpp:103] Top shape: 1 1 1 1 (1)
I0406 13:44:39.851191  1441 net.cpp:67] Creating Layer silence
I0406 13:44:39.851196  1441 net.cpp:394] silence <- random
I0406 13:44:39.851199  1441 net.cpp:96] Setting up silence
I0406 13:44:39.851203  1441 net.cpp:172] silence does not need backward computation.
I0406 13:44:39.851207  1441 net.cpp:172] accuracy1 does not need backward computation.
I0406 13:44:39.851209  1441 net.cpp:172] accuracy does not need backward computation.
…
