…
  top: "data"
  top: "random"
  name: "data"
  type: DATA
  data_param {
    source: "/data/deepfashion/color_label_multilabel/color_label_multilabel_TRAIN"
    batch_size: 32
    backend: LMDB
  }
  include {
    phase: TRAIN
  }
  transform_param {
    mirror: true
    crop_size: 227
    mean_file: "../../../data/ilsvrc12/imagenet_mean.binaryproto"
  }
}
layers {
  top: "labels"
  name: "labels"
  type: DATA
  data_param {
    source: "/data/deepfashion/color_label_multilabel/color_label_multilabel_TRAIN_ALT"
    batch_size: 32
    backend: LMDB
  }
  include {
    phase: TRAIN
  }
}
layers {
  bottom: "labels"
  top: "labels0"
  top: "labels1"
  name: "sliceL"
  type: SLICE
  slice_param {
    slice_point: 1
  }
}
layers {
  bottom: "data"
  top: "conv1"
  name: "conv1"
  type: CONVOLUTION
  blobs_lr: 0
  blobs_lr: 0
  weight_decay: 1
  weight_decay: 0
  convolution_param {
    num_output: 96
    kernel_size: 11
    stride: 4
    weight_filler {
      type: "gaussian"
      std: 0.01
    }
    bias_filler {
      type: "constant"
      value: 0
    }
  }
}
layers {
  bottom: "conv1"
  top: "conv1"
  name: "relu1"
  type: RELU
}
layers {
  bottom: "conv1"
  top: "pool1"
  name: "pool1"
  type: POOLING
  pooling_param {
    pool: MAX
    kernel_size: 3
    stride: 2
  }
}
layers {
  bottom: "pool1"
  top: "norm1"
  name: "norm1"
  type: LRN
  lrn_param {
    local_size: 5
    alpha: 0.0001
    beta: 0.75
  }
}
layers {
  bottom: "norm1"
  top: "conv2"
  name: "conv2"
  type: CONVOLUTION
  blobs_lr: 0
  blobs_lr: 0
  weight_decay: 1
  weight_decay: 0
  convolution_param {
    num_output: 256
    pad: 2
    kernel_size: 5
    group: 2
    weight_filler {
      type: "gaussian"
      std: 0.01
    }
    bias_filler {
      type: "constant"
      value: 1
    }
  }
}
layers {
  bottom: "conv2"
  top: "conv2"
  name: "relu2"
  type: RELU
}
layers {
  bottom: "conv2"
  top: "pool2"
  name: "pool2"
  type: POOLING
  pooling_param {
    pool: MAX
    kernel_size: 3
    stride: 2
  }
}
layers {
  bottom: "pool2"
  top: "norm2"
  name: "norm2"
  type: LRN
  lrn_param {
    local_size: 5
    alpha: 0.0001
    beta: 0.75
  }
}
layers {
  bottom: "norm2"
  top: "conv3"
  name: "conv3"
  type: CONVOLUTION
  blobs_lr: 0
  blobs_lr: 0
  weight_decay: 1
  weight_decay: 0
  convolution_param {
    num_output: 384
    pad: 1
    kernel_size: 3
    weight_filler {
      type: "gaussian"
      std: 0.01
    }
    bias_filler {
      type: "constant"
      value: 0
    }
  }
}
layers {
  bottom: "conv3"
  top: "conv3"
  name: "relu3"
  type: RELU
}
layers {
  bottom: "conv3"
  top: "conv4"
  name: "conv4"
  type: CONVOLUTION
  blobs_lr: 0
  blobs_lr: 0
  weight_decay: 1
  weight_decay: 0
  convolution_param {
    num_output: 384
    pad: 1
    kernel_size: 3
    group: 2
    weight_filler {
      type: "gaussian"
      std: 0.01
    }
    bias_filler {
      type: "constant"
      value: 1
    }
  }
}
layers {
  bottom: "conv4"
  top: "conv4"
  name: "relu4"
  type: RELU
}
layers {
  bottom: "conv4"
  top: "conv5"
  name: "conv5"
  type: CONVOLUTION
  blobs_lr: 0
  blobs_lr: 0
  weight_decay: 1
  weight_decay: 0
  convolution_param {
    num_output: 256
    pad: 1
    kernel_size: 3
    group: 2
    weight_filler {
      type: "gaussian"
      std: 0.01
    }
    bias_filler {
      type: "constant"
      value: 1
    }
  }
}
layers {
  bottom: "conv5"
  top: "conv5"
  name: "relu5"
  type: RELU
}
layers {
  bottom: "conv5"
  top: "pool5"
  name: "pool5"
  type: POOLING
  pooling_param {
    pool: MAX
    kernel_size: 3
    stride: 2
  }
}
layers {
  bottom: "pool5"
  top: "fc6"
  name: "fc6"
  type: INNER_PRODUCT
  blobs_lr: 0
  blobs_lr: 0
  weight_decay: 1
  weight_decay: 0
  inner_product_param {
    num_output: 4096
    weight_filler {
      type: "gaussian"
      std: 0.005
    }
    bias_filler {
      type: "constant"
      value: 1
    }
  }
}
layers {
  bottom: "fc6"
  top: "fc6"
  name: "relu6"
  type: RELU
}
layers {
  bottom: "fc6"
  top: "fc6"
  name: "drop6"
  type: DROPOUT
  dropout_param {
    dropout_ratio: 0.5
  }
}
layers {
  bottom: "fc6"
  top: "fc7"
  name: "fc7"
  type: INNER_PRODUCT
  blobs_lr: 1
  blobs_lr: 2
  weight_decay: 1
  weight_decay: 0
  inner_product_param {
    num_output: 4096
    weight_filler {
      type: "gaussian"
      std: 0.005
    }
    bias_filler {
      type: "constant"
      value: 1
    }
  }
}
layers {
  bottom: "fc7"
  top: "fc7"
  name: "relu7"
  type: RELU
}
layers {
  bottom: "fc7"
  top: "fc7"
  name: "drop7"
  type: DROPOUT
  dropout_param {
    dropout_ratio: 0.5
  }
}
layers {
  bottom: "fc7"
  top: "fc8_deepfashion"
  name: "fc8_deepfashion"
  type: INNER_PRODUCT
  blobs_lr: 1
  blobs_lr: 2
  weight_decay: 1
  weight_decay: 0
  inner_product_param {
    num_output: 48
    weight_filler {
      type: "gaussian"
      std: 0.01
    }
    bias_filler {
      type: "constant"
      value: 0
    }
  }
}
layers {
  bottom: "fc8_deepfashion"
  top: "fc8_deepfashion_encode"
  name: "fc8_deepfashion_encode"
  type: SIGMOID
}
layers {
  bottom: "fc8_deepfashion_encode"
  top: "fc8_pascal_label_mod"
  name: "fc8_pascal_label_mod"
  type: INNER_PRODUCT
  blobs_lr: 1
  blobs_lr: 2
  weight_decay: 1
  weight_decay: 0
  inner_product_param {
    num_output: 10
    weight_filler {
      type: "gaussian"
      std: 0.01
    }
    bias_filler {
      type: "constant"
      value: 0
    }
  }
}
layers {
  bottom: "fc8_deepfashion_encode"
  top: "fc8_pascal_color_mod"
  name: "fc8_pascal_color_mod"
  type: INNER_PRODUCT
  blobs_lr: 1
  blobs_lr: 2
  weight_decay: 1
  weight_decay: 0
  inner_product_param {
    num_output: 16
    weight_filler {
      type: "gaussian"
      std: 0.01
    }
    bias_filler {
      type: "constant"
      value: 0
    }
  }
}
layers {
  bottom: "fc8_pascal_label_mod"
  bottom: "labels0"
  name: "loss"
  type: SOFTMAX_LOSS
}
layers {
  bottom: "fc8_pascal_color_mod"
  bottom: "labels1"
  name: "loss"
  type: SOFTMAX_LOSS
}
layers {
  bottom: "random"
  name: "silence"
  type: SILENCE
}
state {
  phase: TRAIN
}
I0406 13:55:44.955319  9039 net.cpp:67] Creating Layer data
I0406 13:55:44.955332  9039 net.cpp:356] data -> data
I0406 13:55:44.955349  9039 net.cpp:356] data -> random
I0406 13:55:44.955364  9039 net.cpp:96] Setting up data
I0406 13:55:44.955464  9039 data_layer.cpp:68] Opening lmdb /data/deepfashion/color_label_multilabel/color_label_multilabel_TRAIN
I0406 13:55:44.955651  9039 data_layer.cpp:128] output data size: 32,3,227,227
I0406 13:55:44.955660  9039 base_data_layer.cpp:36] Loading mean file from../../../data/ilsvrc12/imagenet_mean.binaryproto
I0406 13:55:44.963285  9039 net.cpp:103] Top shape: 32 3 227 227 (4946784)
I0406 13:55:44.963321  9039 net.cpp:103] Top shape: 32 1 1 1 (32)
I0406 13:55:44.963340  9039 net.cpp:67] Creating Layer labels
I0406 13:55:44.963346  9039 net.cpp:356] labels -> labels
I0406 13:55:44.963362  9039 net.cpp:96] Setting up labels
I0406 13:55:44.963435  9039 data_layer.cpp:68] Opening lmdb /data/deepfashion/color_label_multilabel/color_label_multilabel_TRAIN_ALT
I0406 13:55:44.963479  9039 data_layer.cpp:128] output data size: 32,2,1,1
I0406 13:55:44.964028  9039 net.cpp:103] Top shape: 32 2 1 1 (64)
I0406 13:55:44.964046  9039 net.cpp:67] Creating Layer sliceL
I0406 13:55:44.964053  9039 net.cpp:394] sliceL <- labels
I0406 13:55:44.964063  9039 net.cpp:356] sliceL -> labels0
I0406 13:55:44.964072  9039 net.cpp:356] sliceL -> labels1
I0406 13:55:44.964082  9039 net.cpp:96] Setting up sliceL
I0406 13:55:44.964090  9039 net.cpp:103] Top shape: 32 1 1 1 (32)
I0406 13:55:44.964097  9039 net.cpp:103] Top shape: 32 1 1 1 (32)
I0406 13:55:44.964112  9039 net.cpp:67] Creating Layer conv1
I0406 13:55:44.964118  9039 net.cpp:394] conv1 <- data
I0406 13:55:44.964129  9039 net.cpp:356] conv1 -> conv1
I0406 13:55:44.964138  9039 net.cpp:96] Setting up conv1
I0406 13:55:44.987186  9039 net.cpp:103] Top shape: 32 96 55 55 (9292800)
I0406 13:55:44.987244  9039 net.cpp:67] Creating Layer relu1
I0406 13:55:44.987252  9039 net.cpp:394] relu1 <- conv1
I0406 13:55:44.987259  9039 net.cpp:345] relu1 -> conv1 (in-place)
I0406 13:55:44.987268  9039 net.cpp:96] Setting up relu1
I0406 13:55:44.987280  9039 net.cpp:103] Top shape: 32 96 55 55 (9292800)
I0406 13:55:44.987292  9039 net.cpp:67] Creating Layer pool1
I0406 13:55:44.987295  9039 net.cpp:394] pool1 <- conv1
I0406 13:55:44.987301  9039 net.cpp:356] pool1 -> pool1
I0406 13:55:44.987308  9039 net.cpp:96] Setting up pool1
I0406 13:55:44.987332  9039 net.cpp:103] Top shape: 32 96 27 27 (2239488)
I0406 13:55:44.987346  9039 net.cpp:67] Creating Layer norm1
I0406 13:55:44.987352  9039 net.cpp:394] norm1 <- pool1
I0406 13:55:44.987359  9039 net.cpp:356] norm1 -> norm1
I0406 13:55:44.987365  9039 net.cpp:96] Setting up norm1
I0406 13:55:44.987372  9039 net.cpp:103] Top shape: 32 96 27 27 (2239488)
I0406 13:55:44.987380  9039 net.cpp:67] Creating Layer conv2
I0406 13:55:44.987385  9039 net.cpp:394] conv2 <- norm1
I0406 13:55:44.987390  9039 net.cpp:356] conv2 -> conv2
I0406 13:55:44.987398  9039 net.cpp:96] Setting up conv2
I0406 13:55:44.997804  9039 net.cpp:103] Top shape: 32 256 27 27 (5971968)
I0406 13:55:44.997834  9039 net.cpp:67] Creating Layer relu2
I0406 13:55:44.997839  9039 net.cpp:394] relu2 <- conv2
I0406 13:55:44.997845  9039 net.cpp:345] relu2 -> conv2 (in-place)
I0406 13:55:44.997853  9039 net.cpp:96] Setting up relu2
I0406 13:55:44.997859  9039 net.cpp:103] Top shape: 32 256 27 27 (5971968)
I0406 13:55:44.997869  9039 net.cpp:67] Creating Layer pool2
I0406 13:55:44.997872  9039 net.cpp:394] pool2 <- conv2
I0406 13:55:44.997877  9039 net.cpp:356] pool2 -> pool2
I0406 13:55:44.997884  9039 net.cpp:96] Setting up pool2
I0406 13:55:44.997891  9039 net.cpp:103] Top shape: 32 256 13 13 (1384448)
I0406 13:55:44.997900  9039 net.cpp:67] Creating Layer norm2
I0406 13:55:44.997905  9039 net.cpp:394] norm2 <- pool2
I0406 13:55:44.997910  9039 net.cpp:356] norm2 -> norm2
I0406 13:55:44.997915  9039 net.cpp:96] Setting up norm2
I0406 13:55:44.997920  9039 net.cpp:103] Top shape: 32 256 13 13 (1384448)
I0406 13:55:44.997931  9039 net.cpp:67] Creating Layer conv3
I0406 13:55:44.997936  9039 net.cpp:394] conv3 <- norm2
I0406 13:55:44.997941  9039 net.cpp:356] conv3 -> conv3
I0406 13:55:44.997947  9039 net.cpp:96] Setting up conv3
I0406 13:55:45.027544  9039 net.cpp:103] Top shape: 32 384 13 13 (2076672)
I0406 13:55:45.027570  9039 net.cpp:67] Creating Layer relu3
I0406 13:55:45.027576  9039 net.cpp:394] relu3 <- conv3
I0406 13:55:45.027582  9039 net.cpp:345] relu3 -> conv3 (in-place)
I0406 13:55:45.027588  9039 net.cpp:96] Setting up relu3
I0406 13:55:45.027596  9039 net.cpp:103] Top shape: 32 384 13 13 (2076672)
I0406 13:55:45.027603  9039 net.cpp:67] Creating Layer conv4
I0406 13:55:45.027607  9039 net.cpp:394] conv4 <- conv3
I0406 13:55:45.027616  9039 net.cpp:356] conv4 -> conv4
I0406 13:55:45.027622  9039 net.cpp:96] Setting up conv4
I0406 13:55:45.049901  9039 net.cpp:103] Top shape: 32 384 13 13 (2076672)
I0406 13:55:45.049926  9039 net.cpp:67] Creating Layer relu4
I0406 13:55:45.049931  9039 net.cpp:394] relu4 <- conv4
I0406 13:55:45.049963  9039 net.cpp:345] relu4 -> conv4 (in-place)
I0406 13:55:45.049971  9039 net.cpp:96] Setting up relu4
I0406 13:55:45.049978  9039 net.cpp:103] Top shape: 32 384 13 13 (2076672)
I0406 13:55:45.049989  9039 net.cpp:67] Creating Layer conv5
I0406 13:55:45.049994  9039 net.cpp:394] conv5 <- conv4
I0406 13:55:45.050000  9039 net.cpp:356] conv5 -> conv5
I0406 13:55:45.050009  9039 net.cpp:96] Setting up conv5
I0406 13:55:45.064906  9039 net.cpp:103] Top shape: 32 256 13 13 (1384448)
I0406 13:55:45.064937  9039 net.cpp:67] Creating Layer relu5
I0406 13:55:45.064944  9039 net.cpp:394] relu5 <- conv5
I0406 13:55:45.064949  9039 net.cpp:345] relu5 -> conv5 (in-place)
I0406 13:55:45.064963  9039 net.cpp:96] Setting up relu5
I0406 13:55:45.064970  9039 net.cpp:103] Top shape: 32 256 13 13 (1384448)
I0406 13:55:45.064978  9039 net.cpp:67] Creating Layer pool5
I0406 13:55:45.064983  9039 net.cpp:394] pool5 <- conv5
I0406 13:55:45.064988  9039 net.cpp:356] pool5 -> pool5
I0406 13:55:45.064995  9039 net.cpp:96] Setting up pool5
I0406 13:55:45.065002  9039 net.cpp:103] Top shape: 32 256 6 6 (294912)
I0406 13:55:45.065012  9039 net.cpp:67] Creating Layer fc6
I0406 13:55:45.065017  9039 net.cpp:394] fc6 <- pool5
I0406 13:55:45.065023  9039 net.cpp:356] fc6 -> fc6
I0406 13:55:45.065029  9039 net.cpp:96] Setting up fc6
I0406 13:55:46.294973  9039 net.cpp:103] Top shape: 32 4096 1 1 (131072)
I0406 13:55:46.295037  9039 net.cpp:67] Creating Layer relu6
I0406 13:55:46.295044  9039 net.cpp:394] relu6 <- fc6
I0406 13:55:46.295053  9039 net.cpp:345] relu6 -> fc6 (in-place)
I0406 13:55:46.295063  9039 net.cpp:96] Setting up relu6
I0406 13:55:46.295084  9039 net.cpp:103] Top shape: 32 4096 1 1 (131072)
I0406 13:55:46.295091  9039 net.cpp:67] Creating Layer drop6
I0406 13:55:46.295096  9039 net.cpp:394] drop6 <- fc6
I0406 13:55:46.295104  9039 net.cpp:345] drop6 -> fc6 (in-place)
I0406 13:55:46.295109  9039 net.cpp:96] Setting up drop6
I0406 13:55:46.295120  9039 net.cpp:103] Top shape: 32 4096 1 1 (131072)
I0406 13:55:46.295126  9039 net.cpp:67] Creating Layer fc7
I0406 13:55:46.295130  9039 net.cpp:394] fc7 <- fc6
I0406 13:55:46.295136  9039 net.cpp:356] fc7 -> fc7
I0406 13:55:46.295147  9039 net.cpp:96] Setting up fc7
I0406 13:55:46.844199  9039 net.cpp:103] Top shape: 32 4096 1 1 (131072)
I0406 13:55:46.844256  9039 net.cpp:67] Creating Layer relu7
I0406 13:55:46.844267  9039 net.cpp:394] relu7 <- fc7
I0406 13:55:46.844279  9039 net.cpp:345] relu7 -> fc7 (in-place)
I0406 13:55:46.844287  9039 net.cpp:96] Setting up relu7
I0406 13:55:46.844311  9039 net.cpp:103] Top shape: 32 4096 1 1 (131072)
I0406 13:55:46.844318  9039 net.cpp:67] Creating Layer drop7
I0406 13:55:46.844322  9039 net.cpp:394] drop7 <- fc7
I0406 13:55:46.844327  9039 net.cpp:345] drop7 -> fc7 (in-place)
I0406 13:55:46.844333  9039 net.cpp:96] Setting up drop7
I0406 13:55:46.844337  9039 net.cpp:103] Top shape: 32 4096 1 1 (131072)
I0406 13:55:46.844347  9039 net.cpp:67] Creating Layer fc8_deepfashion
I0406 13:55:46.844352  9039 net.cpp:394] fc8_deepfashion <- fc7
I0406 13:55:46.844358  9039 net.cpp:356] fc8_deepfashion -> fc8_deepfashion
I0406 13:55:46.844367  9039 net.cpp:96] Setting up fc8_deepfashion
I0406 13:55:46.850936  9039 net.cpp:103] Top shape: 32 48 1 1 (1536)
I0406 13:55:46.850958  9039 net.cpp:67] Creating Layer fc8_deepfashion_encode
I0406 13:55:46.850965  9039 net.cpp:394] fc8_deepfashion_encode <- fc8_deepfashion
I0406 13:55:46.850970  9039 net.cpp:356] fc8_deepfashion_encode -> fc8_deepfashion_encode
I0406 13:55:46.850976  9039 net.cpp:96] Setting up fc8_deepfashion_encode
I0406 13:55:46.850989  9039 net.cpp:103] Top shape: 32 48 1 1 (1536)
I0406 13:55:46.850998  9039 net.cpp:67] Creating Layer fc8_deepfashion_encode_fc8_deepfashion_encode_0_split
I0406 13:55:46.851002  9039 net.cpp:394] fc8_deepfashion_encode_fc8_deepfashion_encode_0_split <- fc8_deepfashion_encode
I0406 13:55:46.851008  9039 net.cpp:356] fc8_deepfashion_encode_fc8_deepfashion_encode_0_split -> fc8_deepfashion_encode_fc8_deepfashion_encode_0_split_0
I0406 13:55:46.851045  9039 net.cpp:356] fc8_deepfashion_encode_fc8_deepfashion_encode_0_split -> fc8_deepfashion_encode_fc8_deepfashion_encode_0_split_1
I0406 13:55:46.851063  9039 net.cpp:96] Setting up fc8_deepfashion_encode_fc8_deepfashion_encode_0_split
I0406 13:55:46.851069  9039 net.cpp:103] Top shape: 32 48 1 1 (1536)
I0406 13:55:46.851073  9039 net.cpp:103] Top shape: 32 48 1 1 (1536)
I0406 13:55:46.851083  9039 net.cpp:67] Creating Layer fc8_pascal_label_mod
I0406 13:55:46.851091  9039 net.cpp:394] fc8_pascal_label_mod <- fc8_deepfashion_encode_fc8_deepfashion_encode_0_split_0
I0406 13:55:46.851099  9039 net.cpp:356] fc8_pascal_label_mod -> fc8_pascal_label_mod
I0406 13:55:46.851104  9039 net.cpp:96] Setting up fc8_pascal_label_mod
I0406 13:55:46.851138  9039 net.cpp:103] Top shape: 32 10 1 1 (320)
I0406 13:55:46.851172  9039 net.cpp:67] Creating Layer fc8_pascal_color_mod
I0406 13:55:46.851177  9039 net.cpp:394] fc8_pascal_color_mod <- fc8_deepfashion_encode_fc8_deepfashion_encode_0_split_1
I0406 13:55:46.851186  9039 net.cpp:356] fc8_pascal_color_mod -> fc8_pascal_color_mod
I0406 13:55:46.851191  9039 net.cpp:96] Setting up fc8_pascal_color_mod
I0406 13:55:46.851227  9039 net.cpp:103] Top shape: 32 16 1 1 (512)
I0406 13:55:46.851243  9039 net.cpp:67] Creating Layer loss
I0406 13:55:46.851246  9039 net.cpp:394] loss <- fc8_pascal_label_mod
I0406 13:55:46.851251  9039 net.cpp:394] loss <- labels0
I0406 13:55:46.851260  9039 net.cpp:356] loss -> (automatic)
I0406 13:55:46.851265  9039 net.cpp:96] Setting up loss
I0406 13:55:46.851277  9039 net.cpp:103] Top shape: 1 1 1 1 (1)
I0406 13:55:46.851281  9039 net.cpp:109]     with loss weight 1
I0406 13:55:46.851330  9039 net.cpp:67] Creating Layer loss
I0406 13:55:46.851336  9039 net.cpp:394] loss <- fc8_pascal_color_mod
I0406 13:55:46.851339  9039 net.cpp:394] loss <- labels1
I0406 13:55:46.851346  9039 net.cpp:356] loss -> (automatic)
I0406 13:55:46.851351  9039 net.cpp:96] Setting up loss
I0406 13:55:46.851356  9039 net.cpp:103] Top shape: 1 1 1 1 (1)
I0406 13:55:46.851359  9039 net.cpp:109]     with loss weight 1
I0406 13:55:46.851366  9039 net.cpp:67] Creating Layer silence
I0406 13:55:46.851372  9039 net.cpp:394] silence <- random
I0406 13:55:46.851377  9039 net.cpp:96] Setting up silence
I0406 13:55:46.851382  9039 net.cpp:172] silence does not need backward computation.
I0406 13:55:46.851385  9039 net.cpp:170] loss needs backward computation.
…
layers {
  top: "data"
  top: "random"
  name: "data"
  type: DATA
  data_param {
    source: "/data/deepfashion/color_label_multilabel/color_label_multilabel_test"
    batch_size: 32
    backend: LMDB
  }
  include {
    phase: TEST
  }
  transform_param {
    mirror: true
    crop_size: 227
    mean_file: "../../../data/ilsvrc12/imagenet_mean.binaryproto"
  }
}
layers {
  top: "labels"
  name: "labels"
  type: DATA
  data_param {
    source: "/data/deepfashion/color_label_multilabel/color_label_multilabel_test_alt"
    batch_size: 32
    backend: LMDB
  }
  include {
    phase: TEST
  }
}
layers {
  bottom: "labels"
  top: "labels0"
  top: "labels1"
  name: "sliceL"
  type: SLICE
  slice_param {
    slice_point: 1
  }
}
layers {
  bottom: "data"
  top: "conv1"
  name: "conv1"
  type: CONVOLUTION
  blobs_lr: 0
  blobs_lr: 0
  weight_decay: 1
  weight_decay: 0
  convolution_param {
    num_output: 96
    kernel_size: 11
    stride: 4
    weight_filler {
      type: "gaussian"
      std: 0.01
    }
    bias_filler {
      type: "constant"
      value: 0
    }
  }
}
layers {
  bottom: "conv1"
  top: "conv1"
  name: "relu1"
  type: RELU
}
layers {
  bottom: "conv1"
  top: "pool1"
  name: "pool1"
  type: POOLING
  pooling_param {
    pool: MAX
    kernel_size: 3
    stride: 2
  }
}
layers {
  bottom: "pool1"
  top: "norm1"
  name: "norm1"
  type: LRN
  lrn_param {
    local_size: 5
    alpha: 0.0001
    beta: 0.75
  }
}
layers {
  bottom: "norm1"
  top: "conv2"
  name: "conv2"
  type: CONVOLUTION
  blobs_lr: 0
  blobs_lr: 0
  weight_decay: 1
  weight_decay: 0
  convolution_param {
    num_output: 256
    pad: 2
    kernel_size: 5
    group: 2
    weight_filler {
      type: "gaussian"
      std: 0.01
    }
    bias_filler {
      type: "constant"
      value: 1
    }
  }
}
layers {
  bottom: "conv2"
  top: "conv2"
  name: "relu2"
  type: RELU
}
layers {
  bottom: "conv2"
  top: "pool2"
  name: "pool2"
  type: POOLING
  pooling_param {
    pool: MAX
    kernel_size: 3
    stride: 2
  }
}
layers {
  bottom: "pool2"
  top: "norm2"
  name: "norm2"
  type: LRN
  lrn_param {
    local_size: 5
    alpha: 0.0001
    beta: 0.75
  }
}
layers {
  bottom: "norm2"
  top: "conv3"
  name: "conv3"
  type: CONVOLUTION
  blobs_lr: 0
  blobs_lr: 0
  weight_decay: 1
  weight_decay: 0
  convolution_param {
    num_output: 384
    pad: 1
    kernel_size: 3
    weight_filler {
      type: "gaussian"
      std: 0.01
    }
    bias_filler {
      type: "constant"
      value: 0
    }
  }
}
layers {
  bottom: "conv3"
  top: "conv3"
  name: "relu3"
  type: RELU
}
layers {
  bottom: "conv3"
  top: "conv4"
  name: "conv4"
  type: CONVOLUTION
  blobs_lr: 0
  blobs_lr: 0
  weight_decay: 1
  weight_decay: 0
  convolution_param {
    num_output: 384
    pad: 1
    kernel_size: 3
    group: 2
    weight_filler {
      type: "gaussian"
      std: 0.01
    }
    bias_filler {
      type: "constant"
      value: 1
    }
  }
}
layers {
  bottom: "conv4"
  top: "conv4"
  name: "relu4"
  type: RELU
}
layers {
  bottom: "conv4"
  top: "conv5"
  name: "conv5"
  type: CONVOLUTION
  blobs_lr: 0
  blobs_lr: 0
  weight_decay: 1
  weight_decay: 0
  convolution_param {
    num_output: 256
    pad: 1
    kernel_size: 3
    group: 2
    weight_filler {
      type: "gaussian"
      std: 0.01
    }
    bias_filler {
      type: "constant"
      value: 1
    }
  }
}
layers {
  bottom: "conv5"
  top: "conv5"
  name: "relu5"
  type: RELU
}
layers {
  bottom: "conv5"
  top: "pool5"
  name: "pool5"
  type: POOLING
  pooling_param {
    pool: MAX
    kernel_size: 3
    stride: 2
  }
}
layers {
  bottom: "pool5"
  top: "fc6"
  name: "fc6"
  type: INNER_PRODUCT
  blobs_lr: 0
  blobs_lr: 0
  weight_decay: 1
  weight_decay: 0
  inner_product_param {
    num_output: 4096
    weight_filler {
      type: "gaussian"
      std: 0.005
    }
    bias_filler {
      type: "constant"
      value: 1
    }
  }
}
layers {
  bottom: "fc6"
  top: "fc6"
  name: "relu6"
  type: RELU
}
layers {
  bottom: "fc6"
  top: "fc6"
  name: "drop6"
  type: DROPOUT
  dropout_param {
    dropout_ratio: 0.5
  }
}
layers {
  bottom: "fc6"
  top: "fc7"
  name: "fc7"
  type: INNER_PRODUCT
  blobs_lr: 1
  blobs_lr: 2
  weight_decay: 1
  weight_decay: 0
  inner_product_param {
    num_output: 4096
    weight_filler {
      type: "gaussian"
      std: 0.005
    }
    bias_filler {
      type: "constant"
      value: 1
    }
  }
}
layers {
  bottom: "fc7"
  top: "fc7"
  name: "relu7"
  type: RELU
}
layers {
  bottom: "fc7"
  top: "fc7"
  name: "drop7"
  type: DROPOUT
  dropout_param {
    dropout_ratio: 0.5
  }
}
layers {
  bottom: "fc7"
  top: "fc8_deepfashion"
  name: "fc8_deepfashion"
  type: INNER_PRODUCT
  blobs_lr: 1
  blobs_lr: 2
  weight_decay: 1
  weight_decay: 0
  inner_product_param {
    num_output: 48
    weight_filler {
      type: "gaussian"
      std: 0.01
    }
    bias_filler {
      type: "constant"
      value: 0
    }
  }
}
layers {
  bottom: "fc8_deepfashion"
  top: "fc8_deepfashion_encode"
  name: "fc8_deepfashion_encode"
  type: SIGMOID
}
layers {
  bottom: "fc8_deepfashion_encode"
  top: "fc8_pascal_label_mod"
  name: "fc8_pascal_label_mod"
  type: INNER_PRODUCT
  blobs_lr: 1
  blobs_lr: 2
  weight_decay: 1
  weight_decay: 0
  inner_product_param {
    num_output: 10
    weight_filler {
      type: "gaussian"
      std: 0.01
    }
    bias_filler {
      type: "constant"
      value: 0
    }
  }
}
layers {
  bottom: "fc8_deepfashion_encode"
  top: "fc8_pascal_color_mod"
  name: "fc8_pascal_color_mod"
  type: INNER_PRODUCT
  blobs_lr: 1
  blobs_lr: 2
  weight_decay: 1
  weight_decay: 0
  inner_product_param {
    num_output: 16
    weight_filler {
      type: "gaussian"
      std: 0.01
    }
    bias_filler {
      type: "constant"
      value: 0
    }
  }
}
layers {
  bottom: "fc8_pascal_label_mod"
  bottom: "labels0"
  name: "loss"
  type: SOFTMAX_LOSS
}
layers {
  bottom: "fc8_pascal_color_mod"
  bottom: "labels1"
  name: "loss"
  type: SOFTMAX_LOSS
}
layers {
  bottom: "fc8_pascal_color_mod"
  bottom: "labels1"
  top: "colorAccuracy"
  name: "accuracy"
  type: ACCURACY
  include {
    phase: TEST
  }
}
layers {
  bottom: "fc8_pascal_label_mod"
  bottom: "labels0"
  top: "labelAccuracy"
  name: "accuracy1"
  type: ACCURACY
  include {
    phase: TEST
  }
}
layers {
  bottom: "random"
  name: "silence"
  type: SILENCE
}
state {
  phase: TEST
}
I0406 13:55:46.852700  9039 net.cpp:67] Creating Layer data
I0406 13:55:46.852710  9039 net.cpp:356] data -> data
I0406 13:55:46.852718  9039 net.cpp:356] data -> random
I0406 13:55:46.852725  9039 net.cpp:96] Setting up data
I0406 13:55:46.852782  9039 data_layer.cpp:68] Opening lmdb /data/deepfashion/color_label_multilabel/color_label_multilabel_test
I0406 13:55:46.852972  9039 data_layer.cpp:128] output data size: 32,3,227,227
I0406 13:55:46.852982  9039 base_data_layer.cpp:36] Loading mean file from../../../data/ilsvrc12/imagenet_mean.binaryproto
I0406 13:55:46.860946  9039 net.cpp:103] Top shape: 32 3 227 227 (4946784)
I0406 13:55:46.860990  9039 net.cpp:103] Top shape: 32 1 1 1 (32)
I0406 13:55:46.861006  9039 net.cpp:67] Creating Layer labels
I0406 13:55:46.861011  9039 net.cpp:356] labels -> labels
I0406 13:55:46.861023  9039 net.cpp:96] Setting up labels
I0406 13:55:46.861100  9039 data_layer.cpp:68] Opening lmdb /data/deepfashion/color_label_multilabel/color_label_multilabel_test_alt
I0406 13:55:46.861122  9039 data_layer.cpp:128] output data size: 32,2,1,1
I0406 13:55:46.861166  9039 net.cpp:103] Top shape: 32 2 1 1 (64)
I0406 13:55:46.861182  9039 net.cpp:67] Creating Layer sliceL
I0406 13:55:46.861187  9039 net.cpp:394] sliceL <- labels
I0406 13:55:46.861196  9039 net.cpp:356] sliceL -> labels0
I0406 13:55:46.861203  9039 net.cpp:356] sliceL -> labels1
I0406 13:55:46.861218  9039 net.cpp:96] Setting up sliceL
I0406 13:55:46.861225  9039 net.cpp:103] Top shape: 32 1 1 1 (32)
I0406 13:55:46.861229  9039 net.cpp:103] Top shape: 32 1 1 1 (32)
I0406 13:55:46.861237  9039 net.cpp:67] Creating Layer labels0_sliceL_0_split
I0406 13:55:46.861241  9039 net.cpp:394] labels0_sliceL_0_split <- labels0
I0406 13:55:46.861248  9039 net.cpp:356] labels0_sliceL_0_split -> labels0_sliceL_0_split_0
I0406 13:55:46.861254  9039 net.cpp:356] labels0_sliceL_0_split -> labels0_sliceL_0_split_1
I0406 13:55:46.861260  9039 net.cpp:96] Setting up labels0_sliceL_0_split
I0406 13:55:46.861265  9039 net.cpp:103] Top shape: 32 1 1 1 (32)
I0406 13:55:46.861269  9039 net.cpp:103] Top shape: 32 1 1 1 (32)
I0406 13:55:46.861276  9039 net.cpp:67] Creating Layer labels1_sliceL_1_split
I0406 13:55:46.861280  9039 net.cpp:394] labels1_sliceL_1_split <- labels1
I0406 13:55:46.861285  9039 net.cpp:356] labels1_sliceL_1_split -> labels1_sliceL_1_split_0
I0406 13:55:46.861291  9039 net.cpp:356] labels1_sliceL_1_split -> labels1_sliceL_1_split_1
I0406 13:55:46.861297  9039 net.cpp:96] Setting up labels1_sliceL_1_split
I0406 13:55:46.861301  9039 net.cpp:103] Top shape: 32 1 1 1 (32)
I0406 13:55:46.861305  9039 net.cpp:103] Top shape: 32 1 1 1 (32)
I0406 13:55:46.861313  9039 net.cpp:67] Creating Layer conv1
I0406 13:55:46.861317  9039 net.cpp:394] conv1 <- data
I0406 13:55:46.861325  9039 net.cpp:356] conv1 -> conv1
I0406 13:55:46.861346  9039 net.cpp:96] Setting up conv1
I0406 13:55:46.862601  9039 net.cpp:103] Top shape: 32 96 55 55 (9292800)
I0406 13:55:46.862627  9039 net.cpp:67] Creating Layer relu1
I0406 13:55:46.862632  9039 net.cpp:394] relu1 <- conv1
I0406 13:55:46.862639  9039 net.cpp:345] relu1 -> conv1 (in-place)
I0406 13:55:46.862646  9039 net.cpp:96] Setting up relu1
I0406 13:55:46.862653  9039 net.cpp:103] Top shape: 32 96 55 55 (9292800)
I0406 13:55:46.862661  9039 net.cpp:67] Creating Layer pool1
I0406 13:55:46.862665  9039 net.cpp:394] pool1 <- conv1
I0406 13:55:46.862673  9039 net.cpp:356] pool1 -> pool1
I0406 13:55:46.862679  9039 net.cpp:96] Setting up pool1
I0406 13:55:46.862687  9039 net.cpp:103] Top shape: 32 96 27 27 (2239488)
I0406 13:55:46.862697  9039 net.cpp:67] Creating Layer norm1
I0406 13:55:46.862701  9039 net.cpp:394] norm1 <- pool1
I0406 13:55:46.862707  9039 net.cpp:356] norm1 -> norm1
I0406 13:55:46.862714  9039 net.cpp:96] Setting up norm1
I0406 13:55:46.862720  9039 net.cpp:103] Top shape: 32 96 27 27 (2239488)
I0406 13:55:46.862728  9039 net.cpp:67] Creating Layer conv2
I0406 13:55:46.862732  9039 net.cpp:394] conv2 <- norm1
I0406 13:55:46.862738  9039 net.cpp:356] conv2 -> conv2
I0406 13:55:46.862745  9039 net.cpp:96] Setting up conv2
I0406 13:55:46.873009  9039 net.cpp:103] Top shape: 32 256 27 27 (5971968)
I0406 13:55:46.873055  9039 net.cpp:67] Creating Layer relu2
I0406 13:55:46.873062  9039 net.cpp:394] relu2 <- conv2
I0406 13:55:46.873070  9039 net.cpp:345] relu2 -> conv2 (in-place)
I0406 13:55:46.873100  9039 net.cpp:96] Setting up relu2
I0406 13:55:46.873116  9039 net.cpp:103] Top shape: 32 256 27 27 (5971968)
I0406 13:55:46.873122  9039 net.cpp:67] Creating Layer pool2
I0406 13:55:46.873126  9039 net.cpp:394] pool2 <- conv2
I0406 13:55:46.873136  9039 net.cpp:356] pool2 -> pool2
I0406 13:55:46.873143  9039 net.cpp:96] Setting up pool2
I0406 13:55:46.873152  9039 net.cpp:103] Top shape: 32 256 13 13 (1384448)
I0406 13:55:46.873158  9039 net.cpp:67] Creating Layer norm2
I0406 13:55:46.873162  9039 net.cpp:394] norm2 <- pool2
I0406 13:55:46.873169  9039 net.cpp:356] norm2 -> norm2
I0406 13:55:46.873175  9039 net.cpp:96] Setting up norm2
I0406 13:55:46.873180  9039 net.cpp:103] Top shape: 32 256 13 13 (1384448)
I0406 13:55:46.873188  9039 net.cpp:67] Creating Layer conv3
I0406 13:55:46.873194  9039 net.cpp:394] conv3 <- norm2
I0406 13:55:46.873199  9039 net.cpp:356] conv3 -> conv3
I0406 13:55:46.873205  9039 net.cpp:96] Setting up conv3
I0406 13:55:46.902788  9039 net.cpp:103] Top shape: 32 384 13 13 (2076672)
I0406 13:55:46.902834  9039 net.cpp:67] Creating Layer relu3
I0406 13:55:46.902842  9039 net.cpp:394] relu3 <- conv3
I0406 13:55:46.902853  9039 net.cpp:345] relu3 -> conv3 (in-place)
I0406 13:55:46.902861  9039 net.cpp:96] Setting up relu3
I0406 13:55:46.902869  9039 net.cpp:103] Top shape: 32 384 13 13 (2076672)
I0406 13:55:46.902878  9039 net.cpp:67] Creating Layer conv4
I0406 13:55:46.902881  9039 net.cpp:394] conv4 <- conv3
I0406 13:55:46.902889  9039 net.cpp:356] conv4 -> conv4
I0406 13:55:46.902899  9039 net.cpp:96] Setting up conv4
I0406 13:55:46.924582  9039 net.cpp:103] Top shape: 32 384 13 13 (2076672)
I0406 13:55:46.924610  9039 net.cpp:67] Creating Layer relu4
I0406 13:55:46.924617  9039 net.cpp:394] relu4 <- conv4
I0406 13:55:46.924625  9039 net.cpp:345] relu4 -> conv4 (in-place)
I0406 13:55:46.924631  9039 net.cpp:96] Setting up relu4
I0406 13:55:46.924638  9039 net.cpp:103] Top shape: 32 384 13 13 (2076672)
I0406 13:55:46.924646  9039 net.cpp:67] Creating Layer conv5
I0406 13:55:46.924650  9039 net.cpp:394] conv5 <- conv4
I0406 13:55:46.924659  9039 net.cpp:356] conv5 -> conv5
I0406 13:55:46.924664  9039 net.cpp:96] Setting up conv5
I0406 13:55:46.939580  9039 net.cpp:103] Top shape: 32 256 13 13 (1384448)
I0406 13:55:46.939610  9039 net.cpp:67] Creating Layer relu5
I0406 13:55:46.939615  9039 net.cpp:394] relu5 <- conv5
I0406 13:55:46.939621  9039 net.cpp:345] relu5 -> conv5 (in-place)
I0406 13:55:46.939627  9039 net.cpp:96] Setting up relu5
I0406 13:55:46.939635  9039 net.cpp:103] Top shape: 32 256 13 13 (1384448)
I0406 13:55:46.939645  9039 net.cpp:67] Creating Layer pool5
I0406 13:55:46.939649  9039 net.cpp:394] pool5 <- conv5
I0406 13:55:46.939654  9039 net.cpp:356] pool5 -> pool5
I0406 13:55:46.939661  9039 net.cpp:96] Setting up pool5
I0406 13:55:46.939671  9039 net.cpp:103] Top shape: 32 256 6 6 (294912)
I0406 13:55:46.939678  9039 net.cpp:67] Creating Layer fc6
I0406 13:55:46.939682  9039 net.cpp:394] fc6 <- pool5
I0406 13:55:46.939688  9039 net.cpp:356] fc6 -> fc6
I0406 13:55:46.939694  9039 net.cpp:96] Setting up fc6
I0406 13:55:48.187541  9039 net.cpp:103] Top shape: 32 4096 1 1 (131072)
I0406 13:55:48.187599  9039 net.cpp:67] Creating Layer relu6
I0406 13:55:48.187608  9039 net.cpp:394] relu6 <- fc6
I0406 13:55:48.187615  9039 net.cpp:345] relu6 -> fc6 (in-place)
I0406 13:55:48.187624  9039 net.cpp:96] Setting up relu6
I0406 13:55:48.187647  9039 net.cpp:103] Top shape: 32 4096 1 1 (131072)
I0406 13:55:48.187654  9039 net.cpp:67] Creating Layer drop6
I0406 13:55:48.187659  9039 net.cpp:394] drop6 <- fc6
I0406 13:55:48.187665  9039 net.cpp:345] drop6 -> fc6 (in-place)
I0406 13:55:48.187671  9039 net.cpp:96] Setting up drop6
I0406 13:55:48.187676  9039 net.cpp:103] Top shape: 32 4096 1 1 (131072)
I0406 13:55:48.187685  9039 net.cpp:67] Creating Layer fc7
I0406 13:55:48.187687  9039 net.cpp:394] fc7 <- fc6
I0406 13:55:48.187693  9039 net.cpp:356] fc7 -> fc7
I0406 13:55:48.187701  9039 net.cpp:96] Setting up fc7
I0406 13:55:48.735365  9039 net.cpp:103] Top shape: 32 4096 1 1 (131072)
I0406 13:55:48.735455  9039 net.cpp:67] Creating Layer relu7
I0406 13:55:48.735462  9039 net.cpp:394] relu7 <- fc7
I0406 13:55:48.735473  9039 net.cpp:345] relu7 -> fc7 (in-place)
I0406 13:55:48.735482  9039 net.cpp:96] Setting up relu7
I0406 13:55:48.735504  9039 net.cpp:103] Top shape: 32 4096 1 1 (131072)
I0406 13:55:48.735518  9039 net.cpp:67] Creating Layer drop7
I0406 13:55:48.735523  9039 net.cpp:394] drop7 <- fc7
I0406 13:55:48.735528  9039 net.cpp:345] drop7 -> fc7 (in-place)
I0406 13:55:48.735534  9039 net.cpp:96] Setting up drop7
I0406 13:55:48.735539  9039 net.cpp:103] Top shape: 32 4096 1 1 (131072)
I0406 13:55:48.735546  9039 net.cpp:67] Creating Layer fc8_deepfashion
I0406 13:55:48.735550  9039 net.cpp:394] fc8_deepfashion <- fc7
I0406 13:55:48.735558  9039 net.cpp:356] fc8_deepfashion -> fc8_deepfashion
I0406 13:55:48.735566  9039 net.cpp:96] Setting up fc8_deepfashion
I0406 13:55:48.742101  9039 net.cpp:103] Top shape: 32 48 1 1 (1536)
I0406 13:55:48.742123  9039 net.cpp:67] Creating Layer fc8_deepfashion_encode
I0406 13:55:48.742128  9039 net.cpp:394] fc8_deepfashion_encode <- fc8_deepfashion
I0406 13:55:48.742135  9039 net.cpp:356] fc8_deepfashion_encode -> fc8_deepfashion_encode
I0406 13:55:48.742141  9039 net.cpp:96] Setting up fc8_deepfashion_encode
I0406 13:55:48.742149  9039 net.cpp:103] Top shape: 32 48 1 1 (1536)
I0406 13:55:48.742156  9039 net.cpp:67] Creating Layer fc8_deepfashion_encode_fc8_deepfashion_encode_0_split
I0406 13:55:48.742161  9039 net.cpp:394] fc8_deepfashion_encode_fc8_deepfashion_encode_0_split <- fc8_deepfashion_encode
I0406 13:55:48.742167  9039 net.cpp:356] fc8_deepfashion_encode_fc8_deepfashion_encode_0_split -> fc8_deepfashion_encode_fc8_deepfashion_encode_0_split_0
I0406 13:55:48.742174  9039 net.cpp:356] fc8_deepfashion_encode_fc8_deepfashion_encode_0_split -> fc8_deepfashion_encode_fc8_deepfashion_encode_0_split_1
I0406 13:55:48.742182  9039 net.cpp:96] Setting up fc8_deepfashion_encode_fc8_deepfashion_encode_0_split
I0406 13:55:48.742185  9039 net.cpp:103] Top shape: 32 48 1 1 (1536)
I0406 13:55:48.742189  9039 net.cpp:103] Top shape: 32 48 1 1 (1536)
I0406 13:55:48.742197  9039 net.cpp:67] Creating Layer fc8_pascal_label_mod
I0406 13:55:48.742202  9039 net.cpp:394] fc8_pascal_label_mod <- fc8_deepfashion_encode_fc8_deepfashion_encode_0_split_0
I0406 13:55:48.742209  9039 net.cpp:356] fc8_pascal_label_mod -> fc8_pascal_label_mod
I0406 13:55:48.742215  9039 net.cpp:96] Setting up fc8_pascal_label_mod
I0406 13:55:48.742241  9039 net.cpp:103] Top shape: 32 10 1 1 (320)
I0406 13:55:48.742264  9039 net.cpp:67] Creating Layer fc8_pascal_label_mod_fc8_pascal_label_mod_0_split
I0406 13:55:48.742274  9039 net.cpp:394] fc8_pascal_label_mod_fc8_pascal_label_mod_0_split <- fc8_pascal_label_mod
I0406 13:55:48.742280  9039 net.cpp:356] fc8_pascal_label_mod_fc8_pascal_label_mod_0_split -> fc8_pascal_label_mod_fc8_pascal_label_mod_0_split_0
I0406 13:55:48.742290  9039 net.cpp:356] fc8_pascal_label_mod_fc8_pascal_label_mod_0_split -> fc8_pascal_label_mod_fc8_pascal_label_mod_0_split_1
I0406 13:55:48.742297  9039 net.cpp:96] Setting up fc8_pascal_label_mod_fc8_pascal_label_mod_0_split
I0406 13:55:48.742301  9039 net.cpp:103] Top shape: 32 10 1 1 (320)
I0406 13:55:48.742305  9039 net.cpp:103] Top shape: 32 10 1 1 (320)
I0406 13:55:48.742313  9039 net.cpp:67] Creating Layer fc8_pascal_color_mod
I0406 13:55:48.742318  9039 net.cpp:394] fc8_pascal_color_mod <- fc8_deepfashion_encode_fc8_deepfashion_encode_0_split_1
I0406 13:55:48.742324  9039 net.cpp:356] fc8_pascal_color_mod -> fc8_pascal_color_mod
I0406 13:55:48.742331  9039 net.cpp:96] Setting up fc8_pascal_color_mod
I0406 13:55:48.742367  9039 net.cpp:103] Top shape: 32 16 1 1 (512)
I0406 13:55:48.742388  9039 net.cpp:67] Creating Layer fc8_pascal_color_mod_fc8_pascal_color_mod_0_split
I0406 13:55:48.742393  9039 net.cpp:394] fc8_pascal_color_mod_fc8_pascal_color_mod_0_split <- fc8_pascal_color_mod
I0406 13:55:48.742398  9039 net.cpp:356] fc8_pascal_color_mod_fc8_pascal_color_mod_0_split -> fc8_pascal_color_mod_fc8_pascal_color_mod_0_split_0
I0406 13:55:48.742431  9039 net.cpp:356] fc8_pascal_color_mod_fc8_pascal_color_mod_0_split -> fc8_pascal_color_mod_fc8_pascal_color_mod_0_split_1
I0406 13:55:48.742439  9039 net.cpp:96] Setting up fc8_pascal_color_mod_fc8_pascal_color_mod_0_split
I0406 13:55:48.742444  9039 net.cpp:103] Top shape: 32 16 1 1 (512)
I0406 13:55:48.742447  9039 net.cpp:103] Top shape: 32 16 1 1 (512)
I0406 13:55:48.742455  9039 net.cpp:67] Creating Layer loss
I0406 13:55:48.742460  9039 net.cpp:394] loss <- fc8_pascal_label_mod_fc8_pascal_label_mod_0_split_0
I0406 13:55:48.742465  9039 net.cpp:394] loss <- labels0_sliceL_0_split_0
I0406 13:55:48.742471  9039 net.cpp:356] loss -> (automatic)
I0406 13:55:48.742476  9039 net.cpp:96] Setting up loss
I0406 13:55:48.742486  9039 net.cpp:103] Top shape: 1 1 1 1 (1)
I0406 13:55:48.742491  9039 net.cpp:109]     with loss weight 1
I0406 13:55:48.742512  9039 net.cpp:67] Creating Layer loss
I0406 13:55:48.742516  9039 net.cpp:394] loss <- fc8_pascal_color_mod_fc8_pascal_color_mod_0_split_0
I0406 13:55:48.742522  9039 net.cpp:394] loss <- labels1_sliceL_1_split_0
I0406 13:55:48.742529  9039 net.cpp:356] loss -> (automatic)
I0406 13:55:48.742537  9039 net.cpp:96] Setting up loss
I0406 13:55:48.742547  9039 net.cpp:103] Top shape: 1 1 1 1 (1)
I0406 13:55:48.742552  9039 net.cpp:109]     with loss weight 1
I0406 13:55:48.742559  9039 net.cpp:67] Creating Layer accuracy
I0406 13:55:48.742563  9039 net.cpp:394] accuracy <- fc8_pascal_color_mod_fc8_pascal_color_mod_0_split_1
I0406 13:55:48.742568  9039 net.cpp:394] accuracy <- labels1_sliceL_1_split_1
I0406 13:55:48.742573  9039 net.cpp:356] accuracy -> colorAccuracy
I0406 13:55:48.742579  9039 net.cpp:96] Setting up accuracy
I0406 13:55:48.742588  9039 net.cpp:103] Top shape: 1 1 1 1 (1)
I0406 13:55:48.742594  9039 net.cpp:67] Creating Layer accuracy1
I0406 13:55:48.742599  9039 net.cpp:394] accuracy1 <- fc8_pascal_label_mod_fc8_pascal_label_mod_0_split_1
I0406 13:55:48.742604  9039 net.cpp:394] accuracy1 <- labels0_sliceL_0_split_1
I0406 13:55:48.742611  9039 net.cpp:356] accuracy1 -> labelAccuracy
I0406 13:55:48.742616  9039 net.cpp:96] Setting up accuracy1
I0406 13:55:48.742621  9039 net.cpp:103] Top shape: 1 1 1 1 (1)
I0406 13:55:48.742626  9039 net.cpp:67] Creating Layer silence
I0406 13:55:48.742631  9039 net.cpp:394] silence <- random
I0406 13:55:48.742635  9039 net.cpp:96] Setting up silence
I0406 13:55:48.742640  9039 net.cpp:172] silence does not need backward computation.
I0406 13:55:48.742642  9039 net.cpp:172] accuracy1 does not need backward computation.
I0406 13:55:48.742646  9039 net.cpp:172] accuracy does not need backward computation.
…
