…
  top: "data"
  top: "random"
  name: "data"
  type: DATA
  data_param {
    source: "/data/deepfashion/color_label_multilabel/color_label_multilabel_TRAIN"
    batch_size: 32
    backend: LMDB
  }
  include {
    phase: TRAIN
  }
  transform_param {
    mirror: true
    crop_size: 227
    mean_file: "../../../data/ilsvrc12/imagenet_mean.binaryproto"
  }
}
layers {
  top: "labels"
  name: "labels"
  type: DATA
  data_param {
    source: "/data/deepfashion/color_label_multilabel/color_label_multilabel_TRAIN_ALT"
    batch_size: 32
    backend: LMDB
  }
  include {
    phase: TRAIN
  }
}
layers {
  bottom: "labels"
  top: "labels0"
  top: "labels1"
  name: "sliceL"
  type: SLICE
  slice_param {
    slice_point: 1
  }
}
layers {
  bottom: "data"
  top: "conv1"
  name: "conv1"
  type: CONVOLUTION
  blobs_lr: 1
  blobs_lr: 2
  weight_decay: 1
  weight_decay: 0
  convolution_param {
    num_output: 96
    kernel_size: 11
    stride: 4
    weight_filler {
      type: "gaussian"
      std: 0.01
    }
    bias_filler {
      type: "constant"
      value: 0
    }
  }
}
layers {
  bottom: "conv1"
  top: "conv1"
  name: "relu1"
  type: RELU
}
layers {
  bottom: "conv1"
  top: "pool1"
  name: "pool1"
  type: POOLING
  pooling_param {
    pool: MAX
    kernel_size: 3
    stride: 2
  }
}
layers {
  bottom: "pool1"
  top: "norm1"
  name: "norm1"
  type: LRN
  lrn_param {
    local_size: 5
    alpha: 0.0001
    beta: 0.75
  }
}
layers {
  bottom: "norm1"
  top: "conv2"
  name: "conv2"
  type: CONVOLUTION
  blobs_lr: 1
  blobs_lr: 2
  weight_decay: 1
  weight_decay: 0
  convolution_param {
    num_output: 256
    pad: 2
    kernel_size: 5
    group: 2
    weight_filler {
      type: "gaussian"
      std: 0.01
    }
    bias_filler {
      type: "constant"
      value: 1
    }
  }
}
layers {
  bottom: "conv2"
  top: "conv2"
  name: "relu2"
  type: RELU
}
layers {
  bottom: "conv2"
  top: "pool2"
  name: "pool2"
  type: POOLING
  pooling_param {
    pool: MAX
    kernel_size: 3
    stride: 2
  }
}
layers {
  bottom: "pool2"
  top: "norm2"
  name: "norm2"
  type: LRN
  lrn_param {
    local_size: 5
    alpha: 0.0001
    beta: 0.75
  }
}
layers {
  bottom: "norm2"
  top: "conv3"
  name: "conv3"
  type: CONVOLUTION
  blobs_lr: 1
  blobs_lr: 2
  weight_decay: 1
  weight_decay: 0
  convolution_param {
    num_output: 384
    pad: 1
    kernel_size: 3
    weight_filler {
      type: "gaussian"
      std: 0.01
    }
    bias_filler {
      type: "constant"
      value: 0
    }
  }
}
layers {
  bottom: "conv3"
  top: "conv3"
  name: "relu3"
  type: RELU
}
layers {
  bottom: "conv3"
  top: "conv4"
  name: "conv4"
  type: CONVOLUTION
  blobs_lr: 1
  blobs_lr: 2
  weight_decay: 1
  weight_decay: 0
  convolution_param {
    num_output: 384
    pad: 1
    kernel_size: 3
    group: 2
    weight_filler {
      type: "gaussian"
      std: 0.01
    }
    bias_filler {
      type: "constant"
      value: 1
    }
  }
}
layers {
  bottom: "conv4"
  top: "conv4"
  name: "relu4"
  type: RELU
}
layers {
  bottom: "conv4"
  top: "conv5"
  name: "conv5"
  type: CONVOLUTION
  blobs_lr: 1
  blobs_lr: 2
  weight_decay: 1
  weight_decay: 0
  convolution_param {
    num_output: 256
    pad: 1
    kernel_size: 3
    group: 2
    weight_filler {
      type: "gaussian"
      std: 0.01
    }
    bias_filler {
      type: "constant"
      value: 1
    }
  }
}
layers {
  bottom: "conv5"
  top: "conv5"
  name: "relu5"
  type: RELU
}
layers {
  bottom: "conv5"
  top: "pool5"
  name: "pool5"
  type: POOLING
  pooling_param {
    pool: MAX
    kernel_size: 3
    stride: 2
  }
}
layers {
  bottom: "pool5"
  top: "fc6"
  name: "fc6"
  type: INNER_PRODUCT
  blobs_lr: 1
  blobs_lr: 2
  weight_decay: 1
  weight_decay: 0
  inner_product_param {
    num_output: 4096
    weight_filler {
      type: "gaussian"
      std: 0.005
    }
    bias_filler {
      type: "constant"
      value: 1
    }
  }
}
layers {
  bottom: "fc6"
  top: "fc6"
  name: "relu6"
  type: RELU
}
layers {
  bottom: "fc6"
  top: "fc6"
  name: "drop6"
  type: DROPOUT
  dropout_param {
    dropout_ratio: 0.5
  }
}
layers {
  bottom: "fc6"
  top: "fc7"
  name: "fc7"
  type: INNER_PRODUCT
  blobs_lr: 1
  blobs_lr: 2
  weight_decay: 1
  weight_decay: 0
  inner_product_param {
    num_output: 4096
    weight_filler {
      type: "gaussian"
      std: 0.005
    }
    bias_filler {
      type: "constant"
      value: 1
    }
  }
}
layers {
  bottom: "fc7"
  top: "fc7"
  name: "relu7"
  type: RELU
}
layers {
  bottom: "fc7"
  top: "fc7"
  name: "drop7"
  type: DROPOUT
  dropout_param {
    dropout_ratio: 0.5
  }
}
layers {
  bottom: "fc7"
  top: "fc8_deepfashion"
  name: "fc8_deepfashion"
  type: INNER_PRODUCT
  blobs_lr: 1
  blobs_lr: 2
  weight_decay: 1
  weight_decay: 0
  inner_product_param {
    num_output: 48
    weight_filler {
      type: "gaussian"
      std: 0.01
    }
    bias_filler {
      type: "constant"
      value: 0
    }
  }
}
layers {
  bottom: "fc8_deepfashion"
  top: "fc8_deepfashion_encode"
  name: "fc8_deepfashion_encode"
  type: SIGMOID
}
layers {
  bottom: "fc8_deepfashion_encode"
  top: "fc8_pascal_label_mod"
  name: "fc8_pascal_label_mod"
  type: INNER_PRODUCT
  blobs_lr: 1
  blobs_lr: 2
  weight_decay: 1
  weight_decay: 0
  inner_product_param {
    num_output: 10
    weight_filler {
      type: "gaussian"
      std: 0.01
    }
    bias_filler {
      type: "constant"
      value: 0
    }
  }
}
layers {
  bottom: "fc8_deepfashion_encode"
  top: "fc8_pascal_color_mod"
  name: "fc8_pascal_color_mod"
  type: INNER_PRODUCT
  blobs_lr: 1
  blobs_lr: 2
  weight_decay: 1
  weight_decay: 0
  inner_product_param {
    num_output: 16
    weight_filler {
      type: "gaussian"
      std: 0.01
    }
    bias_filler {
      type: "constant"
      value: 0
    }
  }
}
layers {
  bottom: "fc8_pascal_label_mod"
  bottom: "labels0"
  name: "loss"
  type: SOFTMAX_LOSS
}
layers {
  bottom: "fc8_pascal_color_mod"
  bottom: "labels1"
  name: "loss"
  type: SOFTMAX_LOSS
}
layers {
  bottom: "random"
  name: "silence"
  type: SILENCE
}
state {
  phase: TRAIN
}
I0410 20:10:04.685952  5509 net.cpp:67] Creating Layer data
I0410 20:10:04.685966  5509 net.cpp:356] data -> data
I0410 20:10:04.685982  5509 net.cpp:356] data -> random
I0410 20:10:04.685997  5509 net.cpp:96] Setting up data
I0410 20:10:04.686108  5509 data_layer.cpp:68] Opening lmdb /data/deepfashion/color_label_multilabel/color_label_multilabel_TRAIN
I0410 20:10:04.686276  5509 data_layer.cpp:128] output data size: 32,3,227,227
I0410 20:10:04.686285  5509 base_data_layer.cpp:36] Loading mean file from../../../data/ilsvrc12/imagenet_mean.binaryproto
I0410 20:10:04.693559  5509 net.cpp:103] Top shape: 32 3 227 227 (4946784)
I0410 20:10:04.693591  5509 net.cpp:103] Top shape: 32 1 1 1 (32)
I0410 20:10:04.693608  5509 net.cpp:67] Creating Layer labels
I0410 20:10:04.693615  5509 net.cpp:356] labels -> labels
I0410 20:10:04.693627  5509 net.cpp:96] Setting up labels
I0410 20:10:04.693719  5509 data_layer.cpp:68] Opening lmdb /data/deepfashion/color_label_multilabel/color_label_multilabel_TRAIN_ALT
I0410 20:10:04.693763  5509 data_layer.cpp:128] output data size: 32,2,1,1
I0410 20:10:04.693830  5509 net.cpp:103] Top shape: 32 2 1 1 (64)
I0410 20:10:04.693850  5509 net.cpp:67] Creating Layer sliceL
I0410 20:10:04.693874  5509 net.cpp:394] sliceL <- labels
I0410 20:10:04.693887  5509 net.cpp:356] sliceL -> labels0
I0410 20:10:04.693895  5509 net.cpp:356] sliceL -> labels1
I0410 20:10:04.693904  5509 net.cpp:96] Setting up sliceL
I0410 20:10:04.693913  5509 net.cpp:103] Top shape: 32 1 1 1 (32)
I0410 20:10:04.693917  5509 net.cpp:103] Top shape: 32 1 1 1 (32)
I0410 20:10:04.693927  5509 net.cpp:67] Creating Layer conv1
I0410 20:10:04.693930  5509 net.cpp:394] conv1 <- data
I0410 20:10:04.693939  5509 net.cpp:356] conv1 -> conv1
I0410 20:10:04.693955  5509 net.cpp:96] Setting up conv1
I0410 20:10:04.716266  5509 net.cpp:103] Top shape: 32 96 55 55 (9292800)
I0410 20:10:04.716323  5509 net.cpp:67] Creating Layer relu1
I0410 20:10:04.716331  5509 net.cpp:394] relu1 <- conv1
I0410 20:10:04.716338  5509 net.cpp:345] relu1 -> conv1 (in-place)
I0410 20:10:04.716347  5509 net.cpp:96] Setting up relu1
I0410 20:10:04.716358  5509 net.cpp:103] Top shape: 32 96 55 55 (9292800)
I0410 20:10:04.716366  5509 net.cpp:67] Creating Layer pool1
I0410 20:10:04.716369  5509 net.cpp:394] pool1 <- conv1
I0410 20:10:04.716375  5509 net.cpp:356] pool1 -> pool1
I0410 20:10:04.716382  5509 net.cpp:96] Setting up pool1
I0410 20:10:04.716403  5509 net.cpp:103] Top shape: 32 96 27 27 (2239488)
I0410 20:10:04.716418  5509 net.cpp:67] Creating Layer norm1
I0410 20:10:04.716423  5509 net.cpp:394] norm1 <- pool1
I0410 20:10:04.716428  5509 net.cpp:356] norm1 -> norm1
I0410 20:10:04.716434  5509 net.cpp:96] Setting up norm1
I0410 20:10:04.716442  5509 net.cpp:103] Top shape: 32 96 27 27 (2239488)
I0410 20:10:04.716450  5509 net.cpp:67] Creating Layer conv2
I0410 20:10:04.716454  5509 net.cpp:394] conv2 <- norm1
I0410 20:10:04.716460  5509 net.cpp:356] conv2 -> conv2
I0410 20:10:04.716469  5509 net.cpp:96] Setting up conv2
I0410 20:10:04.726737  5509 net.cpp:103] Top shape: 32 256 27 27 (5971968)
I0410 20:10:04.726761  5509 net.cpp:67] Creating Layer relu2
I0410 20:10:04.726766  5509 net.cpp:394] relu2 <- conv2
I0410 20:10:04.726774  5509 net.cpp:345] relu2 -> conv2 (in-place)
I0410 20:10:04.726781  5509 net.cpp:96] Setting up relu2
I0410 20:10:04.726788  5509 net.cpp:103] Top shape: 32 256 27 27 (5971968)
I0410 20:10:04.726794  5509 net.cpp:67] Creating Layer pool2
I0410 20:10:04.726799  5509 net.cpp:394] pool2 <- conv2
I0410 20:10:04.726804  5509 net.cpp:356] pool2 -> pool2
I0410 20:10:04.726809  5509 net.cpp:96] Setting up pool2
I0410 20:10:04.726817  5509 net.cpp:103] Top shape: 32 256 13 13 (1384448)
I0410 20:10:04.726825  5509 net.cpp:67] Creating Layer norm2
I0410 20:10:04.726830  5509 net.cpp:394] norm2 <- pool2
I0410 20:10:04.726836  5509 net.cpp:356] norm2 -> norm2
I0410 20:10:04.726842  5509 net.cpp:96] Setting up norm2
I0410 20:10:04.726847  5509 net.cpp:103] Top shape: 32 256 13 13 (1384448)
I0410 20:10:04.726855  5509 net.cpp:67] Creating Layer conv3
I0410 20:10:04.726857  5509 net.cpp:394] conv3 <- norm2
I0410 20:10:04.726866  5509 net.cpp:356] conv3 -> conv3
I0410 20:10:04.726872  5509 net.cpp:96] Setting up conv3
I0410 20:10:04.755735  5509 net.cpp:103] Top shape: 32 384 13 13 (2076672)
I0410 20:10:04.755759  5509 net.cpp:67] Creating Layer relu3
I0410 20:10:04.755764  5509 net.cpp:394] relu3 <- conv3
I0410 20:10:04.755772  5509 net.cpp:345] relu3 -> conv3 (in-place)
I0410 20:10:04.755779  5509 net.cpp:96] Setting up relu3
I0410 20:10:04.755785  5509 net.cpp:103] Top shape: 32 384 13 13 (2076672)
I0410 20:10:04.755792  5509 net.cpp:67] Creating Layer conv4
I0410 20:10:04.755796  5509 net.cpp:394] conv4 <- conv3
I0410 20:10:04.755802  5509 net.cpp:356] conv4 -> conv4
I0410 20:10:04.755808  5509 net.cpp:96] Setting up conv4
I0410 20:10:04.777829  5509 net.cpp:103] Top shape: 32 384 13 13 (2076672)
I0410 20:10:04.777855  5509 net.cpp:67] Creating Layer relu4
I0410 20:10:04.777861  5509 net.cpp:394] relu4 <- conv4
I0410 20:10:04.777887  5509 net.cpp:345] relu4 -> conv4 (in-place)
I0410 20:10:04.777894  5509 net.cpp:96] Setting up relu4
I0410 20:10:04.777901  5509 net.cpp:103] Top shape: 32 384 13 13 (2076672)
I0410 20:10:04.777915  5509 net.cpp:67] Creating Layer conv5
I0410 20:10:04.777920  5509 net.cpp:394] conv5 <- conv4
I0410 20:10:04.777928  5509 net.cpp:356] conv5 -> conv5
I0410 20:10:04.777935  5509 net.cpp:96] Setting up conv5
I0410 20:10:04.792659  5509 net.cpp:103] Top shape: 32 256 13 13 (1384448)
I0410 20:10:04.792685  5509 net.cpp:67] Creating Layer relu5
I0410 20:10:04.792690  5509 net.cpp:394] relu5 <- conv5
I0410 20:10:04.792697  5509 net.cpp:345] relu5 -> conv5 (in-place)
I0410 20:10:04.792704  5509 net.cpp:96] Setting up relu5
I0410 20:10:04.792711  5509 net.cpp:103] Top shape: 32 256 13 13 (1384448)
I0410 20:10:04.792717  5509 net.cpp:67] Creating Layer pool5
I0410 20:10:04.792723  5509 net.cpp:394] pool5 <- conv5
I0410 20:10:04.792729  5509 net.cpp:356] pool5 -> pool5
I0410 20:10:04.792737  5509 net.cpp:96] Setting up pool5
I0410 20:10:04.792745  5509 net.cpp:103] Top shape: 32 256 6 6 (294912)
I0410 20:10:04.792758  5509 net.cpp:67] Creating Layer fc6
I0410 20:10:04.792762  5509 net.cpp:394] fc6 <- pool5
I0410 20:10:04.792768  5509 net.cpp:356] fc6 -> fc6
I0410 20:10:04.792775  5509 net.cpp:96] Setting up fc6
I0410 20:10:06.021476  5509 net.cpp:103] Top shape: 32 4096 1 1 (131072)
I0410 20:10:06.021529  5509 net.cpp:67] Creating Layer relu6
I0410 20:10:06.021538  5509 net.cpp:394] relu6 <- fc6
I0410 20:10:06.021548  5509 net.cpp:345] relu6 -> fc6 (in-place)
I0410 20:10:06.021558  5509 net.cpp:96] Setting up relu6
I0410 20:10:06.021575  5509 net.cpp:103] Top shape: 32 4096 1 1 (131072)
I0410 20:10:06.021582  5509 net.cpp:67] Creating Layer drop6
I0410 20:10:06.021587  5509 net.cpp:394] drop6 <- fc6
I0410 20:10:06.021592  5509 net.cpp:345] drop6 -> fc6 (in-place)
I0410 20:10:06.021598  5509 net.cpp:96] Setting up drop6
I0410 20:10:06.021608  5509 net.cpp:103] Top shape: 32 4096 1 1 (131072)
I0410 20:10:06.021615  5509 net.cpp:67] Creating Layer fc7
I0410 20:10:06.021620  5509 net.cpp:394] fc7 <- fc6
I0410 20:10:06.021627  5509 net.cpp:356] fc7 -> fc7
I0410 20:10:06.021638  5509 net.cpp:96] Setting up fc7
I0410 20:10:06.567966  5509 net.cpp:103] Top shape: 32 4096 1 1 (131072)
I0410 20:10:06.568028  5509 net.cpp:67] Creating Layer relu7
I0410 20:10:06.568037  5509 net.cpp:394] relu7 <- fc7
I0410 20:10:06.568044  5509 net.cpp:345] relu7 -> fc7 (in-place)
I0410 20:10:06.568053  5509 net.cpp:96] Setting up relu7
I0410 20:10:06.568071  5509 net.cpp:103] Top shape: 32 4096 1 1 (131072)
I0410 20:10:06.568078  5509 net.cpp:67] Creating Layer drop7
I0410 20:10:06.568083  5509 net.cpp:394] drop7 <- fc7
I0410 20:10:06.568092  5509 net.cpp:345] drop7 -> fc7 (in-place)
I0410 20:10:06.568099  5509 net.cpp:96] Setting up drop7
I0410 20:10:06.568104  5509 net.cpp:103] Top shape: 32 4096 1 1 (131072)
I0410 20:10:06.568111  5509 net.cpp:67] Creating Layer fc8_deepfashion
I0410 20:10:06.568115  5509 net.cpp:394] fc8_deepfashion <- fc7
I0410 20:10:06.568121  5509 net.cpp:356] fc8_deepfashion -> fc8_deepfashion
I0410 20:10:06.568130  5509 net.cpp:96] Setting up fc8_deepfashion
I0410 20:10:06.575496  5509 net.cpp:103] Top shape: 32 48 1 1 (1536)
I0410 20:10:06.575520  5509 net.cpp:67] Creating Layer fc8_deepfashion_encode
I0410 20:10:06.575525  5509 net.cpp:394] fc8_deepfashion_encode <- fc8_deepfashion
I0410 20:10:06.575534  5509 net.cpp:356] fc8_deepfashion_encode -> fc8_deepfashion_encode
I0410 20:10:06.575541  5509 net.cpp:96] Setting up fc8_deepfashion_encode
I0410 20:10:06.575556  5509 net.cpp:103] Top shape: 32 48 1 1 (1536)
I0410 20:10:06.575569  5509 net.cpp:67] Creating Layer fc8_deepfashion_encode_fc8_deepfashion_encode_0_split
I0410 20:10:06.575573  5509 net.cpp:394] fc8_deepfashion_encode_fc8_deepfashion_encode_0_split <- fc8_deepfashion_encode
I0410 20:10:06.575579  5509 net.cpp:356] fc8_deepfashion_encode_fc8_deepfashion_encode_0_split -> fc8_deepfashion_encode_fc8_deepfashion_encode_0_split_0
I0410 20:10:06.575618  5509 net.cpp:356] fc8_deepfashion_encode_fc8_deepfashion_encode_0_split -> fc8_deepfashion_encode_fc8_deepfashion_encode_0_split_1
I0410 20:10:06.575626  5509 net.cpp:96] Setting up fc8_deepfashion_encode_fc8_deepfashion_encode_0_split
I0410 20:10:06.575634  5509 net.cpp:103] Top shape: 32 48 1 1 (1536)
I0410 20:10:06.575637  5509 net.cpp:103] Top shape: 32 48 1 1 (1536)
I0410 20:10:06.575644  5509 net.cpp:67] Creating Layer fc8_pascal_label_mod
I0410 20:10:06.575649  5509 net.cpp:394] fc8_pascal_label_mod <- fc8_deepfashion_encode_fc8_deepfashion_encode_0_split_0
I0410 20:10:06.575654  5509 net.cpp:356] fc8_pascal_label_mod -> fc8_pascal_label_mod
I0410 20:10:06.575659  5509 net.cpp:96] Setting up fc8_pascal_label_mod
I0410 20:10:06.575687  5509 net.cpp:103] Top shape: 32 10 1 1 (320)
I0410 20:10:06.575708  5509 net.cpp:67] Creating Layer fc8_pascal_color_mod
I0410 20:10:06.575713  5509 net.cpp:394] fc8_pascal_color_mod <- fc8_deepfashion_encode_fc8_deepfashion_encode_0_split_1
I0410 20:10:06.575721  5509 net.cpp:356] fc8_pascal_color_mod -> fc8_pascal_color_mod
I0410 20:10:06.575727  5509 net.cpp:96] Setting up fc8_pascal_color_mod
I0410 20:10:06.575764  5509 net.cpp:103] Top shape: 32 16 1 1 (512)
I0410 20:10:06.575780  5509 net.cpp:67] Creating Layer loss
I0410 20:10:06.575785  5509 net.cpp:394] loss <- fc8_pascal_label_mod
I0410 20:10:06.575790  5509 net.cpp:394] loss <- labels0
I0410 20:10:06.575796  5509 net.cpp:356] loss -> (automatic)
I0410 20:10:06.575801  5509 net.cpp:96] Setting up loss
I0410 20:10:06.575814  5509 net.cpp:103] Top shape: 1 1 1 1 (1)
I0410 20:10:06.575817  5509 net.cpp:109]     with loss weight 1
I0410 20:10:06.575863  5509 net.cpp:67] Creating Layer loss
I0410 20:10:06.575868  5509 net.cpp:394] loss <- fc8_pascal_color_mod
I0410 20:10:06.575873  5509 net.cpp:394] loss <- labels1
I0410 20:10:06.575878  5509 net.cpp:356] loss -> (automatic)
I0410 20:10:06.575883  5509 net.cpp:96] Setting up loss
I0410 20:10:06.575891  5509 net.cpp:103] Top shape: 1 1 1 1 (1)
I0410 20:10:06.575896  5509 net.cpp:109]     with loss weight 1
I0410 20:10:06.575902  5509 net.cpp:67] Creating Layer silence
I0410 20:10:06.575907  5509 net.cpp:394] silence <- random
I0410 20:10:06.575911  5509 net.cpp:96] Setting up silence
I0410 20:10:06.575916  5509 net.cpp:172] silence does not need backward computation.
I0410 20:10:06.575919  5509 net.cpp:170] loss needs backward computation.
…
layers {
  top: "data"
  top: "random"
  name: "data"
  type: DATA
  data_param {
    source: "/data/deepfashion/color_label_multilabel/color_label_multilabel_test"
    batch_size: 32
    backend: LMDB
  }
  include {
    phase: TEST
  }
  transform_param {
    mirror: true
    crop_size: 227
    mean_file: "../../../data/ilsvrc12/imagenet_mean.binaryproto"
  }
}
layers {
  top: "labels"
  name: "labels"
  type: DATA
  data_param {
    source: "/data/deepfashion/color_label_multilabel/color_label_multilabel_test_alt"
    batch_size: 32
    backend: LMDB
  }
  include {
    phase: TEST
  }
}
layers {
  bottom: "labels"
  top: "labels0"
  top: "labels1"
  name: "sliceL"
  type: SLICE
  slice_param {
    slice_point: 1
  }
}
layers {
  bottom: "data"
  top: "conv1"
  name: "conv1"
  type: CONVOLUTION
  blobs_lr: 1
  blobs_lr: 2
  weight_decay: 1
  weight_decay: 0
  convolution_param {
    num_output: 96
    kernel_size: 11
    stride: 4
    weight_filler {
      type: "gaussian"
      std: 0.01
    }
    bias_filler {
      type: "constant"
      value: 0
    }
  }
}
layers {
  bottom: "conv1"
  top: "conv1"
  name: "relu1"
  type: RELU
}
layers {
  bottom: "conv1"
  top: "pool1"
  name: "pool1"
  type: POOLING
  pooling_param {
    pool: MAX
    kernel_size: 3
    stride: 2
  }
}
layers {
  bottom: "pool1"
  top: "norm1"
  name: "norm1"
  type: LRN
  lrn_param {
    local_size: 5
    alpha: 0.0001
    beta: 0.75
  }
}
layers {
  bottom: "norm1"
  top: "conv2"
  name: "conv2"
  type: CONVOLUTION
  blobs_lr: 1
  blobs_lr: 2
  weight_decay: 1
  weight_decay: 0
  convolution_param {
    num_output: 256
    pad: 2
    kernel_size: 5
    group: 2
    weight_filler {
      type: "gaussian"
      std: 0.01
    }
    bias_filler {
      type: "constant"
      value: 1
    }
  }
}
layers {
  bottom: "conv2"
  top: "conv2"
  name: "relu2"
  type: RELU
}
layers {
  bottom: "conv2"
  top: "pool2"
  name: "pool2"
  type: POOLING
  pooling_param {
    pool: MAX
    kernel_size: 3
    stride: 2
  }
}
layers {
  bottom: "pool2"
  top: "norm2"
  name: "norm2"
  type: LRN
  lrn_param {
    local_size: 5
    alpha: 0.0001
    beta: 0.75
  }
}
layers {
  bottom: "norm2"
  top: "conv3"
  name: "conv3"
  type: CONVOLUTION
  blobs_lr: 1
  blobs_lr: 2
  weight_decay: 1
  weight_decay: 0
  convolution_param {
    num_output: 384
    pad: 1
    kernel_size: 3
    weight_filler {
      type: "gaussian"
      std: 0.01
    }
    bias_filler {
      type: "constant"
      value: 0
    }
  }
}
layers {
  bottom: "conv3"
  top: "conv3"
  name: "relu3"
  type: RELU
}
layers {
  bottom: "conv3"
  top: "conv4"
  name: "conv4"
  type: CONVOLUTION
  blobs_lr: 1
  blobs_lr: 2
  weight_decay: 1
  weight_decay: 0
  convolution_param {
    num_output: 384
    pad: 1
    kernel_size: 3
    group: 2
    weight_filler {
      type: "gaussian"
      std: 0.01
    }
    bias_filler {
      type: "constant"
      value: 1
    }
  }
}
layers {
  bottom: "conv4"
  top: "conv4"
  name: "relu4"
  type: RELU
}
layers {
  bottom: "conv4"
  top: "conv5"
  name: "conv5"
  type: CONVOLUTION
  blobs_lr: 1
  blobs_lr: 2
  weight_decay: 1
  weight_decay: 0
  convolution_param {
    num_output: 256
    pad: 1
    kernel_size: 3
    group: 2
    weight_filler {
      type: "gaussian"
      std: 0.01
    }
    bias_filler {
      type: "constant"
      value: 1
    }
  }
}
layers {
  bottom: "conv5"
  top: "conv5"
  name: "relu5"
  type: RELU
}
layers {
  bottom: "conv5"
  top: "pool5"
  name: "pool5"
  type: POOLING
  pooling_param {
    pool: MAX
    kernel_size: 3
    stride: 2
  }
}
layers {
  bottom: "pool5"
  top: "fc6"
  name: "fc6"
  type: INNER_PRODUCT
  blobs_lr: 1
  blobs_lr: 2
  weight_decay: 1
  weight_decay: 0
  inner_product_param {
    num_output: 4096
    weight_filler {
      type: "gaussian"
      std: 0.005
    }
    bias_filler {
      type: "constant"
      value: 1
    }
  }
}
layers {
  bottom: "fc6"
  top: "fc6"
  name: "relu6"
  type: RELU
}
layers {
  bottom: "fc6"
  top: "fc6"
  name: "drop6"
  type: DROPOUT
  dropout_param {
    dropout_ratio: 0.5
  }
}
layers {
  bottom: "fc6"
  top: "fc7"
  name: "fc7"
  type: INNER_PRODUCT
  blobs_lr: 1
  blobs_lr: 2
  weight_decay: 1
  weight_decay: 0
  inner_product_param {
    num_output: 4096
    weight_filler {
      type: "gaussian"
      std: 0.005
    }
    bias_filler {
      type: "constant"
      value: 1
    }
  }
}
layers {
  bottom: "fc7"
  top: "fc7"
  name: "relu7"
  type: RELU
}
layers {
  bottom: "fc7"
  top: "fc7"
  name: "drop7"
  type: DROPOUT
  dropout_param {
    dropout_ratio: 0.5
  }
}
layers {
  bottom: "fc7"
  top: "fc8_deepfashion"
  name: "fc8_deepfashion"
  type: INNER_PRODUCT
  blobs_lr: 1
  blobs_lr: 2
  weight_decay: 1
  weight_decay: 0
  inner_product_param {
    num_output: 48
    weight_filler {
      type: "gaussian"
      std: 0.01
    }
    bias_filler {
      type: "constant"
      value: 0
    }
  }
}
layers {
  bottom: "fc8_deepfashion"
  top: "fc8_deepfashion_encode"
  name: "fc8_deepfashion_encode"
  type: SIGMOID
}
layers {
  bottom: "fc8_deepfashion_encode"
  top: "fc8_pascal_label_mod"
  name: "fc8_pascal_label_mod"
  type: INNER_PRODUCT
  blobs_lr: 1
  blobs_lr: 2
  weight_decay: 1
  weight_decay: 0
  inner_product_param {
    num_output: 10
    weight_filler {
      type: "gaussian"
      std: 0.01
    }
    bias_filler {
      type: "constant"
      value: 0
    }
  }
}
layers {
  bottom: "fc8_deepfashion_encode"
  top: "fc8_pascal_color_mod"
  name: "fc8_pascal_color_mod"
  type: INNER_PRODUCT
  blobs_lr: 1
  blobs_lr: 2
  weight_decay: 1
  weight_decay: 0
  inner_product_param {
    num_output: 16
    weight_filler {
      type: "gaussian"
      std: 0.01
    }
    bias_filler {
      type: "constant"
      value: 0
    }
  }
}
layers {
  bottom: "fc8_pascal_label_mod"
  bottom: "labels0"
  name: "loss"
  type: SOFTMAX_LOSS
}
layers {
  bottom: "fc8_pascal_color_mod"
  bottom: "labels1"
  name: "loss"
  type: SOFTMAX_LOSS
}
layers {
  bottom: "fc8_pascal_color_mod"
  bottom: "labels1"
  top: "colorAccuracy"
  name: "accuracy"
  type: ACCURACY
  include {
    phase: TEST
  }
}
layers {
  bottom: "fc8_pascal_label_mod"
  bottom: "labels0"
  top: "labelAccuracy"
  name: "accuracy1"
  type: ACCURACY
  include {
    phase: TEST
  }
}
layers {
  bottom: "random"
  name: "silence"
  type: SILENCE
}
state {
  phase: TEST
}
I0410 20:10:06.577226  5509 net.cpp:67] Creating Layer data
I0410 20:10:06.577234  5509 net.cpp:356] data -> data
I0410 20:10:06.577244  5509 net.cpp:356] data -> random
I0410 20:10:06.577250  5509 net.cpp:96] Setting up data
I0410 20:10:06.577316  5509 data_layer.cpp:68] Opening lmdb /data/deepfashion/color_label_multilabel/color_label_multilabel_test
I0410 20:10:06.577481  5509 data_layer.cpp:128] output data size: 32,3,227,227
I0410 20:10:06.577500  5509 base_data_layer.cpp:36] Loading mean file from../../../data/ilsvrc12/imagenet_mean.binaryproto
I0410 20:10:06.584398  5509 net.cpp:103] Top shape: 32 3 227 227 (4946784)
I0410 20:10:06.584430  5509 net.cpp:103] Top shape: 32 1 1 1 (32)
I0410 20:10:06.584446  5509 net.cpp:67] Creating Layer labels
I0410 20:10:06.584453  5509 net.cpp:356] labels -> labels
I0410 20:10:06.584465  5509 net.cpp:96] Setting up labels
I0410 20:10:06.584532  5509 data_layer.cpp:68] Opening lmdb /data/deepfashion/color_label_multilabel/color_label_multilabel_test_alt
I0410 20:10:06.584553  5509 data_layer.cpp:128] output data size: 32,2,1,1
I0410 20:10:06.584585  5509 net.cpp:103] Top shape: 32 2 1 1 (64)
I0410 20:10:06.584597  5509 net.cpp:67] Creating Layer sliceL
I0410 20:10:06.584602  5509 net.cpp:394] sliceL <- labels
I0410 20:10:06.584609  5509 net.cpp:356] sliceL -> labels0
I0410 20:10:06.584619  5509 net.cpp:356] sliceL -> labels1
I0410 20:10:06.584626  5509 net.cpp:96] Setting up sliceL
I0410 20:10:06.584632  5509 net.cpp:103] Top shape: 32 1 1 1 (32)
I0410 20:10:06.584636  5509 net.cpp:103] Top shape: 32 1 1 1 (32)
I0410 20:10:06.584642  5509 net.cpp:67] Creating Layer labels0_sliceL_0_split
I0410 20:10:06.584646  5509 net.cpp:394] labels0_sliceL_0_split <- labels0
I0410 20:10:06.584652  5509 net.cpp:356] labels0_sliceL_0_split -> labels0_sliceL_0_split_0
I0410 20:10:06.584658  5509 net.cpp:356] labels0_sliceL_0_split -> labels0_sliceL_0_split_1
I0410 20:10:06.584664  5509 net.cpp:96] Setting up labels0_sliceL_0_split
I0410 20:10:06.584669  5509 net.cpp:103] Top shape: 32 1 1 1 (32)
I0410 20:10:06.584673  5509 net.cpp:103] Top shape: 32 1 1 1 (32)
I0410 20:10:06.584679  5509 net.cpp:67] Creating Layer labels1_sliceL_1_split
I0410 20:10:06.584683  5509 net.cpp:394] labels1_sliceL_1_split <- labels1
I0410 20:10:06.584688  5509 net.cpp:356] labels1_sliceL_1_split -> labels1_sliceL_1_split_0
I0410 20:10:06.584694  5509 net.cpp:356] labels1_sliceL_1_split -> labels1_sliceL_1_split_1
I0410 20:10:06.584700  5509 net.cpp:96] Setting up labels1_sliceL_1_split
I0410 20:10:06.584704  5509 net.cpp:103] Top shape: 32 1 1 1 (32)
I0410 20:10:06.584709  5509 net.cpp:103] Top shape: 32 1 1 1 (32)
I0410 20:10:06.584717  5509 net.cpp:67] Creating Layer conv1
I0410 20:10:06.584720  5509 net.cpp:394] conv1 <- data
I0410 20:10:06.584727  5509 net.cpp:356] conv1 -> conv1
I0410 20:10:06.584733  5509 net.cpp:96] Setting up conv1
I0410 20:10:06.585940  5509 net.cpp:103] Top shape: 32 96 55 55 (9292800)
I0410 20:10:06.585966  5509 net.cpp:67] Creating Layer relu1
I0410 20:10:06.585971  5509 net.cpp:394] relu1 <- conv1
I0410 20:10:06.585978  5509 net.cpp:345] relu1 -> conv1 (in-place)
I0410 20:10:06.585984  5509 net.cpp:96] Setting up relu1
I0410 20:10:06.585991  5509 net.cpp:103] Top shape: 32 96 55 55 (9292800)
I0410 20:10:06.585999  5509 net.cpp:67] Creating Layer pool1
I0410 20:10:06.586002  5509 net.cpp:394] pool1 <- conv1
I0410 20:10:06.586009  5509 net.cpp:356] pool1 -> pool1
I0410 20:10:06.586014  5509 net.cpp:96] Setting up pool1
I0410 20:10:06.586024  5509 net.cpp:103] Top shape: 32 96 27 27 (2239488)
I0410 20:10:06.586031  5509 net.cpp:67] Creating Layer norm1
I0410 20:10:06.586035  5509 net.cpp:394] norm1 <- pool1
I0410 20:10:06.586040  5509 net.cpp:356] norm1 -> norm1
I0410 20:10:06.586047  5509 net.cpp:96] Setting up norm1
I0410 20:10:06.586051  5509 net.cpp:103] Top shape: 32 96 27 27 (2239488)
I0410 20:10:06.586058  5509 net.cpp:67] Creating Layer conv2
I0410 20:10:06.586062  5509 net.cpp:394] conv2 <- norm1
I0410 20:10:06.586068  5509 net.cpp:356] conv2 -> conv2
I0410 20:10:06.586078  5509 net.cpp:96] Setting up conv2
I0410 20:10:06.596266  5509 net.cpp:103] Top shape: 32 256 27 27 (5971968)
I0410 20:10:06.596300  5509 net.cpp:67] Creating Layer relu2
I0410 20:10:06.596307  5509 net.cpp:394] relu2 <- conv2
I0410 20:10:06.596312  5509 net.cpp:345] relu2 -> conv2 (in-place)
I0410 20:10:06.596319  5509 net.cpp:96] Setting up relu2
I0410 20:10:06.596326  5509 net.cpp:103] Top shape: 32 256 27 27 (5971968)
I0410 20:10:06.596355  5509 net.cpp:67] Creating Layer pool2
I0410 20:10:06.596360  5509 net.cpp:394] pool2 <- conv2
I0410 20:10:06.596366  5509 net.cpp:356] pool2 -> pool2
I0410 20:10:06.596374  5509 net.cpp:96] Setting up pool2
I0410 20:10:06.596380  5509 net.cpp:103] Top shape: 32 256 13 13 (1384448)
I0410 20:10:06.596390  5509 net.cpp:67] Creating Layer norm2
I0410 20:10:06.596393  5509 net.cpp:394] norm2 <- pool2
I0410 20:10:06.596398  5509 net.cpp:356] norm2 -> norm2
I0410 20:10:06.596405  5509 net.cpp:96] Setting up norm2
I0410 20:10:06.596410  5509 net.cpp:103] Top shape: 32 256 13 13 (1384448)
I0410 20:10:06.596418  5509 net.cpp:67] Creating Layer conv3
I0410 20:10:06.596422  5509 net.cpp:394] conv3 <- norm2
I0410 20:10:06.596427  5509 net.cpp:356] conv3 -> conv3
I0410 20:10:06.596433  5509 net.cpp:96] Setting up conv3
I0410 20:10:06.625774  5509 net.cpp:103] Top shape: 32 384 13 13 (2076672)
I0410 20:10:06.625813  5509 net.cpp:67] Creating Layer relu3
I0410 20:10:06.625818  5509 net.cpp:394] relu3 <- conv3
I0410 20:10:06.625825  5509 net.cpp:345] relu3 -> conv3 (in-place)
I0410 20:10:06.625833  5509 net.cpp:96] Setting up relu3
I0410 20:10:06.625839  5509 net.cpp:103] Top shape: 32 384 13 13 (2076672)
I0410 20:10:06.625849  5509 net.cpp:67] Creating Layer conv4
I0410 20:10:06.625854  5509 net.cpp:394] conv4 <- conv3
I0410 20:10:06.625859  5509 net.cpp:356] conv4 -> conv4
I0410 20:10:06.625867  5509 net.cpp:96] Setting up conv4
I0410 20:10:06.647549  5509 net.cpp:103] Top shape: 32 384 13 13 (2076672)
I0410 20:10:06.647578  5509 net.cpp:67] Creating Layer relu4
I0410 20:10:06.647583  5509 net.cpp:394] relu4 <- conv4
I0410 20:10:06.647589  5509 net.cpp:345] relu4 -> conv4 (in-place)
I0410 20:10:06.647595  5509 net.cpp:96] Setting up relu4
I0410 20:10:06.647601  5509 net.cpp:103] Top shape: 32 384 13 13 (2076672)
I0410 20:10:06.647608  5509 net.cpp:67] Creating Layer conv5
I0410 20:10:06.647614  5509 net.cpp:394] conv5 <- conv4
I0410 20:10:06.647620  5509 net.cpp:356] conv5 -> conv5
I0410 20:10:06.647627  5509 net.cpp:96] Setting up conv5
I0410 20:10:06.662487  5509 net.cpp:103] Top shape: 32 256 13 13 (1384448)
I0410 20:10:06.662515  5509 net.cpp:67] Creating Layer relu5
I0410 20:10:06.662520  5509 net.cpp:394] relu5 <- conv5
I0410 20:10:06.662530  5509 net.cpp:345] relu5 -> conv5 (in-place)
I0410 20:10:06.662538  5509 net.cpp:96] Setting up relu5
I0410 20:10:06.662544  5509 net.cpp:103] Top shape: 32 256 13 13 (1384448)
I0410 20:10:06.662551  5509 net.cpp:67] Creating Layer pool5
I0410 20:10:06.662554  5509 net.cpp:394] pool5 <- conv5
I0410 20:10:06.662560  5509 net.cpp:356] pool5 -> pool5
I0410 20:10:06.662567  5509 net.cpp:96] Setting up pool5
I0410 20:10:06.662575  5509 net.cpp:103] Top shape: 32 256 6 6 (294912)
I0410 20:10:06.662585  5509 net.cpp:67] Creating Layer fc6
I0410 20:10:06.662592  5509 net.cpp:394] fc6 <- pool5
I0410 20:10:06.662600  5509 net.cpp:356] fc6 -> fc6
I0410 20:10:06.662606  5509 net.cpp:96] Setting up fc6
I0410 20:10:07.888860  5509 net.cpp:103] Top shape: 32 4096 1 1 (131072)
I0410 20:10:07.888914  5509 net.cpp:67] Creating Layer relu6
I0410 20:10:07.888921  5509 net.cpp:394] relu6 <- fc6
I0410 20:10:07.888929  5509 net.cpp:345] relu6 -> fc6 (in-place)
I0410 20:10:07.888941  5509 net.cpp:96] Setting up relu6
I0410 20:10:07.888959  5509 net.cpp:103] Top shape: 32 4096 1 1 (131072)
I0410 20:10:07.888969  5509 net.cpp:67] Creating Layer drop6
I0410 20:10:07.888974  5509 net.cpp:394] drop6 <- fc6
I0410 20:10:07.888979  5509 net.cpp:345] drop6 -> fc6 (in-place)
I0410 20:10:07.888985  5509 net.cpp:96] Setting up drop6
I0410 20:10:07.888990  5509 net.cpp:103] Top shape: 32 4096 1 1 (131072)
I0410 20:10:07.888998  5509 net.cpp:67] Creating Layer fc7
I0410 20:10:07.889001  5509 net.cpp:394] fc7 <- fc6
I0410 20:10:07.889014  5509 net.cpp:356] fc7 -> fc7
I0410 20:10:07.889022  5509 net.cpp:96] Setting up fc7
I0410 20:10:08.435204  5509 net.cpp:103] Top shape: 32 4096 1 1 (131072)
I0410 20:10:08.435257  5509 net.cpp:67] Creating Layer relu7
I0410 20:10:08.435267  5509 net.cpp:394] relu7 <- fc7
I0410 20:10:08.435309  5509 net.cpp:345] relu7 -> fc7 (in-place)
I0410 20:10:08.435328  5509 net.cpp:96] Setting up relu7
I0410 20:10:08.435348  5509 net.cpp:103] Top shape: 32 4096 1 1 (131072)
I0410 20:10:08.435354  5509 net.cpp:67] Creating Layer drop7
I0410 20:10:08.435364  5509 net.cpp:394] drop7 <- fc7
I0410 20:10:08.435369  5509 net.cpp:345] drop7 -> fc7 (in-place)
I0410 20:10:08.435379  5509 net.cpp:96] Setting up drop7
I0410 20:10:08.435384  5509 net.cpp:103] Top shape: 32 4096 1 1 (131072)
I0410 20:10:08.435397  5509 net.cpp:67] Creating Layer fc8_deepfashion
I0410 20:10:08.435401  5509 net.cpp:394] fc8_deepfashion <- fc7
I0410 20:10:08.435407  5509 net.cpp:356] fc8_deepfashion -> fc8_deepfashion
I0410 20:10:08.435415  5509 net.cpp:96] Setting up fc8_deepfashion
I0410 20:10:08.441920  5509 net.cpp:103] Top shape: 32 48 1 1 (1536)
I0410 20:10:08.441943  5509 net.cpp:67] Creating Layer fc8_deepfashion_encode
I0410 20:10:08.441948  5509 net.cpp:394] fc8_deepfashion_encode <- fc8_deepfashion
I0410 20:10:08.441953  5509 net.cpp:356] fc8_deepfashion_encode -> fc8_deepfashion_encode
I0410 20:10:08.441967  5509 net.cpp:96] Setting up fc8_deepfashion_encode
I0410 20:10:08.441977  5509 net.cpp:103] Top shape: 32 48 1 1 (1536)
I0410 20:10:08.441985  5509 net.cpp:67] Creating Layer fc8_deepfashion_encode_fc8_deepfashion_encode_0_split
I0410 20:10:08.441989  5509 net.cpp:394] fc8_deepfashion_encode_fc8_deepfashion_encode_0_split <- fc8_deepfashion_encode
I0410 20:10:08.442000  5509 net.cpp:356] fc8_deepfashion_encode_fc8_deepfashion_encode_0_split -> fc8_deepfashion_encode_fc8_deepfashion_encode_0_split_0
I0410 20:10:08.442006  5509 net.cpp:356] fc8_deepfashion_encode_fc8_deepfashion_encode_0_split -> fc8_deepfashion_encode_fc8_deepfashion_encode_0_split_1
I0410 20:10:08.442013  5509 net.cpp:96] Setting up fc8_deepfashion_encode_fc8_deepfashion_encode_0_split
I0410 20:10:08.442018  5509 net.cpp:103] Top shape: 32 48 1 1 (1536)
I0410 20:10:08.442021  5509 net.cpp:103] Top shape: 32 48 1 1 (1536)
I0410 20:10:08.442029  5509 net.cpp:67] Creating Layer fc8_pascal_label_mod
I0410 20:10:08.442039  5509 net.cpp:394] fc8_pascal_label_mod <- fc8_deepfashion_encode_fc8_deepfashion_encode_0_split_0
I0410 20:10:08.442046  5509 net.cpp:356] fc8_pascal_label_mod -> fc8_pascal_label_mod
I0410 20:10:08.442052  5509 net.cpp:96] Setting up fc8_pascal_label_mod
I0410 20:10:08.442080  5509 net.cpp:103] Top shape: 32 10 1 1 (320)
I0410 20:10:08.442101  5509 net.cpp:67] Creating Layer fc8_pascal_label_mod_fc8_pascal_label_mod_0_split
I0410 20:10:08.442106  5509 net.cpp:394] fc8_pascal_label_mod_fc8_pascal_label_mod_0_split <- fc8_pascal_label_mod
I0410 20:10:08.442112  5509 net.cpp:356] fc8_pascal_label_mod_fc8_pascal_label_mod_0_split -> fc8_pascal_label_mod_fc8_pascal_label_mod_0_split_0
I0410 20:10:08.442126  5509 net.cpp:356] fc8_pascal_label_mod_fc8_pascal_label_mod_0_split -> fc8_pascal_label_mod_fc8_pascal_label_mod_0_split_1
I0410 20:10:08.442133  5509 net.cpp:96] Setting up fc8_pascal_label_mod_fc8_pascal_label_mod_0_split
I0410 20:10:08.442137  5509 net.cpp:103] Top shape: 32 10 1 1 (320)
I0410 20:10:08.442142  5509 net.cpp:103] Top shape: 32 10 1 1 (320)
I0410 20:10:08.442147  5509 net.cpp:67] Creating Layer fc8_pascal_color_mod
I0410 20:10:08.442153  5509 net.cpp:394] fc8_pascal_color_mod <- fc8_deepfashion_encode_fc8_deepfashion_encode_0_split_1
I0410 20:10:08.442159  5509 net.cpp:356] fc8_pascal_color_mod -> fc8_pascal_color_mod
I0410 20:10:08.442165  5509 net.cpp:96] Setting up fc8_pascal_color_mod
I0410 20:10:08.442200  5509 net.cpp:103] Top shape: 32 16 1 1 (512)
I0410 20:10:08.442221  5509 net.cpp:67] Creating Layer fc8_pascal_color_mod_fc8_pascal_color_mod_0_split
I0410 20:10:08.442231  5509 net.cpp:394] fc8_pascal_color_mod_fc8_pascal_color_mod_0_split <- fc8_pascal_color_mod
I0410 20:10:08.442240  5509 net.cpp:356] fc8_pascal_color_mod_fc8_pascal_color_mod_0_split -> fc8_pascal_color_mod_fc8_pascal_color_mod_0_split_0
I0410 20:10:08.442247  5509 net.cpp:356] fc8_pascal_color_mod_fc8_pascal_color_mod_0_split -> fc8_pascal_color_mod_fc8_pascal_color_mod_0_split_1
I0410 20:10:08.442273  5509 net.cpp:96] Setting up fc8_pascal_color_mod_fc8_pascal_color_mod_0_split
I0410 20:10:08.442278  5509 net.cpp:103] Top shape: 32 16 1 1 (512)
I0410 20:10:08.442282  5509 net.cpp:103] Top shape: 32 16 1 1 (512)
I0410 20:10:08.442288  5509 net.cpp:67] Creating Layer loss
I0410 20:10:08.442292  5509 net.cpp:394] loss <- fc8_pascal_label_mod_fc8_pascal_label_mod_0_split_0
I0410 20:10:08.442297  5509 net.cpp:394] loss <- labels0_sliceL_0_split_0
I0410 20:10:08.442322  5509 net.cpp:356] loss -> (automatic)
I0410 20:10:08.442335  5509 net.cpp:96] Setting up loss
I0410 20:10:08.442344  5509 net.cpp:103] Top shape: 1 1 1 1 (1)
I0410 20:10:08.442348  5509 net.cpp:109]     with loss weight 1
I0410 20:10:08.442378  5509 net.cpp:67] Creating Layer loss
I0410 20:10:08.442389  5509 net.cpp:394] loss <- fc8_pascal_color_mod_fc8_pascal_color_mod_0_split_0
I0410 20:10:08.442394  5509 net.cpp:394] loss <- labels1_sliceL_1_split_0
I0410 20:10:08.442399  5509 net.cpp:356] loss -> (automatic)
I0410 20:10:08.442407  5509 net.cpp:96] Setting up loss
I0410 20:10:08.442415  5509 net.cpp:103] Top shape: 1 1 1 1 (1)
I0410 20:10:08.442425  5509 net.cpp:109]     with loss weight 1
I0410 20:10:08.442435  5509 net.cpp:67] Creating Layer accuracy
I0410 20:10:08.442438  5509 net.cpp:394] accuracy <- fc8_pascal_color_mod_fc8_pascal_color_mod_0_split_1
I0410 20:10:08.442448  5509 net.cpp:394] accuracy <- labels1_sliceL_1_split_1
I0410 20:10:08.442454  5509 net.cpp:356] accuracy -> colorAccuracy
I0410 20:10:08.442461  5509 net.cpp:96] Setting up accuracy
I0410 20:10:08.442471  5509 net.cpp:103] Top shape: 1 1 1 1 (1)
I0410 20:10:08.442476  5509 net.cpp:67] Creating Layer accuracy1
I0410 20:10:08.442481  5509 net.cpp:394] accuracy1 <- fc8_pascal_label_mod_fc8_pascal_label_mod_0_split_1
I0410 20:10:08.442484  5509 net.cpp:394] accuracy1 <- labels0_sliceL_0_split_1
I0410 20:10:08.442489  5509 net.cpp:356] accuracy1 -> labelAccuracy
I0410 20:10:08.442494  5509 net.cpp:96] Setting up accuracy1
I0410 20:10:08.442505  5509 net.cpp:103] Top shape: 1 1 1 1 (1)
I0410 20:10:08.442512  5509 net.cpp:67] Creating Layer silence
I0410 20:10:08.442515  5509 net.cpp:394] silence <- random
I0410 20:10:08.442519  5509 net.cpp:96] Setting up silence
I0410 20:10:08.442523  5509 net.cpp:172] silence does not need backward computation.
I0410 20:10:08.442533  5509 net.cpp:172] accuracy1 does not need backward computation.
I0410 20:10:08.442536  5509 net.cpp:172] accuracy does not need backward computation.
…
