…
  top: "data"
  top: "random"
  name: "data"
  type: DATA
  data_param {
    source: "/data/deepfashion/color_label_multilabel/color_label_multilabel_TRAIN"
    batch_size: 32
    backend: LMDB
  }
  include {
    phase: TRAIN
  }
  transform_param {
    mirror: true
    crop_size: 227
    mean_file: "../../../data/ilsvrc12/imagenet_mean.binaryproto"
  }
}
layers {
  top: "labels"
  name: "labels"
  type: DATA
  data_param {
    source: "/data/deepfashion/color_label_multilabel/color_label_multilabel_TRAIN_ALT"
    batch_size: 32
    backend: LMDB
  }
  include {
    phase: TRAIN
  }
}
layers {
  bottom: "labels"
  top: "labels0"
  top: "labels1"
  name: "sliceL"
  type: SLICE
  slice_param {
    slice_point: 1
  }
}
layers {
  bottom: "data"
  top: "conv1"
  name: "conv1"
  type: CONVOLUTION
  blobs_lr: 0
  blobs_lr: 0
  weight_decay: 1
  weight_decay: 0
  convolution_param {
    num_output: 96
    kernel_size: 11
    stride: 4
    weight_filler {
      type: "gaussian"
      std: 0.01
    }
    bias_filler {
      type: "constant"
      value: 0
    }
  }
}
layers {
  bottom: "conv1"
  top: "conv1"
  name: "relu1"
  type: RELU
}
layers {
  bottom: "conv1"
  top: "pool1"
  name: "pool1"
  type: POOLING
  pooling_param {
    pool: MAX
    kernel_size: 3
    stride: 2
  }
}
layers {
  bottom: "pool1"
  top: "norm1"
  name: "norm1"
  type: LRN
  lrn_param {
    local_size: 5
    alpha: 0.0001
    beta: 0.75
  }
}
layers {
  bottom: "norm1"
  top: "conv2"
  name: "conv2"
  type: CONVOLUTION
  blobs_lr: 0
  blobs_lr: 0
  weight_decay: 1
  weight_decay: 0
  convolution_param {
    num_output: 256
    pad: 2
    kernel_size: 5
    group: 2
    weight_filler {
      type: "gaussian"
      std: 0.01
    }
    bias_filler {
      type: "constant"
      value: 1
    }
  }
}
layers {
  bottom: "conv2"
  top: "conv2"
  name: "relu2"
  type: RELU
}
layers {
  bottom: "conv2"
  top: "pool2"
  name: "pool2"
  type: POOLING
  pooling_param {
    pool: MAX
    kernel_size: 3
    stride: 2
  }
}
layers {
  bottom: "pool2"
  top: "norm2"
  name: "norm2"
  type: LRN
  lrn_param {
    local_size: 5
    alpha: 0.0001
    beta: 0.75
  }
}
layers {
  bottom: "norm2"
  top: "conv3"
  name: "conv3"
  type: CONVOLUTION
  blobs_lr: 0
  blobs_lr: 0
  weight_decay: 1
  weight_decay: 0
  convolution_param {
    num_output: 384
    pad: 1
    kernel_size: 3
    weight_filler {
      type: "gaussian"
      std: 0.01
    }
    bias_filler {
      type: "constant"
      value: 0
    }
  }
}
layers {
  bottom: "conv3"
  top: "conv3"
  name: "relu3"
  type: RELU
}
layers {
  bottom: "conv3"
  top: "conv4"
  name: "conv4"
  type: CONVOLUTION
  blobs_lr: 0
  blobs_lr: 0
  weight_decay: 1
  weight_decay: 0
  convolution_param {
    num_output: 384
    pad: 1
    kernel_size: 3
    group: 2
    weight_filler {
      type: "gaussian"
      std: 0.01
    }
    bias_filler {
      type: "constant"
      value: 1
    }
  }
}
layers {
  bottom: "conv4"
  top: "conv4"
  name: "relu4"
  type: RELU
}
layers {
  bottom: "conv4"
  top: "conv5"
  name: "conv5"
  type: CONVOLUTION
  blobs_lr: 0
  blobs_lr: 0
  weight_decay: 1
  weight_decay: 0
  convolution_param {
    num_output: 256
    pad: 1
    kernel_size: 3
    group: 2
    weight_filler {
      type: "gaussian"
      std: 0.01
    }
    bias_filler {
      type: "constant"
      value: 1
    }
  }
}
layers {
  bottom: "conv5"
  top: "conv5"
  name: "relu5"
  type: RELU
}
layers {
  bottom: "conv5"
  top: "pool5"
  name: "pool5"
  type: POOLING
  pooling_param {
    pool: MAX
    kernel_size: 3
    stride: 2
  }
}
layers {
  bottom: "pool5"
  top: "fc6"
  name: "fc6"
  type: INNER_PRODUCT
  blobs_lr: 0
  blobs_lr: 0
  weight_decay: 1
  weight_decay: 0
  inner_product_param {
    num_output: 4096
    weight_filler {
      type: "gaussian"
      std: 0.005
    }
    bias_filler {
      type: "constant"
      value: 1
    }
  }
}
layers {
  bottom: "fc6"
  top: "fc6"
  name: "relu6"
  type: RELU
}
layers {
  bottom: "fc6"
  top: "fc6"
  name: "drop6"
  type: DROPOUT
  dropout_param {
    dropout_ratio: 0.5
  }
}
layers {
  bottom: "fc6"
  top: "fc7"
  name: "fc7"
  type: INNER_PRODUCT
  blobs_lr: 1
  blobs_lr: 2
  weight_decay: 1
  weight_decay: 0
  inner_product_param {
    num_output: 4096
    weight_filler {
      type: "gaussian"
      std: 0.005
    }
    bias_filler {
      type: "constant"
      value: 1
    }
  }
}
layers {
  bottom: "fc7"
  top: "fc7"
  name: "relu7"
  type: RELU
}
layers {
  bottom: "fc7"
  top: "fc7"
  name: "drop7"
  type: DROPOUT
  dropout_param {
    dropout_ratio: 0.5
  }
}
layers {
  bottom: "fc7"
  top: "fc8_deepfashion"
  name: "fc8_deepfashion"
  type: INNER_PRODUCT
  blobs_lr: 1
  blobs_lr: 2
  weight_decay: 1
  weight_decay: 0
  inner_product_param {
    num_output: 48
    weight_filler {
      type: "gaussian"
      std: 0.01
    }
    bias_filler {
      type: "constant"
      value: 0
    }
  }
}
layers {
  bottom: "fc8_deepfashion"
  top: "fc8_deepfashion_encode"
  name: "fc8_deepfashion_encode"
  type: SIGMOID
}
layers {
  bottom: "fc8_deepfashion_encode"
  top: "fc8_pascal_label_mod"
  name: "fc8_pascal_label_mod"
  type: INNER_PRODUCT
  blobs_lr: 1
  blobs_lr: 2
  weight_decay: 1
  weight_decay: 0
  inner_product_param {
    num_output: 10
    weight_filler {
      type: "gaussian"
      std: 0.01
    }
    bias_filler {
      type: "constant"
      value: 0
    }
  }
}
layers {
  bottom: "fc8_deepfashion_encode"
  top: "fc8_pascal_color_mod"
  name: "fc8_pascal_color_mod"
  type: INNER_PRODUCT
  blobs_lr: 1
  blobs_lr: 2
  weight_decay: 1
  weight_decay: 0
  inner_product_param {
    num_output: 16
    weight_filler {
      type: "gaussian"
      std: 0.01
    }
    bias_filler {
      type: "constant"
      value: 0
    }
  }
}
layers {
  bottom: "fc8_pascal_label_mod"
  bottom: "labels0"
  name: "loss"
  type: SOFTMAX_LOSS
}
layers {
  bottom: "fc8_pascal_color_mod"
  bottom: "labels1"
  name: "loss"
  type: SOFTMAX_LOSS
}
layers {
  bottom: "random"
  name: "silence"
  type: SILENCE
}
state {
  phase: TRAIN
}
I0406 10:21:49.746469  4397 net.cpp:67] Creating Layer data
I0406 10:21:49.746482  4397 net.cpp:356] data -> data
I0406 10:21:49.746500  4397 net.cpp:356] data -> random
I0406 10:21:49.746515  4397 net.cpp:96] Setting up data
I0406 10:21:49.746621  4397 data_layer.cpp:68] Opening lmdb /data/deepfashion/color_label_multilabel/color_label_multilabel_TRAIN
I0406 10:21:49.746800  4397 data_layer.cpp:128] output data size: 32,3,227,227
I0406 10:21:49.746809  4397 base_data_layer.cpp:36] Loading mean file from../../../data/ilsvrc12/imagenet_mean.binaryproto
I0406 10:21:49.754357  4397 net.cpp:103] Top shape: 32 3 227 227 (4946784)
I0406 10:21:49.754398  4397 net.cpp:103] Top shape: 32 1 1 1 (32)
I0406 10:21:49.754418  4397 net.cpp:67] Creating Layer labels
I0406 10:21:49.754426  4397 net.cpp:356] labels -> labels
I0406 10:21:49.754441  4397 net.cpp:96] Setting up labels
I0406 10:21:49.754546  4397 data_layer.cpp:68] Opening lmdb /data/deepfashion/color_label_multilabel/color_label_multilabel_TRAIN_ALT
I0406 10:21:49.754590  4397 data_layer.cpp:128] output data size: 32,2,1,1
I0406 10:21:49.754626  4397 net.cpp:103] Top shape: 32 2 1 1 (64)
I0406 10:21:49.754675  4397 net.cpp:67] Creating Layer sliceL
I0406 10:21:49.754706  4397 net.cpp:394] sliceL <- labels
I0406 10:21:49.754729  4397 net.cpp:356] sliceL -> labels0
I0406 10:21:49.754745  4397 net.cpp:356] sliceL -> labels1
I0406 10:21:49.754761  4397 net.cpp:96] Setting up sliceL
I0406 10:21:49.754779  4397 net.cpp:103] Top shape: 32 1 1 1 (32)
I0406 10:21:49.754789  4397 net.cpp:103] Top shape: 32 1 1 1 (32)
I0406 10:21:49.754807  4397 net.cpp:67] Creating Layer conv1
I0406 10:21:49.754823  4397 net.cpp:394] conv1 <- data
I0406 10:21:49.754840  4397 net.cpp:356] conv1 -> conv1
I0406 10:21:49.754858  4397 net.cpp:96] Setting up conv1
I0406 10:21:49.780624  4397 net.cpp:103] Top shape: 32 96 55 55 (9292800)
I0406 10:21:49.780694  4397 net.cpp:67] Creating Layer relu1
I0406 10:21:49.780705  4397 net.cpp:394] relu1 <- conv1
I0406 10:21:49.780719  4397 net.cpp:345] relu1 -> conv1 (in-place)
I0406 10:21:49.780733  4397 net.cpp:96] Setting up relu1
I0406 10:21:49.780751  4397 net.cpp:103] Top shape: 32 96 55 55 (9292800)
I0406 10:21:49.780766  4397 net.cpp:67] Creating Layer pool1
I0406 10:21:49.780773  4397 net.cpp:394] pool1 <- conv1
I0406 10:21:49.780786  4397 net.cpp:356] pool1 -> pool1
I0406 10:21:49.780798  4397 net.cpp:96] Setting up pool1
I0406 10:21:49.780834  4397 net.cpp:103] Top shape: 32 96 27 27 (2239488)
I0406 10:21:49.780858  4397 net.cpp:67] Creating Layer norm1
I0406 10:21:49.780867  4397 net.cpp:394] norm1 <- pool1
I0406 10:21:49.780879  4397 net.cpp:356] norm1 -> norm1
I0406 10:21:49.780891  4397 net.cpp:96] Setting up norm1
I0406 10:21:49.780905  4397 net.cpp:103] Top shape: 32 96 27 27 (2239488)
I0406 10:21:49.780925  4397 net.cpp:67] Creating Layer conv2
I0406 10:21:49.780937  4397 net.cpp:394] conv2 <- norm1
I0406 10:21:49.780951  4397 net.cpp:356] conv2 -> conv2
I0406 10:21:49.780966  4397 net.cpp:96] Setting up conv2
I0406 10:21:49.791271  4397 net.cpp:103] Top shape: 32 256 27 27 (5971968)
I0406 10:21:49.791332  4397 net.cpp:67] Creating Layer relu2
I0406 10:21:49.791342  4397 net.cpp:394] relu2 <- conv2
I0406 10:21:49.791352  4397 net.cpp:345] relu2 -> conv2 (in-place)
I0406 10:21:49.791365  4397 net.cpp:96] Setting up relu2
I0406 10:21:49.791378  4397 net.cpp:103] Top shape: 32 256 27 27 (5971968)
I0406 10:21:49.791395  4397 net.cpp:67] Creating Layer pool2
I0406 10:21:49.791404  4397 net.cpp:394] pool2 <- conv2
I0406 10:21:49.791415  4397 net.cpp:356] pool2 -> pool2
I0406 10:21:49.791427  4397 net.cpp:96] Setting up pool2
I0406 10:21:49.791443  4397 net.cpp:103] Top shape: 32 256 13 13 (1384448)
I0406 10:21:49.791470  4397 net.cpp:67] Creating Layer norm2
I0406 10:21:49.791478  4397 net.cpp:394] norm2 <- pool2
I0406 10:21:49.791489  4397 net.cpp:356] norm2 -> norm2
I0406 10:21:49.791502  4397 net.cpp:96] Setting up norm2
I0406 10:21:49.791512  4397 net.cpp:103] Top shape: 32 256 13 13 (1384448)
I0406 10:21:49.791530  4397 net.cpp:67] Creating Layer conv3
I0406 10:21:49.791540  4397 net.cpp:394] conv3 <- norm2
I0406 10:21:49.791551  4397 net.cpp:356] conv3 -> conv3
I0406 10:21:49.791564  4397 net.cpp:96] Setting up conv3
I0406 10:21:49.820518  4397 net.cpp:103] Top shape: 32 384 13 13 (2076672)
I0406 10:21:49.820587  4397 net.cpp:67] Creating Layer relu3
I0406 10:21:49.820598  4397 net.cpp:394] relu3 <- conv3
I0406 10:21:49.820611  4397 net.cpp:345] relu3 -> conv3 (in-place)
I0406 10:21:49.820622  4397 net.cpp:96] Setting up relu3
I0406 10:21:49.820636  4397 net.cpp:103] Top shape: 32 384 13 13 (2076672)
I0406 10:21:49.820657  4397 net.cpp:67] Creating Layer conv4
I0406 10:21:49.820667  4397 net.cpp:394] conv4 <- conv3
I0406 10:21:49.820678  4397 net.cpp:356] conv4 -> conv4
I0406 10:21:49.820690  4397 net.cpp:96] Setting up conv4
I0406 10:21:49.842963  4397 net.cpp:103] Top shape: 32 384 13 13 (2076672)
I0406 10:21:49.843024  4397 net.cpp:67] Creating Layer relu4
I0406 10:21:49.843037  4397 net.cpp:394] relu4 <- conv4
I0406 10:21:49.843091  4397 net.cpp:345] relu4 -> conv4 (in-place)
I0406 10:21:49.843114  4397 net.cpp:96] Setting up relu4
I0406 10:21:49.843129  4397 net.cpp:103] Top shape: 32 384 13 13 (2076672)
I0406 10:21:49.843145  4397 net.cpp:67] Creating Layer conv5
I0406 10:21:49.843157  4397 net.cpp:394] conv5 <- conv4
I0406 10:21:49.843173  4397 net.cpp:356] conv5 -> conv5
I0406 10:21:49.843190  4397 net.cpp:96] Setting up conv5
I0406 10:21:49.858052  4397 net.cpp:103] Top shape: 32 256 13 13 (1384448)
I0406 10:21:49.858124  4397 net.cpp:67] Creating Layer relu5
I0406 10:21:49.858135  4397 net.cpp:394] relu5 <- conv5
I0406 10:21:49.858156  4397 net.cpp:345] relu5 -> conv5 (in-place)
I0406 10:21:49.858171  4397 net.cpp:96] Setting up relu5
I0406 10:21:49.858186  4397 net.cpp:103] Top shape: 32 256 13 13 (1384448)
I0406 10:21:49.858198  4397 net.cpp:67] Creating Layer pool5
I0406 10:21:49.858206  4397 net.cpp:394] pool5 <- conv5
I0406 10:21:49.858218  4397 net.cpp:356] pool5 -> pool5
I0406 10:21:49.858230  4397 net.cpp:96] Setting up pool5
I0406 10:21:49.858247  4397 net.cpp:103] Top shape: 32 256 6 6 (294912)
I0406 10:21:49.858276  4397 net.cpp:67] Creating Layer fc6
I0406 10:21:49.858285  4397 net.cpp:394] fc6 <- pool5
I0406 10:21:49.858297  4397 net.cpp:356] fc6 -> fc6
I0406 10:21:49.858310  4397 net.cpp:96] Setting up fc6
I0406 10:21:51.086359  4397 net.cpp:103] Top shape: 32 4096 1 1 (131072)
I0406 10:21:51.086423  4397 net.cpp:67] Creating Layer relu6
I0406 10:21:51.086436  4397 net.cpp:394] relu6 <- fc6
I0406 10:21:51.086447  4397 net.cpp:345] relu6 -> fc6 (in-place)
I0406 10:21:51.086462  4397 net.cpp:96] Setting up relu6
I0406 10:21:51.086493  4397 net.cpp:103] Top shape: 32 4096 1 1 (131072)
I0406 10:21:51.086509  4397 net.cpp:67] Creating Layer drop6
I0406 10:21:51.086518  4397 net.cpp:394] drop6 <- fc6
I0406 10:21:51.086529  4397 net.cpp:345] drop6 -> fc6 (in-place)
I0406 10:21:51.086540  4397 net.cpp:96] Setting up drop6
I0406 10:21:51.086556  4397 net.cpp:103] Top shape: 32 4096 1 1 (131072)
I0406 10:21:51.086571  4397 net.cpp:67] Creating Layer fc7
I0406 10:21:51.086587  4397 net.cpp:394] fc7 <- fc6
I0406 10:21:51.086601  4397 net.cpp:356] fc7 -> fc7
I0406 10:21:51.086621  4397 net.cpp:96] Setting up fc7
I0406 10:21:51.633640  4397 net.cpp:103] Top shape: 32 4096 1 1 (131072)
I0406 10:21:51.633698  4397 net.cpp:67] Creating Layer relu7
I0406 10:21:51.633711  4397 net.cpp:394] relu7 <- fc7
I0406 10:21:51.633724  4397 net.cpp:345] relu7 -> fc7 (in-place)
I0406 10:21:51.633739  4397 net.cpp:96] Setting up relu7
I0406 10:21:51.633767  4397 net.cpp:103] Top shape: 32 4096 1 1 (131072)
I0406 10:21:51.633780  4397 net.cpp:67] Creating Layer drop7
I0406 10:21:51.633788  4397 net.cpp:394] drop7 <- fc7
I0406 10:21:51.633802  4397 net.cpp:345] drop7 -> fc7 (in-place)
I0406 10:21:51.633815  4397 net.cpp:96] Setting up drop7
I0406 10:21:51.633823  4397 net.cpp:103] Top shape: 32 4096 1 1 (131072)
I0406 10:21:51.633838  4397 net.cpp:67] Creating Layer fc8_deepfashion
I0406 10:21:51.633846  4397 net.cpp:394] fc8_deepfashion <- fc7
I0406 10:21:51.633858  4397 net.cpp:356] fc8_deepfashion -> fc8_deepfashion
I0406 10:21:51.633872  4397 net.cpp:96] Setting up fc8_deepfashion
I0406 10:21:51.640437  4397 net.cpp:103] Top shape: 32 48 1 1 (1536)
I0406 10:21:51.640491  4397 net.cpp:67] Creating Layer fc8_deepfashion_encode
I0406 10:21:51.640507  4397 net.cpp:394] fc8_deepfashion_encode <- fc8_deepfashion
I0406 10:21:51.640528  4397 net.cpp:356] fc8_deepfashion_encode -> fc8_deepfashion_encode
I0406 10:21:51.640543  4397 net.cpp:96] Setting up fc8_deepfashion_encode
I0406 10:21:51.640576  4397 net.cpp:103] Top shape: 32 48 1 1 (1536)
I0406 10:21:51.640595  4397 net.cpp:67] Creating Layer fc8_deepfashion_encode_fc8_deepfashion_encode_0_split
I0406 10:21:51.640604  4397 net.cpp:394] fc8_deepfashion_encode_fc8_deepfashion_encode_0_split <- fc8_deepfashion_encode
I0406 10:21:51.640614  4397 net.cpp:356] fc8_deepfashion_encode_fc8_deepfashion_encode_0_split -> fc8_deepfashion_encode_fc8_deepfashion_encode_0_split_0
I0406 10:21:51.640664  4397 net.cpp:356] fc8_deepfashion_encode_fc8_deepfashion_encode_0_split -> fc8_deepfashion_encode_fc8_deepfashion_encode_0_split_1
I0406 10:21:51.640679  4397 net.cpp:96] Setting up fc8_deepfashion_encode_fc8_deepfashion_encode_0_split
I0406 10:21:51.640691  4397 net.cpp:103] Top shape: 32 48 1 1 (1536)
I0406 10:21:51.640700  4397 net.cpp:103] Top shape: 32 48 1 1 (1536)
I0406 10:21:51.640717  4397 net.cpp:67] Creating Layer fc8_pascal_label_mod
I0406 10:21:51.640727  4397 net.cpp:394] fc8_pascal_label_mod <- fc8_deepfashion_encode_fc8_deepfashion_encode_0_split_0
I0406 10:21:51.640738  4397 net.cpp:356] fc8_pascal_label_mod -> fc8_pascal_label_mod
I0406 10:21:51.640755  4397 net.cpp:96] Setting up fc8_pascal_label_mod
I0406 10:21:51.640805  4397 net.cpp:103] Top shape: 32 10 1 1 (320)
I0406 10:21:51.640861  4397 net.cpp:67] Creating Layer fc8_pascal_color_mod
I0406 10:21:51.640872  4397 net.cpp:394] fc8_pascal_color_mod <- fc8_deepfashion_encode_fc8_deepfashion_encode_0_split_1
I0406 10:21:51.640884  4397 net.cpp:356] fc8_pascal_color_mod -> fc8_pascal_color_mod
I0406 10:21:51.640897  4397 net.cpp:96] Setting up fc8_pascal_color_mod
I0406 10:21:51.640949  4397 net.cpp:103] Top shape: 32 16 1 1 (512)
I0406 10:21:51.640972  4397 net.cpp:67] Creating Layer loss
I0406 10:21:51.640981  4397 net.cpp:394] loss <- fc8_pascal_label_mod
I0406 10:21:51.640991  4397 net.cpp:394] loss <- labels0
I0406 10:21:51.641006  4397 net.cpp:356] loss -> (automatic)
I0406 10:21:51.641016  4397 net.cpp:96] Setting up loss
I0406 10:21:51.641036  4397 net.cpp:103] Top shape: 1 1 1 1 (1)
I0406 10:21:51.641043  4397 net.cpp:109]     with loss weight 1
I0406 10:21:51.641106  4397 net.cpp:67] Creating Layer loss
I0406 10:21:51.641116  4397 net.cpp:394] loss <- fc8_pascal_color_mod
I0406 10:21:51.641125  4397 net.cpp:394] loss <- labels1
I0406 10:21:51.641136  4397 net.cpp:356] loss -> (automatic)
I0406 10:21:51.641146  4397 net.cpp:96] Setting up loss
I0406 10:21:51.641158  4397 net.cpp:103] Top shape: 1 1 1 1 (1)
I0406 10:21:51.641166  4397 net.cpp:109]     with loss weight 1
I0406 10:21:51.641183  4397 net.cpp:67] Creating Layer silence
I0406 10:21:51.641193  4397 net.cpp:394] silence <- random
I0406 10:21:51.641202  4397 net.cpp:96] Setting up silence
I0406 10:21:51.641211  4397 net.cpp:172] silence does not need backward computation.
I0406 10:21:51.641217  4397 net.cpp:170] loss needs backward computation.
…
layers {
  top: "data"
  top: "random"
  name: "data"
  type: DATA
  data_param {
    source: "/data/deepfashion/color_label_multilabel/color_label_multilabel_test"
    batch_size: 32
    backend: LMDB
  }
  include {
    phase: TEST
  }
  transform_param {
    mirror: true
    crop_size: 227
    mean_file: "../../../data/ilsvrc12/imagenet_mean.binaryproto"
  }
}
layers {
  top: "labels"
  name: "labels"
  type: DATA
  data_param {
    source: "/data/deepfashion/color_label_multilabel/color_label_multilabel_test_alt"
    batch_size: 32
    backend: LMDB
  }
  include {
    phase: TEST
  }
}
layers {
  bottom: "labels"
  top: "labels0"
  top: "labels1"
  name: "sliceL"
  type: SLICE
  slice_param {
    slice_point: 1
  }
}
layers {
  bottom: "data"
  top: "conv1"
  name: "conv1"
  type: CONVOLUTION
  blobs_lr: 0
  blobs_lr: 0
  weight_decay: 1
  weight_decay: 0
  convolution_param {
    num_output: 96
    kernel_size: 11
    stride: 4
    weight_filler {
      type: "gaussian"
      std: 0.01
    }
    bias_filler {
      type: "constant"
      value: 0
    }
  }
}
layers {
  bottom: "conv1"
  top: "conv1"
  name: "relu1"
  type: RELU
}
layers {
  bottom: "conv1"
  top: "pool1"
  name: "pool1"
  type: POOLING
  pooling_param {
    pool: MAX
    kernel_size: 3
    stride: 2
  }
}
layers {
  bottom: "pool1"
  top: "norm1"
  name: "norm1"
  type: LRN
  lrn_param {
    local_size: 5
    alpha: 0.0001
    beta: 0.75
  }
}
layers {
  bottom: "norm1"
  top: "conv2"
  name: "conv2"
  type: CONVOLUTION
  blobs_lr: 0
  blobs_lr: 0
  weight_decay: 1
  weight_decay: 0
  convolution_param {
    num_output: 256
    pad: 2
    kernel_size: 5
    group: 2
    weight_filler {
      type: "gaussian"
      std: 0.01
    }
    bias_filler {
      type: "constant"
      value: 1
    }
  }
}
layers {
  bottom: "conv2"
  top: "conv2"
  name: "relu2"
  type: RELU
}
layers {
  bottom: "conv2"
  top: "pool2"
  name: "pool2"
  type: POOLING
  pooling_param {
    pool: MAX
    kernel_size: 3
    stride: 2
  }
}
layers {
  bottom: "pool2"
  top: "norm2"
  name: "norm2"
  type: LRN
  lrn_param {
    local_size: 5
    alpha: 0.0001
    beta: 0.75
  }
}
layers {
  bottom: "norm2"
  top: "conv3"
  name: "conv3"
  type: CONVOLUTION
  blobs_lr: 0
  blobs_lr: 0
  weight_decay: 1
  weight_decay: 0
  convolution_param {
    num_output: 384
    pad: 1
    kernel_size: 3
    weight_filler {
      type: "gaussian"
      std: 0.01
    }
    bias_filler {
      type: "constant"
      value: 0
    }
  }
}
layers {
  bottom: "conv3"
  top: "conv3"
  name: "relu3"
  type: RELU
}
layers {
  bottom: "conv3"
  top: "conv4"
  name: "conv4"
  type: CONVOLUTION
  blobs_lr: 0
  blobs_lr: 0
  weight_decay: 1
  weight_decay: 0
  convolution_param {
    num_output: 384
    pad: 1
    kernel_size: 3
    group: 2
    weight_filler {
      type: "gaussian"
      std: 0.01
    }
    bias_filler {
      type: "constant"
      value: 1
    }
  }
}
layers {
  bottom: "conv4"
  top: "conv4"
  name: "relu4"
  type: RELU
}
layers {
  bottom: "conv4"
  top: "conv5"
  name: "conv5"
  type: CONVOLUTION
  blobs_lr: 0
  blobs_lr: 0
  weight_decay: 1
  weight_decay: 0
  convolution_param {
    num_output: 256
    pad: 1
    kernel_size: 3
    group: 2
    weight_filler {
      type: "gaussian"
      std: 0.01
    }
    bias_filler {
      type: "constant"
      value: 1
    }
  }
}
layers {
  bottom: "conv5"
  top: "conv5"
  name: "relu5"
  type: RELU
}
layers {
  bottom: "conv5"
  top: "pool5"
  name: "pool5"
  type: POOLING
  pooling_param {
    pool: MAX
    kernel_size: 3
    stride: 2
  }
}
layers {
  bottom: "pool5"
  top: "fc6"
  name: "fc6"
  type: INNER_PRODUCT
  blobs_lr: 0
  blobs_lr: 0
  weight_decay: 1
  weight_decay: 0
  inner_product_param {
    num_output: 4096
    weight_filler {
      type: "gaussian"
      std: 0.005
    }
    bias_filler {
      type: "constant"
      value: 1
    }
  }
}
layers {
  bottom: "fc6"
  top: "fc6"
  name: "relu6"
  type: RELU
}
layers {
  bottom: "fc6"
  top: "fc6"
  name: "drop6"
  type: DROPOUT
  dropout_param {
    dropout_ratio: 0.5
  }
}
layers {
  bottom: "fc6"
  top: "fc7"
  name: "fc7"
  type: INNER_PRODUCT
  blobs_lr: 1
  blobs_lr: 2
  weight_decay: 1
  weight_decay: 0
  inner_product_param {
    num_output: 4096
    weight_filler {
      type: "gaussian"
      std: 0.005
    }
    bias_filler {
      type: "constant"
      value: 1
    }
  }
}
layers {
  bottom: "fc7"
  top: "fc7"
  name: "relu7"
  type: RELU
}
layers {
  bottom: "fc7"
  top: "fc7"
  name: "drop7"
  type: DROPOUT
  dropout_param {
    dropout_ratio: 0.5
  }
}
layers {
  bottom: "fc7"
  top: "fc8_deepfashion"
  name: "fc8_deepfashion"
  type: INNER_PRODUCT
  blobs_lr: 1
  blobs_lr: 2
  weight_decay: 1
  weight_decay: 0
  inner_product_param {
    num_output: 48
    weight_filler {
      type: "gaussian"
      std: 0.01
    }
    bias_filler {
      type: "constant"
      value: 0
    }
  }
}
layers {
  bottom: "fc8_deepfashion"
  top: "fc8_deepfashion_encode"
  name: "fc8_deepfashion_encode"
  type: SIGMOID
}
layers {
  bottom: "fc8_deepfashion_encode"
  top: "fc8_pascal_label_mod"
  name: "fc8_pascal_label_mod"
  type: INNER_PRODUCT
  blobs_lr: 1
  blobs_lr: 2
  weight_decay: 1
  weight_decay: 0
  inner_product_param {
    num_output: 10
    weight_filler {
      type: "gaussian"
      std: 0.01
    }
    bias_filler {
      type: "constant"
      value: 0
    }
  }
}
layers {
  bottom: "fc8_deepfashion_encode"
  top: "fc8_pascal_color_mod"
  name: "fc8_pascal_color_mod"
  type: INNER_PRODUCT
  blobs_lr: 1
  blobs_lr: 2
  weight_decay: 1
  weight_decay: 0
  inner_product_param {
    num_output: 16
    weight_filler {
      type: "gaussian"
      std: 0.01
    }
    bias_filler {
      type: "constant"
      value: 0
    }
  }
}
layers {
  bottom: "fc8_pascal_label_mod"
  bottom: "labels0"
  name: "loss"
  type: SOFTMAX_LOSS
}
layers {
  bottom: "fc8_pascal_color_mod"
  bottom: "labels1"
  name: "loss"
  type: SOFTMAX_LOSS
}
layers {
  bottom: "fc8_pascal_color_mod"
  bottom: "labels1"
  top: "colorAccuracy"
  name: "accuracy"
  type: ACCURACY
  include {
    phase: TEST
  }
}
layers {
  bottom: "fc8_pascal_label_mod"
  bottom: "labels0"
  top: "labelAccuracy"
  name: "accuracy1"
  type: ACCURACY
  include {
    phase: TEST
  }
}
layers {
  bottom: "random"
  name: "silence"
  type: SILENCE
}
state {
  phase: TEST
}
I0406 10:21:51.642868  4397 net.cpp:67] Creating Layer data
I0406 10:21:51.642882  4397 net.cpp:356] data -> data
I0406 10:21:51.642897  4397 net.cpp:356] data -> random
I0406 10:21:51.642910  4397 net.cpp:96] Setting up data
I0406 10:21:51.642992  4397 data_layer.cpp:68] Opening lmdb /data/deepfashion/color_label_multilabel/color_label_multilabel_test
I0406 10:21:51.643262  4397 data_layer.cpp:128] output data size: 32,3,227,227
I0406 10:21:51.643275  4397 base_data_layer.cpp:36] Loading mean file from../../../data/ilsvrc12/imagenet_mean.binaryproto
I0406 10:21:51.651304  4397 net.cpp:103] Top shape: 32 3 227 227 (4946784)
I0406 10:21:51.651345  4397 net.cpp:103] Top shape: 32 1 1 1 (32)
I0406 10:21:51.651373  4397 net.cpp:67] Creating Layer labels
I0406 10:21:51.651386  4397 net.cpp:356] labels -> labels
I0406 10:21:51.651407  4397 net.cpp:96] Setting up labels
I0406 10:21:51.651496  4397 data_layer.cpp:68] Opening lmdb /data/deepfashion/color_label_multilabel/color_label_multilabel_test_alt
I0406 10:21:51.651522  4397 data_layer.cpp:128] output data size: 32,2,1,1
I0406 10:21:51.651563  4397 net.cpp:103] Top shape: 32 2 1 1 (64)
I0406 10:21:51.651589  4397 net.cpp:67] Creating Layer sliceL
I0406 10:21:51.651598  4397 net.cpp:394] sliceL <- labels
I0406 10:21:51.651612  4397 net.cpp:356] sliceL -> labels0
I0406 10:21:51.651626  4397 net.cpp:356] sliceL -> labels1
I0406 10:21:51.651640  4397 net.cpp:96] Setting up sliceL
I0406 10:21:51.651651  4397 net.cpp:103] Top shape: 32 1 1 1 (32)
I0406 10:21:51.651660  4397 net.cpp:103] Top shape: 32 1 1 1 (32)
I0406 10:21:51.651671  4397 net.cpp:67] Creating Layer labels0_sliceL_0_split
I0406 10:21:51.651679  4397 net.cpp:394] labels0_sliceL_0_split <- labels0
I0406 10:21:51.651691  4397 net.cpp:356] labels0_sliceL_0_split -> labels0_sliceL_0_split_0
I0406 10:21:51.651705  4397 net.cpp:356] labels0_sliceL_0_split -> labels0_sliceL_0_split_1
I0406 10:21:51.651716  4397 net.cpp:96] Setting up labels0_sliceL_0_split
I0406 10:21:51.651726  4397 net.cpp:103] Top shape: 32 1 1 1 (32)
I0406 10:21:51.651733  4397 net.cpp:103] Top shape: 32 1 1 1 (32)
I0406 10:21:51.651746  4397 net.cpp:67] Creating Layer labels1_sliceL_1_split
I0406 10:21:51.651753  4397 net.cpp:394] labels1_sliceL_1_split <- labels1
I0406 10:21:51.651764  4397 net.cpp:356] labels1_sliceL_1_split -> labels1_sliceL_1_split_0
I0406 10:21:51.651777  4397 net.cpp:356] labels1_sliceL_1_split -> labels1_sliceL_1_split_1
I0406 10:21:51.651789  4397 net.cpp:96] Setting up labels1_sliceL_1_split
I0406 10:21:51.651798  4397 net.cpp:103] Top shape: 32 1 1 1 (32)
I0406 10:21:51.651806  4397 net.cpp:103] Top shape: 32 1 1 1 (32)
I0406 10:21:51.651823  4397 net.cpp:67] Creating Layer conv1
I0406 10:21:51.651830  4397 net.cpp:394] conv1 <- data
I0406 10:21:51.651844  4397 net.cpp:356] conv1 -> conv1
I0406 10:21:51.651855  4397 net.cpp:96] Setting up conv1
I0406 10:21:51.653136  4397 net.cpp:103] Top shape: 32 96 55 55 (9292800)
I0406 10:21:51.653169  4397 net.cpp:67] Creating Layer relu1
I0406 10:21:51.653182  4397 net.cpp:394] relu1 <- conv1
I0406 10:21:51.653194  4397 net.cpp:345] relu1 -> conv1 (in-place)
I0406 10:21:51.653206  4397 net.cpp:96] Setting up relu1
I0406 10:21:51.653220  4397 net.cpp:103] Top shape: 32 96 55 55 (9292800)
I0406 10:21:51.653235  4397 net.cpp:67] Creating Layer pool1
I0406 10:21:51.653252  4397 net.cpp:394] pool1 <- conv1
I0406 10:21:51.653264  4397 net.cpp:356] pool1 -> pool1
I0406 10:21:51.653277  4397 net.cpp:96] Setting up pool1
I0406 10:21:51.653293  4397 net.cpp:103] Top shape: 32 96 27 27 (2239488)
I0406 10:21:51.653309  4397 net.cpp:67] Creating Layer norm1
I0406 10:21:51.653319  4397 net.cpp:394] norm1 <- pool1
I0406 10:21:51.653331  4397 net.cpp:356] norm1 -> norm1
I0406 10:21:51.653343  4397 net.cpp:96] Setting up norm1
I0406 10:21:51.653352  4397 net.cpp:103] Top shape: 32 96 27 27 (2239488)
I0406 10:21:51.653367  4397 net.cpp:67] Creating Layer conv2
I0406 10:21:51.653373  4397 net.cpp:394] conv2 <- norm1
I0406 10:21:51.653385  4397 net.cpp:356] conv2 -> conv2
I0406 10:21:51.653398  4397 net.cpp:96] Setting up conv2
I0406 10:21:51.663686  4397 net.cpp:103] Top shape: 32 256 27 27 (5971968)
I0406 10:21:51.663756  4397 net.cpp:67] Creating Layer relu2
I0406 10:21:51.663769  4397 net.cpp:394] relu2 <- conv2
I0406 10:21:51.663780  4397 net.cpp:345] relu2 -> conv2 (in-place)
I0406 10:21:51.663828  4397 net.cpp:96] Setting up relu2
I0406 10:21:51.663844  4397 net.cpp:103] Top shape: 32 256 27 27 (5971968)
I0406 10:21:51.663872  4397 net.cpp:67] Creating Layer pool2
I0406 10:21:51.663882  4397 net.cpp:394] pool2 <- conv2
I0406 10:21:51.663893  4397 net.cpp:356] pool2 -> pool2
I0406 10:21:51.663907  4397 net.cpp:96] Setting up pool2
I0406 10:21:51.663924  4397 net.cpp:103] Top shape: 32 256 13 13 (1384448)
I0406 10:21:51.663947  4397 net.cpp:67] Creating Layer norm2
I0406 10:21:51.663957  4397 net.cpp:394] norm2 <- pool2
I0406 10:21:51.663967  4397 net.cpp:356] norm2 -> norm2
I0406 10:21:51.663980  4397 net.cpp:96] Setting up norm2
I0406 10:21:51.663988  4397 net.cpp:103] Top shape: 32 256 13 13 (1384448)
I0406 10:21:51.664005  4397 net.cpp:67] Creating Layer conv3
I0406 10:21:51.664013  4397 net.cpp:394] conv3 <- norm2
I0406 10:21:51.664026  4397 net.cpp:356] conv3 -> conv3
I0406 10:21:51.664036  4397 net.cpp:96] Setting up conv3
I0406 10:21:51.693011  4397 net.cpp:103] Top shape: 32 384 13 13 (2076672)
I0406 10:21:51.693081  4397 net.cpp:67] Creating Layer relu3
I0406 10:21:51.693094  4397 net.cpp:394] relu3 <- conv3
I0406 10:21:51.693105  4397 net.cpp:345] relu3 -> conv3 (in-place)
I0406 10:21:51.693122  4397 net.cpp:96] Setting up relu3
I0406 10:21:51.693136  4397 net.cpp:103] Top shape: 32 384 13 13 (2076672)
I0406 10:21:51.693156  4397 net.cpp:67] Creating Layer conv4
I0406 10:21:51.693164  4397 net.cpp:394] conv4 <- conv3
I0406 10:21:51.693176  4397 net.cpp:356] conv4 -> conv4
I0406 10:21:51.693192  4397 net.cpp:96] Setting up conv4
I0406 10:21:51.715196  4397 net.cpp:103] Top shape: 32 384 13 13 (2076672)
I0406 10:21:51.715257  4397 net.cpp:67] Creating Layer relu4
I0406 10:21:51.715268  4397 net.cpp:394] relu4 <- conv4
I0406 10:21:51.715283  4397 net.cpp:345] relu4 -> conv4 (in-place)
I0406 10:21:51.715297  4397 net.cpp:96] Setting up relu4
I0406 10:21:51.715311  4397 net.cpp:103] Top shape: 32 384 13 13 (2076672)
I0406 10:21:51.715325  4397 net.cpp:67] Creating Layer conv5
I0406 10:21:51.715333  4397 net.cpp:394] conv5 <- conv4
I0406 10:21:51.715348  4397 net.cpp:356] conv5 -> conv5
I0406 10:21:51.715363  4397 net.cpp:96] Setting up conv5
I0406 10:21:51.730275  4397 net.cpp:103] Top shape: 32 256 13 13 (1384448)
I0406 10:21:51.730324  4397 net.cpp:67] Creating Layer relu5
I0406 10:21:51.730334  4397 net.cpp:394] relu5 <- conv5
I0406 10:21:51.730346  4397 net.cpp:345] relu5 -> conv5 (in-place)
I0406 10:21:51.730357  4397 net.cpp:96] Setting up relu5
I0406 10:21:51.730370  4397 net.cpp:103] Top shape: 32 256 13 13 (1384448)
I0406 10:21:51.730388  4397 net.cpp:67] Creating Layer pool5
I0406 10:21:51.730397  4397 net.cpp:394] pool5 <- conv5
I0406 10:21:51.730409  4397 net.cpp:356] pool5 -> pool5
I0406 10:21:51.730422  4397 net.cpp:96] Setting up pool5
I0406 10:21:51.730438  4397 net.cpp:103] Top shape: 32 256 6 6 (294912)
I0406 10:21:51.730454  4397 net.cpp:67] Creating Layer fc6
I0406 10:21:51.730469  4397 net.cpp:394] fc6 <- pool5
I0406 10:21:51.730482  4397 net.cpp:356] fc6 -> fc6
I0406 10:21:51.730495  4397 net.cpp:96] Setting up fc6
I0406 10:21:52.954334  4397 net.cpp:103] Top shape: 32 4096 1 1 (131072)
I0406 10:21:52.954401  4397 net.cpp:67] Creating Layer relu6
I0406 10:21:52.954412  4397 net.cpp:394] relu6 <- fc6
I0406 10:21:52.954423  4397 net.cpp:345] relu6 -> fc6 (in-place)
I0406 10:21:52.954437  4397 net.cpp:96] Setting up relu6
I0406 10:21:52.954465  4397 net.cpp:103] Top shape: 32 4096 1 1 (131072)
I0406 10:21:52.954483  4397 net.cpp:67] Creating Layer drop6
I0406 10:21:52.954491  4397 net.cpp:394] drop6 <- fc6
I0406 10:21:52.954501  4397 net.cpp:345] drop6 -> fc6 (in-place)
I0406 10:21:52.954512  4397 net.cpp:96] Setting up drop6
I0406 10:21:52.954521  4397 net.cpp:103] Top shape: 32 4096 1 1 (131072)
I0406 10:21:52.954535  4397 net.cpp:67] Creating Layer fc7
I0406 10:21:52.954542  4397 net.cpp:394] fc7 <- fc6
I0406 10:21:52.954557  4397 net.cpp:356] fc7 -> fc7
I0406 10:21:52.954571  4397 net.cpp:96] Setting up fc7
I0406 10:21:53.500963  4397 net.cpp:103] Top shape: 32 4096 1 1 (131072)
I0406 10:21:53.501065  4397 net.cpp:67] Creating Layer relu7
I0406 10:21:53.501080  4397 net.cpp:394] relu7 <- fc7
I0406 10:21:53.501096  4397 net.cpp:345] relu7 -> fc7 (in-place)
I0406 10:21:53.501111  4397 net.cpp:96] Setting up relu7
I0406 10:21:53.501140  4397 net.cpp:103] Top shape: 32 4096 1 1 (131072)
I0406 10:21:53.501153  4397 net.cpp:67] Creating Layer drop7
I0406 10:21:53.501162  4397 net.cpp:394] drop7 <- fc7
I0406 10:21:53.501173  4397 net.cpp:345] drop7 -> fc7 (in-place)
I0406 10:21:53.501183  4397 net.cpp:96] Setting up drop7
I0406 10:21:53.501191  4397 net.cpp:103] Top shape: 32 4096 1 1 (131072)
I0406 10:21:53.501209  4397 net.cpp:67] Creating Layer fc8_deepfashion
I0406 10:21:53.501230  4397 net.cpp:394] fc8_deepfashion <- fc7
I0406 10:21:53.501242  4397 net.cpp:356] fc8_deepfashion -> fc8_deepfashion
I0406 10:21:53.501256  4397 net.cpp:96] Setting up fc8_deepfashion
I0406 10:21:53.507894  4397 net.cpp:103] Top shape: 32 48 1 1 (1536)
I0406 10:21:53.507947  4397 net.cpp:67] Creating Layer fc8_deepfashion_encode
I0406 10:21:53.507958  4397 net.cpp:394] fc8_deepfashion_encode <- fc8_deepfashion
I0406 10:21:53.507971  4397 net.cpp:356] fc8_deepfashion_encode -> fc8_deepfashion_encode
I0406 10:21:53.507984  4397 net.cpp:96] Setting up fc8_deepfashion_encode
I0406 10:21:53.508010  4397 net.cpp:103] Top shape: 32 48 1 1 (1536)
I0406 10:21:53.508026  4397 net.cpp:67] Creating Layer fc8_deepfashion_encode_fc8_deepfashion_encode_0_split
I0406 10:21:53.508035  4397 net.cpp:394] fc8_deepfashion_encode_fc8_deepfashion_encode_0_split <- fc8_deepfashion_encode
I0406 10:21:53.508046  4397 net.cpp:356] fc8_deepfashion_encode_fc8_deepfashion_encode_0_split -> fc8_deepfashion_encode_fc8_deepfashion_encode_0_split_0
I0406 10:21:53.508059  4397 net.cpp:356] fc8_deepfashion_encode_fc8_deepfashion_encode_0_split -> fc8_deepfashion_encode_fc8_deepfashion_encode_0_split_1
I0406 10:21:53.508071  4397 net.cpp:96] Setting up fc8_deepfashion_encode_fc8_deepfashion_encode_0_split
I0406 10:21:53.508080  4397 net.cpp:103] Top shape: 32 48 1 1 (1536)
I0406 10:21:53.508088  4397 net.cpp:103] Top shape: 32 48 1 1 (1536)
I0406 10:21:53.508105  4397 net.cpp:67] Creating Layer fc8_pascal_label_mod
I0406 10:21:53.508113  4397 net.cpp:394] fc8_pascal_label_mod <- fc8_deepfashion_encode_fc8_deepfashion_encode_0_split_0
I0406 10:21:53.508124  4397 net.cpp:356] fc8_pascal_label_mod -> fc8_pascal_label_mod
I0406 10:21:53.508152  4397 net.cpp:96] Setting up fc8_pascal_label_mod
I0406 10:21:53.508195  4397 net.cpp:103] Top shape: 32 10 1 1 (320)
I0406 10:21:53.508230  4397 net.cpp:67] Creating Layer fc8_pascal_label_mod_fc8_pascal_label_mod_0_split
I0406 10:21:53.508247  4397 net.cpp:394] fc8_pascal_label_mod_fc8_pascal_label_mod_0_split <- fc8_pascal_label_mod
I0406 10:21:53.508260  4397 net.cpp:356] fc8_pascal_label_mod_fc8_pascal_label_mod_0_split -> fc8_pascal_label_mod_fc8_pascal_label_mod_0_split_0
I0406 10:21:53.508272  4397 net.cpp:356] fc8_pascal_label_mod_fc8_pascal_label_mod_0_split -> fc8_pascal_label_mod_fc8_pascal_label_mod_0_split_1
I0406 10:21:53.508285  4397 net.cpp:96] Setting up fc8_pascal_label_mod_fc8_pascal_label_mod_0_split
I0406 10:21:53.508292  4397 net.cpp:103] Top shape: 32 10 1 1 (320)
I0406 10:21:53.508301  4397 net.cpp:103] Top shape: 32 10 1 1 (320)
I0406 10:21:53.508316  4397 net.cpp:67] Creating Layer fc8_pascal_color_mod
I0406 10:21:53.508324  4397 net.cpp:394] fc8_pascal_color_mod <- fc8_deepfashion_encode_fc8_deepfashion_encode_0_split_1
I0406 10:21:53.508337  4397 net.cpp:356] fc8_pascal_color_mod -> fc8_pascal_color_mod
I0406 10:21:53.508353  4397 net.cpp:96] Setting up fc8_pascal_color_mod
I0406 10:21:53.508409  4397 net.cpp:103] Top shape: 32 16 1 1 (512)
I0406 10:21:53.508445  4397 net.cpp:67] Creating Layer fc8_pascal_color_mod_fc8_pascal_color_mod_0_split
I0406 10:21:53.508455  4397 net.cpp:394] fc8_pascal_color_mod_fc8_pascal_color_mod_0_split <- fc8_pascal_color_mod
I0406 10:21:53.508467  4397 net.cpp:356] fc8_pascal_color_mod_fc8_pascal_color_mod_0_split -> fc8_pascal_color_mod_fc8_pascal_color_mod_0_split_0
I0406 10:21:53.508519  4397 net.cpp:356] fc8_pascal_color_mod_fc8_pascal_color_mod_0_split -> fc8_pascal_color_mod_fc8_pascal_color_mod_0_split_1
I0406 10:21:53.508533  4397 net.cpp:96] Setting up fc8_pascal_color_mod_fc8_pascal_color_mod_0_split
I0406 10:21:53.508541  4397 net.cpp:103] Top shape: 32 16 1 1 (512)
I0406 10:21:53.508556  4397 net.cpp:103] Top shape: 32 16 1 1 (512)
I0406 10:21:53.508577  4397 net.cpp:67] Creating Layer loss
I0406 10:21:53.508586  4397 net.cpp:394] loss <- fc8_pascal_label_mod_fc8_pascal_label_mod_0_split_0
I0406 10:21:53.508597  4397 net.cpp:394] loss <- labels0_sliceL_0_split_0
I0406 10:21:53.508613  4397 net.cpp:356] loss -> (automatic)
I0406 10:21:53.508623  4397 net.cpp:96] Setting up loss
I0406 10:21:53.508636  4397 net.cpp:103] Top shape: 1 1 1 1 (1)
I0406 10:21:53.508644  4397 net.cpp:109]     with loss weight 1
I0406 10:21:53.508671  4397 net.cpp:67] Creating Layer loss
I0406 10:21:53.508679  4397 net.cpp:394] loss <- fc8_pascal_color_mod_fc8_pascal_color_mod_0_split_0
I0406 10:21:53.508692  4397 net.cpp:394] loss <- labels1_sliceL_1_split_0
I0406 10:21:53.508702  4397 net.cpp:356] loss -> (automatic)
I0406 10:21:53.508725  4397 net.cpp:96] Setting up loss
I0406 10:21:53.508750  4397 net.cpp:103] Top shape: 1 1 1 1 (1)
I0406 10:21:53.508759  4397 net.cpp:109]     with loss weight 1
I0406 10:21:53.508777  4397 net.cpp:67] Creating Layer accuracy
I0406 10:21:53.508786  4397 net.cpp:394] accuracy <- fc8_pascal_color_mod_fc8_pascal_color_mod_0_split_1
I0406 10:21:53.508795  4397 net.cpp:394] accuracy <- labels1_sliceL_1_split_1
I0406 10:21:53.508807  4397 net.cpp:356] accuracy -> colorAccuracy
I0406 10:21:53.508819  4397 net.cpp:96] Setting up accuracy
I0406 10:21:53.508842  4397 net.cpp:103] Top shape: 1 1 1 1 (1)
I0406 10:21:53.508860  4397 net.cpp:67] Creating Layer accuracy1
I0406 10:21:53.508869  4397 net.cpp:394] accuracy1 <- fc8_pascal_label_mod_fc8_pascal_label_mod_0_split_1
I0406 10:21:53.508878  4397 net.cpp:394] accuracy1 <- labels0_sliceL_0_split_1
I0406 10:21:53.508889  4397 net.cpp:356] accuracy1 -> labelAccuracy
I0406 10:21:53.508901  4397 net.cpp:96] Setting up accuracy1
I0406 10:21:53.508909  4397 net.cpp:103] Top shape: 1 1 1 1 (1)
I0406 10:21:53.508919  4397 net.cpp:67] Creating Layer silence
I0406 10:21:53.508929  4397 net.cpp:394] silence <- random
I0406 10:21:53.508936  4397 net.cpp:96] Setting up silence
I0406 10:21:53.508944  4397 net.cpp:172] silence does not need backward computation.
I0406 10:21:53.508951  4397 net.cpp:172] accuracy1 does not need backward computation.
I0406 10:21:53.508958  4397 net.cpp:172] accuracy does not need backward computation.
…
