…
  top: "data"
  top: "random"
  name: "data"
  type: DATA
  data_param {
    source: "/data/deepfashion/color_label_multilabel/color_label_multilabel_TRAIN"
    batch_size: 32
    backend: LMDB
  }
  include {
    phase: TRAIN
  }
  transform_param {
    mirror: true
    crop_size: 227
    mean_file: "../../../data/ilsvrc12/imagenet_mean.binaryproto"
  }
}
layers {
  top: "labels"
  name: "labels"
  type: DATA
  data_param {
    source: "/data/deepfashion/color_label_multilabel/color_label_multilabel_TRAIN_ALT"
    batch_size: 32
    backend: LMDB
  }
  include {
    phase: TRAIN
  }
}
layers {
  bottom: "labels"
  top: "labels0"
  top: "labels1"
  name: "sliceL"
  type: SLICE
  slice_param {
    slice_point: 1
  }
}
layers {
  bottom: "data"
  top: "conv1"
  name: "conv1"
  type: CONVOLUTION
  blobs_lr: 0
  blobs_lr: 0
  weight_decay: 1
  weight_decay: 0
  convolution_param {
    num_output: 96
    kernel_size: 11
    stride: 4
    weight_filler {
      type: "gaussian"
      std: 0.01
    }
    bias_filler {
      type: "constant"
      value: 0
    }
  }
}
layers {
  bottom: "conv1"
  top: "conv1"
  name: "relu1"
  type: RELU
}
layers {
  bottom: "conv1"
  top: "pool1"
  name: "pool1"
  type: POOLING
  pooling_param {
    pool: MAX
    kernel_size: 3
    stride: 2
  }
}
layers {
  bottom: "pool1"
  top: "norm1"
  name: "norm1"
  type: LRN
  lrn_param {
    local_size: 5
    alpha: 0.0001
    beta: 0.75
  }
}
layers {
  bottom: "norm1"
  top: "conv2"
  name: "conv2"
  type: CONVOLUTION
  blobs_lr: 1
  blobs_lr: 2
  weight_decay: 1
  weight_decay: 0
  convolution_param {
    num_output: 256
    pad: 2
    kernel_size: 5
    group: 2
    weight_filler {
      type: "gaussian"
      std: 0.01
    }
    bias_filler {
      type: "constant"
      value: 1
    }
  }
}
layers {
  bottom: "conv2"
  top: "conv2"
  name: "relu2"
  type: RELU
}
layers {
  bottom: "conv2"
  top: "pool2"
  name: "pool2"
  type: POOLING
  pooling_param {
    pool: MAX
    kernel_size: 3
    stride: 2
  }
}
layers {
  bottom: "pool2"
  top: "norm2"
  name: "norm2"
  type: LRN
  lrn_param {
    local_size: 5
    alpha: 0.0001
    beta: 0.75
  }
}
layers {
  bottom: "norm2"
  top: "conv3"
  name: "conv3"
  type: CONVOLUTION
  blobs_lr: 1
  blobs_lr: 2
  weight_decay: 1
  weight_decay: 0
  convolution_param {
    num_output: 384
    pad: 1
    kernel_size: 3
    weight_filler {
      type: "gaussian"
      std: 0.01
    }
    bias_filler {
      type: "constant"
      value: 0
    }
  }
}
layers {
  bottom: "conv3"
  top: "conv3"
  name: "relu3"
  type: RELU
}
layers {
  bottom: "conv3"
  top: "conv4"
  name: "conv4"
  type: CONVOLUTION
  blobs_lr: 1
  blobs_lr: 2
  weight_decay: 1
  weight_decay: 0
  convolution_param {
    num_output: 384
    pad: 1
    kernel_size: 3
    group: 2
    weight_filler {
      type: "gaussian"
      std: 0.01
    }
    bias_filler {
      type: "constant"
      value: 1
    }
  }
}
layers {
  bottom: "conv4"
  top: "conv4"
  name: "relu4"
  type: RELU
}
layers {
  bottom: "conv4"
  top: "conv5"
  name: "conv5"
  type: CONVOLUTION
  blobs_lr: 1
  blobs_lr: 2
  weight_decay: 1
  weight_decay: 0
  convolution_param {
    num_output: 256
    pad: 1
    kernel_size: 3
    group: 2
    weight_filler {
      type: "gaussian"
      std: 0.01
    }
    bias_filler {
      type: "constant"
      value: 1
    }
  }
}
layers {
  bottom: "conv5"
  top: "conv5"
  name: "relu5"
  type: RELU
}
layers {
  bottom: "conv5"
  top: "pool5"
  name: "pool5"
  type: POOLING
  pooling_param {
    pool: MAX
    kernel_size: 3
    stride: 2
  }
}
layers {
  bottom: "pool5"
  top: "fc6"
  name: "fc6"
  type: INNER_PRODUCT
  blobs_lr: 1
  blobs_lr: 2
  weight_decay: 1
  weight_decay: 0
  inner_product_param {
    num_output: 4096
    weight_filler {
      type: "gaussian"
      std: 0.005
    }
    bias_filler {
      type: "constant"
      value: 1
    }
  }
}
layers {
  bottom: "fc6"
  top: "fc6"
  name: "relu6"
  type: RELU
}
layers {
  bottom: "fc6"
  top: "fc6"
  name: "drop6"
  type: DROPOUT
  dropout_param {
    dropout_ratio: 0.5
  }
}
layers {
  bottom: "fc6"
  top: "fc7"
  name: "fc7"
  type: INNER_PRODUCT
  blobs_lr: 1
  blobs_lr: 2
  weight_decay: 1
  weight_decay: 0
  inner_product_param {
    num_output: 4096
    weight_filler {
      type: "gaussian"
      std: 0.005
    }
    bias_filler {
      type: "constant"
      value: 1
    }
  }
}
layers {
  bottom: "fc7"
  top: "fc7"
  name: "relu7"
  type: RELU
}
layers {
  bottom: "fc7"
  top: "fc7"
  name: "drop7"
  type: DROPOUT
  dropout_param {
    dropout_ratio: 0.5
  }
}
layers {
  bottom: "fc7"
  top: "fc8_deepfashion"
  name: "fc8_deepfashion"
  type: INNER_PRODUCT
  blobs_lr: 1
  blobs_lr: 2
  weight_decay: 1
  weight_decay: 0
  inner_product_param {
    num_output: 48
    weight_filler {
      type: "gaussian"
      std: 0.01
    }
    bias_filler {
      type: "constant"
      value: 0
    }
  }
}
layers {
  bottom: "fc8_deepfashion"
  top: "fc8_deepfashion_encode"
  name: "fc8_deepfashion_encode"
  type: SIGMOID
}
layers {
  bottom: "fc8_deepfashion_encode"
  top: "fc8_pascal_label_mod"
  name: "fc8_pascal_label_mod"
  type: INNER_PRODUCT
  blobs_lr: 1
  blobs_lr: 2
  weight_decay: 1
  weight_decay: 0
  inner_product_param {
    num_output: 10
    weight_filler {
      type: "gaussian"
      std: 0.01
    }
    bias_filler {
      type: "constant"
      value: 0
    }
  }
}
layers {
  bottom: "fc8_deepfashion_encode"
  top: "fc8_pascal_color_mod"
  name: "fc8_pascal_color_mod"
  type: INNER_PRODUCT
  blobs_lr: 1
  blobs_lr: 2
  weight_decay: 1
  weight_decay: 0
  inner_product_param {
    num_output: 16
    weight_filler {
      type: "gaussian"
      std: 0.01
    }
    bias_filler {
      type: "constant"
      value: 0
    }
  }
}
layers {
  bottom: "fc8_pascal_label_mod"
  bottom: "labels0"
  name: "loss"
  type: SOFTMAX_LOSS
}
layers {
  bottom: "fc8_pascal_color_mod"
  bottom: "labels1"
  name: "loss"
  type: SOFTMAX_LOSS
}
layers {
  bottom: "random"
  name: "silence"
  type: SILENCE
}
state {
  phase: TRAIN
}
I0406 15:58:07.721300 14188 net.cpp:67] Creating Layer data
I0406 15:58:07.721320 14188 net.cpp:356] data -> data
I0406 15:58:07.721351 14188 net.cpp:356] data -> random
I0406 15:58:07.721366 14188 net.cpp:96] Setting up data
I0406 15:58:07.722571 14188 data_layer.cpp:68] Opening lmdb /data/deepfashion/color_label_multilabel/color_label_multilabel_TRAIN
I0406 15:58:07.722780 14188 data_layer.cpp:128] output data size: 32,3,227,227
I0406 15:58:07.722796 14188 base_data_layer.cpp:36] Loading mean file from../../../data/ilsvrc12/imagenet_mean.binaryproto
I0406 15:58:07.738544 14188 net.cpp:103] Top shape: 32 3 227 227 (4946784)
I0406 15:58:07.738581 14188 net.cpp:103] Top shape: 32 1 1 1 (32)
I0406 15:58:07.738600 14188 net.cpp:67] Creating Layer labels
I0406 15:58:07.738607 14188 net.cpp:356] labels -> labels
I0406 15:58:07.738620 14188 net.cpp:96] Setting up labels
I0406 15:58:07.739725 14188 data_layer.cpp:68] Opening lmdb /data/deepfashion/color_label_multilabel/color_label_multilabel_TRAIN_ALT
I0406 15:58:07.739781 14188 data_layer.cpp:128] output data size: 32,2,1,1
I0406 15:58:07.739831 14188 net.cpp:103] Top shape: 32 2 1 1 (64)
I0406 15:58:07.739878 14188 net.cpp:67] Creating Layer sliceL
I0406 15:58:07.739895 14188 net.cpp:394] sliceL <- labels
I0406 15:58:07.739910 14188 net.cpp:356] sliceL -> labels0
I0406 15:58:07.739954 14188 net.cpp:356] sliceL -> labels1
I0406 15:58:07.739979 14188 net.cpp:96] Setting up sliceL
I0406 15:58:07.739990 14188 net.cpp:103] Top shape: 32 1 1 1 (32)
I0406 15:58:07.740008 14188 net.cpp:103] Top shape: 32 1 1 1 (32)
I0406 15:58:07.740021 14188 net.cpp:67] Creating Layer conv1
I0406 15:58:07.740027 14188 net.cpp:394] conv1 <- data
I0406 15:58:07.740041 14188 net.cpp:356] conv1 -> conv1
I0406 15:58:07.740061 14188 net.cpp:96] Setting up conv1
I0406 15:58:07.768803 14188 net.cpp:103] Top shape: 32 96 55 55 (9292800)
I0406 15:58:07.768862 14188 net.cpp:67] Creating Layer relu1
I0406 15:58:07.768869 14188 net.cpp:394] relu1 <- conv1
I0406 15:58:07.768878 14188 net.cpp:345] relu1 -> conv1 (in-place)
I0406 15:58:07.768887 14188 net.cpp:96] Setting up relu1
I0406 15:58:07.768899 14188 net.cpp:103] Top shape: 32 96 55 55 (9292800)
I0406 15:58:07.768909 14188 net.cpp:67] Creating Layer pool1
I0406 15:58:07.768913 14188 net.cpp:394] pool1 <- conv1
I0406 15:58:07.768921 14188 net.cpp:356] pool1 -> pool1
I0406 15:58:07.768935 14188 net.cpp:96] Setting up pool1
I0406 15:58:07.768959 14188 net.cpp:103] Top shape: 32 96 27 27 (2239488)
I0406 15:58:07.768976 14188 net.cpp:67] Creating Layer norm1
I0406 15:58:07.768981 14188 net.cpp:394] norm1 <- pool1
I0406 15:58:07.768987 14188 net.cpp:356] norm1 -> norm1
I0406 15:58:07.768993 14188 net.cpp:96] Setting up norm1
I0406 15:58:07.769001 14188 net.cpp:103] Top shape: 32 96 27 27 (2239488)
I0406 15:58:07.769011 14188 net.cpp:67] Creating Layer conv2
I0406 15:58:07.769014 14188 net.cpp:394] conv2 <- norm1
I0406 15:58:07.769022 14188 net.cpp:356] conv2 -> conv2
I0406 15:58:07.769031 14188 net.cpp:96] Setting up conv2
I0406 15:58:07.779268 14188 net.cpp:103] Top shape: 32 256 27 27 (5971968)
I0406 15:58:07.779294 14188 net.cpp:67] Creating Layer relu2
I0406 15:58:07.779299 14188 net.cpp:394] relu2 <- conv2
I0406 15:58:07.779307 14188 net.cpp:345] relu2 -> conv2 (in-place)
I0406 15:58:07.779314 14188 net.cpp:96] Setting up relu2
I0406 15:58:07.779320 14188 net.cpp:103] Top shape: 32 256 27 27 (5971968)
I0406 15:58:07.779327 14188 net.cpp:67] Creating Layer pool2
I0406 15:58:07.779332 14188 net.cpp:394] pool2 <- conv2
I0406 15:58:07.779337 14188 net.cpp:356] pool2 -> pool2
I0406 15:58:07.779343 14188 net.cpp:96] Setting up pool2
I0406 15:58:07.779350 14188 net.cpp:103] Top shape: 32 256 13 13 (1384448)
I0406 15:58:07.779357 14188 net.cpp:67] Creating Layer norm2
I0406 15:58:07.779361 14188 net.cpp:394] norm2 <- pool2
I0406 15:58:07.779366 14188 net.cpp:356] norm2 -> norm2
I0406 15:58:07.779371 14188 net.cpp:96] Setting up norm2
I0406 15:58:07.779376 14188 net.cpp:103] Top shape: 32 256 13 13 (1384448)
I0406 15:58:07.779386 14188 net.cpp:67] Creating Layer conv3
I0406 15:58:07.779389 14188 net.cpp:394] conv3 <- norm2
I0406 15:58:07.779394 14188 net.cpp:356] conv3 -> conv3
I0406 15:58:07.779402 14188 net.cpp:96] Setting up conv3
I0406 15:58:07.808289 14188 net.cpp:103] Top shape: 32 384 13 13 (2076672)
I0406 15:58:07.808312 14188 net.cpp:67] Creating Layer relu3
I0406 15:58:07.808318 14188 net.cpp:394] relu3 <- conv3
I0406 15:58:07.808325 14188 net.cpp:345] relu3 -> conv3 (in-place)
I0406 15:58:07.808331 14188 net.cpp:96] Setting up relu3
I0406 15:58:07.808336 14188 net.cpp:103] Top shape: 32 384 13 13 (2076672)
I0406 15:58:07.808349 14188 net.cpp:67] Creating Layer conv4
I0406 15:58:07.808360 14188 net.cpp:394] conv4 <- conv3
I0406 15:58:07.808368 14188 net.cpp:356] conv4 -> conv4
I0406 15:58:07.808375 14188 net.cpp:96] Setting up conv4
I0406 15:58:07.830528 14188 net.cpp:103] Top shape: 32 384 13 13 (2076672)
I0406 15:58:07.830552 14188 net.cpp:67] Creating Layer relu4
I0406 15:58:07.830559 14188 net.cpp:394] relu4 <- conv4
I0406 15:58:07.830588 14188 net.cpp:345] relu4 -> conv4 (in-place)
I0406 15:58:07.830602 14188 net.cpp:96] Setting up relu4
I0406 15:58:07.830610 14188 net.cpp:103] Top shape: 32 384 13 13 (2076672)
I0406 15:58:07.830617 14188 net.cpp:67] Creating Layer conv5
I0406 15:58:07.830621 14188 net.cpp:394] conv5 <- conv4
I0406 15:58:07.830631 14188 net.cpp:356] conv5 -> conv5
I0406 15:58:07.830636 14188 net.cpp:96] Setting up conv5
I0406 15:58:07.845332 14188 net.cpp:103] Top shape: 32 256 13 13 (1384448)
I0406 15:58:07.845363 14188 net.cpp:67] Creating Layer relu5
I0406 15:58:07.845369 14188 net.cpp:394] relu5 <- conv5
I0406 15:58:07.845386 14188 net.cpp:345] relu5 -> conv5 (in-place)
I0406 15:58:07.845394 14188 net.cpp:96] Setting up relu5
I0406 15:58:07.845401 14188 net.cpp:103] Top shape: 32 256 13 13 (1384448)
I0406 15:58:07.845408 14188 net.cpp:67] Creating Layer pool5
I0406 15:58:07.845412 14188 net.cpp:394] pool5 <- conv5
I0406 15:58:07.845417 14188 net.cpp:356] pool5 -> pool5
I0406 15:58:07.845423 14188 net.cpp:96] Setting up pool5
I0406 15:58:07.845432 14188 net.cpp:103] Top shape: 32 256 6 6 (294912)
I0406 15:58:07.845450 14188 net.cpp:67] Creating Layer fc6
I0406 15:58:07.845460 14188 net.cpp:394] fc6 <- pool5
I0406 15:58:07.845468 14188 net.cpp:356] fc6 -> fc6
I0406 15:58:07.845474 14188 net.cpp:96] Setting up fc6
I0406 15:58:09.068977 14188 net.cpp:103] Top shape: 32 4096 1 1 (131072)
I0406 15:58:09.069031 14188 net.cpp:67] Creating Layer relu6
I0406 15:58:09.069038 14188 net.cpp:394] relu6 <- fc6
I0406 15:58:09.069047 14188 net.cpp:345] relu6 -> fc6 (in-place)
I0406 15:58:09.069056 14188 net.cpp:96] Setting up relu6
I0406 15:58:09.069077 14188 net.cpp:103] Top shape: 32 4096 1 1 (131072)
I0406 15:58:09.069087 14188 net.cpp:67] Creating Layer drop6
I0406 15:58:09.069092 14188 net.cpp:394] drop6 <- fc6
I0406 15:58:09.069097 14188 net.cpp:345] drop6 -> fc6 (in-place)
I0406 15:58:09.069103 14188 net.cpp:96] Setting up drop6
I0406 15:58:09.069113 14188 net.cpp:103] Top shape: 32 4096 1 1 (131072)
I0406 15:58:09.069133 14188 net.cpp:67] Creating Layer fc7
I0406 15:58:09.069139 14188 net.cpp:394] fc7 <- fc6
I0406 15:58:09.069144 14188 net.cpp:356] fc7 -> fc7
I0406 15:58:09.069155 14188 net.cpp:96] Setting up fc7
I0406 15:58:09.612911 14188 net.cpp:103] Top shape: 32 4096 1 1 (131072)
I0406 15:58:09.612962 14188 net.cpp:67] Creating Layer relu7
I0406 15:58:09.612969 14188 net.cpp:394] relu7 <- fc7
I0406 15:58:09.612978 14188 net.cpp:345] relu7 -> fc7 (in-place)
I0406 15:58:09.612985 14188 net.cpp:96] Setting up relu7
I0406 15:58:09.613006 14188 net.cpp:103] Top shape: 32 4096 1 1 (131072)
I0406 15:58:09.613013 14188 net.cpp:67] Creating Layer drop7
I0406 15:58:09.613018 14188 net.cpp:394] drop7 <- fc7
I0406 15:58:09.613025 14188 net.cpp:345] drop7 -> fc7 (in-place)
I0406 15:58:09.613031 14188 net.cpp:96] Setting up drop7
I0406 15:58:09.613036 14188 net.cpp:103] Top shape: 32 4096 1 1 (131072)
I0406 15:58:09.613044 14188 net.cpp:67] Creating Layer fc8_deepfashion
I0406 15:58:09.613047 14188 net.cpp:394] fc8_deepfashion <- fc7
I0406 15:58:09.613054 14188 net.cpp:356] fc8_deepfashion -> fc8_deepfashion
I0406 15:58:09.613061 14188 net.cpp:96] Setting up fc8_deepfashion
I0406 15:58:09.619586 14188 net.cpp:103] Top shape: 32 48 1 1 (1536)
I0406 15:58:09.619606 14188 net.cpp:67] Creating Layer fc8_deepfashion_encode
I0406 15:58:09.619612 14188 net.cpp:394] fc8_deepfashion_encode <- fc8_deepfashion
I0406 15:58:09.619622 14188 net.cpp:356] fc8_deepfashion_encode -> fc8_deepfashion_encode
I0406 15:58:09.619629 14188 net.cpp:96] Setting up fc8_deepfashion_encode
I0406 15:58:09.619642 14188 net.cpp:103] Top shape: 32 48 1 1 (1536)
I0406 15:58:09.619648 14188 net.cpp:67] Creating Layer fc8_deepfashion_encode_fc8_deepfashion_encode_0_split
I0406 15:58:09.619653 14188 net.cpp:394] fc8_deepfashion_encode_fc8_deepfashion_encode_0_split <- fc8_deepfashion_encode
I0406 15:58:09.619658 14188 net.cpp:356] fc8_deepfashion_encode_fc8_deepfashion_encode_0_split -> fc8_deepfashion_encode_fc8_deepfashion_encode_0_split_0
I0406 15:58:09.619694 14188 net.cpp:356] fc8_deepfashion_encode_fc8_deepfashion_encode_0_split -> fc8_deepfashion_encode_fc8_deepfashion_encode_0_split_1
I0406 15:58:09.619702 14188 net.cpp:96] Setting up fc8_deepfashion_encode_fc8_deepfashion_encode_0_split
I0406 15:58:09.619709 14188 net.cpp:103] Top shape: 32 48 1 1 (1536)
I0406 15:58:09.619714 14188 net.cpp:103] Top shape: 32 48 1 1 (1536)
I0406 15:58:09.619724 14188 net.cpp:67] Creating Layer fc8_pascal_label_mod
I0406 15:58:09.619727 14188 net.cpp:394] fc8_pascal_label_mod <- fc8_deepfashion_encode_fc8_deepfashion_encode_0_split_0
I0406 15:58:09.619736 14188 net.cpp:356] fc8_pascal_label_mod -> fc8_pascal_label_mod
I0406 15:58:09.619742 14188 net.cpp:96] Setting up fc8_pascal_label_mod
I0406 15:58:09.619770 14188 net.cpp:103] Top shape: 32 10 1 1 (320)
I0406 15:58:09.619792 14188 net.cpp:67] Creating Layer fc8_pascal_color_mod
I0406 15:58:09.619803 14188 net.cpp:394] fc8_pascal_color_mod <- fc8_deepfashion_encode_fc8_deepfashion_encode_0_split_1
I0406 15:58:09.619809 14188 net.cpp:356] fc8_pascal_color_mod -> fc8_pascal_color_mod
I0406 15:58:09.619817 14188 net.cpp:96] Setting up fc8_pascal_color_mod
I0406 15:58:09.619853 14188 net.cpp:103] Top shape: 32 16 1 1 (512)
I0406 15:58:09.619869 14188 net.cpp:67] Creating Layer loss
I0406 15:58:09.619874 14188 net.cpp:394] loss <- fc8_pascal_label_mod
I0406 15:58:09.619879 14188 net.cpp:394] loss <- labels0
I0406 15:58:09.619884 14188 net.cpp:356] loss -> (automatic)
I0406 15:58:09.619889 14188 net.cpp:96] Setting up loss
I0406 15:58:09.619907 14188 net.cpp:103] Top shape: 1 1 1 1 (1)
I0406 15:58:09.619915 14188 net.cpp:109]     with loss weight 1
I0406 15:58:09.619962 14188 net.cpp:67] Creating Layer loss
I0406 15:58:09.619968 14188 net.cpp:394] loss <- fc8_pascal_color_mod
I0406 15:58:09.619982 14188 net.cpp:394] loss <- labels1
I0406 15:58:09.619987 14188 net.cpp:356] loss -> (automatic)
I0406 15:58:09.619992 14188 net.cpp:96] Setting up loss
I0406 15:58:09.619997 14188 net.cpp:103] Top shape: 1 1 1 1 (1)
I0406 15:58:09.620002 14188 net.cpp:109]     with loss weight 1
I0406 15:58:09.620012 14188 net.cpp:67] Creating Layer silence
I0406 15:58:09.620015 14188 net.cpp:394] silence <- random
I0406 15:58:09.620020 14188 net.cpp:96] Setting up silence
I0406 15:58:09.620024 14188 net.cpp:172] silence does not need backward computation.
I0406 15:58:09.620028 14188 net.cpp:170] loss needs backward computation.
…
layers {
  top: "data"
  top: "random"
  name: "data"
  type: DATA
  data_param {
    source: "/data/deepfashion/color_label_multilabel/color_label_multilabel_test"
    batch_size: 32
    backend: LMDB
  }
  include {
    phase: TEST
  }
  transform_param {
    mirror: true
    crop_size: 227
    mean_file: "../../../data/ilsvrc12/imagenet_mean.binaryproto"
  }
}
layers {
  top: "labels"
  name: "labels"
  type: DATA
  data_param {
    source: "/data/deepfashion/color_label_multilabel/color_label_multilabel_test_alt"
    batch_size: 32
    backend: LMDB
  }
  include {
    phase: TEST
  }
}
layers {
  bottom: "labels"
  top: "labels0"
  top: "labels1"
  name: "sliceL"
  type: SLICE
  slice_param {
    slice_point: 1
  }
}
layers {
  bottom: "data"
  top: "conv1"
  name: "conv1"
  type: CONVOLUTION
  blobs_lr: 0
  blobs_lr: 0
  weight_decay: 1
  weight_decay: 0
  convolution_param {
    num_output: 96
    kernel_size: 11
    stride: 4
    weight_filler {
      type: "gaussian"
      std: 0.01
    }
    bias_filler {
      type: "constant"
      value: 0
    }
  }
}
layers {
  bottom: "conv1"
  top: "conv1"
  name: "relu1"
  type: RELU
}
layers {
  bottom: "conv1"
  top: "pool1"
  name: "pool1"
  type: POOLING
  pooling_param {
    pool: MAX
    kernel_size: 3
    stride: 2
  }
}
layers {
  bottom: "pool1"
  top: "norm1"
  name: "norm1"
  type: LRN
  lrn_param {
    local_size: 5
    alpha: 0.0001
    beta: 0.75
  }
}
layers {
  bottom: "norm1"
  top: "conv2"
  name: "conv2"
  type: CONVOLUTION
  blobs_lr: 1
  blobs_lr: 2
  weight_decay: 1
  weight_decay: 0
  convolution_param {
    num_output: 256
    pad: 2
    kernel_size: 5
    group: 2
    weight_filler {
      type: "gaussian"
      std: 0.01
    }
    bias_filler {
      type: "constant"
      value: 1
    }
  }
}
layers {
  bottom: "conv2"
  top: "conv2"
  name: "relu2"
  type: RELU
}
layers {
  bottom: "conv2"
  top: "pool2"
  name: "pool2"
  type: POOLING
  pooling_param {
    pool: MAX
    kernel_size: 3
    stride: 2
  }
}
layers {
  bottom: "pool2"
  top: "norm2"
  name: "norm2"
  type: LRN
  lrn_param {
    local_size: 5
    alpha: 0.0001
    beta: 0.75
  }
}
layers {
  bottom: "norm2"
  top: "conv3"
  name: "conv3"
  type: CONVOLUTION
  blobs_lr: 1
  blobs_lr: 2
  weight_decay: 1
  weight_decay: 0
  convolution_param {
    num_output: 384
    pad: 1
    kernel_size: 3
    weight_filler {
      type: "gaussian"
      std: 0.01
    }
    bias_filler {
      type: "constant"
      value: 0
    }
  }
}
layers {
  bottom: "conv3"
  top: "conv3"
  name: "relu3"
  type: RELU
}
layers {
  bottom: "conv3"
  top: "conv4"
  name: "conv4"
  type: CONVOLUTION
  blobs_lr: 1
  blobs_lr: 2
  weight_decay: 1
  weight_decay: 0
  convolution_param {
    num_output: 384
    pad: 1
    kernel_size: 3
    group: 2
    weight_filler {
      type: "gaussian"
      std: 0.01
    }
    bias_filler {
      type: "constant"
      value: 1
    }
  }
}
layers {
  bottom: "conv4"
  top: "conv4"
  name: "relu4"
  type: RELU
}
layers {
  bottom: "conv4"
  top: "conv5"
  name: "conv5"
  type: CONVOLUTION
  blobs_lr: 1
  blobs_lr: 2
  weight_decay: 1
  weight_decay: 0
  convolution_param {
    num_output: 256
    pad: 1
    kernel_size: 3
    group: 2
    weight_filler {
      type: "gaussian"
      std: 0.01
    }
    bias_filler {
      type: "constant"
      value: 1
    }
  }
}
layers {
  bottom: "conv5"
  top: "conv5"
  name: "relu5"
  type: RELU
}
layers {
  bottom: "conv5"
  top: "pool5"
  name: "pool5"
  type: POOLING
  pooling_param {
    pool: MAX
    kernel_size: 3
    stride: 2
  }
}
layers {
  bottom: "pool5"
  top: "fc6"
  name: "fc6"
  type: INNER_PRODUCT
  blobs_lr: 1
  blobs_lr: 2
  weight_decay: 1
  weight_decay: 0
  inner_product_param {
    num_output: 4096
    weight_filler {
      type: "gaussian"
      std: 0.005
    }
    bias_filler {
      type: "constant"
      value: 1
    }
  }
}
layers {
  bottom: "fc6"
  top: "fc6"
  name: "relu6"
  type: RELU
}
layers {
  bottom: "fc6"
  top: "fc6"
  name: "drop6"
  type: DROPOUT
  dropout_param {
    dropout_ratio: 0.5
  }
}
layers {
  bottom: "fc6"
  top: "fc7"
  name: "fc7"
  type: INNER_PRODUCT
  blobs_lr: 1
  blobs_lr: 2
  weight_decay: 1
  weight_decay: 0
  inner_product_param {
    num_output: 4096
    weight_filler {
      type: "gaussian"
      std: 0.005
    }
    bias_filler {
      type: "constant"
      value: 1
    }
  }
}
layers {
  bottom: "fc7"
  top: "fc7"
  name: "relu7"
  type: RELU
}
layers {
  bottom: "fc7"
  top: "fc7"
  name: "drop7"
  type: DROPOUT
  dropout_param {
    dropout_ratio: 0.5
  }
}
layers {
  bottom: "fc7"
  top: "fc8_deepfashion"
  name: "fc8_deepfashion"
  type: INNER_PRODUCT
  blobs_lr: 1
  blobs_lr: 2
  weight_decay: 1
  weight_decay: 0
  inner_product_param {
    num_output: 48
    weight_filler {
      type: "gaussian"
      std: 0.01
    }
    bias_filler {
      type: "constant"
      value: 0
    }
  }
}
layers {
  bottom: "fc8_deepfashion"
  top: "fc8_deepfashion_encode"
  name: "fc8_deepfashion_encode"
  type: SIGMOID
}
layers {
  bottom: "fc8_deepfashion_encode"
  top: "fc8_pascal_label_mod"
  name: "fc8_pascal_label_mod"
  type: INNER_PRODUCT
  blobs_lr: 1
  blobs_lr: 2
  weight_decay: 1
  weight_decay: 0
  inner_product_param {
    num_output: 10
    weight_filler {
      type: "gaussian"
      std: 0.01
    }
    bias_filler {
      type: "constant"
      value: 0
    }
  }
}
layers {
  bottom: "fc8_deepfashion_encode"
  top: "fc8_pascal_color_mod"
  name: "fc8_pascal_color_mod"
  type: INNER_PRODUCT
  blobs_lr: 1
  blobs_lr: 2
  weight_decay: 1
  weight_decay: 0
  inner_product_param {
    num_output: 16
    weight_filler {
      type: "gaussian"
      std: 0.01
    }
    bias_filler {
      type: "constant"
      value: 0
    }
  }
}
layers {
  bottom: "fc8_pascal_label_mod"
  bottom: "labels0"
  name: "loss"
  type: SOFTMAX_LOSS
}
layers {
  bottom: "fc8_pascal_color_mod"
  bottom: "labels1"
  name: "loss"
  type: SOFTMAX_LOSS
}
layers {
  bottom: "fc8_pascal_color_mod"
  bottom: "labels1"
  top: "colorAccuracy"
  name: "accuracy"
  type: ACCURACY
  include {
    phase: TEST
  }
}
layers {
  bottom: "fc8_pascal_label_mod"
  bottom: "labels0"
  top: "labelAccuracy"
  name: "accuracy1"
  type: ACCURACY
  include {
    phase: TEST
  }
}
layers {
  bottom: "random"
  name: "silence"
  type: SILENCE
}
state {
  phase: TEST
}
I0406 15:58:09.621414 14188 net.cpp:67] Creating Layer data
I0406 15:58:09.621423 14188 net.cpp:356] data -> data
I0406 15:58:09.621433 14188 net.cpp:356] data -> random
I0406 15:58:09.621439 14188 net.cpp:96] Setting up data
I0406 15:58:09.622485 14188 data_layer.cpp:68] Opening lmdb /data/deepfashion/color_label_multilabel/color_label_multilabel_test
I0406 15:58:09.622687 14188 data_layer.cpp:128] output data size: 32,3,227,227
I0406 15:58:09.622704 14188 base_data_layer.cpp:36] Loading mean file from../../../data/ilsvrc12/imagenet_mean.binaryproto
I0406 15:58:09.629673 14188 net.cpp:103] Top shape: 32 3 227 227 (4946784)
I0406 15:58:09.629706 14188 net.cpp:103] Top shape: 32 1 1 1 (32)
I0406 15:58:09.629725 14188 net.cpp:67] Creating Layer labels
I0406 15:58:09.629732 14188 net.cpp:356] labels -> labels
I0406 15:58:09.629745 14188 net.cpp:96] Setting up labels
I0406 15:58:09.629815 14188 data_layer.cpp:68] Opening lmdb /data/deepfashion/color_label_multilabel/color_label_multilabel_test_alt
I0406 15:58:09.629837 14188 data_layer.cpp:128] output data size: 32,2,1,1
I0406 15:58:09.629868 14188 net.cpp:103] Top shape: 32 2 1 1 (64)
I0406 15:58:09.629886 14188 net.cpp:67] Creating Layer sliceL
I0406 15:58:09.629891 14188 net.cpp:394] sliceL <- labels
I0406 15:58:09.629899 14188 net.cpp:356] sliceL -> labels0
I0406 15:58:09.629907 14188 net.cpp:356] sliceL -> labels1
I0406 15:58:09.629914 14188 net.cpp:96] Setting up sliceL
I0406 15:58:09.629921 14188 net.cpp:103] Top shape: 32 1 1 1 (32)
I0406 15:58:09.629925 14188 net.cpp:103] Top shape: 32 1 1 1 (32)
I0406 15:58:09.629932 14188 net.cpp:67] Creating Layer labels0_sliceL_0_split
I0406 15:58:09.629936 14188 net.cpp:394] labels0_sliceL_0_split <- labels0
I0406 15:58:09.629941 14188 net.cpp:356] labels0_sliceL_0_split -> labels0_sliceL_0_split_0
I0406 15:58:09.629948 14188 net.cpp:356] labels0_sliceL_0_split -> labels0_sliceL_0_split_1
I0406 15:58:09.629954 14188 net.cpp:96] Setting up labels0_sliceL_0_split
I0406 15:58:09.629959 14188 net.cpp:103] Top shape: 32 1 1 1 (32)
I0406 15:58:09.629962 14188 net.cpp:103] Top shape: 32 1 1 1 (32)
I0406 15:58:09.629969 14188 net.cpp:67] Creating Layer labels1_sliceL_1_split
I0406 15:58:09.629974 14188 net.cpp:394] labels1_sliceL_1_split <- labels1
I0406 15:58:09.629981 14188 net.cpp:356] labels1_sliceL_1_split -> labels1_sliceL_1_split_0
I0406 15:58:09.629987 14188 net.cpp:356] labels1_sliceL_1_split -> labels1_sliceL_1_split_1
I0406 15:58:09.629993 14188 net.cpp:96] Setting up labels1_sliceL_1_split
I0406 15:58:09.629997 14188 net.cpp:103] Top shape: 32 1 1 1 (32)
I0406 15:58:09.630002 14188 net.cpp:103] Top shape: 32 1 1 1 (32)
I0406 15:58:09.630009 14188 net.cpp:67] Creating Layer conv1
I0406 15:58:09.630013 14188 net.cpp:394] conv1 <- data
I0406 15:58:09.630020 14188 net.cpp:356] conv1 -> conv1
I0406 15:58:09.630056 14188 net.cpp:96] Setting up conv1
I0406 15:58:09.631286 14188 net.cpp:103] Top shape: 32 96 55 55 (9292800)
I0406 15:58:09.631312 14188 net.cpp:67] Creating Layer relu1
I0406 15:58:09.631317 14188 net.cpp:394] relu1 <- conv1
I0406 15:58:09.631325 14188 net.cpp:345] relu1 -> conv1 (in-place)
I0406 15:58:09.631330 14188 net.cpp:96] Setting up relu1
I0406 15:58:09.631337 14188 net.cpp:103] Top shape: 32 96 55 55 (9292800)
I0406 15:58:09.631345 14188 net.cpp:67] Creating Layer pool1
I0406 15:58:09.631350 14188 net.cpp:394] pool1 <- conv1
I0406 15:58:09.631356 14188 net.cpp:356] pool1 -> pool1
I0406 15:58:09.631361 14188 net.cpp:96] Setting up pool1
I0406 15:58:09.631371 14188 net.cpp:103] Top shape: 32 96 27 27 (2239488)
I0406 15:58:09.631379 14188 net.cpp:67] Creating Layer norm1
I0406 15:58:09.631386 14188 net.cpp:394] norm1 <- pool1
I0406 15:58:09.631392 14188 net.cpp:356] norm1 -> norm1
I0406 15:58:09.631398 14188 net.cpp:96] Setting up norm1
I0406 15:58:09.631404 14188 net.cpp:103] Top shape: 32 96 27 27 (2239488)
I0406 15:58:09.631412 14188 net.cpp:67] Creating Layer conv2
I0406 15:58:09.631417 14188 net.cpp:394] conv2 <- norm1
I0406 15:58:09.631423 14188 net.cpp:356] conv2 -> conv2
I0406 15:58:09.631429 14188 net.cpp:96] Setting up conv2
I0406 15:58:09.641628 14188 net.cpp:103] Top shape: 32 256 27 27 (5971968)
I0406 15:58:09.641666 14188 net.cpp:67] Creating Layer relu2
I0406 15:58:09.641674 14188 net.cpp:394] relu2 <- conv2
I0406 15:58:09.641680 14188 net.cpp:345] relu2 -> conv2 (in-place)
I0406 15:58:09.641687 14188 net.cpp:96] Setting up relu2
I0406 15:58:09.641695 14188 net.cpp:103] Top shape: 32 256 27 27 (5971968)
I0406 15:58:09.641727 14188 net.cpp:67] Creating Layer pool2
I0406 15:58:09.641732 14188 net.cpp:394] pool2 <- conv2
I0406 15:58:09.641739 14188 net.cpp:356] pool2 -> pool2
I0406 15:58:09.641746 14188 net.cpp:96] Setting up pool2
I0406 15:58:09.641754 14188 net.cpp:103] Top shape: 32 256 13 13 (1384448)
I0406 15:58:09.641763 14188 net.cpp:67] Creating Layer norm2
I0406 15:58:09.641769 14188 net.cpp:394] norm2 <- pool2
I0406 15:58:09.641777 14188 net.cpp:356] norm2 -> norm2
I0406 15:58:09.641782 14188 net.cpp:96] Setting up norm2
I0406 15:58:09.641787 14188 net.cpp:103] Top shape: 32 256 13 13 (1384448)
I0406 15:58:09.641795 14188 net.cpp:67] Creating Layer conv3
I0406 15:58:09.641799 14188 net.cpp:394] conv3 <- norm2
I0406 15:58:09.641805 14188 net.cpp:356] conv3 -> conv3
I0406 15:58:09.641811 14188 net.cpp:96] Setting up conv3
I0406 15:58:09.671268 14188 net.cpp:103] Top shape: 32 384 13 13 (2076672)
I0406 15:58:09.671310 14188 net.cpp:67] Creating Layer relu3
I0406 15:58:09.671317 14188 net.cpp:394] relu3 <- conv3
I0406 15:58:09.671325 14188 net.cpp:345] relu3 -> conv3 (in-place)
I0406 15:58:09.671331 14188 net.cpp:96] Setting up relu3
I0406 15:58:09.671339 14188 net.cpp:103] Top shape: 32 384 13 13 (2076672)
I0406 15:58:09.671350 14188 net.cpp:67] Creating Layer conv4
I0406 15:58:09.671355 14188 net.cpp:394] conv4 <- conv3
I0406 15:58:09.671360 14188 net.cpp:356] conv4 -> conv4
I0406 15:58:09.671368 14188 net.cpp:96] Setting up conv4
I0406 15:58:09.692996 14188 net.cpp:103] Top shape: 32 384 13 13 (2076672)
I0406 15:58:09.693032 14188 net.cpp:67] Creating Layer relu4
I0406 15:58:09.693037 14188 net.cpp:394] relu4 <- conv4
I0406 15:58:09.693042 14188 net.cpp:345] relu4 -> conv4 (in-place)
I0406 15:58:09.693048 14188 net.cpp:96] Setting up relu4
I0406 15:58:09.693054 14188 net.cpp:103] Top shape: 32 384 13 13 (2076672)
I0406 15:58:09.693064 14188 net.cpp:67] Creating Layer conv5
I0406 15:58:09.693069 14188 net.cpp:394] conv5 <- conv4
I0406 15:58:09.693074 14188 net.cpp:356] conv5 -> conv5
I0406 15:58:09.693081 14188 net.cpp:96] Setting up conv5
I0406 15:58:09.707900 14188 net.cpp:103] Top shape: 32 256 13 13 (1384448)
I0406 15:58:09.707926 14188 net.cpp:67] Creating Layer relu5
I0406 15:58:09.707931 14188 net.cpp:394] relu5 <- conv5
I0406 15:58:09.707937 14188 net.cpp:345] relu5 -> conv5 (in-place)
I0406 15:58:09.707945 14188 net.cpp:96] Setting up relu5
I0406 15:58:09.707952 14188 net.cpp:103] Top shape: 32 256 13 13 (1384448)
I0406 15:58:09.707962 14188 net.cpp:67] Creating Layer pool5
I0406 15:58:09.707967 14188 net.cpp:394] pool5 <- conv5
I0406 15:58:09.707973 14188 net.cpp:356] pool5 -> pool5
I0406 15:58:09.707980 14188 net.cpp:96] Setting up pool5
I0406 15:58:09.707989 14188 net.cpp:103] Top shape: 32 256 6 6 (294912)
I0406 15:58:09.707999 14188 net.cpp:67] Creating Layer fc6
I0406 15:58:09.708004 14188 net.cpp:394] fc6 <- pool5
I0406 15:58:09.708010 14188 net.cpp:356] fc6 -> fc6
I0406 15:58:09.708017 14188 net.cpp:96] Setting up fc6
I0406 15:58:10.931129 14188 net.cpp:103] Top shape: 32 4096 1 1 (131072)
I0406 15:58:10.931185 14188 net.cpp:67] Creating Layer relu6
I0406 15:58:10.931192 14188 net.cpp:394] relu6 <- fc6
I0406 15:58:10.931201 14188 net.cpp:345] relu6 -> fc6 (in-place)
I0406 15:58:10.931210 14188 net.cpp:96] Setting up relu6
I0406 15:58:10.931231 14188 net.cpp:103] Top shape: 32 4096 1 1 (131072)
I0406 15:58:10.931241 14188 net.cpp:67] Creating Layer drop6
I0406 15:58:10.931246 14188 net.cpp:394] drop6 <- fc6
I0406 15:58:10.931252 14188 net.cpp:345] drop6 -> fc6 (in-place)
I0406 15:58:10.931257 14188 net.cpp:96] Setting up drop6
I0406 15:58:10.931262 14188 net.cpp:103] Top shape: 32 4096 1 1 (131072)
I0406 15:58:10.931270 14188 net.cpp:67] Creating Layer fc7
I0406 15:58:10.931274 14188 net.cpp:394] fc7 <- fc6
I0406 15:58:10.931282 14188 net.cpp:356] fc7 -> fc7
I0406 15:58:10.931289 14188 net.cpp:96] Setting up fc7
I0406 15:58:11.475232 14188 net.cpp:103] Top shape: 32 4096 1 1 (131072)
I0406 15:58:11.475288 14188 net.cpp:67] Creating Layer relu7
I0406 15:58:11.475332 14188 net.cpp:394] relu7 <- fc7
I0406 15:58:11.475342 14188 net.cpp:345] relu7 -> fc7 (in-place)
I0406 15:58:11.475350 14188 net.cpp:96] Setting up relu7
I0406 15:58:11.475373 14188 net.cpp:103] Top shape: 32 4096 1 1 (131072)
I0406 15:58:11.475388 14188 net.cpp:67] Creating Layer drop7
I0406 15:58:11.475392 14188 net.cpp:394] drop7 <- fc7
I0406 15:58:11.475397 14188 net.cpp:345] drop7 -> fc7 (in-place)
I0406 15:58:11.475404 14188 net.cpp:96] Setting up drop7
I0406 15:58:11.475409 14188 net.cpp:103] Top shape: 32 4096 1 1 (131072)
I0406 15:58:11.475419 14188 net.cpp:67] Creating Layer fc8_deepfashion
I0406 15:58:11.475422 14188 net.cpp:394] fc8_deepfashion <- fc7
I0406 15:58:11.475430 14188 net.cpp:356] fc8_deepfashion -> fc8_deepfashion
I0406 15:58:11.475437 14188 net.cpp:96] Setting up fc8_deepfashion
I0406 15:58:11.481959 14188 net.cpp:103] Top shape: 32 48 1 1 (1536)
I0406 15:58:11.481979 14188 net.cpp:67] Creating Layer fc8_deepfashion_encode
I0406 15:58:11.481984 14188 net.cpp:394] fc8_deepfashion_encode <- fc8_deepfashion
I0406 15:58:11.481991 14188 net.cpp:356] fc8_deepfashion_encode -> fc8_deepfashion_encode
I0406 15:58:11.481997 14188 net.cpp:96] Setting up fc8_deepfashion_encode
I0406 15:58:11.482005 14188 net.cpp:103] Top shape: 32 48 1 1 (1536)
I0406 15:58:11.482014 14188 net.cpp:67] Creating Layer fc8_deepfashion_encode_fc8_deepfashion_encode_0_split
I0406 15:58:11.482018 14188 net.cpp:394] fc8_deepfashion_encode_fc8_deepfashion_encode_0_split <- fc8_deepfashion_encode
I0406 15:58:11.482034 14188 net.cpp:356] fc8_deepfashion_encode_fc8_deepfashion_encode_0_split -> fc8_deepfashion_encode_fc8_deepfashion_encode_0_split_0
I0406 15:58:11.482044 14188 net.cpp:356] fc8_deepfashion_encode_fc8_deepfashion_encode_0_split -> fc8_deepfashion_encode_fc8_deepfashion_encode_0_split_1
I0406 15:58:11.482051 14188 net.cpp:96] Setting up fc8_deepfashion_encode_fc8_deepfashion_encode_0_split
I0406 15:58:11.482056 14188 net.cpp:103] Top shape: 32 48 1 1 (1536)
I0406 15:58:11.482060 14188 net.cpp:103] Top shape: 32 48 1 1 (1536)
I0406 15:58:11.482070 14188 net.cpp:67] Creating Layer fc8_pascal_label_mod
I0406 15:58:11.482074 14188 net.cpp:394] fc8_pascal_label_mod <- fc8_deepfashion_encode_fc8_deepfashion_encode_0_split_0
I0406 15:58:11.482080 14188 net.cpp:356] fc8_pascal_label_mod -> fc8_pascal_label_mod
I0406 15:58:11.482086 14188 net.cpp:96] Setting up fc8_pascal_label_mod
I0406 15:58:11.482112 14188 net.cpp:103] Top shape: 32 10 1 1 (320)
I0406 15:58:11.482136 14188 net.cpp:67] Creating Layer fc8_pascal_label_mod_fc8_pascal_label_mod_0_split
I0406 15:58:11.482142 14188 net.cpp:394] fc8_pascal_label_mod_fc8_pascal_label_mod_0_split <- fc8_pascal_label_mod
I0406 15:58:11.482147 14188 net.cpp:356] fc8_pascal_label_mod_fc8_pascal_label_mod_0_split -> fc8_pascal_label_mod_fc8_pascal_label_mod_0_split_0
I0406 15:58:11.482154 14188 net.cpp:356] fc8_pascal_label_mod_fc8_pascal_label_mod_0_split -> fc8_pascal_label_mod_fc8_pascal_label_mod_0_split_1
I0406 15:58:11.482161 14188 net.cpp:96] Setting up fc8_pascal_label_mod_fc8_pascal_label_mod_0_split
I0406 15:58:11.482164 14188 net.cpp:103] Top shape: 32 10 1 1 (320)
I0406 15:58:11.482168 14188 net.cpp:103] Top shape: 32 10 1 1 (320)
I0406 15:58:11.482177 14188 net.cpp:67] Creating Layer fc8_pascal_color_mod
I0406 15:58:11.482182 14188 net.cpp:394] fc8_pascal_color_mod <- fc8_deepfashion_encode_fc8_deepfashion_encode_0_split_1
I0406 15:58:11.482190 14188 net.cpp:356] fc8_pascal_color_mod -> fc8_pascal_color_mod
I0406 15:58:11.482197 14188 net.cpp:96] Setting up fc8_pascal_color_mod
I0406 15:58:11.482231 14188 net.cpp:103] Top shape: 32 16 1 1 (512)
I0406 15:58:11.482252 14188 net.cpp:67] Creating Layer fc8_pascal_color_mod_fc8_pascal_color_mod_0_split
I0406 15:58:11.482259 14188 net.cpp:394] fc8_pascal_color_mod_fc8_pascal_color_mod_0_split <- fc8_pascal_color_mod
I0406 15:58:11.482264 14188 net.cpp:356] fc8_pascal_color_mod_fc8_pascal_color_mod_0_split -> fc8_pascal_color_mod_fc8_pascal_color_mod_0_split_0
I0406 15:58:11.482270 14188 net.cpp:356] fc8_pascal_color_mod_fc8_pascal_color_mod_0_split -> fc8_pascal_color_mod_fc8_pascal_color_mod_0_split_1
I0406 15:58:11.482302 14188 net.cpp:96] Setting up fc8_pascal_color_mod_fc8_pascal_color_mod_0_split
I0406 15:58:11.482308 14188 net.cpp:103] Top shape: 32 16 1 1 (512)
I0406 15:58:11.482312 14188 net.cpp:103] Top shape: 32 16 1 1 (512)
I0406 15:58:11.482319 14188 net.cpp:67] Creating Layer loss
I0406 15:58:11.482323 14188 net.cpp:394] loss <- fc8_pascal_label_mod_fc8_pascal_label_mod_0_split_0
I0406 15:58:11.482331 14188 net.cpp:394] loss <- labels0_sliceL_0_split_0
I0406 15:58:11.482336 14188 net.cpp:356] loss -> (automatic)
I0406 15:58:11.482342 14188 net.cpp:96] Setting up loss
I0406 15:58:11.482349 14188 net.cpp:103] Top shape: 1 1 1 1 (1)
I0406 15:58:11.482353 14188 net.cpp:109]     with loss weight 1
I0406 15:58:11.482380 14188 net.cpp:67] Creating Layer loss
I0406 15:58:11.482385 14188 net.cpp:394] loss <- fc8_pascal_color_mod_fc8_pascal_color_mod_0_split_0
I0406 15:58:11.482390 14188 net.cpp:394] loss <- labels1_sliceL_1_split_0
I0406 15:58:11.482396 14188 net.cpp:356] loss -> (automatic)
I0406 15:58:11.482406 14188 net.cpp:96] Setting up loss
I0406 15:58:11.482412 14188 net.cpp:103] Top shape: 1 1 1 1 (1)
I0406 15:58:11.482416 14188 net.cpp:109]     with loss weight 1
I0406 15:58:11.482425 14188 net.cpp:67] Creating Layer accuracy
I0406 15:58:11.482429 14188 net.cpp:394] accuracy <- fc8_pascal_color_mod_fc8_pascal_color_mod_0_split_1
I0406 15:58:11.482434 14188 net.cpp:394] accuracy <- labels1_sliceL_1_split_1
I0406 15:58:11.482441 14188 net.cpp:356] accuracy -> colorAccuracy
I0406 15:58:11.482448 14188 net.cpp:96] Setting up accuracy
I0406 15:58:11.482456 14188 net.cpp:103] Top shape: 1 1 1 1 (1)
I0406 15:58:11.482463 14188 net.cpp:67] Creating Layer accuracy1
I0406 15:58:11.482467 14188 net.cpp:394] accuracy1 <- fc8_pascal_label_mod_fc8_pascal_label_mod_0_split_1
I0406 15:58:11.482472 14188 net.cpp:394] accuracy1 <- labels0_sliceL_0_split_1
I0406 15:58:11.482477 14188 net.cpp:356] accuracy1 -> labelAccuracy
I0406 15:58:11.482482 14188 net.cpp:96] Setting up accuracy1
I0406 15:58:11.482486 14188 net.cpp:103] Top shape: 1 1 1 1 (1)
I0406 15:58:11.482492 14188 net.cpp:67] Creating Layer silence
I0406 15:58:11.482496 14188 net.cpp:394] silence <- random
I0406 15:58:11.482501 14188 net.cpp:96] Setting up silence
I0406 15:58:11.482504 14188 net.cpp:172] silence does not need backward computation.
I0406 15:58:11.482508 14188 net.cpp:172] accuracy1 does not need backward computation.
I0406 15:58:11.482511 14188 net.cpp:172] accuracy does not need backward computation.
…
