…
  top: "data"
  top: "random"
  name: "data"
  type: DATA
  data_param {
    source: "/data/deepfashion/color_label_multilabel/color_label_multilabel_TRAIN"
    batch_size: 32
    backend: LMDB
  }
  include {
    phase: TRAIN
  }
  transform_param {
    mirror: true
    crop_size: 227
    mean_file: "../../../data/ilsvrc12/imagenet_mean.binaryproto"
  }
}
layers {
  top: "labels"
  name: "labels"
  type: DATA
  data_param {
    source: "/data/deepfashion/color_label_multilabel/color_label_multilabel_TRAIN_ALT"
    batch_size: 32
    backend: LMDB
  }
  include {
    phase: TRAIN
  }
}
layers {
  bottom: "labels"
  top: "labels0"
  top: "labels1"
  name: "sliceL"
  type: SLICE
  slice_param {
    slice_point: 1
  }
}
layers {
  bottom: "data"
  top: "conv1"
  name: "conv1"
  type: CONVOLUTION
  blobs_lr: 0
  blobs_lr: 0
  weight_decay: 1
  weight_decay: 0
  convolution_param {
    num_output: 96
    kernel_size: 11
    stride: 4
    weight_filler {
      type: "gaussian"
      std: 0.01
    }
    bias_filler {
      type: "constant"
      value: 0
    }
  }
}
layers {
  bottom: "conv1"
  top: "conv1"
  name: "relu1"
  type: RELU
}
layers {
  bottom: "conv1"
  top: "pool1"
  name: "pool1"
  type: POOLING
  pooling_param {
    pool: MAX
    kernel_size: 3
    stride: 2
  }
}
layers {
  bottom: "pool1"
  top: "norm1"
  name: "norm1"
  type: LRN
  lrn_param {
    local_size: 5
    alpha: 0.0001
    beta: 0.75
  }
}
layers {
  bottom: "norm1"
  top: "conv2"
  name: "conv2"
  type: CONVOLUTION
  blobs_lr: 0
  blobs_lr: 0
  weight_decay: 1
  weight_decay: 0
  convolution_param {
    num_output: 256
    pad: 2
    kernel_size: 5
    group: 2
    weight_filler {
      type: "gaussian"
      std: 0.01
    }
    bias_filler {
      type: "constant"
      value: 1
    }
  }
}
layers {
  bottom: "conv2"
  top: "conv2"
  name: "relu2"
  type: RELU
}
layers {
  bottom: "conv2"
  top: "pool2"
  name: "pool2"
  type: POOLING
  pooling_param {
    pool: MAX
    kernel_size: 3
    stride: 2
  }
}
layers {
  bottom: "pool2"
  top: "norm2"
  name: "norm2"
  type: LRN
  lrn_param {
    local_size: 5
    alpha: 0.0001
    beta: 0.75
  }
}
layers {
  bottom: "norm2"
  top: "conv3"
  name: "conv3"
  type: CONVOLUTION
  blobs_lr: 1
  blobs_lr: 2
  weight_decay: 1
  weight_decay: 0
  convolution_param {
    num_output: 384
    pad: 1
    kernel_size: 3
    weight_filler {
      type: "gaussian"
      std: 0.01
    }
    bias_filler {
      type: "constant"
      value: 0
    }
  }
}
layers {
  bottom: "conv3"
  top: "conv3"
  name: "relu3"
  type: RELU
}
layers {
  bottom: "conv3"
  top: "conv4"
  name: "conv4"
  type: CONVOLUTION
  blobs_lr: 1
  blobs_lr: 2
  weight_decay: 1
  weight_decay: 0
  convolution_param {
    num_output: 384
    pad: 1
    kernel_size: 3
    group: 2
    weight_filler {
      type: "gaussian"
      std: 0.01
    }
    bias_filler {
      type: "constant"
      value: 1
    }
  }
}
layers {
  bottom: "conv4"
  top: "conv4"
  name: "relu4"
  type: RELU
}
layers {
  bottom: "conv4"
  top: "conv5"
  name: "conv5"
  type: CONVOLUTION
  blobs_lr: 1
  blobs_lr: 2
  weight_decay: 1
  weight_decay: 0
  convolution_param {
    num_output: 256
    pad: 1
    kernel_size: 3
    group: 2
    weight_filler {
      type: "gaussian"
      std: 0.01
    }
    bias_filler {
      type: "constant"
      value: 1
    }
  }
}
layers {
  bottom: "conv5"
  top: "conv5"
  name: "relu5"
  type: RELU
}
layers {
  bottom: "conv5"
  top: "pool5"
  name: "pool5"
  type: POOLING
  pooling_param {
    pool: MAX
    kernel_size: 3
    stride: 2
  }
}
layers {
  bottom: "pool5"
  top: "fc6"
  name: "fc6"
  type: INNER_PRODUCT
  blobs_lr: 1
  blobs_lr: 2
  weight_decay: 1
  weight_decay: 0
  inner_product_param {
    num_output: 4096
    weight_filler {
      type: "gaussian"
      std: 0.005
    }
    bias_filler {
      type: "constant"
      value: 1
    }
  }
}
layers {
  bottom: "fc6"
  top: "fc6"
  name: "relu6"
  type: RELU
}
layers {
  bottom: "fc6"
  top: "fc6"
  name: "drop6"
  type: DROPOUT
  dropout_param {
    dropout_ratio: 0.5
  }
}
layers {
  bottom: "fc6"
  top: "fc7"
  name: "fc7"
  type: INNER_PRODUCT
  blobs_lr: 1
  blobs_lr: 2
  weight_decay: 1
  weight_decay: 0
  inner_product_param {
    num_output: 4096
    weight_filler {
      type: "gaussian"
      std: 0.005
    }
    bias_filler {
      type: "constant"
      value: 1
    }
  }
}
layers {
  bottom: "fc7"
  top: "fc7"
  name: "relu7"
  type: RELU
}
layers {
  bottom: "fc7"
  top: "fc7"
  name: "drop7"
  type: DROPOUT
  dropout_param {
    dropout_ratio: 0.5
  }
}
layers {
  bottom: "fc7"
  top: "fc8_deepfashion"
  name: "fc8_deepfashion"
  type: INNER_PRODUCT
  blobs_lr: 1
  blobs_lr: 2
  weight_decay: 1
  weight_decay: 0
  inner_product_param {
    num_output: 48
    weight_filler {
      type: "gaussian"
      std: 0.01
    }
    bias_filler {
      type: "constant"
      value: 0
    }
  }
}
layers {
  bottom: "fc8_deepfashion"
  top: "fc8_deepfashion_encode"
  name: "fc8_deepfashion_encode"
  type: SIGMOID
}
layers {
  bottom: "fc8_deepfashion_encode"
  top: "fc8_pascal_label_mod"
  name: "fc8_pascal_label_mod"
  type: INNER_PRODUCT
  blobs_lr: 1
  blobs_lr: 2
  weight_decay: 1
  weight_decay: 0
  inner_product_param {
    num_output: 10
    weight_filler {
      type: "gaussian"
      std: 0.01
    }
    bias_filler {
      type: "constant"
      value: 0
    }
  }
}
layers {
  bottom: "fc8_deepfashion_encode"
  top: "fc8_pascal_color_mod"
  name: "fc8_pascal_color_mod"
  type: INNER_PRODUCT
  blobs_lr: 1
  blobs_lr: 2
  weight_decay: 1
  weight_decay: 0
  inner_product_param {
    num_output: 16
    weight_filler {
      type: "gaussian"
      std: 0.01
    }
    bias_filler {
      type: "constant"
      value: 0
    }
  }
}
layers {
  bottom: "fc8_pascal_label_mod"
  bottom: "labels0"
  name: "loss"
  type: SOFTMAX_LOSS
}
layers {
  bottom: "fc8_pascal_color_mod"
  bottom: "labels1"
  name: "loss"
  type: SOFTMAX_LOSS
}
layers {
  bottom: "random"
  name: "silence"
  type: SILENCE
}
state {
  phase: TRAIN
}
I0406 15:44:03.105595  6733 net.cpp:67] Creating Layer data
I0406 15:44:03.105624  6733 net.cpp:356] data -> data
I0406 15:44:03.105646  6733 net.cpp:356] data -> random
I0406 15:44:03.105661  6733 net.cpp:96] Setting up data
I0406 15:44:03.105787  6733 data_layer.cpp:68] Opening lmdb /data/deepfashion/color_label_multilabel/color_label_multilabel_TRAIN
I0406 15:44:03.106011  6733 data_layer.cpp:128] output data size: 32,3,227,227
I0406 15:44:03.106020  6733 base_data_layer.cpp:36] Loading mean file from../../../data/ilsvrc12/imagenet_mean.binaryproto
I0406 15:44:03.118497  6733 net.cpp:103] Top shape: 32 3 227 227 (4946784)
I0406 15:44:03.118536  6733 net.cpp:103] Top shape: 32 1 1 1 (32)
I0406 15:44:03.118554  6733 net.cpp:67] Creating Layer labels
I0406 15:44:03.118562  6733 net.cpp:356] labels -> labels
I0406 15:44:03.118576  6733 net.cpp:96] Setting up labels
I0406 15:44:03.118693  6733 data_layer.cpp:68] Opening lmdb /data/deepfashion/color_label_multilabel/color_label_multilabel_TRAIN_ALT
I0406 15:44:03.118739  6733 data_layer.cpp:128] output data size: 32,2,1,1
I0406 15:44:03.118774  6733 net.cpp:103] Top shape: 32 2 1 1 (64)
I0406 15:44:03.118788  6733 net.cpp:67] Creating Layer sliceL
I0406 15:44:03.118795  6733 net.cpp:394] sliceL <- labels
I0406 15:44:03.118805  6733 net.cpp:356] sliceL -> labels0
I0406 15:44:03.118814  6733 net.cpp:356] sliceL -> labels1
I0406 15:44:03.118824  6733 net.cpp:96] Setting up sliceL
I0406 15:44:03.118832  6733 net.cpp:103] Top shape: 32 1 1 1 (32)
I0406 15:44:03.118837  6733 net.cpp:103] Top shape: 32 1 1 1 (32)
I0406 15:44:03.118846  6733 net.cpp:67] Creating Layer conv1
I0406 15:44:03.118850  6733 net.cpp:394] conv1 <- data
I0406 15:44:03.118860  6733 net.cpp:356] conv1 -> conv1
I0406 15:44:03.118868  6733 net.cpp:96] Setting up conv1
I0406 15:44:03.141643  6733 net.cpp:103] Top shape: 32 96 55 55 (9292800)
I0406 15:44:03.141701  6733 net.cpp:67] Creating Layer relu1
I0406 15:44:03.141710  6733 net.cpp:394] relu1 <- conv1
I0406 15:44:03.141717  6733 net.cpp:345] relu1 -> conv1 (in-place)
I0406 15:44:03.141727  6733 net.cpp:96] Setting up relu1
I0406 15:44:03.141738  6733 net.cpp:103] Top shape: 32 96 55 55 (9292800)
I0406 15:44:03.141746  6733 net.cpp:67] Creating Layer pool1
I0406 15:44:03.141751  6733 net.cpp:394] pool1 <- conv1
I0406 15:44:03.141757  6733 net.cpp:356] pool1 -> pool1
I0406 15:44:03.141764  6733 net.cpp:96] Setting up pool1
I0406 15:44:03.141788  6733 net.cpp:103] Top shape: 32 96 27 27 (2239488)
I0406 15:44:03.141804  6733 net.cpp:67] Creating Layer norm1
I0406 15:44:03.141809  6733 net.cpp:394] norm1 <- pool1
I0406 15:44:03.141815  6733 net.cpp:356] norm1 -> norm1
I0406 15:44:03.141821  6733 net.cpp:96] Setting up norm1
I0406 15:44:03.141830  6733 net.cpp:103] Top shape: 32 96 27 27 (2239488)
I0406 15:44:03.141840  6733 net.cpp:67] Creating Layer conv2
I0406 15:44:03.141855  6733 net.cpp:394] conv2 <- norm1
I0406 15:44:03.141860  6733 net.cpp:356] conv2 -> conv2
I0406 15:44:03.141868  6733 net.cpp:96] Setting up conv2
I0406 15:44:03.152236  6733 net.cpp:103] Top shape: 32 256 27 27 (5971968)
I0406 15:44:03.152262  6733 net.cpp:67] Creating Layer relu2
I0406 15:44:03.152268  6733 net.cpp:394] relu2 <- conv2
I0406 15:44:03.152277  6733 net.cpp:345] relu2 -> conv2 (in-place)
I0406 15:44:03.152283  6733 net.cpp:96] Setting up relu2
I0406 15:44:03.152290  6733 net.cpp:103] Top shape: 32 256 27 27 (5971968)
I0406 15:44:03.152297  6733 net.cpp:67] Creating Layer pool2
I0406 15:44:03.152302  6733 net.cpp:394] pool2 <- conv2
I0406 15:44:03.152307  6733 net.cpp:356] pool2 -> pool2
I0406 15:44:03.152312  6733 net.cpp:96] Setting up pool2
I0406 15:44:03.152323  6733 net.cpp:103] Top shape: 32 256 13 13 (1384448)
I0406 15:44:03.152328  6733 net.cpp:67] Creating Layer norm2
I0406 15:44:03.152333  6733 net.cpp:394] norm2 <- pool2
I0406 15:44:03.152338  6733 net.cpp:356] norm2 -> norm2
I0406 15:44:03.152343  6733 net.cpp:96] Setting up norm2
I0406 15:44:03.152348  6733 net.cpp:103] Top shape: 32 256 13 13 (1384448)
I0406 15:44:03.152356  6733 net.cpp:67] Creating Layer conv3
I0406 15:44:03.152360  6733 net.cpp:394] conv3 <- norm2
I0406 15:44:03.152366  6733 net.cpp:356] conv3 -> conv3
I0406 15:44:03.152372  6733 net.cpp:96] Setting up conv3
I0406 15:44:03.181643  6733 net.cpp:103] Top shape: 32 384 13 13 (2076672)
I0406 15:44:03.181669  6733 net.cpp:67] Creating Layer relu3
I0406 15:44:03.181674  6733 net.cpp:394] relu3 <- conv3
I0406 15:44:03.181680  6733 net.cpp:345] relu3 -> conv3 (in-place)
I0406 15:44:03.181686  6733 net.cpp:96] Setting up relu3
I0406 15:44:03.181694  6733 net.cpp:103] Top shape: 32 384 13 13 (2076672)
I0406 15:44:03.181704  6733 net.cpp:67] Creating Layer conv4
I0406 15:44:03.181707  6733 net.cpp:394] conv4 <- conv3
I0406 15:44:03.181715  6733 net.cpp:356] conv4 -> conv4
I0406 15:44:03.181722  6733 net.cpp:96] Setting up conv4
I0406 15:44:03.203845  6733 net.cpp:103] Top shape: 32 384 13 13 (2076672)
I0406 15:44:03.203871  6733 net.cpp:67] Creating Layer relu4
I0406 15:44:03.203876  6733 net.cpp:394] relu4 <- conv4
I0406 15:44:03.203918  6733 net.cpp:345] relu4 -> conv4 (in-place)
I0406 15:44:03.203927  6733 net.cpp:96] Setting up relu4
I0406 15:44:03.203933  6733 net.cpp:103] Top shape: 32 384 13 13 (2076672)
I0406 15:44:03.203941  6733 net.cpp:67] Creating Layer conv5
I0406 15:44:03.203954  6733 net.cpp:394] conv5 <- conv4
I0406 15:44:03.203964  6733 net.cpp:356] conv5 -> conv5
I0406 15:44:03.203971  6733 net.cpp:96] Setting up conv5
I0406 15:44:03.218729  6733 net.cpp:103] Top shape: 32 256 13 13 (1384448)
I0406 15:44:03.218757  6733 net.cpp:67] Creating Layer relu5
I0406 15:44:03.218766  6733 net.cpp:394] relu5 <- conv5
I0406 15:44:03.218772  6733 net.cpp:345] relu5 -> conv5 (in-place)
I0406 15:44:03.218778  6733 net.cpp:96] Setting up relu5
I0406 15:44:03.218786  6733 net.cpp:103] Top shape: 32 256 13 13 (1384448)
I0406 15:44:03.218791  6733 net.cpp:67] Creating Layer pool5
I0406 15:44:03.218796  6733 net.cpp:394] pool5 <- conv5
I0406 15:44:03.218801  6733 net.cpp:356] pool5 -> pool5
I0406 15:44:03.218807  6733 net.cpp:96] Setting up pool5
I0406 15:44:03.218816  6733 net.cpp:103] Top shape: 32 256 6 6 (294912)
I0406 15:44:03.218825  6733 net.cpp:67] Creating Layer fc6
I0406 15:44:03.218829  6733 net.cpp:394] fc6 <- pool5
I0406 15:44:03.218835  6733 net.cpp:356] fc6 -> fc6
I0406 15:44:03.218842  6733 net.cpp:96] Setting up fc6
I0406 15:44:04.445804  6733 net.cpp:103] Top shape: 32 4096 1 1 (131072)
I0406 15:44:04.445861  6733 net.cpp:67] Creating Layer relu6
I0406 15:44:04.445869  6733 net.cpp:394] relu6 <- fc6
I0406 15:44:04.445878  6733 net.cpp:345] relu6 -> fc6 (in-place)
I0406 15:44:04.445888  6733 net.cpp:96] Setting up relu6
I0406 15:44:04.445909  6733 net.cpp:103] Top shape: 32 4096 1 1 (131072)
I0406 15:44:04.445919  6733 net.cpp:67] Creating Layer drop6
I0406 15:44:04.445924  6733 net.cpp:394] drop6 <- fc6
I0406 15:44:04.445930  6733 net.cpp:345] drop6 -> fc6 (in-place)
I0406 15:44:04.445935  6733 net.cpp:96] Setting up drop6
I0406 15:44:04.445945  6733 net.cpp:103] Top shape: 32 4096 1 1 (131072)
I0406 15:44:04.445953  6733 net.cpp:67] Creating Layer fc7
I0406 15:44:04.445965  6733 net.cpp:394] fc7 <- fc6
I0406 15:44:04.445971  6733 net.cpp:356] fc7 -> fc7
I0406 15:44:04.445981  6733 net.cpp:96] Setting up fc7
I0406 15:44:04.990933  6733 net.cpp:103] Top shape: 32 4096 1 1 (131072)
I0406 15:44:04.990994  6733 net.cpp:67] Creating Layer relu7
I0406 15:44:04.991003  6733 net.cpp:394] relu7 <- fc7
I0406 15:44:04.991010  6733 net.cpp:345] relu7 -> fc7 (in-place)
I0406 15:44:04.991019  6733 net.cpp:96] Setting up relu7
I0406 15:44:04.991041  6733 net.cpp:103] Top shape: 32 4096 1 1 (131072)
I0406 15:44:04.991049  6733 net.cpp:67] Creating Layer drop7
I0406 15:44:04.991055  6733 net.cpp:394] drop7 <- fc7
I0406 15:44:04.991060  6733 net.cpp:345] drop7 -> fc7 (in-place)
I0406 15:44:04.991066  6733 net.cpp:96] Setting up drop7
I0406 15:44:04.991071  6733 net.cpp:103] Top shape: 32 4096 1 1 (131072)
I0406 15:44:04.991080  6733 net.cpp:67] Creating Layer fc8_deepfashion
I0406 15:44:04.991082  6733 net.cpp:394] fc8_deepfashion <- fc7
I0406 15:44:04.991091  6733 net.cpp:356] fc8_deepfashion -> fc8_deepfashion
I0406 15:44:04.991099  6733 net.cpp:96] Setting up fc8_deepfashion
I0406 15:44:04.997599  6733 net.cpp:103] Top shape: 32 48 1 1 (1536)
I0406 15:44:04.997619  6733 net.cpp:67] Creating Layer fc8_deepfashion_encode
I0406 15:44:04.997624  6733 net.cpp:394] fc8_deepfashion_encode <- fc8_deepfashion
I0406 15:44:04.997632  6733 net.cpp:356] fc8_deepfashion_encode -> fc8_deepfashion_encode
I0406 15:44:04.997639  6733 net.cpp:96] Setting up fc8_deepfashion_encode
I0406 15:44:04.997651  6733 net.cpp:103] Top shape: 32 48 1 1 (1536)
I0406 15:44:04.997658  6733 net.cpp:67] Creating Layer fc8_deepfashion_encode_fc8_deepfashion_encode_0_split
I0406 15:44:04.997663  6733 net.cpp:394] fc8_deepfashion_encode_fc8_deepfashion_encode_0_split <- fc8_deepfashion_encode
I0406 15:44:04.997668  6733 net.cpp:356] fc8_deepfashion_encode_fc8_deepfashion_encode_0_split -> fc8_deepfashion_encode_fc8_deepfashion_encode_0_split_0
I0406 15:44:04.997705  6733 net.cpp:356] fc8_deepfashion_encode_fc8_deepfashion_encode_0_split -> fc8_deepfashion_encode_fc8_deepfashion_encode_0_split_1
I0406 15:44:04.997712  6733 net.cpp:96] Setting up fc8_deepfashion_encode_fc8_deepfashion_encode_0_split
I0406 15:44:04.997720  6733 net.cpp:103] Top shape: 32 48 1 1 (1536)
I0406 15:44:04.997725  6733 net.cpp:103] Top shape: 32 48 1 1 (1536)
I0406 15:44:04.997735  6733 net.cpp:67] Creating Layer fc8_pascal_label_mod
I0406 15:44:04.997738  6733 net.cpp:394] fc8_pascal_label_mod <- fc8_deepfashion_encode_fc8_deepfashion_encode_0_split_0
I0406 15:44:04.997746  6733 net.cpp:356] fc8_pascal_label_mod -> fc8_pascal_label_mod
I0406 15:44:04.997753  6733 net.cpp:96] Setting up fc8_pascal_label_mod
I0406 15:44:04.997778  6733 net.cpp:103] Top shape: 32 10 1 1 (320)
I0406 15:44:04.997802  6733 net.cpp:67] Creating Layer fc8_pascal_color_mod
I0406 15:44:04.997807  6733 net.cpp:394] fc8_pascal_color_mod <- fc8_deepfashion_encode_fc8_deepfashion_encode_0_split_1
I0406 15:44:04.997812  6733 net.cpp:356] fc8_pascal_color_mod -> fc8_pascal_color_mod
I0406 15:44:04.997819  6733 net.cpp:96] Setting up fc8_pascal_color_mod
I0406 15:44:04.997853  6733 net.cpp:103] Top shape: 32 16 1 1 (512)
I0406 15:44:04.997872  6733 net.cpp:67] Creating Layer loss
I0406 15:44:04.997877  6733 net.cpp:394] loss <- fc8_pascal_label_mod
I0406 15:44:04.997887  6733 net.cpp:394] loss <- labels0
I0406 15:44:04.997894  6733 net.cpp:356] loss -> (automatic)
I0406 15:44:04.997898  6733 net.cpp:96] Setting up loss
I0406 15:44:04.997910  6733 net.cpp:103] Top shape: 1 1 1 1 (1)
I0406 15:44:04.997915  6733 net.cpp:109]     with loss weight 1
I0406 15:44:04.997969  6733 net.cpp:67] Creating Layer loss
I0406 15:44:04.997975  6733 net.cpp:394] loss <- fc8_pascal_color_mod
I0406 15:44:04.997980  6733 net.cpp:394] loss <- labels1
I0406 15:44:04.997985  6733 net.cpp:356] loss -> (automatic)
I0406 15:44:04.997990  6733 net.cpp:96] Setting up loss
I0406 15:44:04.997997  6733 net.cpp:103] Top shape: 1 1 1 1 (1)
I0406 15:44:04.997999  6733 net.cpp:109]     with loss weight 1
I0406 15:44:04.998008  6733 net.cpp:67] Creating Layer silence
I0406 15:44:04.998013  6733 net.cpp:394] silence <- random
I0406 15:44:04.998018  6733 net.cpp:96] Setting up silence
I0406 15:44:04.998031  6733 net.cpp:172] silence does not need backward computation.
I0406 15:44:04.998039  6733 net.cpp:170] loss needs backward computation.
…
layers {
  top: "data"
  top: "random"
  name: "data"
  type: DATA
  data_param {
    source: "/data/deepfashion/color_label_multilabel/color_label_multilabel_test"
    batch_size: 32
    backend: LMDB
  }
  include {
    phase: TEST
  }
  transform_param {
    mirror: true
    crop_size: 227
    mean_file: "../../../data/ilsvrc12/imagenet_mean.binaryproto"
  }
}
layers {
  top: "labels"
  name: "labels"
  type: DATA
  data_param {
    source: "/data/deepfashion/color_label_multilabel/color_label_multilabel_test_alt"
    batch_size: 32
    backend: LMDB
  }
  include {
    phase: TEST
  }
}
layers {
  bottom: "labels"
  top: "labels0"
  top: "labels1"
  name: "sliceL"
  type: SLICE
  slice_param {
    slice_point: 1
  }
}
layers {
  bottom: "data"
  top: "conv1"
  name: "conv1"
  type: CONVOLUTION
  blobs_lr: 0
  blobs_lr: 0
  weight_decay: 1
  weight_decay: 0
  convolution_param {
    num_output: 96
    kernel_size: 11
    stride: 4
    weight_filler {
      type: "gaussian"
      std: 0.01
    }
    bias_filler {
      type: "constant"
      value: 0
    }
  }
}
layers {
  bottom: "conv1"
  top: "conv1"
  name: "relu1"
  type: RELU
}
layers {
  bottom: "conv1"
  top: "pool1"
  name: "pool1"
  type: POOLING
  pooling_param {
    pool: MAX
    kernel_size: 3
    stride: 2
  }
}
layers {
  bottom: "pool1"
  top: "norm1"
  name: "norm1"
  type: LRN
  lrn_param {
    local_size: 5
    alpha: 0.0001
    beta: 0.75
  }
}
layers {
  bottom: "norm1"
  top: "conv2"
  name: "conv2"
  type: CONVOLUTION
  blobs_lr: 0
  blobs_lr: 0
  weight_decay: 1
  weight_decay: 0
  convolution_param {
    num_output: 256
    pad: 2
    kernel_size: 5
    group: 2
    weight_filler {
      type: "gaussian"
      std: 0.01
    }
    bias_filler {
      type: "constant"
      value: 1
    }
  }
}
layers {
  bottom: "conv2"
  top: "conv2"
  name: "relu2"
  type: RELU
}
layers {
  bottom: "conv2"
  top: "pool2"
  name: "pool2"
  type: POOLING
  pooling_param {
    pool: MAX
    kernel_size: 3
    stride: 2
  }
}
layers {
  bottom: "pool2"
  top: "norm2"
  name: "norm2"
  type: LRN
  lrn_param {
    local_size: 5
    alpha: 0.0001
    beta: 0.75
  }
}
layers {
  bottom: "norm2"
  top: "conv3"
  name: "conv3"
  type: CONVOLUTION
  blobs_lr: 1
  blobs_lr: 2
  weight_decay: 1
  weight_decay: 0
  convolution_param {
    num_output: 384
    pad: 1
    kernel_size: 3
    weight_filler {
      type: "gaussian"
      std: 0.01
    }
    bias_filler {
      type: "constant"
      value: 0
    }
  }
}
layers {
  bottom: "conv3"
  top: "conv3"
  name: "relu3"
  type: RELU
}
layers {
  bottom: "conv3"
  top: "conv4"
  name: "conv4"
  type: CONVOLUTION
  blobs_lr: 1
  blobs_lr: 2
  weight_decay: 1
  weight_decay: 0
  convolution_param {
    num_output: 384
    pad: 1
    kernel_size: 3
    group: 2
    weight_filler {
      type: "gaussian"
      std: 0.01
    }
    bias_filler {
      type: "constant"
      value: 1
    }
  }
}
layers {
  bottom: "conv4"
  top: "conv4"
  name: "relu4"
  type: RELU
}
layers {
  bottom: "conv4"
  top: "conv5"
  name: "conv5"
  type: CONVOLUTION
  blobs_lr: 1
  blobs_lr: 2
  weight_decay: 1
  weight_decay: 0
  convolution_param {
    num_output: 256
    pad: 1
    kernel_size: 3
    group: 2
    weight_filler {
      type: "gaussian"
      std: 0.01
    }
    bias_filler {
      type: "constant"
      value: 1
    }
  }
}
layers {
  bottom: "conv5"
  top: "conv5"
  name: "relu5"
  type: RELU
}
layers {
  bottom: "conv5"
  top: "pool5"
  name: "pool5"
  type: POOLING
  pooling_param {
    pool: MAX
    kernel_size: 3
    stride: 2
  }
}
layers {
  bottom: "pool5"
  top: "fc6"
  name: "fc6"
  type: INNER_PRODUCT
  blobs_lr: 1
  blobs_lr: 2
  weight_decay: 1
  weight_decay: 0
  inner_product_param {
    num_output: 4096
    weight_filler {
      type: "gaussian"
      std: 0.005
    }
    bias_filler {
      type: "constant"
      value: 1
    }
  }
}
layers {
  bottom: "fc6"
  top: "fc6"
  name: "relu6"
  type: RELU
}
layers {
  bottom: "fc6"
  top: "fc6"
  name: "drop6"
  type: DROPOUT
  dropout_param {
    dropout_ratio: 0.5
  }
}
layers {
  bottom: "fc6"
  top: "fc7"
  name: "fc7"
  type: INNER_PRODUCT
  blobs_lr: 1
  blobs_lr: 2
  weight_decay: 1
  weight_decay: 0
  inner_product_param {
    num_output: 4096
    weight_filler {
      type: "gaussian"
      std: 0.005
    }
    bias_filler {
      type: "constant"
      value: 1
    }
  }
}
layers {
  bottom: "fc7"
  top: "fc7"
  name: "relu7"
  type: RELU
}
layers {
  bottom: "fc7"
  top: "fc7"
  name: "drop7"
  type: DROPOUT
  dropout_param {
    dropout_ratio: 0.5
  }
}
layers {
  bottom: "fc7"
  top: "fc8_deepfashion"
  name: "fc8_deepfashion"
  type: INNER_PRODUCT
  blobs_lr: 1
  blobs_lr: 2
  weight_decay: 1
  weight_decay: 0
  inner_product_param {
    num_output: 48
    weight_filler {
      type: "gaussian"
      std: 0.01
    }
    bias_filler {
      type: "constant"
      value: 0
    }
  }
}
layers {
  bottom: "fc8_deepfashion"
  top: "fc8_deepfashion_encode"
  name: "fc8_deepfashion_encode"
  type: SIGMOID
}
layers {
  bottom: "fc8_deepfashion_encode"
  top: "fc8_pascal_label_mod"
  name: "fc8_pascal_label_mod"
  type: INNER_PRODUCT
  blobs_lr: 1
  blobs_lr: 2
  weight_decay: 1
  weight_decay: 0
  inner_product_param {
    num_output: 10
    weight_filler {
      type: "gaussian"
      std: 0.01
    }
    bias_filler {
      type: "constant"
      value: 0
    }
  }
}
layers {
  bottom: "fc8_deepfashion_encode"
  top: "fc8_pascal_color_mod"
  name: "fc8_pascal_color_mod"
  type: INNER_PRODUCT
  blobs_lr: 1
  blobs_lr: 2
  weight_decay: 1
  weight_decay: 0
  inner_product_param {
    num_output: 16
    weight_filler {
      type: "gaussian"
      std: 0.01
    }
    bias_filler {
      type: "constant"
      value: 0
    }
  }
}
layers {
  bottom: "fc8_pascal_label_mod"
  bottom: "labels0"
  name: "loss"
  type: SOFTMAX_LOSS
}
layers {
  bottom: "fc8_pascal_color_mod"
  bottom: "labels1"
  name: "loss"
  type: SOFTMAX_LOSS
}
layers {
  bottom: "fc8_pascal_color_mod"
  bottom: "labels1"
  top: "colorAccuracy"
  name: "accuracy"
  type: ACCURACY
  include {
    phase: TEST
  }
}
layers {
  bottom: "fc8_pascal_label_mod"
  bottom: "labels0"
  top: "labelAccuracy"
  name: "accuracy1"
  type: ACCURACY
  include {
    phase: TEST
  }
}
layers {
  bottom: "random"
  name: "silence"
  type: SILENCE
}
state {
  phase: TEST
}
I0406 15:44:04.999379  6733 net.cpp:67] Creating Layer data
I0406 15:44:04.999387  6733 net.cpp:356] data -> data
I0406 15:44:04.999397  6733 net.cpp:356] data -> random
I0406 15:44:04.999403  6733 net.cpp:96] Setting up data
I0406 15:44:04.999459  6733 data_layer.cpp:68] Opening lmdb /data/deepfashion/color_label_multilabel/color_label_multilabel_test
I0406 15:44:04.999639  6733 data_layer.cpp:128] output data size: 32,3,227,227
I0406 15:44:04.999646  6733 base_data_layer.cpp:36] Loading mean file from../../../data/ilsvrc12/imagenet_mean.binaryproto
I0406 15:44:05.006567  6733 net.cpp:103] Top shape: 32 3 227 227 (4946784)
I0406 15:44:05.006602  6733 net.cpp:103] Top shape: 32 1 1 1 (32)
I0406 15:44:05.006618  6733 net.cpp:67] Creating Layer labels
I0406 15:44:05.006626  6733 net.cpp:356] labels -> labels
I0406 15:44:05.006639  6733 net.cpp:96] Setting up labels
I0406 15:44:05.006703  6733 data_layer.cpp:68] Opening lmdb /data/deepfashion/color_label_multilabel/color_label_multilabel_test_alt
I0406 15:44:05.006726  6733 data_layer.cpp:128] output data size: 32,2,1,1
I0406 15:44:05.006759  6733 net.cpp:103] Top shape: 32 2 1 1 (64)
I0406 15:44:05.006772  6733 net.cpp:67] Creating Layer sliceL
I0406 15:44:05.006777  6733 net.cpp:394] sliceL <- labels
I0406 15:44:05.006784  6733 net.cpp:356] sliceL -> labels0
I0406 15:44:05.006791  6733 net.cpp:356] sliceL -> labels1
I0406 15:44:05.006798  6733 net.cpp:96] Setting up sliceL
I0406 15:44:05.006805  6733 net.cpp:103] Top shape: 32 1 1 1 (32)
I0406 15:44:05.006809  6733 net.cpp:103] Top shape: 32 1 1 1 (32)
I0406 15:44:05.006815  6733 net.cpp:67] Creating Layer labels0_sliceL_0_split
I0406 15:44:05.006819  6733 net.cpp:394] labels0_sliceL_0_split <- labels0
I0406 15:44:05.006825  6733 net.cpp:356] labels0_sliceL_0_split -> labels0_sliceL_0_split_0
I0406 15:44:05.006832  6733 net.cpp:356] labels0_sliceL_0_split -> labels0_sliceL_0_split_1
I0406 15:44:05.006839  6733 net.cpp:96] Setting up labels0_sliceL_0_split
I0406 15:44:05.006844  6733 net.cpp:103] Top shape: 32 1 1 1 (32)
I0406 15:44:05.006847  6733 net.cpp:103] Top shape: 32 1 1 1 (32)
I0406 15:44:05.006853  6733 net.cpp:67] Creating Layer labels1_sliceL_1_split
I0406 15:44:05.006857  6733 net.cpp:394] labels1_sliceL_1_split <- labels1
I0406 15:44:05.006862  6733 net.cpp:356] labels1_sliceL_1_split -> labels1_sliceL_1_split_0
I0406 15:44:05.006868  6733 net.cpp:356] labels1_sliceL_1_split -> labels1_sliceL_1_split_1
I0406 15:44:05.006875  6733 net.cpp:96] Setting up labels1_sliceL_1_split
I0406 15:44:05.006880  6733 net.cpp:103] Top shape: 32 1 1 1 (32)
I0406 15:44:05.006883  6733 net.cpp:103] Top shape: 32 1 1 1 (32)
I0406 15:44:05.006891  6733 net.cpp:67] Creating Layer conv1
I0406 15:44:05.006906  6733 net.cpp:394] conv1 <- data
I0406 15:44:05.006912  6733 net.cpp:356] conv1 -> conv1
I0406 15:44:05.006919  6733 net.cpp:96] Setting up conv1
I0406 15:44:05.008147  6733 net.cpp:103] Top shape: 32 96 55 55 (9292800)
I0406 15:44:05.008173  6733 net.cpp:67] Creating Layer relu1
I0406 15:44:05.008178  6733 net.cpp:394] relu1 <- conv1
I0406 15:44:05.008185  6733 net.cpp:345] relu1 -> conv1 (in-place)
I0406 15:44:05.008191  6733 net.cpp:96] Setting up relu1
I0406 15:44:05.008198  6733 net.cpp:103] Top shape: 32 96 55 55 (9292800)
I0406 15:44:05.008206  6733 net.cpp:67] Creating Layer pool1
I0406 15:44:05.008210  6733 net.cpp:394] pool1 <- conv1
I0406 15:44:05.008215  6733 net.cpp:356] pool1 -> pool1
I0406 15:44:05.008222  6733 net.cpp:96] Setting up pool1
I0406 15:44:05.008231  6733 net.cpp:103] Top shape: 32 96 27 27 (2239488)
I0406 15:44:05.008239  6733 net.cpp:67] Creating Layer norm1
I0406 15:44:05.008244  6733 net.cpp:394] norm1 <- pool1
I0406 15:44:05.008249  6733 net.cpp:356] norm1 -> norm1
I0406 15:44:05.008256  6733 net.cpp:96] Setting up norm1
I0406 15:44:05.008261  6733 net.cpp:103] Top shape: 32 96 27 27 (2239488)
I0406 15:44:05.008270  6733 net.cpp:67] Creating Layer conv2
I0406 15:44:05.008273  6733 net.cpp:394] conv2 <- norm1
I0406 15:44:05.008280  6733 net.cpp:356] conv2 -> conv2
I0406 15:44:05.008285  6733 net.cpp:96] Setting up conv2
I0406 15:44:05.018507  6733 net.cpp:103] Top shape: 32 256 27 27 (5971968)
I0406 15:44:05.018554  6733 net.cpp:67] Creating Layer relu2
I0406 15:44:05.018561  6733 net.cpp:394] relu2 <- conv2
I0406 15:44:05.018569  6733 net.cpp:345] relu2 -> conv2 (in-place)
I0406 15:44:05.018578  6733 net.cpp:96] Setting up relu2
I0406 15:44:05.018607  6733 net.cpp:103] Top shape: 32 256 27 27 (5971968)
I0406 15:44:05.018617  6733 net.cpp:67] Creating Layer pool2
I0406 15:44:05.018621  6733 net.cpp:394] pool2 <- conv2
I0406 15:44:05.018627  6733 net.cpp:356] pool2 -> pool2
I0406 15:44:05.018635  6733 net.cpp:96] Setting up pool2
I0406 15:44:05.018643  6733 net.cpp:103] Top shape: 32 256 13 13 (1384448)
I0406 15:44:05.018652  6733 net.cpp:67] Creating Layer norm2
I0406 15:44:05.018656  6733 net.cpp:394] norm2 <- pool2
I0406 15:44:05.018662  6733 net.cpp:356] norm2 -> norm2
I0406 15:44:05.018668  6733 net.cpp:96] Setting up norm2
I0406 15:44:05.018673  6733 net.cpp:103] Top shape: 32 256 13 13 (1384448)
I0406 15:44:05.018682  6733 net.cpp:67] Creating Layer conv3
I0406 15:44:05.018687  6733 net.cpp:394] conv3 <- norm2
I0406 15:44:05.018692  6733 net.cpp:356] conv3 -> conv3
I0406 15:44:05.018698  6733 net.cpp:96] Setting up conv3
I0406 15:44:05.047782  6733 net.cpp:103] Top shape: 32 384 13 13 (2076672)
I0406 15:44:05.047835  6733 net.cpp:67] Creating Layer relu3
I0406 15:44:05.047842  6733 net.cpp:394] relu3 <- conv3
I0406 15:44:05.047850  6733 net.cpp:345] relu3 -> conv3 (in-place)
I0406 15:44:05.047857  6733 net.cpp:96] Setting up relu3
I0406 15:44:05.047866  6733 net.cpp:103] Top shape: 32 384 13 13 (2076672)
I0406 15:44:05.047876  6733 net.cpp:67] Creating Layer conv4
I0406 15:44:05.047880  6733 net.cpp:394] conv4 <- conv3
I0406 15:44:05.047889  6733 net.cpp:356] conv4 -> conv4
I0406 15:44:05.047899  6733 net.cpp:96] Setting up conv4
I0406 15:44:05.069850  6733 net.cpp:103] Top shape: 32 384 13 13 (2076672)
I0406 15:44:05.069881  6733 net.cpp:67] Creating Layer relu4
I0406 15:44:05.069887  6733 net.cpp:394] relu4 <- conv4
I0406 15:44:05.069893  6733 net.cpp:345] relu4 -> conv4 (in-place)
I0406 15:44:05.069900  6733 net.cpp:96] Setting up relu4
I0406 15:44:05.069906  6733 net.cpp:103] Top shape: 32 384 13 13 (2076672)
I0406 15:44:05.069916  6733 net.cpp:67] Creating Layer conv5
I0406 15:44:05.069921  6733 net.cpp:394] conv5 <- conv4
I0406 15:44:05.069926  6733 net.cpp:356] conv5 -> conv5
I0406 15:44:05.069932  6733 net.cpp:96] Setting up conv5
I0406 15:44:05.084880  6733 net.cpp:103] Top shape: 32 256 13 13 (1384448)
I0406 15:44:05.084911  6733 net.cpp:67] Creating Layer relu5
I0406 15:44:05.084918  6733 net.cpp:394] relu5 <- conv5
I0406 15:44:05.084924  6733 net.cpp:345] relu5 -> conv5 (in-place)
I0406 15:44:05.084930  6733 net.cpp:96] Setting up relu5
I0406 15:44:05.084938  6733 net.cpp:103] Top shape: 32 256 13 13 (1384448)
I0406 15:44:05.084947  6733 net.cpp:67] Creating Layer pool5
I0406 15:44:05.084952  6733 net.cpp:394] pool5 <- conv5
I0406 15:44:05.084959  6733 net.cpp:356] pool5 -> pool5
I0406 15:44:05.084965  6733 net.cpp:96] Setting up pool5
I0406 15:44:05.084975  6733 net.cpp:103] Top shape: 32 256 6 6 (294912)
I0406 15:44:05.084986  6733 net.cpp:67] Creating Layer fc6
I0406 15:44:05.084990  6733 net.cpp:394] fc6 <- pool5
I0406 15:44:05.084996  6733 net.cpp:356] fc6 -> fc6
I0406 15:44:05.085003  6733 net.cpp:96] Setting up fc6
I0406 15:44:06.311671  6733 net.cpp:103] Top shape: 32 4096 1 1 (131072)
I0406 15:44:06.311733  6733 net.cpp:67] Creating Layer relu6
I0406 15:44:06.311743  6733 net.cpp:394] relu6 <- fc6
I0406 15:44:06.311751  6733 net.cpp:345] relu6 -> fc6 (in-place)
I0406 15:44:06.311759  6733 net.cpp:96] Setting up relu6
I0406 15:44:06.311781  6733 net.cpp:103] Top shape: 32 4096 1 1 (131072)
I0406 15:44:06.311791  6733 net.cpp:67] Creating Layer drop6
I0406 15:44:06.311796  6733 net.cpp:394] drop6 <- fc6
I0406 15:44:06.311801  6733 net.cpp:345] drop6 -> fc6 (in-place)
I0406 15:44:06.311807  6733 net.cpp:96] Setting up drop6
I0406 15:44:06.311812  6733 net.cpp:103] Top shape: 32 4096 1 1 (131072)
I0406 15:44:06.311820  6733 net.cpp:67] Creating Layer fc7
I0406 15:44:06.311823  6733 net.cpp:394] fc7 <- fc6
I0406 15:44:06.311831  6733 net.cpp:356] fc7 -> fc7
I0406 15:44:06.311838  6733 net.cpp:96] Setting up fc7
I0406 15:44:06.856611  6733 net.cpp:103] Top shape: 32 4096 1 1 (131072)
I0406 15:44:06.856669  6733 net.cpp:67] Creating Layer relu7
I0406 15:44:06.856714  6733 net.cpp:394] relu7 <- fc7
I0406 15:44:06.856724  6733 net.cpp:345] relu7 -> fc7 (in-place)
I0406 15:44:06.856732  6733 net.cpp:96] Setting up relu7
I0406 15:44:06.856753  6733 net.cpp:103] Top shape: 32 4096 1 1 (131072)
I0406 15:44:06.856762  6733 net.cpp:67] Creating Layer drop7
I0406 15:44:06.856767  6733 net.cpp:394] drop7 <- fc7
I0406 15:44:06.856772  6733 net.cpp:345] drop7 -> fc7 (in-place)
I0406 15:44:06.856778  6733 net.cpp:96] Setting up drop7
I0406 15:44:06.856783  6733 net.cpp:103] Top shape: 32 4096 1 1 (131072)
I0406 15:44:06.856793  6733 net.cpp:67] Creating Layer fc8_deepfashion
I0406 15:44:06.856797  6733 net.cpp:394] fc8_deepfashion <- fc7
I0406 15:44:06.856804  6733 net.cpp:356] fc8_deepfashion -> fc8_deepfashion
I0406 15:44:06.856812  6733 net.cpp:96] Setting up fc8_deepfashion
I0406 15:44:06.863366  6733 net.cpp:103] Top shape: 32 48 1 1 (1536)
I0406 15:44:06.863387  6733 net.cpp:67] Creating Layer fc8_deepfashion_encode
I0406 15:44:06.863392  6733 net.cpp:394] fc8_deepfashion_encode <- fc8_deepfashion
I0406 15:44:06.863399  6733 net.cpp:356] fc8_deepfashion_encode -> fc8_deepfashion_encode
I0406 15:44:06.863404  6733 net.cpp:96] Setting up fc8_deepfashion_encode
I0406 15:44:06.863414  6733 net.cpp:103] Top shape: 32 48 1 1 (1536)
I0406 15:44:06.863422  6733 net.cpp:67] Creating Layer fc8_deepfashion_encode_fc8_deepfashion_encode_0_split
I0406 15:44:06.863427  6733 net.cpp:394] fc8_deepfashion_encode_fc8_deepfashion_encode_0_split <- fc8_deepfashion_encode
I0406 15:44:06.863432  6733 net.cpp:356] fc8_deepfashion_encode_fc8_deepfashion_encode_0_split -> fc8_deepfashion_encode_fc8_deepfashion_encode_0_split_0
I0406 15:44:06.863440  6733 net.cpp:356] fc8_deepfashion_encode_fc8_deepfashion_encode_0_split -> fc8_deepfashion_encode_fc8_deepfashion_encode_0_split_1
I0406 15:44:06.863446  6733 net.cpp:96] Setting up fc8_deepfashion_encode_fc8_deepfashion_encode_0_split
I0406 15:44:06.863451  6733 net.cpp:103] Top shape: 32 48 1 1 (1536)
I0406 15:44:06.863454  6733 net.cpp:103] Top shape: 32 48 1 1 (1536)
I0406 15:44:06.863463  6733 net.cpp:67] Creating Layer fc8_pascal_label_mod
I0406 15:44:06.863468  6733 net.cpp:394] fc8_pascal_label_mod <- fc8_deepfashion_encode_fc8_deepfashion_encode_0_split_0
I0406 15:44:06.863473  6733 net.cpp:356] fc8_pascal_label_mod -> fc8_pascal_label_mod
I0406 15:44:06.863479  6733 net.cpp:96] Setting up fc8_pascal_label_mod
I0406 15:44:06.863505  6733 net.cpp:103] Top shape: 32 10 1 1 (320)
I0406 15:44:06.863534  6733 net.cpp:67] Creating Layer fc8_pascal_label_mod_fc8_pascal_label_mod_0_split
I0406 15:44:06.863543  6733 net.cpp:394] fc8_pascal_label_mod_fc8_pascal_label_mod_0_split <- fc8_pascal_label_mod
I0406 15:44:06.863548  6733 net.cpp:356] fc8_pascal_label_mod_fc8_pascal_label_mod_0_split -> fc8_pascal_label_mod_fc8_pascal_label_mod_0_split_0
I0406 15:44:06.863555  6733 net.cpp:356] fc8_pascal_label_mod_fc8_pascal_label_mod_0_split -> fc8_pascal_label_mod_fc8_pascal_label_mod_0_split_1
I0406 15:44:06.863561  6733 net.cpp:96] Setting up fc8_pascal_label_mod_fc8_pascal_label_mod_0_split
I0406 15:44:06.863565  6733 net.cpp:103] Top shape: 32 10 1 1 (320)
I0406 15:44:06.863569  6733 net.cpp:103] Top shape: 32 10 1 1 (320)
I0406 15:44:06.863577  6733 net.cpp:67] Creating Layer fc8_pascal_color_mod
I0406 15:44:06.863582  6733 net.cpp:394] fc8_pascal_color_mod <- fc8_deepfashion_encode_fc8_deepfashion_encode_0_split_1
I0406 15:44:06.863590  6733 net.cpp:356] fc8_pascal_color_mod -> fc8_pascal_color_mod
I0406 15:44:06.863597  6733 net.cpp:96] Setting up fc8_pascal_color_mod
I0406 15:44:06.863633  6733 net.cpp:103] Top shape: 32 16 1 1 (512)
I0406 15:44:06.863662  6733 net.cpp:67] Creating Layer fc8_pascal_color_mod_fc8_pascal_color_mod_0_split
I0406 15:44:06.863674  6733 net.cpp:394] fc8_pascal_color_mod_fc8_pascal_color_mod_0_split <- fc8_pascal_color_mod
I0406 15:44:06.863682  6733 net.cpp:356] fc8_pascal_color_mod_fc8_pascal_color_mod_0_split -> fc8_pascal_color_mod_fc8_pascal_color_mod_0_split_0
I0406 15:44:06.863697  6733 net.cpp:356] fc8_pascal_color_mod_fc8_pascal_color_mod_0_split -> fc8_pascal_color_mod_fc8_pascal_color_mod_0_split_1
I0406 15:44:06.863723  6733 net.cpp:96] Setting up fc8_pascal_color_mod_fc8_pascal_color_mod_0_split
I0406 15:44:06.863729  6733 net.cpp:103] Top shape: 32 16 1 1 (512)
I0406 15:44:06.863734  6733 net.cpp:103] Top shape: 32 16 1 1 (512)
I0406 15:44:06.863739  6733 net.cpp:67] Creating Layer loss
I0406 15:44:06.863744  6733 net.cpp:394] loss <- fc8_pascal_label_mod_fc8_pascal_label_mod_0_split_0
I0406 15:44:06.863759  6733 net.cpp:394] loss <- labels0_sliceL_0_split_0
I0406 15:44:06.863765  6733 net.cpp:356] loss -> (automatic)
I0406 15:44:06.863770  6733 net.cpp:96] Setting up loss
I0406 15:44:06.863778  6733 net.cpp:103] Top shape: 1 1 1 1 (1)
I0406 15:44:06.863782  6733 net.cpp:109]     with loss weight 1
I0406 15:44:06.863816  6733 net.cpp:67] Creating Layer loss
I0406 15:44:06.863822  6733 net.cpp:394] loss <- fc8_pascal_color_mod_fc8_pascal_color_mod_0_split_0
I0406 15:44:06.863827  6733 net.cpp:394] loss <- labels1_sliceL_1_split_0
I0406 15:44:06.863833  6733 net.cpp:356] loss -> (automatic)
I0406 15:44:06.863847  6733 net.cpp:96] Setting up loss
I0406 15:44:06.863855  6733 net.cpp:103] Top shape: 1 1 1 1 (1)
I0406 15:44:06.863859  6733 net.cpp:109]     with loss weight 1
I0406 15:44:06.863868  6733 net.cpp:67] Creating Layer accuracy
I0406 15:44:06.863873  6733 net.cpp:394] accuracy <- fc8_pascal_color_mod_fc8_pascal_color_mod_0_split_1
I0406 15:44:06.863878  6733 net.cpp:394] accuracy <- labels1_sliceL_1_split_1
I0406 15:44:06.863884  6733 net.cpp:356] accuracy -> colorAccuracy
I0406 15:44:06.863891  6733 net.cpp:96] Setting up accuracy
I0406 15:44:06.863909  6733 net.cpp:103] Top shape: 1 1 1 1 (1)
I0406 15:44:06.863924  6733 net.cpp:67] Creating Layer accuracy1
I0406 15:44:06.863934  6733 net.cpp:394] accuracy1 <- fc8_pascal_label_mod_fc8_pascal_label_mod_0_split_1
I0406 15:44:06.863940  6733 net.cpp:394] accuracy1 <- labels0_sliceL_0_split_1
I0406 15:44:06.863946  6733 net.cpp:356] accuracy1 -> labelAccuracy
I0406 15:44:06.863952  6733 net.cpp:96] Setting up accuracy1
I0406 15:44:06.863956  6733 net.cpp:103] Top shape: 1 1 1 1 (1)
I0406 15:44:06.863967  6733 net.cpp:67] Creating Layer silence
I0406 15:44:06.863971  6733 net.cpp:394] silence <- random
I0406 15:44:06.863976  6733 net.cpp:96] Setting up silence
I0406 15:44:06.863979  6733 net.cpp:172] silence does not need backward computation.
I0406 15:44:06.863983  6733 net.cpp:172] accuracy1 does not need backward computation.
I0406 15:44:06.863986  6733 net.cpp:172] accuracy does not need backward computation.
…
