…
  top: "data"
  top: "random"
  name: "data"
  type: DATA
  data_param {
    source: "/data/deepfashion/color_label_multilabel/color_label_multilabel_TRAIN"
    batch_size: 32
    backend: LMDB
  }
  include {
    phase: TRAIN
  }
  transform_param {
    mirror: true
    crop_size: 227
    mean_file: "../../../data/ilsvrc12/imagenet_mean.binaryproto"
  }
}
layers {
  top: "labels"
  name: "labels"
  type: DATA
  data_param {
    source: "/data/deepfashion/color_label_multilabel/color_label_multilabel_TRAIN_ALT"
    batch_size: 32
    backend: LMDB
  }
  include {
    phase: TRAIN
  }
}
layers {
  bottom: "labels"
  top: "labels0"
  top: "labels1"
  name: "sliceL"
  type: SLICE
  slice_param {
    slice_point: 1
  }
}
layers {
  bottom: "data"
  top: "conv1"
  name: "conv1"
  type: CONVOLUTION
  blobs_lr: 0
  blobs_lr: 0
  weight_decay: 1
  weight_decay: 0
  convolution_param {
    num_output: 96
    kernel_size: 11
    stride: 4
    weight_filler {
      type: "gaussian"
      std: 0.01
    }
    bias_filler {
      type: "constant"
      value: 0
    }
  }
}
layers {
  bottom: "conv1"
  top: "conv1"
  name: "relu1"
  type: RELU
}
layers {
  bottom: "conv1"
  top: "pool1"
  name: "pool1"
  type: POOLING
  pooling_param {
    pool: MAX
    kernel_size: 3
    stride: 2
  }
}
layers {
  bottom: "pool1"
  top: "norm1"
  name: "norm1"
  type: LRN
  lrn_param {
    local_size: 5
    alpha: 0.0001
    beta: 0.75
  }
}
layers {
  bottom: "norm1"
  top: "conv2"
  name: "conv2"
  type: CONVOLUTION
  blobs_lr: 0
  blobs_lr: 0
  weight_decay: 1
  weight_decay: 0
  convolution_param {
    num_output: 256
    pad: 2
    kernel_size: 5
    group: 2
    weight_filler {
      type: "gaussian"
      std: 0.01
    }
    bias_filler {
      type: "constant"
      value: 1
    }
  }
}
layers {
  bottom: "conv2"
  top: "conv2"
  name: "relu2"
  type: RELU
}
layers {
  bottom: "conv2"
  top: "pool2"
  name: "pool2"
  type: POOLING
  pooling_param {
    pool: MAX
    kernel_size: 3
    stride: 2
  }
}
layers {
  bottom: "pool2"
  top: "norm2"
  name: "norm2"
  type: LRN
  lrn_param {
    local_size: 5
    alpha: 0.0001
    beta: 0.75
  }
}
layers {
  bottom: "norm2"
  top: "conv3"
  name: "conv3"
  type: CONVOLUTION
  blobs_lr: 0
  blobs_lr: 0
  weight_decay: 1
  weight_decay: 0
  convolution_param {
    num_output: 384
    pad: 1
    kernel_size: 3
    weight_filler {
      type: "gaussian"
      std: 0.01
    }
    bias_filler {
      type: "constant"
      value: 0
    }
  }
}
layers {
  bottom: "conv3"
  top: "conv3"
  name: "relu3"
  type: RELU
}
layers {
  bottom: "conv3"
  top: "conv4"
  name: "conv4"
  type: CONVOLUTION
  blobs_lr: 0
  blobs_lr: 0
  weight_decay: 1
  weight_decay: 0
  convolution_param {
    num_output: 384
    pad: 1
    kernel_size: 3
    group: 2
    weight_filler {
      type: "gaussian"
      std: 0.01
    }
    bias_filler {
      type: "constant"
      value: 1
    }
  }
}
layers {
  bottom: "conv4"
  top: "conv4"
  name: "relu4"
  type: RELU
}
layers {
  bottom: "conv4"
  top: "conv5"
  name: "conv5"
  type: CONVOLUTION
  blobs_lr: 0
  blobs_lr: 0
  weight_decay: 1
  weight_decay: 0
  convolution_param {
    num_output: 256
    pad: 1
    kernel_size: 3
    group: 2
    weight_filler {
      type: "gaussian"
      std: 0.01
    }
    bias_filler {
      type: "constant"
      value: 1
    }
  }
}
layers {
  bottom: "conv5"
  top: "conv5"
  name: "relu5"
  type: RELU
}
layers {
  bottom: "conv5"
  top: "pool5"
  name: "pool5"
  type: POOLING
  pooling_param {
    pool: MAX
    kernel_size: 3
    stride: 2
  }
}
layers {
  bottom: "pool5"
  top: "fc6"
  name: "fc6"
  type: INNER_PRODUCT
  blobs_lr: 1
  blobs_lr: 2
  weight_decay: 1
  weight_decay: 0
  inner_product_param {
    num_output: 4096
    weight_filler {
      type: "gaussian"
      std: 0.005
    }
    bias_filler {
      type: "constant"
      value: 1
    }
  }
}
layers {
  bottom: "fc6"
  top: "fc6"
  name: "relu6"
  type: RELU
}
layers {
  bottom: "fc6"
  top: "fc6"
  name: "drop6"
  type: DROPOUT
  dropout_param {
    dropout_ratio: 0.5
  }
}
layers {
  bottom: "fc6"
  top: "fc7"
  name: "fc7"
  type: INNER_PRODUCT
  blobs_lr: 1
  blobs_lr: 2
  weight_decay: 1
  weight_decay: 0
  inner_product_param {
    num_output: 4096
    weight_filler {
      type: "gaussian"
      std: 0.005
    }
    bias_filler {
      type: "constant"
      value: 1
    }
  }
}
layers {
  bottom: "fc7"
  top: "fc7"
  name: "relu7"
  type: RELU
}
layers {
  bottom: "fc7"
  top: "fc7"
  name: "drop7"
  type: DROPOUT
  dropout_param {
    dropout_ratio: 0.5
  }
}
layers {
  bottom: "fc7"
  top: "fc8_deepfashion"
  name: "fc8_deepfashion"
  type: INNER_PRODUCT
  blobs_lr: 1
  blobs_lr: 2
  weight_decay: 1
  weight_decay: 0
  inner_product_param {
    num_output: 48
    weight_filler {
      type: "gaussian"
      std: 0.01
    }
    bias_filler {
      type: "constant"
      value: 0
    }
  }
}
layers {
  bottom: "fc8_deepfashion"
  top: "fc8_deepfashion_encode"
  name: "fc8_deepfashion_encode"
  type: SIGMOID
}
layers {
  bottom: "fc8_deepfashion_encode"
  top: "fc8_pascal_label_mod"
  name: "fc8_pascal_label_mod"
  type: INNER_PRODUCT
  blobs_lr: 1
  blobs_lr: 2
  weight_decay: 1
  weight_decay: 0
  inner_product_param {
    num_output: 10
    weight_filler {
      type: "gaussian"
      std: 0.01
    }
    bias_filler {
      type: "constant"
      value: 0
    }
  }
}
layers {
  bottom: "fc8_deepfashion_encode"
  top: "fc8_pascal_color_mod"
  name: "fc8_pascal_color_mod"
  type: INNER_PRODUCT
  blobs_lr: 1
  blobs_lr: 2
  weight_decay: 1
  weight_decay: 0
  inner_product_param {
    num_output: 16
    weight_filler {
      type: "gaussian"
      std: 0.01
    }
    bias_filler {
      type: "constant"
      value: 0
    }
  }
}
layers {
  bottom: "fc8_pascal_label_mod"
  bottom: "labels0"
  name: "loss"
  type: SOFTMAX_LOSS
}
layers {
  bottom: "fc8_pascal_color_mod"
  bottom: "labels1"
  name: "loss"
  type: SOFTMAX_LOSS
}
layers {
  bottom: "random"
  name: "silence"
  type: SILENCE
}
state {
  phase: TRAIN
}
I0406 14:04:10.872516 16519 net.cpp:67] Creating Layer data
I0406 14:04:10.872529 16519 net.cpp:356] data -> data
I0406 14:04:10.872547 16519 net.cpp:356] data -> random
I0406 14:04:10.872571 16519 net.cpp:96] Setting up data
I0406 14:04:10.873672 16519 data_layer.cpp:68] Opening lmdb /data/deepfashion/color_label_multilabel/color_label_multilabel_TRAIN
I0406 14:04:10.873883 16519 data_layer.cpp:128] output data size: 32,3,227,227
I0406 14:04:10.873903 16519 base_data_layer.cpp:36] Loading mean file from../../../data/ilsvrc12/imagenet_mean.binaryproto
I0406 14:04:10.889803 16519 net.cpp:103] Top shape: 32 3 227 227 (4946784)
I0406 14:04:10.889847 16519 net.cpp:103] Top shape: 32 1 1 1 (32)
I0406 14:04:10.889865 16519 net.cpp:67] Creating Layer labels
I0406 14:04:10.889873 16519 net.cpp:356] labels -> labels
I0406 14:04:10.889886 16519 net.cpp:96] Setting up labels
I0406 14:04:10.890964 16519 data_layer.cpp:68] Opening lmdb /data/deepfashion/color_label_multilabel/color_label_multilabel_TRAIN_ALT
I0406 14:04:10.891021 16519 data_layer.cpp:128] output data size: 32,2,1,1
I0406 14:04:10.891072 16519 net.cpp:103] Top shape: 32 2 1 1 (64)
I0406 14:04:10.891098 16519 net.cpp:67] Creating Layer sliceL
I0406 14:04:10.891108 16519 net.cpp:394] sliceL <- labels
I0406 14:04:10.891121 16519 net.cpp:356] sliceL -> labels0
I0406 14:04:10.891140 16519 net.cpp:356] sliceL -> labels1
I0406 14:04:10.891155 16519 net.cpp:96] Setting up sliceL
I0406 14:04:10.891170 16519 net.cpp:103] Top shape: 32 1 1 1 (32)
I0406 14:04:10.891182 16519 net.cpp:103] Top shape: 32 1 1 1 (32)
I0406 14:04:10.891194 16519 net.cpp:67] Creating Layer conv1
I0406 14:04:10.891201 16519 net.cpp:394] conv1 <- data
I0406 14:04:10.891214 16519 net.cpp:356] conv1 -> conv1
I0406 14:04:10.891225 16519 net.cpp:96] Setting up conv1
I0406 14:04:10.919651 16519 net.cpp:103] Top shape: 32 96 55 55 (9292800)
I0406 14:04:10.919708 16519 net.cpp:67] Creating Layer relu1
I0406 14:04:10.919716 16519 net.cpp:394] relu1 <- conv1
I0406 14:04:10.919724 16519 net.cpp:345] relu1 -> conv1 (in-place)
I0406 14:04:10.919734 16519 net.cpp:96] Setting up relu1
I0406 14:04:10.919744 16519 net.cpp:103] Top shape: 32 96 55 55 (9292800)
I0406 14:04:10.919751 16519 net.cpp:67] Creating Layer pool1
I0406 14:04:10.919755 16519 net.cpp:394] pool1 <- conv1
I0406 14:04:10.919761 16519 net.cpp:356] pool1 -> pool1
I0406 14:04:10.919769 16519 net.cpp:96] Setting up pool1
I0406 14:04:10.919791 16519 net.cpp:103] Top shape: 32 96 27 27 (2239488)
I0406 14:04:10.919806 16519 net.cpp:67] Creating Layer norm1
I0406 14:04:10.919811 16519 net.cpp:394] norm1 <- pool1
I0406 14:04:10.919816 16519 net.cpp:356] norm1 -> norm1
I0406 14:04:10.919822 16519 net.cpp:96] Setting up norm1
I0406 14:04:10.919831 16519 net.cpp:103] Top shape: 32 96 27 27 (2239488)
I0406 14:04:10.919839 16519 net.cpp:67] Creating Layer conv2
I0406 14:04:10.919843 16519 net.cpp:394] conv2 <- norm1
I0406 14:04:10.919849 16519 net.cpp:356] conv2 -> conv2
I0406 14:04:10.919857 16519 net.cpp:96] Setting up conv2
I0406 14:04:10.930132 16519 net.cpp:103] Top shape: 32 256 27 27 (5971968)
I0406 14:04:10.930160 16519 net.cpp:67] Creating Layer relu2
I0406 14:04:10.930166 16519 net.cpp:394] relu2 <- conv2
I0406 14:04:10.930172 16519 net.cpp:345] relu2 -> conv2 (in-place)
I0406 14:04:10.930178 16519 net.cpp:96] Setting up relu2
I0406 14:04:10.930186 16519 net.cpp:103] Top shape: 32 256 27 27 (5971968)
I0406 14:04:10.930191 16519 net.cpp:67] Creating Layer pool2
I0406 14:04:10.930196 16519 net.cpp:394] pool2 <- conv2
I0406 14:04:10.930202 16519 net.cpp:356] pool2 -> pool2
I0406 14:04:10.930209 16519 net.cpp:96] Setting up pool2
I0406 14:04:10.930217 16519 net.cpp:103] Top shape: 32 256 13 13 (1384448)
I0406 14:04:10.930222 16519 net.cpp:67] Creating Layer norm2
I0406 14:04:10.930227 16519 net.cpp:394] norm2 <- pool2
I0406 14:04:10.930234 16519 net.cpp:356] norm2 -> norm2
I0406 14:04:10.930240 16519 net.cpp:96] Setting up norm2
I0406 14:04:10.930244 16519 net.cpp:103] Top shape: 32 256 13 13 (1384448)
I0406 14:04:10.930251 16519 net.cpp:67] Creating Layer conv3
I0406 14:04:10.930258 16519 net.cpp:394] conv3 <- norm2
I0406 14:04:10.930263 16519 net.cpp:356] conv3 -> conv3
I0406 14:04:10.930269 16519 net.cpp:96] Setting up conv3
I0406 14:04:10.959466 16519 net.cpp:103] Top shape: 32 384 13 13 (2076672)
I0406 14:04:10.959492 16519 net.cpp:67] Creating Layer relu3
I0406 14:04:10.959497 16519 net.cpp:394] relu3 <- conv3
I0406 14:04:10.959506 16519 net.cpp:345] relu3 -> conv3 (in-place)
I0406 14:04:10.959512 16519 net.cpp:96] Setting up relu3
I0406 14:04:10.959518 16519 net.cpp:103] Top shape: 32 384 13 13 (2076672)
I0406 14:04:10.959525 16519 net.cpp:67] Creating Layer conv4
I0406 14:04:10.959529 16519 net.cpp:394] conv4 <- conv3
I0406 14:04:10.959537 16519 net.cpp:356] conv4 -> conv4
I0406 14:04:10.959543 16519 net.cpp:96] Setting up conv4
I0406 14:04:10.981572 16519 net.cpp:103] Top shape: 32 384 13 13 (2076672)
I0406 14:04:10.981597 16519 net.cpp:67] Creating Layer relu4
I0406 14:04:10.981603 16519 net.cpp:394] relu4 <- conv4
I0406 14:04:10.981631 16519 net.cpp:345] relu4 -> conv4 (in-place)
I0406 14:04:10.981638 16519 net.cpp:96] Setting up relu4
I0406 14:04:10.981645 16519 net.cpp:103] Top shape: 32 384 13 13 (2076672)
I0406 14:04:10.981654 16519 net.cpp:67] Creating Layer conv5
I0406 14:04:10.981658 16519 net.cpp:394] conv5 <- conv4
I0406 14:04:10.981664 16519 net.cpp:356] conv5 -> conv5
I0406 14:04:10.981670 16519 net.cpp:96] Setting up conv5
I0406 14:04:10.996336 16519 net.cpp:103] Top shape: 32 256 13 13 (1384448)
I0406 14:04:10.996364 16519 net.cpp:67] Creating Layer relu5
I0406 14:04:10.996371 16519 net.cpp:394] relu5 <- conv5
I0406 14:04:10.996376 16519 net.cpp:345] relu5 -> conv5 (in-place)
I0406 14:04:10.996382 16519 net.cpp:96] Setting up relu5
I0406 14:04:10.996388 16519 net.cpp:103] Top shape: 32 256 13 13 (1384448)
I0406 14:04:10.996394 16519 net.cpp:67] Creating Layer pool5
I0406 14:04:10.996398 16519 net.cpp:394] pool5 <- conv5
I0406 14:04:10.996405 16519 net.cpp:356] pool5 -> pool5
I0406 14:04:10.996412 16519 net.cpp:96] Setting up pool5
I0406 14:04:10.996419 16519 net.cpp:103] Top shape: 32 256 6 6 (294912)
I0406 14:04:10.996426 16519 net.cpp:67] Creating Layer fc6
I0406 14:04:10.996430 16519 net.cpp:394] fc6 <- pool5
I0406 14:04:10.996435 16519 net.cpp:356] fc6 -> fc6
I0406 14:04:10.996443 16519 net.cpp:96] Setting up fc6
I0406 14:04:12.221541 16519 net.cpp:103] Top shape: 32 4096 1 1 (131072)
I0406 14:04:12.221590 16519 net.cpp:67] Creating Layer relu6
I0406 14:04:12.221596 16519 net.cpp:394] relu6 <- fc6
I0406 14:04:12.221607 16519 net.cpp:345] relu6 -> fc6 (in-place)
I0406 14:04:12.221616 16519 net.cpp:96] Setting up relu6
I0406 14:04:12.221634 16519 net.cpp:103] Top shape: 32 4096 1 1 (131072)
I0406 14:04:12.221642 16519 net.cpp:67] Creating Layer drop6
I0406 14:04:12.221645 16519 net.cpp:394] drop6 <- fc6
I0406 14:04:12.221652 16519 net.cpp:345] drop6 -> fc6 (in-place)
I0406 14:04:12.221658 16519 net.cpp:96] Setting up drop6
I0406 14:04:12.221668 16519 net.cpp:103] Top shape: 32 4096 1 1 (131072)
I0406 14:04:12.221676 16519 net.cpp:67] Creating Layer fc7
I0406 14:04:12.221688 16519 net.cpp:394] fc7 <- fc6
I0406 14:04:12.221693 16519 net.cpp:356] fc7 -> fc7
I0406 14:04:12.221704 16519 net.cpp:96] Setting up fc7
I0406 14:04:12.764925 16519 net.cpp:103] Top shape: 32 4096 1 1 (131072)
I0406 14:04:12.764976 16519 net.cpp:67] Creating Layer relu7
I0406 14:04:12.764983 16519 net.cpp:394] relu7 <- fc7
I0406 14:04:12.764997 16519 net.cpp:345] relu7 -> fc7 (in-place)
I0406 14:04:12.765005 16519 net.cpp:96] Setting up relu7
I0406 14:04:12.765027 16519 net.cpp:103] Top shape: 32 4096 1 1 (131072)
I0406 14:04:12.765033 16519 net.cpp:67] Creating Layer drop7
I0406 14:04:12.765038 16519 net.cpp:394] drop7 <- fc7
I0406 14:04:12.765043 16519 net.cpp:345] drop7 -> fc7 (in-place)
I0406 14:04:12.765048 16519 net.cpp:96] Setting up drop7
I0406 14:04:12.765053 16519 net.cpp:103] Top shape: 32 4096 1 1 (131072)
I0406 14:04:12.765059 16519 net.cpp:67] Creating Layer fc8_deepfashion
I0406 14:04:12.765063 16519 net.cpp:394] fc8_deepfashion <- fc7
I0406 14:04:12.765070 16519 net.cpp:356] fc8_deepfashion -> fc8_deepfashion
I0406 14:04:12.765079 16519 net.cpp:96] Setting up fc8_deepfashion
I0406 14:04:12.771574 16519 net.cpp:103] Top shape: 32 48 1 1 (1536)
I0406 14:04:12.771596 16519 net.cpp:67] Creating Layer fc8_deepfashion_encode
I0406 14:04:12.771601 16519 net.cpp:394] fc8_deepfashion_encode <- fc8_deepfashion
I0406 14:04:12.771607 16519 net.cpp:356] fc8_deepfashion_encode -> fc8_deepfashion_encode
I0406 14:04:12.771613 16519 net.cpp:96] Setting up fc8_deepfashion_encode
I0406 14:04:12.771626 16519 net.cpp:103] Top shape: 32 48 1 1 (1536)
I0406 14:04:12.771632 16519 net.cpp:67] Creating Layer fc8_deepfashion_encode_fc8_deepfashion_encode_0_split
I0406 14:04:12.771637 16519 net.cpp:394] fc8_deepfashion_encode_fc8_deepfashion_encode_0_split <- fc8_deepfashion_encode
I0406 14:04:12.771644 16519 net.cpp:356] fc8_deepfashion_encode_fc8_deepfashion_encode_0_split -> fc8_deepfashion_encode_fc8_deepfashion_encode_0_split_0
I0406 14:04:12.771679 16519 net.cpp:356] fc8_deepfashion_encode_fc8_deepfashion_encode_0_split -> fc8_deepfashion_encode_fc8_deepfashion_encode_0_split_1
I0406 14:04:12.771687 16519 net.cpp:96] Setting up fc8_deepfashion_encode_fc8_deepfashion_encode_0_split
I0406 14:04:12.771694 16519 net.cpp:103] Top shape: 32 48 1 1 (1536)
I0406 14:04:12.771698 16519 net.cpp:103] Top shape: 32 48 1 1 (1536)
I0406 14:04:12.771705 16519 net.cpp:67] Creating Layer fc8_pascal_label_mod
I0406 14:04:12.771709 16519 net.cpp:394] fc8_pascal_label_mod <- fc8_deepfashion_encode_fc8_deepfashion_encode_0_split_0
I0406 14:04:12.771718 16519 net.cpp:356] fc8_pascal_label_mod -> fc8_pascal_label_mod
I0406 14:04:12.771723 16519 net.cpp:96] Setting up fc8_pascal_label_mod
I0406 14:04:12.771749 16519 net.cpp:103] Top shape: 32 10 1 1 (320)
I0406 14:04:12.771772 16519 net.cpp:67] Creating Layer fc8_pascal_color_mod
I0406 14:04:12.771783 16519 net.cpp:394] fc8_pascal_color_mod <- fc8_deepfashion_encode_fc8_deepfashion_encode_0_split_1
I0406 14:04:12.771790 16519 net.cpp:356] fc8_pascal_color_mod -> fc8_pascal_color_mod
I0406 14:04:12.771796 16519 net.cpp:96] Setting up fc8_pascal_color_mod
I0406 14:04:12.771831 16519 net.cpp:103] Top shape: 32 16 1 1 (512)
I0406 14:04:12.771847 16519 net.cpp:67] Creating Layer loss
I0406 14:04:12.771852 16519 net.cpp:394] loss <- fc8_pascal_label_mod
I0406 14:04:12.771857 16519 net.cpp:394] loss <- labels0
I0406 14:04:12.771863 16519 net.cpp:356] loss -> (automatic)
I0406 14:04:12.771868 16519 net.cpp:96] Setting up loss
I0406 14:04:12.771881 16519 net.cpp:103] Top shape: 1 1 1 1 (1)
I0406 14:04:12.771889 16519 net.cpp:109]     with loss weight 1
I0406 14:04:12.771934 16519 net.cpp:67] Creating Layer loss
I0406 14:04:12.771940 16519 net.cpp:394] loss <- fc8_pascal_color_mod
I0406 14:04:12.771945 16519 net.cpp:394] loss <- labels1
I0406 14:04:12.771953 16519 net.cpp:356] loss -> (automatic)
I0406 14:04:12.771958 16519 net.cpp:96] Setting up loss
I0406 14:04:12.771965 16519 net.cpp:103] Top shape: 1 1 1 1 (1)
I0406 14:04:12.771968 16519 net.cpp:109]     with loss weight 1
I0406 14:04:12.771975 16519 net.cpp:67] Creating Layer silence
I0406 14:04:12.771981 16519 net.cpp:394] silence <- random
I0406 14:04:12.771984 16519 net.cpp:96] Setting up silence
I0406 14:04:12.771988 16519 net.cpp:172] silence does not need backward computation.
I0406 14:04:12.771991 16519 net.cpp:170] loss needs backward computation.
…
layers {
  top: "data"
  top: "random"
  name: "data"
  type: DATA
  data_param {
    source: "/data/deepfashion/color_label_multilabel/color_label_multilabel_test"
    batch_size: 32
    backend: LMDB
  }
  include {
    phase: TEST
  }
  transform_param {
    mirror: true
    crop_size: 227
    mean_file: "../../../data/ilsvrc12/imagenet_mean.binaryproto"
  }
}
layers {
  top: "labels"
  name: "labels"
  type: DATA
  data_param {
    source: "/data/deepfashion/color_label_multilabel/color_label_multilabel_test_alt"
    batch_size: 32
    backend: LMDB
  }
  include {
    phase: TEST
  }
}
layers {
  bottom: "labels"
  top: "labels0"
  top: "labels1"
  name: "sliceL"
  type: SLICE
  slice_param {
    slice_point: 1
  }
}
layers {
  bottom: "data"
  top: "conv1"
  name: "conv1"
  type: CONVOLUTION
  blobs_lr: 0
  blobs_lr: 0
  weight_decay: 1
  weight_decay: 0
  convolution_param {
    num_output: 96
    kernel_size: 11
    stride: 4
    weight_filler {
      type: "gaussian"
      std: 0.01
    }
    bias_filler {
      type: "constant"
      value: 0
    }
  }
}
layers {
  bottom: "conv1"
  top: "conv1"
  name: "relu1"
  type: RELU
}
layers {
  bottom: "conv1"
  top: "pool1"
  name: "pool1"
  type: POOLING
  pooling_param {
    pool: MAX
    kernel_size: 3
    stride: 2
  }
}
layers {
  bottom: "pool1"
  top: "norm1"
  name: "norm1"
  type: LRN
  lrn_param {
    local_size: 5
    alpha: 0.0001
    beta: 0.75
  }
}
layers {
  bottom: "norm1"
  top: "conv2"
  name: "conv2"
  type: CONVOLUTION
  blobs_lr: 0
  blobs_lr: 0
  weight_decay: 1
  weight_decay: 0
  convolution_param {
    num_output: 256
    pad: 2
    kernel_size: 5
    group: 2
    weight_filler {
      type: "gaussian"
      std: 0.01
    }
    bias_filler {
      type: "constant"
      value: 1
    }
  }
}
layers {
  bottom: "conv2"
  top: "conv2"
  name: "relu2"
  type: RELU
}
layers {
  bottom: "conv2"
  top: "pool2"
  name: "pool2"
  type: POOLING
  pooling_param {
    pool: MAX
    kernel_size: 3
    stride: 2
  }
}
layers {
  bottom: "pool2"
  top: "norm2"
  name: "norm2"
  type: LRN
  lrn_param {
    local_size: 5
    alpha: 0.0001
    beta: 0.75
  }
}
layers {
  bottom: "norm2"
  top: "conv3"
  name: "conv3"
  type: CONVOLUTION
  blobs_lr: 0
  blobs_lr: 0
  weight_decay: 1
  weight_decay: 0
  convolution_param {
    num_output: 384
    pad: 1
    kernel_size: 3
    weight_filler {
      type: "gaussian"
      std: 0.01
    }
    bias_filler {
      type: "constant"
      value: 0
    }
  }
}
layers {
  bottom: "conv3"
  top: "conv3"
  name: "relu3"
  type: RELU
}
layers {
  bottom: "conv3"
  top: "conv4"
  name: "conv4"
  type: CONVOLUTION
  blobs_lr: 0
  blobs_lr: 0
  weight_decay: 1
  weight_decay: 0
  convolution_param {
    num_output: 384
    pad: 1
    kernel_size: 3
    group: 2
    weight_filler {
      type: "gaussian"
      std: 0.01
    }
    bias_filler {
      type: "constant"
      value: 1
    }
  }
}
layers {
  bottom: "conv4"
  top: "conv4"
  name: "relu4"
  type: RELU
}
layers {
  bottom: "conv4"
  top: "conv5"
  name: "conv5"
  type: CONVOLUTION
  blobs_lr: 0
  blobs_lr: 0
  weight_decay: 1
  weight_decay: 0
  convolution_param {
    num_output: 256
    pad: 1
    kernel_size: 3
    group: 2
    weight_filler {
      type: "gaussian"
      std: 0.01
    }
    bias_filler {
      type: "constant"
      value: 1
    }
  }
}
layers {
  bottom: "conv5"
  top: "conv5"
  name: "relu5"
  type: RELU
}
layers {
  bottom: "conv5"
  top: "pool5"
  name: "pool5"
  type: POOLING
  pooling_param {
    pool: MAX
    kernel_size: 3
    stride: 2
  }
}
layers {
  bottom: "pool5"
  top: "fc6"
  name: "fc6"
  type: INNER_PRODUCT
  blobs_lr: 1
  blobs_lr: 2
  weight_decay: 1
  weight_decay: 0
  inner_product_param {
    num_output: 4096
    weight_filler {
      type: "gaussian"
      std: 0.005
    }
    bias_filler {
      type: "constant"
      value: 1
    }
  }
}
layers {
  bottom: "fc6"
  top: "fc6"
  name: "relu6"
  type: RELU
}
layers {
  bottom: "fc6"
  top: "fc6"
  name: "drop6"
  type: DROPOUT
  dropout_param {
    dropout_ratio: 0.5
  }
}
layers {
  bottom: "fc6"
  top: "fc7"
  name: "fc7"
  type: INNER_PRODUCT
  blobs_lr: 1
  blobs_lr: 2
  weight_decay: 1
  weight_decay: 0
  inner_product_param {
    num_output: 4096
    weight_filler {
      type: "gaussian"
      std: 0.005
    }
    bias_filler {
      type: "constant"
      value: 1
    }
  }
}
layers {
  bottom: "fc7"
  top: "fc7"
  name: "relu7"
  type: RELU
}
layers {
  bottom: "fc7"
  top: "fc7"
  name: "drop7"
  type: DROPOUT
  dropout_param {
    dropout_ratio: 0.5
  }
}
layers {
  bottom: "fc7"
  top: "fc8_deepfashion"
  name: "fc8_deepfashion"
  type: INNER_PRODUCT
  blobs_lr: 1
  blobs_lr: 2
  weight_decay: 1
  weight_decay: 0
  inner_product_param {
    num_output: 48
    weight_filler {
      type: "gaussian"
      std: 0.01
    }
    bias_filler {
      type: "constant"
      value: 0
    }
  }
}
layers {
  bottom: "fc8_deepfashion"
  top: "fc8_deepfashion_encode"
  name: "fc8_deepfashion_encode"
  type: SIGMOID
}
layers {
  bottom: "fc8_deepfashion_encode"
  top: "fc8_pascal_label_mod"
  name: "fc8_pascal_label_mod"
  type: INNER_PRODUCT
  blobs_lr: 1
  blobs_lr: 2
  weight_decay: 1
  weight_decay: 0
  inner_product_param {
    num_output: 10
    weight_filler {
      type: "gaussian"
      std: 0.01
    }
    bias_filler {
      type: "constant"
      value: 0
    }
  }
}
layers {
  bottom: "fc8_deepfashion_encode"
  top: "fc8_pascal_color_mod"
  name: "fc8_pascal_color_mod"
  type: INNER_PRODUCT
  blobs_lr: 1
  blobs_lr: 2
  weight_decay: 1
  weight_decay: 0
  inner_product_param {
    num_output: 16
    weight_filler {
      type: "gaussian"
      std: 0.01
    }
    bias_filler {
      type: "constant"
      value: 0
    }
  }
}
layers {
  bottom: "fc8_pascal_label_mod"
  bottom: "labels0"
  name: "loss"
  type: SOFTMAX_LOSS
}
layers {
  bottom: "fc8_pascal_color_mod"
  bottom: "labels1"
  name: "loss"
  type: SOFTMAX_LOSS
}
layers {
  bottom: "fc8_pascal_color_mod"
  bottom: "labels1"
  top: "colorAccuracy"
  name: "accuracy"
  type: ACCURACY
  include {
    phase: TEST
  }
}
layers {
  bottom: "fc8_pascal_label_mod"
  bottom: "labels0"
  top: "labelAccuracy"
  name: "accuracy1"
  type: ACCURACY
  include {
    phase: TEST
  }
}
layers {
  bottom: "random"
  name: "silence"
  type: SILENCE
}
state {
  phase: TEST
}
I0406 14:04:12.773362 16519 net.cpp:67] Creating Layer data
I0406 14:04:12.773376 16519 net.cpp:356] data -> data
I0406 14:04:12.773386 16519 net.cpp:356] data -> random
I0406 14:04:12.773392 16519 net.cpp:96] Setting up data
I0406 14:04:12.774430 16519 data_layer.cpp:68] Opening lmdb /data/deepfashion/color_label_multilabel/color_label_multilabel_test
I0406 14:04:12.774613 16519 data_layer.cpp:128] output data size: 32,3,227,227
I0406 14:04:12.774629 16519 base_data_layer.cpp:36] Loading mean file from../../../data/ilsvrc12/imagenet_mean.binaryproto
I0406 14:04:12.781635 16519 net.cpp:103] Top shape: 32 3 227 227 (4946784)
I0406 14:04:12.781667 16519 net.cpp:103] Top shape: 32 1 1 1 (32)
I0406 14:04:12.781685 16519 net.cpp:67] Creating Layer labels
I0406 14:04:12.781692 16519 net.cpp:356] labels -> labels
I0406 14:04:12.781705 16519 net.cpp:96] Setting up labels
I0406 14:04:12.782785 16519 data_layer.cpp:68] Opening lmdb /data/deepfashion/color_label_multilabel/color_label_multilabel_test_alt
I0406 14:04:12.782809 16519 data_layer.cpp:128] output data size: 32,2,1,1
I0406 14:04:12.782845 16519 net.cpp:103] Top shape: 32 2 1 1 (64)
I0406 14:04:12.782861 16519 net.cpp:67] Creating Layer sliceL
I0406 14:04:12.782867 16519 net.cpp:394] sliceL <- labels
I0406 14:04:12.782874 16519 net.cpp:356] sliceL -> labels0
I0406 14:04:12.782881 16519 net.cpp:356] sliceL -> labels1
I0406 14:04:12.782889 16519 net.cpp:96] Setting up sliceL
I0406 14:04:12.782896 16519 net.cpp:103] Top shape: 32 1 1 1 (32)
I0406 14:04:12.782899 16519 net.cpp:103] Top shape: 32 1 1 1 (32)
I0406 14:04:12.782905 16519 net.cpp:67] Creating Layer labels0_sliceL_0_split
I0406 14:04:12.782909 16519 net.cpp:394] labels0_sliceL_0_split <- labels0
I0406 14:04:12.782915 16519 net.cpp:356] labels0_sliceL_0_split -> labels0_sliceL_0_split_0
I0406 14:04:12.782922 16519 net.cpp:356] labels0_sliceL_0_split -> labels0_sliceL_0_split_1
I0406 14:04:12.782927 16519 net.cpp:96] Setting up labels0_sliceL_0_split
I0406 14:04:12.782932 16519 net.cpp:103] Top shape: 32 1 1 1 (32)
I0406 14:04:12.782937 16519 net.cpp:103] Top shape: 32 1 1 1 (32)
I0406 14:04:12.782943 16519 net.cpp:67] Creating Layer labels1_sliceL_1_split
I0406 14:04:12.782946 16519 net.cpp:394] labels1_sliceL_1_split <- labels1
I0406 14:04:12.782958 16519 net.cpp:356] labels1_sliceL_1_split -> labels1_sliceL_1_split_0
I0406 14:04:12.782963 16519 net.cpp:356] labels1_sliceL_1_split -> labels1_sliceL_1_split_1
I0406 14:04:12.782970 16519 net.cpp:96] Setting up labels1_sliceL_1_split
I0406 14:04:12.782974 16519 net.cpp:103] Top shape: 32 1 1 1 (32)
I0406 14:04:12.782979 16519 net.cpp:103] Top shape: 32 1 1 1 (32)
I0406 14:04:12.782986 16519 net.cpp:67] Creating Layer conv1
I0406 14:04:12.782990 16519 net.cpp:394] conv1 <- data
I0406 14:04:12.782996 16519 net.cpp:356] conv1 -> conv1
I0406 14:04:12.783004 16519 net.cpp:96] Setting up conv1
I0406 14:04:12.784236 16519 net.cpp:103] Top shape: 32 96 55 55 (9292800)
I0406 14:04:12.784261 16519 net.cpp:67] Creating Layer relu1
I0406 14:04:12.784266 16519 net.cpp:394] relu1 <- conv1
I0406 14:04:12.784273 16519 net.cpp:345] relu1 -> conv1 (in-place)
I0406 14:04:12.784279 16519 net.cpp:96] Setting up relu1
I0406 14:04:12.784286 16519 net.cpp:103] Top shape: 32 96 55 55 (9292800)
I0406 14:04:12.784293 16519 net.cpp:67] Creating Layer pool1
I0406 14:04:12.784297 16519 net.cpp:394] pool1 <- conv1
I0406 14:04:12.784303 16519 net.cpp:356] pool1 -> pool1
I0406 14:04:12.784309 16519 net.cpp:96] Setting up pool1
I0406 14:04:12.784318 16519 net.cpp:103] Top shape: 32 96 27 27 (2239488)
I0406 14:04:12.784327 16519 net.cpp:67] Creating Layer norm1
I0406 14:04:12.784330 16519 net.cpp:394] norm1 <- pool1
I0406 14:04:12.784337 16519 net.cpp:356] norm1 -> norm1
I0406 14:04:12.784343 16519 net.cpp:96] Setting up norm1
I0406 14:04:12.784348 16519 net.cpp:103] Top shape: 32 96 27 27 (2239488)
I0406 14:04:12.784355 16519 net.cpp:67] Creating Layer conv2
I0406 14:04:12.784359 16519 net.cpp:394] conv2 <- norm1
I0406 14:04:12.784365 16519 net.cpp:356] conv2 -> conv2
I0406 14:04:12.784371 16519 net.cpp:96] Setting up conv2
I0406 14:04:12.794569 16519 net.cpp:103] Top shape: 32 256 27 27 (5971968)
I0406 14:04:12.794610 16519 net.cpp:67] Creating Layer relu2
I0406 14:04:12.794616 16519 net.cpp:394] relu2 <- conv2
I0406 14:04:12.794626 16519 net.cpp:345] relu2 -> conv2 (in-place)
I0406 14:04:12.794672 16519 net.cpp:96] Setting up relu2
I0406 14:04:12.794680 16519 net.cpp:103] Top shape: 32 256 27 27 (5971968)
I0406 14:04:12.794687 16519 net.cpp:67] Creating Layer pool2
I0406 14:04:12.794692 16519 net.cpp:394] pool2 <- conv2
I0406 14:04:12.794697 16519 net.cpp:356] pool2 -> pool2
I0406 14:04:12.794704 16519 net.cpp:96] Setting up pool2
I0406 14:04:12.794713 16519 net.cpp:103] Top shape: 32 256 13 13 (1384448)
I0406 14:04:12.794721 16519 net.cpp:67] Creating Layer norm2
I0406 14:04:12.794728 16519 net.cpp:394] norm2 <- pool2
I0406 14:04:12.794735 16519 net.cpp:356] norm2 -> norm2
I0406 14:04:12.794741 16519 net.cpp:96] Setting up norm2
I0406 14:04:12.794746 16519 net.cpp:103] Top shape: 32 256 13 13 (1384448)
I0406 14:04:12.794754 16519 net.cpp:67] Creating Layer conv3
I0406 14:04:12.794757 16519 net.cpp:394] conv3 <- norm2
I0406 14:04:12.794766 16519 net.cpp:356] conv3 -> conv3
I0406 14:04:12.794773 16519 net.cpp:96] Setting up conv3
I0406 14:04:12.823832 16519 net.cpp:103] Top shape: 32 384 13 13 (2076672)
I0406 14:04:12.823873 16519 net.cpp:67] Creating Layer relu3
I0406 14:04:12.823879 16519 net.cpp:394] relu3 <- conv3
I0406 14:04:12.823889 16519 net.cpp:345] relu3 -> conv3 (in-place)
I0406 14:04:12.823897 16519 net.cpp:96] Setting up relu3
I0406 14:04:12.823904 16519 net.cpp:103] Top shape: 32 384 13 13 (2076672)
I0406 14:04:12.823912 16519 net.cpp:67] Creating Layer conv4
I0406 14:04:12.823916 16519 net.cpp:394] conv4 <- conv3
I0406 14:04:12.823930 16519 net.cpp:356] conv4 -> conv4
I0406 14:04:12.823938 16519 net.cpp:96] Setting up conv4
I0406 14:04:12.845890 16519 net.cpp:103] Top shape: 32 384 13 13 (2076672)
I0406 14:04:12.845916 16519 net.cpp:67] Creating Layer relu4
I0406 14:04:12.845921 16519 net.cpp:394] relu4 <- conv4
I0406 14:04:12.845927 16519 net.cpp:345] relu4 -> conv4 (in-place)
I0406 14:04:12.845934 16519 net.cpp:96] Setting up relu4
I0406 14:04:12.845940 16519 net.cpp:103] Top shape: 32 384 13 13 (2076672)
I0406 14:04:12.845950 16519 net.cpp:67] Creating Layer conv5
I0406 14:04:12.845954 16519 net.cpp:394] conv5 <- conv4
I0406 14:04:12.845960 16519 net.cpp:356] conv5 -> conv5
I0406 14:04:12.845966 16519 net.cpp:96] Setting up conv5
I0406 14:04:12.860800 16519 net.cpp:103] Top shape: 32 256 13 13 (1384448)
I0406 14:04:12.860827 16519 net.cpp:67] Creating Layer relu5
I0406 14:04:12.860833 16519 net.cpp:394] relu5 <- conv5
I0406 14:04:12.860839 16519 net.cpp:345] relu5 -> conv5 (in-place)
I0406 14:04:12.860846 16519 net.cpp:96] Setting up relu5
I0406 14:04:12.860852 16519 net.cpp:103] Top shape: 32 256 13 13 (1384448)
I0406 14:04:12.860858 16519 net.cpp:67] Creating Layer pool5
I0406 14:04:12.860862 16519 net.cpp:394] pool5 <- conv5
I0406 14:04:12.860868 16519 net.cpp:356] pool5 -> pool5
I0406 14:04:12.860878 16519 net.cpp:96] Setting up pool5
I0406 14:04:12.860888 16519 net.cpp:103] Top shape: 32 256 6 6 (294912)
I0406 14:04:12.860898 16519 net.cpp:67] Creating Layer fc6
I0406 14:04:12.860901 16519 net.cpp:394] fc6 <- pool5
I0406 14:04:12.860910 16519 net.cpp:356] fc6 -> fc6
I0406 14:04:12.860916 16519 net.cpp:96] Setting up fc6
I0406 14:04:14.085851 16519 net.cpp:103] Top shape: 32 4096 1 1 (131072)
I0406 14:04:14.085923 16519 net.cpp:67] Creating Layer relu6
I0406 14:04:14.085937 16519 net.cpp:394] relu6 <- fc6
I0406 14:04:14.085957 16519 net.cpp:345] relu6 -> fc6 (in-place)
I0406 14:04:14.085973 16519 net.cpp:96] Setting up relu6
I0406 14:04:14.086011 16519 net.cpp:103] Top shape: 32 4096 1 1 (131072)
I0406 14:04:14.086037 16519 net.cpp:67] Creating Layer drop6
I0406 14:04:14.086045 16519 net.cpp:394] drop6 <- fc6
I0406 14:04:14.086051 16519 net.cpp:345] drop6 -> fc6 (in-place)
I0406 14:04:14.086057 16519 net.cpp:96] Setting up drop6
I0406 14:04:14.086062 16519 net.cpp:103] Top shape: 32 4096 1 1 (131072)
I0406 14:04:14.086072 16519 net.cpp:67] Creating Layer fc7
I0406 14:04:14.086076 16519 net.cpp:394] fc7 <- fc6
I0406 14:04:14.086083 16519 net.cpp:356] fc7 -> fc7
I0406 14:04:14.086091 16519 net.cpp:96] Setting up fc7
I0406 14:04:14.629596 16519 net.cpp:103] Top shape: 32 4096 1 1 (131072)
I0406 14:04:14.629688 16519 net.cpp:67] Creating Layer relu7
I0406 14:04:14.629696 16519 net.cpp:394] relu7 <- fc7
I0406 14:04:14.629704 16519 net.cpp:345] relu7 -> fc7 (in-place)
I0406 14:04:14.629714 16519 net.cpp:96] Setting up relu7
I0406 14:04:14.629735 16519 net.cpp:103] Top shape: 32 4096 1 1 (131072)
I0406 14:04:14.629744 16519 net.cpp:67] Creating Layer drop7
I0406 14:04:14.629747 16519 net.cpp:394] drop7 <- fc7
I0406 14:04:14.629755 16519 net.cpp:345] drop7 -> fc7 (in-place)
I0406 14:04:14.629761 16519 net.cpp:96] Setting up drop7
I0406 14:04:14.629766 16519 net.cpp:103] Top shape: 32 4096 1 1 (131072)
I0406 14:04:14.629773 16519 net.cpp:67] Creating Layer fc8_deepfashion
I0406 14:04:14.629777 16519 net.cpp:394] fc8_deepfashion <- fc7
I0406 14:04:14.629786 16519 net.cpp:356] fc8_deepfashion -> fc8_deepfashion
I0406 14:04:14.629793 16519 net.cpp:96] Setting up fc8_deepfashion
I0406 14:04:14.636312 16519 net.cpp:103] Top shape: 32 48 1 1 (1536)
I0406 14:04:14.636334 16519 net.cpp:67] Creating Layer fc8_deepfashion_encode
I0406 14:04:14.636340 16519 net.cpp:394] fc8_deepfashion_encode <- fc8_deepfashion
I0406 14:04:14.636348 16519 net.cpp:356] fc8_deepfashion_encode -> fc8_deepfashion_encode
I0406 14:04:14.636354 16519 net.cpp:96] Setting up fc8_deepfashion_encode
I0406 14:04:14.636363 16519 net.cpp:103] Top shape: 32 48 1 1 (1536)
I0406 14:04:14.636369 16519 net.cpp:67] Creating Layer fc8_deepfashion_encode_fc8_deepfashion_encode_0_split
I0406 14:04:14.636373 16519 net.cpp:394] fc8_deepfashion_encode_fc8_deepfashion_encode_0_split <- fc8_deepfashion_encode
I0406 14:04:14.636379 16519 net.cpp:356] fc8_deepfashion_encode_fc8_deepfashion_encode_0_split -> fc8_deepfashion_encode_fc8_deepfashion_encode_0_split_0
I0406 14:04:14.636389 16519 net.cpp:356] fc8_deepfashion_encode_fc8_deepfashion_encode_0_split -> fc8_deepfashion_encode_fc8_deepfashion_encode_0_split_1
I0406 14:04:14.636395 16519 net.cpp:96] Setting up fc8_deepfashion_encode_fc8_deepfashion_encode_0_split
I0406 14:04:14.636400 16519 net.cpp:103] Top shape: 32 48 1 1 (1536)
I0406 14:04:14.636404 16519 net.cpp:103] Top shape: 32 48 1 1 (1536)
I0406 14:04:14.636410 16519 net.cpp:67] Creating Layer fc8_pascal_label_mod
I0406 14:04:14.636415 16519 net.cpp:394] fc8_pascal_label_mod <- fc8_deepfashion_encode_fc8_deepfashion_encode_0_split_0
I0406 14:04:14.636420 16519 net.cpp:356] fc8_pascal_label_mod -> fc8_pascal_label_mod
I0406 14:04:14.636426 16519 net.cpp:96] Setting up fc8_pascal_label_mod
I0406 14:04:14.636453 16519 net.cpp:103] Top shape: 32 10 1 1 (320)
I0406 14:04:14.636473 16519 net.cpp:67] Creating Layer fc8_pascal_label_mod_fc8_pascal_label_mod_0_split
I0406 14:04:14.636478 16519 net.cpp:394] fc8_pascal_label_mod_fc8_pascal_label_mod_0_split <- fc8_pascal_label_mod
I0406 14:04:14.636487 16519 net.cpp:356] fc8_pascal_label_mod_fc8_pascal_label_mod_0_split -> fc8_pascal_label_mod_fc8_pascal_label_mod_0_split_0
I0406 14:04:14.636493 16519 net.cpp:356] fc8_pascal_label_mod_fc8_pascal_label_mod_0_split -> fc8_pascal_label_mod_fc8_pascal_label_mod_0_split_1
I0406 14:04:14.636499 16519 net.cpp:96] Setting up fc8_pascal_label_mod_fc8_pascal_label_mod_0_split
I0406 14:04:14.636503 16519 net.cpp:103] Top shape: 32 10 1 1 (320)
I0406 14:04:14.636507 16519 net.cpp:103] Top shape: 32 10 1 1 (320)
I0406 14:04:14.636513 16519 net.cpp:67] Creating Layer fc8_pascal_color_mod
I0406 14:04:14.636518 16519 net.cpp:394] fc8_pascal_color_mod <- fc8_deepfashion_encode_fc8_deepfashion_encode_0_split_1
I0406 14:04:14.636525 16519 net.cpp:356] fc8_pascal_color_mod -> fc8_pascal_color_mod
I0406 14:04:14.636531 16519 net.cpp:96] Setting up fc8_pascal_color_mod
I0406 14:04:14.636566 16519 net.cpp:103] Top shape: 32 16 1 1 (512)
I0406 14:04:14.636584 16519 net.cpp:67] Creating Layer fc8_pascal_color_mod_fc8_pascal_color_mod_0_split
I0406 14:04:14.636590 16519 net.cpp:394] fc8_pascal_color_mod_fc8_pascal_color_mod_0_split <- fc8_pascal_color_mod
I0406 14:04:14.636597 16519 net.cpp:356] fc8_pascal_color_mod_fc8_pascal_color_mod_0_split -> fc8_pascal_color_mod_fc8_pascal_color_mod_0_split_0
I0406 14:04:14.636622 16519 net.cpp:356] fc8_pascal_color_mod_fc8_pascal_color_mod_0_split -> fc8_pascal_color_mod_fc8_pascal_color_mod_0_split_1
I0406 14:04:14.636629 16519 net.cpp:96] Setting up fc8_pascal_color_mod_fc8_pascal_color_mod_0_split
I0406 14:04:14.636636 16519 net.cpp:103] Top shape: 32 16 1 1 (512)
I0406 14:04:14.636641 16519 net.cpp:103] Top shape: 32 16 1 1 (512)
I0406 14:04:14.636648 16519 net.cpp:67] Creating Layer loss
I0406 14:04:14.636652 16519 net.cpp:394] loss <- fc8_pascal_label_mod_fc8_pascal_label_mod_0_split_0
I0406 14:04:14.636658 16519 net.cpp:394] loss <- labels0_sliceL_0_split_0
I0406 14:04:14.636663 16519 net.cpp:356] loss -> (automatic)
I0406 14:04:14.636668 16519 net.cpp:96] Setting up loss
I0406 14:04:14.636675 16519 net.cpp:103] Top shape: 1 1 1 1 (1)
I0406 14:04:14.636680 16519 net.cpp:109]     with loss weight 1
I0406 14:04:14.636701 16519 net.cpp:67] Creating Layer loss
I0406 14:04:14.636715 16519 net.cpp:394] loss <- fc8_pascal_color_mod_fc8_pascal_color_mod_0_split_0
I0406 14:04:14.636720 16519 net.cpp:394] loss <- labels1_sliceL_1_split_0
I0406 14:04:14.636725 16519 net.cpp:356] loss -> (automatic)
I0406 14:04:14.636734 16519 net.cpp:96] Setting up loss
I0406 14:04:14.636744 16519 net.cpp:103] Top shape: 1 1 1 1 (1)
I0406 14:04:14.636747 16519 net.cpp:109]     with loss weight 1
I0406 14:04:14.636755 16519 net.cpp:67] Creating Layer accuracy
I0406 14:04:14.636760 16519 net.cpp:394] accuracy <- fc8_pascal_color_mod_fc8_pascal_color_mod_0_split_1
I0406 14:04:14.636765 16519 net.cpp:394] accuracy <- labels1_sliceL_1_split_1
I0406 14:04:14.636778 16519 net.cpp:356] accuracy -> colorAccuracy
I0406 14:04:14.636787 16519 net.cpp:96] Setting up accuracy
I0406 14:04:14.636797 16519 net.cpp:103] Top shape: 1 1 1 1 (1)
I0406 14:04:14.636803 16519 net.cpp:67] Creating Layer accuracy1
I0406 14:04:14.636807 16519 net.cpp:394] accuracy1 <- fc8_pascal_label_mod_fc8_pascal_label_mod_0_split_1
I0406 14:04:14.636811 16519 net.cpp:394] accuracy1 <- labels0_sliceL_0_split_1
I0406 14:04:14.636816 16519 net.cpp:356] accuracy1 -> labelAccuracy
I0406 14:04:14.636822 16519 net.cpp:96] Setting up accuracy1
I0406 14:04:14.636826 16519 net.cpp:103] Top shape: 1 1 1 1 (1)
I0406 14:04:14.636831 16519 net.cpp:67] Creating Layer silence
I0406 14:04:14.636836 16519 net.cpp:394] silence <- random
I0406 14:04:14.636839 16519 net.cpp:96] Setting up silence
I0406 14:04:14.636843 16519 net.cpp:172] silence does not need backward computation.
I0406 14:04:14.636847 16519 net.cpp:172] accuracy1 does not need backward computation.
I0406 14:04:14.636850 16519 net.cpp:172] accuracy does not need backward computation.
…
