…
  top: "data"
  top: "random"
  name: "data"
  type: DATA
  data_param {
    source: "/data/deepfashion/color_label_multilabel/color_label_multilabel_TRAIN"
    batch_size: 32
    backend: LMDB
  }
  include {
    phase: TRAIN
  }
  transform_param {
    mirror: true
    crop_size: 227
    mean_file: "../../../data/ilsvrc12/imagenet_mean.binaryproto"
  }
}
layers {
  top: "labels"
  name: "labels"
  type: DATA
  data_param {
    source: "/data/deepfashion/color_label_multilabel/color_label_multilabel_TRAIN_ALT"
    batch_size: 32
    backend: LMDB
  }
  include {
    phase: TRAIN
  }
}
layers {
  bottom: "labels"
  top: "labels0"
  top: "labels1"
  name: "sliceL"
  type: SLICE
  slice_param {
    slice_point: 1
  }
}
layers {
  bottom: "data"
  top: "conv1"
  name: "conv1"
  type: CONVOLUTION
  blobs_lr: 0
  blobs_lr: 0
  weight_decay: 1
  weight_decay: 0
  convolution_param {
    num_output: 96
    kernel_size: 11
    stride: 4
    weight_filler {
      type: "gaussian"
      std: 0.01
    }
    bias_filler {
      type: "constant"
      value: 0
    }
  }
}
layers {
  bottom: "conv1"
  top: "conv1"
  name: "relu1"
  type: RELU
}
layers {
  bottom: "conv1"
  top: "pool1"
  name: "pool1"
  type: POOLING
  pooling_param {
    pool: MAX
    kernel_size: 3
    stride: 2
  }
}
layers {
  bottom: "pool1"
  top: "norm1"
  name: "norm1"
  type: LRN
  lrn_param {
    local_size: 5
    alpha: 0.0001
    beta: 0.75
  }
}
layers {
  bottom: "norm1"
  top: "conv2"
  name: "conv2"
  type: CONVOLUTION
  blobs_lr: 0
  blobs_lr: 0
  weight_decay: 1
  weight_decay: 0
  convolution_param {
    num_output: 256
    pad: 2
    kernel_size: 5
    group: 2
    weight_filler {
      type: "gaussian"
      std: 0.01
    }
    bias_filler {
      type: "constant"
      value: 1
    }
  }
}
layers {
  bottom: "conv2"
  top: "conv2"
  name: "relu2"
  type: RELU
}
layers {
  bottom: "conv2"
  top: "pool2"
  name: "pool2"
  type: POOLING
  pooling_param {
    pool: MAX
    kernel_size: 3
    stride: 2
  }
}
layers {
  bottom: "pool2"
  top: "norm2"
  name: "norm2"
  type: LRN
  lrn_param {
    local_size: 5
    alpha: 0.0001
    beta: 0.75
  }
}
layers {
  bottom: "norm2"
  top: "conv3"
  name: "conv3"
  type: CONVOLUTION
  blobs_lr: 0
  blobs_lr: 0
  weight_decay: 1
  weight_decay: 0
  convolution_param {
    num_output: 384
    pad: 1
    kernel_size: 3
    weight_filler {
      type: "gaussian"
      std: 0.01
    }
    bias_filler {
      type: "constant"
      value: 0
    }
  }
}
layers {
  bottom: "conv3"
  top: "conv3"
  name: "relu3"
  type: RELU
}
layers {
  bottom: "conv3"
  top: "conv4"
  name: "conv4"
  type: CONVOLUTION
  blobs_lr: 0
  blobs_lr: 0
  weight_decay: 1
  weight_decay: 0
  convolution_param {
    num_output: 384
    pad: 1
    kernel_size: 3
    group: 2
    weight_filler {
      type: "gaussian"
      std: 0.01
    }
    bias_filler {
      type: "constant"
      value: 1
    }
  }
}
layers {
  bottom: "conv4"
  top: "conv4"
  name: "relu4"
  type: RELU
}
layers {
  bottom: "conv4"
  top: "conv5"
  name: "conv5"
  type: CONVOLUTION
  blobs_lr: 1
  blobs_lr: 2
  weight_decay: 1
  weight_decay: 0
  convolution_param {
    num_output: 256
    pad: 1
    kernel_size: 3
    group: 2
    weight_filler {
      type: "gaussian"
      std: 0.01
    }
    bias_filler {
      type: "constant"
      value: 1
    }
  }
}
layers {
  bottom: "conv5"
  top: "conv5"
  name: "relu5"
  type: RELU
}
layers {
  bottom: "conv5"
  top: "pool5"
  name: "pool5"
  type: POOLING
  pooling_param {
    pool: MAX
    kernel_size: 3
    stride: 2
  }
}
layers {
  bottom: "pool5"
  top: "fc6"
  name: "fc6"
  type: INNER_PRODUCT
  blobs_lr: 1
  blobs_lr: 2
  weight_decay: 1
  weight_decay: 0
  inner_product_param {
    num_output: 4096
    weight_filler {
      type: "gaussian"
      std: 0.005
    }
    bias_filler {
      type: "constant"
      value: 1
    }
  }
}
layers {
  bottom: "fc6"
  top: "fc6"
  name: "relu6"
  type: RELU
}
layers {
  bottom: "fc6"
  top: "fc6"
  name: "drop6"
  type: DROPOUT
  dropout_param {
    dropout_ratio: 0.5
  }
}
layers {
  bottom: "fc6"
  top: "fc7"
  name: "fc7"
  type: INNER_PRODUCT
  blobs_lr: 1
  blobs_lr: 2
  weight_decay: 1
  weight_decay: 0
  inner_product_param {
    num_output: 4096
    weight_filler {
      type: "gaussian"
      std: 0.005
    }
    bias_filler {
      type: "constant"
      value: 1
    }
  }
}
layers {
  bottom: "fc7"
  top: "fc7"
  name: "relu7"
  type: RELU
}
layers {
  bottom: "fc7"
  top: "fc7"
  name: "drop7"
  type: DROPOUT
  dropout_param {
    dropout_ratio: 0.5
  }
}
layers {
  bottom: "fc7"
  top: "fc8_deepfashion"
  name: "fc8_deepfashion"
  type: INNER_PRODUCT
  blobs_lr: 1
  blobs_lr: 2
  weight_decay: 1
  weight_decay: 0
  inner_product_param {
    num_output: 48
    weight_filler {
      type: "gaussian"
      std: 0.01
    }
    bias_filler {
      type: "constant"
      value: 0
    }
  }
}
layers {
  bottom: "fc8_deepfashion"
  top: "fc8_deepfashion_encode"
  name: "fc8_deepfashion_encode"
  type: SIGMOID
}
layers {
  bottom: "fc8_deepfashion_encode"
  top: "fc8_pascal_label_mod"
  name: "fc8_pascal_label_mod"
  type: INNER_PRODUCT
  blobs_lr: 1
  blobs_lr: 2
  weight_decay: 1
  weight_decay: 0
  inner_product_param {
    num_output: 10
    weight_filler {
      type: "gaussian"
      std: 0.01
    }
    bias_filler {
      type: "constant"
      value: 0
    }
  }
}
layers {
  bottom: "fc8_deepfashion_encode"
  top: "fc8_pascal_color_mod"
  name: "fc8_pascal_color_mod"
  type: INNER_PRODUCT
  blobs_lr: 1
  blobs_lr: 2
  weight_decay: 1
  weight_decay: 0
  inner_product_param {
    num_output: 16
    weight_filler {
      type: "gaussian"
      std: 0.01
    }
    bias_filler {
      type: "constant"
      value: 0
    }
  }
}
layers {
  bottom: "fc8_pascal_label_mod"
  bottom: "labels0"
  name: "loss"
  type: SOFTMAX_LOSS
}
layers {
  bottom: "fc8_pascal_color_mod"
  bottom: "labels1"
  name: "loss"
  type: SOFTMAX_LOSS
}
layers {
  bottom: "random"
  name: "silence"
  type: SILENCE
}
state {
  phase: TRAIN
}
I0406 14:25:48.417109 24002 net.cpp:67] Creating Layer data
I0406 14:25:48.417129 24002 net.cpp:356] data -> data
I0406 14:25:48.417146 24002 net.cpp:356] data -> random
I0406 14:25:48.417160 24002 net.cpp:96] Setting up data
I0406 14:25:48.417275 24002 data_layer.cpp:68] Opening lmdb /data/deepfashion/color_label_multilabel/color_label_multilabel_TRAIN
I0406 14:25:48.417475 24002 data_layer.cpp:128] output data size: 32,3,227,227
I0406 14:25:48.417484 24002 base_data_layer.cpp:36] Loading mean file from../../../data/ilsvrc12/imagenet_mean.binaryproto
I0406 14:25:48.425097 24002 net.cpp:103] Top shape: 32 3 227 227 (4946784)
I0406 14:25:48.425129 24002 net.cpp:103] Top shape: 32 1 1 1 (32)
I0406 14:25:48.425146 24002 net.cpp:67] Creating Layer labels
I0406 14:25:48.425154 24002 net.cpp:356] labels -> labels
I0406 14:25:48.425168 24002 net.cpp:96] Setting up labels
I0406 14:25:48.425282 24002 data_layer.cpp:68] Opening lmdb /data/deepfashion/color_label_multilabel/color_label_multilabel_TRAIN_ALT
I0406 14:25:48.425328 24002 data_layer.cpp:128] output data size: 32,2,1,1
I0406 14:25:48.425364 24002 net.cpp:103] Top shape: 32 2 1 1 (64)
I0406 14:25:48.425382 24002 net.cpp:67] Creating Layer sliceL
I0406 14:25:48.425389 24002 net.cpp:394] sliceL <- labels
I0406 14:25:48.425398 24002 net.cpp:356] sliceL -> labels0
I0406 14:25:48.425406 24002 net.cpp:356] sliceL -> labels1
I0406 14:25:48.425415 24002 net.cpp:96] Setting up sliceL
I0406 14:25:48.425426 24002 net.cpp:103] Top shape: 32 1 1 1 (32)
I0406 14:25:48.425429 24002 net.cpp:103] Top shape: 32 1 1 1 (32)
I0406 14:25:48.425437 24002 net.cpp:67] Creating Layer conv1
I0406 14:25:48.425441 24002 net.cpp:394] conv1 <- data
I0406 14:25:48.425451 24002 net.cpp:356] conv1 -> conv1
I0406 14:25:48.425459 24002 net.cpp:96] Setting up conv1
I0406 14:25:48.447895 24002 net.cpp:103] Top shape: 32 96 55 55 (9292800)
I0406 14:25:48.447953 24002 net.cpp:67] Creating Layer relu1
I0406 14:25:48.447962 24002 net.cpp:394] relu1 <- conv1
I0406 14:25:48.447969 24002 net.cpp:345] relu1 -> conv1 (in-place)
I0406 14:25:48.447978 24002 net.cpp:96] Setting up relu1
I0406 14:25:48.447989 24002 net.cpp:103] Top shape: 32 96 55 55 (9292800)
I0406 14:25:48.447996 24002 net.cpp:67] Creating Layer pool1
I0406 14:25:48.448001 24002 net.cpp:394] pool1 <- conv1
I0406 14:25:48.448006 24002 net.cpp:356] pool1 -> pool1
I0406 14:25:48.448014 24002 net.cpp:96] Setting up pool1
I0406 14:25:48.448036 24002 net.cpp:103] Top shape: 32 96 27 27 (2239488)
I0406 14:25:48.448052 24002 net.cpp:67] Creating Layer norm1
I0406 14:25:48.448057 24002 net.cpp:394] norm1 <- pool1
I0406 14:25:48.448063 24002 net.cpp:356] norm1 -> norm1
I0406 14:25:48.448070 24002 net.cpp:96] Setting up norm1
I0406 14:25:48.448077 24002 net.cpp:103] Top shape: 32 96 27 27 (2239488)
I0406 14:25:48.448088 24002 net.cpp:67] Creating Layer conv2
I0406 14:25:48.448098 24002 net.cpp:394] conv2 <- norm1
I0406 14:25:48.448104 24002 net.cpp:356] conv2 -> conv2
I0406 14:25:48.448112 24002 net.cpp:96] Setting up conv2
I0406 14:25:48.458420 24002 net.cpp:103] Top shape: 32 256 27 27 (5971968)
I0406 14:25:48.458446 24002 net.cpp:67] Creating Layer relu2
I0406 14:25:48.458451 24002 net.cpp:394] relu2 <- conv2
I0406 14:25:48.458459 24002 net.cpp:345] relu2 -> conv2 (in-place)
I0406 14:25:48.458466 24002 net.cpp:96] Setting up relu2
I0406 14:25:48.458472 24002 net.cpp:103] Top shape: 32 256 27 27 (5971968)
I0406 14:25:48.458478 24002 net.cpp:67] Creating Layer pool2
I0406 14:25:48.458482 24002 net.cpp:394] pool2 <- conv2
I0406 14:25:48.458490 24002 net.cpp:356] pool2 -> pool2
I0406 14:25:48.458497 24002 net.cpp:96] Setting up pool2
I0406 14:25:48.458504 24002 net.cpp:103] Top shape: 32 256 13 13 (1384448)
I0406 14:25:48.458509 24002 net.cpp:67] Creating Layer norm2
I0406 14:25:48.458514 24002 net.cpp:394] norm2 <- pool2
I0406 14:25:48.458519 24002 net.cpp:356] norm2 -> norm2
I0406 14:25:48.458525 24002 net.cpp:96] Setting up norm2
I0406 14:25:48.458531 24002 net.cpp:103] Top shape: 32 256 13 13 (1384448)
I0406 14:25:48.458539 24002 net.cpp:67] Creating Layer conv3
I0406 14:25:48.458541 24002 net.cpp:394] conv3 <- norm2
I0406 14:25:48.458549 24002 net.cpp:356] conv3 -> conv3
I0406 14:25:48.458555 24002 net.cpp:96] Setting up conv3
I0406 14:25:48.487414 24002 net.cpp:103] Top shape: 32 384 13 13 (2076672)
I0406 14:25:48.487444 24002 net.cpp:67] Creating Layer relu3
I0406 14:25:48.487449 24002 net.cpp:394] relu3 <- conv3
I0406 14:25:48.487455 24002 net.cpp:345] relu3 -> conv3 (in-place)
I0406 14:25:48.487462 24002 net.cpp:96] Setting up relu3
I0406 14:25:48.487468 24002 net.cpp:103] Top shape: 32 384 13 13 (2076672)
I0406 14:25:48.487478 24002 net.cpp:67] Creating Layer conv4
I0406 14:25:48.487483 24002 net.cpp:394] conv4 <- conv3
I0406 14:25:48.487490 24002 net.cpp:356] conv4 -> conv4
I0406 14:25:48.487498 24002 net.cpp:96] Setting up conv4
I0406 14:25:48.509639 24002 net.cpp:103] Top shape: 32 384 13 13 (2076672)
I0406 14:25:48.509663 24002 net.cpp:67] Creating Layer relu4
I0406 14:25:48.509670 24002 net.cpp:394] relu4 <- conv4
I0406 14:25:48.509702 24002 net.cpp:345] relu4 -> conv4 (in-place)
I0406 14:25:48.509712 24002 net.cpp:96] Setting up relu4
I0406 14:25:48.509719 24002 net.cpp:103] Top shape: 32 384 13 13 (2076672)
I0406 14:25:48.509727 24002 net.cpp:67] Creating Layer conv5
I0406 14:25:48.509732 24002 net.cpp:394] conv5 <- conv4
I0406 14:25:48.509739 24002 net.cpp:356] conv5 -> conv5
I0406 14:25:48.509747 24002 net.cpp:96] Setting up conv5
I0406 14:25:48.524507 24002 net.cpp:103] Top shape: 32 256 13 13 (1384448)
I0406 14:25:48.524534 24002 net.cpp:67] Creating Layer relu5
I0406 14:25:48.524540 24002 net.cpp:394] relu5 <- conv5
I0406 14:25:48.524546 24002 net.cpp:345] relu5 -> conv5 (in-place)
I0406 14:25:48.524552 24002 net.cpp:96] Setting up relu5
I0406 14:25:48.524559 24002 net.cpp:103] Top shape: 32 256 13 13 (1384448)
I0406 14:25:48.524565 24002 net.cpp:67] Creating Layer pool5
I0406 14:25:48.524569 24002 net.cpp:394] pool5 <- conv5
I0406 14:25:48.524574 24002 net.cpp:356] pool5 -> pool5
I0406 14:25:48.524581 24002 net.cpp:96] Setting up pool5
I0406 14:25:48.524588 24002 net.cpp:103] Top shape: 32 256 6 6 (294912)
I0406 14:25:48.524598 24002 net.cpp:67] Creating Layer fc6
I0406 14:25:48.524602 24002 net.cpp:394] fc6 <- pool5
I0406 14:25:48.524608 24002 net.cpp:356] fc6 -> fc6
I0406 14:25:48.524616 24002 net.cpp:96] Setting up fc6
I0406 14:25:49.744403 24002 net.cpp:103] Top shape: 32 4096 1 1 (131072)
I0406 14:25:49.744457 24002 net.cpp:67] Creating Layer relu6
I0406 14:25:49.744464 24002 net.cpp:394] relu6 <- fc6
I0406 14:25:49.744473 24002 net.cpp:345] relu6 -> fc6 (in-place)
I0406 14:25:49.744482 24002 net.cpp:96] Setting up relu6
I0406 14:25:49.744508 24002 net.cpp:103] Top shape: 32 4096 1 1 (131072)
I0406 14:25:49.744516 24002 net.cpp:67] Creating Layer drop6
I0406 14:25:49.744521 24002 net.cpp:394] drop6 <- fc6
I0406 14:25:49.744526 24002 net.cpp:345] drop6 -> fc6 (in-place)
I0406 14:25:49.744532 24002 net.cpp:96] Setting up drop6
I0406 14:25:49.744542 24002 net.cpp:103] Top shape: 32 4096 1 1 (131072)
I0406 14:25:49.744550 24002 net.cpp:67] Creating Layer fc7
I0406 14:25:49.744554 24002 net.cpp:394] fc7 <- fc6
I0406 14:25:49.744561 24002 net.cpp:356] fc7 -> fc7
I0406 14:25:49.744572 24002 net.cpp:96] Setting up fc7
I0406 14:25:50.287449 24002 net.cpp:103] Top shape: 32 4096 1 1 (131072)
I0406 14:25:50.287503 24002 net.cpp:67] Creating Layer relu7
I0406 14:25:50.287509 24002 net.cpp:394] relu7 <- fc7
I0406 14:25:50.287518 24002 net.cpp:345] relu7 -> fc7 (in-place)
I0406 14:25:50.287526 24002 net.cpp:96] Setting up relu7
I0406 14:25:50.287547 24002 net.cpp:103] Top shape: 32 4096 1 1 (131072)
I0406 14:25:50.287555 24002 net.cpp:67] Creating Layer drop7
I0406 14:25:50.287560 24002 net.cpp:394] drop7 <- fc7
I0406 14:25:50.287565 24002 net.cpp:345] drop7 -> fc7 (in-place)
I0406 14:25:50.287571 24002 net.cpp:96] Setting up drop7
I0406 14:25:50.287576 24002 net.cpp:103] Top shape: 32 4096 1 1 (131072)
I0406 14:25:50.287583 24002 net.cpp:67] Creating Layer fc8_deepfashion
I0406 14:25:50.287587 24002 net.cpp:394] fc8_deepfashion <- fc7
I0406 14:25:50.287595 24002 net.cpp:356] fc8_deepfashion -> fc8_deepfashion
I0406 14:25:50.287602 24002 net.cpp:96] Setting up fc8_deepfashion
I0406 14:25:50.294119 24002 net.cpp:103] Top shape: 32 48 1 1 (1536)
I0406 14:25:50.294138 24002 net.cpp:67] Creating Layer fc8_deepfashion_encode
I0406 14:25:50.294150 24002 net.cpp:394] fc8_deepfashion_encode <- fc8_deepfashion
I0406 14:25:50.294157 24002 net.cpp:356] fc8_deepfashion_encode -> fc8_deepfashion_encode
I0406 14:25:50.294163 24002 net.cpp:96] Setting up fc8_deepfashion_encode
I0406 14:25:50.294174 24002 net.cpp:103] Top shape: 32 48 1 1 (1536)
I0406 14:25:50.294181 24002 net.cpp:67] Creating Layer fc8_deepfashion_encode_fc8_deepfashion_encode_0_split
I0406 14:25:50.294185 24002 net.cpp:394] fc8_deepfashion_encode_fc8_deepfashion_encode_0_split <- fc8_deepfashion_encode
I0406 14:25:50.294191 24002 net.cpp:356] fc8_deepfashion_encode_fc8_deepfashion_encode_0_split -> fc8_deepfashion_encode_fc8_deepfashion_encode_0_split_0
I0406 14:25:50.294229 24002 net.cpp:356] fc8_deepfashion_encode_fc8_deepfashion_encode_0_split -> fc8_deepfashion_encode_fc8_deepfashion_encode_0_split_1
I0406 14:25:50.294237 24002 net.cpp:96] Setting up fc8_deepfashion_encode_fc8_deepfashion_encode_0_split
I0406 14:25:50.294245 24002 net.cpp:103] Top shape: 32 48 1 1 (1536)
I0406 14:25:50.294248 24002 net.cpp:103] Top shape: 32 48 1 1 (1536)
I0406 14:25:50.294255 24002 net.cpp:67] Creating Layer fc8_pascal_label_mod
I0406 14:25:50.294258 24002 net.cpp:394] fc8_pascal_label_mod <- fc8_deepfashion_encode_fc8_deepfashion_encode_0_split_0
I0406 14:25:50.294266 24002 net.cpp:356] fc8_pascal_label_mod -> fc8_pascal_label_mod
I0406 14:25:50.294272 24002 net.cpp:96] Setting up fc8_pascal_label_mod
I0406 14:25:50.294306 24002 net.cpp:103] Top shape: 32 10 1 1 (320)
I0406 14:25:50.294329 24002 net.cpp:67] Creating Layer fc8_pascal_color_mod
I0406 14:25:50.294334 24002 net.cpp:394] fc8_pascal_color_mod <- fc8_deepfashion_encode_fc8_deepfashion_encode_0_split_1
I0406 14:25:50.294339 24002 net.cpp:356] fc8_pascal_color_mod -> fc8_pascal_color_mod
I0406 14:25:50.294347 24002 net.cpp:96] Setting up fc8_pascal_color_mod
I0406 14:25:50.294381 24002 net.cpp:103] Top shape: 32 16 1 1 (512)
I0406 14:25:50.294397 24002 net.cpp:67] Creating Layer loss
I0406 14:25:50.294402 24002 net.cpp:394] loss <- fc8_pascal_label_mod
I0406 14:25:50.294407 24002 net.cpp:394] loss <- labels0
I0406 14:25:50.294414 24002 net.cpp:356] loss -> (automatic)
I0406 14:25:50.294420 24002 net.cpp:96] Setting up loss
I0406 14:25:50.294437 24002 net.cpp:103] Top shape: 1 1 1 1 (1)
I0406 14:25:50.294441 24002 net.cpp:109]     with loss weight 1
I0406 14:25:50.294494 24002 net.cpp:67] Creating Layer loss
I0406 14:25:50.294502 24002 net.cpp:394] loss <- fc8_pascal_color_mod
I0406 14:25:50.294507 24002 net.cpp:394] loss <- labels1
I0406 14:25:50.294512 24002 net.cpp:356] loss -> (automatic)
I0406 14:25:50.294517 24002 net.cpp:96] Setting up loss
I0406 14:25:50.294525 24002 net.cpp:103] Top shape: 1 1 1 1 (1)
I0406 14:25:50.294529 24002 net.cpp:109]     with loss weight 1
I0406 14:25:50.294536 24002 net.cpp:67] Creating Layer silence
I0406 14:25:50.294540 24002 net.cpp:394] silence <- random
I0406 14:25:50.294544 24002 net.cpp:96] Setting up silence
I0406 14:25:50.294555 24002 net.cpp:172] silence does not need backward computation.
I0406 14:25:50.294559 24002 net.cpp:170] loss needs backward computation.
…
layers {
  top: "data"
  top: "random"
  name: "data"
  type: DATA
  data_param {
    source: "/data/deepfashion/color_label_multilabel/color_label_multilabel_test"
    batch_size: 32
    backend: LMDB
  }
  include {
    phase: TEST
  }
  transform_param {
    mirror: true
    crop_size: 227
    mean_file: "../../../data/ilsvrc12/imagenet_mean.binaryproto"
  }
}
layers {
  top: "labels"
  name: "labels"
  type: DATA
  data_param {
    source: "/data/deepfashion/color_label_multilabel/color_label_multilabel_test_alt"
    batch_size: 32
    backend: LMDB
  }
  include {
    phase: TEST
  }
}
layers {
  bottom: "labels"
  top: "labels0"
  top: "labels1"
  name: "sliceL"
  type: SLICE
  slice_param {
    slice_point: 1
  }
}
layers {
  bottom: "data"
  top: "conv1"
  name: "conv1"
  type: CONVOLUTION
  blobs_lr: 0
  blobs_lr: 0
  weight_decay: 1
  weight_decay: 0
  convolution_param {
    num_output: 96
    kernel_size: 11
    stride: 4
    weight_filler {
      type: "gaussian"
      std: 0.01
    }
    bias_filler {
      type: "constant"
      value: 0
    }
  }
}
layers {
  bottom: "conv1"
  top: "conv1"
  name: "relu1"
  type: RELU
}
layers {
  bottom: "conv1"
  top: "pool1"
  name: "pool1"
  type: POOLING
  pooling_param {
    pool: MAX
    kernel_size: 3
    stride: 2
  }
}
layers {
  bottom: "pool1"
  top: "norm1"
  name: "norm1"
  type: LRN
  lrn_param {
    local_size: 5
    alpha: 0.0001
    beta: 0.75
  }
}
layers {
  bottom: "norm1"
  top: "conv2"
  name: "conv2"
  type: CONVOLUTION
  blobs_lr: 0
  blobs_lr: 0
  weight_decay: 1
  weight_decay: 0
  convolution_param {
    num_output: 256
    pad: 2
    kernel_size: 5
    group: 2
    weight_filler {
      type: "gaussian"
      std: 0.01
    }
    bias_filler {
      type: "constant"
      value: 1
    }
  }
}
layers {
  bottom: "conv2"
  top: "conv2"
  name: "relu2"
  type: RELU
}
layers {
  bottom: "conv2"
  top: "pool2"
  name: "pool2"
  type: POOLING
  pooling_param {
    pool: MAX
    kernel_size: 3
    stride: 2
  }
}
layers {
  bottom: "pool2"
  top: "norm2"
  name: "norm2"
  type: LRN
  lrn_param {
    local_size: 5
    alpha: 0.0001
    beta: 0.75
  }
}
layers {
  bottom: "norm2"
  top: "conv3"
  name: "conv3"
  type: CONVOLUTION
  blobs_lr: 0
  blobs_lr: 0
  weight_decay: 1
  weight_decay: 0
  convolution_param {
    num_output: 384
    pad: 1
    kernel_size: 3
    weight_filler {
      type: "gaussian"
      std: 0.01
    }
    bias_filler {
      type: "constant"
      value: 0
    }
  }
}
layers {
  bottom: "conv3"
  top: "conv3"
  name: "relu3"
  type: RELU
}
layers {
  bottom: "conv3"
  top: "conv4"
  name: "conv4"
  type: CONVOLUTION
  blobs_lr: 0
  blobs_lr: 0
  weight_decay: 1
  weight_decay: 0
  convolution_param {
    num_output: 384
    pad: 1
    kernel_size: 3
    group: 2
    weight_filler {
      type: "gaussian"
      std: 0.01
    }
    bias_filler {
      type: "constant"
      value: 1
    }
  }
}
layers {
  bottom: "conv4"
  top: "conv4"
  name: "relu4"
  type: RELU
}
layers {
  bottom: "conv4"
  top: "conv5"
  name: "conv5"
  type: CONVOLUTION
  blobs_lr: 1
  blobs_lr: 2
  weight_decay: 1
  weight_decay: 0
  convolution_param {
    num_output: 256
    pad: 1
    kernel_size: 3
    group: 2
    weight_filler {
      type: "gaussian"
      std: 0.01
    }
    bias_filler {
      type: "constant"
      value: 1
    }
  }
}
layers {
  bottom: "conv5"
  top: "conv5"
  name: "relu5"
  type: RELU
}
layers {
  bottom: "conv5"
  top: "pool5"
  name: "pool5"
  type: POOLING
  pooling_param {
    pool: MAX
    kernel_size: 3
    stride: 2
  }
}
layers {
  bottom: "pool5"
  top: "fc6"
  name: "fc6"
  type: INNER_PRODUCT
  blobs_lr: 1
  blobs_lr: 2
  weight_decay: 1
  weight_decay: 0
  inner_product_param {
    num_output: 4096
    weight_filler {
      type: "gaussian"
      std: 0.005
    }
    bias_filler {
      type: "constant"
      value: 1
    }
  }
}
layers {
  bottom: "fc6"
  top: "fc6"
  name: "relu6"
  type: RELU
}
layers {
  bottom: "fc6"
  top: "fc6"
  name: "drop6"
  type: DROPOUT
  dropout_param {
    dropout_ratio: 0.5
  }
}
layers {
  bottom: "fc6"
  top: "fc7"
  name: "fc7"
  type: INNER_PRODUCT
  blobs_lr: 1
  blobs_lr: 2
  weight_decay: 1
  weight_decay: 0
  inner_product_param {
    num_output: 4096
    weight_filler {
      type: "gaussian"
      std: 0.005
    }
    bias_filler {
      type: "constant"
      value: 1
    }
  }
}
layers {
  bottom: "fc7"
  top: "fc7"
  name: "relu7"
  type: RELU
}
layers {
  bottom: "fc7"
  top: "fc7"
  name: "drop7"
  type: DROPOUT
  dropout_param {
    dropout_ratio: 0.5
  }
}
layers {
  bottom: "fc7"
  top: "fc8_deepfashion"
  name: "fc8_deepfashion"
  type: INNER_PRODUCT
  blobs_lr: 1
  blobs_lr: 2
  weight_decay: 1
  weight_decay: 0
  inner_product_param {
    num_output: 48
    weight_filler {
      type: "gaussian"
      std: 0.01
    }
    bias_filler {
      type: "constant"
      value: 0
    }
  }
}
layers {
  bottom: "fc8_deepfashion"
  top: "fc8_deepfashion_encode"
  name: "fc8_deepfashion_encode"
  type: SIGMOID
}
layers {
  bottom: "fc8_deepfashion_encode"
  top: "fc8_pascal_label_mod"
  name: "fc8_pascal_label_mod"
  type: INNER_PRODUCT
  blobs_lr: 1
  blobs_lr: 2
  weight_decay: 1
  weight_decay: 0
  inner_product_param {
    num_output: 10
    weight_filler {
      type: "gaussian"
      std: 0.01
    }
    bias_filler {
      type: "constant"
      value: 0
    }
  }
}
layers {
  bottom: "fc8_deepfashion_encode"
  top: "fc8_pascal_color_mod"
  name: "fc8_pascal_color_mod"
  type: INNER_PRODUCT
  blobs_lr: 1
  blobs_lr: 2
  weight_decay: 1
  weight_decay: 0
  inner_product_param {
    num_output: 16
    weight_filler {
      type: "gaussian"
      std: 0.01
    }
    bias_filler {
      type: "constant"
      value: 0
    }
  }
}
layers {
  bottom: "fc8_pascal_label_mod"
  bottom: "labels0"
  name: "loss"
  type: SOFTMAX_LOSS
}
layers {
  bottom: "fc8_pascal_color_mod"
  bottom: "labels1"
  name: "loss"
  type: SOFTMAX_LOSS
}
layers {
  bottom: "fc8_pascal_color_mod"
  bottom: "labels1"
  top: "colorAccuracy"
  name: "accuracy"
  type: ACCURACY
  include {
    phase: TEST
  }
}
layers {
  bottom: "fc8_pascal_label_mod"
  bottom: "labels0"
  top: "labelAccuracy"
  name: "accuracy1"
  type: ACCURACY
  include {
    phase: TEST
  }
}
layers {
  bottom: "random"
  name: "silence"
  type: SILENCE
}
state {
  phase: TEST
}
I0406 14:25:50.295899 24002 net.cpp:67] Creating Layer data
I0406 14:25:50.295907 24002 net.cpp:356] data -> data
I0406 14:25:50.295917 24002 net.cpp:356] data -> random
I0406 14:25:50.295931 24002 net.cpp:96] Setting up data
I0406 14:25:50.295986 24002 data_layer.cpp:68] Opening lmdb /data/deepfashion/color_label_multilabel/color_label_multilabel_test
I0406 14:25:50.296176 24002 data_layer.cpp:128] output data size: 32,3,227,227
I0406 14:25:50.296192 24002 base_data_layer.cpp:36] Loading mean file from../../../data/ilsvrc12/imagenet_mean.binaryproto
I0406 14:25:50.303069 24002 net.cpp:103] Top shape: 32 3 227 227 (4946784)
I0406 14:25:50.303100 24002 net.cpp:103] Top shape: 32 1 1 1 (32)
I0406 14:25:50.303117 24002 net.cpp:67] Creating Layer labels
I0406 14:25:50.303124 24002 net.cpp:356] labels -> labels
I0406 14:25:50.303138 24002 net.cpp:96] Setting up labels
I0406 14:25:50.303203 24002 data_layer.cpp:68] Opening lmdb /data/deepfashion/color_label_multilabel/color_label_multilabel_test_alt
I0406 14:25:50.303231 24002 data_layer.cpp:128] output data size: 32,2,1,1
I0406 14:25:50.303278 24002 net.cpp:103] Top shape: 32 2 1 1 (64)
I0406 14:25:50.303298 24002 net.cpp:67] Creating Layer sliceL
I0406 14:25:50.303308 24002 net.cpp:394] sliceL <- labels
I0406 14:25:50.303319 24002 net.cpp:356] sliceL -> labels0
I0406 14:25:50.303333 24002 net.cpp:356] sliceL -> labels1
I0406 14:25:50.303345 24002 net.cpp:96] Setting up sliceL
I0406 14:25:50.303356 24002 net.cpp:103] Top shape: 32 1 1 1 (32)
I0406 14:25:50.303365 24002 net.cpp:103] Top shape: 32 1 1 1 (32)
I0406 14:25:50.303376 24002 net.cpp:67] Creating Layer labels0_sliceL_0_split
I0406 14:25:50.303383 24002 net.cpp:394] labels0_sliceL_0_split <- labels0
I0406 14:25:50.303395 24002 net.cpp:356] labels0_sliceL_0_split -> labels0_sliceL_0_split_0
I0406 14:25:50.303407 24002 net.cpp:356] labels0_sliceL_0_split -> labels0_sliceL_0_split_1
I0406 14:25:50.303424 24002 net.cpp:96] Setting up labels0_sliceL_0_split
I0406 14:25:50.303433 24002 net.cpp:103] Top shape: 32 1 1 1 (32)
I0406 14:25:50.303442 24002 net.cpp:103] Top shape: 32 1 1 1 (32)
I0406 14:25:50.303453 24002 net.cpp:67] Creating Layer labels1_sliceL_1_split
I0406 14:25:50.303462 24002 net.cpp:394] labels1_sliceL_1_split <- labels1
I0406 14:25:50.303472 24002 net.cpp:356] labels1_sliceL_1_split -> labels1_sliceL_1_split_0
I0406 14:25:50.303483 24002 net.cpp:356] labels1_sliceL_1_split -> labels1_sliceL_1_split_1
I0406 14:25:50.303496 24002 net.cpp:96] Setting up labels1_sliceL_1_split
I0406 14:25:50.303505 24002 net.cpp:103] Top shape: 32 1 1 1 (32)
I0406 14:25:50.303514 24002 net.cpp:103] Top shape: 32 1 1 1 (32)
I0406 14:25:50.303527 24002 net.cpp:67] Creating Layer conv1
I0406 14:25:50.303535 24002 net.cpp:394] conv1 <- data
I0406 14:25:50.303547 24002 net.cpp:356] conv1 -> conv1
I0406 14:25:50.303560 24002 net.cpp:96] Setting up conv1
I0406 14:25:50.304793 24002 net.cpp:103] Top shape: 32 96 55 55 (9292800)
I0406 14:25:50.304827 24002 net.cpp:67] Creating Layer relu1
I0406 14:25:50.304837 24002 net.cpp:394] relu1 <- conv1
I0406 14:25:50.304849 24002 net.cpp:345] relu1 -> conv1 (in-place)
I0406 14:25:50.304862 24002 net.cpp:96] Setting up relu1
I0406 14:25:50.304874 24002 net.cpp:103] Top shape: 32 96 55 55 (9292800)
I0406 14:25:50.304888 24002 net.cpp:67] Creating Layer pool1
I0406 14:25:50.304894 24002 net.cpp:394] pool1 <- conv1
I0406 14:25:50.304905 24002 net.cpp:356] pool1 -> pool1
I0406 14:25:50.304918 24002 net.cpp:96] Setting up pool1
I0406 14:25:50.304934 24002 net.cpp:103] Top shape: 32 96 27 27 (2239488)
I0406 14:25:50.304947 24002 net.cpp:67] Creating Layer norm1
I0406 14:25:50.304965 24002 net.cpp:394] norm1 <- pool1
I0406 14:25:50.304976 24002 net.cpp:356] norm1 -> norm1
I0406 14:25:50.304987 24002 net.cpp:96] Setting up norm1
I0406 14:25:50.304997 24002 net.cpp:103] Top shape: 32 96 27 27 (2239488)
I0406 14:25:50.305011 24002 net.cpp:67] Creating Layer conv2
I0406 14:25:50.305017 24002 net.cpp:394] conv2 <- norm1
I0406 14:25:50.305029 24002 net.cpp:356] conv2 -> conv2
I0406 14:25:50.305042 24002 net.cpp:96] Setting up conv2
I0406 14:25:50.315243 24002 net.cpp:103] Top shape: 32 256 27 27 (5971968)
I0406 14:25:50.315292 24002 net.cpp:67] Creating Layer relu2
I0406 14:25:50.315301 24002 net.cpp:394] relu2 <- conv2
I0406 14:25:50.315325 24002 net.cpp:345] relu2 -> conv2 (in-place)
I0406 14:25:50.315338 24002 net.cpp:96] Setting up relu2
I0406 14:25:50.315384 24002 net.cpp:103] Top shape: 32 256 27 27 (5971968)
I0406 14:25:50.315409 24002 net.cpp:67] Creating Layer pool2
I0406 14:25:50.315418 24002 net.cpp:394] pool2 <- conv2
I0406 14:25:50.315430 24002 net.cpp:356] pool2 -> pool2
I0406 14:25:50.315443 24002 net.cpp:96] Setting up pool2
I0406 14:25:50.315459 24002 net.cpp:103] Top shape: 32 256 13 13 (1384448)
I0406 14:25:50.315477 24002 net.cpp:67] Creating Layer norm2
I0406 14:25:50.315488 24002 net.cpp:394] norm2 <- pool2
I0406 14:25:50.315500 24002 net.cpp:356] norm2 -> norm2
I0406 14:25:50.315510 24002 net.cpp:96] Setting up norm2
I0406 14:25:50.315520 24002 net.cpp:103] Top shape: 32 256 13 13 (1384448)
I0406 14:25:50.315536 24002 net.cpp:67] Creating Layer conv3
I0406 14:25:50.315544 24002 net.cpp:394] conv3 <- norm2
I0406 14:25:50.315557 24002 net.cpp:356] conv3 -> conv3
I0406 14:25:50.315568 24002 net.cpp:96] Setting up conv3
I0406 14:25:50.344900 24002 net.cpp:103] Top shape: 32 384 13 13 (2076672)
I0406 14:25:50.344954 24002 net.cpp:67] Creating Layer relu3
I0406 14:25:50.344964 24002 net.cpp:394] relu3 <- conv3
I0406 14:25:50.344976 24002 net.cpp:345] relu3 -> conv3 (in-place)
I0406 14:25:50.344988 24002 net.cpp:96] Setting up relu3
I0406 14:25:50.345002 24002 net.cpp:103] Top shape: 32 384 13 13 (2076672)
I0406 14:25:50.345021 24002 net.cpp:67] Creating Layer conv4
I0406 14:25:50.345037 24002 net.cpp:394] conv4 <- conv3
I0406 14:25:50.345051 24002 net.cpp:356] conv4 -> conv4
I0406 14:25:50.345067 24002 net.cpp:96] Setting up conv4
I0406 14:25:50.366700 24002 net.cpp:103] Top shape: 32 384 13 13 (2076672)
I0406 14:25:50.366734 24002 net.cpp:67] Creating Layer relu4
I0406 14:25:50.366744 24002 net.cpp:394] relu4 <- conv4
I0406 14:25:50.366755 24002 net.cpp:345] relu4 -> conv4 (in-place)
I0406 14:25:50.366765 24002 net.cpp:96] Setting up relu4
I0406 14:25:50.366778 24002 net.cpp:103] Top shape: 32 384 13 13 (2076672)
I0406 14:25:50.366796 24002 net.cpp:67] Creating Layer conv5
I0406 14:25:50.366804 24002 net.cpp:394] conv5 <- conv4
I0406 14:25:50.366816 24002 net.cpp:356] conv5 -> conv5
I0406 14:25:50.366828 24002 net.cpp:96] Setting up conv5
I0406 14:25:50.381695 24002 net.cpp:103] Top shape: 32 256 13 13 (1384448)
I0406 14:25:50.381728 24002 net.cpp:67] Creating Layer relu5
I0406 14:25:50.381737 24002 net.cpp:394] relu5 <- conv5
I0406 14:25:50.381752 24002 net.cpp:345] relu5 -> conv5 (in-place)
I0406 14:25:50.381763 24002 net.cpp:96] Setting up relu5
I0406 14:25:50.381777 24002 net.cpp:103] Top shape: 32 256 13 13 (1384448)
I0406 14:25:50.381794 24002 net.cpp:67] Creating Layer pool5
I0406 14:25:50.381811 24002 net.cpp:394] pool5 <- conv5
I0406 14:25:50.381824 24002 net.cpp:356] pool5 -> pool5
I0406 14:25:50.381839 24002 net.cpp:96] Setting up pool5
I0406 14:25:50.381855 24002 net.cpp:103] Top shape: 32 256 6 6 (294912)
I0406 14:25:50.381875 24002 net.cpp:67] Creating Layer fc6
I0406 14:25:50.381883 24002 net.cpp:394] fc6 <- pool5
I0406 14:25:50.381896 24002 net.cpp:356] fc6 -> fc6
I0406 14:25:50.381907 24002 net.cpp:96] Setting up fc6
I0406 14:25:51.611169 24002 net.cpp:103] Top shape: 32 4096 1 1 (131072)
I0406 14:25:51.611228 24002 net.cpp:67] Creating Layer relu6
I0406 14:25:51.611239 24002 net.cpp:394] relu6 <- fc6
I0406 14:25:51.611255 24002 net.cpp:345] relu6 -> fc6 (in-place)
I0406 14:25:51.611269 24002 net.cpp:96] Setting up relu6
I0406 14:25:51.611299 24002 net.cpp:103] Top shape: 32 4096 1 1 (131072)
I0406 14:25:51.611320 24002 net.cpp:67] Creating Layer drop6
I0406 14:25:51.611330 24002 net.cpp:394] drop6 <- fc6
I0406 14:25:51.611340 24002 net.cpp:345] drop6 -> fc6 (in-place)
I0406 14:25:51.611351 24002 net.cpp:96] Setting up drop6
I0406 14:25:51.611361 24002 net.cpp:103] Top shape: 32 4096 1 1 (131072)
I0406 14:25:51.611372 24002 net.cpp:67] Creating Layer fc7
I0406 14:25:51.611380 24002 net.cpp:394] fc7 <- fc6
I0406 14:25:51.611395 24002 net.cpp:356] fc7 -> fc7
I0406 14:25:51.611409 24002 net.cpp:96] Setting up fc7
I0406 14:25:52.160393 24002 net.cpp:103] Top shape: 32 4096 1 1 (131072)
I0406 14:25:52.160495 24002 net.cpp:67] Creating Layer relu7
I0406 14:25:52.160506 24002 net.cpp:394] relu7 <- fc7
I0406 14:25:52.160518 24002 net.cpp:345] relu7 -> fc7 (in-place)
I0406 14:25:52.160531 24002 net.cpp:96] Setting up relu7
I0406 14:25:52.160557 24002 net.cpp:103] Top shape: 32 4096 1 1 (131072)
I0406 14:25:52.160569 24002 net.cpp:67] Creating Layer drop7
I0406 14:25:52.160578 24002 net.cpp:394] drop7 <- fc7
I0406 14:25:52.160588 24002 net.cpp:345] drop7 -> fc7 (in-place)
I0406 14:25:52.160598 24002 net.cpp:96] Setting up drop7
I0406 14:25:52.160607 24002 net.cpp:103] Top shape: 32 4096 1 1 (131072)
I0406 14:25:52.160624 24002 net.cpp:67] Creating Layer fc8_deepfashion
I0406 14:25:52.160631 24002 net.cpp:394] fc8_deepfashion <- fc7
I0406 14:25:52.160645 24002 net.cpp:356] fc8_deepfashion -> fc8_deepfashion
I0406 14:25:52.160671 24002 net.cpp:96] Setting up fc8_deepfashion
I0406 14:25:52.167246 24002 net.cpp:103] Top shape: 32 48 1 1 (1536)
I0406 14:25:52.167278 24002 net.cpp:67] Creating Layer fc8_deepfashion_encode
I0406 14:25:52.167287 24002 net.cpp:394] fc8_deepfashion_encode <- fc8_deepfashion
I0406 14:25:52.167299 24002 net.cpp:356] fc8_deepfashion_encode -> fc8_deepfashion_encode
I0406 14:25:52.167311 24002 net.cpp:96] Setting up fc8_deepfashion_encode
I0406 14:25:52.167327 24002 net.cpp:103] Top shape: 32 48 1 1 (1536)
I0406 14:25:52.167342 24002 net.cpp:67] Creating Layer fc8_deepfashion_encode_fc8_deepfashion_encode_0_split
I0406 14:25:52.167351 24002 net.cpp:394] fc8_deepfashion_encode_fc8_deepfashion_encode_0_split <- fc8_deepfashion_encode
I0406 14:25:52.167361 24002 net.cpp:356] fc8_deepfashion_encode_fc8_deepfashion_encode_0_split -> fc8_deepfashion_encode_fc8_deepfashion_encode_0_split_0
I0406 14:25:52.167374 24002 net.cpp:356] fc8_deepfashion_encode_fc8_deepfashion_encode_0_split -> fc8_deepfashion_encode_fc8_deepfashion_encode_0_split_1
I0406 14:25:52.167385 24002 net.cpp:96] Setting up fc8_deepfashion_encode_fc8_deepfashion_encode_0_split
I0406 14:25:52.167394 24002 net.cpp:103] Top shape: 32 48 1 1 (1536)
I0406 14:25:52.167402 24002 net.cpp:103] Top shape: 32 48 1 1 (1536)
I0406 14:25:52.167418 24002 net.cpp:67] Creating Layer fc8_pascal_label_mod
I0406 14:25:52.167426 24002 net.cpp:394] fc8_pascal_label_mod <- fc8_deepfashion_encode_fc8_deepfashion_encode_0_split_0
I0406 14:25:52.167438 24002 net.cpp:356] fc8_pascal_label_mod -> fc8_pascal_label_mod
I0406 14:25:52.167450 24002 net.cpp:96] Setting up fc8_pascal_label_mod
I0406 14:25:52.167495 24002 net.cpp:103] Top shape: 32 10 1 1 (320)
I0406 14:25:52.167525 24002 net.cpp:67] Creating Layer fc8_pascal_label_mod_fc8_pascal_label_mod_0_split
I0406 14:25:52.167534 24002 net.cpp:394] fc8_pascal_label_mod_fc8_pascal_label_mod_0_split <- fc8_pascal_label_mod
I0406 14:25:52.167546 24002 net.cpp:356] fc8_pascal_label_mod_fc8_pascal_label_mod_0_split -> fc8_pascal_label_mod_fc8_pascal_label_mod_0_split_0
I0406 14:25:52.167562 24002 net.cpp:356] fc8_pascal_label_mod_fc8_pascal_label_mod_0_split -> fc8_pascal_label_mod_fc8_pascal_label_mod_0_split_1
I0406 14:25:52.167573 24002 net.cpp:96] Setting up fc8_pascal_label_mod_fc8_pascal_label_mod_0_split
I0406 14:25:52.167582 24002 net.cpp:103] Top shape: 32 10 1 1 (320)
I0406 14:25:52.167590 24002 net.cpp:103] Top shape: 32 10 1 1 (320)
I0406 14:25:52.167603 24002 net.cpp:67] Creating Layer fc8_pascal_color_mod
I0406 14:25:52.167610 24002 net.cpp:394] fc8_pascal_color_mod <- fc8_deepfashion_encode_fc8_deepfashion_encode_0_split_1
I0406 14:25:52.167625 24002 net.cpp:356] fc8_pascal_color_mod -> fc8_pascal_color_mod
I0406 14:25:52.167637 24002 net.cpp:96] Setting up fc8_pascal_color_mod
I0406 14:25:52.167688 24002 net.cpp:103] Top shape: 32 16 1 1 (512)
I0406 14:25:52.167716 24002 net.cpp:67] Creating Layer fc8_pascal_color_mod_fc8_pascal_color_mod_0_split
I0406 14:25:52.167726 24002 net.cpp:394] fc8_pascal_color_mod_fc8_pascal_color_mod_0_split <- fc8_pascal_color_mod
I0406 14:25:52.167744 24002 net.cpp:356] fc8_pascal_color_mod_fc8_pascal_color_mod_0_split -> fc8_pascal_color_mod_fc8_pascal_color_mod_0_split_0
I0406 14:25:52.167784 24002 net.cpp:356] fc8_pascal_color_mod_fc8_pascal_color_mod_0_split -> fc8_pascal_color_mod_fc8_pascal_color_mod_0_split_1
I0406 14:25:52.167798 24002 net.cpp:96] Setting up fc8_pascal_color_mod_fc8_pascal_color_mod_0_split
I0406 14:25:52.167809 24002 net.cpp:103] Top shape: 32 16 1 1 (512)
I0406 14:25:52.167815 24002 net.cpp:103] Top shape: 32 16 1 1 (512)
I0406 14:25:52.167830 24002 net.cpp:67] Creating Layer loss
I0406 14:25:52.167839 24002 net.cpp:394] loss <- fc8_pascal_label_mod_fc8_pascal_label_mod_0_split_0
I0406 14:25:52.167850 24002 net.cpp:394] loss <- labels0_sliceL_0_split_0
I0406 14:25:52.167860 24002 net.cpp:356] loss -> (automatic)
I0406 14:25:52.167870 24002 net.cpp:96] Setting up loss
I0406 14:25:52.167883 24002 net.cpp:103] Top shape: 1 1 1 1 (1)
I0406 14:25:52.167891 24002 net.cpp:109]     with loss weight 1
I0406 14:25:52.167922 24002 net.cpp:67] Creating Layer loss
I0406 14:25:52.167930 24002 net.cpp:394] loss <- fc8_pascal_color_mod_fc8_pascal_color_mod_0_split_0
I0406 14:25:52.167940 24002 net.cpp:394] loss <- labels1_sliceL_1_split_0
I0406 14:25:52.167951 24002 net.cpp:356] loss -> (automatic)
I0406 14:25:52.167968 24002 net.cpp:96] Setting up loss
I0406 14:25:52.167990 24002 net.cpp:103] Top shape: 1 1 1 1 (1)
I0406 14:25:52.168000 24002 net.cpp:109]     with loss weight 1
I0406 14:25:52.168015 24002 net.cpp:67] Creating Layer accuracy
I0406 14:25:52.168025 24002 net.cpp:394] accuracy <- fc8_pascal_color_mod_fc8_pascal_color_mod_0_split_1
I0406 14:25:52.168033 24002 net.cpp:394] accuracy <- labels1_sliceL_1_split_1
I0406 14:25:52.168048 24002 net.cpp:356] accuracy -> colorAccuracy
I0406 14:25:52.168061 24002 net.cpp:96] Setting up accuracy
I0406 14:25:52.168074 24002 net.cpp:103] Top shape: 1 1 1 1 (1)
I0406 14:25:52.168088 24002 net.cpp:67] Creating Layer accuracy1
I0406 14:25:52.168095 24002 net.cpp:394] accuracy1 <- fc8_pascal_label_mod_fc8_pascal_label_mod_0_split_1
I0406 14:25:52.168104 24002 net.cpp:394] accuracy1 <- labels0_sliceL_0_split_1
I0406 14:25:52.168115 24002 net.cpp:356] accuracy1 -> labelAccuracy
I0406 14:25:52.168129 24002 net.cpp:96] Setting up accuracy1
I0406 14:25:52.168138 24002 net.cpp:103] Top shape: 1 1 1 1 (1)
I0406 14:25:52.168148 24002 net.cpp:67] Creating Layer silence
I0406 14:25:52.168155 24002 net.cpp:394] silence <- random
I0406 14:25:52.168164 24002 net.cpp:96] Setting up silence
I0406 14:25:52.168172 24002 net.cpp:172] silence does not need backward computation.
I0406 14:25:52.168179 24002 net.cpp:172] accuracy1 does not need backward computation.
I0406 14:25:52.168185 24002 net.cpp:172] accuracy does not need backward computation.
…
