…
  top: "data"
  top: "random"
  name: "data"
  type: DATA
  data_param {
    source: "/data/deepfashion/color_label_multilabel/color_label_multilabel_TRAIN"
    batch_size: 32
    backend: LMDB
  }
  include {
    phase: TRAIN
  }
  transform_param {
    mirror: true
    crop_size: 227
    mean_file: "../../../data/ilsvrc12/imagenet_mean.binaryproto"
  }
}
layers {
  top: "labels"
  name: "labels"
  type: DATA
  data_param {
    source: "/data/deepfashion/color_label_multilabel/color_label_multilabel_TRAIN_ALT"
    batch_size: 32
    backend: LMDB
  }
  include {
    phase: TRAIN
  }
}
layers {
  bottom: "labels"
  top: "labels0"
  top: "labels1"
  name: "sliceL"
  type: SLICE
  slice_param {
    slice_point: 1
  }
}
layers {
  bottom: "data"
  top: "conv1"
  name: "conv1"
  type: CONVOLUTION
  blobs_lr: 0
  blobs_lr: 0
  weight_decay: 1
  weight_decay: 0
  convolution_param {
    num_output: 96
    kernel_size: 11
    stride: 4
    weight_filler {
      type: "gaussian"
      std: 0.01
    }
    bias_filler {
      type: "constant"
      value: 0
    }
  }
}
layers {
  bottom: "conv1"
  top: "conv1"
  name: "relu1"
  type: RELU
}
layers {
  bottom: "conv1"
  top: "pool1"
  name: "pool1"
  type: POOLING
  pooling_param {
    pool: MAX
    kernel_size: 3
    stride: 2
  }
}
layers {
  bottom: "pool1"
  top: "norm1"
  name: "norm1"
  type: LRN
  lrn_param {
    local_size: 5
    alpha: 0.0001
    beta: 0.75
  }
}
layers {
  bottom: "norm1"
  top: "conv2"
  name: "conv2"
  type: CONVOLUTION
  blobs_lr: 0
  blobs_lr: 0
  weight_decay: 1
  weight_decay: 0
  convolution_param {
    num_output: 256
    pad: 2
    kernel_size: 5
    group: 2
    weight_filler {
      type: "gaussian"
      std: 0.01
    }
    bias_filler {
      type: "constant"
      value: 1
    }
  }
}
layers {
  bottom: "conv2"
  top: "conv2"
  name: "relu2"
  type: RELU
}
layers {
  bottom: "conv2"
  top: "pool2"
  name: "pool2"
  type: POOLING
  pooling_param {
    pool: MAX
    kernel_size: 3
    stride: 2
  }
}
layers {
  bottom: "pool2"
  top: "norm2"
  name: "norm2"
  type: LRN
  lrn_param {
    local_size: 5
    alpha: 0.0001
    beta: 0.75
  }
}
layers {
  bottom: "norm2"
  top: "conv3"
  name: "conv3"
  type: CONVOLUTION
  blobs_lr: 0
  blobs_lr: 0
  weight_decay: 1
  weight_decay: 0
  convolution_param {
    num_output: 384
    pad: 1
    kernel_size: 3
    weight_filler {
      type: "gaussian"
      std: 0.01
    }
    bias_filler {
      type: "constant"
      value: 0
    }
  }
}
layers {
  bottom: "conv3"
  top: "conv3"
  name: "relu3"
  type: RELU
}
layers {
  bottom: "conv3"
  top: "conv4"
  name: "conv4"
  type: CONVOLUTION
  blobs_lr: 0
  blobs_lr: 0
  weight_decay: 1
  weight_decay: 0
  convolution_param {
    num_output: 384
    pad: 1
    kernel_size: 3
    group: 2
    weight_filler {
      type: "gaussian"
      std: 0.01
    }
    bias_filler {
      type: "constant"
      value: 1
    }
  }
}
layers {
  bottom: "conv4"
  top: "conv4"
  name: "relu4"
  type: RELU
}
layers {
  bottom: "conv4"
  top: "conv5"
  name: "conv5"
  type: CONVOLUTION
  blobs_lr: 0
  blobs_lr: 0
  weight_decay: 1
  weight_decay: 0
  convolution_param {
    num_output: 256
    pad: 1
    kernel_size: 3
    group: 2
    weight_filler {
      type: "gaussian"
      std: 0.01
    }
    bias_filler {
      type: "constant"
      value: 1
    }
  }
}
layers {
  bottom: "conv5"
  top: "conv5"
  name: "relu5"
  type: RELU
}
layers {
  bottom: "conv5"
  top: "pool5"
  name: "pool5"
  type: POOLING
  pooling_param {
    pool: MAX
    kernel_size: 3
    stride: 2
  }
}
layers {
  bottom: "pool5"
  top: "fc6"
  name: "fc6"
  type: INNER_PRODUCT
  blobs_lr: 0
  blobs_lr: 0
  weight_decay: 1
  weight_decay: 0
  inner_product_param {
    num_output: 4096
    weight_filler {
      type: "gaussian"
      std: 0.005
    }
    bias_filler {
      type: "constant"
      value: 1
    }
  }
}
layers {
  bottom: "fc6"
  top: "fc6"
  name: "relu6"
  type: RELU
}
layers {
  bottom: "fc6"
  top: "fc6"
  name: "drop6"
  type: DROPOUT
  dropout_param {
    dropout_ratio: 0.5
  }
}
layers {
  bottom: "fc6"
  top: "fc7"
  name: "fc7"
  type: INNER_PRODUCT
  blobs_lr: 0
  blobs_lr: 0
  weight_decay: 1
  weight_decay: 0
  inner_product_param {
    num_output: 4096
    weight_filler {
      type: "gaussian"
      std: 0.005
    }
    bias_filler {
      type: "constant"
      value: 1
    }
  }
}
layers {
  bottom: "fc7"
  top: "fc7"
  name: "relu7"
  type: RELU
}
layers {
  bottom: "fc7"
  top: "fc7"
  name: "drop7"
  type: DROPOUT
  dropout_param {
    dropout_ratio: 0.5
  }
}
layers {
  bottom: "fc7"
  top: "fc8_deepfashion"
  name: "fc8_deepfashion"
  type: INNER_PRODUCT
  blobs_lr: 0
  blobs_lr: 0
  weight_decay: 1
  weight_decay: 0
  inner_product_param {
    num_output: 48
    weight_filler {
      type: "gaussian"
      std: 0.01
    }
    bias_filler {
      type: "constant"
      value: 0
    }
  }
}
layers {
  bottom: "fc8_deepfashion"
  top: "fc8_deepfashion_encode"
  name: "fc8_deepfashion_encode"
  type: SIGMOID
}
layers {
  bottom: "fc8_deepfashion_encode"
  top: "fc8_pascal_label_mod"
  name: "fc8_pascal_label_mod"
  type: INNER_PRODUCT
  blobs_lr: 10
  blobs_lr: 20
  weight_decay: 1
  weight_decay: 0
  inner_product_param {
    num_output: 10
    weight_filler {
      type: "gaussian"
      std: 0.01
    }
    bias_filler {
      type: "constant"
      value: 0
    }
  }
}
layers {
  bottom: "fc8_deepfashion_encode"
  top: "fc8_pascal_color_mod"
  name: "fc8_pascal_color_mod"
  type: INNER_PRODUCT
  blobs_lr: 10
  blobs_lr: 20
  weight_decay: 1
  weight_decay: 0
  inner_product_param {
    num_output: 16
    weight_filler {
      type: "gaussian"
      std: 0.01
    }
    bias_filler {
      type: "constant"
      value: 0
    }
  }
}
layers {
  bottom: "fc8_pascal_label_mod"
  bottom: "labels0"
  name: "loss"
  type: SOFTMAX_LOSS
}
layers {
  bottom: "fc8_pascal_color_mod"
  bottom: "labels1"
  name: "loss"
  type: SOFTMAX_LOSS
}
layers {
  bottom: "random"
  name: "silence"
  type: SILENCE
}
state {
  phase: TRAIN
}
I0406 10:06:04.909171 26505 net.cpp:67] Creating Layer data
I0406 10:06:04.909184 26505 net.cpp:356] data -> data
I0406 10:06:04.909201 26505 net.cpp:356] data -> random
I0406 10:06:04.909220 26505 net.cpp:96] Setting up data
I0406 10:06:04.909346 26505 data_layer.cpp:68] Opening lmdb /data/deepfashion/color_label_multilabel/color_label_multilabel_TRAIN
I0406 10:06:04.909541 26505 data_layer.cpp:128] output data size: 32,3,227,227
I0406 10:06:04.909557 26505 base_data_layer.cpp:36] Loading mean file from../../../data/ilsvrc12/imagenet_mean.binaryproto
I0406 10:06:04.925428 26505 net.cpp:103] Top shape: 32 3 227 227 (4946784)
I0406 10:06:04.925468 26505 net.cpp:103] Top shape: 32 1 1 1 (32)
I0406 10:06:04.925493 26505 net.cpp:67] Creating Layer labels
I0406 10:06:04.925506 26505 net.cpp:356] labels -> labels
I0406 10:06:04.925528 26505 net.cpp:96] Setting up labels
I0406 10:06:04.925642 26505 data_layer.cpp:68] Opening lmdb /data/deepfashion/color_label_multilabel/color_label_multilabel_TRAIN_ALT
I0406 10:06:04.925803 26505 data_layer.cpp:128] output data size: 32,2,1,1
I0406 10:06:04.925886 26505 net.cpp:103] Top shape: 32 2 1 1 (64)
I0406 10:06:04.925935 26505 net.cpp:67] Creating Layer sliceL
I0406 10:06:04.925992 26505 net.cpp:394] sliceL <- labels
I0406 10:06:04.926012 26505 net.cpp:356] sliceL -> labels0
I0406 10:06:04.926030 26505 net.cpp:356] sliceL -> labels1
I0406 10:06:04.926046 26505 net.cpp:96] Setting up sliceL
I0406 10:06:04.926062 26505 net.cpp:103] Top shape: 32 1 1 1 (32)
I0406 10:06:04.926110 26505 net.cpp:103] Top shape: 32 1 1 1 (32)
I0406 10:06:04.926129 26505 net.cpp:67] Creating Layer conv1
I0406 10:06:04.926137 26505 net.cpp:394] conv1 <- data
I0406 10:06:04.926190 26505 net.cpp:356] conv1 -> conv1
I0406 10:06:04.926213 26505 net.cpp:96] Setting up conv1
I0406 10:06:04.951831 26505 net.cpp:103] Top shape: 32 96 55 55 (9292800)
I0406 10:06:04.951900 26505 net.cpp:67] Creating Layer relu1
I0406 10:06:04.951912 26505 net.cpp:394] relu1 <- conv1
I0406 10:06:04.951923 26505 net.cpp:345] relu1 -> conv1 (in-place)
I0406 10:06:04.951938 26505 net.cpp:96] Setting up relu1
I0406 10:06:04.951967 26505 net.cpp:103] Top shape: 32 96 55 55 (9292800)
I0406 10:06:04.951982 26505 net.cpp:67] Creating Layer pool1
I0406 10:06:04.951987 26505 net.cpp:394] pool1 <- conv1
I0406 10:06:04.951993 26505 net.cpp:356] pool1 -> pool1
I0406 10:06:04.952002 26505 net.cpp:96] Setting up pool1
I0406 10:06:04.952026 26505 net.cpp:103] Top shape: 32 96 27 27 (2239488)
I0406 10:06:04.952034 26505 net.cpp:67] Creating Layer norm1
I0406 10:06:04.952039 26505 net.cpp:394] norm1 <- pool1
I0406 10:06:04.952044 26505 net.cpp:356] norm1 -> norm1
I0406 10:06:04.952051 26505 net.cpp:96] Setting up norm1
I0406 10:06:04.952059 26505 net.cpp:103] Top shape: 32 96 27 27 (2239488)
I0406 10:06:04.952070 26505 net.cpp:67] Creating Layer conv2
I0406 10:06:04.952075 26505 net.cpp:394] conv2 <- norm1
I0406 10:06:04.952081 26505 net.cpp:356] conv2 -> conv2
I0406 10:06:04.952090 26505 net.cpp:96] Setting up conv2
I0406 10:06:04.965149 26505 net.cpp:103] Top shape: 32 256 27 27 (5971968)
I0406 10:06:04.965204 26505 net.cpp:67] Creating Layer relu2
I0406 10:06:04.965211 26505 net.cpp:394] relu2 <- conv2
I0406 10:06:04.965220 26505 net.cpp:345] relu2 -> conv2 (in-place)
I0406 10:06:04.965229 26505 net.cpp:96] Setting up relu2
I0406 10:06:04.965237 26505 net.cpp:103] Top shape: 32 256 27 27 (5971968)
I0406 10:06:04.965245 26505 net.cpp:67] Creating Layer pool2
I0406 10:06:04.965250 26505 net.cpp:394] pool2 <- conv2
I0406 10:06:04.965255 26505 net.cpp:356] pool2 -> pool2
I0406 10:06:04.965265 26505 net.cpp:96] Setting up pool2
I0406 10:06:04.965276 26505 net.cpp:103] Top shape: 32 256 13 13 (1384448)
I0406 10:06:04.965283 26505 net.cpp:67] Creating Layer norm2
I0406 10:06:04.965287 26505 net.cpp:394] norm2 <- pool2
I0406 10:06:04.965292 26505 net.cpp:356] norm2 -> norm2
I0406 10:06:04.965298 26505 net.cpp:96] Setting up norm2
I0406 10:06:04.965303 26505 net.cpp:103] Top shape: 32 256 13 13 (1384448)
I0406 10:06:04.965313 26505 net.cpp:67] Creating Layer conv3
I0406 10:06:04.965318 26505 net.cpp:394] conv3 <- norm2
I0406 10:06:04.965324 26505 net.cpp:356] conv3 -> conv3
I0406 10:06:04.965330 26505 net.cpp:96] Setting up conv3
I0406 10:06:05.002279 26505 net.cpp:103] Top shape: 32 384 13 13 (2076672)
I0406 10:06:05.002339 26505 net.cpp:67] Creating Layer relu3
I0406 10:06:05.002347 26505 net.cpp:394] relu3 <- conv3
I0406 10:06:05.002356 26505 net.cpp:345] relu3 -> conv3 (in-place)
I0406 10:06:05.002363 26505 net.cpp:96] Setting up relu3
I0406 10:06:05.002372 26505 net.cpp:103] Top shape: 32 384 13 13 (2076672)
I0406 10:06:05.002383 26505 net.cpp:67] Creating Layer conv4
I0406 10:06:05.002388 26505 net.cpp:394] conv4 <- conv3
I0406 10:06:05.002395 26505 net.cpp:356] conv4 -> conv4
I0406 10:06:05.002403 26505 net.cpp:96] Setting up conv4
I0406 10:06:05.030649 26505 net.cpp:103] Top shape: 32 384 13 13 (2076672)
I0406 10:06:05.030694 26505 net.cpp:67] Creating Layer relu4
I0406 10:06:05.030702 26505 net.cpp:394] relu4 <- conv4
I0406 10:06:05.030745 26505 net.cpp:345] relu4 -> conv4 (in-place)
I0406 10:06:05.030755 26505 net.cpp:96] Setting up relu4
I0406 10:06:05.030762 26505 net.cpp:103] Top shape: 32 384 13 13 (2076672)
I0406 10:06:05.030771 26505 net.cpp:67] Creating Layer conv5
I0406 10:06:05.030776 26505 net.cpp:394] conv5 <- conv4
I0406 10:06:05.030784 26505 net.cpp:356] conv5 -> conv5
I0406 10:06:05.030791 26505 net.cpp:96] Setting up conv5
I0406 10:06:05.049451 26505 net.cpp:103] Top shape: 32 256 13 13 (1384448)
I0406 10:06:05.049511 26505 net.cpp:67] Creating Layer relu5
I0406 10:06:05.049518 26505 net.cpp:394] relu5 <- conv5
I0406 10:06:05.049526 26505 net.cpp:345] relu5 -> conv5 (in-place)
I0406 10:06:05.049535 26505 net.cpp:96] Setting up relu5
I0406 10:06:05.049543 26505 net.cpp:103] Top shape: 32 256 13 13 (1384448)
I0406 10:06:05.049551 26505 net.cpp:67] Creating Layer pool5
I0406 10:06:05.049554 26505 net.cpp:394] pool5 <- conv5
I0406 10:06:05.049561 26505 net.cpp:356] pool5 -> pool5
I0406 10:06:05.049568 26505 net.cpp:96] Setting up pool5
I0406 10:06:05.049577 26505 net.cpp:103] Top shape: 32 256 6 6 (294912)
I0406 10:06:05.049593 26505 net.cpp:67] Creating Layer fc6
I0406 10:06:05.049598 26505 net.cpp:394] fc6 <- pool5
I0406 10:06:05.049604 26505 net.cpp:356] fc6 -> fc6
I0406 10:06:05.049612 26505 net.cpp:96] Setting up fc6
I0406 10:06:06.303104 26505 net.cpp:103] Top shape: 32 4096 1 1 (131072)
I0406 10:06:06.303161 26505 net.cpp:67] Creating Layer relu6
I0406 10:06:06.303170 26505 net.cpp:394] relu6 <- fc6
I0406 10:06:06.303180 26505 net.cpp:345] relu6 -> fc6 (in-place)
I0406 10:06:06.303190 26505 net.cpp:96] Setting up relu6
I0406 10:06:06.303213 26505 net.cpp:103] Top shape: 32 4096 1 1 (131072)
I0406 10:06:06.303223 26505 net.cpp:67] Creating Layer drop6
I0406 10:06:06.303227 26505 net.cpp:394] drop6 <- fc6
I0406 10:06:06.303233 26505 net.cpp:345] drop6 -> fc6 (in-place)
I0406 10:06:06.303239 26505 net.cpp:96] Setting up drop6
I0406 10:06:06.303249 26505 net.cpp:103] Top shape: 32 4096 1 1 (131072)
I0406 10:06:06.303258 26505 net.cpp:67] Creating Layer fc7
I0406 10:06:06.303262 26505 net.cpp:394] fc7 <- fc6
I0406 10:06:06.303268 26505 net.cpp:356] fc7 -> fc7
I0406 10:06:06.303279 26505 net.cpp:96] Setting up fc7
I0406 10:06:06.870537 26505 net.cpp:103] Top shape: 32 4096 1 1 (131072)
I0406 10:06:06.870599 26505 net.cpp:67] Creating Layer relu7
I0406 10:06:06.870607 26505 net.cpp:394] relu7 <- fc7
I0406 10:06:06.870616 26505 net.cpp:345] relu7 -> fc7 (in-place)
I0406 10:06:06.870625 26505 net.cpp:96] Setting up relu7
I0406 10:06:06.870648 26505 net.cpp:103] Top shape: 32 4096 1 1 (131072)
I0406 10:06:06.870657 26505 net.cpp:67] Creating Layer drop7
I0406 10:06:06.870662 26505 net.cpp:394] drop7 <- fc7
I0406 10:06:06.870667 26505 net.cpp:345] drop7 -> fc7 (in-place)
I0406 10:06:06.870673 26505 net.cpp:96] Setting up drop7
I0406 10:06:06.870678 26505 net.cpp:103] Top shape: 32 4096 1 1 (131072)
I0406 10:06:06.870687 26505 net.cpp:67] Creating Layer fc8_deepfashion
I0406 10:06:06.870690 26505 net.cpp:394] fc8_deepfashion <- fc7
I0406 10:06:06.870698 26505 net.cpp:356] fc8_deepfashion -> fc8_deepfashion
I0406 10:06:06.870707 26505 net.cpp:96] Setting up fc8_deepfashion
I0406 10:06:06.877239 26505 net.cpp:103] Top shape: 32 48 1 1 (1536)
I0406 10:06:06.877262 26505 net.cpp:67] Creating Layer fc8_deepfashion_encode
I0406 10:06:06.877269 26505 net.cpp:394] fc8_deepfashion_encode <- fc8_deepfashion
I0406 10:06:06.877277 26505 net.cpp:356] fc8_deepfashion_encode -> fc8_deepfashion_encode
I0406 10:06:06.877285 26505 net.cpp:96] Setting up fc8_deepfashion_encode
I0406 10:06:06.877298 26505 net.cpp:103] Top shape: 32 48 1 1 (1536)
I0406 10:06:06.877305 26505 net.cpp:67] Creating Layer fc8_deepfashion_encode_fc8_deepfashion_encode_0_split
I0406 10:06:06.877310 26505 net.cpp:394] fc8_deepfashion_encode_fc8_deepfashion_encode_0_split <- fc8_deepfashion_encode
I0406 10:06:06.877318 26505 net.cpp:356] fc8_deepfashion_encode_fc8_deepfashion_encode_0_split -> fc8_deepfashion_encode_fc8_deepfashion_encode_0_split_0
I0406 10:06:06.877360 26505 net.cpp:356] fc8_deepfashion_encode_fc8_deepfashion_encode_0_split -> fc8_deepfashion_encode_fc8_deepfashion_encode_0_split_1
I0406 10:06:06.877368 26505 net.cpp:96] Setting up fc8_deepfashion_encode_fc8_deepfashion_encode_0_split
I0406 10:06:06.877375 26505 net.cpp:103] Top shape: 32 48 1 1 (1536)
I0406 10:06:06.877379 26505 net.cpp:103] Top shape: 32 48 1 1 (1536)
I0406 10:06:06.877387 26505 net.cpp:67] Creating Layer fc8_pascal_label_mod
I0406 10:06:06.877390 26505 net.cpp:394] fc8_pascal_label_mod <- fc8_deepfashion_encode_fc8_deepfashion_encode_0_split_0
I0406 10:06:06.877398 26505 net.cpp:356] fc8_pascal_label_mod -> fc8_pascal_label_mod
I0406 10:06:06.877404 26505 net.cpp:96] Setting up fc8_pascal_label_mod
I0406 10:06:06.877430 26505 net.cpp:103] Top shape: 32 10 1 1 (320)
I0406 10:06:06.877447 26505 net.cpp:67] Creating Layer fc8_pascal_color_mod
I0406 10:06:06.877459 26505 net.cpp:394] fc8_pascal_color_mod <- fc8_deepfashion_encode_fc8_deepfashion_encode_0_split_1
I0406 10:06:06.877465 26505 net.cpp:356] fc8_pascal_color_mod -> fc8_pascal_color_mod
I0406 10:06:06.877471 26505 net.cpp:96] Setting up fc8_pascal_color_mod
I0406 10:06:06.877507 26505 net.cpp:103] Top shape: 32 16 1 1 (512)
I0406 10:06:06.877521 26505 net.cpp:67] Creating Layer loss
I0406 10:06:06.877526 26505 net.cpp:394] loss <- fc8_pascal_label_mod
I0406 10:06:06.877531 26505 net.cpp:394] loss <- labels0
I0406 10:06:06.877535 26505 net.cpp:356] loss -> (automatic)
I0406 10:06:06.877540 26505 net.cpp:96] Setting up loss
I0406 10:06:06.877552 26505 net.cpp:103] Top shape: 1 1 1 1 (1)
I0406 10:06:06.877555 26505 net.cpp:109]     with loss weight 1
I0406 10:06:06.877600 26505 net.cpp:67] Creating Layer loss
I0406 10:06:06.877605 26505 net.cpp:394] loss <- fc8_pascal_color_mod
I0406 10:06:06.877610 26505 net.cpp:394] loss <- labels1
I0406 10:06:06.877616 26505 net.cpp:356] loss -> (automatic)
I0406 10:06:06.877621 26505 net.cpp:96] Setting up loss
I0406 10:06:06.877629 26505 net.cpp:103] Top shape: 1 1 1 1 (1)
I0406 10:06:06.877634 26505 net.cpp:109]     with loss weight 1
I0406 10:06:06.877640 26505 net.cpp:67] Creating Layer silence
I0406 10:06:06.877645 26505 net.cpp:394] silence <- random
I0406 10:06:06.877648 26505 net.cpp:96] Setting up silence
I0406 10:06:06.877652 26505 net.cpp:172] silence does not need backward computation.
I0406 10:06:06.877656 26505 net.cpp:170] loss needs backward computation.
…
layers {
  top: "data"
  top: "random"
  name: "data"
  type: DATA
  data_param {
    source: "/data/deepfashion/color_label_multilabel/color_label_multilabel_test"
    batch_size: 32
    backend: LMDB
  }
  include {
    phase: TEST
  }
  transform_param {
    mirror: true
    crop_size: 227
    mean_file: "../../../data/ilsvrc12/imagenet_mean.binaryproto"
  }
}
layers {
  top: "labels"
  name: "labels"
  type: DATA
  data_param {
    source: "/data/deepfashion/color_label_multilabel/color_label_multilabel_test_alt"
    batch_size: 32
    backend: LMDB
  }
  include {
    phase: TEST
  }
}
layers {
  bottom: "labels"
  top: "labels0"
  top: "labels1"
  name: "sliceL"
  type: SLICE
  slice_param {
    slice_point: 1
  }
}
layers {
  bottom: "data"
  top: "conv1"
  name: "conv1"
  type: CONVOLUTION
  blobs_lr: 0
  blobs_lr: 0
  weight_decay: 1
  weight_decay: 0
  convolution_param {
    num_output: 96
    kernel_size: 11
    stride: 4
    weight_filler {
      type: "gaussian"
      std: 0.01
    }
    bias_filler {
      type: "constant"
      value: 0
    }
  }
}
layers {
  bottom: "conv1"
  top: "conv1"
  name: "relu1"
  type: RELU
}
layers {
  bottom: "conv1"
  top: "pool1"
  name: "pool1"
  type: POOLING
  pooling_param {
    pool: MAX
    kernel_size: 3
    stride: 2
  }
}
layers {
  bottom: "pool1"
  top: "norm1"
  name: "norm1"
  type: LRN
  lrn_param {
    local_size: 5
    alpha: 0.0001
    beta: 0.75
  }
}
layers {
  bottom: "norm1"
  top: "conv2"
  name: "conv2"
  type: CONVOLUTION
  blobs_lr: 0
  blobs_lr: 0
  weight_decay: 1
  weight_decay: 0
  convolution_param {
    num_output: 256
    pad: 2
    kernel_size: 5
    group: 2
    weight_filler {
      type: "gaussian"
      std: 0.01
    }
    bias_filler {
      type: "constant"
      value: 1
    }
  }
}
layers {
  bottom: "conv2"
  top: "conv2"
  name: "relu2"
  type: RELU
}
layers {
  bottom: "conv2"
  top: "pool2"
  name: "pool2"
  type: POOLING
  pooling_param {
    pool: MAX
    kernel_size: 3
    stride: 2
  }
}
layers {
  bottom: "pool2"
  top: "norm2"
  name: "norm2"
  type: LRN
  lrn_param {
    local_size: 5
    alpha: 0.0001
    beta: 0.75
  }
}
layers {
  bottom: "norm2"
  top: "conv3"
  name: "conv3"
  type: CONVOLUTION
  blobs_lr: 0
  blobs_lr: 0
  weight_decay: 1
  weight_decay: 0
  convolution_param {
    num_output: 384
    pad: 1
    kernel_size: 3
    weight_filler {
      type: "gaussian"
      std: 0.01
    }
    bias_filler {
      type: "constant"
      value: 0
    }
  }
}
layers {
  bottom: "conv3"
  top: "conv3"
  name: "relu3"
  type: RELU
}
layers {
  bottom: "conv3"
  top: "conv4"
  name: "conv4"
  type: CONVOLUTION
  blobs_lr: 0
  blobs_lr: 0
  weight_decay: 1
  weight_decay: 0
  convolution_param {
    num_output: 384
    pad: 1
    kernel_size: 3
    group: 2
    weight_filler {
      type: "gaussian"
      std: 0.01
    }
    bias_filler {
      type: "constant"
      value: 1
    }
  }
}
layers {
  bottom: "conv4"
  top: "conv4"
  name: "relu4"
  type: RELU
}
layers {
  bottom: "conv4"
  top: "conv5"
  name: "conv5"
  type: CONVOLUTION
  blobs_lr: 0
  blobs_lr: 0
  weight_decay: 1
  weight_decay: 0
  convolution_param {
    num_output: 256
    pad: 1
    kernel_size: 3
    group: 2
    weight_filler {
      type: "gaussian"
      std: 0.01
    }
    bias_filler {
      type: "constant"
      value: 1
    }
  }
}
layers {
  bottom: "conv5"
  top: "conv5"
  name: "relu5"
  type: RELU
}
layers {
  bottom: "conv5"
  top: "pool5"
  name: "pool5"
  type: POOLING
  pooling_param {
    pool: MAX
    kernel_size: 3
    stride: 2
  }
}
layers {
  bottom: "pool5"
  top: "fc6"
  name: "fc6"
  type: INNER_PRODUCT
  blobs_lr: 0
  blobs_lr: 0
  weight_decay: 1
  weight_decay: 0
  inner_product_param {
    num_output: 4096
    weight_filler {
      type: "gaussian"
      std: 0.005
    }
    bias_filler {
      type: "constant"
      value: 1
    }
  }
}
layers {
  bottom: "fc6"
  top: "fc6"
  name: "relu6"
  type: RELU
}
layers {
  bottom: "fc6"
  top: "fc6"
  name: "drop6"
  type: DROPOUT
  dropout_param {
    dropout_ratio: 0.5
  }
}
layers {
  bottom: "fc6"
  top: "fc7"
  name: "fc7"
  type: INNER_PRODUCT
  blobs_lr: 0
  blobs_lr: 0
  weight_decay: 1
  weight_decay: 0
  inner_product_param {
    num_output: 4096
    weight_filler {
      type: "gaussian"
      std: 0.005
    }
    bias_filler {
      type: "constant"
      value: 1
    }
  }
}
layers {
  bottom: "fc7"
  top: "fc7"
  name: "relu7"
  type: RELU
}
layers {
  bottom: "fc7"
  top: "fc7"
  name: "drop7"
  type: DROPOUT
  dropout_param {
    dropout_ratio: 0.5
  }
}
layers {
  bottom: "fc7"
  top: "fc8_deepfashion"
  name: "fc8_deepfashion"
  type: INNER_PRODUCT
  blobs_lr: 0
  blobs_lr: 0
  weight_decay: 1
  weight_decay: 0
  inner_product_param {
    num_output: 48
    weight_filler {
      type: "gaussian"
      std: 0.01
    }
    bias_filler {
      type: "constant"
      value: 0
    }
  }
}
layers {
  bottom: "fc8_deepfashion"
  top: "fc8_deepfashion_encode"
  name: "fc8_deepfashion_encode"
  type: SIGMOID
}
layers {
  bottom: "fc8_deepfashion_encode"
  top: "fc8_pascal_label_mod"
  name: "fc8_pascal_label_mod"
  type: INNER_PRODUCT
  blobs_lr: 10
  blobs_lr: 20
  weight_decay: 1
  weight_decay: 0
  inner_product_param {
    num_output: 10
    weight_filler {
      type: "gaussian"
      std: 0.01
    }
    bias_filler {
      type: "constant"
      value: 0
    }
  }
}
layers {
  bottom: "fc8_deepfashion_encode"
  top: "fc8_pascal_color_mod"
  name: "fc8_pascal_color_mod"
  type: INNER_PRODUCT
  blobs_lr: 10
  blobs_lr: 20
  weight_decay: 1
  weight_decay: 0
  inner_product_param {
    num_output: 16
    weight_filler {
      type: "gaussian"
      std: 0.01
    }
    bias_filler {
      type: "constant"
      value: 0
    }
  }
}
layers {
  bottom: "fc8_pascal_label_mod"
  bottom: "labels0"
  name: "loss"
  type: SOFTMAX_LOSS
}
layers {
  bottom: "fc8_pascal_color_mod"
  bottom: "labels1"
  name: "loss"
  type: SOFTMAX_LOSS
}
layers {
  bottom: "fc8_pascal_color_mod"
  bottom: "labels1"
  top: "colorAccuracy"
  name: "accuracy"
  type: ACCURACY
  include {
    phase: TEST
  }
}
layers {
  bottom: "fc8_pascal_label_mod"
  bottom: "labels0"
  top: "labelAccuracy"
  name: "accuracy1"
  type: ACCURACY
  include {
    phase: TEST
  }
}
layers {
  bottom: "random"
  name: "silence"
  type: SILENCE
}
state {
  phase: TEST
}
I0406 10:06:06.878986 26505 net.cpp:67] Creating Layer data
I0406 10:06:06.878994 26505 net.cpp:356] data -> data
I0406 10:06:06.879004 26505 net.cpp:356] data -> random
I0406 10:06:06.879011 26505 net.cpp:96] Setting up data
I0406 10:06:06.879083 26505 data_layer.cpp:68] Opening lmdb /data/deepfashion/color_label_multilabel/color_label_multilabel_test
I0406 10:06:06.879257 26505 data_layer.cpp:128] output data size: 32,3,227,227
I0406 10:06:06.879266 26505 base_data_layer.cpp:36] Loading mean file from../../../data/ilsvrc12/imagenet_mean.binaryproto
I0406 10:06:06.886152 26505 net.cpp:103] Top shape: 32 3 227 227 (4946784)
I0406 10:06:06.886186 26505 net.cpp:103] Top shape: 32 1 1 1 (32)
I0406 10:06:06.886206 26505 net.cpp:67] Creating Layer labels
I0406 10:06:06.886214 26505 net.cpp:356] labels -> labels
I0406 10:06:06.886226 26505 net.cpp:96] Setting up labels
I0406 10:06:06.887012 26505 data_layer.cpp:68] Opening lmdb /data/deepfashion/color_label_multilabel/color_label_multilabel_test_alt
I0406 10:06:06.887045 26505 data_layer.cpp:128] output data size: 32,2,1,1
I0406 10:06:06.887089 26505 net.cpp:103] Top shape: 32 2 1 1 (64)
I0406 10:06:06.887116 26505 net.cpp:67] Creating Layer sliceL
I0406 10:06:06.887125 26505 net.cpp:394] sliceL <- labels
I0406 10:06:06.887137 26505 net.cpp:356] sliceL -> labels0
I0406 10:06:06.887151 26505 net.cpp:356] sliceL -> labels1
I0406 10:06:06.887171 26505 net.cpp:96] Setting up sliceL
I0406 10:06:06.887182 26505 net.cpp:103] Top shape: 32 1 1 1 (32)
I0406 10:06:06.887193 26505 net.cpp:103] Top shape: 32 1 1 1 (32)
I0406 10:06:06.887205 26505 net.cpp:67] Creating Layer labels0_sliceL_0_split
I0406 10:06:06.887213 26505 net.cpp:394] labels0_sliceL_0_split <- labels0
I0406 10:06:06.887224 26505 net.cpp:356] labels0_sliceL_0_split -> labels0_sliceL_0_split_0
I0406 10:06:06.887236 26505 net.cpp:356] labels0_sliceL_0_split -> labels0_sliceL_0_split_1
I0406 10:06:06.887248 26505 net.cpp:96] Setting up labels0_sliceL_0_split
I0406 10:06:06.887262 26505 net.cpp:103] Top shape: 32 1 1 1 (32)
I0406 10:06:06.887270 26505 net.cpp:103] Top shape: 32 1 1 1 (32)
I0406 10:06:06.887282 26505 net.cpp:67] Creating Layer labels1_sliceL_1_split
I0406 10:06:06.887290 26505 net.cpp:394] labels1_sliceL_1_split <- labels1
I0406 10:06:06.887300 26505 net.cpp:356] labels1_sliceL_1_split -> labels1_sliceL_1_split_0
I0406 10:06:06.887311 26505 net.cpp:356] labels1_sliceL_1_split -> labels1_sliceL_1_split_1
I0406 10:06:06.887322 26505 net.cpp:96] Setting up labels1_sliceL_1_split
I0406 10:06:06.887334 26505 net.cpp:103] Top shape: 32 1 1 1 (32)
I0406 10:06:06.887342 26505 net.cpp:103] Top shape: 32 1 1 1 (32)
I0406 10:06:06.887356 26505 net.cpp:67] Creating Layer conv1
I0406 10:06:06.887367 26505 net.cpp:394] conv1 <- data
I0406 10:06:06.887378 26505 net.cpp:356] conv1 -> conv1
I0406 10:06:06.887390 26505 net.cpp:96] Setting up conv1
I0406 10:06:06.888742 26505 net.cpp:103] Top shape: 32 96 55 55 (9292800)
I0406 10:06:06.888773 26505 net.cpp:67] Creating Layer relu1
I0406 10:06:06.888779 26505 net.cpp:394] relu1 <- conv1
I0406 10:06:06.888787 26505 net.cpp:345] relu1 -> conv1 (in-place)
I0406 10:06:06.888793 26505 net.cpp:96] Setting up relu1
I0406 10:06:06.888800 26505 net.cpp:103] Top shape: 32 96 55 55 (9292800)
I0406 10:06:06.888808 26505 net.cpp:67] Creating Layer pool1
I0406 10:06:06.888813 26505 net.cpp:394] pool1 <- conv1
I0406 10:06:06.888818 26505 net.cpp:356] pool1 -> pool1
I0406 10:06:06.888824 26505 net.cpp:96] Setting up pool1
I0406 10:06:06.888833 26505 net.cpp:103] Top shape: 32 96 27 27 (2239488)
I0406 10:06:06.888844 26505 net.cpp:67] Creating Layer norm1
I0406 10:06:06.888847 26505 net.cpp:394] norm1 <- pool1
I0406 10:06:06.888854 26505 net.cpp:356] norm1 -> norm1
I0406 10:06:06.888859 26505 net.cpp:96] Setting up norm1
I0406 10:06:06.888864 26505 net.cpp:103] Top shape: 32 96 27 27 (2239488)
I0406 10:06:06.888873 26505 net.cpp:67] Creating Layer conv2
I0406 10:06:06.888877 26505 net.cpp:394] conv2 <- norm1
I0406 10:06:06.888885 26505 net.cpp:356] conv2 -> conv2
I0406 10:06:06.888890 26505 net.cpp:96] Setting up conv2
I0406 10:06:06.899497 26505 net.cpp:103] Top shape: 32 256 27 27 (5971968)
I0406 10:06:06.899560 26505 net.cpp:67] Creating Layer relu2
I0406 10:06:06.899569 26505 net.cpp:394] relu2 <- conv2
I0406 10:06:06.899610 26505 net.cpp:345] relu2 -> conv2 (in-place)
I0406 10:06:06.899619 26505 net.cpp:96] Setting up relu2
I0406 10:06:06.899627 26505 net.cpp:103] Top shape: 32 256 27 27 (5971968)
I0406 10:06:06.899636 26505 net.cpp:67] Creating Layer pool2
I0406 10:06:06.899639 26505 net.cpp:394] pool2 <- conv2
I0406 10:06:06.899646 26505 net.cpp:356] pool2 -> pool2
I0406 10:06:06.899652 26505 net.cpp:96] Setting up pool2
I0406 10:06:06.899663 26505 net.cpp:103] Top shape: 32 256 13 13 (1384448)
I0406 10:06:06.899680 26505 net.cpp:67] Creating Layer norm2
I0406 10:06:06.899688 26505 net.cpp:394] norm2 <- pool2
I0406 10:06:06.899698 26505 net.cpp:356] norm2 -> norm2
I0406 10:06:06.899704 26505 net.cpp:96] Setting up norm2
I0406 10:06:06.899710 26505 net.cpp:103] Top shape: 32 256 13 13 (1384448)
I0406 10:06:06.899724 26505 net.cpp:67] Creating Layer conv3
I0406 10:06:06.899740 26505 net.cpp:394] conv3 <- norm2
I0406 10:06:06.899747 26505 net.cpp:356] conv3 -> conv3
I0406 10:06:06.899754 26505 net.cpp:96] Setting up conv3
I0406 10:06:06.928905 26505 net.cpp:103] Top shape: 32 384 13 13 (2076672)
I0406 10:06:06.928961 26505 net.cpp:67] Creating Layer relu3
I0406 10:06:06.928969 26505 net.cpp:394] relu3 <- conv3
I0406 10:06:06.928977 26505 net.cpp:345] relu3 -> conv3 (in-place)
I0406 10:06:06.928985 26505 net.cpp:96] Setting up relu3
I0406 10:06:06.928992 26505 net.cpp:103] Top shape: 32 384 13 13 (2076672)
I0406 10:06:06.929004 26505 net.cpp:67] Creating Layer conv4
I0406 10:06:06.929008 26505 net.cpp:394] conv4 <- conv3
I0406 10:06:06.929014 26505 net.cpp:356] conv4 -> conv4
I0406 10:06:06.929024 26505 net.cpp:96] Setting up conv4
I0406 10:06:06.951465 26505 net.cpp:103] Top shape: 32 384 13 13 (2076672)
I0406 10:06:06.951526 26505 net.cpp:67] Creating Layer relu4
I0406 10:06:06.951534 26505 net.cpp:394] relu4 <- conv4
I0406 10:06:06.951540 26505 net.cpp:345] relu4 -> conv4 (in-place)
I0406 10:06:06.951550 26505 net.cpp:96] Setting up relu4
I0406 10:06:06.951557 26505 net.cpp:103] Top shape: 32 384 13 13 (2076672)
I0406 10:06:06.951570 26505 net.cpp:67] Creating Layer conv5
I0406 10:06:06.951573 26505 net.cpp:394] conv5 <- conv4
I0406 10:06:06.951580 26505 net.cpp:356] conv5 -> conv5
I0406 10:06:06.951587 26505 net.cpp:96] Setting up conv5
I0406 10:06:06.966648 26505 net.cpp:103] Top shape: 32 256 13 13 (1384448)
I0406 10:06:06.966707 26505 net.cpp:67] Creating Layer relu5
I0406 10:06:06.966716 26505 net.cpp:394] relu5 <- conv5
I0406 10:06:06.966725 26505 net.cpp:345] relu5 -> conv5 (in-place)
I0406 10:06:06.966734 26505 net.cpp:96] Setting up relu5
I0406 10:06:06.966743 26505 net.cpp:103] Top shape: 32 256 13 13 (1384448)
I0406 10:06:06.966750 26505 net.cpp:67] Creating Layer pool5
I0406 10:06:06.966754 26505 net.cpp:394] pool5 <- conv5
I0406 10:06:06.966761 26505 net.cpp:356] pool5 -> pool5
I0406 10:06:06.966768 26505 net.cpp:96] Setting up pool5
I0406 10:06:06.966778 26505 net.cpp:103] Top shape: 32 256 6 6 (294912)
I0406 10:06:06.966787 26505 net.cpp:67] Creating Layer fc6
I0406 10:06:06.966791 26505 net.cpp:394] fc6 <- pool5
I0406 10:06:06.966799 26505 net.cpp:356] fc6 -> fc6
I0406 10:06:06.966804 26505 net.cpp:96] Setting up fc6
I0406 10:06:08.242502 26505 net.cpp:103] Top shape: 32 4096 1 1 (131072)
I0406 10:06:08.242561 26505 net.cpp:67] Creating Layer relu6
I0406 10:06:08.242570 26505 net.cpp:394] relu6 <- fc6
I0406 10:06:08.242580 26505 net.cpp:345] relu6 -> fc6 (in-place)
I0406 10:06:08.242590 26505 net.cpp:96] Setting up relu6
I0406 10:06:08.242612 26505 net.cpp:103] Top shape: 32 4096 1 1 (131072)
I0406 10:06:08.242630 26505 net.cpp:67] Creating Layer drop6
I0406 10:06:08.242635 26505 net.cpp:394] drop6 <- fc6
I0406 10:06:08.242640 26505 net.cpp:345] drop6 -> fc6 (in-place)
I0406 10:06:08.242646 26505 net.cpp:96] Setting up drop6
I0406 10:06:08.242651 26505 net.cpp:103] Top shape: 32 4096 1 1 (131072)
I0406 10:06:08.242660 26505 net.cpp:67] Creating Layer fc7
I0406 10:06:08.242663 26505 net.cpp:394] fc7 <- fc6
I0406 10:06:08.242671 26505 net.cpp:356] fc7 -> fc7
I0406 10:06:08.242678 26505 net.cpp:96] Setting up fc7
I0406 10:06:08.808881 26505 net.cpp:103] Top shape: 32 4096 1 1 (131072)
I0406 10:06:08.808939 26505 net.cpp:67] Creating Layer relu7
I0406 10:06:08.808948 26505 net.cpp:394] relu7 <- fc7
I0406 10:06:08.808956 26505 net.cpp:345] relu7 -> fc7 (in-place)
I0406 10:06:08.808965 26505 net.cpp:96] Setting up relu7
I0406 10:06:08.808987 26505 net.cpp:103] Top shape: 32 4096 1 1 (131072)
I0406 10:06:08.808995 26505 net.cpp:67] Creating Layer drop7
I0406 10:06:08.809011 26505 net.cpp:394] drop7 <- fc7
I0406 10:06:08.809017 26505 net.cpp:345] drop7 -> fc7 (in-place)
I0406 10:06:08.809023 26505 net.cpp:96] Setting up drop7
I0406 10:06:08.809028 26505 net.cpp:103] Top shape: 32 4096 1 1 (131072)
I0406 10:06:08.809038 26505 net.cpp:67] Creating Layer fc8_deepfashion
I0406 10:06:08.809042 26505 net.cpp:394] fc8_deepfashion <- fc7
I0406 10:06:08.809048 26505 net.cpp:356] fc8_deepfashion -> fc8_deepfashion
I0406 10:06:08.809056 26505 net.cpp:96] Setting up fc8_deepfashion
I0406 10:06:08.816220 26505 net.cpp:103] Top shape: 32 48 1 1 (1536)
I0406 10:06:08.816246 26505 net.cpp:67] Creating Layer fc8_deepfashion_encode
I0406 10:06:08.816251 26505 net.cpp:394] fc8_deepfashion_encode <- fc8_deepfashion
I0406 10:06:08.816257 26505 net.cpp:356] fc8_deepfashion_encode -> fc8_deepfashion_encode
I0406 10:06:08.816272 26505 net.cpp:96] Setting up fc8_deepfashion_encode
I0406 10:06:08.816282 26505 net.cpp:103] Top shape: 32 48 1 1 (1536)
I0406 10:06:08.816293 26505 net.cpp:67] Creating Layer fc8_deepfashion_encode_fc8_deepfashion_encode_0_split
I0406 10:06:08.816298 26505 net.cpp:394] fc8_deepfashion_encode_fc8_deepfashion_encode_0_split <- fc8_deepfashion_encode
I0406 10:06:08.816303 26505 net.cpp:356] fc8_deepfashion_encode_fc8_deepfashion_encode_0_split -> fc8_deepfashion_encode_fc8_deepfashion_encode_0_split_0
I0406 10:06:08.816309 26505 net.cpp:356] fc8_deepfashion_encode_fc8_deepfashion_encode_0_split -> fc8_deepfashion_encode_fc8_deepfashion_encode_0_split_1
I0406 10:06:08.816328 26505 net.cpp:96] Setting up fc8_deepfashion_encode_fc8_deepfashion_encode_0_split
I0406 10:06:08.816336 26505 net.cpp:103] Top shape: 32 48 1 1 (1536)
I0406 10:06:08.816344 26505 net.cpp:103] Top shape: 32 48 1 1 (1536)
I0406 10:06:08.816359 26505 net.cpp:67] Creating Layer fc8_pascal_label_mod
I0406 10:06:08.816367 26505 net.cpp:394] fc8_pascal_label_mod <- fc8_deepfashion_encode_fc8_deepfashion_encode_0_split_0
I0406 10:06:08.816378 26505 net.cpp:356] fc8_pascal_label_mod -> fc8_pascal_label_mod
I0406 10:06:08.816400 26505 net.cpp:96] Setting up fc8_pascal_label_mod
I0406 10:06:08.816433 26505 net.cpp:103] Top shape: 32 10 1 1 (320)
I0406 10:06:08.816457 26505 net.cpp:67] Creating Layer fc8_pascal_label_mod_fc8_pascal_label_mod_0_split
I0406 10:06:08.816462 26505 net.cpp:394] fc8_pascal_label_mod_fc8_pascal_label_mod_0_split <- fc8_pascal_label_mod
I0406 10:06:08.816468 26505 net.cpp:356] fc8_pascal_label_mod_fc8_pascal_label_mod_0_split -> fc8_pascal_label_mod_fc8_pascal_label_mod_0_split_0
I0406 10:06:08.816476 26505 net.cpp:356] fc8_pascal_label_mod_fc8_pascal_label_mod_0_split -> fc8_pascal_label_mod_fc8_pascal_label_mod_0_split_1
I0406 10:06:08.816491 26505 net.cpp:96] Setting up fc8_pascal_label_mod_fc8_pascal_label_mod_0_split
I0406 10:06:08.816500 26505 net.cpp:103] Top shape: 32 10 1 1 (320)
I0406 10:06:08.816509 26505 net.cpp:103] Top shape: 32 10 1 1 (320)
I0406 10:06:08.816520 26505 net.cpp:67] Creating Layer fc8_pascal_color_mod
I0406 10:06:08.816539 26505 net.cpp:394] fc8_pascal_color_mod <- fc8_deepfashion_encode_fc8_deepfashion_encode_0_split_1
I0406 10:06:08.816551 26505 net.cpp:356] fc8_pascal_color_mod -> fc8_pascal_color_mod
I0406 10:06:08.816570 26505 net.cpp:96] Setting up fc8_pascal_color_mod
I0406 10:06:08.816622 26505 net.cpp:103] Top shape: 32 16 1 1 (512)
I0406 10:06:08.816649 26505 net.cpp:67] Creating Layer fc8_pascal_color_mod_fc8_pascal_color_mod_0_split
I0406 10:06:08.816668 26505 net.cpp:394] fc8_pascal_color_mod_fc8_pascal_color_mod_0_split <- fc8_pascal_color_mod
I0406 10:06:08.816678 26505 net.cpp:356] fc8_pascal_color_mod_fc8_pascal_color_mod_0_split -> fc8_pascal_color_mod_fc8_pascal_color_mod_0_split_0
I0406 10:06:08.816709 26505 net.cpp:356] fc8_pascal_color_mod_fc8_pascal_color_mod_0_split -> fc8_pascal_color_mod_fc8_pascal_color_mod_0_split_1
I0406 10:06:08.816728 26505 net.cpp:96] Setting up fc8_pascal_color_mod_fc8_pascal_color_mod_0_split
I0406 10:06:08.816737 26505 net.cpp:103] Top shape: 32 16 1 1 (512)
I0406 10:06:08.816745 26505 net.cpp:103] Top shape: 32 16 1 1 (512)
I0406 10:06:08.816759 26505 net.cpp:67] Creating Layer loss
I0406 10:06:08.816771 26505 net.cpp:394] loss <- fc8_pascal_label_mod_fc8_pascal_label_mod_0_split_0
I0406 10:06:08.816781 26505 net.cpp:394] loss <- labels0_sliceL_0_split_0
I0406 10:06:08.816792 26505 net.cpp:356] loss -> (automatic)
I0406 10:06:08.816809 26505 net.cpp:96] Setting up loss
I0406 10:06:08.816820 26505 net.cpp:103] Top shape: 1 1 1 1 (1)
I0406 10:06:08.816824 26505 net.cpp:109]     with loss weight 1
I0406 10:06:08.816850 26505 net.cpp:67] Creating Layer loss
I0406 10:06:08.816855 26505 net.cpp:394] loss <- fc8_pascal_color_mod_fc8_pascal_color_mod_0_split_0
I0406 10:06:08.816861 26505 net.cpp:394] loss <- labels1_sliceL_1_split_0
I0406 10:06:08.816869 26505 net.cpp:356] loss -> (automatic)
I0406 10:06:08.816879 26505 net.cpp:96] Setting up loss
I0406 10:06:08.816890 26505 net.cpp:103] Top shape: 1 1 1 1 (1)
I0406 10:06:08.816895 26505 net.cpp:109]     with loss weight 1
I0406 10:06:08.816903 26505 net.cpp:67] Creating Layer accuracy
I0406 10:06:08.816910 26505 net.cpp:394] accuracy <- fc8_pascal_color_mod_fc8_pascal_color_mod_0_split_1
I0406 10:06:08.816915 26505 net.cpp:394] accuracy <- labels1_sliceL_1_split_1
I0406 10:06:08.816922 26505 net.cpp:356] accuracy -> colorAccuracy
I0406 10:06:08.816936 26505 net.cpp:96] Setting up accuracy
I0406 10:06:08.816944 26505 net.cpp:103] Top shape: 1 1 1 1 (1)
I0406 10:06:08.816952 26505 net.cpp:67] Creating Layer accuracy1
I0406 10:06:08.816956 26505 net.cpp:394] accuracy1 <- fc8_pascal_label_mod_fc8_pascal_label_mod_0_split_1
I0406 10:06:08.816962 26505 net.cpp:394] accuracy1 <- labels0_sliceL_0_split_1
I0406 10:06:08.816967 26505 net.cpp:356] accuracy1 -> labelAccuracy
I0406 10:06:08.816974 26505 net.cpp:96] Setting up accuracy1
I0406 10:06:08.816985 26505 net.cpp:103] Top shape: 1 1 1 1 (1)
I0406 10:06:08.816995 26505 net.cpp:67] Creating Layer silence
I0406 10:06:08.817003 26505 net.cpp:394] silence <- random
I0406 10:06:08.817013 26505 net.cpp:96] Setting up silence
I0406 10:06:08.817019 26505 net.cpp:172] silence does not need backward computation.
I0406 10:06:08.817034 26505 net.cpp:172] accuracy1 does not need backward computation.
I0406 10:06:08.817042 26505 net.cpp:172] accuracy does not need backward computation.
…
