…
E0309 18:35:55.524520  1813 upgrade_proto.cpp:604] Note that future Caffe releases will not support V0NetParameter; use ./build/tools/upgrade_net_proto_text for prototxt and ./build/tools/upgrade_net_proto_binary for model weights upgrade this and any other net protos to the new format.
I0309 18:35:55.524765  1813 net.cpp:39] Initializing net from parameters: 
name: "deepFashion"
layers {
  top: "data"
  top: "label"
  name: "data"
  type: DATA
  data_param {
    source: "/data/deepfashion/Test/Test_TRAIN"
    batch_size: 32
  }
  transform_param {
    mirror: true
    crop_size: 227
    mean_file: "../../../data/ilsvrc12/imagenet_mean.binaryproto"
  }
}
layers {
  bottom: "data"
  top: "conv1"
  name: "conv1"
  type: CONVOLUTION
  blobs_lr: 1
  blobs_lr: 2
  weight_decay: 1
  weight_decay: 0
  convolution_param {
    num_output: 96
    kernel_size: 11
    stride: 4
    weight_filler {
      type: "gaussian"
      std: 0.01
    }
    bias_filler {
      type: "constant"
      value: 0
    }
  }
}
layers {
  bottom: "conv1"
  top: "conv1"
  name: "relu1"
  type: RELU
}
layers {
  bottom: "conv1"
  top: "pool1"
  name: "pool1"
  type: POOLING
  pooling_param {
    pool: MAX
    kernel_size: 3
    stride: 2
  }
}
layers {
  bottom: "pool1"
  top: "norm1"
  name: "norm1"
  type: LRN
  lrn_param {
    local_size: 5
    alpha: 0.0001
    beta: 0.75
  }
}
layers {
  bottom: "norm1"
  top: "conv2"
  name: "conv2"
  type: CONVOLUTION
  blobs_lr: 1
  blobs_lr: 2
  weight_decay: 1
  weight_decay: 0
  convolution_param {
    num_output: 256
    pad: 2
    kernel_size: 5
    group: 2
    weight_filler {
      type: "gaussian"
      std: 0.01
    }
    bias_filler {
      type: "constant"
      value: 1
    }
  }
}
layers {
  bottom: "conv2"
  top: "conv2"
  name: "relu2"
  type: RELU
}
layers {
  bottom: "conv2"
  top: "pool2"
  name: "pool2"
  type: POOLING
  pooling_param {
    pool: MAX
    kernel_size: 3
    stride: 2
  }
}
layers {
  bottom: "pool2"
  top: "norm2"
  name: "norm2"
  type: LRN
  lrn_param {
    local_size: 5
    alpha: 0.0001
    beta: 0.75
  }
}
layers {
  bottom: "norm2"
  top: "conv3"
  name: "conv3"
  type: CONVOLUTION
  blobs_lr: 1
  blobs_lr: 2
  weight_decay: 1
  weight_decay: 0
  convolution_param {
    num_output: 384
    pad: 1
    kernel_size: 3
    weight_filler {
      type: "gaussian"
      std: 0.01
    }
    bias_filler {
      type: "constant"
      value: 0
    }
  }
}
layers {
  bottom: "conv3"
  top: "conv3"
  name: "relu3"
  type: RELU
}
layers {
  bottom: "conv3"
  top: "conv4"
  name: "conv4"
  type: CONVOLUTION
  blobs_lr: 1
  blobs_lr: 2
  weight_decay: 1
  weight_decay: 0
  convolution_param {
    num_output: 384
    pad: 1
    kernel_size: 3
    group: 2
    weight_filler {
      type: "gaussian"
      std: 0.01
    }
    bias_filler {
      type: "constant"
      value: 1
    }
  }
}
layers {
  bottom: "conv4"
  top: "conv4"
  name: "relu4"
  type: RELU
}
layers {
  bottom: "conv4"
  top: "conv5"
  name: "conv5"
  type: CONVOLUTION
  blobs_lr: 1
  blobs_lr: 2
  weight_decay: 1
  weight_decay: 0
  convolution_param {
    num_output: 256
    pad: 1
    kernel_size: 3
    group: 2
    weight_filler {
      type: "gaussian"
      std: 0.01
    }
    bias_filler {
      type: "constant"
      value: 1
    }
  }
}
layers {
  bottom: "conv5"
  top: "conv5"
  name: "relu5"
  type: RELU
}
layers {
  bottom: "conv5"
  top: "pool5"
  name: "pool5"
  type: POOLING
  pooling_param {
    pool: MAX
    kernel_size: 3
    stride: 2
  }
}
layers {
  bottom: "pool5"
  top: "fc6"
  name: "fc6"
  type: INNER_PRODUCT
  blobs_lr: 1
  blobs_lr: 2
  weight_decay: 1
  weight_decay: 0
  inner_product_param {
    num_output: 4096
    weight_filler {
      type: "gaussian"
      std: 0.005
    }
    bias_filler {
      type: "constant"
      value: 1
    }
  }
}
layers {
  bottom: "fc6"
  top: "fc6"
  name: "relu6"
  type: RELU
}
layers {
  bottom: "fc6"
  top: "fc6"
  name: "drop6"
  type: DROPOUT
  dropout_param {
    dropout_ratio: 0.5
  }
}
layers {
  bottom: "fc6"
  top: "fc7"
  name: "fc7"
  type: INNER_PRODUCT
  blobs_lr: 1
  blobs_lr: 2
  weight_decay: 1
  weight_decay: 0
  inner_product_param {
    num_output: 4096
    weight_filler {
      type: "gaussian"
      std: 0.005
    }
    bias_filler {
      type: "constant"
      value: 1
    }
  }
}
layers {
  bottom: "fc7"
  top: "fc7"
  name: "relu7"
  type: RELU
}
layers {
  bottom: "fc7"
  top: "fc7"
  name: "drop7"
  type: DROPOUT
  dropout_param {
    dropout_ratio: 0.5
  }
}
layers {
  bottom: "fc7"
  top: "fc8_kevin"
  name: "fc8_kevin"
  type: INNER_PRODUCT
  blobs_lr: 1
  blobs_lr: 2
  weight_decay: 1
  weight_decay: 0
  inner_product_param {
    num_output: 48
    weight_filler {
      type: "gaussian"
      std: 0.005
    }
    bias_filler {
      type: "constant"
      value: 1
    }
  }
}
layers {
  bottom: "fc8_kevin"
  top: "fc8_kevin_encode"
  name: "fc8_kevin_encode"
  type: SIGMOID
}
layers {
  bottom: "fc8_kevin_encode"
  top: "fc8_pascal"
  name: "fc8_pascal"
  type: INNER_PRODUCT
  blobs_lr: 10
  blobs_lr: 20
  weight_decay: 1
  weight_decay: 0
  inner_product_param {
    num_output: 31
    weight_filler {
      type: "gaussian"
      std: 0.01
    }
    bias_filler {
      type: "constant"
      value: 0
    }
  }
}
layers {
  bottom: "fc8_pascal"
  bottom: "label"
  name: "loss"
  type: SOFTMAX_LOSS
}
state {
  phase: TRAIN
}
I0309 18:35:55.527859  1813 net.cpp:67] Creating Layer data
I0309 18:35:55.527880  1813 net.cpp:356] data -> data
I0309 18:35:55.527896  1813 net.cpp:356] data -> label
I0309 18:35:55.527914  1813 net.cpp:96] Setting up data
I0309 18:35:55.529711  1813 data_layer.cpp:45] Opening leveldb /data/deepfashion/Test/Test_TRAIN
I0309 18:36:00.791069  1813 data_layer.cpp:128] output data size: 32,3,227,227
I0309 18:36:00.791100  1813 base_data_layer.cpp:36] Loading mean file from../../../data/ilsvrc12/imagenet_mean.binaryproto
I0309 18:36:00.804669  1813 net.cpp:103] Top shape: 32 3 227 227 (4946784)
I0309 18:36:00.804703  1813 net.cpp:103] Top shape: 32 1 1 1 (32)
I0309 18:36:00.804723  1813 net.cpp:67] Creating Layer conv1
I0309 18:36:00.804728  1813 net.cpp:394] conv1 <- data
I0309 18:36:00.804740  1813 net.cpp:356] conv1 -> conv1
I0309 18:36:00.804755  1813 net.cpp:96] Setting up conv1
I0309 18:36:00.951616  1813 net.cpp:103] Top shape: 32 96 55 55 (9292800)
I0309 18:36:00.951676  1813 net.cpp:67] Creating Layer relu1
I0309 18:36:00.951683  1813 net.cpp:394] relu1 <- conv1
I0309 18:36:00.951692  1813 net.cpp:345] relu1 -> conv1 (in-place)
I0309 18:36:00.951700  1813 net.cpp:96] Setting up relu1
I0309 18:36:00.951711  1813 net.cpp:103] Top shape: 32 96 55 55 (9292800)
I0309 18:36:00.951719  1813 net.cpp:67] Creating Layer pool1
I0309 18:36:00.951724  1813 net.cpp:394] pool1 <- conv1
I0309 18:36:00.951756  1813 net.cpp:356] pool1 -> pool1
I0309 18:36:00.951764  1813 net.cpp:96] Setting up pool1
I0309 18:36:00.951807  1813 net.cpp:103] Top shape: 32 96 27 27 (2239488)
I0309 18:36:00.951822  1813 net.cpp:67] Creating Layer norm1
I0309 18:36:00.951828  1813 net.cpp:394] norm1 <- pool1
I0309 18:36:00.951833  1813 net.cpp:356] norm1 -> norm1
I0309 18:36:00.951843  1813 net.cpp:96] Setting up norm1
I0309 18:36:00.951867  1813 net.cpp:103] Top shape: 32 96 27 27 (2239488)
I0309 18:36:00.951882  1813 net.cpp:67] Creating Layer conv2
I0309 18:36:00.951887  1813 net.cpp:394] conv2 <- norm1
I0309 18:36:00.951894  1813 net.cpp:356] conv2 -> conv2
I0309 18:36:00.951900  1813 net.cpp:96] Setting up conv2
I0309 18:36:00.961721  1813 net.cpp:103] Top shape: 32 256 27 27 (5971968)
I0309 18:36:00.961745  1813 net.cpp:67] Creating Layer relu2
I0309 18:36:00.961750  1813 net.cpp:394] relu2 <- conv2
I0309 18:36:00.961756  1813 net.cpp:345] relu2 -> conv2 (in-place)
I0309 18:36:00.961762  1813 net.cpp:96] Setting up relu2
I0309 18:36:00.961768  1813 net.cpp:103] Top shape: 32 256 27 27 (5971968)
I0309 18:36:00.961776  1813 net.cpp:67] Creating Layer pool2
I0309 18:36:00.961779  1813 net.cpp:394] pool2 <- conv2
I0309 18:36:00.961786  1813 net.cpp:356] pool2 -> pool2
I0309 18:36:00.961791  1813 net.cpp:96] Setting up pool2
I0309 18:36:00.961798  1813 net.cpp:103] Top shape: 32 256 13 13 (1384448)
I0309 18:36:00.961807  1813 net.cpp:67] Creating Layer norm2
I0309 18:36:00.961810  1813 net.cpp:394] norm2 <- pool2
I0309 18:36:00.961817  1813 net.cpp:356] norm2 -> norm2
I0309 18:36:00.961822  1813 net.cpp:96] Setting up norm2
I0309 18:36:00.961827  1813 net.cpp:103] Top shape: 32 256 13 13 (1384448)
I0309 18:36:00.961833  1813 net.cpp:67] Creating Layer conv3
I0309 18:36:00.961838  1813 net.cpp:394] conv3 <- norm2
I0309 18:36:00.961844  1813 net.cpp:356] conv3 -> conv3
I0309 18:36:00.961851  1813 net.cpp:96] Setting up conv3
I0309 18:36:00.989946  1813 net.cpp:103] Top shape: 32 384 13 13 (2076672)
I0309 18:36:00.989972  1813 net.cpp:67] Creating Layer relu3
I0309 18:36:00.989977  1813 net.cpp:394] relu3 <- conv3
I0309 18:36:00.989984  1813 net.cpp:345] relu3 -> conv3 (in-place)
I0309 18:36:00.989990  1813 net.cpp:96] Setting up relu3
I0309 18:36:00.990000  1813 net.cpp:103] Top shape: 32 384 13 13 (2076672)
I0309 18:36:00.990006  1813 net.cpp:67] Creating Layer conv4
I0309 18:36:00.990010  1813 net.cpp:394] conv4 <- conv3
I0309 18:36:00.990016  1813 net.cpp:356] conv4 -> conv4
I0309 18:36:00.990023  1813 net.cpp:96] Setting up conv4
I0309 18:36:01.011236  1813 net.cpp:103] Top shape: 32 384 13 13 (2076672)
I0309 18:36:01.011260  1813 net.cpp:67] Creating Layer relu4
I0309 18:36:01.011265  1813 net.cpp:394] relu4 <- conv4
I0309 18:36:01.011272  1813 net.cpp:345] relu4 -> conv4 (in-place)
I0309 18:36:01.011279  1813 net.cpp:96] Setting up relu4
I0309 18:36:01.011286  1813 net.cpp:103] Top shape: 32 384 13 13 (2076672)
I0309 18:36:01.011293  1813 net.cpp:67] Creating Layer conv5
I0309 18:36:01.011297  1813 net.cpp:394] conv5 <- conv4
I0309 18:36:01.011304  1813 net.cpp:356] conv5 -> conv5
I0309 18:36:01.011310  1813 net.cpp:96] Setting up conv5
I0309 18:36:01.025406  1813 net.cpp:103] Top shape: 32 256 13 13 (1384448)
I0309 18:36:01.025430  1813 net.cpp:67] Creating Layer relu5
I0309 18:36:01.025435  1813 net.cpp:394] relu5 <- conv5
I0309 18:36:01.025441  1813 net.cpp:345] relu5 -> conv5 (in-place)
I0309 18:36:01.025447  1813 net.cpp:96] Setting up relu5
I0309 18:36:01.025454  1813 net.cpp:103] Top shape: 32 256 13 13 (1384448)
I0309 18:36:01.025460  1813 net.cpp:67] Creating Layer pool5
I0309 18:36:01.025465  1813 net.cpp:394] pool5 <- conv5
I0309 18:36:01.025470  1813 net.cpp:356] pool5 -> pool5
I0309 18:36:01.025476  1813 net.cpp:96] Setting up pool5
I0309 18:36:01.025483  1813 net.cpp:103] Top shape: 32 256 6 6 (294912)
I0309 18:36:01.025492  1813 net.cpp:67] Creating Layer fc6
I0309 18:36:01.025496  1813 net.cpp:394] fc6 <- pool5
I0309 18:36:01.025503  1813 net.cpp:356] fc6 -> fc6
I0309 18:36:01.025509  1813 net.cpp:96] Setting up fc6
I0309 18:36:02.226207  1813 net.cpp:103] Top shape: 32 4096 1 1 (131072)
I0309 18:36:02.226258  1813 net.cpp:67] Creating Layer relu6
I0309 18:36:02.226266  1813 net.cpp:394] relu6 <- fc6
I0309 18:36:02.226275  1813 net.cpp:345] relu6 -> fc6 (in-place)
I0309 18:36:02.226284  1813 net.cpp:96] Setting up relu6
I0309 18:36:02.226302  1813 net.cpp:103] Top shape: 32 4096 1 1 (131072)
I0309 18:36:02.226310  1813 net.cpp:67] Creating Layer drop6
I0309 18:36:02.226315  1813 net.cpp:394] drop6 <- fc6
I0309 18:36:02.226320  1813 net.cpp:345] drop6 -> fc6 (in-place)
I0309 18:36:02.226326  1813 net.cpp:96] Setting up drop6
I0309 18:36:02.226338  1813 net.cpp:103] Top shape: 32 4096 1 1 (131072)
I0309 18:36:02.226353  1813 net.cpp:67] Creating Layer fc7
I0309 18:36:02.226358  1813 net.cpp:394] fc7 <- fc6
I0309 18:36:02.226369  1813 net.cpp:356] fc7 -> fc7
I0309 18:36:02.226384  1813 net.cpp:96] Setting up fc7
I0309 18:36:02.761776  1813 net.cpp:103] Top shape: 32 4096 1 1 (131072)
I0309 18:36:02.761831  1813 net.cpp:67] Creating Layer relu7
I0309 18:36:02.761837  1813 net.cpp:394] relu7 <- fc7
I0309 18:36:02.761847  1813 net.cpp:345] relu7 -> fc7 (in-place)
I0309 18:36:02.761855  1813 net.cpp:96] Setting up relu7
I0309 18:36:02.761874  1813 net.cpp:103] Top shape: 32 4096 1 1 (131072)
I0309 18:36:02.761880  1813 net.cpp:67] Creating Layer drop7
I0309 18:36:02.761885  1813 net.cpp:394] drop7 <- fc7
I0309 18:36:02.761890  1813 net.cpp:345] drop7 -> fc7 (in-place)
I0309 18:36:02.761898  1813 net.cpp:96] Setting up drop7
I0309 18:36:02.761901  1813 net.cpp:103] Top shape: 32 4096 1 1 (131072)
I0309 18:36:02.761909  1813 net.cpp:67] Creating Layer fc8_kevin
I0309 18:36:02.761914  1813 net.cpp:394] fc8_kevin <- fc7
I0309 18:36:02.761919  1813 net.cpp:356] fc8_kevin -> fc8_kevin
I0309 18:36:02.761926  1813 net.cpp:96] Setting up fc8_kevin
I0309 18:36:02.768237  1813 net.cpp:103] Top shape: 32 48 1 1 (1536)
I0309 18:36:02.768260  1813 net.cpp:67] Creating Layer fc8_kevin_encode
I0309 18:36:02.768265  1813 net.cpp:394] fc8_kevin_encode <- fc8_kevin
I0309 18:36:02.768272  1813 net.cpp:356] fc8_kevin_encode -> fc8_kevin_encode
I0309 18:36:02.768278  1813 net.cpp:96] Setting up fc8_kevin_encode
I0309 18:36:02.768296  1813 net.cpp:103] Top shape: 32 48 1 1 (1536)
I0309 18:36:02.768304  1813 net.cpp:67] Creating Layer fc8_pascal
I0309 18:36:02.768316  1813 net.cpp:394] fc8_pascal <- fc8_kevin_encode
I0309 18:36:02.768328  1813 net.cpp:356] fc8_pascal -> fc8_pascal
I0309 18:36:02.768350  1813 net.cpp:96] Setting up fc8_pascal
I0309 18:36:02.768446  1813 net.cpp:103] Top shape: 32 31 1 1 (992)
I0309 18:36:02.768474  1813 net.cpp:67] Creating Layer loss
I0309 18:36:02.768481  1813 net.cpp:394] loss <- fc8_pascal
I0309 18:36:02.768486  1813 net.cpp:394] loss <- label
I0309 18:36:02.768492  1813 net.cpp:356] loss -> (automatic)
I0309 18:36:02.768498  1813 net.cpp:96] Setting up loss
I0309 18:36:02.768510  1813 net.cpp:103] Top shape: 1 1 1 1 (1)
I0309 18:36:02.768527  1813 net.cpp:109]     with loss weight 1
I0309 18:36:02.768568  1813 net.cpp:170] loss needs backward computation.
I0309 18:36:02.768574  1813 net.cpp:170] fc8_pascal needs backward computation.
I0309 18:36:02.768579  1813 net.cpp:170] fc8_kevin_encode needs backward computation.
I0309 18:36:02.768582  1813 net.cpp:170] fc8_kevin needs backward computation.
I0309 18:36:02.768586  1813 net.cpp:170] drop7 needs backward computation.
…
E0309 18:36:02.769668  1813 upgrade_proto.cpp:604] Note that future Caffe releases will not support V0NetParameter; use ./build/tools/upgrade_net_proto_text for prototxt and ./build/tools/upgrade_net_proto_binary for model weights upgrade this and any other net protos to the new format.
I0309 18:36:02.769711  1813 solver.cpp:151] Creating test net (#0) specified by test_net file: test_fashion_48.prototxt
I0309 18:36:02.769949  1813 net.cpp:39] Initializing net from parameters: 
name: "deepFashion"
layers {
  top: "data"
  top: "label"
  name: "data"
  type: DATA
  data_param {
    source: "/data/deepfashion/Test/Test_test"
    batch_size: 32
  }
  transform_param {
    mirror: true
    crop_size: 227
    mean_file: "../../../data/ilsvrc12/imagenet_mean.binaryproto"
  }
}
layers {
  bottom: "data"
  top: "conv1"
  name: "conv1"
  type: CONVOLUTION
  blobs_lr: 1
  blobs_lr: 2
  weight_decay: 1
  weight_decay: 0
  convolution_param {
    num_output: 96
    kernel_size: 11
    stride: 4
    weight_filler {
      type: "gaussian"
      std: 0.01
    }
    bias_filler {
      type: "constant"
      value: 0
    }
  }
}
layers {
  bottom: "conv1"
  top: "conv1"
  name: "relu1"
  type: RELU
}
layers {
  bottom: "conv1"
  top: "pool1"
  name: "pool1"
  type: POOLING
  pooling_param {
    pool: MAX
    kernel_size: 3
    stride: 2
  }
}
layers {
  bottom: "pool1"
  top: "norm1"
  name: "norm1"
  type: LRN
  lrn_param {
    local_size: 5
    alpha: 0.0001
    beta: 0.75
  }
}
layers {
  bottom: "norm1"
  top: "conv2"
  name: "conv2"
  type: CONVOLUTION
  blobs_lr: 1
  blobs_lr: 2
  weight_decay: 1
  weight_decay: 0
  convolution_param {
    num_output: 256
    pad: 2
    kernel_size: 5
    group: 2
    weight_filler {
      type: "gaussian"
      std: 0.01
    }
    bias_filler {
      type: "constant"
      value: 1
    }
  }
}
layers {
  bottom: "conv2"
  top: "conv2"
  name: "relu2"
  type: RELU
}
layers {
  bottom: "conv2"
  top: "pool2"
  name: "pool2"
  type: POOLING
  pooling_param {
    pool: MAX
    kernel_size: 3
    stride: 2
  }
}
layers {
  bottom: "pool2"
  top: "norm2"
  name: "norm2"
  type: LRN
  lrn_param {
    local_size: 5
    alpha: 0.0001
    beta: 0.75
  }
}
layers {
  bottom: "norm2"
  top: "conv3"
  name: "conv3"
  type: CONVOLUTION
  blobs_lr: 1
  blobs_lr: 2
  weight_decay: 1
  weight_decay: 0
  convolution_param {
    num_output: 384
    pad: 1
    kernel_size: 3
    weight_filler {
      type: "gaussian"
      std: 0.01
    }
    bias_filler {
      type: "constant"
      value: 0
    }
  }
}
layers {
  bottom: "conv3"
  top: "conv3"
  name: "relu3"
  type: RELU
}
layers {
  bottom: "conv3"
  top: "conv4"
  name: "conv4"
  type: CONVOLUTION
  blobs_lr: 1
  blobs_lr: 2
  weight_decay: 1
  weight_decay: 0
  convolution_param {
    num_output: 384
    pad: 1
    kernel_size: 3
    group: 2
    weight_filler {
      type: "gaussian"
      std: 0.01
    }
    bias_filler {
      type: "constant"
      value: 1
    }
  }
}
layers {
  bottom: "conv4"
  top: "conv4"
  name: "relu4"
  type: RELU
}
layers {
  bottom: "conv4"
  top: "conv5"
  name: "conv5"
  type: CONVOLUTION
  blobs_lr: 1
  blobs_lr: 2
  weight_decay: 1
  weight_decay: 0
  convolution_param {
    num_output: 256
    pad: 1
    kernel_size: 3
    group: 2
    weight_filler {
      type: "gaussian"
      std: 0.01
    }
    bias_filler {
      type: "constant"
      value: 1
    }
  }
}
layers {
  bottom: "conv5"
  top: "conv5"
  name: "relu5"
  type: RELU
}
layers {
  bottom: "conv5"
  top: "pool5"
  name: "pool5"
  type: POOLING
  pooling_param {
    pool: MAX
    kernel_size: 3
    stride: 2
  }
}
layers {
  bottom: "pool5"
  top: "fc6"
  name: "fc6"
  type: INNER_PRODUCT
  blobs_lr: 1
  blobs_lr: 2
  weight_decay: 1
  weight_decay: 0
  inner_product_param {
    num_output: 4096
    weight_filler {
      type: "gaussian"
      std: 0.005
    }
    bias_filler {
      type: "constant"
      value: 1
    }
  }
}
layers {
  bottom: "fc6"
  top: "fc6"
  name: "relu6"
  type: RELU
}
layers {
  bottom: "fc6"
  top: "fc6"
  name: "drop6"
  type: DROPOUT
  dropout_param {
    dropout_ratio: 0.5
  }
}
layers {
  bottom: "fc6"
  top: "fc7"
  name: "fc7"
  type: INNER_PRODUCT
  blobs_lr: 1
  blobs_lr: 2
  weight_decay: 1
  weight_decay: 0
  inner_product_param {
    num_output: 4096
    weight_filler {
      type: "gaussian"
      std: 0.005
    }
    bias_filler {
      type: "constant"
      value: 1
    }
  }
}
layers {
  bottom: "fc7"
  top: "fc7"
  name: "relu7"
  type: RELU
}
layers {
  bottom: "fc7"
  top: "fc7"
  name: "drop7"
  type: DROPOUT
  dropout_param {
    dropout_ratio: 0.5
  }
}
layers {
  bottom: "fc7"
  top: "fc8_kevin"
  name: "fc8_kevin"
  type: INNER_PRODUCT
  blobs_lr: 1
  blobs_lr: 2
  weight_decay: 1
  weight_decay: 0
  inner_product_param {
    num_output: 48
    weight_filler {
      type: "gaussian"
      std: 0.005
    }
    bias_filler {
      type: "constant"
      value: 1
    }
  }
}
layers {
  bottom: "fc8_kevin"
  top: "fc8_kevin_encode"
  name: "fc8_kevin_encode"
  type: SIGMOID
}
layers {
  bottom: "fc8_kevin_encode"
  top: "fc8_pascal"
  name: "fc8_pascal"
  type: INNER_PRODUCT
  blobs_lr: 10
  blobs_lr: 20
  weight_decay: 1
  weight_decay: 0
  inner_product_param {
    num_output: 31
    weight_filler {
      type: "gaussian"
      std: 0.01
    }
    bias_filler {
      type: "constant"
      value: 0
    }
  }
}
layers {
  bottom: "fc8_pascal"
  top: "prob"
  name: "prob"
  type: SOFTMAX
}
layers {
  bottom: "prob"
  bottom: "label"
  top: "accuracy"
  name: "accuracy"
  type: ACCURACY
}
state {
  phase: TEST
}
I0309 18:36:02.770059  1813 net.cpp:67] Creating Layer data
I0309 18:36:02.770067  1813 net.cpp:356] data -> data
I0309 18:36:02.770076  1813 net.cpp:356] data -> label
I0309 18:36:02.770082  1813 net.cpp:96] Setting up data
I0309 18:36:02.770088  1813 data_layer.cpp:45] Opening leveldb /data/deepfashion/Test/Test_test
I0309 18:36:08.181670  1813 data_layer.cpp:128] output data size: 32,3,227,227
I0309 18:36:08.181704  1813 base_data_layer.cpp:36] Loading mean file from../../../data/ilsvrc12/imagenet_mean.binaryproto
I0309 18:36:08.185216  1813 net.cpp:103] Top shape: 32 3 227 227 (4946784)
I0309 18:36:08.185267  1813 net.cpp:103] Top shape: 32 1 1 1 (32)
I0309 18:36:08.185284  1813 net.cpp:67] Creating Layer conv1
I0309 18:36:08.185291  1813 net.cpp:394] conv1 <- data
I0309 18:36:08.185299  1813 net.cpp:356] conv1 -> conv1
I0309 18:36:08.185312  1813 net.cpp:96] Setting up conv1
I0309 18:36:08.186525  1813 net.cpp:103] Top shape: 32 96 55 55 (9292800)
I0309 18:36:08.186554  1813 net.cpp:67] Creating Layer relu1
I0309 18:36:08.186559  1813 net.cpp:394] relu1 <- conv1
I0309 18:36:08.186565  1813 net.cpp:345] relu1 -> conv1 (in-place)
I0309 18:36:08.186571  1813 net.cpp:96] Setting up relu1
I0309 18:36:08.186579  1813 net.cpp:103] Top shape: 32 96 55 55 (9292800)
I0309 18:36:08.186588  1813 net.cpp:67] Creating Layer pool1
I0309 18:36:08.186591  1813 net.cpp:394] pool1 <- conv1
I0309 18:36:08.186596  1813 net.cpp:356] pool1 -> pool1
I0309 18:36:08.186604  1813 net.cpp:96] Setting up pool1
I0309 18:36:08.186611  1813 net.cpp:103] Top shape: 32 96 27 27 (2239488)
I0309 18:36:08.186619  1813 net.cpp:67] Creating Layer norm1
I0309 18:36:08.186625  1813 net.cpp:394] norm1 <- pool1
I0309 18:36:08.186630  1813 net.cpp:356] norm1 -> norm1
I0309 18:36:08.186636  1813 net.cpp:96] Setting up norm1
I0309 18:36:08.186641  1813 net.cpp:103] Top shape: 32 96 27 27 (2239488)
I0309 18:36:08.186650  1813 net.cpp:67] Creating Layer conv2
I0309 18:36:08.186653  1813 net.cpp:394] conv2 <- norm1
I0309 18:36:08.186660  1813 net.cpp:356] conv2 -> conv2
I0309 18:36:08.186666  1813 net.cpp:96] Setting up conv2
I0309 18:36:08.196873  1813 net.cpp:103] Top shape: 32 256 27 27 (5971968)
I0309 18:36:08.196925  1813 net.cpp:67] Creating Layer relu2
I0309 18:36:08.196933  1813 net.cpp:394] relu2 <- conv2
I0309 18:36:08.196939  1813 net.cpp:345] relu2 -> conv2 (in-place)
I0309 18:36:08.196949  1813 net.cpp:96] Setting up relu2
I0309 18:36:08.196959  1813 net.cpp:103] Top shape: 32 256 27 27 (5971968)
I0309 18:36:08.196971  1813 net.cpp:67] Creating Layer pool2
I0309 18:36:08.196979  1813 net.cpp:394] pool2 <- conv2
I0309 18:36:08.196987  1813 net.cpp:356] pool2 -> pool2
I0309 18:36:08.197005  1813 net.cpp:96] Setting up pool2
I0309 18:36:08.197016  1813 net.cpp:103] Top shape: 32 256 13 13 (1384448)
I0309 18:36:08.197028  1813 net.cpp:67] Creating Layer norm2
I0309 18:36:08.197033  1813 net.cpp:394] norm2 <- pool2
I0309 18:36:08.197039  1813 net.cpp:356] norm2 -> norm2
I0309 18:36:08.197046  1813 net.cpp:96] Setting up norm2
I0309 18:36:08.197052  1813 net.cpp:103] Top shape: 32 256 13 13 (1384448)
I0309 18:36:08.197069  1813 net.cpp:67] Creating Layer conv3
I0309 18:36:08.197073  1813 net.cpp:394] conv3 <- norm2
I0309 18:36:08.197080  1813 net.cpp:356] conv3 -> conv3
I0309 18:36:08.197088  1813 net.cpp:96] Setting up conv3
I0309 18:36:08.225596  1813 net.cpp:103] Top shape: 32 384 13 13 (2076672)
I0309 18:36:08.225649  1813 net.cpp:67] Creating Layer relu3
I0309 18:36:08.225657  1813 net.cpp:394] relu3 <- conv3
I0309 18:36:08.225664  1813 net.cpp:345] relu3 -> conv3 (in-place)
I0309 18:36:08.225673  1813 net.cpp:96] Setting up relu3
I0309 18:36:08.225680  1813 net.cpp:103] Top shape: 32 384 13 13 (2076672)
I0309 18:36:08.225689  1813 net.cpp:67] Creating Layer conv4
I0309 18:36:08.225693  1813 net.cpp:394] conv4 <- conv3
I0309 18:36:08.225700  1813 net.cpp:356] conv4 -> conv4
I0309 18:36:08.225708  1813 net.cpp:96] Setting up conv4
I0309 18:36:08.246873  1813 net.cpp:103] Top shape: 32 384 13 13 (2076672)
I0309 18:36:08.246902  1813 net.cpp:67] Creating Layer relu4
I0309 18:36:08.246908  1813 net.cpp:394] relu4 <- conv4
I0309 18:36:08.246915  1813 net.cpp:345] relu4 -> conv4 (in-place)
I0309 18:36:08.246923  1813 net.cpp:96] Setting up relu4
I0309 18:36:08.246930  1813 net.cpp:103] Top shape: 32 384 13 13 (2076672)
I0309 18:36:08.246938  1813 net.cpp:67] Creating Layer conv5
I0309 18:36:08.246942  1813 net.cpp:394] conv5 <- conv4
I0309 18:36:08.246951  1813 net.cpp:356] conv5 -> conv5
I0309 18:36:08.246963  1813 net.cpp:96] Setting up conv5
I0309 18:36:08.261224  1813 net.cpp:103] Top shape: 32 256 13 13 (1384448)
I0309 18:36:08.261268  1813 net.cpp:67] Creating Layer relu5
I0309 18:36:08.261275  1813 net.cpp:394] relu5 <- conv5
I0309 18:36:08.261281  1813 net.cpp:345] relu5 -> conv5 (in-place)
I0309 18:36:08.261288  1813 net.cpp:96] Setting up relu5
I0309 18:36:08.261296  1813 net.cpp:103] Top shape: 32 256 13 13 (1384448)
I0309 18:36:08.261302  1813 net.cpp:67] Creating Layer pool5
I0309 18:36:08.261307  1813 net.cpp:394] pool5 <- conv5
I0309 18:36:08.261312  1813 net.cpp:356] pool5 -> pool5
I0309 18:36:08.261318  1813 net.cpp:96] Setting up pool5
I0309 18:36:08.261327  1813 net.cpp:103] Top shape: 32 256 6 6 (294912)
I0309 18:36:08.261338  1813 net.cpp:67] Creating Layer fc6
I0309 18:36:08.261349  1813 net.cpp:394] fc6 <- pool5
I0309 18:36:08.261358  1813 net.cpp:356] fc6 -> fc6
I0309 18:36:08.261364  1813 net.cpp:96] Setting up fc6
I0309 18:36:09.486742  1813 net.cpp:103] Top shape: 32 4096 1 1 (131072)
I0309 18:36:09.486796  1813 net.cpp:67] Creating Layer relu6
I0309 18:36:09.486804  1813 net.cpp:394] relu6 <- fc6
I0309 18:36:09.486812  1813 net.cpp:345] relu6 -> fc6 (in-place)
I0309 18:36:09.486821  1813 net.cpp:96] Setting up relu6
I0309 18:36:09.486840  1813 net.cpp:103] Top shape: 32 4096 1 1 (131072)
I0309 18:36:09.486847  1813 net.cpp:67] Creating Layer drop6
I0309 18:36:09.486851  1813 net.cpp:394] drop6 <- fc6
I0309 18:36:09.486856  1813 net.cpp:345] drop6 -> fc6 (in-place)
I0309 18:36:09.486862  1813 net.cpp:96] Setting up drop6
I0309 18:36:09.486867  1813 net.cpp:103] Top shape: 32 4096 1 1 (131072)
I0309 18:36:09.486874  1813 net.cpp:67] Creating Layer fc7
I0309 18:36:09.486878  1813 net.cpp:394] fc7 <- fc6
I0309 18:36:09.486884  1813 net.cpp:356] fc7 -> fc7
I0309 18:36:09.486892  1813 net.cpp:96] Setting up fc7
I0309 18:36:10.020628  1813 net.cpp:103] Top shape: 32 4096 1 1 (131072)
I0309 18:36:10.020684  1813 net.cpp:67] Creating Layer relu7
I0309 18:36:10.020691  1813 net.cpp:394] relu7 <- fc7
I0309 18:36:10.020700  1813 net.cpp:345] relu7 -> fc7 (in-place)
I0309 18:36:10.020709  1813 net.cpp:96] Setting up relu7
I0309 18:36:10.020727  1813 net.cpp:103] Top shape: 32 4096 1 1 (131072)
I0309 18:36:10.020733  1813 net.cpp:67] Creating Layer drop7
I0309 18:36:10.020737  1813 net.cpp:394] drop7 <- fc7
I0309 18:36:10.020743  1813 net.cpp:345] drop7 -> fc7 (in-place)
I0309 18:36:10.020750  1813 net.cpp:96] Setting up drop7
I0309 18:36:10.020755  1813 net.cpp:103] Top shape: 32 4096 1 1 (131072)
I0309 18:36:10.020762  1813 net.cpp:67] Creating Layer fc8_kevin
I0309 18:36:10.020766  1813 net.cpp:394] fc8_kevin <- fc7
I0309 18:36:10.020772  1813 net.cpp:356] fc8_kevin -> fc8_kevin
I0309 18:36:10.020779  1813 net.cpp:96] Setting up fc8_kevin
I0309 18:36:10.027030  1813 net.cpp:103] Top shape: 32 48 1 1 (1536)
I0309 18:36:10.027050  1813 net.cpp:67] Creating Layer fc8_kevin_encode
I0309 18:36:10.027055  1813 net.cpp:394] fc8_kevin_encode <- fc8_kevin
I0309 18:36:10.027071  1813 net.cpp:356] fc8_kevin_encode -> fc8_kevin_encode
I0309 18:36:10.027078  1813 net.cpp:96] Setting up fc8_kevin_encode
I0309 18:36:10.027086  1813 net.cpp:103] Top shape: 32 48 1 1 (1536)
I0309 18:36:10.027094  1813 net.cpp:67] Creating Layer fc8_pascal
I0309 18:36:10.027099  1813 net.cpp:394] fc8_pascal <- fc8_kevin_encode
I0309 18:36:10.027107  1813 net.cpp:356] fc8_pascal -> fc8_pascal
I0309 18:36:10.027115  1813 net.cpp:96] Setting up fc8_pascal
I0309 18:36:10.027181  1813 net.cpp:103] Top shape: 32 31 1 1 (992)
I0309 18:36:10.027202  1813 net.cpp:67] Creating Layer prob
I0309 18:36:10.027207  1813 net.cpp:394] prob <- fc8_pascal
I0309 18:36:10.027214  1813 net.cpp:356] prob -> prob
I0309 18:36:10.027220  1813 net.cpp:96] Setting up prob
I0309 18:36:10.027245  1813 net.cpp:103] Top shape: 32 31 1 1 (992)
I0309 18:36:10.027261  1813 net.cpp:67] Creating Layer accuracy
I0309 18:36:10.027266  1813 net.cpp:394] accuracy <- prob
I0309 18:36:10.027272  1813 net.cpp:394] accuracy <- label
I0309 18:36:10.027278  1813 net.cpp:356] accuracy -> accuracy
I0309 18:36:10.027284  1813 net.cpp:96] Setting up accuracy
I0309 18:36:10.027289  1813 net.cpp:103] Top shape: 1 1 1 1 (1)
I0309 18:36:10.027330  1813 net.cpp:172] accuracy does not need backward computation.
I0309 18:36:10.027338  1813 net.cpp:172] prob does not need backward computation.
I0309 18:36:10.027341  1813 net.cpp:172] fc8_pascal does not need backward computation.
I0309 18:36:10.027344  1813 net.cpp:172] fc8_kevin_encode does not need backward computation.
I0309 18:36:10.027348  1813 net.cpp:172] fc8_kevin does not need backward computation.
…
