…
E0301 18:26:08.909802  1808 upgrade_proto.cpp:604] Note that future Caffe releases will not support V0NetParameter; use ./build/tools/upgrade_net_proto_text for prototxt and ./build/tools/upgrade_net_proto_binary for model weights upgrade this and any other net protos to the new format.
I0301 18:26:08.910070  1808 net.cpp:39] Initializing net from parameters: 
name: "deepFashion"
layers {
  top: "data"
  top: "label"
  name: "data"
  type: DATA
  data_param {
    source: "jabong_train_leveldb"
    batch_size: 32
  }
  transform_param {
    mirror: true
    crop_size: 227
    mean_file: "../../data/ilsvrc12/imagenet_mean.binaryproto"
  }
}
layers {
  bottom: "data"
  top: "conv1"
  name: "conv1"
  type: CONVOLUTION
  blobs_lr: 1
  blobs_lr: 2
  weight_decay: 1
  weight_decay: 0
  convolution_param {
    num_output: 96
    kernel_size: 11
    stride: 4
    weight_filler {
      type: "gaussian"
      std: 0.01
    }
    bias_filler {
      type: "constant"
      value: 0
    }
  }
}
layers {
  bottom: "conv1"
  top: "conv1"
  name: "relu1"
  type: RELU
}
layers {
  bottom: "conv1"
  top: "pool1"
  name: "pool1"
  type: POOLING
  pooling_param {
    pool: MAX
    kernel_size: 3
    stride: 2
  }
}
layers {
  bottom: "pool1"
  top: "norm1"
  name: "norm1"
  type: LRN
  lrn_param {
    local_size: 5
    alpha: 0.0001
    beta: 0.75
  }
}
layers {
  bottom: "norm1"
  top: "conv2"
  name: "conv2"
  type: CONVOLUTION
  blobs_lr: 1
  blobs_lr: 2
  weight_decay: 1
  weight_decay: 0
  convolution_param {
    num_output: 256
    pad: 2
    kernel_size: 5
    group: 2
    weight_filler {
      type: "gaussian"
      std: 0.01
    }
    bias_filler {
      type: "constant"
      value: 1
    }
  }
}
layers {
  bottom: "conv2"
  top: "conv2"
  name: "relu2"
  type: RELU
}
layers {
  bottom: "conv2"
  top: "pool2"
  name: "pool2"
  type: POOLING
  pooling_param {
    pool: MAX
    kernel_size: 3
    stride: 2
  }
}
layers {
  bottom: "pool2"
  top: "norm2"
  name: "norm2"
  type: LRN
  lrn_param {
    local_size: 5
    alpha: 0.0001
    beta: 0.75
  }
}
layers {
  bottom: "norm2"
  top: "conv3"
  name: "conv3"
  type: CONVOLUTION
  blobs_lr: 1
  blobs_lr: 2
  weight_decay: 1
  weight_decay: 0
  convolution_param {
    num_output: 384
    pad: 1
    kernel_size: 3
    weight_filler {
      type: "gaussian"
      std: 0.01
    }
    bias_filler {
      type: "constant"
      value: 0
    }
  }
}
layers {
  bottom: "conv3"
  top: "conv3"
  name: "relu3"
  type: RELU
}
layers {
  bottom: "conv3"
  top: "conv4"
  name: "conv4"
  type: CONVOLUTION
  blobs_lr: 1
  blobs_lr: 2
  weight_decay: 1
  weight_decay: 0
  convolution_param {
    num_output: 384
    pad: 1
    kernel_size: 3
    group: 2
    weight_filler {
      type: "gaussian"
      std: 0.01
    }
    bias_filler {
      type: "constant"
      value: 1
    }
  }
}
layers {
  bottom: "conv4"
  top: "conv4"
  name: "relu4"
  type: RELU
}
layers {
  bottom: "conv4"
  top: "conv5"
  name: "conv5"
  type: CONVOLUTION
  blobs_lr: 1
  blobs_lr: 2
  weight_decay: 1
  weight_decay: 0
  convolution_param {
    num_output: 256
    pad: 1
    kernel_size: 3
    group: 2
    weight_filler {
      type: "gaussian"
      std: 0.01
    }
    bias_filler {
      type: "constant"
      value: 1
    }
  }
}
layers {
  bottom: "conv5"
  top: "conv5"
  name: "relu5"
  type: RELU
}
layers {
  bottom: "conv5"
  top: "pool5"
  name: "pool5"
  type: POOLING
  pooling_param {
    pool: MAX
    kernel_size: 3
    stride: 2
  }
}
layers {
  bottom: "pool5"
  top: "fc6"
  name: "fc6"
  type: INNER_PRODUCT
  blobs_lr: 1
  blobs_lr: 2
  weight_decay: 1
  weight_decay: 0
  inner_product_param {
    num_output: 4096
    weight_filler {
      type: "gaussian"
      std: 0.005
    }
    bias_filler {
      type: "constant"
      value: 1
    }
  }
}
layers {
  bottom: "fc6"
  top: "fc6"
  name: "relu6"
  type: RELU
}
layers {
  bottom: "fc6"
  top: "fc6"
  name: "drop6"
  type: DROPOUT
  dropout_param {
    dropout_ratio: 0.5
  }
}
layers {
  bottom: "fc6"
  top: "fc7"
  name: "fc7"
  type: INNER_PRODUCT
  blobs_lr: 1
  blobs_lr: 2
  weight_decay: 1
  weight_decay: 0
  inner_product_param {
    num_output: 4096
    weight_filler {
      type: "gaussian"
      std: 0.005
    }
    bias_filler {
      type: "constant"
      value: 1
    }
  }
}
layers {
  bottom: "fc7"
  top: "fc7"
  name: "relu7"
  type: RELU
}
layers {
  bottom: "fc7"
  top: "fc7"
  name: "drop7"
  type: DROPOUT
  dropout_param {
    dropout_ratio: 0.5
  }
}
layers {
  bottom: "fc7"
  top: "fc8_kevin"
  name: "fc8_kevin"
  type: INNER_PRODUCT
  blobs_lr: 1
  blobs_lr: 2
  weight_decay: 1
  weight_decay: 0
  inner_product_param {
    num_output: 48
    weight_filler {
      type: "gaussian"
      std: 0.005
    }
    bias_filler {
      type: "constant"
      value: 1
    }
  }
}
layers {
  bottom: "fc8_kevin"
  top: "fc8_kevin_encode"
  name: "fc8_kevin_encode"
  type: SIGMOID
}
layers {
  bottom: "fc8_kevin_encode"
  top: "fc8_pascal"
  name: "fc8_pascal"
  type: INNER_PRODUCT
  blobs_lr: 10
  blobs_lr: 20
  weight_decay: 1
  weight_decay: 0
  inner_product_param {
    num_output: 10
    weight_filler {
      type: "gaussian"
      std: 0.01
    }
    bias_filler {
      type: "constant"
      value: 0
    }
  }
}
layers {
  bottom: "fc8_pascal"
  bottom: "label"
  name: "loss"
  type: SOFTMAX_LOSS
}
state {
  phase: TRAIN
}
I0301 18:26:08.917443  1808 net.cpp:67] Creating Layer data
I0301 18:26:08.917466  1808 net.cpp:356] data -> data
I0301 18:26:08.917490  1808 net.cpp:356] data -> label
I0301 18:26:08.917521  1808 net.cpp:96] Setting up data
I0301 18:26:08.919946  1808 data_layer.cpp:45] Opening leveldb jabong_train_leveldb
I0301 18:26:12.616298  1808 data_layer.cpp:128] output data size: 32,3,227,227
I0301 18:26:12.616341  1808 base_data_layer.cpp:36] Loading mean file from../../data/ilsvrc12/imagenet_mean.binaryproto
I0301 18:26:12.630445  1808 net.cpp:103] Top shape: 32 3 227 227 (4946784)
I0301 18:26:12.630488  1808 net.cpp:103] Top shape: 32 1 1 1 (32)
I0301 18:26:12.630517  1808 net.cpp:67] Creating Layer conv1
I0301 18:26:12.630527  1808 net.cpp:394] conv1 <- data
I0301 18:26:12.630549  1808 net.cpp:356] conv1 -> conv1
I0301 18:26:12.630573  1808 net.cpp:96] Setting up conv1
I0301 18:26:12.783557  1808 net.cpp:103] Top shape: 32 96 55 55 (9292800)
I0301 18:26:12.783643  1808 net.cpp:67] Creating Layer relu1
I0301 18:26:12.783654  1808 net.cpp:394] relu1 <- conv1
I0301 18:26:12.783668  1808 net.cpp:345] relu1 -> conv1 (in-place)
I0301 18:26:12.783684  1808 net.cpp:96] Setting up relu1
I0301 18:26:12.783701  1808 net.cpp:103] Top shape: 32 96 55 55 (9292800)
I0301 18:26:12.783716  1808 net.cpp:67] Creating Layer pool1
I0301 18:26:12.783725  1808 net.cpp:394] pool1 <- conv1
I0301 18:26:12.783736  1808 net.cpp:356] pool1 -> pool1
I0301 18:26:12.783787  1808 net.cpp:96] Setting up pool1
I0301 18:26:12.783825  1808 net.cpp:103] Top shape: 32 96 27 27 (2239488)
I0301 18:26:12.783849  1808 net.cpp:67] Creating Layer norm1
I0301 18:26:12.783859  1808 net.cpp:394] norm1 <- pool1
I0301 18:26:12.783869  1808 net.cpp:356] norm1 -> norm1
I0301 18:26:12.783888  1808 net.cpp:96] Setting up norm1
I0301 18:26:12.783933  1808 net.cpp:103] Top shape: 32 96 27 27 (2239488)
I0301 18:26:12.783957  1808 net.cpp:67] Creating Layer conv2
I0301 18:26:12.783967  1808 net.cpp:394] conv2 <- norm1
I0301 18:26:12.783980  1808 net.cpp:356] conv2 -> conv2
I0301 18:26:12.783994  1808 net.cpp:96] Setting up conv2
I0301 18:26:12.793886  1808 net.cpp:103] Top shape: 32 256 27 27 (5971968)
I0301 18:26:12.793918  1808 net.cpp:67] Creating Layer relu2
I0301 18:26:12.793928  1808 net.cpp:394] relu2 <- conv2
I0301 18:26:12.793941  1808 net.cpp:345] relu2 -> conv2 (in-place)
I0301 18:26:12.793953  1808 net.cpp:96] Setting up relu2
I0301 18:26:12.793967  1808 net.cpp:103] Top shape: 32 256 27 27 (5971968)
I0301 18:26:12.793979  1808 net.cpp:67] Creating Layer pool2
I0301 18:26:12.793988  1808 net.cpp:394] pool2 <- conv2
I0301 18:26:12.794000  1808 net.cpp:356] pool2 -> pool2
I0301 18:26:12.794013  1808 net.cpp:96] Setting up pool2
I0301 18:26:12.794026  1808 net.cpp:103] Top shape: 32 256 13 13 (1384448)
I0301 18:26:12.794040  1808 net.cpp:67] Creating Layer norm2
I0301 18:26:12.794059  1808 net.cpp:394] norm2 <- pool2
I0301 18:26:12.794070  1808 net.cpp:356] norm2 -> norm2
I0301 18:26:12.794082  1808 net.cpp:96] Setting up norm2
I0301 18:26:12.794092  1808 net.cpp:103] Top shape: 32 256 13 13 (1384448)
I0301 18:26:12.794106  1808 net.cpp:67] Creating Layer conv3
I0301 18:26:12.794116  1808 net.cpp:394] conv3 <- norm2
I0301 18:26:12.794127  1808 net.cpp:356] conv3 -> conv3
I0301 18:26:12.794142  1808 net.cpp:96] Setting up conv3
I0301 18:26:12.822412  1808 net.cpp:103] Top shape: 32 384 13 13 (2076672)
I0301 18:26:12.822461  1808 net.cpp:67] Creating Layer relu3
I0301 18:26:12.822471  1808 net.cpp:394] relu3 <- conv3
I0301 18:26:12.822484  1808 net.cpp:345] relu3 -> conv3 (in-place)
I0301 18:26:12.822496  1808 net.cpp:96] Setting up relu3
I0301 18:26:12.822510  1808 net.cpp:103] Top shape: 32 384 13 13 (2076672)
I0301 18:26:12.822525  1808 net.cpp:67] Creating Layer conv4
I0301 18:26:12.822532  1808 net.cpp:394] conv4 <- conv3
I0301 18:26:12.822546  1808 net.cpp:356] conv4 -> conv4
I0301 18:26:12.822558  1808 net.cpp:96] Setting up conv4
I0301 18:26:12.843951  1808 net.cpp:103] Top shape: 32 384 13 13 (2076672)
I0301 18:26:12.843987  1808 net.cpp:67] Creating Layer relu4
I0301 18:26:12.843997  1808 net.cpp:394] relu4 <- conv4
I0301 18:26:12.844008  1808 net.cpp:345] relu4 -> conv4 (in-place)
I0301 18:26:12.844022  1808 net.cpp:96] Setting up relu4
I0301 18:26:12.844034  1808 net.cpp:103] Top shape: 32 384 13 13 (2076672)
I0301 18:26:12.844049  1808 net.cpp:67] Creating Layer conv5
I0301 18:26:12.844058  1808 net.cpp:394] conv5 <- conv4
I0301 18:26:12.844070  1808 net.cpp:356] conv5 -> conv5
I0301 18:26:12.844084  1808 net.cpp:96] Setting up conv5
I0301 18:26:12.858249  1808 net.cpp:103] Top shape: 32 256 13 13 (1384448)
I0301 18:26:12.858285  1808 net.cpp:67] Creating Layer relu5
I0301 18:26:12.858295  1808 net.cpp:394] relu5 <- conv5
I0301 18:26:12.858306  1808 net.cpp:345] relu5 -> conv5 (in-place)
I0301 18:26:12.858319  1808 net.cpp:96] Setting up relu5
I0301 18:26:12.858332  1808 net.cpp:103] Top shape: 32 256 13 13 (1384448)
I0301 18:26:12.858346  1808 net.cpp:67] Creating Layer pool5
I0301 18:26:12.858355  1808 net.cpp:394] pool5 <- conv5
I0301 18:26:12.858366  1808 net.cpp:356] pool5 -> pool5
I0301 18:26:12.858379  1808 net.cpp:96] Setting up pool5
I0301 18:26:12.858395  1808 net.cpp:103] Top shape: 32 256 6 6 (294912)
I0301 18:26:12.858414  1808 net.cpp:67] Creating Layer fc6
I0301 18:26:12.858427  1808 net.cpp:394] fc6 <- pool5
I0301 18:26:12.858439  1808 net.cpp:356] fc6 -> fc6
I0301 18:26:12.858453  1808 net.cpp:96] Setting up fc6
I0301 18:26:14.080396  1808 net.cpp:103] Top shape: 32 4096 1 1 (131072)
I0301 18:26:14.080505  1808 net.cpp:67] Creating Layer relu6
I0301 18:26:14.080518  1808 net.cpp:394] relu6 <- fc6
I0301 18:26:14.080530  1808 net.cpp:345] relu6 -> fc6 (in-place)
I0301 18:26:14.080545  1808 net.cpp:96] Setting up relu6
I0301 18:26:14.080576  1808 net.cpp:103] Top shape: 32 4096 1 1 (131072)
I0301 18:26:14.080590  1808 net.cpp:67] Creating Layer drop6
I0301 18:26:14.080611  1808 net.cpp:394] drop6 <- fc6
I0301 18:26:14.080623  1808 net.cpp:345] drop6 -> fc6 (in-place)
I0301 18:26:14.080636  1808 net.cpp:96] Setting up drop6
I0301 18:26:14.080656  1808 net.cpp:103] Top shape: 32 4096 1 1 (131072)
I0301 18:26:14.080677  1808 net.cpp:67] Creating Layer fc7
I0301 18:26:14.080687  1808 net.cpp:394] fc7 <- fc6
I0301 18:26:14.080700  1808 net.cpp:356] fc7 -> fc7
I0301 18:26:14.080715  1808 net.cpp:96] Setting up fc7
I0301 18:26:14.615051  1808 net.cpp:103] Top shape: 32 4096 1 1 (131072)
I0301 18:26:14.615131  1808 net.cpp:67] Creating Layer relu7
I0301 18:26:14.615144  1808 net.cpp:394] relu7 <- fc7
I0301 18:26:14.615157  1808 net.cpp:345] relu7 -> fc7 (in-place)
I0301 18:26:14.615173  1808 net.cpp:96] Setting up relu7
I0301 18:26:14.615201  1808 net.cpp:103] Top shape: 32 4096 1 1 (131072)
I0301 18:26:14.615214  1808 net.cpp:67] Creating Layer drop7
I0301 18:26:14.615223  1808 net.cpp:394] drop7 <- fc7
I0301 18:26:14.615236  1808 net.cpp:345] drop7 -> fc7 (in-place)
I0301 18:26:14.615247  1808 net.cpp:96] Setting up drop7
I0301 18:26:14.615257  1808 net.cpp:103] Top shape: 32 4096 1 1 (131072)
I0301 18:26:14.615270  1808 net.cpp:67] Creating Layer fc8_kevin
I0301 18:26:14.615278  1808 net.cpp:394] fc8_kevin <- fc7
I0301 18:26:14.615291  1808 net.cpp:356] fc8_kevin -> fc8_kevin
I0301 18:26:14.615305  1808 net.cpp:96] Setting up fc8_kevin
I0301 18:26:14.621616  1808 net.cpp:103] Top shape: 32 48 1 1 (1536)
I0301 18:26:14.621644  1808 net.cpp:67] Creating Layer fc8_kevin_encode
I0301 18:26:14.621654  1808 net.cpp:394] fc8_kevin_encode <- fc8_kevin
I0301 18:26:14.621665  1808 net.cpp:356] fc8_kevin_encode -> fc8_kevin_encode
I0301 18:26:14.621677  1808 net.cpp:96] Setting up fc8_kevin_encode
I0301 18:26:14.621701  1808 net.cpp:103] Top shape: 32 48 1 1 (1536)
I0301 18:26:14.621731  1808 net.cpp:67] Creating Layer fc8_pascal
I0301 18:26:14.621742  1808 net.cpp:394] fc8_pascal <- fc8_kevin_encode
I0301 18:26:14.621755  1808 net.cpp:356] fc8_pascal -> fc8_pascal
I0301 18:26:14.621773  1808 net.cpp:96] Setting up fc8_pascal
I0301 18:26:14.621815  1808 net.cpp:103] Top shape: 32 10 1 1 (320)
I0301 18:26:14.621847  1808 net.cpp:67] Creating Layer loss
I0301 18:26:14.621857  1808 net.cpp:394] loss <- fc8_pascal
I0301 18:26:14.621867  1808 net.cpp:394] loss <- label
I0301 18:26:14.621879  1808 net.cpp:356] loss -> (automatic)
I0301 18:26:14.621891  1808 net.cpp:96] Setting up loss
I0301 18:26:14.621912  1808 net.cpp:103] Top shape: 1 1 1 1 (1)
I0301 18:26:14.621935  1808 net.cpp:109]     with loss weight 1
I0301 18:26:14.621997  1808 net.cpp:170] loss needs backward computation.
I0301 18:26:14.622009  1808 net.cpp:170] fc8_pascal needs backward computation.
I0301 18:26:14.622016  1808 net.cpp:170] fc8_kevin_encode needs backward computation.
I0301 18:26:14.622025  1808 net.cpp:170] fc8_kevin needs backward computation.
I0301 18:26:14.622033  1808 net.cpp:170] drop7 needs backward computation.
…
E0301 18:26:14.623330  1808 upgrade_proto.cpp:604] Note that future Caffe releases will not support V0NetParameter; use ./build/tools/upgrade_net_proto_text for prototxt and ./build/tools/upgrade_net_proto_binary for model weights upgrade this and any other net protos to the new format.
I0301 18:26:14.623384  1808 solver.cpp:151] Creating test net (#0) specified by test_net file: test_fashion_48.prototxt
I0301 18:26:14.623638  1808 net.cpp:39] Initializing net from parameters: 
name: "deepFashion"
layers {
  top: "data"
  top: "label"
  name: "data"
  type: DATA
  data_param {
    source: "jabong_val_leveldb"
    batch_size: 32
  }
  transform_param {
    mirror: true
    crop_size: 227
    mean_file: "../../data/ilsvrc12/imagenet_mean.binaryproto"
  }
}
layers {
  bottom: "data"
  top: "conv1"
  name: "conv1"
  type: CONVOLUTION
  blobs_lr: 1
  blobs_lr: 2
  weight_decay: 1
  weight_decay: 0
  convolution_param {
    num_output: 96
    kernel_size: 11
    stride: 4
    weight_filler {
      type: "gaussian"
      std: 0.01
    }
    bias_filler {
      type: "constant"
      value: 0
    }
  }
}
layers {
  bottom: "conv1"
  top: "conv1"
  name: "relu1"
  type: RELU
}
layers {
  bottom: "conv1"
  top: "pool1"
  name: "pool1"
  type: POOLING
  pooling_param {
    pool: MAX
    kernel_size: 3
    stride: 2
  }
}
layers {
  bottom: "pool1"
  top: "norm1"
  name: "norm1"
  type: LRN
  lrn_param {
    local_size: 5
    alpha: 0.0001
    beta: 0.75
  }
}
layers {
  bottom: "norm1"
  top: "conv2"
  name: "conv2"
  type: CONVOLUTION
  blobs_lr: 1
  blobs_lr: 2
  weight_decay: 1
  weight_decay: 0
  convolution_param {
    num_output: 256
    pad: 2
    kernel_size: 5
    group: 2
    weight_filler {
      type: "gaussian"
      std: 0.01
    }
    bias_filler {
      type: "constant"
      value: 1
    }
  }
}
layers {
  bottom: "conv2"
  top: "conv2"
  name: "relu2"
  type: RELU
}
layers {
  bottom: "conv2"
  top: "pool2"
  name: "pool2"
  type: POOLING
  pooling_param {
    pool: MAX
    kernel_size: 3
    stride: 2
  }
}
layers {
  bottom: "pool2"
  top: "norm2"
  name: "norm2"
  type: LRN
  lrn_param {
    local_size: 5
    alpha: 0.0001
    beta: 0.75
  }
}
layers {
  bottom: "norm2"
  top: "conv3"
  name: "conv3"
  type: CONVOLUTION
  blobs_lr: 1
  blobs_lr: 2
  weight_decay: 1
  weight_decay: 0
  convolution_param {
    num_output: 384
    pad: 1
    kernel_size: 3
    weight_filler {
      type: "gaussian"
      std: 0.01
    }
    bias_filler {
      type: "constant"
      value: 0
    }
  }
}
layers {
  bottom: "conv3"
  top: "conv3"
  name: "relu3"
  type: RELU
}
layers {
  bottom: "conv3"
  top: "conv4"
  name: "conv4"
  type: CONVOLUTION
  blobs_lr: 1
  blobs_lr: 2
  weight_decay: 1
  weight_decay: 0
  convolution_param {
    num_output: 384
    pad: 1
    kernel_size: 3
    group: 2
    weight_filler {
      type: "gaussian"
      std: 0.01
    }
    bias_filler {
      type: "constant"
      value: 1
    }
  }
}
layers {
  bottom: "conv4"
  top: "conv4"
  name: "relu4"
  type: RELU
}
layers {
  bottom: "conv4"
  top: "conv5"
  name: "conv5"
  type: CONVOLUTION
  blobs_lr: 1
  blobs_lr: 2
  weight_decay: 1
  weight_decay: 0
  convolution_param {
    num_output: 256
    pad: 1
    kernel_size: 3
    group: 2
    weight_filler {
      type: "gaussian"
      std: 0.01
    }
    bias_filler {
      type: "constant"
      value: 1
    }
  }
}
layers {
  bottom: "conv5"
  top: "conv5"
  name: "relu5"
  type: RELU
}
layers {
  bottom: "conv5"
  top: "pool5"
  name: "pool5"
  type: POOLING
  pooling_param {
    pool: MAX
    kernel_size: 3
    stride: 2
  }
}
layers {
  bottom: "pool5"
  top: "fc6"
  name: "fc6"
  type: INNER_PRODUCT
  blobs_lr: 1
  blobs_lr: 2
  weight_decay: 1
  weight_decay: 0
  inner_product_param {
    num_output: 4096
    weight_filler {
      type: "gaussian"
      std: 0.005
    }
    bias_filler {
      type: "constant"
      value: 1
    }
  }
}
layers {
  bottom: "fc6"
  top: "fc6"
  name: "relu6"
  type: RELU
}
layers {
  bottom: "fc6"
  top: "fc6"
  name: "drop6"
  type: DROPOUT
  dropout_param {
    dropout_ratio: 0.5
  }
}
layers {
  bottom: "fc6"
  top: "fc7"
  name: "fc7"
  type: INNER_PRODUCT
  blobs_lr: 1
  blobs_lr: 2
  weight_decay: 1
  weight_decay: 0
  inner_product_param {
    num_output: 4096
    weight_filler {
      type: "gaussian"
      std: 0.005
    }
    bias_filler {
      type: "constant"
      value: 1
    }
  }
}
layers {
  bottom: "fc7"
  top: "fc7"
  name: "relu7"
  type: RELU
}
layers {
  bottom: "fc7"
  top: "fc7"
  name: "drop7"
  type: DROPOUT
  dropout_param {
    dropout_ratio: 0.5
  }
}
layers {
  bottom: "fc7"
  top: "fc8_kevin"
  name: "fc8_kevin"
  type: INNER_PRODUCT
  blobs_lr: 1
  blobs_lr: 2
  weight_decay: 1
  weight_decay: 0
  inner_product_param {
    num_output: 48
    weight_filler {
      type: "gaussian"
      std: 0.005
    }
    bias_filler {
      type: "constant"
      value: 1
    }
  }
}
layers {
  bottom: "fc8_kevin"
  top: "fc8_kevin_encode"
  name: "fc8_kevin_encode"
  type: SIGMOID
}
layers {
  bottom: "fc8_kevin_encode"
  top: "fc8_pascal"
  name: "fc8_pascal"
  type: INNER_PRODUCT
  blobs_lr: 10
  blobs_lr: 20
  weight_decay: 1
  weight_decay: 0
  inner_product_param {
    num_output: 10
    weight_filler {
      type: "gaussian"
      std: 0.01
    }
    bias_filler {
      type: "constant"
      value: 0
    }
  }
}
layers {
  bottom: "fc8_pascal"
  top: "prob"
  name: "prob"
  type: SOFTMAX
}
layers {
  bottom: "prob"
  bottom: "label"
  top: "accuracy"
  name: "accuracy"
  type: ACCURACY
}
state {
  phase: TEST
}
I0301 18:26:14.623785  1808 net.cpp:67] Creating Layer data
I0301 18:26:14.623798  1808 net.cpp:356] data -> data
I0301 18:26:14.623813  1808 net.cpp:356] data -> label
I0301 18:26:14.623826  1808 net.cpp:96] Setting up data
I0301 18:26:14.623836  1808 data_layer.cpp:45] Opening leveldb jabong_val_leveldb
I0301 18:26:18.009774  1808 data_layer.cpp:128] output data size: 32,3,227,227
I0301 18:26:18.009825  1808 base_data_layer.cpp:36] Loading mean file from../../data/ilsvrc12/imagenet_mean.binaryproto
I0301 18:26:18.013419  1808 net.cpp:103] Top shape: 32 3 227 227 (4946784)
I0301 18:26:18.013458  1808 net.cpp:103] Top shape: 32 1 1 1 (32)
I0301 18:26:18.013509  1808 net.cpp:67] Creating Layer conv1
I0301 18:26:18.013514  1808 net.cpp:394] conv1 <- data
I0301 18:26:18.013525  1808 net.cpp:356] conv1 -> conv1
I0301 18:26:18.013537  1808 net.cpp:96] Setting up conv1
I0301 18:26:18.014783  1808 net.cpp:103] Top shape: 32 96 55 55 (9292800)
I0301 18:26:18.014811  1808 net.cpp:67] Creating Layer relu1
I0301 18:26:18.014817  1808 net.cpp:394] relu1 <- conv1
I0301 18:26:18.014823  1808 net.cpp:345] relu1 -> conv1 (in-place)
I0301 18:26:18.014829  1808 net.cpp:96] Setting up relu1
I0301 18:26:18.014837  1808 net.cpp:103] Top shape: 32 96 55 55 (9292800)
I0301 18:26:18.014845  1808 net.cpp:67] Creating Layer pool1
I0301 18:26:18.014849  1808 net.cpp:394] pool1 <- conv1
I0301 18:26:18.014854  1808 net.cpp:356] pool1 -> pool1
I0301 18:26:18.014861  1808 net.cpp:96] Setting up pool1
I0301 18:26:18.014870  1808 net.cpp:103] Top shape: 32 96 27 27 (2239488)
I0301 18:26:18.014891  1808 net.cpp:67] Creating Layer norm1
I0301 18:26:18.014897  1808 net.cpp:394] norm1 <- pool1
I0301 18:26:18.014904  1808 net.cpp:356] norm1 -> norm1
I0301 18:26:18.014911  1808 net.cpp:96] Setting up norm1
I0301 18:26:18.014916  1808 net.cpp:103] Top shape: 32 96 27 27 (2239488)
I0301 18:26:18.014925  1808 net.cpp:67] Creating Layer conv2
I0301 18:26:18.014930  1808 net.cpp:394] conv2 <- norm1
I0301 18:26:18.014936  1808 net.cpp:356] conv2 -> conv2
I0301 18:26:18.014943  1808 net.cpp:96] Setting up conv2
I0301 18:26:18.025218  1808 net.cpp:103] Top shape: 32 256 27 27 (5971968)
I0301 18:26:18.025265  1808 net.cpp:67] Creating Layer relu2
I0301 18:26:18.025272  1808 net.cpp:394] relu2 <- conv2
I0301 18:26:18.025280  1808 net.cpp:345] relu2 -> conv2 (in-place)
I0301 18:26:18.025288  1808 net.cpp:96] Setting up relu2
I0301 18:26:18.025296  1808 net.cpp:103] Top shape: 32 256 27 27 (5971968)
I0301 18:26:18.025305  1808 net.cpp:67] Creating Layer pool2
I0301 18:26:18.025310  1808 net.cpp:394] pool2 <- conv2
I0301 18:26:18.025315  1808 net.cpp:356] pool2 -> pool2
I0301 18:26:18.025322  1808 net.cpp:96] Setting up pool2
I0301 18:26:18.025342  1808 net.cpp:103] Top shape: 32 256 13 13 (1384448)
I0301 18:26:18.025357  1808 net.cpp:67] Creating Layer norm2
I0301 18:26:18.025362  1808 net.cpp:394] norm2 <- pool2
I0301 18:26:18.025368  1808 net.cpp:356] norm2 -> norm2
I0301 18:26:18.025375  1808 net.cpp:96] Setting up norm2
I0301 18:26:18.025380  1808 net.cpp:103] Top shape: 32 256 13 13 (1384448)
I0301 18:26:18.025393  1808 net.cpp:67] Creating Layer conv3
I0301 18:26:18.025399  1808 net.cpp:394] conv3 <- norm2
I0301 18:26:18.025406  1808 net.cpp:356] conv3 -> conv3
I0301 18:26:18.025413  1808 net.cpp:96] Setting up conv3
I0301 18:26:18.053921  1808 net.cpp:103] Top shape: 32 384 13 13 (2076672)
I0301 18:26:18.053979  1808 net.cpp:67] Creating Layer relu3
I0301 18:26:18.053987  1808 net.cpp:394] relu3 <- conv3
I0301 18:26:18.053995  1808 net.cpp:345] relu3 -> conv3 (in-place)
I0301 18:26:18.054004  1808 net.cpp:96] Setting up relu3
I0301 18:26:18.054013  1808 net.cpp:103] Top shape: 32 384 13 13 (2076672)
I0301 18:26:18.054021  1808 net.cpp:67] Creating Layer conv4
I0301 18:26:18.054025  1808 net.cpp:394] conv4 <- conv3
I0301 18:26:18.054031  1808 net.cpp:356] conv4 -> conv4
I0301 18:26:18.054039  1808 net.cpp:96] Setting up conv4
I0301 18:26:18.075253  1808 net.cpp:103] Top shape: 32 384 13 13 (2076672)
I0301 18:26:18.075276  1808 net.cpp:67] Creating Layer relu4
I0301 18:26:18.075283  1808 net.cpp:394] relu4 <- conv4
I0301 18:26:18.075289  1808 net.cpp:345] relu4 -> conv4 (in-place)
I0301 18:26:18.075294  1808 net.cpp:96] Setting up relu4
I0301 18:26:18.075301  1808 net.cpp:103] Top shape: 32 384 13 13 (2076672)
I0301 18:26:18.075309  1808 net.cpp:67] Creating Layer conv5
I0301 18:26:18.075314  1808 net.cpp:394] conv5 <- conv4
I0301 18:26:18.075321  1808 net.cpp:356] conv5 -> conv5
I0301 18:26:18.075328  1808 net.cpp:96] Setting up conv5
I0301 18:26:18.089669  1808 net.cpp:103] Top shape: 32 256 13 13 (1384448)
I0301 18:26:18.089699  1808 net.cpp:67] Creating Layer relu5
I0301 18:26:18.089705  1808 net.cpp:394] relu5 <- conv5
I0301 18:26:18.089751  1808 net.cpp:345] relu5 -> conv5 (in-place)
I0301 18:26:18.089758  1808 net.cpp:96] Setting up relu5
I0301 18:26:18.089766  1808 net.cpp:103] Top shape: 32 256 13 13 (1384448)
I0301 18:26:18.089774  1808 net.cpp:67] Creating Layer pool5
I0301 18:26:18.089778  1808 net.cpp:394] pool5 <- conv5
I0301 18:26:18.089784  1808 net.cpp:356] pool5 -> pool5
I0301 18:26:18.089792  1808 net.cpp:96] Setting up pool5
I0301 18:26:18.089800  1808 net.cpp:103] Top shape: 32 256 6 6 (294912)
I0301 18:26:18.089812  1808 net.cpp:67] Creating Layer fc6
I0301 18:26:18.089817  1808 net.cpp:394] fc6 <- pool5
I0301 18:26:18.089830  1808 net.cpp:356] fc6 -> fc6
I0301 18:26:18.089838  1808 net.cpp:96] Setting up fc6
I0301 18:26:19.312321  1808 net.cpp:103] Top shape: 32 4096 1 1 (131072)
I0301 18:26:19.312387  1808 net.cpp:67] Creating Layer relu6
I0301 18:26:19.312396  1808 net.cpp:394] relu6 <- fc6
I0301 18:26:19.312405  1808 net.cpp:345] relu6 -> fc6 (in-place)
I0301 18:26:19.312415  1808 net.cpp:96] Setting up relu6
I0301 18:26:19.312440  1808 net.cpp:103] Top shape: 32 4096 1 1 (131072)
I0301 18:26:19.312448  1808 net.cpp:67] Creating Layer drop6
I0301 18:26:19.312453  1808 net.cpp:394] drop6 <- fc6
I0301 18:26:19.312459  1808 net.cpp:345] drop6 -> fc6 (in-place)
I0301 18:26:19.312465  1808 net.cpp:96] Setting up drop6
I0301 18:26:19.312470  1808 net.cpp:103] Top shape: 32 4096 1 1 (131072)
I0301 18:26:19.312479  1808 net.cpp:67] Creating Layer fc7
I0301 18:26:19.312482  1808 net.cpp:394] fc7 <- fc6
I0301 18:26:19.312489  1808 net.cpp:356] fc7 -> fc7
I0301 18:26:19.312496  1808 net.cpp:96] Setting up fc7
I0301 18:26:19.849661  1808 net.cpp:103] Top shape: 32 4096 1 1 (131072)
I0301 18:26:19.849726  1808 net.cpp:67] Creating Layer relu7
I0301 18:26:19.849735  1808 net.cpp:394] relu7 <- fc7
I0301 18:26:19.849745  1808 net.cpp:345] relu7 -> fc7 (in-place)
I0301 18:26:19.849753  1808 net.cpp:96] Setting up relu7
I0301 18:26:19.849776  1808 net.cpp:103] Top shape: 32 4096 1 1 (131072)
I0301 18:26:19.849783  1808 net.cpp:67] Creating Layer drop7
I0301 18:26:19.849787  1808 net.cpp:394] drop7 <- fc7
I0301 18:26:19.849793  1808 net.cpp:345] drop7 -> fc7 (in-place)
I0301 18:26:19.849799  1808 net.cpp:96] Setting up drop7
I0301 18:26:19.849804  1808 net.cpp:103] Top shape: 32 4096 1 1 (131072)
I0301 18:26:19.849812  1808 net.cpp:67] Creating Layer fc8_kevin
I0301 18:26:19.849815  1808 net.cpp:394] fc8_kevin <- fc7
I0301 18:26:19.849822  1808 net.cpp:356] fc8_kevin -> fc8_kevin
I0301 18:26:19.849829  1808 net.cpp:96] Setting up fc8_kevin
I0301 18:26:19.856122  1808 net.cpp:103] Top shape: 32 48 1 1 (1536)
I0301 18:26:19.856147  1808 net.cpp:67] Creating Layer fc8_kevin_encode
I0301 18:26:19.856153  1808 net.cpp:394] fc8_kevin_encode <- fc8_kevin
I0301 18:26:19.856158  1808 net.cpp:356] fc8_kevin_encode -> fc8_kevin_encode
I0301 18:26:19.856165  1808 net.cpp:96] Setting up fc8_kevin_encode
I0301 18:26:19.856174  1808 net.cpp:103] Top shape: 32 48 1 1 (1536)
I0301 18:26:19.856183  1808 net.cpp:67] Creating Layer fc8_pascal
I0301 18:26:19.856186  1808 net.cpp:394] fc8_pascal <- fc8_kevin_encode
I0301 18:26:19.856194  1808 net.cpp:356] fc8_pascal -> fc8_pascal
I0301 18:26:19.856202  1808 net.cpp:96] Setting up fc8_pascal
I0301 18:26:19.856226  1808 net.cpp:103] Top shape: 32 10 1 1 (320)
I0301 18:26:19.856247  1808 net.cpp:67] Creating Layer prob
I0301 18:26:19.856252  1808 net.cpp:394] prob <- fc8_pascal
I0301 18:26:19.856258  1808 net.cpp:356] prob -> prob
I0301 18:26:19.856264  1808 net.cpp:96] Setting up prob
I0301 18:26:19.856281  1808 net.cpp:103] Top shape: 32 10 1 1 (320)
I0301 18:26:19.856293  1808 net.cpp:67] Creating Layer accuracy
I0301 18:26:19.856298  1808 net.cpp:394] accuracy <- prob
I0301 18:26:19.856304  1808 net.cpp:394] accuracy <- label
I0301 18:26:19.856310  1808 net.cpp:356] accuracy -> accuracy
I0301 18:26:19.856317  1808 net.cpp:96] Setting up accuracy
I0301 18:26:19.856322  1808 net.cpp:103] Top shape: 1 1 1 1 (1)
I0301 18:26:19.856326  1808 net.cpp:172] accuracy does not need backward computation.
I0301 18:26:19.856356  1808 net.cpp:172] prob does not need backward computation.
I0301 18:26:19.856361  1808 net.cpp:172] fc8_pascal does not need backward computation.
I0301 18:26:19.856364  1808 net.cpp:172] fc8_kevin_encode does not need backward computation.
I0301 18:26:19.856369  1808 net.cpp:172] fc8_kevin does not need backward computation.
…
