…
I0410 21:10:08.720356   822 net.cpp:39] Initializing net from parameters: 
name: "deepFashion"
layers {
  top: "data"
  top: "random"
  name: "data"
  type: DATA
  data_param {
    source: "/data/deepfashion/multimodal/multimodal_TRAIN"
    batch_size: 32
    backend: LMDB
  }
  include {
    phase: TRAIN
  }
  transform_param {
    mirror: true
    crop_size: 227
    mean_file: "../../../data/ilsvrc12/imagenet_mean.binaryproto"
  }
}
layers {
  top: "labels"
  name: "labels"
  type: DATA
  data_param {
    source: "/data/deepfashion/multimodal/multimodal_TRAIN_ALT"
    batch_size: 32
    backend: LMDB
  }
  include {
    phase: TRAIN
  }
}
layers {
  bottom: "labels"
  top: "labels0"
  top: "labels1"
  top: "labels2"
  top: "labels3"
  name: "sliceL"
  type: SLICE
  slice_param {
    slice_point: 1
    slice_point: 2
    slice_point: 3
  }
}
layers {
  bottom: "data"
  top: "conv1"
  name: "conv1"
  type: CONVOLUTION
  blobs_lr: 0
  blobs_lr: 0
  weight_decay: 1
  weight_decay: 0
  convolution_param {
    num_output: 96
    kernel_size: 11
    stride: 4
    weight_filler {
      type: "gaussian"
      std: 0.01
    }
    bias_filler {
      type: "constant"
      value: 0
    }
  }
}
layers {
  bottom: "conv1"
  top: "conv1"
  name: "relu1"
  type: RELU
}
layers {
  bottom: "conv1"
  top: "pool1"
  name: "pool1"
  type: POOLING
  pooling_param {
    pool: MAX
    kernel_size: 3
    stride: 2
  }
}
layers {
  bottom: "pool1"
  top: "norm1"
  name: "norm1"
  type: LRN
  lrn_param {
    local_size: 5
    alpha: 0.0001
    beta: 0.75
  }
}
layers {
  bottom: "norm1"
  top: "conv2"
  name: "conv2"
  type: CONVOLUTION
  blobs_lr: 0
  blobs_lr: 0
  weight_decay: 1
  weight_decay: 0
  convolution_param {
    num_output: 256
    pad: 2
    kernel_size: 5
    group: 2
    weight_filler {
      type: "gaussian"
      std: 0.01
    }
    bias_filler {
      type: "constant"
      value: 1
    }
  }
}
layers {
  bottom: "conv2"
  top: "conv2"
  name: "relu2"
  type: RELU
}
layers {
  bottom: "conv2"
  top: "pool2"
  name: "pool2"
  type: POOLING
  pooling_param {
    pool: MAX
    kernel_size: 3
    stride: 2
  }
}
layers {
  bottom: "pool2"
  top: "norm2"
  name: "norm2"
  type: LRN
  lrn_param {
    local_size: 5
    alpha: 0.0001
    beta: 0.75
  }
}
layers {
  bottom: "norm2"
  top: "conv3"
  name: "conv3"
  type: CONVOLUTION
  blobs_lr: 0
  blobs_lr: 0
  weight_decay: 1
  weight_decay: 0
  convolution_param {
    num_output: 384
    pad: 1
    kernel_size: 3
    weight_filler {
      type: "gaussian"
      std: 0.01
    }
    bias_filler {
      type: "constant"
      value: 0
    }
  }
}
layers {
  bottom: "conv3"
  top: "conv3"
  name: "relu3"
  type: RELU
}
layers {
  bottom: "conv3"
  top: "conv4"
  name: "conv4"
  type: CONVOLUTION
  blobs_lr: 0
  blobs_lr: 0
  weight_decay: 1
  weight_decay: 0
  convolution_param {
    num_output: 384
    pad: 1
    kernel_size: 3
    group: 2
    weight_filler {
      type: "gaussian"
      std: 0.01
    }
    bias_filler {
      type: "constant"
      value: 1
    }
  }
}
layers {
  bottom: "conv4"
  top: "conv4"
  name: "relu4"
  type: RELU
}
layers {
  bottom: "conv4"
  top: "conv5"
  name: "conv5"
  type: CONVOLUTION
  blobs_lr: 0
  blobs_lr: 0
  weight_decay: 1
  weight_decay: 0
  convolution_param {
    num_output: 256
    pad: 1
    kernel_size: 3
    group: 2
    weight_filler {
      type: "gaussian"
      std: 0.01
    }
    bias_filler {
      type: "constant"
      value: 1
    }
  }
}
layers {
  bottom: "conv5"
  top: "conv5"
  name: "relu5"
  type: RELU
}
layers {
  bottom: "conv5"
  top: "pool5"
  name: "pool5"
  type: POOLING
  pooling_param {
    pool: MAX
    kernel_size: 3
    stride: 2
  }
}
layers {
  bottom: "pool5"
  top: "fc6"
  name: "fc6"
  type: INNER_PRODUCT
  blobs_lr: 0
  blobs_lr: 0
  weight_decay: 1
  weight_decay: 0
  inner_product_param {
    num_output: 4096
    weight_filler {
      type: "gaussian"
      std: 0.005
    }
    bias_filler {
      type: "constant"
      value: 1
    }
  }
}
layers {
  bottom: "fc6"
  top: "fc6"
  name: "relu6"
  type: RELU
}
layers {
  bottom: "fc6"
  top: "fc6"
  name: "drop6"
  type: DROPOUT
  dropout_param {
    dropout_ratio: 0.5
  }
}
layers {
  bottom: "fc6"
  top: "fc7"
  name: "fc7"
  type: INNER_PRODUCT
  blobs_lr: 0
  blobs_lr: 0
  weight_decay: 1
  weight_decay: 0
  inner_product_param {
    num_output: 4096
    weight_filler {
      type: "gaussian"
      std: 0.005
    }
    bias_filler {
      type: "constant"
      value: 1
    }
  }
}
layers {
  bottom: "fc7"
  top: "fc7"
  name: "relu7"
  type: RELU
}
layers {
  bottom: "fc7"
  top: "fc7"
  name: "drop7"
  type: DROPOUT
  dropout_param {
    dropout_ratio: 0.5
  }
}
layers {
  bottom: "fc7"
  top: "fc8_deepfashion"
  name: "fc8_deepfashion"
  type: INNER_PRODUCT
  blobs_lr: 0
  blobs_lr: 0
  weight_decay: 1
  weight_decay: 0
  inner_product_param {
    num_output: 48
    weight_filler {
      type: "gaussian"
      std: 0.01
    }
    bias_filler {
      type: "constant"
      value: 0
    }
  }
}
layers {
  bottom: "fc8_deepfashion"
  top: "fc8_deepfashion_encode"
  name: "fc8_deepfashion_encode"
  type: SIGMOID
}
layers {
  bottom: "fc8_deepfashion_encode"
  top: "fc8_pascal_label_mod"
  name: "fc8_pascal_label_mod"
  type: INNER_PRODUCT
  blobs_lr: 0
  blobs_lr: 0
  weight_decay: 1
  weight_decay: 0
  inner_product_param {
    num_output: 10
    weight_filler {
      type: "gaussian"
      std: 0.01
    }
    bias_filler {
      type: "constant"
      value: 0
    }
  }
}
layers {
  bottom: "fc8_deepfashion_encode"
  top: "fc8_pascal_color_mod"
  name: "fc8_pascal_color_mod"
  type: INNER_PRODUCT
  blobs_lr: 10
  blobs_lr: 20
  weight_decay: 1
  weight_decay: 0
  inner_product_param {
    num_output: 16
    weight_filler {
      type: "gaussian"
      std: 0.01
    }
    bias_filler {
      type: "constant"
      value: 0
    }
  }
}
layers {
  bottom: "fc8_deepfashion_encode"
  top: "fc8_pascal_fabric_mod"
  name: "fc8_pascal_fabric_mod"
  type: INNER_PRODUCT
  blobs_lr: 10
  blobs_lr: 20
  weight_decay: 1
  weight_decay: 0
  inner_product_param {
    num_output: 21
    weight_filler {
      type: "gaussian"
      std: 0.01
    }
    bias_filler {
      type: "constant"
      value: 0
    }
  }
}
layers {
  bottom: "fc8_deepfashion_encode"
  top: "fc8_pascal_style_mod"
  name: "fc8_pascal_style_mod"
  type: INNER_PRODUCT
  blobs_lr: 10
  blobs_lr: 20
  weight_decay: 1
  weight_decay: 0
  inner_product_param {
    num_output: 8
    weight_filler {
      type: "gaussian"
      std: 0.01
    }
    bias_filler {
      type: "constant"
      value: 0
    }
  }
}
layers {
  bottom: "fc8_pascal_label_mod"
  bottom: "labels0"
  name: "loss"
  type: SOFTMAX_LOSS
}
layers {
  bottom: "fc8_pascal_color_mod"
  bottom: "labels1"
  name: "loss"
  type: SOFTMAX_LOSS
}
layers {
  bottom: "fc8_pascal_fabric_mod"
  bottom: "labels2"
  name: "loss"
  type: SOFTMAX_LOSS
}
layers {
  bottom: "fc8_pascal_style_mod"
  bottom: "labels3"
  name: "loss"
  type: SOFTMAX_LOSS
}
layers {
  bottom: "random"
  name: "silence"
  type: SILENCE
}
state {
  phase: TRAIN
}
I0410 21:10:08.720579   822 net.cpp:67] Creating Layer data
I0410 21:10:08.720593   822 net.cpp:356] data -> data
I0410 21:10:08.720610   822 net.cpp:356] data -> random
I0410 21:10:08.720625   822 net.cpp:96] Setting up data
I0410 21:10:08.720721   822 data_layer.cpp:68] Opening lmdb /data/deepfashion/multimodal/multimodal_TRAIN
I0410 21:10:08.720893   822 data_layer.cpp:128] output data size: 32,3,227,227
I0410 21:10:08.720902   822 base_data_layer.cpp:36] Loading mean file from../../../data/ilsvrc12/imagenet_mean.binaryproto
I0410 21:10:08.728137   822 net.cpp:103] Top shape: 32 3 227 227 (4946784)
I0410 21:10:08.728166   822 net.cpp:103] Top shape: 32 1 1 1 (32)
I0410 21:10:08.728183   822 net.cpp:67] Creating Layer labels
I0410 21:10:08.728189   822 net.cpp:356] labels -> labels
I0410 21:10:08.728202   822 net.cpp:96] Setting up labels
I0410 21:10:08.728288   822 data_layer.cpp:68] Opening lmdb /data/deepfashion/multimodal/multimodal_TRAIN_ALT
I0410 21:10:08.728312   822 data_layer.cpp:128] output data size: 32,4,1,1
I0410 21:10:08.728389   822 net.cpp:103] Top shape: 32 4 1 1 (128)
I0410 21:10:08.728410   822 net.cpp:67] Creating Layer sliceL
I0410 21:10:08.728433   822 net.cpp:394] sliceL <- labels
I0410 21:10:08.728446   822 net.cpp:356] sliceL -> labels0
I0410 21:10:08.728454   822 net.cpp:356] sliceL -> labels1
I0410 21:10:08.728461   822 net.cpp:356] sliceL -> labels2
I0410 21:10:08.728468   822 net.cpp:356] sliceL -> labels3
I0410 21:10:08.728477   822 net.cpp:96] Setting up sliceL
I0410 21:10:08.728485   822 net.cpp:103] Top shape: 32 1 1 1 (32)
I0410 21:10:08.728489   822 net.cpp:103] Top shape: 32 1 1 1 (32)
I0410 21:10:08.728493   822 net.cpp:103] Top shape: 32 1 1 1 (32)
I0410 21:10:08.728497   822 net.cpp:103] Top shape: 32 1 1 1 (32)
I0410 21:10:08.728505   822 net.cpp:67] Creating Layer conv1
I0410 21:10:08.728513   822 net.cpp:394] conv1 <- data
I0410 21:10:08.728526   822 net.cpp:356] conv1 -> conv1
I0410 21:10:08.728540   822 net.cpp:96] Setting up conv1
I0410 21:10:08.750646   822 net.cpp:103] Top shape: 32 96 55 55 (9292800)
I0410 21:10:08.750699   822 net.cpp:67] Creating Layer relu1
I0410 21:10:08.750707   822 net.cpp:394] relu1 <- conv1
I0410 21:10:08.750718   822 net.cpp:345] relu1 -> conv1 (in-place)
I0410 21:10:08.750727   822 net.cpp:96] Setting up relu1
I0410 21:10:08.750738   822 net.cpp:103] Top shape: 32 96 55 55 (9292800)
I0410 21:10:08.750746   822 net.cpp:67] Creating Layer pool1
I0410 21:10:08.750749   822 net.cpp:394] pool1 <- conv1
I0410 21:10:08.750756   822 net.cpp:356] pool1 -> pool1
I0410 21:10:08.750766   822 net.cpp:96] Setting up pool1
I0410 21:10:08.750788   822 net.cpp:103] Top shape: 32 96 27 27 (2239488)
I0410 21:10:08.750803   822 net.cpp:67] Creating Layer norm1
I0410 21:10:08.750808   822 net.cpp:394] norm1 <- pool1
I0410 21:10:08.750814   822 net.cpp:356] norm1 -> norm1
I0410 21:10:08.750820   822 net.cpp:96] Setting up norm1
I0410 21:10:08.750828   822 net.cpp:103] Top shape: 32 96 27 27 (2239488)
I0410 21:10:08.750840   822 net.cpp:67] Creating Layer conv2
I0410 21:10:08.750847   822 net.cpp:394] conv2 <- norm1
I0410 21:10:08.750855   822 net.cpp:356] conv2 -> conv2
I0410 21:10:08.750862   822 net.cpp:96] Setting up conv2
I0410 21:10:08.761090   822 net.cpp:103] Top shape: 32 256 27 27 (5971968)
I0410 21:10:08.761118   822 net.cpp:67] Creating Layer relu2
I0410 21:10:08.761123   822 net.cpp:394] relu2 <- conv2
I0410 21:10:08.761129   822 net.cpp:345] relu2 -> conv2 (in-place)
I0410 21:10:08.761137   822 net.cpp:96] Setting up relu2
I0410 21:10:08.761142   822 net.cpp:103] Top shape: 32 256 27 27 (5971968)
I0410 21:10:08.761148   822 net.cpp:67] Creating Layer pool2
I0410 21:10:08.761152   822 net.cpp:394] pool2 <- conv2
I0410 21:10:08.761158   822 net.cpp:356] pool2 -> pool2
I0410 21:10:08.761164   822 net.cpp:96] Setting up pool2
I0410 21:10:08.761194   822 net.cpp:103] Top shape: 32 256 13 13 (1384448)
I0410 21:10:08.761201   822 net.cpp:67] Creating Layer norm2
I0410 21:10:08.761205   822 net.cpp:394] norm2 <- pool2
I0410 21:10:08.761214   822 net.cpp:356] norm2 -> norm2
I0410 21:10:08.761219   822 net.cpp:96] Setting up norm2
I0410 21:10:08.761224   822 net.cpp:103] Top shape: 32 256 13 13 (1384448)
I0410 21:10:08.761230   822 net.cpp:67] Creating Layer conv3
I0410 21:10:08.761234   822 net.cpp:394] conv3 <- norm2
I0410 21:10:08.761240   822 net.cpp:356] conv3 -> conv3
I0410 21:10:08.761247   822 net.cpp:96] Setting up conv3
I0410 21:10:08.790174   822 net.cpp:103] Top shape: 32 384 13 13 (2076672)
I0410 21:10:08.790228   822 net.cpp:67] Creating Layer relu3
I0410 21:10:08.790235   822 net.cpp:394] relu3 <- conv3
I0410 21:10:08.790246   822 net.cpp:345] relu3 -> conv3 (in-place)
I0410 21:10:08.790253   822 net.cpp:96] Setting up relu3
I0410 21:10:08.790261   822 net.cpp:103] Top shape: 32 384 13 13 (2076672)
I0410 21:10:08.790268   822 net.cpp:67] Creating Layer conv4
I0410 21:10:08.790272   822 net.cpp:394] conv4 <- conv3
I0410 21:10:08.790283   822 net.cpp:356] conv4 -> conv4
I0410 21:10:08.790290   822 net.cpp:96] Setting up conv4
I0410 21:10:08.812497   822 net.cpp:103] Top shape: 32 384 13 13 (2076672)
I0410 21:10:08.812552   822 net.cpp:67] Creating Layer relu4
I0410 21:10:08.812561   822 net.cpp:394] relu4 <- conv4
I0410 21:10:08.812568   822 net.cpp:345] relu4 -> conv4 (in-place)
I0410 21:10:08.812577   822 net.cpp:96] Setting up relu4
I0410 21:10:08.812585   822 net.cpp:103] Top shape: 32 384 13 13 (2076672)
I0410 21:10:08.812595   822 net.cpp:67] Creating Layer conv5
I0410 21:10:08.812599   822 net.cpp:394] conv5 <- conv4
I0410 21:10:08.812605   822 net.cpp:356] conv5 -> conv5
I0410 21:10:08.812613   822 net.cpp:96] Setting up conv5
I0410 21:10:08.827373   822 net.cpp:103] Top shape: 32 256 13 13 (1384448)
I0410 21:10:08.827435   822 net.cpp:67] Creating Layer relu5
I0410 21:10:08.827440   822 net.cpp:394] relu5 <- conv5
I0410 21:10:08.827447   822 net.cpp:345] relu5 -> conv5 (in-place)
I0410 21:10:08.827456   822 net.cpp:96] Setting up relu5
I0410 21:10:08.827463   822 net.cpp:103] Top shape: 32 256 13 13 (1384448)
I0410 21:10:08.827471   822 net.cpp:67] Creating Layer pool5
I0410 21:10:08.827474   822 net.cpp:394] pool5 <- conv5
I0410 21:10:08.827482   822 net.cpp:356] pool5 -> pool5
I0410 21:10:08.827491   822 net.cpp:96] Setting up pool5
I0410 21:10:08.827502   822 net.cpp:103] Top shape: 32 256 6 6 (294912)
I0410 21:10:08.827509   822 net.cpp:67] Creating Layer fc6
I0410 21:10:08.827513   822 net.cpp:394] fc6 <- pool5
I0410 21:10:08.827519   822 net.cpp:356] fc6 -> fc6
I0410 21:10:08.827527   822 net.cpp:96] Setting up fc6
I0410 21:10:10.048563   822 net.cpp:103] Top shape: 32 4096 1 1 (131072)
I0410 21:10:10.048629   822 net.cpp:67] Creating Layer relu6
I0410 21:10:10.048638   822 net.cpp:394] relu6 <- fc6
I0410 21:10:10.048647   822 net.cpp:345] relu6 -> fc6 (in-place)
I0410 21:10:10.048656   822 net.cpp:96] Setting up relu6
I0410 21:10:10.048676   822 net.cpp:103] Top shape: 32 4096 1 1 (131072)
I0410 21:10:10.048682   822 net.cpp:67] Creating Layer drop6
I0410 21:10:10.048689   822 net.cpp:394] drop6 <- fc6
I0410 21:10:10.048694   822 net.cpp:345] drop6 -> fc6 (in-place)
I0410 21:10:10.048701   822 net.cpp:96] Setting up drop6
I0410 21:10:10.048712   822 net.cpp:103] Top shape: 32 4096 1 1 (131072)
I0410 21:10:10.048719   822 net.cpp:67] Creating Layer fc7
I0410 21:10:10.048723   822 net.cpp:394] fc7 <- fc6
I0410 21:10:10.048733   822 net.cpp:356] fc7 -> fc7
I0410 21:10:10.048741   822 net.cpp:96] Setting up fc7
I0410 21:10:10.594110   822 net.cpp:103] Top shape: 32 4096 1 1 (131072)
I0410 21:10:10.594166   822 net.cpp:67] Creating Layer relu7
I0410 21:10:10.594173   822 net.cpp:394] relu7 <- fc7
I0410 21:10:10.594184   822 net.cpp:345] relu7 -> fc7 (in-place)
I0410 21:10:10.594193   822 net.cpp:96] Setting up relu7
I0410 21:10:10.594213   822 net.cpp:103] Top shape: 32 4096 1 1 (131072)
I0410 21:10:10.594219   822 net.cpp:67] Creating Layer drop7
I0410 21:10:10.594249   822 net.cpp:394] drop7 <- fc7
I0410 21:10:10.594255   822 net.cpp:345] drop7 -> fc7 (in-place)
I0410 21:10:10.594261   822 net.cpp:96] Setting up drop7
I0410 21:10:10.594265   822 net.cpp:103] Top shape: 32 4096 1 1 (131072)
I0410 21:10:10.594272   822 net.cpp:67] Creating Layer fc8_deepfashion
I0410 21:10:10.594276   822 net.cpp:394] fc8_deepfashion <- fc7
I0410 21:10:10.594285   822 net.cpp:356] fc8_deepfashion -> fc8_deepfashion
I0410 21:10:10.594292   822 net.cpp:96] Setting up fc8_deepfashion
I0410 21:10:10.600786   822 net.cpp:103] Top shape: 32 48 1 1 (1536)
I0410 21:10:10.600808   822 net.cpp:67] Creating Layer fc8_deepfashion_encode
I0410 21:10:10.600814   822 net.cpp:394] fc8_deepfashion_encode <- fc8_deepfashion
I0410 21:10:10.600819   822 net.cpp:356] fc8_deepfashion_encode -> fc8_deepfashion_encode
I0410 21:10:10.600826   822 net.cpp:96] Setting up fc8_deepfashion_encode
I0410 21:10:10.600838   822 net.cpp:103] Top shape: 32 48 1 1 (1536)
I0410 21:10:10.600844   822 net.cpp:67] Creating Layer fc8_deepfashion_encode_fc8_deepfashion_encode_0_split
I0410 21:10:10.600849   822 net.cpp:394] fc8_deepfashion_encode_fc8_deepfashion_encode_0_split <- fc8_deepfashion_encode
I0410 21:10:10.600857   822 net.cpp:356] fc8_deepfashion_encode_fc8_deepfashion_encode_0_split -> fc8_deepfashion_encode_fc8_deepfashion_encode_0_split_0
I0410 21:10:10.600863   822 net.cpp:356] fc8_deepfashion_encode_fc8_deepfashion_encode_0_split -> fc8_deepfashion_encode_fc8_deepfashion_encode_0_split_1
I0410 21:10:10.600870   822 net.cpp:356] fc8_deepfashion_encode_fc8_deepfashion_encode_0_split -> fc8_deepfashion_encode_fc8_deepfashion_encode_0_split_2
I0410 21:10:10.600877   822 net.cpp:356] fc8_deepfashion_encode_fc8_deepfashion_encode_0_split -> fc8_deepfashion_encode_fc8_deepfashion_encode_0_split_3
I0410 21:10:10.600883   822 net.cpp:96] Setting up fc8_deepfashion_encode_fc8_deepfashion_encode_0_split
I0410 21:10:10.600888   822 net.cpp:103] Top shape: 32 48 1 1 (1536)
I0410 21:10:10.600893   822 net.cpp:103] Top shape: 32 48 1 1 (1536)
I0410 21:10:10.600896   822 net.cpp:103] Top shape: 32 48 1 1 (1536)
I0410 21:10:10.600899   822 net.cpp:103] Top shape: 32 48 1 1 (1536)
I0410 21:10:10.600908   822 net.cpp:67] Creating Layer fc8_pascal_label_mod
I0410 21:10:10.600913   822 net.cpp:394] fc8_pascal_label_mod <- fc8_deepfashion_encode_fc8_deepfashion_encode_0_split_0
I0410 21:10:10.600919   822 net.cpp:356] fc8_pascal_label_mod -> fc8_pascal_label_mod
I0410 21:10:10.600924   822 net.cpp:96] Setting up fc8_pascal_label_mod
I0410 21:10:10.600951   822 net.cpp:103] Top shape: 32 10 1 1 (320)
I0410 21:10:10.600972   822 net.cpp:67] Creating Layer fc8_pascal_color_mod
I0410 21:10:10.600977   822 net.cpp:394] fc8_pascal_color_mod <- fc8_deepfashion_encode_fc8_deepfashion_encode_0_split_1
I0410 21:10:10.600986   822 net.cpp:356] fc8_pascal_color_mod -> fc8_pascal_color_mod
I0410 21:10:10.600992   822 net.cpp:96] Setting up fc8_pascal_color_mod
I0410 21:10:10.601027   822 net.cpp:103] Top shape: 32 16 1 1 (512)
I0410 21:10:10.601042   822 net.cpp:67] Creating Layer fc8_pascal_fabric_mod
I0410 21:10:10.601047   822 net.cpp:394] fc8_pascal_fabric_mod <- fc8_deepfashion_encode_fc8_deepfashion_encode_0_split_2
I0410 21:10:10.601054   822 net.cpp:356] fc8_pascal_fabric_mod -> fc8_pascal_fabric_mod
I0410 21:10:10.601060   822 net.cpp:96] Setting up fc8_pascal_fabric_mod
I0410 21:10:10.601104   822 net.cpp:103] Top shape: 32 21 1 1 (672)
I0410 21:10:10.601119   822 net.cpp:67] Creating Layer fc8_pascal_style_mod
I0410 21:10:10.601124   822 net.cpp:394] fc8_pascal_style_mod <- fc8_deepfashion_encode_fc8_deepfashion_encode_0_split_3
I0410 21:10:10.601132   822 net.cpp:356] fc8_pascal_style_mod -> fc8_pascal_style_mod
I0410 21:10:10.601138   822 net.cpp:96] Setting up fc8_pascal_style_mod
I0410 21:10:10.601161   822 net.cpp:103] Top shape: 32 8 1 1 (256)
I0410 21:10:10.601178   822 net.cpp:67] Creating Layer loss
I0410 21:10:10.601182   822 net.cpp:394] loss <- fc8_pascal_label_mod
I0410 21:10:10.601188   822 net.cpp:394] loss <- labels0
I0410 21:10:10.601205   822 net.cpp:356] loss -> (automatic)
I0410 21:10:10.601212   822 net.cpp:96] Setting up loss
I0410 21:10:10.601223   822 net.cpp:103] Top shape: 1 1 1 1 (1)
I0410 21:10:10.601229   822 net.cpp:109]     with loss weight 1
I0410 21:10:10.601277   822 net.cpp:67] Creating Layer loss
I0410 21:10:10.601284   822 net.cpp:394] loss <- fc8_pascal_color_mod
I0410 21:10:10.601289   822 net.cpp:394] loss <- labels1
I0410 21:10:10.601294   822 net.cpp:356] loss -> (automatic)
I0410 21:10:10.601300   822 net.cpp:96] Setting up loss
I0410 21:10:10.601305   822 net.cpp:103] Top shape: 1 1 1 1 (1)
I0410 21:10:10.601308   822 net.cpp:109]     with loss weight 1
I0410 21:10:10.601316   822 net.cpp:67] Creating Layer loss
I0410 21:10:10.601320   822 net.cpp:394] loss <- fc8_pascal_fabric_mod
I0410 21:10:10.601325   822 net.cpp:394] loss <- labels2
I0410 21:10:10.601330   822 net.cpp:356] loss -> (automatic)
I0410 21:10:10.601339   822 net.cpp:96] Setting up loss
I0410 21:10:10.601346   822 net.cpp:103] Top shape: 1 1 1 1 (1)
I0410 21:10:10.601349   822 net.cpp:109]     with loss weight 1
I0410 21:10:10.601359   822 net.cpp:67] Creating Layer loss
I0410 21:10:10.601367   822 net.cpp:394] loss <- fc8_pascal_style_mod
I0410 21:10:10.601372   822 net.cpp:394] loss <- labels3
I0410 21:10:10.601377   822 net.cpp:356] loss -> (automatic)
I0410 21:10:10.601384   822 net.cpp:96] Setting up loss
I0410 21:10:10.601390   822 net.cpp:103] Top shape: 1 1 1 1 (1)
I0410 21:10:10.601394   822 net.cpp:109]     with loss weight 1
I0410 21:10:10.601404   822 net.cpp:67] Creating Layer silence
I0410 21:10:10.601409   822 net.cpp:394] silence <- random
I0410 21:10:10.601413   822 net.cpp:96] Setting up silence
I0410 21:10:10.601418   822 net.cpp:172] silence does not need backward computation.
I0410 21:10:10.601421   822 net.cpp:170] loss needs backward computation.
…
I0410 21:10:10.602746   822 net.cpp:39] Initializing net from parameters: 
name: "deepFashion"
layers {
  top: "data"
  top: "random"
  name: "data"
  type: DATA
  data_param {
    source: "/data/deepfashion/multimodal/multimodal_test"
    batch_size: 32
    backend: LMDB
  }
  include {
    phase: TEST
  }
  transform_param {
    mirror: true
    crop_size: 227
    mean_file: "../../../data/ilsvrc12/imagenet_mean.binaryproto"
  }
}
layers {
  top: "labels"
  name: "labels"
  type: DATA
  data_param {
    source: "/data/deepfashion/multimodal/multimodal_test_alt"
    batch_size: 32
    backend: LMDB
  }
  include {
    phase: TEST
  }
}
layers {
  bottom: "labels"
  top: "labels0"
  top: "labels1"
  top: "labels2"
  top: "labels3"
  name: "sliceL"
  type: SLICE
  slice_param {
    slice_point: 1
    slice_point: 2
    slice_point: 3
  }
}
layers {
  bottom: "data"
  top: "conv1"
  name: "conv1"
  type: CONVOLUTION
  blobs_lr: 0
  blobs_lr: 0
  weight_decay: 1
  weight_decay: 0
  convolution_param {
    num_output: 96
    kernel_size: 11
    stride: 4
    weight_filler {
      type: "gaussian"
      std: 0.01
    }
    bias_filler {
      type: "constant"
      value: 0
    }
  }
}
layers {
  bottom: "conv1"
  top: "conv1"
  name: "relu1"
  type: RELU
}
layers {
  bottom: "conv1"
  top: "pool1"
  name: "pool1"
  type: POOLING
  pooling_param {
    pool: MAX
    kernel_size: 3
    stride: 2
  }
}
layers {
  bottom: "pool1"
  top: "norm1"
  name: "norm1"
  type: LRN
  lrn_param {
    local_size: 5
    alpha: 0.0001
    beta: 0.75
  }
}
layers {
  bottom: "norm1"
  top: "conv2"
  name: "conv2"
  type: CONVOLUTION
  blobs_lr: 0
  blobs_lr: 0
  weight_decay: 1
  weight_decay: 0
  convolution_param {
    num_output: 256
    pad: 2
    kernel_size: 5
    group: 2
    weight_filler {
      type: "gaussian"
      std: 0.01
    }
    bias_filler {
      type: "constant"
      value: 1
    }
  }
}
layers {
  bottom: "conv2"
  top: "conv2"
  name: "relu2"
  type: RELU
}
layers {
  bottom: "conv2"
  top: "pool2"
  name: "pool2"
  type: POOLING
  pooling_param {
    pool: MAX
    kernel_size: 3
    stride: 2
  }
}
layers {
  bottom: "pool2"
  top: "norm2"
  name: "norm2"
  type: LRN
  lrn_param {
    local_size: 5
    alpha: 0.0001
    beta: 0.75
  }
}
layers {
  bottom: "norm2"
  top: "conv3"
  name: "conv3"
  type: CONVOLUTION
  blobs_lr: 0
  blobs_lr: 0
  weight_decay: 1
  weight_decay: 0
  convolution_param {
    num_output: 384
    pad: 1
    kernel_size: 3
    weight_filler {
      type: "gaussian"
      std: 0.01
    }
    bias_filler {
      type: "constant"
      value: 0
    }
  }
}
layers {
  bottom: "conv3"
  top: "conv3"
  name: "relu3"
  type: RELU
}
layers {
  bottom: "conv3"
  top: "conv4"
  name: "conv4"
  type: CONVOLUTION
  blobs_lr: 0
  blobs_lr: 0
  weight_decay: 1
  weight_decay: 0
  convolution_param {
    num_output: 384
    pad: 1
    kernel_size: 3
    group: 2
    weight_filler {
      type: "gaussian"
      std: 0.01
    }
    bias_filler {
      type: "constant"
      value: 1
    }
  }
}
layers {
  bottom: "conv4"
  top: "conv4"
  name: "relu4"
  type: RELU
}
layers {
  bottom: "conv4"
  top: "conv5"
  name: "conv5"
  type: CONVOLUTION
  blobs_lr: 0
  blobs_lr: 0
  weight_decay: 1
  weight_decay: 0
  convolution_param {
    num_output: 256
    pad: 1
    kernel_size: 3
    group: 2
    weight_filler {
      type: "gaussian"
      std: 0.01
    }
    bias_filler {
      type: "constant"
      value: 1
    }
  }
}
layers {
  bottom: "conv5"
  top: "conv5"
  name: "relu5"
  type: RELU
}
layers {
  bottom: "conv5"
  top: "pool5"
  name: "pool5"
  type: POOLING
  pooling_param {
    pool: MAX
    kernel_size: 3
    stride: 2
  }
}
layers {
  bottom: "pool5"
  top: "fc6"
  name: "fc6"
  type: INNER_PRODUCT
  blobs_lr: 0
  blobs_lr: 0
  weight_decay: 1
  weight_decay: 0
  inner_product_param {
    num_output: 4096
    weight_filler {
      type: "gaussian"
      std: 0.005
    }
    bias_filler {
      type: "constant"
      value: 1
    }
  }
}
layers {
  bottom: "fc6"
  top: "fc6"
  name: "relu6"
  type: RELU
}
layers {
  bottom: "fc6"
  top: "fc6"
  name: "drop6"
  type: DROPOUT
  dropout_param {
    dropout_ratio: 0.5
  }
}
layers {
  bottom: "fc6"
  top: "fc7"
  name: "fc7"
  type: INNER_PRODUCT
  blobs_lr: 0
  blobs_lr: 0
  weight_decay: 1
  weight_decay: 0
  inner_product_param {
    num_output: 4096
    weight_filler {
      type: "gaussian"
      std: 0.005
    }
    bias_filler {
      type: "constant"
      value: 1
    }
  }
}
layers {
  bottom: "fc7"
  top: "fc7"
  name: "relu7"
  type: RELU
}
layers {
  bottom: "fc7"
  top: "fc7"
  name: "drop7"
  type: DROPOUT
  dropout_param {
    dropout_ratio: 0.5
  }
}
layers {
  bottom: "fc7"
  top: "fc8_deepfashion"
  name: "fc8_deepfashion"
  type: INNER_PRODUCT
  blobs_lr: 0
  blobs_lr: 0
  weight_decay: 1
  weight_decay: 0
  inner_product_param {
    num_output: 48
    weight_filler {
      type: "gaussian"
      std: 0.01
    }
    bias_filler {
      type: "constant"
      value: 0
    }
  }
}
layers {
  bottom: "fc8_deepfashion"
  top: "fc8_deepfashion_encode"
  name: "fc8_deepfashion_encode"
  type: SIGMOID
}
layers {
  bottom: "fc8_deepfashion_encode"
  top: "fc8_pascal_label_mod"
  name: "fc8_pascal_label_mod"
  type: INNER_PRODUCT
  blobs_lr: 0
  blobs_lr: 0
  weight_decay: 1
  weight_decay: 0
  inner_product_param {
    num_output: 10
    weight_filler {
      type: "gaussian"
      std: 0.01
    }
    bias_filler {
      type: "constant"
      value: 0
    }
  }
}
layers {
  bottom: "fc8_deepfashion_encode"
  top: "fc8_pascal_color_mod"
  name: "fc8_pascal_color_mod"
  type: INNER_PRODUCT
  blobs_lr: 10
  blobs_lr: 20
  weight_decay: 1
  weight_decay: 0
  inner_product_param {
    num_output: 16
    weight_filler {
      type: "gaussian"
      std: 0.01
    }
    bias_filler {
      type: "constant"
      value: 0
    }
  }
}
layers {
  bottom: "fc8_deepfashion_encode"
  top: "fc8_pascal_fabric_mod"
  name: "fc8_pascal_fabric_mod"
  type: INNER_PRODUCT
  blobs_lr: 10
  blobs_lr: 20
  weight_decay: 1
  weight_decay: 0
  inner_product_param {
    num_output: 21
    weight_filler {
      type: "gaussian"
      std: 0.01
    }
    bias_filler {
      type: "constant"
      value: 0
    }
  }
}
layers {
  bottom: "fc8_deepfashion_encode"
  top: "fc8_pascal_style_mod"
  name: "fc8_pascal_style_mod"
  type: INNER_PRODUCT
  blobs_lr: 10
  blobs_lr: 20
  weight_decay: 1
  weight_decay: 0
  inner_product_param {
    num_output: 8
    weight_filler {
      type: "gaussian"
      std: 0.01
    }
    bias_filler {
      type: "constant"
      value: 0
    }
  }
}
layers {
  bottom: "fc8_pascal_label_mod"
  bottom: "labels0"
  name: "loss"
  type: SOFTMAX_LOSS
}
layers {
  bottom: "fc8_pascal_color_mod"
  bottom: "labels1"
  name: "loss"
  type: SOFTMAX_LOSS
}
layers {
  bottom: "fc8_pascal_fabric_mod"
  bottom: "labels2"
  name: "loss"
  type: SOFTMAX_LOSS
}
layers {
  bottom: "fc8_pascal_style_mod"
  bottom: "labels3"
  name: "loss"
  type: SOFTMAX_LOSS
}
layers {
  bottom: "fc8_pascal_label_mod"
  bottom: "labels0"
  top: "labelAccuracy"
  name: "accuracy0"
  type: ACCURACY
  include {
    phase: TEST
  }
}
layers {
  bottom: "fc8_pascal_color_mod"
  bottom: "labels1"
  top: "colorAccuracy"
  name: "accuracy1"
  type: ACCURACY
  include {
    phase: TEST
  }
}
layers {
  bottom: "fc8_pascal_fabric_mod"
  bottom: "labels2"
  top: "fabricAccuracy"
  name: "accuracy2"
  type: ACCURACY
  include {
    phase: TEST
  }
}
layers {
  bottom: "fc8_pascal_style_mod"
  bottom: "labels3"
  top: "styleAccuracy"
  name: "accuracy3"
  type: ACCURACY
  include {
    phase: TEST
  }
}
layers {
  bottom: "random"
  name: "silence"
  type: SILENCE
}
state {
  phase: TEST
}
I0410 21:10:10.602953   822 net.cpp:67] Creating Layer data
I0410 21:10:10.602962   822 net.cpp:356] data -> data
I0410 21:10:10.602972   822 net.cpp:356] data -> random
I0410 21:10:10.602978   822 net.cpp:96] Setting up data
I0410 21:10:10.603034   822 data_layer.cpp:68] Opening lmdb /data/deepfashion/multimodal/multimodal_test
I0410 21:10:10.603188   822 data_layer.cpp:128] output data size: 32,3,227,227
I0410 21:10:10.603196   822 base_data_layer.cpp:36] Loading mean file from../../../data/ilsvrc12/imagenet_mean.binaryproto
I0410 21:10:10.609933   822 net.cpp:103] Top shape: 32 3 227 227 (4946784)
I0410 21:10:10.609966   822 net.cpp:103] Top shape: 32 1 1 1 (32)
I0410 21:10:10.609984   822 net.cpp:67] Creating Layer labels
I0410 21:10:10.609992   822 net.cpp:356] labels -> labels
I0410 21:10:10.610003   822 net.cpp:96] Setting up labels
I0410 21:10:10.610069   822 data_layer.cpp:68] Opening lmdb /data/deepfashion/multimodal/multimodal_test_alt
I0410 21:10:10.610091   822 data_layer.cpp:128] output data size: 32,4,1,1
I0410 21:10:10.610122   822 net.cpp:103] Top shape: 32 4 1 1 (128)
I0410 21:10:10.610139   822 net.cpp:67] Creating Layer sliceL
I0410 21:10:10.610144   822 net.cpp:394] sliceL <- labels
I0410 21:10:10.610152   822 net.cpp:356] sliceL -> labels0
I0410 21:10:10.610160   822 net.cpp:356] sliceL -> labels1
I0410 21:10:10.610167   822 net.cpp:356] sliceL -> labels2
I0410 21:10:10.610174   822 net.cpp:356] sliceL -> labels3
I0410 21:10:10.610180   822 net.cpp:96] Setting up sliceL
I0410 21:10:10.610188   822 net.cpp:103] Top shape: 32 1 1 1 (32)
I0410 21:10:10.610191   822 net.cpp:103] Top shape: 32 1 1 1 (32)
I0410 21:10:10.610195   822 net.cpp:103] Top shape: 32 1 1 1 (32)
I0410 21:10:10.610198   822 net.cpp:103] Top shape: 32 1 1 1 (32)
I0410 21:10:10.610204   822 net.cpp:67] Creating Layer labels0_sliceL_0_split
I0410 21:10:10.610210   822 net.cpp:394] labels0_sliceL_0_split <- labels0
I0410 21:10:10.610220   822 net.cpp:356] labels0_sliceL_0_split -> labels0_sliceL_0_split_0
I0410 21:10:10.610231   822 net.cpp:356] labels0_sliceL_0_split -> labels0_sliceL_0_split_1
I0410 21:10:10.610242   822 net.cpp:96] Setting up labels0_sliceL_0_split
I0410 21:10:10.610251   822 net.cpp:103] Top shape: 32 1 1 1 (32)
I0410 21:10:10.610257   822 net.cpp:103] Top shape: 32 1 1 1 (32)
I0410 21:10:10.610265   822 net.cpp:67] Creating Layer labels1_sliceL_1_split
I0410 21:10:10.610268   822 net.cpp:394] labels1_sliceL_1_split <- labels1
I0410 21:10:10.610275   822 net.cpp:356] labels1_sliceL_1_split -> labels1_sliceL_1_split_0
I0410 21:10:10.610281   822 net.cpp:356] labels1_sliceL_1_split -> labels1_sliceL_1_split_1
I0410 21:10:10.610287   822 net.cpp:96] Setting up labels1_sliceL_1_split
I0410 21:10:10.610292   822 net.cpp:103] Top shape: 32 1 1 1 (32)
I0410 21:10:10.610296   822 net.cpp:103] Top shape: 32 1 1 1 (32)
I0410 21:10:10.610301   822 net.cpp:67] Creating Layer labels2_sliceL_2_split
I0410 21:10:10.610327   822 net.cpp:394] labels2_sliceL_2_split <- labels2
I0410 21:10:10.610335   822 net.cpp:356] labels2_sliceL_2_split -> labels2_sliceL_2_split_0
I0410 21:10:10.610342   822 net.cpp:356] labels2_sliceL_2_split -> labels2_sliceL_2_split_1
I0410 21:10:10.610375   822 net.cpp:96] Setting up labels2_sliceL_2_split
I0410 21:10:10.610380   822 net.cpp:103] Top shape: 32 1 1 1 (32)
I0410 21:10:10.610384   822 net.cpp:103] Top shape: 32 1 1 1 (32)
I0410 21:10:10.610390   822 net.cpp:67] Creating Layer labels3_sliceL_3_split
I0410 21:10:10.610394   822 net.cpp:394] labels3_sliceL_3_split <- labels3
I0410 21:10:10.610399   822 net.cpp:356] labels3_sliceL_3_split -> labels3_sliceL_3_split_0
I0410 21:10:10.610406   822 net.cpp:356] labels3_sliceL_3_split -> labels3_sliceL_3_split_1
I0410 21:10:10.610411   822 net.cpp:96] Setting up labels3_sliceL_3_split
I0410 21:10:10.610416   822 net.cpp:103] Top shape: 32 1 1 1 (32)
I0410 21:10:10.610419   822 net.cpp:103] Top shape: 32 1 1 1 (32)
I0410 21:10:10.610427   822 net.cpp:67] Creating Layer conv1
I0410 21:10:10.610431   822 net.cpp:394] conv1 <- data
I0410 21:10:10.610437   822 net.cpp:356] conv1 -> conv1
I0410 21:10:10.610445   822 net.cpp:96] Setting up conv1
I0410 21:10:10.611661   822 net.cpp:103] Top shape: 32 96 55 55 (9292800)
I0410 21:10:10.611688   822 net.cpp:67] Creating Layer relu1
I0410 21:10:10.611693   822 net.cpp:394] relu1 <- conv1
I0410 21:10:10.611701   822 net.cpp:345] relu1 -> conv1 (in-place)
I0410 21:10:10.611706   822 net.cpp:96] Setting up relu1
I0410 21:10:10.611713   822 net.cpp:103] Top shape: 32 96 55 55 (9292800)
I0410 21:10:10.611721   822 net.cpp:67] Creating Layer pool1
I0410 21:10:10.611724   822 net.cpp:394] pool1 <- conv1
I0410 21:10:10.611732   822 net.cpp:356] pool1 -> pool1
I0410 21:10:10.611738   822 net.cpp:96] Setting up pool1
I0410 21:10:10.611748   822 net.cpp:103] Top shape: 32 96 27 27 (2239488)
I0410 21:10:10.611757   822 net.cpp:67] Creating Layer norm1
I0410 21:10:10.611762   822 net.cpp:394] norm1 <- pool1
I0410 21:10:10.611768   822 net.cpp:356] norm1 -> norm1
I0410 21:10:10.611773   822 net.cpp:96] Setting up norm1
I0410 21:10:10.611778   822 net.cpp:103] Top shape: 32 96 27 27 (2239488)
I0410 21:10:10.611785   822 net.cpp:67] Creating Layer conv2
I0410 21:10:10.611789   822 net.cpp:394] conv2 <- norm1
I0410 21:10:10.611795   822 net.cpp:356] conv2 -> conv2
I0410 21:10:10.611801   822 net.cpp:96] Setting up conv2
I0410 21:10:10.622035   822 net.cpp:103] Top shape: 32 256 27 27 (5971968)
I0410 21:10:10.622092   822 net.cpp:67] Creating Layer relu2
I0410 21:10:10.622097   822 net.cpp:394] relu2 <- conv2
I0410 21:10:10.622105   822 net.cpp:345] relu2 -> conv2 (in-place)
I0410 21:10:10.622112   822 net.cpp:96] Setting up relu2
I0410 21:10:10.622120   822 net.cpp:103] Top shape: 32 256 27 27 (5971968)
I0410 21:10:10.622128   822 net.cpp:67] Creating Layer pool2
I0410 21:10:10.622131   822 net.cpp:394] pool2 <- conv2
I0410 21:10:10.622141   822 net.cpp:356] pool2 -> pool2
I0410 21:10:10.622149   822 net.cpp:96] Setting up pool2
I0410 21:10:10.622159   822 net.cpp:103] Top shape: 32 256 13 13 (1384448)
I0410 21:10:10.622170   822 net.cpp:67] Creating Layer norm2
I0410 21:10:10.622174   822 net.cpp:394] norm2 <- pool2
I0410 21:10:10.622180   822 net.cpp:356] norm2 -> norm2
I0410 21:10:10.622186   822 net.cpp:96] Setting up norm2
I0410 21:10:10.622191   822 net.cpp:103] Top shape: 32 256 13 13 (1384448)
I0410 21:10:10.622200   822 net.cpp:67] Creating Layer conv3
I0410 21:10:10.622205   822 net.cpp:394] conv3 <- norm2
I0410 21:10:10.622210   822 net.cpp:356] conv3 -> conv3
I0410 21:10:10.622216   822 net.cpp:96] Setting up conv3
I0410 21:10:10.651716   822 net.cpp:103] Top shape: 32 384 13 13 (2076672)
I0410 21:10:10.651782   822 net.cpp:67] Creating Layer relu3
I0410 21:10:10.651788   822 net.cpp:394] relu3 <- conv3
I0410 21:10:10.651796   822 net.cpp:345] relu3 -> conv3 (in-place)
I0410 21:10:10.651805   822 net.cpp:96] Setting up relu3
I0410 21:10:10.651813   822 net.cpp:103] Top shape: 32 384 13 13 (2076672)
I0410 21:10:10.651823   822 net.cpp:67] Creating Layer conv4
I0410 21:10:10.651828   822 net.cpp:394] conv4 <- conv3
I0410 21:10:10.651834   822 net.cpp:356] conv4 -> conv4
I0410 21:10:10.651840   822 net.cpp:96] Setting up conv4
I0410 21:10:10.673656   822 net.cpp:103] Top shape: 32 384 13 13 (2076672)
I0410 21:10:10.673737   822 net.cpp:67] Creating Layer relu4
I0410 21:10:10.673744   822 net.cpp:394] relu4 <- conv4
I0410 21:10:10.673754   822 net.cpp:345] relu4 -> conv4 (in-place)
I0410 21:10:10.673763   822 net.cpp:96] Setting up relu4
I0410 21:10:10.673770   822 net.cpp:103] Top shape: 32 384 13 13 (2076672)
I0410 21:10:10.673779   822 net.cpp:67] Creating Layer conv5
I0410 21:10:10.673781   822 net.cpp:394] conv5 <- conv4
I0410 21:10:10.673790   822 net.cpp:356] conv5 -> conv5
I0410 21:10:10.673797   822 net.cpp:96] Setting up conv5
I0410 21:10:10.688585   822 net.cpp:103] Top shape: 32 256 13 13 (1384448)
I0410 21:10:10.688614   822 net.cpp:67] Creating Layer relu5
I0410 21:10:10.688621   822 net.cpp:394] relu5 <- conv5
I0410 21:10:10.688627   822 net.cpp:345] relu5 -> conv5 (in-place)
I0410 21:10:10.688632   822 net.cpp:96] Setting up relu5
I0410 21:10:10.688639   822 net.cpp:103] Top shape: 32 256 13 13 (1384448)
I0410 21:10:10.688647   822 net.cpp:67] Creating Layer pool5
I0410 21:10:10.688652   822 net.cpp:394] pool5 <- conv5
I0410 21:10:10.688657   822 net.cpp:356] pool5 -> pool5
I0410 21:10:10.688665   822 net.cpp:96] Setting up pool5
I0410 21:10:10.688673   822 net.cpp:103] Top shape: 32 256 6 6 (294912)
I0410 21:10:10.688688   822 net.cpp:67] Creating Layer fc6
I0410 21:10:10.688694   822 net.cpp:394] fc6 <- pool5
I0410 21:10:10.688701   822 net.cpp:356] fc6 -> fc6
I0410 21:10:10.688709   822 net.cpp:96] Setting up fc6
I0410 21:10:11.911989   822 net.cpp:103] Top shape: 32 4096 1 1 (131072)
I0410 21:10:11.912060   822 net.cpp:67] Creating Layer relu6
I0410 21:10:11.912067   822 net.cpp:394] relu6 <- fc6
I0410 21:10:11.912084   822 net.cpp:345] relu6 -> fc6 (in-place)
I0410 21:10:11.912092   822 net.cpp:96] Setting up relu6
I0410 21:10:11.912111   822 net.cpp:103] Top shape: 32 4096 1 1 (131072)
I0410 21:10:11.912118   822 net.cpp:67] Creating Layer drop6
I0410 21:10:11.912122   822 net.cpp:394] drop6 <- fc6
I0410 21:10:11.912129   822 net.cpp:345] drop6 -> fc6 (in-place)
I0410 21:10:11.912135   822 net.cpp:96] Setting up drop6
I0410 21:10:11.912148   822 net.cpp:103] Top shape: 32 4096 1 1 (131072)
I0410 21:10:11.912155   822 net.cpp:67] Creating Layer fc7
I0410 21:10:11.912159   822 net.cpp:394] fc7 <- fc6
I0410 21:10:11.912165   822 net.cpp:356] fc7 -> fc7
I0410 21:10:11.912173   822 net.cpp:96] Setting up fc7
I0410 21:10:12.456707   822 net.cpp:103] Top shape: 32 4096 1 1 (131072)
I0410 21:10:12.456763   822 net.cpp:67] Creating Layer relu7
I0410 21:10:12.456769   822 net.cpp:394] relu7 <- fc7
I0410 21:10:12.456779   822 net.cpp:345] relu7 -> fc7 (in-place)
I0410 21:10:12.456786   822 net.cpp:96] Setting up relu7
I0410 21:10:12.456805   822 net.cpp:103] Top shape: 32 4096 1 1 (131072)
I0410 21:10:12.456815   822 net.cpp:67] Creating Layer drop7
I0410 21:10:12.456820   822 net.cpp:394] drop7 <- fc7
I0410 21:10:12.456825   822 net.cpp:345] drop7 -> fc7 (in-place)
I0410 21:10:12.456830   822 net.cpp:96] Setting up drop7
I0410 21:10:12.456835   822 net.cpp:103] Top shape: 32 4096 1 1 (131072)
I0410 21:10:12.456843   822 net.cpp:67] Creating Layer fc8_deepfashion
I0410 21:10:12.456847   822 net.cpp:394] fc8_deepfashion <- fc7
I0410 21:10:12.456854   822 net.cpp:356] fc8_deepfashion -> fc8_deepfashion
I0410 21:10:12.456861   822 net.cpp:96] Setting up fc8_deepfashion
I0410 21:10:12.463479   822 net.cpp:103] Top shape: 32 48 1 1 (1536)
I0410 21:10:12.463505   822 net.cpp:67] Creating Layer fc8_deepfashion_encode
I0410 21:10:12.463510   822 net.cpp:394] fc8_deepfashion_encode <- fc8_deepfashion
I0410 21:10:12.463516   822 net.cpp:356] fc8_deepfashion_encode -> fc8_deepfashion_encode
I0410 21:10:12.463523   822 net.cpp:96] Setting up fc8_deepfashion_encode
I0410 21:10:12.463532   822 net.cpp:103] Top shape: 32 48 1 1 (1536)
I0410 21:10:12.463539   822 net.cpp:67] Creating Layer fc8_deepfashion_encode_fc8_deepfashion_encode_0_split
I0410 21:10:12.463546   822 net.cpp:394] fc8_deepfashion_encode_fc8_deepfashion_encode_0_split <- fc8_deepfashion_encode
I0410 21:10:12.463551   822 net.cpp:356] fc8_deepfashion_encode_fc8_deepfashion_encode_0_split -> fc8_deepfashion_encode_fc8_deepfashion_encode_0_split_0
I0410 21:10:12.463590   822 net.cpp:356] fc8_deepfashion_encode_fc8_deepfashion_encode_0_split -> fc8_deepfashion_encode_fc8_deepfashion_encode_0_split_1
I0410 21:10:12.463603   822 net.cpp:356] fc8_deepfashion_encode_fc8_deepfashion_encode_0_split -> fc8_deepfashion_encode_fc8_deepfashion_encode_0_split_2
I0410 21:10:12.463618   822 net.cpp:356] fc8_deepfashion_encode_fc8_deepfashion_encode_0_split -> fc8_deepfashion_encode_fc8_deepfashion_encode_0_split_3
I0410 21:10:12.463627   822 net.cpp:96] Setting up fc8_deepfashion_encode_fc8_deepfashion_encode_0_split
I0410 21:10:12.463635   822 net.cpp:103] Top shape: 32 48 1 1 (1536)
I0410 21:10:12.463639   822 net.cpp:103] Top shape: 32 48 1 1 (1536)
I0410 21:10:12.463642   822 net.cpp:103] Top shape: 32 48 1 1 (1536)
I0410 21:10:12.463647   822 net.cpp:103] Top shape: 32 48 1 1 (1536)
I0410 21:10:12.463654   822 net.cpp:67] Creating Layer fc8_pascal_label_mod
I0410 21:10:12.463657   822 net.cpp:394] fc8_pascal_label_mod <- fc8_deepfashion_encode_fc8_deepfashion_encode_0_split_0
I0410 21:10:12.463665   822 net.cpp:356] fc8_pascal_label_mod -> fc8_pascal_label_mod
I0410 21:10:12.463672   822 net.cpp:96] Setting up fc8_pascal_label_mod
I0410 21:10:12.463711   822 net.cpp:103] Top shape: 32 10 1 1 (320)
I0410 21:10:12.463735   822 net.cpp:67] Creating Layer fc8_pascal_label_mod_fc8_pascal_label_mod_0_split
I0410 21:10:12.463745   822 net.cpp:394] fc8_pascal_label_mod_fc8_pascal_label_mod_0_split <- fc8_pascal_label_mod
I0410 21:10:12.463752   822 net.cpp:356] fc8_pascal_label_mod_fc8_pascal_label_mod_0_split -> fc8_pascal_label_mod_fc8_pascal_label_mod_0_split_0
I0410 21:10:12.463765   822 net.cpp:356] fc8_pascal_label_mod_fc8_pascal_label_mod_0_split -> fc8_pascal_label_mod_fc8_pascal_label_mod_0_split_1
I0410 21:10:12.463771   822 net.cpp:96] Setting up fc8_pascal_label_mod_fc8_pascal_label_mod_0_split
I0410 21:10:12.463776   822 net.cpp:103] Top shape: 32 10 1 1 (320)
I0410 21:10:12.463780   822 net.cpp:103] Top shape: 32 10 1 1 (320)
I0410 21:10:12.463788   822 net.cpp:67] Creating Layer fc8_pascal_color_mod
I0410 21:10:12.463793   822 net.cpp:394] fc8_pascal_color_mod <- fc8_deepfashion_encode_fc8_deepfashion_encode_0_split_1
I0410 21:10:12.463800   822 net.cpp:356] fc8_pascal_color_mod -> fc8_pascal_color_mod
I0410 21:10:12.463806   822 net.cpp:96] Setting up fc8_pascal_color_mod
I0410 21:10:12.463845   822 net.cpp:103] Top shape: 32 16 1 1 (512)
I0410 21:10:12.463861   822 net.cpp:67] Creating Layer fc8_pascal_color_mod_fc8_pascal_color_mod_0_split
I0410 21:10:12.463866   822 net.cpp:394] fc8_pascal_color_mod_fc8_pascal_color_mod_0_split <- fc8_pascal_color_mod
I0410 21:10:12.463872   822 net.cpp:356] fc8_pascal_color_mod_fc8_pascal_color_mod_0_split -> fc8_pascal_color_mod_fc8_pascal_color_mod_0_split_0
I0410 21:10:12.463878   822 net.cpp:356] fc8_pascal_color_mod_fc8_pascal_color_mod_0_split -> fc8_pascal_color_mod_fc8_pascal_color_mod_0_split_1
I0410 21:10:12.463884   822 net.cpp:96] Setting up fc8_pascal_color_mod_fc8_pascal_color_mod_0_split
I0410 21:10:12.463888   822 net.cpp:103] Top shape: 32 16 1 1 (512)
I0410 21:10:12.463892   822 net.cpp:103] Top shape: 32 16 1 1 (512)
I0410 21:10:12.463898   822 net.cpp:67] Creating Layer fc8_pascal_fabric_mod
I0410 21:10:12.463902   822 net.cpp:394] fc8_pascal_fabric_mod <- fc8_deepfashion_encode_fc8_deepfashion_encode_0_split_2
I0410 21:10:12.463910   822 net.cpp:356] fc8_pascal_fabric_mod -> fc8_pascal_fabric_mod
I0410 21:10:12.463917   822 net.cpp:96] Setting up fc8_pascal_fabric_mod
I0410 21:10:12.463960   822 net.cpp:103] Top shape: 32 21 1 1 (672)
I0410 21:10:12.463974   822 net.cpp:67] Creating Layer fc8_pascal_fabric_mod_fc8_pascal_fabric_mod_0_split
I0410 21:10:12.463979   822 net.cpp:394] fc8_pascal_fabric_mod_fc8_pascal_fabric_mod_0_split <- fc8_pascal_fabric_mod
I0410 21:10:12.463985   822 net.cpp:356] fc8_pascal_fabric_mod_fc8_pascal_fabric_mod_0_split -> fc8_pascal_fabric_mod_fc8_pascal_fabric_mod_0_split_0
I0410 21:10:12.464009   822 net.cpp:356] fc8_pascal_fabric_mod_fc8_pascal_fabric_mod_0_split -> fc8_pascal_fabric_mod_fc8_pascal_fabric_mod_0_split_1
I0410 21:10:12.464015   822 net.cpp:96] Setting up fc8_pascal_fabric_mod_fc8_pascal_fabric_mod_0_split
I0410 21:10:12.464020   822 net.cpp:103] Top shape: 32 21 1 1 (672)
I0410 21:10:12.464023   822 net.cpp:103] Top shape: 32 21 1 1 (672)
I0410 21:10:12.464031   822 net.cpp:67] Creating Layer fc8_pascal_style_mod
I0410 21:10:12.464035   822 net.cpp:394] fc8_pascal_style_mod <- fc8_deepfashion_encode_fc8_deepfashion_encode_0_split_3
I0410 21:10:12.464041   822 net.cpp:356] fc8_pascal_style_mod -> fc8_pascal_style_mod
I0410 21:10:12.464048   822 net.cpp:96] Setting up fc8_pascal_style_mod
I0410 21:10:12.464066   822 net.cpp:103] Top shape: 32 8 1 1 (256)
I0410 21:10:12.464082   822 net.cpp:67] Creating Layer fc8_pascal_style_mod_fc8_pascal_style_mod_0_split
I0410 21:10:12.464087   822 net.cpp:394] fc8_pascal_style_mod_fc8_pascal_style_mod_0_split <- fc8_pascal_style_mod
I0410 21:10:12.464093   822 net.cpp:356] fc8_pascal_style_mod_fc8_pascal_style_mod_0_split -> fc8_pascal_style_mod_fc8_pascal_style_mod_0_split_0
I0410 21:10:12.464099   822 net.cpp:356] fc8_pascal_style_mod_fc8_pascal_style_mod_0_split -> fc8_pascal_style_mod_fc8_pascal_style_mod_0_split_1
I0410 21:10:12.464105   822 net.cpp:96] Setting up fc8_pascal_style_mod_fc8_pascal_style_mod_0_split
I0410 21:10:12.464109   822 net.cpp:103] Top shape: 32 8 1 1 (256)
I0410 21:10:12.464113   822 net.cpp:103] Top shape: 32 8 1 1 (256)
I0410 21:10:12.464118   822 net.cpp:67] Creating Layer loss
I0410 21:10:12.464123   822 net.cpp:394] loss <- fc8_pascal_label_mod_fc8_pascal_label_mod_0_split_0
I0410 21:10:12.464128   822 net.cpp:394] loss <- labels0_sliceL_0_split_0
I0410 21:10:12.464133   822 net.cpp:356] loss -> (automatic)
I0410 21:10:12.464138   822 net.cpp:96] Setting up loss
I0410 21:10:12.464145   822 net.cpp:103] Top shape: 1 1 1 1 (1)
I0410 21:10:12.464149   822 net.cpp:109]     with loss weight 1
I0410 21:10:12.464175   822 net.cpp:67] Creating Layer loss
I0410 21:10:12.464181   822 net.cpp:394] loss <- fc8_pascal_color_mod_fc8_pascal_color_mod_0_split_0
I0410 21:10:12.464186   822 net.cpp:394] loss <- labels1_sliceL_1_split_0
I0410 21:10:12.464191   822 net.cpp:356] loss -> (automatic)
I0410 21:10:12.464196   822 net.cpp:96] Setting up loss
I0410 21:10:12.464202   822 net.cpp:103] Top shape: 1 1 1 1 (1)
I0410 21:10:12.464206   822 net.cpp:109]     with loss weight 1
I0410 21:10:12.464215   822 net.cpp:67] Creating Layer loss
I0410 21:10:12.464220   822 net.cpp:394] loss <- fc8_pascal_fabric_mod_fc8_pascal_fabric_mod_0_split_0
I0410 21:10:12.464224   822 net.cpp:394] loss <- labels2_sliceL_2_split_0
I0410 21:10:12.464229   822 net.cpp:356] loss -> (automatic)
I0410 21:10:12.464234   822 net.cpp:96] Setting up loss
I0410 21:10:12.464239   822 net.cpp:103] Top shape: 1 1 1 1 (1)
I0410 21:10:12.464243   822 net.cpp:109]     with loss weight 1
I0410 21:10:12.464251   822 net.cpp:67] Creating Layer loss
I0410 21:10:12.464254   822 net.cpp:394] loss <- fc8_pascal_style_mod_fc8_pascal_style_mod_0_split_0
I0410 21:10:12.464259   822 net.cpp:394] loss <- labels3_sliceL_3_split_0
I0410 21:10:12.464264   822 net.cpp:356] loss -> (automatic)
I0410 21:10:12.464268   822 net.cpp:96] Setting up loss
I0410 21:10:12.464274   822 net.cpp:103] Top shape: 1 1 1 1 (1)
I0410 21:10:12.464277   822 net.cpp:109]     with loss weight 1
I0410 21:10:12.464287   822 net.cpp:67] Creating Layer accuracy0
I0410 21:10:12.464292   822 net.cpp:394] accuracy0 <- fc8_pascal_label_mod_fc8_pascal_label_mod_0_split_1
I0410 21:10:12.464295   822 net.cpp:394] accuracy0 <- labels0_sliceL_0_split_1
I0410 21:10:12.464303   822 net.cpp:356] accuracy0 -> labelAccuracy
I0410 21:10:12.464308   822 net.cpp:96] Setting up accuracy0
I0410 21:10:12.464316   822 net.cpp:103] Top shape: 1 1 1 1 (1)
I0410 21:10:12.464323   822 net.cpp:67] Creating Layer accuracy1
I0410 21:10:12.464326   822 net.cpp:394] accuracy1 <- fc8_pascal_color_mod_fc8_pascal_color_mod_0_split_1
I0410 21:10:12.464347   822 net.cpp:394] accuracy1 <- labels1_sliceL_1_split_1
I0410 21:10:12.464354   822 net.cpp:356] accuracy1 -> colorAccuracy
I0410 21:10:12.464360   822 net.cpp:96] Setting up accuracy1
I0410 21:10:12.464365   822 net.cpp:103] Top shape: 1 1 1 1 (1)
I0410 21:10:12.464370   822 net.cpp:67] Creating Layer accuracy2
I0410 21:10:12.464373   822 net.cpp:394] accuracy2 <- fc8_pascal_fabric_mod_fc8_pascal_fabric_mod_0_split_1
I0410 21:10:12.464378   822 net.cpp:394] accuracy2 <- labels2_sliceL_2_split_1
I0410 21:10:12.464386   822 net.cpp:356] accuracy2 -> fabricAccuracy
I0410 21:10:12.464392   822 net.cpp:96] Setting up accuracy2
I0410 21:10:12.464396   822 net.cpp:103] Top shape: 1 1 1 1 (1)
I0410 21:10:12.464401   822 net.cpp:67] Creating Layer accuracy3
I0410 21:10:12.464406   822 net.cpp:394] accuracy3 <- fc8_pascal_style_mod_fc8_pascal_style_mod_0_split_1
I0410 21:10:12.464411   822 net.cpp:394] accuracy3 <- labels3_sliceL_3_split_1
I0410 21:10:12.464416   822 net.cpp:356] accuracy3 -> styleAccuracy
I0410 21:10:12.464421   822 net.cpp:96] Setting up accuracy3
I0410 21:10:12.464426   822 net.cpp:103] Top shape: 1 1 1 1 (1)
I0410 21:10:12.464431   822 net.cpp:67] Creating Layer silence
I0410 21:10:12.464433   822 net.cpp:394] silence <- random
I0410 21:10:12.464438   822 net.cpp:96] Setting up silence
I0410 21:10:12.464442   822 net.cpp:172] silence does not need backward computation.
I0410 21:10:12.464445   822 net.cpp:172] accuracy3 does not need backward computation.
I0410 21:10:12.464449   822 net.cpp:172] accuracy2 does not need backward computation.
…
