…
I0410 21:52:12.634251 16074 net.cpp:39] Initializing net from parameters: 
name: "deepFashion"
layers {
  top: "data"
  top: "random"
  name: "data"
  type: DATA
  data_param {
    source: "/data/deepfashion/multimodal/multimodal_TRAIN"
    batch_size: 32
    backend: LMDB
  }
  include {
    phase: TRAIN
  }
  transform_param {
    mirror: true
    crop_size: 227
    mean_file: "../../../data/ilsvrc12/imagenet_mean.binaryproto"
  }
}
layers {
  top: "labels"
  name: "labels"
  type: DATA
  data_param {
    source: "/data/deepfashion/multimodal/multimodal_TRAIN_ALT"
    batch_size: 32
    backend: LMDB
  }
  include {
    phase: TRAIN
  }
}
layers {
  bottom: "labels"
  top: "labels0"
  top: "labels1"
  top: "labels2"
  top: "labels3"
  name: "sliceL"
  type: SLICE
  slice_param {
    slice_point: 1
    slice_point: 2
    slice_point: 3
  }
}
layers {
  bottom: "data"
  top: "conv1"
  name: "conv1"
  type: CONVOLUTION
  blobs_lr: 1
  blobs_lr: 2
  weight_decay: 1
  weight_decay: 0
  convolution_param {
    num_output: 96
    kernel_size: 11
    stride: 4
    weight_filler {
      type: "gaussian"
      std: 0.01
    }
    bias_filler {
      type: "constant"
      value: 0
    }
  }
}
layers {
  bottom: "conv1"
  top: "conv1"
  name: "relu1"
  type: RELU
}
layers {
  bottom: "conv1"
  top: "pool1"
  name: "pool1"
  type: POOLING
  pooling_param {
    pool: MAX
    kernel_size: 3
    stride: 2
  }
}
layers {
  bottom: "pool1"
  top: "norm1"
  name: "norm1"
  type: LRN
  lrn_param {
    local_size: 5
    alpha: 0.0001
    beta: 0.75
  }
}
layers {
  bottom: "norm1"
  top: "conv2"
  name: "conv2"
  type: CONVOLUTION
  blobs_lr: 1
  blobs_lr: 2
  weight_decay: 1
  weight_decay: 0
  convolution_param {
    num_output: 256
    pad: 2
    kernel_size: 5
    group: 2
    weight_filler {
      type: "gaussian"
      std: 0.01
    }
    bias_filler {
      type: "constant"
      value: 1
    }
  }
}
layers {
  bottom: "conv2"
  top: "conv2"
  name: "relu2"
  type: RELU
}
layers {
  bottom: "conv2"
  top: "pool2"
  name: "pool2"
  type: POOLING
  pooling_param {
    pool: MAX
    kernel_size: 3
    stride: 2
  }
}
layers {
  bottom: "pool2"
  top: "norm2"
  name: "norm2"
  type: LRN
  lrn_param {
    local_size: 5
    alpha: 0.0001
    beta: 0.75
  }
}
layers {
  bottom: "norm2"
  top: "conv3"
  name: "conv3"
  type: CONVOLUTION
  blobs_lr: 1
  blobs_lr: 2
  weight_decay: 1
  weight_decay: 0
  convolution_param {
    num_output: 384
    pad: 1
    kernel_size: 3
    weight_filler {
      type: "gaussian"
      std: 0.01
    }
    bias_filler {
      type: "constant"
      value: 0
    }
  }
}
layers {
  bottom: "conv3"
  top: "conv3"
  name: "relu3"
  type: RELU
}
layers {
  bottom: "conv3"
  top: "conv4"
  name: "conv4"
  type: CONVOLUTION
  blobs_lr: 1
  blobs_lr: 2
  weight_decay: 1
  weight_decay: 0
  convolution_param {
    num_output: 384
    pad: 1
    kernel_size: 3
    group: 2
    weight_filler {
      type: "gaussian"
      std: 0.01
    }
    bias_filler {
      type: "constant"
      value: 1
    }
  }
}
layers {
  bottom: "conv4"
  top: "conv4"
  name: "relu4"
  type: RELU
}
layers {
  bottom: "conv4"
  top: "conv5"
  name: "conv5"
  type: CONVOLUTION
  blobs_lr: 1
  blobs_lr: 2
  weight_decay: 1
  weight_decay: 0
  convolution_param {
    num_output: 256
    pad: 1
    kernel_size: 3
    group: 2
    weight_filler {
      type: "gaussian"
      std: 0.01
    }
    bias_filler {
      type: "constant"
      value: 1
    }
  }
}
layers {
  bottom: "conv5"
  top: "conv5"
  name: "relu5"
  type: RELU
}
layers {
  bottom: "conv5"
  top: "pool5"
  name: "pool5"
  type: POOLING
  pooling_param {
    pool: MAX
    kernel_size: 3
    stride: 2
  }
}
layers {
  bottom: "pool5"
  top: "fc6"
  name: "fc6"
  type: INNER_PRODUCT
  blobs_lr: 1
  blobs_lr: 2
  weight_decay: 1
  weight_decay: 0
  inner_product_param {
    num_output: 4096
    weight_filler {
      type: "gaussian"
      std: 0.005
    }
    bias_filler {
      type: "constant"
      value: 1
    }
  }
}
layers {
  bottom: "fc6"
  top: "fc6"
  name: "relu6"
  type: RELU
}
layers {
  bottom: "fc6"
  top: "fc6"
  name: "drop6"
  type: DROPOUT
  dropout_param {
    dropout_ratio: 0.5
  }
}
layers {
  bottom: "fc6"
  top: "fc7"
  name: "fc7"
  type: INNER_PRODUCT
  blobs_lr: 1
  blobs_lr: 2
  weight_decay: 1
  weight_decay: 0
  inner_product_param {
    num_output: 4096
    weight_filler {
      type: "gaussian"
      std: 0.005
    }
    bias_filler {
      type: "constant"
      value: 1
    }
  }
}
layers {
  bottom: "fc7"
  top: "fc7"
  name: "relu7"
  type: RELU
}
layers {
  bottom: "fc7"
  top: "fc7"
  name: "drop7"
  type: DROPOUT
  dropout_param {
    dropout_ratio: 0.5
  }
}
layers {
  bottom: "fc7"
  top: "fc8_deepfashion"
  name: "fc8_deepfashion"
  type: INNER_PRODUCT
  blobs_lr: 1
  blobs_lr: 2
  weight_decay: 1
  weight_decay: 0
  inner_product_param {
    num_output: 48
    weight_filler {
      type: "gaussian"
      std: 0.01
    }
    bias_filler {
      type: "constant"
      value: 0
    }
  }
}
layers {
  bottom: "fc8_deepfashion"
  top: "fc8_deepfashion_encode"
  name: "fc8_deepfashion_encode"
  type: SIGMOID
}
layers {
  bottom: "fc8_deepfashion_encode"
  top: "fc8_pascal_label_mod"
  name: "fc8_pascal_label_mod"
  type: INNER_PRODUCT
  blobs_lr: 0
  blobs_lr: 0
  weight_decay: 1
  weight_decay: 0
  inner_product_param {
    num_output: 10
    weight_filler {
      type: "gaussian"
      std: 0.01
    }
    bias_filler {
      type: "constant"
      value: 0
    }
  }
}
layers {
  bottom: "fc8_deepfashion_encode"
  top: "fc8_pascal_color_mod"
  name: "fc8_pascal_color_mod"
  type: INNER_PRODUCT
  blobs_lr: 0
  blobs_lr: 0
  weight_decay: 1
  weight_decay: 0
  inner_product_param {
    num_output: 16
    weight_filler {
      type: "gaussian"
      std: 0.01
    }
    bias_filler {
      type: "constant"
      value: 0
    }
  }
}
layers {
  bottom: "fc8_deepfashion_encode"
  top: "fc8_pascal_fabric_mod"
  name: "fc8_pascal_fabric_mod"
  type: INNER_PRODUCT
  blobs_lr: 10
  blobs_lr: 20
  weight_decay: 1
  weight_decay: 0
  inner_product_param {
    num_output: 21
    weight_filler {
      type: "gaussian"
      std: 0.01
    }
    bias_filler {
      type: "constant"
      value: 0
    }
  }
}
layers {
  bottom: "fc8_deepfashion_encode"
  top: "fc8_pascal_style_mod"
  name: "fc8_pascal_style_mod"
  type: INNER_PRODUCT
  blobs_lr: 0
  blobs_lr: 0
  weight_decay: 1
  weight_decay: 0
  inner_product_param {
    num_output: 8
    weight_filler {
      type: "gaussian"
      std: 0.01
    }
    bias_filler {
      type: "constant"
      value: 0
    }
  }
}
layers {
  bottom: "fc8_pascal_fabric_mod"
  bottom: "labels2"
  name: "loss"
  type: SOFTMAX_LOSS
}
layers {
  bottom: "labels0"
  bottom: "labels1"
  bottom: "labels3"
  bottom: "random"
  bottom: "fc8_pascal_color_mod"
  bottom: "fc8_pascal_label_mod"
  bottom: "fc8_pascal_style_mod"
  name: "silence"
  type: SILENCE
  include {
    phase: TRAIN
  }
}
state {
  phase: TRAIN
}
I0410 21:52:12.634464 16074 net.cpp:67] Creating Layer data
I0410 21:52:12.634476 16074 net.cpp:356] data -> data
I0410 21:52:12.634501 16074 net.cpp:356] data -> random
I0410 21:52:12.634516 16074 net.cpp:96] Setting up data
I0410 21:52:12.634616 16074 data_layer.cpp:68] Opening lmdb /data/deepfashion/multimodal/multimodal_TRAIN
I0410 21:52:12.634785 16074 data_layer.cpp:128] output data size: 32,3,227,227
I0410 21:52:12.634793 16074 base_data_layer.cpp:36] Loading mean file from../../../data/ilsvrc12/imagenet_mean.binaryproto
I0410 21:52:12.641983 16074 net.cpp:103] Top shape: 32 3 227 227 (4946784)
I0410 21:52:12.642024 16074 net.cpp:103] Top shape: 32 1 1 1 (32)
I0410 21:52:12.642040 16074 net.cpp:67] Creating Layer labels
I0410 21:52:12.642046 16074 net.cpp:356] labels -> labels
I0410 21:52:12.642058 16074 net.cpp:96] Setting up labels
I0410 21:52:12.642166 16074 data_layer.cpp:68] Opening lmdb /data/deepfashion/multimodal/multimodal_TRAIN_ALT
I0410 21:52:12.642194 16074 data_layer.cpp:128] output data size: 32,4,1,1
I0410 21:52:12.642256 16074 net.cpp:103] Top shape: 32 4 1 1 (128)
I0410 21:52:12.642277 16074 net.cpp:67] Creating Layer sliceL
I0410 21:52:12.642320 16074 net.cpp:394] sliceL <- labels
I0410 21:52:12.642335 16074 net.cpp:356] sliceL -> labels0
I0410 21:52:12.642344 16074 net.cpp:356] sliceL -> labels1
I0410 21:52:12.642352 16074 net.cpp:356] sliceL -> labels2
I0410 21:52:12.642359 16074 net.cpp:356] sliceL -> labels3
I0410 21:52:12.642367 16074 net.cpp:96] Setting up sliceL
I0410 21:52:12.642376 16074 net.cpp:103] Top shape: 32 1 1 1 (32)
I0410 21:52:12.642381 16074 net.cpp:103] Top shape: 32 1 1 1 (32)
I0410 21:52:12.642385 16074 net.cpp:103] Top shape: 32 1 1 1 (32)
I0410 21:52:12.642388 16074 net.cpp:103] Top shape: 32 1 1 1 (32)
I0410 21:52:12.642397 16074 net.cpp:67] Creating Layer conv1
I0410 21:52:12.642401 16074 net.cpp:394] conv1 <- data
I0410 21:52:12.642410 16074 net.cpp:356] conv1 -> conv1
I0410 21:52:12.642418 16074 net.cpp:96] Setting up conv1
I0410 21:52:12.664577 16074 net.cpp:103] Top shape: 32 96 55 55 (9292800)
I0410 21:52:12.664634 16074 net.cpp:67] Creating Layer relu1
I0410 21:52:12.664643 16074 net.cpp:394] relu1 <- conv1
I0410 21:52:12.664650 16074 net.cpp:345] relu1 -> conv1 (in-place)
I0410 21:52:12.664659 16074 net.cpp:96] Setting up relu1
I0410 21:52:12.664669 16074 net.cpp:103] Top shape: 32 96 55 55 (9292800)
I0410 21:52:12.664676 16074 net.cpp:67] Creating Layer pool1
I0410 21:52:12.664683 16074 net.cpp:394] pool1 <- conv1
I0410 21:52:12.664690 16074 net.cpp:356] pool1 -> pool1
I0410 21:52:12.664697 16074 net.cpp:96] Setting up pool1
I0410 21:52:12.664719 16074 net.cpp:103] Top shape: 32 96 27 27 (2239488)
I0410 21:52:12.664737 16074 net.cpp:67] Creating Layer norm1
I0410 21:52:12.664742 16074 net.cpp:394] norm1 <- pool1
I0410 21:52:12.664747 16074 net.cpp:356] norm1 -> norm1
I0410 21:52:12.664753 16074 net.cpp:96] Setting up norm1
I0410 21:52:12.664762 16074 net.cpp:103] Top shape: 32 96 27 27 (2239488)
I0410 21:52:12.664772 16074 net.cpp:67] Creating Layer conv2
I0410 21:52:12.664782 16074 net.cpp:394] conv2 <- norm1
I0410 21:52:12.664788 16074 net.cpp:356] conv2 -> conv2
I0410 21:52:12.664794 16074 net.cpp:96] Setting up conv2
I0410 21:52:12.675068 16074 net.cpp:103] Top shape: 32 256 27 27 (5971968)
I0410 21:52:12.675093 16074 net.cpp:67] Creating Layer relu2
I0410 21:52:12.675099 16074 net.cpp:394] relu2 <- conv2
I0410 21:52:12.675104 16074 net.cpp:345] relu2 -> conv2 (in-place)
I0410 21:52:12.675110 16074 net.cpp:96] Setting up relu2
I0410 21:52:12.675117 16074 net.cpp:103] Top shape: 32 256 27 27 (5971968)
I0410 21:52:12.675124 16074 net.cpp:67] Creating Layer pool2
I0410 21:52:12.675128 16074 net.cpp:394] pool2 <- conv2
I0410 21:52:12.675133 16074 net.cpp:356] pool2 -> pool2
I0410 21:52:12.675139 16074 net.cpp:96] Setting up pool2
I0410 21:52:12.675170 16074 net.cpp:103] Top shape: 32 256 13 13 (1384448)
I0410 21:52:12.675181 16074 net.cpp:67] Creating Layer norm2
I0410 21:52:12.675185 16074 net.cpp:394] norm2 <- pool2
I0410 21:52:12.675190 16074 net.cpp:356] norm2 -> norm2
I0410 21:52:12.675196 16074 net.cpp:96] Setting up norm2
I0410 21:52:12.675201 16074 net.cpp:103] Top shape: 32 256 13 13 (1384448)
I0410 21:52:12.675207 16074 net.cpp:67] Creating Layer conv3
I0410 21:52:12.675211 16074 net.cpp:394] conv3 <- norm2
I0410 21:52:12.675217 16074 net.cpp:356] conv3 -> conv3
I0410 21:52:12.675223 16074 net.cpp:96] Setting up conv3
I0410 21:52:12.704066 16074 net.cpp:103] Top shape: 32 384 13 13 (2076672)
I0410 21:52:12.704100 16074 net.cpp:67] Creating Layer relu3
I0410 21:52:12.704105 16074 net.cpp:394] relu3 <- conv3
I0410 21:52:12.704112 16074 net.cpp:345] relu3 -> conv3 (in-place)
I0410 21:52:12.704118 16074 net.cpp:96] Setting up relu3
I0410 21:52:12.704125 16074 net.cpp:103] Top shape: 32 384 13 13 (2076672)
I0410 21:52:12.704136 16074 net.cpp:67] Creating Layer conv4
I0410 21:52:12.704141 16074 net.cpp:394] conv4 <- conv3
I0410 21:52:12.704146 16074 net.cpp:356] conv4 -> conv4
I0410 21:52:12.704154 16074 net.cpp:96] Setting up conv4
I0410 21:52:12.726271 16074 net.cpp:103] Top shape: 32 384 13 13 (2076672)
I0410 21:52:12.726297 16074 net.cpp:67] Creating Layer relu4
I0410 21:52:12.726313 16074 net.cpp:394] relu4 <- conv4
I0410 21:52:12.726323 16074 net.cpp:345] relu4 -> conv4 (in-place)
I0410 21:52:12.726330 16074 net.cpp:96] Setting up relu4
I0410 21:52:12.726336 16074 net.cpp:103] Top shape: 32 384 13 13 (2076672)
I0410 21:52:12.726344 16074 net.cpp:67] Creating Layer conv5
I0410 21:52:12.726348 16074 net.cpp:394] conv5 <- conv4
I0410 21:52:12.726356 16074 net.cpp:356] conv5 -> conv5
I0410 21:52:12.726362 16074 net.cpp:96] Setting up conv5
I0410 21:52:12.740967 16074 net.cpp:103] Top shape: 32 256 13 13 (1384448)
I0410 21:52:12.740993 16074 net.cpp:67] Creating Layer relu5
I0410 21:52:12.740998 16074 net.cpp:394] relu5 <- conv5
I0410 21:52:12.741006 16074 net.cpp:345] relu5 -> conv5 (in-place)
I0410 21:52:12.741014 16074 net.cpp:96] Setting up relu5
I0410 21:52:12.741020 16074 net.cpp:103] Top shape: 32 256 13 13 (1384448)
I0410 21:52:12.741026 16074 net.cpp:67] Creating Layer pool5
I0410 21:52:12.741030 16074 net.cpp:394] pool5 <- conv5
I0410 21:52:12.741036 16074 net.cpp:356] pool5 -> pool5
I0410 21:52:12.741045 16074 net.cpp:96] Setting up pool5
I0410 21:52:12.741055 16074 net.cpp:103] Top shape: 32 256 6 6 (294912)
I0410 21:52:12.741065 16074 net.cpp:67] Creating Layer fc6
I0410 21:52:12.741068 16074 net.cpp:394] fc6 <- pool5
I0410 21:52:12.741076 16074 net.cpp:356] fc6 -> fc6
I0410 21:52:12.741085 16074 net.cpp:96] Setting up fc6
I0410 21:52:13.964448 16074 net.cpp:103] Top shape: 32 4096 1 1 (131072)
I0410 21:52:13.964504 16074 net.cpp:67] Creating Layer relu6
I0410 21:52:13.964514 16074 net.cpp:394] relu6 <- fc6
I0410 21:52:13.964524 16074 net.cpp:345] relu6 -> fc6 (in-place)
I0410 21:52:13.964532 16074 net.cpp:96] Setting up relu6
I0410 21:52:13.964550 16074 net.cpp:103] Top shape: 32 4096 1 1 (131072)
I0410 21:52:13.964557 16074 net.cpp:67] Creating Layer drop6
I0410 21:52:13.964561 16074 net.cpp:394] drop6 <- fc6
I0410 21:52:13.964566 16074 net.cpp:345] drop6 -> fc6 (in-place)
I0410 21:52:13.964572 16074 net.cpp:96] Setting up drop6
I0410 21:52:13.964587 16074 net.cpp:103] Top shape: 32 4096 1 1 (131072)
I0410 21:52:13.964596 16074 net.cpp:67] Creating Layer fc7
I0410 21:52:13.964607 16074 net.cpp:394] fc7 <- fc6
I0410 21:52:13.964617 16074 net.cpp:356] fc7 -> fc7
I0410 21:52:13.964624 16074 net.cpp:96] Setting up fc7
I0410 21:52:14.508689 16074 net.cpp:103] Top shape: 32 4096 1 1 (131072)
I0410 21:52:14.508746 16074 net.cpp:67] Creating Layer relu7
I0410 21:52:14.508754 16074 net.cpp:394] relu7 <- fc7
I0410 21:52:14.508762 16074 net.cpp:345] relu7 -> fc7 (in-place)
I0410 21:52:14.508771 16074 net.cpp:96] Setting up relu7
I0410 21:52:14.508790 16074 net.cpp:103] Top shape: 32 4096 1 1 (131072)
I0410 21:52:14.508796 16074 net.cpp:67] Creating Layer drop7
I0410 21:52:14.508833 16074 net.cpp:394] drop7 <- fc7
I0410 21:52:14.508842 16074 net.cpp:345] drop7 -> fc7 (in-place)
I0410 21:52:14.508849 16074 net.cpp:96] Setting up drop7
I0410 21:52:14.508854 16074 net.cpp:103] Top shape: 32 4096 1 1 (131072)
I0410 21:52:14.508862 16074 net.cpp:67] Creating Layer fc8_deepfashion
I0410 21:52:14.508865 16074 net.cpp:394] fc8_deepfashion <- fc7
I0410 21:52:14.508873 16074 net.cpp:356] fc8_deepfashion -> fc8_deepfashion
I0410 21:52:14.508880 16074 net.cpp:96] Setting up fc8_deepfashion
I0410 21:52:14.515372 16074 net.cpp:103] Top shape: 32 48 1 1 (1536)
I0410 21:52:14.515390 16074 net.cpp:67] Creating Layer fc8_deepfashion_encode
I0410 21:52:14.515396 16074 net.cpp:394] fc8_deepfashion_encode <- fc8_deepfashion
I0410 21:52:14.515403 16074 net.cpp:356] fc8_deepfashion_encode -> fc8_deepfashion_encode
I0410 21:52:14.515408 16074 net.cpp:96] Setting up fc8_deepfashion_encode
I0410 21:52:14.515421 16074 net.cpp:103] Top shape: 32 48 1 1 (1536)
I0410 21:52:14.515429 16074 net.cpp:67] Creating Layer fc8_deepfashion_encode_fc8_deepfashion_encode_0_split
I0410 21:52:14.515434 16074 net.cpp:394] fc8_deepfashion_encode_fc8_deepfashion_encode_0_split <- fc8_deepfashion_encode
I0410 21:52:14.515439 16074 net.cpp:356] fc8_deepfashion_encode_fc8_deepfashion_encode_0_split -> fc8_deepfashion_encode_fc8_deepfashion_encode_0_split_0
I0410 21:52:14.515447 16074 net.cpp:356] fc8_deepfashion_encode_fc8_deepfashion_encode_0_split -> fc8_deepfashion_encode_fc8_deepfashion_encode_0_split_1
I0410 21:52:14.515455 16074 net.cpp:356] fc8_deepfashion_encode_fc8_deepfashion_encode_0_split -> fc8_deepfashion_encode_fc8_deepfashion_encode_0_split_2
I0410 21:52:14.515460 16074 net.cpp:356] fc8_deepfashion_encode_fc8_deepfashion_encode_0_split -> fc8_deepfashion_encode_fc8_deepfashion_encode_0_split_3
I0410 21:52:14.515465 16074 net.cpp:96] Setting up fc8_deepfashion_encode_fc8_deepfashion_encode_0_split
I0410 21:52:14.515472 16074 net.cpp:103] Top shape: 32 48 1 1 (1536)
I0410 21:52:14.515476 16074 net.cpp:103] Top shape: 32 48 1 1 (1536)
I0410 21:52:14.515480 16074 net.cpp:103] Top shape: 32 48 1 1 (1536)
I0410 21:52:14.515483 16074 net.cpp:103] Top shape: 32 48 1 1 (1536)
I0410 21:52:14.515489 16074 net.cpp:67] Creating Layer fc8_pascal_label_mod
I0410 21:52:14.515493 16074 net.cpp:394] fc8_pascal_label_mod <- fc8_deepfashion_encode_fc8_deepfashion_encode_0_split_0
I0410 21:52:14.515501 16074 net.cpp:356] fc8_pascal_label_mod -> fc8_pascal_label_mod
I0410 21:52:14.515507 16074 net.cpp:96] Setting up fc8_pascal_label_mod
I0410 21:52:14.515538 16074 net.cpp:103] Top shape: 32 10 1 1 (320)
I0410 21:52:14.515560 16074 net.cpp:67] Creating Layer fc8_pascal_color_mod
I0410 21:52:14.515565 16074 net.cpp:394] fc8_pascal_color_mod <- fc8_deepfashion_encode_fc8_deepfashion_encode_0_split_1
I0410 21:52:14.515571 16074 net.cpp:356] fc8_pascal_color_mod -> fc8_pascal_color_mod
I0410 21:52:14.515578 16074 net.cpp:96] Setting up fc8_pascal_color_mod
I0410 21:52:14.515614 16074 net.cpp:103] Top shape: 32 16 1 1 (512)
I0410 21:52:14.515630 16074 net.cpp:67] Creating Layer fc8_pascal_fabric_mod
I0410 21:52:14.515638 16074 net.cpp:394] fc8_pascal_fabric_mod <- fc8_deepfashion_encode_fc8_deepfashion_encode_0_split_2
I0410 21:52:14.515645 16074 net.cpp:356] fc8_pascal_fabric_mod -> fc8_pascal_fabric_mod
I0410 21:52:14.515651 16074 net.cpp:96] Setting up fc8_pascal_fabric_mod
I0410 21:52:14.515694 16074 net.cpp:103] Top shape: 32 21 1 1 (672)
I0410 21:52:14.515712 16074 net.cpp:67] Creating Layer fc8_pascal_style_mod
I0410 21:52:14.515717 16074 net.cpp:394] fc8_pascal_style_mod <- fc8_deepfashion_encode_fc8_deepfashion_encode_0_split_3
I0410 21:52:14.515724 16074 net.cpp:356] fc8_pascal_style_mod -> fc8_pascal_style_mod
I0410 21:52:14.515730 16074 net.cpp:96] Setting up fc8_pascal_style_mod
I0410 21:52:14.515748 16074 net.cpp:103] Top shape: 32 8 1 1 (256)
I0410 21:52:14.515766 16074 net.cpp:67] Creating Layer loss
I0410 21:52:14.515775 16074 net.cpp:394] loss <- fc8_pascal_fabric_mod
I0410 21:52:14.515799 16074 net.cpp:394] loss <- labels2
I0410 21:52:14.515805 16074 net.cpp:356] loss -> (automatic)
I0410 21:52:14.515810 16074 net.cpp:96] Setting up loss
I0410 21:52:14.515822 16074 net.cpp:103] Top shape: 1 1 1 1 (1)
I0410 21:52:14.515826 16074 net.cpp:109]     with loss weight 1
I0410 21:52:14.515880 16074 net.cpp:67] Creating Layer silence
I0410 21:52:14.515887 16074 net.cpp:394] silence <- labels0
I0410 21:52:14.515892 16074 net.cpp:394] silence <- labels1
I0410 21:52:14.515897 16074 net.cpp:394] silence <- labels3
I0410 21:52:14.515902 16074 net.cpp:394] silence <- random
I0410 21:52:14.515905 16074 net.cpp:394] silence <- fc8_pascal_color_mod
…
I0410 21:52:14.517206 16074 net.cpp:39] Initializing net from parameters: 
name: "deepFashion"
layers {
  top: "data"
  top: "random"
  name: "data"
  type: DATA
  data_param {
    source: "/data/deepfashion/multimodal/multimodal_test"
    batch_size: 32
    backend: LMDB
  }
  include {
    phase: TEST
  }
  transform_param {
    mirror: true
    crop_size: 227
    mean_file: "../../../data/ilsvrc12/imagenet_mean.binaryproto"
  }
}
layers {
  top: "labels"
  name: "labels"
  type: DATA
  data_param {
    source: "/data/deepfashion/multimodal/multimodal_test_alt"
    batch_size: 32
    backend: LMDB
  }
  include {
    phase: TEST
  }
}
layers {
  bottom: "labels"
  top: "labels0"
  top: "labels1"
  top: "labels2"
  top: "labels3"
  name: "sliceL"
  type: SLICE
  slice_param {
    slice_point: 1
    slice_point: 2
    slice_point: 3
  }
}
layers {
  bottom: "data"
  top: "conv1"
  name: "conv1"
  type: CONVOLUTION
  blobs_lr: 1
  blobs_lr: 2
  weight_decay: 1
  weight_decay: 0
  convolution_param {
    num_output: 96
    kernel_size: 11
    stride: 4
    weight_filler {
      type: "gaussian"
      std: 0.01
    }
    bias_filler {
      type: "constant"
      value: 0
    }
  }
}
layers {
  bottom: "conv1"
  top: "conv1"
  name: "relu1"
  type: RELU
}
layers {
  bottom: "conv1"
  top: "pool1"
  name: "pool1"
  type: POOLING
  pooling_param {
    pool: MAX
    kernel_size: 3
    stride: 2
  }
}
layers {
  bottom: "pool1"
  top: "norm1"
  name: "norm1"
  type: LRN
  lrn_param {
    local_size: 5
    alpha: 0.0001
    beta: 0.75
  }
}
layers {
  bottom: "norm1"
  top: "conv2"
  name: "conv2"
  type: CONVOLUTION
  blobs_lr: 1
  blobs_lr: 2
  weight_decay: 1
  weight_decay: 0
  convolution_param {
    num_output: 256
    pad: 2
    kernel_size: 5
    group: 2
    weight_filler {
      type: "gaussian"
      std: 0.01
    }
    bias_filler {
      type: "constant"
      value: 1
    }
  }
}
layers {
  bottom: "conv2"
  top: "conv2"
  name: "relu2"
  type: RELU
}
layers {
  bottom: "conv2"
  top: "pool2"
  name: "pool2"
  type: POOLING
  pooling_param {
    pool: MAX
    kernel_size: 3
    stride: 2
  }
}
layers {
  bottom: "pool2"
  top: "norm2"
  name: "norm2"
  type: LRN
  lrn_param {
    local_size: 5
    alpha: 0.0001
    beta: 0.75
  }
}
layers {
  bottom: "norm2"
  top: "conv3"
  name: "conv3"
  type: CONVOLUTION
  blobs_lr: 1
  blobs_lr: 2
  weight_decay: 1
  weight_decay: 0
  convolution_param {
    num_output: 384
    pad: 1
    kernel_size: 3
    weight_filler {
      type: "gaussian"
      std: 0.01
    }
    bias_filler {
      type: "constant"
      value: 0
    }
  }
}
layers {
  bottom: "conv3"
  top: "conv3"
  name: "relu3"
  type: RELU
}
layers {
  bottom: "conv3"
  top: "conv4"
  name: "conv4"
  type: CONVOLUTION
  blobs_lr: 1
  blobs_lr: 2
  weight_decay: 1
  weight_decay: 0
  convolution_param {
    num_output: 384
    pad: 1
    kernel_size: 3
    group: 2
    weight_filler {
      type: "gaussian"
      std: 0.01
    }
    bias_filler {
      type: "constant"
      value: 1
    }
  }
}
layers {
  bottom: "conv4"
  top: "conv4"
  name: "relu4"
  type: RELU
}
layers {
  bottom: "conv4"
  top: "conv5"
  name: "conv5"
  type: CONVOLUTION
  blobs_lr: 1
  blobs_lr: 2
  weight_decay: 1
  weight_decay: 0
  convolution_param {
    num_output: 256
    pad: 1
    kernel_size: 3
    group: 2
    weight_filler {
      type: "gaussian"
      std: 0.01
    }
    bias_filler {
      type: "constant"
      value: 1
    }
  }
}
layers {
  bottom: "conv5"
  top: "conv5"
  name: "relu5"
  type: RELU
}
layers {
  bottom: "conv5"
  top: "pool5"
  name: "pool5"
  type: POOLING
  pooling_param {
    pool: MAX
    kernel_size: 3
    stride: 2
  }
}
layers {
  bottom: "pool5"
  top: "fc6"
  name: "fc6"
  type: INNER_PRODUCT
  blobs_lr: 1
  blobs_lr: 2
  weight_decay: 1
  weight_decay: 0
  inner_product_param {
    num_output: 4096
    weight_filler {
      type: "gaussian"
      std: 0.005
    }
    bias_filler {
      type: "constant"
      value: 1
    }
  }
}
layers {
  bottom: "fc6"
  top: "fc6"
  name: "relu6"
  type: RELU
}
layers {
  bottom: "fc6"
  top: "fc6"
  name: "drop6"
  type: DROPOUT
  dropout_param {
    dropout_ratio: 0.5
  }
}
layers {
  bottom: "fc6"
  top: "fc7"
  name: "fc7"
  type: INNER_PRODUCT
  blobs_lr: 1
  blobs_lr: 2
  weight_decay: 1
  weight_decay: 0
  inner_product_param {
    num_output: 4096
    weight_filler {
      type: "gaussian"
      std: 0.005
    }
    bias_filler {
      type: "constant"
      value: 1
    }
  }
}
layers {
  bottom: "fc7"
  top: "fc7"
  name: "relu7"
  type: RELU
}
layers {
  bottom: "fc7"
  top: "fc7"
  name: "drop7"
  type: DROPOUT
  dropout_param {
    dropout_ratio: 0.5
  }
}
layers {
  bottom: "fc7"
  top: "fc8_deepfashion"
  name: "fc8_deepfashion"
  type: INNER_PRODUCT
  blobs_lr: 1
  blobs_lr: 2
  weight_decay: 1
  weight_decay: 0
  inner_product_param {
    num_output: 48
    weight_filler {
      type: "gaussian"
      std: 0.01
    }
    bias_filler {
      type: "constant"
      value: 0
    }
  }
}
layers {
  bottom: "fc8_deepfashion"
  top: "fc8_deepfashion_encode"
  name: "fc8_deepfashion_encode"
  type: SIGMOID
}
layers {
  bottom: "fc8_deepfashion_encode"
  top: "fc8_pascal_label_mod"
  name: "fc8_pascal_label_mod"
  type: INNER_PRODUCT
  blobs_lr: 0
  blobs_lr: 0
  weight_decay: 1
  weight_decay: 0
  inner_product_param {
    num_output: 10
    weight_filler {
      type: "gaussian"
      std: 0.01
    }
    bias_filler {
      type: "constant"
      value: 0
    }
  }
}
layers {
  bottom: "fc8_deepfashion_encode"
  top: "fc8_pascal_color_mod"
  name: "fc8_pascal_color_mod"
  type: INNER_PRODUCT
  blobs_lr: 0
  blobs_lr: 0
  weight_decay: 1
  weight_decay: 0
  inner_product_param {
    num_output: 16
    weight_filler {
      type: "gaussian"
      std: 0.01
    }
    bias_filler {
      type: "constant"
      value: 0
    }
  }
}
layers {
  bottom: "fc8_deepfashion_encode"
  top: "fc8_pascal_fabric_mod"
  name: "fc8_pascal_fabric_mod"
  type: INNER_PRODUCT
  blobs_lr: 10
  blobs_lr: 20
  weight_decay: 1
  weight_decay: 0
  inner_product_param {
    num_output: 21
    weight_filler {
      type: "gaussian"
      std: 0.01
    }
    bias_filler {
      type: "constant"
      value: 0
    }
  }
}
layers {
  bottom: "fc8_deepfashion_encode"
  top: "fc8_pascal_style_mod"
  name: "fc8_pascal_style_mod"
  type: INNER_PRODUCT
  blobs_lr: 0
  blobs_lr: 0
  weight_decay: 1
  weight_decay: 0
  inner_product_param {
    num_output: 8
    weight_filler {
      type: "gaussian"
      std: 0.01
    }
    bias_filler {
      type: "constant"
      value: 0
    }
  }
}
layers {
  bottom: "fc8_pascal_fabric_mod"
  bottom: "labels2"
  name: "loss"
  type: SOFTMAX_LOSS
}
layers {
  bottom: "fc8_pascal_label_mod"
  bottom: "labels0"
  top: "labelAccuracy"
  name: "accuracy0"
  type: ACCURACY
  include {
    phase: TEST
  }
}
layers {
  bottom: "fc8_pascal_color_mod"
  bottom: "labels1"
  top: "colorAccuracy"
  name: "accuracy1"
  type: ACCURACY
  include {
    phase: TEST
  }
}
layers {
  bottom: "fc8_pascal_fabric_mod"
  bottom: "labels2"
  top: "fabricAccuracy"
  name: "accuracy2"
  type: ACCURACY
  include {
    phase: TEST
  }
}
layers {
  bottom: "fc8_pascal_style_mod"
  bottom: "labels3"
  top: "styleAccuracy"
  name: "accuracy3"
  type: ACCURACY
  include {
    phase: TEST
  }
}
layers {
  bottom: "random"
  name: "silence"
  type: SILENCE
  include {
    phase: TEST
  }
}
state {
  phase: TEST
}
I0410 21:52:14.517367 16074 net.cpp:67] Creating Layer data
I0410 21:52:14.517375 16074 net.cpp:356] data -> data
I0410 21:52:14.517385 16074 net.cpp:356] data -> random
I0410 21:52:14.517391 16074 net.cpp:96] Setting up data
I0410 21:52:14.517448 16074 data_layer.cpp:68] Opening lmdb /data/deepfashion/multimodal/multimodal_test
I0410 21:52:14.517609 16074 data_layer.cpp:128] output data size: 32,3,227,227
I0410 21:52:14.517618 16074 base_data_layer.cpp:36] Loading mean file from../../../data/ilsvrc12/imagenet_mean.binaryproto
I0410 21:52:14.525111 16074 net.cpp:103] Top shape: 32 3 227 227 (4946784)
I0410 21:52:14.525144 16074 net.cpp:103] Top shape: 32 1 1 1 (32)
I0410 21:52:14.525161 16074 net.cpp:67] Creating Layer labels
I0410 21:52:14.525168 16074 net.cpp:356] labels -> labels
I0410 21:52:14.525179 16074 net.cpp:96] Setting up labels
I0410 21:52:14.525249 16074 data_layer.cpp:68] Opening lmdb /data/deepfashion/multimodal/multimodal_test_alt
I0410 21:52:14.525269 16074 data_layer.cpp:128] output data size: 32,4,1,1
I0410 21:52:14.525665 16074 net.cpp:103] Top shape: 32 4 1 1 (128)
I0410 21:52:14.525681 16074 net.cpp:67] Creating Layer sliceL
I0410 21:52:14.525686 16074 net.cpp:394] sliceL <- labels
I0410 21:52:14.525693 16074 net.cpp:356] sliceL -> labels0
I0410 21:52:14.525701 16074 net.cpp:356] sliceL -> labels1
I0410 21:52:14.525708 16074 net.cpp:356] sliceL -> labels2
I0410 21:52:14.525714 16074 net.cpp:356] sliceL -> labels3
I0410 21:52:14.525729 16074 net.cpp:96] Setting up sliceL
I0410 21:52:14.525738 16074 net.cpp:103] Top shape: 32 1 1 1 (32)
I0410 21:52:14.525741 16074 net.cpp:103] Top shape: 32 1 1 1 (32)
I0410 21:52:14.525745 16074 net.cpp:103] Top shape: 32 1 1 1 (32)
I0410 21:52:14.525748 16074 net.cpp:103] Top shape: 32 1 1 1 (32)
I0410 21:52:14.525754 16074 net.cpp:67] Creating Layer labels2_sliceL_2_split
I0410 21:52:14.525758 16074 net.cpp:394] labels2_sliceL_2_split <- labels2
I0410 21:52:14.525765 16074 net.cpp:356] labels2_sliceL_2_split -> labels2_sliceL_2_split_0
I0410 21:52:14.525771 16074 net.cpp:356] labels2_sliceL_2_split -> labels2_sliceL_2_split_1
I0410 21:52:14.525777 16074 net.cpp:96] Setting up labels2_sliceL_2_split
I0410 21:52:14.525782 16074 net.cpp:103] Top shape: 32 1 1 1 (32)
I0410 21:52:14.525790 16074 net.cpp:103] Top shape: 32 1 1 1 (32)
I0410 21:52:14.525802 16074 net.cpp:67] Creating Layer conv1
I0410 21:52:14.525806 16074 net.cpp:394] conv1 <- data
I0410 21:52:14.525813 16074 net.cpp:356] conv1 -> conv1
I0410 21:52:14.525820 16074 net.cpp:96] Setting up conv1
I0410 21:52:14.527060 16074 net.cpp:103] Top shape: 32 96 55 55 (9292800)
I0410 21:52:14.527086 16074 net.cpp:67] Creating Layer relu1
I0410 21:52:14.527092 16074 net.cpp:394] relu1 <- conv1
I0410 21:52:14.527098 16074 net.cpp:345] relu1 -> conv1 (in-place)
I0410 21:52:14.527104 16074 net.cpp:96] Setting up relu1
I0410 21:52:14.527112 16074 net.cpp:103] Top shape: 32 96 55 55 (9292800)
I0410 21:52:14.527118 16074 net.cpp:67] Creating Layer pool1
I0410 21:52:14.527122 16074 net.cpp:394] pool1 <- conv1
I0410 21:52:14.527128 16074 net.cpp:356] pool1 -> pool1
I0410 21:52:14.527134 16074 net.cpp:96] Setting up pool1
I0410 21:52:14.527143 16074 net.cpp:103] Top shape: 32 96 27 27 (2239488)
I0410 21:52:14.527150 16074 net.cpp:67] Creating Layer norm1
I0410 21:52:14.527154 16074 net.cpp:394] norm1 <- pool1
I0410 21:52:14.527160 16074 net.cpp:356] norm1 -> norm1
I0410 21:52:14.527165 16074 net.cpp:96] Setting up norm1
I0410 21:52:14.527170 16074 net.cpp:103] Top shape: 32 96 27 27 (2239488)
I0410 21:52:14.527179 16074 net.cpp:67] Creating Layer conv2
I0410 21:52:14.527182 16074 net.cpp:394] conv2 <- norm1
I0410 21:52:14.527187 16074 net.cpp:356] conv2 -> conv2
I0410 21:52:14.527194 16074 net.cpp:96] Setting up conv2
I0410 21:52:14.537351 16074 net.cpp:103] Top shape: 32 256 27 27 (5971968)
I0410 21:52:14.537398 16074 net.cpp:67] Creating Layer relu2
I0410 21:52:14.537405 16074 net.cpp:394] relu2 <- conv2
I0410 21:52:14.537413 16074 net.cpp:345] relu2 -> conv2 (in-place)
I0410 21:52:14.537420 16074 net.cpp:96] Setting up relu2
I0410 21:52:14.537427 16074 net.cpp:103] Top shape: 32 256 27 27 (5971968)
I0410 21:52:14.537434 16074 net.cpp:67] Creating Layer pool2
I0410 21:52:14.537438 16074 net.cpp:394] pool2 <- conv2
I0410 21:52:14.537446 16074 net.cpp:356] pool2 -> pool2
I0410 21:52:14.537453 16074 net.cpp:96] Setting up pool2
I0410 21:52:14.537462 16074 net.cpp:103] Top shape: 32 256 13 13 (1384448)
I0410 21:52:14.537469 16074 net.cpp:67] Creating Layer norm2
I0410 21:52:14.537473 16074 net.cpp:394] norm2 <- pool2
I0410 21:52:14.537480 16074 net.cpp:356] norm2 -> norm2
I0410 21:52:14.537510 16074 net.cpp:96] Setting up norm2
I0410 21:52:14.537515 16074 net.cpp:103] Top shape: 32 256 13 13 (1384448)
I0410 21:52:14.537525 16074 net.cpp:67] Creating Layer conv3
I0410 21:52:14.537530 16074 net.cpp:394] conv3 <- norm2
I0410 21:52:14.537535 16074 net.cpp:356] conv3 -> conv3
I0410 21:52:14.537541 16074 net.cpp:96] Setting up conv3
I0410 21:52:14.566920 16074 net.cpp:103] Top shape: 32 384 13 13 (2076672)
I0410 21:52:14.566980 16074 net.cpp:67] Creating Layer relu3
I0410 21:52:14.566987 16074 net.cpp:394] relu3 <- conv3
I0410 21:52:14.566998 16074 net.cpp:345] relu3 -> conv3 (in-place)
I0410 21:52:14.567004 16074 net.cpp:96] Setting up relu3
I0410 21:52:14.567013 16074 net.cpp:103] Top shape: 32 384 13 13 (2076672)
I0410 21:52:14.567020 16074 net.cpp:67] Creating Layer conv4
I0410 21:52:14.567024 16074 net.cpp:394] conv4 <- conv3
I0410 21:52:14.567042 16074 net.cpp:356] conv4 -> conv4
I0410 21:52:14.567051 16074 net.cpp:96] Setting up conv4
I0410 21:52:14.589004 16074 net.cpp:103] Top shape: 32 384 13 13 (2076672)
I0410 21:52:14.589035 16074 net.cpp:67] Creating Layer relu4
I0410 21:52:14.589040 16074 net.cpp:394] relu4 <- conv4
I0410 21:52:14.589046 16074 net.cpp:345] relu4 -> conv4 (in-place)
I0410 21:52:14.589053 16074 net.cpp:96] Setting up relu4
I0410 21:52:14.589061 16074 net.cpp:103] Top shape: 32 384 13 13 (2076672)
I0410 21:52:14.589072 16074 net.cpp:67] Creating Layer conv5
I0410 21:52:14.589076 16074 net.cpp:394] conv5 <- conv4
I0410 21:52:14.589084 16074 net.cpp:356] conv5 -> conv5
I0410 21:52:14.589092 16074 net.cpp:96] Setting up conv5
I0410 21:52:14.603857 16074 net.cpp:103] Top shape: 32 256 13 13 (1384448)
I0410 21:52:14.603890 16074 net.cpp:67] Creating Layer relu5
I0410 21:52:14.603896 16074 net.cpp:394] relu5 <- conv5
I0410 21:52:14.603902 16074 net.cpp:345] relu5 -> conv5 (in-place)
I0410 21:52:14.603909 16074 net.cpp:96] Setting up relu5
I0410 21:52:14.603915 16074 net.cpp:103] Top shape: 32 256 13 13 (1384448)
I0410 21:52:14.603924 16074 net.cpp:67] Creating Layer pool5
I0410 21:52:14.603929 16074 net.cpp:394] pool5 <- conv5
I0410 21:52:14.603935 16074 net.cpp:356] pool5 -> pool5
I0410 21:52:14.603940 16074 net.cpp:96] Setting up pool5
I0410 21:52:14.603950 16074 net.cpp:103] Top shape: 32 256 6 6 (294912)
I0410 21:52:14.603966 16074 net.cpp:67] Creating Layer fc6
I0410 21:52:14.603977 16074 net.cpp:394] fc6 <- pool5
I0410 21:52:14.603984 16074 net.cpp:356] fc6 -> fc6
I0410 21:52:14.603991 16074 net.cpp:96] Setting up fc6
I0410 21:52:15.828320 16074 net.cpp:103] Top shape: 32 4096 1 1 (131072)
I0410 21:52:15.828372 16074 net.cpp:67] Creating Layer relu6
I0410 21:52:15.828379 16074 net.cpp:394] relu6 <- fc6
I0410 21:52:15.828387 16074 net.cpp:345] relu6 -> fc6 (in-place)
I0410 21:52:15.828395 16074 net.cpp:96] Setting up relu6
I0410 21:52:15.828414 16074 net.cpp:103] Top shape: 32 4096 1 1 (131072)
I0410 21:52:15.828420 16074 net.cpp:67] Creating Layer drop6
I0410 21:52:15.828425 16074 net.cpp:394] drop6 <- fc6
I0410 21:52:15.828433 16074 net.cpp:345] drop6 -> fc6 (in-place)
I0410 21:52:15.828438 16074 net.cpp:96] Setting up drop6
I0410 21:52:15.828443 16074 net.cpp:103] Top shape: 32 4096 1 1 (131072)
I0410 21:52:15.828450 16074 net.cpp:67] Creating Layer fc7
I0410 21:52:15.828454 16074 net.cpp:394] fc7 <- fc6
I0410 21:52:15.828459 16074 net.cpp:356] fc7 -> fc7
I0410 21:52:15.828466 16074 net.cpp:96] Setting up fc7
I0410 21:52:16.372453 16074 net.cpp:103] Top shape: 32 4096 1 1 (131072)
I0410 21:52:16.372510 16074 net.cpp:67] Creating Layer relu7
I0410 21:52:16.372519 16074 net.cpp:394] relu7 <- fc7
I0410 21:52:16.372529 16074 net.cpp:345] relu7 -> fc7 (in-place)
I0410 21:52:16.372537 16074 net.cpp:96] Setting up relu7
I0410 21:52:16.372556 16074 net.cpp:103] Top shape: 32 4096 1 1 (131072)
I0410 21:52:16.372562 16074 net.cpp:67] Creating Layer drop7
I0410 21:52:16.372566 16074 net.cpp:394] drop7 <- fc7
I0410 21:52:16.372572 16074 net.cpp:345] drop7 -> fc7 (in-place)
I0410 21:52:16.372577 16074 net.cpp:96] Setting up drop7
I0410 21:52:16.372581 16074 net.cpp:103] Top shape: 32 4096 1 1 (131072)
I0410 21:52:16.372620 16074 net.cpp:67] Creating Layer fc8_deepfashion
I0410 21:52:16.372625 16074 net.cpp:394] fc8_deepfashion <- fc7
I0410 21:52:16.372634 16074 net.cpp:356] fc8_deepfashion -> fc8_deepfashion
I0410 21:52:16.372642 16074 net.cpp:96] Setting up fc8_deepfashion
I0410 21:52:16.379142 16074 net.cpp:103] Top shape: 32 48 1 1 (1536)
I0410 21:52:16.379173 16074 net.cpp:67] Creating Layer fc8_deepfashion_encode
I0410 21:52:16.379179 16074 net.cpp:394] fc8_deepfashion_encode <- fc8_deepfashion
I0410 21:52:16.379185 16074 net.cpp:356] fc8_deepfashion_encode -> fc8_deepfashion_encode
I0410 21:52:16.379192 16074 net.cpp:96] Setting up fc8_deepfashion_encode
I0410 21:52:16.379202 16074 net.cpp:103] Top shape: 32 48 1 1 (1536)
I0410 21:52:16.379209 16074 net.cpp:67] Creating Layer fc8_deepfashion_encode_fc8_deepfashion_encode_0_split
I0410 21:52:16.379214 16074 net.cpp:394] fc8_deepfashion_encode_fc8_deepfashion_encode_0_split <- fc8_deepfashion_encode
I0410 21:52:16.379220 16074 net.cpp:356] fc8_deepfashion_encode_fc8_deepfashion_encode_0_split -> fc8_deepfashion_encode_fc8_deepfashion_encode_0_split_0
I0410 21:52:16.379227 16074 net.cpp:356] fc8_deepfashion_encode_fc8_deepfashion_encode_0_split -> fc8_deepfashion_encode_fc8_deepfashion_encode_0_split_1
I0410 21:52:16.379235 16074 net.cpp:356] fc8_deepfashion_encode_fc8_deepfashion_encode_0_split -> fc8_deepfashion_encode_fc8_deepfashion_encode_0_split_2
I0410 21:52:16.379241 16074 net.cpp:356] fc8_deepfashion_encode_fc8_deepfashion_encode_0_split -> fc8_deepfashion_encode_fc8_deepfashion_encode_0_split_3
I0410 21:52:16.379246 16074 net.cpp:96] Setting up fc8_deepfashion_encode_fc8_deepfashion_encode_0_split
I0410 21:52:16.379251 16074 net.cpp:103] Top shape: 32 48 1 1 (1536)
I0410 21:52:16.379256 16074 net.cpp:103] Top shape: 32 48 1 1 (1536)
I0410 21:52:16.379259 16074 net.cpp:103] Top shape: 32 48 1 1 (1536)
I0410 21:52:16.379262 16074 net.cpp:103] Top shape: 32 48 1 1 (1536)
I0410 21:52:16.379273 16074 net.cpp:67] Creating Layer fc8_pascal_label_mod
I0410 21:52:16.379277 16074 net.cpp:394] fc8_pascal_label_mod <- fc8_deepfashion_encode_fc8_deepfashion_encode_0_split_0
I0410 21:52:16.379283 16074 net.cpp:356] fc8_pascal_label_mod -> fc8_pascal_label_mod
I0410 21:52:16.379289 16074 net.cpp:96] Setting up fc8_pascal_label_mod
I0410 21:52:16.379317 16074 net.cpp:103] Top shape: 32 10 1 1 (320)
I0410 21:52:16.379346 16074 net.cpp:67] Creating Layer fc8_pascal_color_mod
I0410 21:52:16.379359 16074 net.cpp:394] fc8_pascal_color_mod <- fc8_deepfashion_encode_fc8_deepfashion_encode_0_split_1
I0410 21:52:16.379367 16074 net.cpp:356] fc8_pascal_color_mod -> fc8_pascal_color_mod
I0410 21:52:16.379374 16074 net.cpp:96] Setting up fc8_pascal_color_mod
I0410 21:52:16.379410 16074 net.cpp:103] Top shape: 32 16 1 1 (512)
I0410 21:52:16.379426 16074 net.cpp:67] Creating Layer fc8_pascal_fabric_mod
I0410 21:52:16.379429 16074 net.cpp:394] fc8_pascal_fabric_mod <- fc8_deepfashion_encode_fc8_deepfashion_encode_0_split_2
I0410 21:52:16.379437 16074 net.cpp:356] fc8_pascal_fabric_mod -> fc8_pascal_fabric_mod
I0410 21:52:16.379444 16074 net.cpp:96] Setting up fc8_pascal_fabric_mod
I0410 21:52:16.379487 16074 net.cpp:103] Top shape: 32 21 1 1 (672)
I0410 21:52:16.379508 16074 net.cpp:67] Creating Layer fc8_pascal_fabric_mod_fc8_pascal_fabric_mod_0_split
I0410 21:52:16.379523 16074 net.cpp:394] fc8_pascal_fabric_mod_fc8_pascal_fabric_mod_0_split <- fc8_pascal_fabric_mod
I0410 21:52:16.379533 16074 net.cpp:356] fc8_pascal_fabric_mod_fc8_pascal_fabric_mod_0_split -> fc8_pascal_fabric_mod_fc8_pascal_fabric_mod_0_split_0
I0410 21:52:16.379539 16074 net.cpp:356] fc8_pascal_fabric_mod_fc8_pascal_fabric_mod_0_split -> fc8_pascal_fabric_mod_fc8_pascal_fabric_mod_0_split_1
I0410 21:52:16.379545 16074 net.cpp:96] Setting up fc8_pascal_fabric_mod_fc8_pascal_fabric_mod_0_split
I0410 21:52:16.379550 16074 net.cpp:103] Top shape: 32 21 1 1 (672)
I0410 21:52:16.379554 16074 net.cpp:103] Top shape: 32 21 1 1 (672)
I0410 21:52:16.379566 16074 net.cpp:67] Creating Layer fc8_pascal_style_mod
I0410 21:52:16.379591 16074 net.cpp:394] fc8_pascal_style_mod <- fc8_deepfashion_encode_fc8_deepfashion_encode_0_split_3
I0410 21:52:16.379600 16074 net.cpp:356] fc8_pascal_style_mod -> fc8_pascal_style_mod
I0410 21:52:16.379608 16074 net.cpp:96] Setting up fc8_pascal_style_mod
I0410 21:52:16.379631 16074 net.cpp:103] Top shape: 32 8 1 1 (256)
I0410 21:52:16.379647 16074 net.cpp:67] Creating Layer loss
I0410 21:52:16.379652 16074 net.cpp:394] loss <- fc8_pascal_fabric_mod_fc8_pascal_fabric_mod_0_split_0
I0410 21:52:16.379657 16074 net.cpp:394] loss <- labels2_sliceL_2_split_0
I0410 21:52:16.379665 16074 net.cpp:356] loss -> (automatic)
I0410 21:52:16.379678 16074 net.cpp:96] Setting up loss
I0410 21:52:16.379689 16074 net.cpp:103] Top shape: 1 1 1 1 (1)
I0410 21:52:16.379703 16074 net.cpp:109]     with loss weight 1
I0410 21:52:16.379726 16074 net.cpp:67] Creating Layer accuracy0
I0410 21:52:16.379731 16074 net.cpp:394] accuracy0 <- fc8_pascal_label_mod
I0410 21:52:16.379736 16074 net.cpp:394] accuracy0 <- labels0
I0410 21:52:16.379742 16074 net.cpp:356] accuracy0 -> labelAccuracy
I0410 21:52:16.379750 16074 net.cpp:96] Setting up accuracy0
I0410 21:52:16.379758 16074 net.cpp:103] Top shape: 1 1 1 1 (1)
I0410 21:52:16.379765 16074 net.cpp:67] Creating Layer accuracy1
I0410 21:52:16.379768 16074 net.cpp:394] accuracy1 <- fc8_pascal_color_mod
I0410 21:52:16.379772 16074 net.cpp:394] accuracy1 <- labels1
I0410 21:52:16.379777 16074 net.cpp:356] accuracy1 -> colorAccuracy
I0410 21:52:16.379783 16074 net.cpp:96] Setting up accuracy1
I0410 21:52:16.379787 16074 net.cpp:103] Top shape: 1 1 1 1 (1)
I0410 21:52:16.379796 16074 net.cpp:67] Creating Layer accuracy2
I0410 21:52:16.379799 16074 net.cpp:394] accuracy2 <- fc8_pascal_fabric_mod_fc8_pascal_fabric_mod_0_split_1
I0410 21:52:16.379804 16074 net.cpp:394] accuracy2 <- labels2_sliceL_2_split_1
I0410 21:52:16.379809 16074 net.cpp:356] accuracy2 -> fabricAccuracy
I0410 21:52:16.379814 16074 net.cpp:96] Setting up accuracy2
I0410 21:52:16.379819 16074 net.cpp:103] Top shape: 1 1 1 1 (1)
I0410 21:52:16.379824 16074 net.cpp:67] Creating Layer accuracy3
I0410 21:52:16.379828 16074 net.cpp:394] accuracy3 <- fc8_pascal_style_mod
I0410 21:52:16.379832 16074 net.cpp:394] accuracy3 <- labels3
I0410 21:52:16.379840 16074 net.cpp:356] accuracy3 -> styleAccuracy
I0410 21:52:16.379847 16074 net.cpp:96] Setting up accuracy3
I0410 21:52:16.379853 16074 net.cpp:103] Top shape: 1 1 1 1 (1)
I0410 21:52:16.379863 16074 net.cpp:67] Creating Layer silence
I0410 21:52:16.379870 16074 net.cpp:394] silence <- random
I0410 21:52:16.379875 16074 net.cpp:96] Setting up silence
I0410 21:52:16.379879 16074 net.cpp:172] silence does not need backward computation.
I0410 21:52:16.379884 16074 net.cpp:172] accuracy3 does not need backward computation.
I0410 21:52:16.379886 16074 net.cpp:172] accuracy2 does not need backward computation.
…
