…
I0411 09:51:57.301878 18915 net.cpp:39] Initializing net from parameters: 
name: "deepFashion"
layers {
  top: "data"
  top: "random"
  name: "data"
  type: DATA
  data_param {
    source: "/data/deepfashion/multimodal/multimodalNew_TRAIN"
    batch_size: 32
    backend: LMDB
  }
  include {
    phase: TRAIN
  }
  transform_param {
    mirror: true
    crop_size: 227
    mean_file: "../../../data/ilsvrc12/imagenet_mean.binaryproto"
  }
}
layers {
  top: "labels"
  name: "labels"
  type: DATA
  data_param {
    source: "/data/deepfashion/multimodal/multimodalNew_TRAIN_ALT"
    batch_size: 32
    backend: LMDB
  }
  include {
    phase: TRAIN
  }
}
layers {
  bottom: "labels"
  top: "labels0"
  top: "labels1"
  top: "labels2"
  top: "labels3"
  name: "sliceL"
  type: SLICE
  slice_param {
    slice_point: 1
    slice_point: 2
    slice_point: 3
  }
}
layers {
  bottom: "data"
  top: "conv1"
  name: "conv1"
  type: CONVOLUTION
  blobs_lr: 1
  blobs_lr: 2
  weight_decay: 1
  weight_decay: 0
  convolution_param {
    num_output: 96
    kernel_size: 11
    stride: 4
    weight_filler {
      type: "gaussian"
      std: 0.01
    }
    bias_filler {
      type: "constant"
      value: 0
    }
  }
}
layers {
  bottom: "conv1"
  top: "conv1"
  name: "relu1"
  type: RELU
}
layers {
  bottom: "conv1"
  top: "pool1"
  name: "pool1"
  type: POOLING
  pooling_param {
    pool: MAX
    kernel_size: 3
    stride: 2
  }
}
layers {
  bottom: "pool1"
  top: "norm1"
  name: "norm1"
  type: LRN
  lrn_param {
    local_size: 5
    alpha: 0.0001
    beta: 0.75
  }
}
layers {
  bottom: "norm1"
  top: "conv2"
  name: "conv2"
  type: CONVOLUTION
  blobs_lr: 1
  blobs_lr: 2
  weight_decay: 1
  weight_decay: 0
  convolution_param {
    num_output: 256
    pad: 2
    kernel_size: 5
    group: 2
    weight_filler {
      type: "gaussian"
      std: 0.01
    }
    bias_filler {
      type: "constant"
      value: 1
    }
  }
}
layers {
  bottom: "conv2"
  top: "conv2"
  name: "relu2"
  type: RELU
}
layers {
  bottom: "conv2"
  top: "pool2"
  name: "pool2"
  type: POOLING
  pooling_param {
    pool: MAX
    kernel_size: 3
    stride: 2
  }
}
layers {
  bottom: "pool2"
  top: "norm2"
  name: "norm2"
  type: LRN
  lrn_param {
    local_size: 5
    alpha: 0.0001
    beta: 0.75
  }
}
layers {
  bottom: "norm2"
  top: "conv3"
  name: "conv3"
  type: CONVOLUTION
  blobs_lr: 1
  blobs_lr: 2
  weight_decay: 1
  weight_decay: 0
  convolution_param {
    num_output: 384
    pad: 1
    kernel_size: 3
    weight_filler {
      type: "gaussian"
      std: 0.01
    }
    bias_filler {
      type: "constant"
      value: 0
    }
  }
}
layers {
  bottom: "conv3"
  top: "conv3"
  name: "relu3"
  type: RELU
}
layers {
  bottom: "conv3"
  top: "conv4"
  name: "conv4"
  type: CONVOLUTION
  blobs_lr: 1
  blobs_lr: 2
  weight_decay: 1
  weight_decay: 0
  convolution_param {
    num_output: 384
    pad: 1
    kernel_size: 3
    group: 2
    weight_filler {
      type: "gaussian"
      std: 0.01
    }
    bias_filler {
      type: "constant"
      value: 1
    }
  }
}
layers {
  bottom: "conv4"
  top: "conv4"
  name: "relu4"
  type: RELU
}
layers {
  bottom: "conv4"
  top: "conv5"
  name: "conv5"
  type: CONVOLUTION
  blobs_lr: 1
  blobs_lr: 2
  weight_decay: 1
  weight_decay: 0
  convolution_param {
    num_output: 256
    pad: 1
    kernel_size: 3
    group: 2
    weight_filler {
      type: "gaussian"
      std: 0.01
    }
    bias_filler {
      type: "constant"
      value: 1
    }
  }
}
layers {
  bottom: "conv5"
  top: "conv5"
  name: "relu5"
  type: RELU
}
layers {
  bottom: "conv5"
  top: "pool5"
  name: "pool5"
  type: POOLING
  pooling_param {
    pool: MAX
    kernel_size: 3
    stride: 2
  }
}
layers {
  bottom: "pool5"
  top: "fc6"
  name: "fc6"
  type: INNER_PRODUCT
  blobs_lr: 1
  blobs_lr: 2
  weight_decay: 1
  weight_decay: 0
  inner_product_param {
    num_output: 4096
    weight_filler {
      type: "gaussian"
      std: 0.005
    }
    bias_filler {
      type: "constant"
      value: 1
    }
  }
}
layers {
  bottom: "fc6"
  top: "fc6"
  name: "relu6"
  type: RELU
}
layers {
  bottom: "fc6"
  top: "fc6"
  name: "drop6"
  type: DROPOUT
  dropout_param {
    dropout_ratio: 0.5
  }
}
layers {
  bottom: "fc6"
  top: "fc7"
  name: "fc7"
  type: INNER_PRODUCT
  blobs_lr: 1
  blobs_lr: 2
  weight_decay: 1
  weight_decay: 0
  inner_product_param {
    num_output: 4096
    weight_filler {
      type: "gaussian"
      std: 0.005
    }
    bias_filler {
      type: "constant"
      value: 1
    }
  }
}
layers {
  bottom: "fc7"
  top: "fc7"
  name: "relu7"
  type: RELU
}
layers {
  bottom: "fc7"
  top: "fc7"
  name: "drop7"
  type: DROPOUT
  dropout_param {
    dropout_ratio: 0.5
  }
}
layers {
  bottom: "fc7"
  top: "fc8_deepfashion"
  name: "fc8_deepfashion"
  type: INNER_PRODUCT
  blobs_lr: 1
  blobs_lr: 2
  weight_decay: 1
  weight_decay: 0
  inner_product_param {
    num_output: 48
    weight_filler {
      type: "gaussian"
      std: 0.01
    }
    bias_filler {
      type: "constant"
      value: 0
    }
  }
}
layers {
  bottom: "fc8_deepfashion"
  top: "fc8_deepfashion_encode"
  name: "fc8_deepfashion_encode"
  type: SIGMOID
}
layers {
  bottom: "fc8_deepfashion_encode"
  top: "fc8_pascal_label_mod"
  name: "fc8_pascal_label_mod"
  type: INNER_PRODUCT
  blobs_lr: 1
  blobs_lr: 2
  weight_decay: 1
  weight_decay: 0
  inner_product_param {
    num_output: 10
    weight_filler {
      type: "gaussian"
      std: 0.01
    }
    bias_filler {
      type: "constant"
      value: 0
    }
  }
}
layers {
  bottom: "fc8_deepfashion_encode"
  top: "fc8_pascal_color_mod"
  name: "fc8_pascal_color_mod"
  type: INNER_PRODUCT
  blobs_lr: 1
  blobs_lr: 2
  weight_decay: 1
  weight_decay: 0
  inner_product_param {
    num_output: 16
    weight_filler {
      type: "gaussian"
      std: 0.01
    }
    bias_filler {
      type: "constant"
      value: 0
    }
  }
}
layers {
  bottom: "fc8_deepfashion_encode"
  top: "fc8_pascal_fabric_mod"
  name: "fc8_pascal_fabric_mod"
  type: INNER_PRODUCT
  blobs_lr: 1
  blobs_lr: 2
  weight_decay: 1
  weight_decay: 0
  inner_product_param {
    num_output: 21
    weight_filler {
      type: "gaussian"
      std: 0.01
    }
    bias_filler {
      type: "constant"
      value: 0
    }
  }
}
layers {
  bottom: "fc8_deepfashion_encode"
  top: "fc8_pascal_style_mod"
  name: "fc8_pascal_style_mod"
  type: INNER_PRODUCT
  blobs_lr: 1
  blobs_lr: 2
  weight_decay: 1
  weight_decay: 0
  inner_product_param {
    num_output: 8
    weight_filler {
      type: "gaussian"
      std: 0.01
    }
    bias_filler {
      type: "constant"
      value: 0
    }
  }
}
layers {
  bottom: "fc8_pascal_label_mod"
  bottom: "labels0"
  name: "loss"
  type: SOFTMAX_LOSS
}
layers {
  bottom: "fc8_pascal_color_mod"
  bottom: "labels1"
  name: "loss"
  type: SOFTMAX_LOSS
}
layers {
  bottom: "fc8_pascal_fabric_mod"
  bottom: "labels2"
  name: "loss"
  type: SOFTMAX_LOSS
}
layers {
  bottom: "fc8_pascal_style_mod"
  bottom: "labels3"
  name: "loss"
  type: SOFTMAX_LOSS
}
layers {
  bottom: "random"
  name: "silence"
  type: SILENCE
}
state {
  phase: TRAIN
}
I0411 09:51:57.302153 18915 net.cpp:67] Creating Layer data
I0411 09:51:57.302175 18915 net.cpp:356] data -> data
I0411 09:51:57.302201 18915 net.cpp:356] data -> random
I0411 09:51:57.302227 18915 net.cpp:96] Setting up data
I0411 09:51:57.302393 18915 data_layer.cpp:68] Opening lmdb /data/deepfashion/multimodal/multimodalNew_TRAIN
I0411 09:51:57.302659 18915 data_layer.cpp:128] output data size: 32,3,227,227
I0411 09:51:57.302673 18915 base_data_layer.cpp:36] Loading mean file from../../../data/ilsvrc12/imagenet_mean.binaryproto
I0411 09:51:57.310266 18915 net.cpp:103] Top shape: 32 3 227 227 (4946784)
I0411 09:51:57.310302 18915 net.cpp:103] Top shape: 32 1 1 1 (32)
I0411 09:51:57.310324 18915 net.cpp:67] Creating Layer labels
I0411 09:51:57.310338 18915 net.cpp:356] labels -> labels
I0411 09:51:57.310372 18915 net.cpp:96] Setting up labels
I0411 09:51:57.310490 18915 data_layer.cpp:68] Opening lmdb /data/deepfashion/multimodal/multimodalNew_TRAIN_ALT
I0411 09:51:57.310520 18915 data_layer.cpp:128] output data size: 32,4,1,1
I0411 09:51:57.310564 18915 net.cpp:103] Top shape: 32 4 1 1 (128)
I0411 09:51:57.310595 18915 net.cpp:67] Creating Layer sliceL
I0411 09:51:57.310606 18915 net.cpp:394] sliceL <- labels
I0411 09:51:57.310623 18915 net.cpp:356] sliceL -> labels0
I0411 09:51:57.310639 18915 net.cpp:356] sliceL -> labels1
I0411 09:51:57.310655 18915 net.cpp:356] sliceL -> labels2
I0411 09:51:57.310670 18915 net.cpp:356] sliceL -> labels3
I0411 09:51:57.310684 18915 net.cpp:96] Setting up sliceL
I0411 09:51:57.310701 18915 net.cpp:103] Top shape: 32 1 1 1 (32)
I0411 09:51:57.310710 18915 net.cpp:103] Top shape: 32 1 1 1 (32)
I0411 09:51:57.310717 18915 net.cpp:103] Top shape: 32 1 1 1 (32)
I0411 09:51:57.310724 18915 net.cpp:103] Top shape: 32 1 1 1 (32)
I0411 09:51:57.310739 18915 net.cpp:67] Creating Layer conv1
I0411 09:51:57.310748 18915 net.cpp:394] conv1 <- data
I0411 09:51:57.310765 18915 net.cpp:356] conv1 -> conv1
I0411 09:51:57.310789 18915 net.cpp:96] Setting up conv1
I0411 09:51:57.333187 18915 net.cpp:103] Top shape: 32 96 55 55 (9292800)
I0411 09:51:57.333257 18915 net.cpp:67] Creating Layer relu1
I0411 09:51:57.333271 18915 net.cpp:394] relu1 <- conv1
I0411 09:51:57.333283 18915 net.cpp:345] relu1 -> conv1 (in-place)
I0411 09:51:57.333297 18915 net.cpp:96] Setting up relu1
I0411 09:51:57.333314 18915 net.cpp:103] Top shape: 32 96 55 55 (9292800)
I0411 09:51:57.333328 18915 net.cpp:67] Creating Layer pool1
I0411 09:51:57.333336 18915 net.cpp:394] pool1 <- conv1
I0411 09:51:57.333348 18915 net.cpp:356] pool1 -> pool1
I0411 09:51:57.333364 18915 net.cpp:96] Setting up pool1
I0411 09:51:57.333405 18915 net.cpp:103] Top shape: 32 96 27 27 (2239488)
I0411 09:51:57.333426 18915 net.cpp:67] Creating Layer norm1
I0411 09:51:57.333436 18915 net.cpp:394] norm1 <- pool1
I0411 09:51:57.333446 18915 net.cpp:356] norm1 -> norm1
I0411 09:51:57.333458 18915 net.cpp:96] Setting up norm1
I0411 09:51:57.333472 18915 net.cpp:103] Top shape: 32 96 27 27 (2239488)
I0411 09:51:57.333487 18915 net.cpp:67] Creating Layer conv2
I0411 09:51:57.333500 18915 net.cpp:394] conv2 <- norm1
I0411 09:51:57.333513 18915 net.cpp:356] conv2 -> conv2
I0411 09:51:57.333528 18915 net.cpp:96] Setting up conv2
I0411 09:51:57.343823 18915 net.cpp:103] Top shape: 32 256 27 27 (5971968)
I0411 09:51:57.343859 18915 net.cpp:67] Creating Layer relu2
I0411 09:51:57.343869 18915 net.cpp:394] relu2 <- conv2
I0411 09:51:57.343884 18915 net.cpp:345] relu2 -> conv2 (in-place)
I0411 09:51:57.343896 18915 net.cpp:96] Setting up relu2
I0411 09:51:57.343909 18915 net.cpp:103] Top shape: 32 256 27 27 (5971968)
I0411 09:51:57.343925 18915 net.cpp:67] Creating Layer pool2
I0411 09:51:57.343942 18915 net.cpp:394] pool2 <- conv2
I0411 09:51:57.343955 18915 net.cpp:356] pool2 -> pool2
I0411 09:51:57.343966 18915 net.cpp:96] Setting up pool2
I0411 09:51:57.344014 18915 net.cpp:103] Top shape: 32 256 13 13 (1384448)
I0411 09:51:57.344028 18915 net.cpp:67] Creating Layer norm2
I0411 09:51:57.344038 18915 net.cpp:394] norm2 <- pool2
I0411 09:51:57.344053 18915 net.cpp:356] norm2 -> norm2
I0411 09:51:57.344064 18915 net.cpp:96] Setting up norm2
I0411 09:51:57.344074 18915 net.cpp:103] Top shape: 32 256 13 13 (1384448)
I0411 09:51:57.344092 18915 net.cpp:67] Creating Layer conv3
I0411 09:51:57.344100 18915 net.cpp:394] conv3 <- norm2
I0411 09:51:57.344111 18915 net.cpp:356] conv3 -> conv3
I0411 09:51:57.344123 18915 net.cpp:96] Setting up conv3
I0411 09:51:57.373126 18915 net.cpp:103] Top shape: 32 384 13 13 (2076672)
I0411 09:51:57.373162 18915 net.cpp:67] Creating Layer relu3
I0411 09:51:57.373172 18915 net.cpp:394] relu3 <- conv3
I0411 09:51:57.373184 18915 net.cpp:345] relu3 -> conv3 (in-place)
I0411 09:51:57.373195 18915 net.cpp:96] Setting up relu3
I0411 09:51:57.373208 18915 net.cpp:103] Top shape: 32 384 13 13 (2076672)
I0411 09:51:57.373226 18915 net.cpp:67] Creating Layer conv4
I0411 09:51:57.373234 18915 net.cpp:394] conv4 <- conv3
I0411 09:51:57.373246 18915 net.cpp:356] conv4 -> conv4
I0411 09:51:57.373258 18915 net.cpp:96] Setting up conv4
I0411 09:51:57.395519 18915 net.cpp:103] Top shape: 32 384 13 13 (2076672)
I0411 09:51:57.395552 18915 net.cpp:67] Creating Layer relu4
I0411 09:51:57.395562 18915 net.cpp:394] relu4 <- conv4
I0411 09:51:57.395575 18915 net.cpp:345] relu4 -> conv4 (in-place)
I0411 09:51:57.395586 18915 net.cpp:96] Setting up relu4
I0411 09:51:57.395601 18915 net.cpp:103] Top shape: 32 384 13 13 (2076672)
I0411 09:51:57.395618 18915 net.cpp:67] Creating Layer conv5
I0411 09:51:57.395627 18915 net.cpp:394] conv5 <- conv4
I0411 09:51:57.395639 18915 net.cpp:356] conv5 -> conv5
I0411 09:51:57.395651 18915 net.cpp:96] Setting up conv5
I0411 09:51:57.410507 18915 net.cpp:103] Top shape: 32 256 13 13 (1384448)
I0411 09:51:57.410547 18915 net.cpp:67] Creating Layer relu5
I0411 09:51:57.410557 18915 net.cpp:394] relu5 <- conv5
I0411 09:51:57.410568 18915 net.cpp:345] relu5 -> conv5 (in-place)
I0411 09:51:57.410580 18915 net.cpp:96] Setting up relu5
I0411 09:51:57.410593 18915 net.cpp:103] Top shape: 32 256 13 13 (1384448)
I0411 09:51:57.410606 18915 net.cpp:67] Creating Layer pool5
I0411 09:51:57.410614 18915 net.cpp:394] pool5 <- conv5
I0411 09:51:57.410629 18915 net.cpp:356] pool5 -> pool5
I0411 09:51:57.410642 18915 net.cpp:96] Setting up pool5
I0411 09:51:57.410658 18915 net.cpp:103] Top shape: 32 256 6 6 (294912)
I0411 09:51:57.410676 18915 net.cpp:67] Creating Layer fc6
I0411 09:51:57.410684 18915 net.cpp:394] fc6 <- pool5
I0411 09:51:57.410696 18915 net.cpp:356] fc6 -> fc6
I0411 09:51:57.410709 18915 net.cpp:96] Setting up fc6
I0411 09:51:58.636090 18915 net.cpp:103] Top shape: 32 4096 1 1 (131072)
I0411 09:51:58.636162 18915 net.cpp:67] Creating Layer relu6
I0411 09:51:58.636173 18915 net.cpp:394] relu6 <- fc6
I0411 09:51:58.636185 18915 net.cpp:345] relu6 -> fc6 (in-place)
I0411 09:51:58.636198 18915 net.cpp:96] Setting up relu6
I0411 09:51:58.636224 18915 net.cpp:103] Top shape: 32 4096 1 1 (131072)
I0411 09:51:58.636240 18915 net.cpp:67] Creating Layer drop6
I0411 09:51:58.636247 18915 net.cpp:394] drop6 <- fc6
I0411 09:51:58.636258 18915 net.cpp:345] drop6 -> fc6 (in-place)
I0411 09:51:58.636270 18915 net.cpp:96] Setting up drop6
I0411 09:51:58.636284 18915 net.cpp:103] Top shape: 32 4096 1 1 (131072)
I0411 09:51:58.636304 18915 net.cpp:67] Creating Layer fc7
I0411 09:51:58.636320 18915 net.cpp:394] fc7 <- fc6
I0411 09:51:58.636337 18915 net.cpp:356] fc7 -> fc7
I0411 09:51:58.636350 18915 net.cpp:96] Setting up fc7
I0411 09:51:59.181402 18915 net.cpp:103] Top shape: 32 4096 1 1 (131072)
I0411 09:51:59.181463 18915 net.cpp:67] Creating Layer relu7
I0411 09:51:59.181475 18915 net.cpp:394] relu7 <- fc7
I0411 09:51:59.181491 18915 net.cpp:345] relu7 -> fc7 (in-place)
I0411 09:51:59.181505 18915 net.cpp:96] Setting up relu7
I0411 09:51:59.181531 18915 net.cpp:103] Top shape: 32 4096 1 1 (131072)
I0411 09:51:59.181545 18915 net.cpp:67] Creating Layer drop7
I0411 09:51:59.181592 18915 net.cpp:394] drop7 <- fc7
I0411 09:51:59.181605 18915 net.cpp:345] drop7 -> fc7 (in-place)
I0411 09:51:59.181617 18915 net.cpp:96] Setting up drop7
I0411 09:51:59.181627 18915 net.cpp:103] Top shape: 32 4096 1 1 (131072)
I0411 09:51:59.181644 18915 net.cpp:67] Creating Layer fc8_deepfashion
I0411 09:51:59.181653 18915 net.cpp:394] fc8_deepfashion <- fc7
I0411 09:51:59.181664 18915 net.cpp:356] fc8_deepfashion -> fc8_deepfashion
I0411 09:51:59.181681 18915 net.cpp:96] Setting up fc8_deepfashion
I0411 09:51:59.188370 18915 net.cpp:103] Top shape: 32 48 1 1 (1536)
I0411 09:51:59.188403 18915 net.cpp:67] Creating Layer fc8_deepfashion_encode
I0411 09:51:59.188410 18915 net.cpp:394] fc8_deepfashion_encode <- fc8_deepfashion
I0411 09:51:59.188418 18915 net.cpp:356] fc8_deepfashion_encode -> fc8_deepfashion_encode
I0411 09:51:59.188434 18915 net.cpp:96] Setting up fc8_deepfashion_encode
I0411 09:51:59.188452 18915 net.cpp:103] Top shape: 32 48 1 1 (1536)
I0411 09:51:59.188462 18915 net.cpp:67] Creating Layer fc8_deepfashion_encode_fc8_deepfashion_encode_0_split
I0411 09:51:59.188467 18915 net.cpp:394] fc8_deepfashion_encode_fc8_deepfashion_encode_0_split <- fc8_deepfashion_encode
I0411 09:51:59.188478 18915 net.cpp:356] fc8_deepfashion_encode_fc8_deepfashion_encode_0_split -> fc8_deepfashion_encode_fc8_deepfashion_encode_0_split_0
I0411 09:51:59.188488 18915 net.cpp:356] fc8_deepfashion_encode_fc8_deepfashion_encode_0_split -> fc8_deepfashion_encode_fc8_deepfashion_encode_0_split_1
I0411 09:51:59.188498 18915 net.cpp:356] fc8_deepfashion_encode_fc8_deepfashion_encode_0_split -> fc8_deepfashion_encode_fc8_deepfashion_encode_0_split_2
I0411 09:51:59.188506 18915 net.cpp:356] fc8_deepfashion_encode_fc8_deepfashion_encode_0_split -> fc8_deepfashion_encode_fc8_deepfashion_encode_0_split_3
I0411 09:51:59.188514 18915 net.cpp:96] Setting up fc8_deepfashion_encode_fc8_deepfashion_encode_0_split
I0411 09:51:59.188524 18915 net.cpp:103] Top shape: 32 48 1 1 (1536)
I0411 09:51:59.188529 18915 net.cpp:103] Top shape: 32 48 1 1 (1536)
I0411 09:51:59.188534 18915 net.cpp:103] Top shape: 32 48 1 1 (1536)
I0411 09:51:59.188539 18915 net.cpp:103] Top shape: 32 48 1 1 (1536)
I0411 09:51:59.188551 18915 net.cpp:67] Creating Layer fc8_pascal_label_mod
I0411 09:51:59.188557 18915 net.cpp:394] fc8_pascal_label_mod <- fc8_deepfashion_encode_fc8_deepfashion_encode_0_split_0
I0411 09:51:59.188566 18915 net.cpp:356] fc8_pascal_label_mod -> fc8_pascal_label_mod
I0411 09:51:59.188575 18915 net.cpp:96] Setting up fc8_pascal_label_mod
I0411 09:51:59.188621 18915 net.cpp:103] Top shape: 32 10 1 1 (320)
I0411 09:51:59.188643 18915 net.cpp:67] Creating Layer fc8_pascal_color_mod
I0411 09:51:59.188650 18915 net.cpp:394] fc8_pascal_color_mod <- fc8_deepfashion_encode_fc8_deepfashion_encode_0_split_1
I0411 09:51:59.188663 18915 net.cpp:356] fc8_pascal_color_mod -> fc8_pascal_color_mod
I0411 09:51:59.188673 18915 net.cpp:96] Setting up fc8_pascal_color_mod
I0411 09:51:59.188724 18915 net.cpp:103] Top shape: 32 16 1 1 (512)
I0411 09:51:59.188740 18915 net.cpp:67] Creating Layer fc8_pascal_fabric_mod
I0411 09:51:59.188746 18915 net.cpp:394] fc8_pascal_fabric_mod <- fc8_deepfashion_encode_fc8_deepfashion_encode_0_split_2
I0411 09:51:59.188758 18915 net.cpp:356] fc8_pascal_fabric_mod -> fc8_pascal_fabric_mod
I0411 09:51:59.188767 18915 net.cpp:96] Setting up fc8_pascal_fabric_mod
I0411 09:51:59.188832 18915 net.cpp:103] Top shape: 32 21 1 1 (672)
I0411 09:51:59.188845 18915 net.cpp:67] Creating Layer fc8_pascal_style_mod
I0411 09:51:59.188853 18915 net.cpp:394] fc8_pascal_style_mod <- fc8_deepfashion_encode_fc8_deepfashion_encode_0_split_3
I0411 09:51:59.188863 18915 net.cpp:356] fc8_pascal_style_mod -> fc8_pascal_style_mod
I0411 09:51:59.188873 18915 net.cpp:96] Setting up fc8_pascal_style_mod
I0411 09:51:59.188901 18915 net.cpp:103] Top shape: 32 8 1 1 (256)
I0411 09:51:59.188918 18915 net.cpp:67] Creating Layer loss
I0411 09:51:59.188925 18915 net.cpp:394] loss <- fc8_pascal_label_mod
I0411 09:51:59.188931 18915 net.cpp:394] loss <- labels0
I0411 09:51:59.188961 18915 net.cpp:356] loss -> (automatic)
I0411 09:51:59.188969 18915 net.cpp:96] Setting up loss
I0411 09:51:59.188985 18915 net.cpp:103] Top shape: 1 1 1 1 (1)
I0411 09:51:59.188992 18915 net.cpp:109]     with loss weight 1
I0411 09:51:59.189057 18915 net.cpp:67] Creating Layer loss
I0411 09:51:59.189065 18915 net.cpp:394] loss <- fc8_pascal_color_mod
I0411 09:51:59.189072 18915 net.cpp:394] loss <- labels1
I0411 09:51:59.189080 18915 net.cpp:356] loss -> (automatic)
I0411 09:51:59.189087 18915 net.cpp:96] Setting up loss
I0411 09:51:59.189097 18915 net.cpp:103] Top shape: 1 1 1 1 (1)
I0411 09:51:59.189102 18915 net.cpp:109]     with loss weight 1
I0411 09:51:59.189115 18915 net.cpp:67] Creating Layer loss
I0411 09:51:59.189121 18915 net.cpp:394] loss <- fc8_pascal_fabric_mod
I0411 09:51:59.189126 18915 net.cpp:394] loss <- labels2
I0411 09:51:59.189134 18915 net.cpp:356] loss -> (automatic)
I0411 09:51:59.189141 18915 net.cpp:96] Setting up loss
I0411 09:51:59.189152 18915 net.cpp:103] Top shape: 1 1 1 1 (1)
I0411 09:51:59.189157 18915 net.cpp:109]     with loss weight 1
I0411 09:51:59.189168 18915 net.cpp:67] Creating Layer loss
I0411 09:51:59.189174 18915 net.cpp:394] loss <- fc8_pascal_style_mod
I0411 09:51:59.189182 18915 net.cpp:394] loss <- labels3
I0411 09:51:59.189188 18915 net.cpp:356] loss -> (automatic)
I0411 09:51:59.189199 18915 net.cpp:96] Setting up loss
I0411 09:51:59.189208 18915 net.cpp:103] Top shape: 1 1 1 1 (1)
I0411 09:51:59.189214 18915 net.cpp:109]     with loss weight 1
I0411 09:51:59.189227 18915 net.cpp:67] Creating Layer silence
I0411 09:51:59.189234 18915 net.cpp:394] silence <- random
I0411 09:51:59.189240 18915 net.cpp:96] Setting up silence
I0411 09:51:59.189245 18915 net.cpp:172] silence does not need backward computation.
I0411 09:51:59.189251 18915 net.cpp:170] loss needs backward computation.
…
I0411 09:51:59.191246 18915 net.cpp:39] Initializing net from parameters: 
name: "deepFashion"
layers {
  top: "data"
  top: "random"
  name: "data"
  type: DATA
  data_param {
    source: "/data/deepfashion/multimodal/multimodalNew_test"
    batch_size: 32
    backend: LMDB
  }
  include {
    phase: TEST
  }
  transform_param {
    mirror: true
    crop_size: 227
    mean_file: "../../../data/ilsvrc12/imagenet_mean.binaryproto"
  }
}
layers {
  top: "labels"
  name: "labels"
  type: DATA
  data_param {
    source: "/data/deepfashion/multimodal/multimodalNew_test_alt"
    batch_size: 32
    backend: LMDB
  }
  include {
    phase: TEST
  }
}
layers {
  bottom: "labels"
  top: "labels0"
  top: "labels1"
  top: "labels2"
  top: "labels3"
  name: "sliceL"
  type: SLICE
  slice_param {
    slice_point: 1
    slice_point: 2
    slice_point: 3
  }
}
layers {
  bottom: "data"
  top: "conv1"
  name: "conv1"
  type: CONVOLUTION
  blobs_lr: 1
  blobs_lr: 2
  weight_decay: 1
  weight_decay: 0
  convolution_param {
    num_output: 96
    kernel_size: 11
    stride: 4
    weight_filler {
      type: "gaussian"
      std: 0.01
    }
    bias_filler {
      type: "constant"
      value: 0
    }
  }
}
layers {
  bottom: "conv1"
  top: "conv1"
  name: "relu1"
  type: RELU
}
layers {
  bottom: "conv1"
  top: "pool1"
  name: "pool1"
  type: POOLING
  pooling_param {
    pool: MAX
    kernel_size: 3
    stride: 2
  }
}
layers {
  bottom: "pool1"
  top: "norm1"
  name: "norm1"
  type: LRN
  lrn_param {
    local_size: 5
    alpha: 0.0001
    beta: 0.75
  }
}
layers {
  bottom: "norm1"
  top: "conv2"
  name: "conv2"
  type: CONVOLUTION
  blobs_lr: 1
  blobs_lr: 2
  weight_decay: 1
  weight_decay: 0
  convolution_param {
    num_output: 256
    pad: 2
    kernel_size: 5
    group: 2
    weight_filler {
      type: "gaussian"
      std: 0.01
    }
    bias_filler {
      type: "constant"
      value: 1
    }
  }
}
layers {
  bottom: "conv2"
  top: "conv2"
  name: "relu2"
  type: RELU
}
layers {
  bottom: "conv2"
  top: "pool2"
  name: "pool2"
  type: POOLING
  pooling_param {
    pool: MAX
    kernel_size: 3
    stride: 2
  }
}
layers {
  bottom: "pool2"
  top: "norm2"
  name: "norm2"
  type: LRN
  lrn_param {
    local_size: 5
    alpha: 0.0001
    beta: 0.75
  }
}
layers {
  bottom: "norm2"
  top: "conv3"
  name: "conv3"
  type: CONVOLUTION
  blobs_lr: 1
  blobs_lr: 2
  weight_decay: 1
  weight_decay: 0
  convolution_param {
    num_output: 384
    pad: 1
    kernel_size: 3
    weight_filler {
      type: "gaussian"
      std: 0.01
    }
    bias_filler {
      type: "constant"
      value: 0
    }
  }
}
layers {
  bottom: "conv3"
  top: "conv3"
  name: "relu3"
  type: RELU
}
layers {
  bottom: "conv3"
  top: "conv4"
  name: "conv4"
  type: CONVOLUTION
  blobs_lr: 1
  blobs_lr: 2
  weight_decay: 1
  weight_decay: 0
  convolution_param {
    num_output: 384
    pad: 1
    kernel_size: 3
    group: 2
    weight_filler {
      type: "gaussian"
      std: 0.01
    }
    bias_filler {
      type: "constant"
      value: 1
    }
  }
}
layers {
  bottom: "conv4"
  top: "conv4"
  name: "relu4"
  type: RELU
}
layers {
  bottom: "conv4"
  top: "conv5"
  name: "conv5"
  type: CONVOLUTION
  blobs_lr: 1
  blobs_lr: 2
  weight_decay: 1
  weight_decay: 0
  convolution_param {
    num_output: 256
    pad: 1
    kernel_size: 3
    group: 2
    weight_filler {
      type: "gaussian"
      std: 0.01
    }
    bias_filler {
      type: "constant"
      value: 1
    }
  }
}
layers {
  bottom: "conv5"
  top: "conv5"
  name: "relu5"
  type: RELU
}
layers {
  bottom: "conv5"
  top: "pool5"
  name: "pool5"
  type: POOLING
  pooling_param {
    pool: MAX
    kernel_size: 3
    stride: 2
  }
}
layers {
  bottom: "pool5"
  top: "fc6"
  name: "fc6"
  type: INNER_PRODUCT
  blobs_lr: 1
  blobs_lr: 2
  weight_decay: 1
  weight_decay: 0
  inner_product_param {
    num_output: 4096
    weight_filler {
      type: "gaussian"
      std: 0.005
    }
    bias_filler {
      type: "constant"
      value: 1
    }
  }
}
layers {
  bottom: "fc6"
  top: "fc6"
  name: "relu6"
  type: RELU
}
layers {
  bottom: "fc6"
  top: "fc6"
  name: "drop6"
  type: DROPOUT
  dropout_param {
    dropout_ratio: 0.5
  }
}
layers {
  bottom: "fc6"
  top: "fc7"
  name: "fc7"
  type: INNER_PRODUCT
  blobs_lr: 1
  blobs_lr: 2
  weight_decay: 1
  weight_decay: 0
  inner_product_param {
    num_output: 4096
    weight_filler {
      type: "gaussian"
      std: 0.005
    }
    bias_filler {
      type: "constant"
      value: 1
    }
  }
}
layers {
  bottom: "fc7"
  top: "fc7"
  name: "relu7"
  type: RELU
}
layers {
  bottom: "fc7"
  top: "fc7"
  name: "drop7"
  type: DROPOUT
  dropout_param {
    dropout_ratio: 0.5
  }
}
layers {
  bottom: "fc7"
  top: "fc8_deepfashion"
  name: "fc8_deepfashion"
  type: INNER_PRODUCT
  blobs_lr: 1
  blobs_lr: 2
  weight_decay: 1
  weight_decay: 0
  inner_product_param {
    num_output: 48
    weight_filler {
      type: "gaussian"
      std: 0.01
    }
    bias_filler {
      type: "constant"
      value: 0
    }
  }
}
layers {
  bottom: "fc8_deepfashion"
  top: "fc8_deepfashion_encode"
  name: "fc8_deepfashion_encode"
  type: SIGMOID
}
layers {
  bottom: "fc8_deepfashion_encode"
  top: "fc8_pascal_label_mod"
  name: "fc8_pascal_label_mod"
  type: INNER_PRODUCT
  blobs_lr: 1
  blobs_lr: 2
  weight_decay: 1
  weight_decay: 0
  inner_product_param {
    num_output: 10
    weight_filler {
      type: "gaussian"
      std: 0.01
    }
    bias_filler {
      type: "constant"
      value: 0
    }
  }
}
layers {
  bottom: "fc8_deepfashion_encode"
  top: "fc8_pascal_color_mod"
  name: "fc8_pascal_color_mod"
  type: INNER_PRODUCT
  blobs_lr: 1
  blobs_lr: 2
  weight_decay: 1
  weight_decay: 0
  inner_product_param {
    num_output: 16
    weight_filler {
      type: "gaussian"
      std: 0.01
    }
    bias_filler {
      type: "constant"
      value: 0
    }
  }
}
layers {
  bottom: "fc8_deepfashion_encode"
  top: "fc8_pascal_fabric_mod"
  name: "fc8_pascal_fabric_mod"
  type: INNER_PRODUCT
  blobs_lr: 1
  blobs_lr: 2
  weight_decay: 1
  weight_decay: 0
  inner_product_param {
    num_output: 21
    weight_filler {
      type: "gaussian"
      std: 0.01
    }
    bias_filler {
      type: "constant"
      value: 0
    }
  }
}
layers {
  bottom: "fc8_deepfashion_encode"
  top: "fc8_pascal_style_mod"
  name: "fc8_pascal_style_mod"
  type: INNER_PRODUCT
  blobs_lr: 1
  blobs_lr: 2
  weight_decay: 1
  weight_decay: 0
  inner_product_param {
    num_output: 8
    weight_filler {
      type: "gaussian"
      std: 0.01
    }
    bias_filler {
      type: "constant"
      value: 0
    }
  }
}
layers {
  bottom: "fc8_pascal_label_mod"
  bottom: "labels0"
  name: "loss"
  type: SOFTMAX_LOSS
}
layers {
  bottom: "fc8_pascal_color_mod"
  bottom: "labels1"
  name: "loss"
  type: SOFTMAX_LOSS
}
layers {
  bottom: "fc8_pascal_fabric_mod"
  bottom: "labels2"
  name: "loss"
  type: SOFTMAX_LOSS
}
layers {
  bottom: "fc8_pascal_style_mod"
  bottom: "labels3"
  name: "loss"
  type: SOFTMAX_LOSS
}
layers {
  bottom: "fc8_pascal_label_mod"
  bottom: "labels0"
  top: "labelAccuracy"
  name: "accuracy0"
  type: ACCURACY
  include {
    phase: TEST
  }
}
layers {
  bottom: "fc8_pascal_color_mod"
  bottom: "labels1"
  top: "colorAccuracy"
  name: "accuracy1"
  type: ACCURACY
  include {
    phase: TEST
  }
}
layers {
  bottom: "fc8_pascal_fabric_mod"
  bottom: "labels2"
  top: "fabricAccuracy"
  name: "accuracy2"
  type: ACCURACY
  include {
    phase: TEST
  }
}
layers {
  bottom: "fc8_pascal_style_mod"
  bottom: "labels3"
  top: "styleAccuracy"
  name: "accuracy3"
  type: ACCURACY
  include {
    phase: TEST
  }
}
layers {
  bottom: "random"
  name: "silence"
  type: SILENCE
}
state {
  phase: TEST
}
I0411 09:51:59.191591 18915 net.cpp:67] Creating Layer data
I0411 09:51:59.191606 18915 net.cpp:356] data -> data
I0411 09:51:59.191620 18915 net.cpp:356] data -> random
I0411 09:51:59.191632 18915 net.cpp:96] Setting up data
I0411 09:51:59.191718 18915 data_layer.cpp:68] Opening lmdb /data/deepfashion/multimodal/multimodalNew_test
I0411 09:51:59.191953 18915 data_layer.cpp:128] output data size: 32,3,227,227
I0411 09:51:59.191967 18915 base_data_layer.cpp:36] Loading mean file from../../../data/ilsvrc12/imagenet_mean.binaryproto
I0411 09:51:59.199998 18915 net.cpp:103] Top shape: 32 3 227 227 (4946784)
I0411 09:51:59.200037 18915 net.cpp:103] Top shape: 32 1 1 1 (32)
I0411 09:51:59.200062 18915 net.cpp:67] Creating Layer labels
I0411 09:51:59.200073 18915 net.cpp:356] labels -> labels
I0411 09:51:59.200090 18915 net.cpp:96] Setting up labels
I0411 09:51:59.200179 18915 data_layer.cpp:68] Opening lmdb /data/deepfashion/multimodal/multimodalNew_test_alt
I0411 09:51:59.200207 18915 data_layer.cpp:128] output data size: 32,4,1,1
I0411 09:51:59.200258 18915 net.cpp:103] Top shape: 32 4 1 1 (128)
I0411 09:51:59.200280 18915 net.cpp:67] Creating Layer sliceL
I0411 09:51:59.200289 18915 net.cpp:394] sliceL <- labels
I0411 09:51:59.200301 18915 net.cpp:356] sliceL -> labels0
I0411 09:51:59.200316 18915 net.cpp:356] sliceL -> labels1
I0411 09:51:59.200330 18915 net.cpp:356] sliceL -> labels2
I0411 09:51:59.200342 18915 net.cpp:356] sliceL -> labels3
I0411 09:51:59.200353 18915 net.cpp:96] Setting up sliceL
I0411 09:51:59.200366 18915 net.cpp:103] Top shape: 32 1 1 1 (32)
I0411 09:51:59.200374 18915 net.cpp:103] Top shape: 32 1 1 1 (32)
I0411 09:51:59.200381 18915 net.cpp:103] Top shape: 32 1 1 1 (32)
I0411 09:51:59.200389 18915 net.cpp:103] Top shape: 32 1 1 1 (32)
I0411 09:51:59.200402 18915 net.cpp:67] Creating Layer labels0_sliceL_0_split
I0411 09:51:59.200425 18915 net.cpp:394] labels0_sliceL_0_split <- labels0
I0411 09:51:59.200439 18915 net.cpp:356] labels0_sliceL_0_split -> labels0_sliceL_0_split_0
I0411 09:51:59.200453 18915 net.cpp:356] labels0_sliceL_0_split -> labels0_sliceL_0_split_1
I0411 09:51:59.200465 18915 net.cpp:96] Setting up labels0_sliceL_0_split
I0411 09:51:59.200475 18915 net.cpp:103] Top shape: 32 1 1 1 (32)
I0411 09:51:59.200484 18915 net.cpp:103] Top shape: 32 1 1 1 (32)
I0411 09:51:59.200496 18915 net.cpp:67] Creating Layer labels1_sliceL_1_split
I0411 09:51:59.200505 18915 net.cpp:394] labels1_sliceL_1_split <- labels1
I0411 09:51:59.200515 18915 net.cpp:356] labels1_sliceL_1_split -> labels1_sliceL_1_split_0
I0411 09:51:59.200526 18915 net.cpp:356] labels1_sliceL_1_split -> labels1_sliceL_1_split_1
I0411 09:51:59.200538 18915 net.cpp:96] Setting up labels1_sliceL_1_split
I0411 09:51:59.200546 18915 net.cpp:103] Top shape: 32 1 1 1 (32)
I0411 09:51:59.200553 18915 net.cpp:103] Top shape: 32 1 1 1 (32)
I0411 09:51:59.200564 18915 net.cpp:67] Creating Layer labels2_sliceL_2_split
I0411 09:51:59.200572 18915 net.cpp:394] labels2_sliceL_2_split <- labels2
I0411 09:51:59.200583 18915 net.cpp:356] labels2_sliceL_2_split -> labels2_sliceL_2_split_0
I0411 09:51:59.200598 18915 net.cpp:356] labels2_sliceL_2_split -> labels2_sliceL_2_split_1
I0411 09:51:59.200610 18915 net.cpp:96] Setting up labels2_sliceL_2_split
I0411 09:51:59.200618 18915 net.cpp:103] Top shape: 32 1 1 1 (32)
I0411 09:51:59.200626 18915 net.cpp:103] Top shape: 32 1 1 1 (32)
I0411 09:51:59.200667 18915 net.cpp:67] Creating Layer labels3_sliceL_3_split
I0411 09:51:59.200676 18915 net.cpp:394] labels3_sliceL_3_split <- labels3
I0411 09:51:59.200687 18915 net.cpp:356] labels3_sliceL_3_split -> labels3_sliceL_3_split_0
I0411 09:51:59.200700 18915 net.cpp:356] labels3_sliceL_3_split -> labels3_sliceL_3_split_1
I0411 09:51:59.200719 18915 net.cpp:96] Setting up labels3_sliceL_3_split
I0411 09:51:59.200728 18915 net.cpp:103] Top shape: 32 1 1 1 (32)
I0411 09:51:59.200736 18915 net.cpp:103] Top shape: 32 1 1 1 (32)
I0411 09:51:59.200750 18915 net.cpp:67] Creating Layer conv1
I0411 09:51:59.200758 18915 net.cpp:394] conv1 <- data
I0411 09:51:59.200770 18915 net.cpp:356] conv1 -> conv1
I0411 09:51:59.200783 18915 net.cpp:96] Setting up conv1
I0411 09:51:59.202020 18915 net.cpp:103] Top shape: 32 96 55 55 (9292800)
I0411 09:51:59.202059 18915 net.cpp:67] Creating Layer relu1
I0411 09:51:59.202070 18915 net.cpp:394] relu1 <- conv1
I0411 09:51:59.202081 18915 net.cpp:345] relu1 -> conv1 (in-place)
I0411 09:51:59.202093 18915 net.cpp:96] Setting up relu1
I0411 09:51:59.202107 18915 net.cpp:103] Top shape: 32 96 55 55 (9292800)
I0411 09:51:59.202121 18915 net.cpp:67] Creating Layer pool1
I0411 09:51:59.202129 18915 net.cpp:394] pool1 <- conv1
I0411 09:51:59.202142 18915 net.cpp:356] pool1 -> pool1
I0411 09:51:59.202155 18915 net.cpp:96] Setting up pool1
I0411 09:51:59.202174 18915 net.cpp:103] Top shape: 32 96 27 27 (2239488)
I0411 09:51:59.202190 18915 net.cpp:67] Creating Layer norm1
I0411 09:51:59.202198 18915 net.cpp:394] norm1 <- pool1
I0411 09:51:59.202209 18915 net.cpp:356] norm1 -> norm1
I0411 09:51:59.202221 18915 net.cpp:96] Setting up norm1
I0411 09:51:59.202231 18915 net.cpp:103] Top shape: 32 96 27 27 (2239488)
I0411 09:51:59.202245 18915 net.cpp:67] Creating Layer conv2
I0411 09:51:59.202253 18915 net.cpp:394] conv2 <- norm1
I0411 09:51:59.202265 18915 net.cpp:356] conv2 -> conv2
I0411 09:51:59.202277 18915 net.cpp:96] Setting up conv2
I0411 09:51:59.212703 18915 net.cpp:103] Top shape: 32 256 27 27 (5971968)
I0411 09:51:59.212776 18915 net.cpp:67] Creating Layer relu2
I0411 09:51:59.212788 18915 net.cpp:394] relu2 <- conv2
I0411 09:51:59.212800 18915 net.cpp:345] relu2 -> conv2 (in-place)
I0411 09:51:59.212812 18915 net.cpp:96] Setting up relu2
I0411 09:51:59.212826 18915 net.cpp:103] Top shape: 32 256 27 27 (5971968)
I0411 09:51:59.212847 18915 net.cpp:67] Creating Layer pool2
I0411 09:51:59.212857 18915 net.cpp:394] pool2 <- conv2
I0411 09:51:59.212868 18915 net.cpp:356] pool2 -> pool2
I0411 09:51:59.212882 18915 net.cpp:96] Setting up pool2
I0411 09:51:59.212898 18915 net.cpp:103] Top shape: 32 256 13 13 (1384448)
I0411 09:51:59.212915 18915 net.cpp:67] Creating Layer norm2
I0411 09:51:59.212931 18915 net.cpp:394] norm2 <- pool2
I0411 09:51:59.212944 18915 net.cpp:356] norm2 -> norm2
I0411 09:51:59.212955 18915 net.cpp:96] Setting up norm2
I0411 09:51:59.212965 18915 net.cpp:103] Top shape: 32 256 13 13 (1384448)
I0411 09:51:59.212985 18915 net.cpp:67] Creating Layer conv3
I0411 09:51:59.212997 18915 net.cpp:394] conv3 <- norm2
I0411 09:51:59.213009 18915 net.cpp:356] conv3 -> conv3
I0411 09:51:59.213021 18915 net.cpp:96] Setting up conv3
I0411 09:51:59.242775 18915 net.cpp:103] Top shape: 32 384 13 13 (2076672)
I0411 09:51:59.242846 18915 net.cpp:67] Creating Layer relu3
I0411 09:51:59.242857 18915 net.cpp:394] relu3 <- conv3
I0411 09:51:59.242871 18915 net.cpp:345] relu3 -> conv3 (in-place)
I0411 09:51:59.242882 18915 net.cpp:96] Setting up relu3
I0411 09:51:59.242895 18915 net.cpp:103] Top shape: 32 384 13 13 (2076672)
I0411 09:51:59.242914 18915 net.cpp:67] Creating Layer conv4
I0411 09:51:59.242923 18915 net.cpp:394] conv4 <- conv3
I0411 09:51:59.242934 18915 net.cpp:356] conv4 -> conv4
I0411 09:51:59.242947 18915 net.cpp:96] Setting up conv4
I0411 09:51:59.265141 18915 net.cpp:103] Top shape: 32 384 13 13 (2076672)
I0411 09:51:59.265202 18915 net.cpp:67] Creating Layer relu4
I0411 09:51:59.265213 18915 net.cpp:394] relu4 <- conv4
I0411 09:51:59.265229 18915 net.cpp:345] relu4 -> conv4 (in-place)
I0411 09:51:59.265281 18915 net.cpp:96] Setting up relu4
I0411 09:51:59.265296 18915 net.cpp:103] Top shape: 32 384 13 13 (2076672)
I0411 09:51:59.265312 18915 net.cpp:67] Creating Layer conv5
I0411 09:51:59.265329 18915 net.cpp:394] conv5 <- conv4
I0411 09:51:59.265346 18915 net.cpp:356] conv5 -> conv5
I0411 09:51:59.265359 18915 net.cpp:96] Setting up conv5
I0411 09:51:59.280251 18915 net.cpp:103] Top shape: 32 256 13 13 (1384448)
I0411 09:51:59.280287 18915 net.cpp:67] Creating Layer relu5
I0411 09:51:59.280297 18915 net.cpp:394] relu5 <- conv5
I0411 09:51:59.280309 18915 net.cpp:345] relu5 -> conv5 (in-place)
I0411 09:51:59.280321 18915 net.cpp:96] Setting up relu5
I0411 09:51:59.280333 18915 net.cpp:103] Top shape: 32 256 13 13 (1384448)
I0411 09:51:59.280351 18915 net.cpp:67] Creating Layer pool5
I0411 09:51:59.280369 18915 net.cpp:394] pool5 <- conv5
I0411 09:51:59.280381 18915 net.cpp:356] pool5 -> pool5
I0411 09:51:59.280393 18915 net.cpp:96] Setting up pool5
I0411 09:51:59.280411 18915 net.cpp:103] Top shape: 32 256 6 6 (294912)
I0411 09:51:59.280428 18915 net.cpp:67] Creating Layer fc6
I0411 09:51:59.280439 18915 net.cpp:394] fc6 <- pool5
I0411 09:51:59.280454 18915 net.cpp:356] fc6 -> fc6
I0411 09:51:59.280467 18915 net.cpp:96] Setting up fc6
I0411 09:52:00.507735 18915 net.cpp:103] Top shape: 32 4096 1 1 (131072)
I0411 09:52:00.507807 18915 net.cpp:67] Creating Layer relu6
I0411 09:52:00.507822 18915 net.cpp:394] relu6 <- fc6
I0411 09:52:00.507834 18915 net.cpp:345] relu6 -> fc6 (in-place)
I0411 09:52:00.507848 18915 net.cpp:96] Setting up relu6
I0411 09:52:00.507874 18915 net.cpp:103] Top shape: 32 4096 1 1 (131072)
I0411 09:52:00.507889 18915 net.cpp:67] Creating Layer drop6
I0411 09:52:00.507896 18915 net.cpp:394] drop6 <- fc6
I0411 09:52:00.507910 18915 net.cpp:345] drop6 -> fc6 (in-place)
I0411 09:52:00.507921 18915 net.cpp:96] Setting up drop6
I0411 09:52:00.507930 18915 net.cpp:103] Top shape: 32 4096 1 1 (131072)
I0411 09:52:00.507943 18915 net.cpp:67] Creating Layer fc7
I0411 09:52:00.507951 18915 net.cpp:394] fc7 <- fc6
I0411 09:52:00.507963 18915 net.cpp:356] fc7 -> fc7
I0411 09:52:00.507977 18915 net.cpp:96] Setting up fc7
I0411 09:52:01.054332 18915 net.cpp:103] Top shape: 32 4096 1 1 (131072)
I0411 09:52:01.054409 18915 net.cpp:67] Creating Layer relu7
I0411 09:52:01.054420 18915 net.cpp:394] relu7 <- fc7
I0411 09:52:01.054433 18915 net.cpp:345] relu7 -> fc7 (in-place)
I0411 09:52:01.054446 18915 net.cpp:96] Setting up relu7
I0411 09:52:01.054471 18915 net.cpp:103] Top shape: 32 4096 1 1 (131072)
I0411 09:52:01.054488 18915 net.cpp:67] Creating Layer drop7
I0411 09:52:01.054497 18915 net.cpp:394] drop7 <- fc7
I0411 09:52:01.054507 18915 net.cpp:345] drop7 -> fc7 (in-place)
I0411 09:52:01.054518 18915 net.cpp:96] Setting up drop7
I0411 09:52:01.054527 18915 net.cpp:103] Top shape: 32 4096 1 1 (131072)
I0411 09:52:01.054544 18915 net.cpp:67] Creating Layer fc8_deepfashion
I0411 09:52:01.054553 18915 net.cpp:394] fc8_deepfashion <- fc7
I0411 09:52:01.054566 18915 net.cpp:356] fc8_deepfashion -> fc8_deepfashion
I0411 09:52:01.054580 18915 net.cpp:96] Setting up fc8_deepfashion
I0411 09:52:01.061332 18915 net.cpp:103] Top shape: 32 48 1 1 (1536)
I0411 09:52:01.061367 18915 net.cpp:67] Creating Layer fc8_deepfashion_encode
I0411 09:52:01.061377 18915 net.cpp:394] fc8_deepfashion_encode <- fc8_deepfashion
I0411 09:52:01.061388 18915 net.cpp:356] fc8_deepfashion_encode -> fc8_deepfashion_encode
I0411 09:52:01.061400 18915 net.cpp:96] Setting up fc8_deepfashion_encode
I0411 09:52:01.061416 18915 net.cpp:103] Top shape: 32 48 1 1 (1536)
I0411 09:52:01.061432 18915 net.cpp:67] Creating Layer fc8_deepfashion_encode_fc8_deepfashion_encode_0_split
I0411 09:52:01.061441 18915 net.cpp:394] fc8_deepfashion_encode_fc8_deepfashion_encode_0_split <- fc8_deepfashion_encode
I0411 09:52:01.061452 18915 net.cpp:356] fc8_deepfashion_encode_fc8_deepfashion_encode_0_split -> fc8_deepfashion_encode_fc8_deepfashion_encode_0_split_0
I0411 09:52:01.061465 18915 net.cpp:356] fc8_deepfashion_encode_fc8_deepfashion_encode_0_split -> fc8_deepfashion_encode_fc8_deepfashion_encode_0_split_1
I0411 09:52:01.061512 18915 net.cpp:356] fc8_deepfashion_encode_fc8_deepfashion_encode_0_split -> fc8_deepfashion_encode_fc8_deepfashion_encode_0_split_2
I0411 09:52:01.061527 18915 net.cpp:356] fc8_deepfashion_encode_fc8_deepfashion_encode_0_split -> fc8_deepfashion_encode_fc8_deepfashion_encode_0_split_3
I0411 09:52:01.061545 18915 net.cpp:96] Setting up fc8_deepfashion_encode_fc8_deepfashion_encode_0_split
I0411 09:52:01.061559 18915 net.cpp:103] Top shape: 32 48 1 1 (1536)
I0411 09:52:01.061576 18915 net.cpp:103] Top shape: 32 48 1 1 (1536)
I0411 09:52:01.061583 18915 net.cpp:103] Top shape: 32 48 1 1 (1536)
I0411 09:52:01.061592 18915 net.cpp:103] Top shape: 32 48 1 1 (1536)
I0411 09:52:01.061604 18915 net.cpp:67] Creating Layer fc8_pascal_label_mod
I0411 09:52:01.061614 18915 net.cpp:394] fc8_pascal_label_mod <- fc8_deepfashion_encode_fc8_deepfashion_encode_0_split_0
I0411 09:52:01.061630 18915 net.cpp:356] fc8_pascal_label_mod -> fc8_pascal_label_mod
I0411 09:52:01.061642 18915 net.cpp:96] Setting up fc8_pascal_label_mod
I0411 09:52:01.061684 18915 net.cpp:103] Top shape: 32 10 1 1 (320)
I0411 09:52:01.061723 18915 net.cpp:67] Creating Layer fc8_pascal_label_mod_fc8_pascal_label_mod_0_split
I0411 09:52:01.061734 18915 net.cpp:394] fc8_pascal_label_mod_fc8_pascal_label_mod_0_split <- fc8_pascal_label_mod
I0411 09:52:01.061746 18915 net.cpp:356] fc8_pascal_label_mod_fc8_pascal_label_mod_0_split -> fc8_pascal_label_mod_fc8_pascal_label_mod_0_split_0
I0411 09:52:01.061759 18915 net.cpp:356] fc8_pascal_label_mod_fc8_pascal_label_mod_0_split -> fc8_pascal_label_mod_fc8_pascal_label_mod_0_split_1
I0411 09:52:01.061771 18915 net.cpp:96] Setting up fc8_pascal_label_mod_fc8_pascal_label_mod_0_split
I0411 09:52:01.061780 18915 net.cpp:103] Top shape: 32 10 1 1 (320)
I0411 09:52:01.061789 18915 net.cpp:103] Top shape: 32 10 1 1 (320)
I0411 09:52:01.061805 18915 net.cpp:67] Creating Layer fc8_pascal_color_mod
I0411 09:52:01.061813 18915 net.cpp:394] fc8_pascal_color_mod <- fc8_deepfashion_encode_fc8_deepfashion_encode_0_split_1
I0411 09:52:01.061828 18915 net.cpp:356] fc8_pascal_color_mod -> fc8_pascal_color_mod
I0411 09:52:01.061849 18915 net.cpp:96] Setting up fc8_pascal_color_mod
I0411 09:52:01.061904 18915 net.cpp:103] Top shape: 32 16 1 1 (512)
I0411 09:52:01.061929 18915 net.cpp:67] Creating Layer fc8_pascal_color_mod_fc8_pascal_color_mod_0_split
I0411 09:52:01.061939 18915 net.cpp:394] fc8_pascal_color_mod_fc8_pascal_color_mod_0_split <- fc8_pascal_color_mod
I0411 09:52:01.061949 18915 net.cpp:356] fc8_pascal_color_mod_fc8_pascal_color_mod_0_split -> fc8_pascal_color_mod_fc8_pascal_color_mod_0_split_0
I0411 09:52:01.061964 18915 net.cpp:356] fc8_pascal_color_mod_fc8_pascal_color_mod_0_split -> fc8_pascal_color_mod_fc8_pascal_color_mod_0_split_1
I0411 09:52:01.061975 18915 net.cpp:96] Setting up fc8_pascal_color_mod_fc8_pascal_color_mod_0_split
I0411 09:52:01.061983 18915 net.cpp:103] Top shape: 32 16 1 1 (512)
I0411 09:52:01.061991 18915 net.cpp:103] Top shape: 32 16 1 1 (512)
I0411 09:52:01.062006 18915 net.cpp:67] Creating Layer fc8_pascal_fabric_mod
I0411 09:52:01.062016 18915 net.cpp:394] fc8_pascal_fabric_mod <- fc8_deepfashion_encode_fc8_deepfashion_encode_0_split_2
I0411 09:52:01.062026 18915 net.cpp:356] fc8_pascal_fabric_mod -> fc8_pascal_fabric_mod
I0411 09:52:01.062038 18915 net.cpp:96] Setting up fc8_pascal_fabric_mod
I0411 09:52:01.062103 18915 net.cpp:103] Top shape: 32 21 1 1 (672)
I0411 09:52:01.062124 18915 net.cpp:67] Creating Layer fc8_pascal_fabric_mod_fc8_pascal_fabric_mod_0_split
I0411 09:52:01.062134 18915 net.cpp:394] fc8_pascal_fabric_mod_fc8_pascal_fabric_mod_0_split <- fc8_pascal_fabric_mod
I0411 09:52:01.062144 18915 net.cpp:356] fc8_pascal_fabric_mod_fc8_pascal_fabric_mod_0_split -> fc8_pascal_fabric_mod_fc8_pascal_fabric_mod_0_split_0
I0411 09:52:01.062158 18915 net.cpp:356] fc8_pascal_fabric_mod_fc8_pascal_fabric_mod_0_split -> fc8_pascal_fabric_mod_fc8_pascal_fabric_mod_0_split_1
I0411 09:52:01.062170 18915 net.cpp:96] Setting up fc8_pascal_fabric_mod_fc8_pascal_fabric_mod_0_split
I0411 09:52:01.062191 18915 net.cpp:103] Top shape: 32 21 1 1 (672)
I0411 09:52:01.062201 18915 net.cpp:103] Top shape: 32 21 1 1 (672)
I0411 09:52:01.062216 18915 net.cpp:67] Creating Layer fc8_pascal_style_mod
I0411 09:52:01.062224 18915 net.cpp:394] fc8_pascal_style_mod <- fc8_deepfashion_encode_fc8_deepfashion_encode_0_split_3
I0411 09:52:01.062237 18915 net.cpp:356] fc8_pascal_style_mod -> fc8_pascal_style_mod
I0411 09:52:01.062249 18915 net.cpp:96] Setting up fc8_pascal_style_mod
I0411 09:52:01.062281 18915 net.cpp:103] Top shape: 32 8 1 1 (256)
I0411 09:52:01.062307 18915 net.cpp:67] Creating Layer fc8_pascal_style_mod_fc8_pascal_style_mod_0_split
I0411 09:52:01.062317 18915 net.cpp:394] fc8_pascal_style_mod_fc8_pascal_style_mod_0_split <- fc8_pascal_style_mod
I0411 09:52:01.062330 18915 net.cpp:356] fc8_pascal_style_mod_fc8_pascal_style_mod_0_split -> fc8_pascal_style_mod_fc8_pascal_style_mod_0_split_0
I0411 09:52:01.062341 18915 net.cpp:356] fc8_pascal_style_mod_fc8_pascal_style_mod_0_split -> fc8_pascal_style_mod_fc8_pascal_style_mod_0_split_1
I0411 09:52:01.062373 18915 net.cpp:96] Setting up fc8_pascal_style_mod_fc8_pascal_style_mod_0_split
I0411 09:52:01.062383 18915 net.cpp:103] Top shape: 32 8 1 1 (256)
I0411 09:52:01.062391 18915 net.cpp:103] Top shape: 32 8 1 1 (256)
I0411 09:52:01.062403 18915 net.cpp:67] Creating Layer loss
I0411 09:52:01.062412 18915 net.cpp:394] loss <- fc8_pascal_label_mod_fc8_pascal_label_mod_0_split_0
I0411 09:52:01.062422 18915 net.cpp:394] loss <- labels0_sliceL_0_split_0
I0411 09:52:01.062433 18915 net.cpp:356] loss -> (automatic)
I0411 09:52:01.062443 18915 net.cpp:96] Setting up loss
I0411 09:52:01.062456 18915 net.cpp:103] Top shape: 1 1 1 1 (1)
I0411 09:52:01.062464 18915 net.cpp:109]     with loss weight 1
I0411 09:52:01.062494 18915 net.cpp:67] Creating Layer loss
I0411 09:52:01.062505 18915 net.cpp:394] loss <- fc8_pascal_color_mod_fc8_pascal_color_mod_0_split_0
I0411 09:52:01.062515 18915 net.cpp:394] loss <- labels1_sliceL_1_split_0
I0411 09:52:01.062528 18915 net.cpp:356] loss -> (automatic)
I0411 09:52:01.062539 18915 net.cpp:96] Setting up loss
I0411 09:52:01.062551 18915 net.cpp:103] Top shape: 1 1 1 1 (1)
I0411 09:52:01.062558 18915 net.cpp:109]     with loss weight 1
I0411 09:52:01.062577 18915 net.cpp:67] Creating Layer loss
I0411 09:52:01.062585 18915 net.cpp:394] loss <- fc8_pascal_fabric_mod_fc8_pascal_fabric_mod_0_split_0
I0411 09:52:01.062595 18915 net.cpp:394] loss <- labels2_sliceL_2_split_0
I0411 09:52:01.062608 18915 net.cpp:356] loss -> (automatic)
I0411 09:52:01.062616 18915 net.cpp:96] Setting up loss
I0411 09:52:01.062628 18915 net.cpp:103] Top shape: 1 1 1 1 (1)
I0411 09:52:01.062634 18915 net.cpp:109]     with loss weight 1
I0411 09:52:01.062649 18915 net.cpp:67] Creating Layer loss
I0411 09:52:01.062657 18915 net.cpp:394] loss <- fc8_pascal_style_mod_fc8_pascal_style_mod_0_split_0
I0411 09:52:01.062666 18915 net.cpp:394] loss <- labels3_sliceL_3_split_0
I0411 09:52:01.062677 18915 net.cpp:356] loss -> (automatic)
I0411 09:52:01.062686 18915 net.cpp:96] Setting up loss
I0411 09:52:01.062700 18915 net.cpp:103] Top shape: 1 1 1 1 (1)
I0411 09:52:01.062707 18915 net.cpp:109]     with loss weight 1
I0411 09:52:01.062721 18915 net.cpp:67] Creating Layer accuracy0
I0411 09:52:01.062731 18915 net.cpp:394] accuracy0 <- fc8_pascal_label_mod_fc8_pascal_label_mod_0_split_1
I0411 09:52:01.062739 18915 net.cpp:394] accuracy0 <- labels0_sliceL_0_split_1
I0411 09:52:01.062750 18915 net.cpp:356] accuracy0 -> labelAccuracy
I0411 09:52:01.062762 18915 net.cpp:96] Setting up accuracy0
I0411 09:52:01.062777 18915 net.cpp:103] Top shape: 1 1 1 1 (1)
I0411 09:52:01.062788 18915 net.cpp:67] Creating Layer accuracy1
I0411 09:52:01.062798 18915 net.cpp:394] accuracy1 <- fc8_pascal_color_mod_fc8_pascal_color_mod_0_split_1
I0411 09:52:01.062806 18915 net.cpp:394] accuracy1 <- labels1_sliceL_1_split_1
I0411 09:52:01.062818 18915 net.cpp:356] accuracy1 -> colorAccuracy
I0411 09:52:01.062829 18915 net.cpp:96] Setting up accuracy1
I0411 09:52:01.062851 18915 net.cpp:103] Top shape: 1 1 1 1 (1)
I0411 09:52:01.062863 18915 net.cpp:67] Creating Layer accuracy2
I0411 09:52:01.062872 18915 net.cpp:394] accuracy2 <- fc8_pascal_fabric_mod_fc8_pascal_fabric_mod_0_split_1
I0411 09:52:01.062881 18915 net.cpp:394] accuracy2 <- labels2_sliceL_2_split_1
I0411 09:52:01.062901 18915 net.cpp:356] accuracy2 -> fabricAccuracy
I0411 09:52:01.062916 18915 net.cpp:96] Setting up accuracy2
I0411 09:52:01.062924 18915 net.cpp:103] Top shape: 1 1 1 1 (1)
I0411 09:52:01.062935 18915 net.cpp:67] Creating Layer accuracy3
I0411 09:52:01.062943 18915 net.cpp:394] accuracy3 <- fc8_pascal_style_mod_fc8_pascal_style_mod_0_split_1
I0411 09:52:01.062953 18915 net.cpp:394] accuracy3 <- labels3_sliceL_3_split_1
I0411 09:52:01.062963 18915 net.cpp:356] accuracy3 -> styleAccuracy
I0411 09:52:01.062975 18915 net.cpp:96] Setting up accuracy3
I0411 09:52:01.062983 18915 net.cpp:103] Top shape: 1 1 1 1 (1)
I0411 09:52:01.062994 18915 net.cpp:67] Creating Layer silence
I0411 09:52:01.063001 18915 net.cpp:394] silence <- random
I0411 09:52:01.063009 18915 net.cpp:96] Setting up silence
I0411 09:52:01.063017 18915 net.cpp:172] silence does not need backward computation.
I0411 09:52:01.063024 18915 net.cpp:172] accuracy3 does not need backward computation.
I0411 09:52:01.063031 18915 net.cpp:172] accuracy2 does not need backward computation.
…
