…
I0411 05:43:07.816797  1771 net.cpp:39] Initializing net from parameters: 
name: "deepFashion"
layers {
  top: "data"
  top: "random"
  name: "data"
  type: DATA
  data_param {
    source: "/data/deepfashion/multimodal/multimodal_TRAIN"
    batch_size: 32
    backend: LMDB
  }
  include {
    phase: TRAIN
  }
  transform_param {
    mirror: true
    crop_size: 227
    mean_file: "../../../data/ilsvrc12/imagenet_mean.binaryproto"
  }
}
layers {
  top: "labels"
  name: "labels"
  type: DATA
  data_param {
    source: "/data/deepfashion/multimodal/multimodal_TRAIN_ALT"
    batch_size: 32
    backend: LMDB
  }
  include {
    phase: TRAIN
  }
}
layers {
  bottom: "labels"
  top: "labels0"
  top: "labels1"
  top: "labels2"
  top: "labels3"
  name: "sliceL"
  type: SLICE
  slice_param {
    slice_point: 1
    slice_point: 2
    slice_point: 3
  }
}
layers {
  bottom: "data"
  top: "conv1"
  name: "conv1"
  type: CONVOLUTION
  blobs_lr: 1
  blobs_lr: 2
  weight_decay: 1
  weight_decay: 0
  convolution_param {
    num_output: 96
    kernel_size: 11
    stride: 4
    weight_filler {
      type: "gaussian"
      std: 0.01
    }
    bias_filler {
      type: "constant"
      value: 0
    }
  }
}
layers {
  bottom: "conv1"
  top: "conv1"
  name: "relu1"
  type: RELU
}
layers {
  bottom: "conv1"
  top: "pool1"
  name: "pool1"
  type: POOLING
  pooling_param {
    pool: MAX
    kernel_size: 3
    stride: 2
  }
}
layers {
  bottom: "pool1"
  top: "norm1"
  name: "norm1"
  type: LRN
  lrn_param {
    local_size: 5
    alpha: 0.0001
    beta: 0.75
  }
}
layers {
  bottom: "norm1"
  top: "conv2"
  name: "conv2"
  type: CONVOLUTION
  blobs_lr: 1
  blobs_lr: 2
  weight_decay: 1
  weight_decay: 0
  convolution_param {
    num_output: 256
    pad: 2
    kernel_size: 5
    group: 2
    weight_filler {
      type: "gaussian"
      std: 0.01
    }
    bias_filler {
      type: "constant"
      value: 1
    }
  }
}
layers {
  bottom: "conv2"
  top: "conv2"
  name: "relu2"
  type: RELU
}
layers {
  bottom: "conv2"
  top: "pool2"
  name: "pool2"
  type: POOLING
  pooling_param {
    pool: MAX
    kernel_size: 3
    stride: 2
  }
}
layers {
  bottom: "pool2"
  top: "norm2"
  name: "norm2"
  type: LRN
  lrn_param {
    local_size: 5
    alpha: 0.0001
    beta: 0.75
  }
}
layers {
  bottom: "norm2"
  top: "conv3"
  name: "conv3"
  type: CONVOLUTION
  blobs_lr: 1
  blobs_lr: 2
  weight_decay: 1
  weight_decay: 0
  convolution_param {
    num_output: 384
    pad: 1
    kernel_size: 3
    weight_filler {
      type: "gaussian"
      std: 0.01
    }
    bias_filler {
      type: "constant"
      value: 0
    }
  }
}
layers {
  bottom: "conv3"
  top: "conv3"
  name: "relu3"
  type: RELU
}
layers {
  bottom: "conv3"
  top: "conv4"
  name: "conv4"
  type: CONVOLUTION
  blobs_lr: 1
  blobs_lr: 2
  weight_decay: 1
  weight_decay: 0
  convolution_param {
    num_output: 384
    pad: 1
    kernel_size: 3
    group: 2
    weight_filler {
      type: "gaussian"
      std: 0.01
    }
    bias_filler {
      type: "constant"
      value: 1
    }
  }
}
layers {
  bottom: "conv4"
  top: "conv4"
  name: "relu4"
  type: RELU
}
layers {
  bottom: "conv4"
  top: "conv5"
  name: "conv5"
  type: CONVOLUTION
  blobs_lr: 1
  blobs_lr: 2
  weight_decay: 1
  weight_decay: 0
  convolution_param {
    num_output: 256
    pad: 1
    kernel_size: 3
    group: 2
    weight_filler {
      type: "gaussian"
      std: 0.01
    }
    bias_filler {
      type: "constant"
      value: 1
    }
  }
}
layers {
  bottom: "conv5"
  top: "conv5"
  name: "relu5"
  type: RELU
}
layers {
  bottom: "conv5"
  top: "pool5"
  name: "pool5"
  type: POOLING
  pooling_param {
    pool: MAX
    kernel_size: 3
    stride: 2
  }
}
layers {
  bottom: "pool5"
  top: "fc6"
  name: "fc6"
  type: INNER_PRODUCT
  blobs_lr: 1
  blobs_lr: 2
  weight_decay: 1
  weight_decay: 0
  inner_product_param {
    num_output: 4096
    weight_filler {
      type: "gaussian"
      std: 0.005
    }
    bias_filler {
      type: "constant"
      value: 1
    }
  }
}
layers {
  bottom: "fc6"
  top: "fc6"
  name: "relu6"
  type: RELU
}
layers {
  bottom: "fc6"
  top: "fc6"
  name: "drop6"
  type: DROPOUT
  dropout_param {
    dropout_ratio: 0.5
  }
}
layers {
  bottom: "fc6"
  top: "fc7"
  name: "fc7"
  type: INNER_PRODUCT
  blobs_lr: 1
  blobs_lr: 2
  weight_decay: 1
  weight_decay: 0
  inner_product_param {
    num_output: 4096
    weight_filler {
      type: "gaussian"
      std: 0.005
    }
    bias_filler {
      type: "constant"
      value: 1
    }
  }
}
layers {
  bottom: "fc7"
  top: "fc7"
  name: "relu7"
  type: RELU
}
layers {
  bottom: "fc7"
  top: "fc7"
  name: "drop7"
  type: DROPOUT
  dropout_param {
    dropout_ratio: 0.5
  }
}
layers {
  bottom: "fc7"
  top: "fc8_deepfashion"
  name: "fc8_deepfashion"
  type: INNER_PRODUCT
  blobs_lr: 1
  blobs_lr: 2
  weight_decay: 1
  weight_decay: 0
  inner_product_param {
    num_output: 48
    weight_filler {
      type: "gaussian"
      std: 0.01
    }
    bias_filler {
      type: "constant"
      value: 0
    }
  }
}
layers {
  bottom: "fc8_deepfashion"
  top: "fc8_deepfashion_encode"
  name: "fc8_deepfashion_encode"
  type: SIGMOID
}
layers {
  bottom: "fc8_deepfashion_encode"
  top: "fc8_pascal_label_mod"
  name: "fc8_pascal_label_mod"
  type: INNER_PRODUCT
  blobs_lr: 1
  blobs_lr: 2
  weight_decay: 1
  weight_decay: 0
  inner_product_param {
    num_output: 10
    weight_filler {
      type: "gaussian"
      std: 0.01
    }
    bias_filler {
      type: "constant"
      value: 0
    }
  }
}
layers {
  bottom: "fc8_deepfashion_encode"
  top: "fc8_pascal_color_mod"
  name: "fc8_pascal_color_mod"
  type: INNER_PRODUCT
  blobs_lr: 1
  blobs_lr: 2
  weight_decay: 1
  weight_decay: 0
  inner_product_param {
    num_output: 16
    weight_filler {
      type: "gaussian"
      std: 0.01
    }
    bias_filler {
      type: "constant"
      value: 0
    }
  }
}
layers {
  bottom: "fc8_deepfashion_encode"
  top: "fc8_pascal_fabric_mod"
  name: "fc8_pascal_fabric_mod"
  type: INNER_PRODUCT
  blobs_lr: 1
  blobs_lr: 2
  weight_decay: 1
  weight_decay: 0
  inner_product_param {
    num_output: 21
    weight_filler {
      type: "gaussian"
      std: 0.01
    }
    bias_filler {
      type: "constant"
      value: 0
    }
  }
}
layers {
  bottom: "fc8_deepfashion_encode"
  top: "fc8_pascal_style_mod"
  name: "fc8_pascal_style_mod"
  type: INNER_PRODUCT
  blobs_lr: 1
  blobs_lr: 2
  weight_decay: 1
  weight_decay: 0
  inner_product_param {
    num_output: 8
    weight_filler {
      type: "gaussian"
      std: 0.01
    }
    bias_filler {
      type: "constant"
      value: 0
    }
  }
}
layers {
  bottom: "fc8_pascal_label_mod"
  bottom: "labels0"
  name: "loss"
  type: SOFTMAX_LOSS
}
layers {
  bottom: "fc8_pascal_color_mod"
  bottom: "labels1"
  name: "loss"
  type: SOFTMAX_LOSS
}
layers {
  bottom: "fc8_pascal_fabric_mod"
  bottom: "labels2"
  name: "loss"
  type: SOFTMAX_LOSS
}
layers {
  bottom: "fc8_pascal_style_mod"
  bottom: "labels3"
  name: "loss"
  type: SOFTMAX_LOSS
}
layers {
  bottom: "random"
  name: "silence"
  type: SILENCE
}
state {
  phase: TRAIN
}
I0411 05:43:07.817003  1771 net.cpp:67] Creating Layer data
I0411 05:43:07.817015  1771 net.cpp:356] data -> data
I0411 05:43:07.817035  1771 net.cpp:356] data -> random
I0411 05:43:07.817050  1771 net.cpp:96] Setting up data
I0411 05:43:07.817162  1771 data_layer.cpp:68] Opening lmdb /data/deepfashion/multimodal/multimodal_TRAIN
I0411 05:43:07.817359  1771 data_layer.cpp:128] output data size: 32,3,227,227
I0411 05:43:07.817368  1771 base_data_layer.cpp:36] Loading mean file from../../../data/ilsvrc12/imagenet_mean.binaryproto
I0411 05:43:07.824966  1771 net.cpp:103] Top shape: 32 3 227 227 (4946784)
I0411 05:43:07.825006  1771 net.cpp:103] Top shape: 32 1 1 1 (32)
I0411 05:43:07.825024  1771 net.cpp:67] Creating Layer labels
I0411 05:43:07.825032  1771 net.cpp:356] labels -> labels
I0411 05:43:07.825047  1771 net.cpp:96] Setting up labels
I0411 05:43:07.825139  1771 data_layer.cpp:68] Opening lmdb /data/deepfashion/multimodal/multimodal_TRAIN_ALT
I0411 05:43:07.825163  1771 data_layer.cpp:128] output data size: 32,4,1,1
I0411 05:43:07.825199  1771 net.cpp:103] Top shape: 32 4 1 1 (128)
I0411 05:43:07.825218  1771 net.cpp:67] Creating Layer sliceL
I0411 05:43:07.825224  1771 net.cpp:394] sliceL <- labels
I0411 05:43:07.825237  1771 net.cpp:356] sliceL -> labels0
I0411 05:43:07.825245  1771 net.cpp:356] sliceL -> labels1
I0411 05:43:07.825253  1771 net.cpp:356] sliceL -> labels2
I0411 05:43:07.825259  1771 net.cpp:356] sliceL -> labels3
I0411 05:43:07.825268  1771 net.cpp:96] Setting up sliceL
I0411 05:43:07.825278  1771 net.cpp:103] Top shape: 32 1 1 1 (32)
I0411 05:43:07.825283  1771 net.cpp:103] Top shape: 32 1 1 1 (32)
I0411 05:43:07.825285  1771 net.cpp:103] Top shape: 32 1 1 1 (32)
I0411 05:43:07.825289  1771 net.cpp:103] Top shape: 32 1 1 1 (32)
I0411 05:43:07.825299  1771 net.cpp:67] Creating Layer conv1
I0411 05:43:07.825304  1771 net.cpp:394] conv1 <- data
I0411 05:43:07.825312  1771 net.cpp:356] conv1 -> conv1
I0411 05:43:07.825320  1771 net.cpp:96] Setting up conv1
I0411 05:43:07.847978  1771 net.cpp:103] Top shape: 32 96 55 55 (9292800)
I0411 05:43:07.848042  1771 net.cpp:67] Creating Layer relu1
I0411 05:43:07.848050  1771 net.cpp:394] relu1 <- conv1
I0411 05:43:07.848059  1771 net.cpp:345] relu1 -> conv1 (in-place)
I0411 05:43:07.848069  1771 net.cpp:96] Setting up relu1
I0411 05:43:07.848080  1771 net.cpp:103] Top shape: 32 96 55 55 (9292800)
I0411 05:43:07.848100  1771 net.cpp:67] Creating Layer pool1
I0411 05:43:07.848107  1771 net.cpp:394] pool1 <- conv1
I0411 05:43:07.848114  1771 net.cpp:356] pool1 -> pool1
I0411 05:43:07.848122  1771 net.cpp:96] Setting up pool1
I0411 05:43:07.848148  1771 net.cpp:103] Top shape: 32 96 27 27 (2239488)
I0411 05:43:07.848163  1771 net.cpp:67] Creating Layer norm1
I0411 05:43:07.848168  1771 net.cpp:394] norm1 <- pool1
I0411 05:43:07.848175  1771 net.cpp:356] norm1 -> norm1
I0411 05:43:07.848181  1771 net.cpp:96] Setting up norm1
I0411 05:43:07.848188  1771 net.cpp:103] Top shape: 32 96 27 27 (2239488)
I0411 05:43:07.848201  1771 net.cpp:67] Creating Layer conv2
I0411 05:43:07.848204  1771 net.cpp:394] conv2 <- norm1
I0411 05:43:07.848212  1771 net.cpp:356] conv2 -> conv2
I0411 05:43:07.848219  1771 net.cpp:96] Setting up conv2
I0411 05:43:07.858472  1771 net.cpp:103] Top shape: 32 256 27 27 (5971968)
I0411 05:43:07.858500  1771 net.cpp:67] Creating Layer relu2
I0411 05:43:07.858505  1771 net.cpp:394] relu2 <- conv2
I0411 05:43:07.858511  1771 net.cpp:345] relu2 -> conv2 (in-place)
I0411 05:43:07.858517  1771 net.cpp:96] Setting up relu2
I0411 05:43:07.858525  1771 net.cpp:103] Top shape: 32 256 27 27 (5971968)
I0411 05:43:07.858531  1771 net.cpp:67] Creating Layer pool2
I0411 05:43:07.858536  1771 net.cpp:394] pool2 <- conv2
I0411 05:43:07.858543  1771 net.cpp:356] pool2 -> pool2
I0411 05:43:07.858553  1771 net.cpp:96] Setting up pool2
I0411 05:43:07.858579  1771 net.cpp:103] Top shape: 32 256 13 13 (1384448)
I0411 05:43:07.858587  1771 net.cpp:67] Creating Layer norm2
I0411 05:43:07.858592  1771 net.cpp:394] norm2 <- pool2
I0411 05:43:07.858600  1771 net.cpp:356] norm2 -> norm2
I0411 05:43:07.858606  1771 net.cpp:96] Setting up norm2
I0411 05:43:07.858610  1771 net.cpp:103] Top shape: 32 256 13 13 (1384448)
I0411 05:43:07.858618  1771 net.cpp:67] Creating Layer conv3
I0411 05:43:07.858621  1771 net.cpp:394] conv3 <- norm2
I0411 05:43:07.858626  1771 net.cpp:356] conv3 -> conv3
I0411 05:43:07.858633  1771 net.cpp:96] Setting up conv3
I0411 05:43:07.887783  1771 net.cpp:103] Top shape: 32 384 13 13 (2076672)
I0411 05:43:07.887814  1771 net.cpp:67] Creating Layer relu3
I0411 05:43:07.887820  1771 net.cpp:394] relu3 <- conv3
I0411 05:43:07.887830  1771 net.cpp:345] relu3 -> conv3 (in-place)
I0411 05:43:07.887835  1771 net.cpp:96] Setting up relu3
I0411 05:43:07.887842  1771 net.cpp:103] Top shape: 32 384 13 13 (2076672)
I0411 05:43:07.887857  1771 net.cpp:67] Creating Layer conv4
I0411 05:43:07.887861  1771 net.cpp:394] conv4 <- conv3
I0411 05:43:07.887869  1771 net.cpp:356] conv4 -> conv4
I0411 05:43:07.887876  1771 net.cpp:96] Setting up conv4
I0411 05:43:07.909896  1771 net.cpp:103] Top shape: 32 384 13 13 (2076672)
I0411 05:43:07.909922  1771 net.cpp:67] Creating Layer relu4
I0411 05:43:07.909929  1771 net.cpp:394] relu4 <- conv4
I0411 05:43:07.909934  1771 net.cpp:345] relu4 -> conv4 (in-place)
I0411 05:43:07.909940  1771 net.cpp:96] Setting up relu4
I0411 05:43:07.909946  1771 net.cpp:103] Top shape: 32 384 13 13 (2076672)
I0411 05:43:07.909957  1771 net.cpp:67] Creating Layer conv5
I0411 05:43:07.909965  1771 net.cpp:394] conv5 <- conv4
I0411 05:43:07.909970  1771 net.cpp:356] conv5 -> conv5
I0411 05:43:07.909976  1771 net.cpp:96] Setting up conv5
I0411 05:43:07.924746  1771 net.cpp:103] Top shape: 32 256 13 13 (1384448)
I0411 05:43:07.924780  1771 net.cpp:67] Creating Layer relu5
I0411 05:43:07.924788  1771 net.cpp:394] relu5 <- conv5
I0411 05:43:07.924795  1771 net.cpp:345] relu5 -> conv5 (in-place)
I0411 05:43:07.924801  1771 net.cpp:96] Setting up relu5
I0411 05:43:07.924808  1771 net.cpp:103] Top shape: 32 256 13 13 (1384448)
I0411 05:43:07.924815  1771 net.cpp:67] Creating Layer pool5
I0411 05:43:07.924819  1771 net.cpp:394] pool5 <- conv5
I0411 05:43:07.924828  1771 net.cpp:356] pool5 -> pool5
I0411 05:43:07.924835  1771 net.cpp:96] Setting up pool5
I0411 05:43:07.924849  1771 net.cpp:103] Top shape: 32 256 6 6 (294912)
I0411 05:43:07.924859  1771 net.cpp:67] Creating Layer fc6
I0411 05:43:07.924867  1771 net.cpp:394] fc6 <- pool5
I0411 05:43:07.924873  1771 net.cpp:356] fc6 -> fc6
I0411 05:43:07.924880  1771 net.cpp:96] Setting up fc6
I0411 05:43:09.159543  1771 net.cpp:103] Top shape: 32 4096 1 1 (131072)
I0411 05:43:09.159605  1771 net.cpp:67] Creating Layer relu6
I0411 05:43:09.159613  1771 net.cpp:394] relu6 <- fc6
I0411 05:43:09.159623  1771 net.cpp:345] relu6 -> fc6 (in-place)
I0411 05:43:09.159633  1771 net.cpp:96] Setting up relu6
I0411 05:43:09.159653  1771 net.cpp:103] Top shape: 32 4096 1 1 (131072)
I0411 05:43:09.159664  1771 net.cpp:67] Creating Layer drop6
I0411 05:43:09.159668  1771 net.cpp:394] drop6 <- fc6
I0411 05:43:09.159677  1771 net.cpp:345] drop6 -> fc6 (in-place)
I0411 05:43:09.159682  1771 net.cpp:96] Setting up drop6
I0411 05:43:09.159693  1771 net.cpp:103] Top shape: 32 4096 1 1 (131072)
I0411 05:43:09.159703  1771 net.cpp:67] Creating Layer fc7
I0411 05:43:09.159708  1771 net.cpp:394] fc7 <- fc6
I0411 05:43:09.159713  1771 net.cpp:356] fc7 -> fc7
I0411 05:43:09.159721  1771 net.cpp:96] Setting up fc7
I0411 05:43:09.705987  1771 net.cpp:103] Top shape: 32 4096 1 1 (131072)
I0411 05:43:09.706045  1771 net.cpp:67] Creating Layer relu7
I0411 05:43:09.706053  1771 net.cpp:394] relu7 <- fc7
I0411 05:43:09.706068  1771 net.cpp:345] relu7 -> fc7 (in-place)
I0411 05:43:09.706079  1771 net.cpp:96] Setting up relu7
I0411 05:43:09.706099  1771 net.cpp:103] Top shape: 32 4096 1 1 (131072)
I0411 05:43:09.706112  1771 net.cpp:67] Creating Layer drop7
I0411 05:43:09.706142  1771 net.cpp:394] drop7 <- fc7
I0411 05:43:09.706149  1771 net.cpp:345] drop7 -> fc7 (in-place)
I0411 05:43:09.706156  1771 net.cpp:96] Setting up drop7
I0411 05:43:09.706161  1771 net.cpp:103] Top shape: 32 4096 1 1 (131072)
I0411 05:43:09.706169  1771 net.cpp:67] Creating Layer fc8_deepfashion
I0411 05:43:09.706173  1771 net.cpp:394] fc8_deepfashion <- fc7
I0411 05:43:09.706182  1771 net.cpp:356] fc8_deepfashion -> fc8_deepfashion
I0411 05:43:09.706190  1771 net.cpp:96] Setting up fc8_deepfashion
I0411 05:43:09.712682  1771 net.cpp:103] Top shape: 32 48 1 1 (1536)
I0411 05:43:09.712707  1771 net.cpp:67] Creating Layer fc8_deepfashion_encode
I0411 05:43:09.712712  1771 net.cpp:394] fc8_deepfashion_encode <- fc8_deepfashion
I0411 05:43:09.712718  1771 net.cpp:356] fc8_deepfashion_encode -> fc8_deepfashion_encode
I0411 05:43:09.712723  1771 net.cpp:96] Setting up fc8_deepfashion_encode
I0411 05:43:09.712735  1771 net.cpp:103] Top shape: 32 48 1 1 (1536)
I0411 05:43:09.712744  1771 net.cpp:67] Creating Layer fc8_deepfashion_encode_fc8_deepfashion_encode_0_split
I0411 05:43:09.712749  1771 net.cpp:394] fc8_deepfashion_encode_fc8_deepfashion_encode_0_split <- fc8_deepfashion_encode
I0411 05:43:09.712756  1771 net.cpp:356] fc8_deepfashion_encode_fc8_deepfashion_encode_0_split -> fc8_deepfashion_encode_fc8_deepfashion_encode_0_split_0
I0411 05:43:09.712764  1771 net.cpp:356] fc8_deepfashion_encode_fc8_deepfashion_encode_0_split -> fc8_deepfashion_encode_fc8_deepfashion_encode_0_split_1
I0411 05:43:09.712770  1771 net.cpp:356] fc8_deepfashion_encode_fc8_deepfashion_encode_0_split -> fc8_deepfashion_encode_fc8_deepfashion_encode_0_split_2
I0411 05:43:09.712776  1771 net.cpp:356] fc8_deepfashion_encode_fc8_deepfashion_encode_0_split -> fc8_deepfashion_encode_fc8_deepfashion_encode_0_split_3
I0411 05:43:09.712782  1771 net.cpp:96] Setting up fc8_deepfashion_encode_fc8_deepfashion_encode_0_split
I0411 05:43:09.712790  1771 net.cpp:103] Top shape: 32 48 1 1 (1536)
I0411 05:43:09.712793  1771 net.cpp:103] Top shape: 32 48 1 1 (1536)
I0411 05:43:09.712796  1771 net.cpp:103] Top shape: 32 48 1 1 (1536)
I0411 05:43:09.712800  1771 net.cpp:103] Top shape: 32 48 1 1 (1536)
I0411 05:43:09.712808  1771 net.cpp:67] Creating Layer fc8_pascal_label_mod
I0411 05:43:09.712818  1771 net.cpp:394] fc8_pascal_label_mod <- fc8_deepfashion_encode_fc8_deepfashion_encode_0_split_0
I0411 05:43:09.712826  1771 net.cpp:356] fc8_pascal_label_mod -> fc8_pascal_label_mod
I0411 05:43:09.712831  1771 net.cpp:96] Setting up fc8_pascal_label_mod
I0411 05:43:09.712859  1771 net.cpp:103] Top shape: 32 10 1 1 (320)
I0411 05:43:09.712882  1771 net.cpp:67] Creating Layer fc8_pascal_color_mod
I0411 05:43:09.712887  1771 net.cpp:394] fc8_pascal_color_mod <- fc8_deepfashion_encode_fc8_deepfashion_encode_0_split_1
I0411 05:43:09.712894  1771 net.cpp:356] fc8_pascal_color_mod -> fc8_pascal_color_mod
I0411 05:43:09.712901  1771 net.cpp:96] Setting up fc8_pascal_color_mod
I0411 05:43:09.712942  1771 net.cpp:103] Top shape: 32 16 1 1 (512)
I0411 05:43:09.712959  1771 net.cpp:67] Creating Layer fc8_pascal_fabric_mod
I0411 05:43:09.712962  1771 net.cpp:394] fc8_pascal_fabric_mod <- fc8_deepfashion_encode_fc8_deepfashion_encode_0_split_2
I0411 05:43:09.712971  1771 net.cpp:356] fc8_pascal_fabric_mod -> fc8_pascal_fabric_mod
I0411 05:43:09.712977  1771 net.cpp:96] Setting up fc8_pascal_fabric_mod
I0411 05:43:09.713021  1771 net.cpp:103] Top shape: 32 21 1 1 (672)
I0411 05:43:09.713037  1771 net.cpp:67] Creating Layer fc8_pascal_style_mod
I0411 05:43:09.713042  1771 net.cpp:394] fc8_pascal_style_mod <- fc8_deepfashion_encode_fc8_deepfashion_encode_0_split_3
I0411 05:43:09.713050  1771 net.cpp:356] fc8_pascal_style_mod -> fc8_pascal_style_mod
I0411 05:43:09.713062  1771 net.cpp:96] Setting up fc8_pascal_style_mod
I0411 05:43:09.713093  1771 net.cpp:103] Top shape: 32 8 1 1 (256)
I0411 05:43:09.713109  1771 net.cpp:67] Creating Layer loss
I0411 05:43:09.713114  1771 net.cpp:394] loss <- fc8_pascal_label_mod
I0411 05:43:09.713119  1771 net.cpp:394] loss <- labels0
I0411 05:43:09.713138  1771 net.cpp:356] loss -> (automatic)
I0411 05:43:09.713143  1771 net.cpp:96] Setting up loss
I0411 05:43:09.713155  1771 net.cpp:103] Top shape: 1 1 1 1 (1)
I0411 05:43:09.713166  1771 net.cpp:109]     with loss weight 1
I0411 05:43:09.713215  1771 net.cpp:67] Creating Layer loss
I0411 05:43:09.713222  1771 net.cpp:394] loss <- fc8_pascal_color_mod
I0411 05:43:09.713227  1771 net.cpp:394] loss <- labels1
I0411 05:43:09.713232  1771 net.cpp:356] loss -> (automatic)
I0411 05:43:09.713238  1771 net.cpp:96] Setting up loss
I0411 05:43:09.713243  1771 net.cpp:103] Top shape: 1 1 1 1 (1)
I0411 05:43:09.713248  1771 net.cpp:109]     with loss weight 1
I0411 05:43:09.713255  1771 net.cpp:67] Creating Layer loss
I0411 05:43:09.713259  1771 net.cpp:394] loss <- fc8_pascal_fabric_mod
I0411 05:43:09.713264  1771 net.cpp:394] loss <- labels2
I0411 05:43:09.713269  1771 net.cpp:356] loss -> (automatic)
I0411 05:43:09.713274  1771 net.cpp:96] Setting up loss
I0411 05:43:09.713279  1771 net.cpp:103] Top shape: 1 1 1 1 (1)
I0411 05:43:09.713282  1771 net.cpp:109]     with loss weight 1
I0411 05:43:09.713291  1771 net.cpp:67] Creating Layer loss
I0411 05:43:09.713296  1771 net.cpp:394] loss <- fc8_pascal_style_mod
I0411 05:43:09.713300  1771 net.cpp:394] loss <- labels3
I0411 05:43:09.713306  1771 net.cpp:356] loss -> (automatic)
I0411 05:43:09.713313  1771 net.cpp:96] Setting up loss
I0411 05:43:09.713320  1771 net.cpp:103] Top shape: 1 1 1 1 (1)
I0411 05:43:09.713323  1771 net.cpp:109]     with loss weight 1
I0411 05:43:09.713332  1771 net.cpp:67] Creating Layer silence
I0411 05:43:09.713336  1771 net.cpp:394] silence <- random
I0411 05:43:09.713341  1771 net.cpp:96] Setting up silence
I0411 05:43:09.713345  1771 net.cpp:172] silence does not need backward computation.
I0411 05:43:09.713348  1771 net.cpp:170] loss needs backward computation.
…
I0411 05:43:09.714671  1771 net.cpp:39] Initializing net from parameters: 
name: "deepFashion"
layers {
  top: "data"
  top: "random"
  name: "data"
  type: DATA
  data_param {
    source: "/data/deepfashion/multimodal/multimodal_test"
    batch_size: 32
    backend: LMDB
  }
  include {
    phase: TEST
  }
  transform_param {
    mirror: true
    crop_size: 227
    mean_file: "../../../data/ilsvrc12/imagenet_mean.binaryproto"
  }
}
layers {
  top: "labels"
  name: "labels"
  type: DATA
  data_param {
    source: "/data/deepfashion/multimodal/multimodal_test_alt"
    batch_size: 32
    backend: LMDB
  }
  include {
    phase: TEST
  }
}
layers {
  bottom: "labels"
  top: "labels0"
  top: "labels1"
  top: "labels2"
  top: "labels3"
  name: "sliceL"
  type: SLICE
  slice_param {
    slice_point: 1
    slice_point: 2
    slice_point: 3
  }
}
layers {
  bottom: "data"
  top: "conv1"
  name: "conv1"
  type: CONVOLUTION
  blobs_lr: 1
  blobs_lr: 2
  weight_decay: 1
  weight_decay: 0
  convolution_param {
    num_output: 96
    kernel_size: 11
    stride: 4
    weight_filler {
      type: "gaussian"
      std: 0.01
    }
    bias_filler {
      type: "constant"
      value: 0
    }
  }
}
layers {
  bottom: "conv1"
  top: "conv1"
  name: "relu1"
  type: RELU
}
layers {
  bottom: "conv1"
  top: "pool1"
  name: "pool1"
  type: POOLING
  pooling_param {
    pool: MAX
    kernel_size: 3
    stride: 2
  }
}
layers {
  bottom: "pool1"
  top: "norm1"
  name: "norm1"
  type: LRN
  lrn_param {
    local_size: 5
    alpha: 0.0001
    beta: 0.75
  }
}
layers {
  bottom: "norm1"
  top: "conv2"
  name: "conv2"
  type: CONVOLUTION
  blobs_lr: 1
  blobs_lr: 2
  weight_decay: 1
  weight_decay: 0
  convolution_param {
    num_output: 256
    pad: 2
    kernel_size: 5
    group: 2
    weight_filler {
      type: "gaussian"
      std: 0.01
    }
    bias_filler {
      type: "constant"
      value: 1
    }
  }
}
layers {
  bottom: "conv2"
  top: "conv2"
  name: "relu2"
  type: RELU
}
layers {
  bottom: "conv2"
  top: "pool2"
  name: "pool2"
  type: POOLING
  pooling_param {
    pool: MAX
    kernel_size: 3
    stride: 2
  }
}
layers {
  bottom: "pool2"
  top: "norm2"
  name: "norm2"
  type: LRN
  lrn_param {
    local_size: 5
    alpha: 0.0001
    beta: 0.75
  }
}
layers {
  bottom: "norm2"
  top: "conv3"
  name: "conv3"
  type: CONVOLUTION
  blobs_lr: 1
  blobs_lr: 2
  weight_decay: 1
  weight_decay: 0
  convolution_param {
    num_output: 384
    pad: 1
    kernel_size: 3
    weight_filler {
      type: "gaussian"
      std: 0.01
    }
    bias_filler {
      type: "constant"
      value: 0
    }
  }
}
layers {
  bottom: "conv3"
  top: "conv3"
  name: "relu3"
  type: RELU
}
layers {
  bottom: "conv3"
  top: "conv4"
  name: "conv4"
  type: CONVOLUTION
  blobs_lr: 1
  blobs_lr: 2
  weight_decay: 1
  weight_decay: 0
  convolution_param {
    num_output: 384
    pad: 1
    kernel_size: 3
    group: 2
    weight_filler {
      type: "gaussian"
      std: 0.01
    }
    bias_filler {
      type: "constant"
      value: 1
    }
  }
}
layers {
  bottom: "conv4"
  top: "conv4"
  name: "relu4"
  type: RELU
}
layers {
  bottom: "conv4"
  top: "conv5"
  name: "conv5"
  type: CONVOLUTION
  blobs_lr: 1
  blobs_lr: 2
  weight_decay: 1
  weight_decay: 0
  convolution_param {
    num_output: 256
    pad: 1
    kernel_size: 3
    group: 2
    weight_filler {
      type: "gaussian"
      std: 0.01
    }
    bias_filler {
      type: "constant"
      value: 1
    }
  }
}
layers {
  bottom: "conv5"
  top: "conv5"
  name: "relu5"
  type: RELU
}
layers {
  bottom: "conv5"
  top: "pool5"
  name: "pool5"
  type: POOLING
  pooling_param {
    pool: MAX
    kernel_size: 3
    stride: 2
  }
}
layers {
  bottom: "pool5"
  top: "fc6"
  name: "fc6"
  type: INNER_PRODUCT
  blobs_lr: 1
  blobs_lr: 2
  weight_decay: 1
  weight_decay: 0
  inner_product_param {
    num_output: 4096
    weight_filler {
      type: "gaussian"
      std: 0.005
    }
    bias_filler {
      type: "constant"
      value: 1
    }
  }
}
layers {
  bottom: "fc6"
  top: "fc6"
  name: "relu6"
  type: RELU
}
layers {
  bottom: "fc6"
  top: "fc6"
  name: "drop6"
  type: DROPOUT
  dropout_param {
    dropout_ratio: 0.5
  }
}
layers {
  bottom: "fc6"
  top: "fc7"
  name: "fc7"
  type: INNER_PRODUCT
  blobs_lr: 1
  blobs_lr: 2
  weight_decay: 1
  weight_decay: 0
  inner_product_param {
    num_output: 4096
    weight_filler {
      type: "gaussian"
      std: 0.005
    }
    bias_filler {
      type: "constant"
      value: 1
    }
  }
}
layers {
  bottom: "fc7"
  top: "fc7"
  name: "relu7"
  type: RELU
}
layers {
  bottom: "fc7"
  top: "fc7"
  name: "drop7"
  type: DROPOUT
  dropout_param {
    dropout_ratio: 0.5
  }
}
layers {
  bottom: "fc7"
  top: "fc8_deepfashion"
  name: "fc8_deepfashion"
  type: INNER_PRODUCT
  blobs_lr: 1
  blobs_lr: 2
  weight_decay: 1
  weight_decay: 0
  inner_product_param {
    num_output: 48
    weight_filler {
      type: "gaussian"
      std: 0.01
    }
    bias_filler {
      type: "constant"
      value: 0
    }
  }
}
layers {
  bottom: "fc8_deepfashion"
  top: "fc8_deepfashion_encode"
  name: "fc8_deepfashion_encode"
  type: SIGMOID
}
layers {
  bottom: "fc8_deepfashion_encode"
  top: "fc8_pascal_label_mod"
  name: "fc8_pascal_label_mod"
  type: INNER_PRODUCT
  blobs_lr: 1
  blobs_lr: 2
  weight_decay: 1
  weight_decay: 0
  inner_product_param {
    num_output: 10
    weight_filler {
      type: "gaussian"
      std: 0.01
    }
    bias_filler {
      type: "constant"
      value: 0
    }
  }
}
layers {
  bottom: "fc8_deepfashion_encode"
  top: "fc8_pascal_color_mod"
  name: "fc8_pascal_color_mod"
  type: INNER_PRODUCT
  blobs_lr: 1
  blobs_lr: 2
  weight_decay: 1
  weight_decay: 0
  inner_product_param {
    num_output: 16
    weight_filler {
      type: "gaussian"
      std: 0.01
    }
    bias_filler {
      type: "constant"
      value: 0
    }
  }
}
layers {
  bottom: "fc8_deepfashion_encode"
  top: "fc8_pascal_fabric_mod"
  name: "fc8_pascal_fabric_mod"
  type: INNER_PRODUCT
  blobs_lr: 1
  blobs_lr: 2
  weight_decay: 1
  weight_decay: 0
  inner_product_param {
    num_output: 21
    weight_filler {
      type: "gaussian"
      std: 0.01
    }
    bias_filler {
      type: "constant"
      value: 0
    }
  }
}
layers {
  bottom: "fc8_deepfashion_encode"
  top: "fc8_pascal_style_mod"
  name: "fc8_pascal_style_mod"
  type: INNER_PRODUCT
  blobs_lr: 1
  blobs_lr: 2
  weight_decay: 1
  weight_decay: 0
  inner_product_param {
    num_output: 8
    weight_filler {
      type: "gaussian"
      std: 0.01
    }
    bias_filler {
      type: "constant"
      value: 0
    }
  }
}
layers {
  bottom: "fc8_pascal_label_mod"
  bottom: "labels0"
  name: "loss"
  type: SOFTMAX_LOSS
}
layers {
  bottom: "fc8_pascal_color_mod"
  bottom: "labels1"
  name: "loss"
  type: SOFTMAX_LOSS
}
layers {
  bottom: "fc8_pascal_fabric_mod"
  bottom: "labels2"
  name: "loss"
  type: SOFTMAX_LOSS
}
layers {
  bottom: "fc8_pascal_style_mod"
  bottom: "labels3"
  name: "loss"
  type: SOFTMAX_LOSS
}
layers {
  bottom: "fc8_pascal_label_mod"
  bottom: "labels0"
  top: "labelAccuracy"
  name: "accuracy0"
  type: ACCURACY
  include {
    phase: TEST
  }
}
layers {
  bottom: "fc8_pascal_color_mod"
  bottom: "labels1"
  top: "colorAccuracy"
  name: "accuracy1"
  type: ACCURACY
  include {
    phase: TEST
  }
}
layers {
  bottom: "fc8_pascal_fabric_mod"
  bottom: "labels2"
  top: "fabricAccuracy"
  name: "accuracy2"
  type: ACCURACY
  include {
    phase: TEST
  }
}
layers {
  bottom: "fc8_pascal_style_mod"
  bottom: "labels3"
  top: "styleAccuracy"
  name: "accuracy3"
  type: ACCURACY
  include {
    phase: TEST
  }
}
layers {
  bottom: "random"
  name: "silence"
  type: SILENCE
}
state {
  phase: TEST
}
I0411 05:43:09.714877  1771 net.cpp:67] Creating Layer data
I0411 05:43:09.714896  1771 net.cpp:356] data -> data
I0411 05:43:09.714906  1771 net.cpp:356] data -> random
I0411 05:43:09.714913  1771 net.cpp:96] Setting up data
I0411 05:43:09.714974  1771 data_layer.cpp:68] Opening lmdb /data/deepfashion/multimodal/multimodal_test
I0411 05:43:09.715133  1771 data_layer.cpp:128] output data size: 32,3,227,227
I0411 05:43:09.715152  1771 base_data_layer.cpp:36] Loading mean file from../../../data/ilsvrc12/imagenet_mean.binaryproto
I0411 05:43:09.722475  1771 net.cpp:103] Top shape: 32 3 227 227 (4946784)
I0411 05:43:09.722506  1771 net.cpp:103] Top shape: 32 1 1 1 (32)
I0411 05:43:09.722527  1771 net.cpp:67] Creating Layer labels
I0411 05:43:09.722534  1771 net.cpp:356] labels -> labels
I0411 05:43:09.722548  1771 net.cpp:96] Setting up labels
I0411 05:43:09.722616  1771 data_layer.cpp:68] Opening lmdb /data/deepfashion/multimodal/multimodal_test_alt
I0411 05:43:09.722647  1771 data_layer.cpp:128] output data size: 32,4,1,1
I0411 05:43:09.722697  1771 net.cpp:103] Top shape: 32 4 1 1 (128)
I0411 05:43:09.722725  1771 net.cpp:67] Creating Layer sliceL
I0411 05:43:09.722734  1771 net.cpp:394] sliceL <- labels
I0411 05:43:09.722746  1771 net.cpp:356] sliceL -> labels0
I0411 05:43:09.722759  1771 net.cpp:356] sliceL -> labels1
I0411 05:43:09.722774  1771 net.cpp:356] sliceL -> labels2
I0411 05:43:09.722786  1771 net.cpp:356] sliceL -> labels3
I0411 05:43:09.722798  1771 net.cpp:96] Setting up sliceL
I0411 05:43:09.722820  1771 net.cpp:103] Top shape: 32 1 1 1 (32)
I0411 05:43:09.722831  1771 net.cpp:103] Top shape: 32 1 1 1 (32)
I0411 05:43:09.722837  1771 net.cpp:103] Top shape: 32 1 1 1 (32)
I0411 05:43:09.722846  1771 net.cpp:103] Top shape: 32 1 1 1 (32)
I0411 05:43:09.722856  1771 net.cpp:67] Creating Layer labels0_sliceL_0_split
I0411 05:43:09.722864  1771 net.cpp:394] labels0_sliceL_0_split <- labels0
I0411 05:43:09.722878  1771 net.cpp:356] labels0_sliceL_0_split -> labels0_sliceL_0_split_0
I0411 05:43:09.722892  1771 net.cpp:356] labels0_sliceL_0_split -> labels0_sliceL_0_split_1
I0411 05:43:09.722904  1771 net.cpp:96] Setting up labels0_sliceL_0_split
I0411 05:43:09.722913  1771 net.cpp:103] Top shape: 32 1 1 1 (32)
I0411 05:43:09.722923  1771 net.cpp:103] Top shape: 32 1 1 1 (32)
I0411 05:43:09.722934  1771 net.cpp:67] Creating Layer labels1_sliceL_1_split
I0411 05:43:09.722941  1771 net.cpp:394] labels1_sliceL_1_split <- labels1
I0411 05:43:09.722952  1771 net.cpp:356] labels1_sliceL_1_split -> labels1_sliceL_1_split_0
I0411 05:43:09.722965  1771 net.cpp:356] labels1_sliceL_1_split -> labels1_sliceL_1_split_1
I0411 05:43:09.722976  1771 net.cpp:96] Setting up labels1_sliceL_1_split
I0411 05:43:09.722985  1771 net.cpp:103] Top shape: 32 1 1 1 (32)
I0411 05:43:09.722991  1771 net.cpp:103] Top shape: 32 1 1 1 (32)
I0411 05:43:09.723001  1771 net.cpp:67] Creating Layer labels2_sliceL_2_split
I0411 05:43:09.723009  1771 net.cpp:394] labels2_sliceL_2_split <- labels2
I0411 05:43:09.723021  1771 net.cpp:356] labels2_sliceL_2_split -> labels2_sliceL_2_split_0
I0411 05:43:09.723032  1771 net.cpp:356] labels2_sliceL_2_split -> labels2_sliceL_2_split_1
I0411 05:43:09.723043  1771 net.cpp:96] Setting up labels2_sliceL_2_split
I0411 05:43:09.723052  1771 net.cpp:103] Top shape: 32 1 1 1 (32)
I0411 05:43:09.723060  1771 net.cpp:103] Top shape: 32 1 1 1 (32)
I0411 05:43:09.723070  1771 net.cpp:67] Creating Layer labels3_sliceL_3_split
I0411 05:43:09.723109  1771 net.cpp:394] labels3_sliceL_3_split <- labels3
I0411 05:43:09.723124  1771 net.cpp:356] labels3_sliceL_3_split -> labels3_sliceL_3_split_0
I0411 05:43:09.723136  1771 net.cpp:356] labels3_sliceL_3_split -> labels3_sliceL_3_split_1
I0411 05:43:09.723148  1771 net.cpp:96] Setting up labels3_sliceL_3_split
I0411 05:43:09.723157  1771 net.cpp:103] Top shape: 32 1 1 1 (32)
I0411 05:43:09.723165  1771 net.cpp:103] Top shape: 32 1 1 1 (32)
I0411 05:43:09.723181  1771 net.cpp:67] Creating Layer conv1
I0411 05:43:09.723188  1771 net.cpp:394] conv1 <- data
I0411 05:43:09.723201  1771 net.cpp:356] conv1 -> conv1
I0411 05:43:09.723213  1771 net.cpp:96] Setting up conv1
I0411 05:43:09.724457  1771 net.cpp:103] Top shape: 32 96 55 55 (9292800)
I0411 05:43:09.724493  1771 net.cpp:67] Creating Layer relu1
I0411 05:43:09.724504  1771 net.cpp:394] relu1 <- conv1
I0411 05:43:09.724515  1771 net.cpp:345] relu1 -> conv1 (in-place)
I0411 05:43:09.724527  1771 net.cpp:96] Setting up relu1
I0411 05:43:09.724541  1771 net.cpp:103] Top shape: 32 96 55 55 (9292800)
I0411 05:43:09.724555  1771 net.cpp:67] Creating Layer pool1
I0411 05:43:09.724571  1771 net.cpp:394] pool1 <- conv1
I0411 05:43:09.724583  1771 net.cpp:356] pool1 -> pool1
I0411 05:43:09.724597  1771 net.cpp:96] Setting up pool1
I0411 05:43:09.724617  1771 net.cpp:103] Top shape: 32 96 27 27 (2239488)
I0411 05:43:09.724632  1771 net.cpp:67] Creating Layer norm1
I0411 05:43:09.724647  1771 net.cpp:394] norm1 <- pool1
I0411 05:43:09.724659  1771 net.cpp:356] norm1 -> norm1
I0411 05:43:09.724671  1771 net.cpp:96] Setting up norm1
I0411 05:43:09.724681  1771 net.cpp:103] Top shape: 32 96 27 27 (2239488)
I0411 05:43:09.724695  1771 net.cpp:67] Creating Layer conv2
I0411 05:43:09.724702  1771 net.cpp:394] conv2 <- norm1
I0411 05:43:09.724714  1771 net.cpp:356] conv2 -> conv2
I0411 05:43:09.724726  1771 net.cpp:96] Setting up conv2
I0411 05:43:09.734964  1771 net.cpp:103] Top shape: 32 256 27 27 (5971968)
I0411 05:43:09.735015  1771 net.cpp:67] Creating Layer relu2
I0411 05:43:09.735028  1771 net.cpp:394] relu2 <- conv2
I0411 05:43:09.735040  1771 net.cpp:345] relu2 -> conv2 (in-place)
I0411 05:43:09.735052  1771 net.cpp:96] Setting up relu2
I0411 05:43:09.735065  1771 net.cpp:103] Top shape: 32 256 27 27 (5971968)
I0411 05:43:09.735079  1771 net.cpp:67] Creating Layer pool2
I0411 05:43:09.735086  1771 net.cpp:394] pool2 <- conv2
I0411 05:43:09.735103  1771 net.cpp:356] pool2 -> pool2
I0411 05:43:09.735116  1771 net.cpp:96] Setting up pool2
I0411 05:43:09.735142  1771 net.cpp:103] Top shape: 32 256 13 13 (1384448)
I0411 05:43:09.735160  1771 net.cpp:67] Creating Layer norm2
I0411 05:43:09.735169  1771 net.cpp:394] norm2 <- pool2
I0411 05:43:09.735180  1771 net.cpp:356] norm2 -> norm2
I0411 05:43:09.735191  1771 net.cpp:96] Setting up norm2
I0411 05:43:09.735201  1771 net.cpp:103] Top shape: 32 256 13 13 (1384448)
I0411 05:43:09.735216  1771 net.cpp:67] Creating Layer conv3
I0411 05:43:09.735224  1771 net.cpp:394] conv3 <- norm2
I0411 05:43:09.735239  1771 net.cpp:356] conv3 -> conv3
I0411 05:43:09.735251  1771 net.cpp:96] Setting up conv3
I0411 05:43:09.764632  1771 net.cpp:103] Top shape: 32 384 13 13 (2076672)
I0411 05:43:09.764688  1771 net.cpp:67] Creating Layer relu3
I0411 05:43:09.764698  1771 net.cpp:394] relu3 <- conv3
I0411 05:43:09.764710  1771 net.cpp:345] relu3 -> conv3 (in-place)
I0411 05:43:09.764722  1771 net.cpp:96] Setting up relu3
I0411 05:43:09.764735  1771 net.cpp:103] Top shape: 32 384 13 13 (2076672)
I0411 05:43:09.764753  1771 net.cpp:67] Creating Layer conv4
I0411 05:43:09.764762  1771 net.cpp:394] conv4 <- conv3
I0411 05:43:09.764775  1771 net.cpp:356] conv4 -> conv4
I0411 05:43:09.764788  1771 net.cpp:96] Setting up conv4
I0411 05:43:09.786885  1771 net.cpp:103] Top shape: 32 384 13 13 (2076672)
I0411 05:43:09.786912  1771 net.cpp:67] Creating Layer relu4
I0411 05:43:09.786922  1771 net.cpp:394] relu4 <- conv4
I0411 05:43:09.786936  1771 net.cpp:345] relu4 -> conv4 (in-place)
I0411 05:43:09.786988  1771 net.cpp:96] Setting up relu4
I0411 05:43:09.787003  1771 net.cpp:103] Top shape: 32 384 13 13 (2076672)
I0411 05:43:09.787019  1771 net.cpp:67] Creating Layer conv5
I0411 05:43:09.787026  1771 net.cpp:394] conv5 <- conv4
I0411 05:43:09.787039  1771 net.cpp:356] conv5 -> conv5
I0411 05:43:09.787051  1771 net.cpp:96] Setting up conv5
I0411 05:43:09.802085  1771 net.cpp:103] Top shape: 32 256 13 13 (1384448)
I0411 05:43:09.802122  1771 net.cpp:67] Creating Layer relu5
I0411 05:43:09.802134  1771 net.cpp:394] relu5 <- conv5
I0411 05:43:09.802145  1771 net.cpp:345] relu5 -> conv5 (in-place)
I0411 05:43:09.802156  1771 net.cpp:96] Setting up relu5
I0411 05:43:09.802168  1771 net.cpp:103] Top shape: 32 256 13 13 (1384448)
I0411 05:43:09.802189  1771 net.cpp:67] Creating Layer pool5
I0411 05:43:09.802206  1771 net.cpp:394] pool5 <- conv5
I0411 05:43:09.802219  1771 net.cpp:356] pool5 -> pool5
I0411 05:43:09.802232  1771 net.cpp:96] Setting up pool5
I0411 05:43:09.802250  1771 net.cpp:103] Top shape: 32 256 6 6 (294912)
I0411 05:43:09.802265  1771 net.cpp:67] Creating Layer fc6
I0411 05:43:09.802281  1771 net.cpp:394] fc6 <- pool5
I0411 05:43:09.802305  1771 net.cpp:356] fc6 -> fc6
I0411 05:43:09.802320  1771 net.cpp:96] Setting up fc6
I0411 05:43:11.078956  1771 net.cpp:103] Top shape: 32 4096 1 1 (131072)
I0411 05:43:11.079028  1771 net.cpp:67] Creating Layer relu6
I0411 05:43:11.079041  1771 net.cpp:394] relu6 <- fc6
I0411 05:43:11.079056  1771 net.cpp:345] relu6 -> fc6 (in-place)
I0411 05:43:11.079072  1771 net.cpp:96] Setting up relu6
I0411 05:43:11.079099  1771 net.cpp:103] Top shape: 32 4096 1 1 (131072)
I0411 05:43:11.079114  1771 net.cpp:67] Creating Layer drop6
I0411 05:43:11.079123  1771 net.cpp:394] drop6 <- fc6
I0411 05:43:11.079133  1771 net.cpp:345] drop6 -> fc6 (in-place)
I0411 05:43:11.079144  1771 net.cpp:96] Setting up drop6
I0411 05:43:11.079154  1771 net.cpp:103] Top shape: 32 4096 1 1 (131072)
I0411 05:43:11.079170  1771 net.cpp:67] Creating Layer fc7
I0411 05:43:11.079180  1771 net.cpp:394] fc7 <- fc6
I0411 05:43:11.079191  1771 net.cpp:356] fc7 -> fc7
I0411 05:43:11.079205  1771 net.cpp:96] Setting up fc7
I0411 05:43:11.644855  1771 net.cpp:103] Top shape: 32 4096 1 1 (131072)
I0411 05:43:11.644923  1771 net.cpp:67] Creating Layer relu7
I0411 05:43:11.644937  1771 net.cpp:394] relu7 <- fc7
I0411 05:43:11.644950  1771 net.cpp:345] relu7 -> fc7 (in-place)
I0411 05:43:11.644970  1771 net.cpp:96] Setting up relu7
I0411 05:43:11.644999  1771 net.cpp:103] Top shape: 32 4096 1 1 (131072)
I0411 05:43:11.645017  1771 net.cpp:67] Creating Layer drop7
I0411 05:43:11.645028  1771 net.cpp:394] drop7 <- fc7
I0411 05:43:11.645040  1771 net.cpp:345] drop7 -> fc7 (in-place)
I0411 05:43:11.645051  1771 net.cpp:96] Setting up drop7
I0411 05:43:11.645061  1771 net.cpp:103] Top shape: 32 4096 1 1 (131072)
I0411 05:43:11.645074  1771 net.cpp:67] Creating Layer fc8_deepfashion
I0411 05:43:11.645081  1771 net.cpp:394] fc8_deepfashion <- fc7
I0411 05:43:11.645098  1771 net.cpp:356] fc8_deepfashion -> fc8_deepfashion
I0411 05:43:11.645113  1771 net.cpp:96] Setting up fc8_deepfashion
I0411 05:43:11.651890  1771 net.cpp:103] Top shape: 32 48 1 1 (1536)
I0411 05:43:11.651917  1771 net.cpp:67] Creating Layer fc8_deepfashion_encode
I0411 05:43:11.651927  1771 net.cpp:394] fc8_deepfashion_encode <- fc8_deepfashion
I0411 05:43:11.651942  1771 net.cpp:356] fc8_deepfashion_encode -> fc8_deepfashion_encode
I0411 05:43:11.651955  1771 net.cpp:96] Setting up fc8_deepfashion_encode
I0411 05:43:11.651970  1771 net.cpp:103] Top shape: 32 48 1 1 (1536)
I0411 05:43:11.651983  1771 net.cpp:67] Creating Layer fc8_deepfashion_encode_fc8_deepfashion_encode_0_split
I0411 05:43:11.651991  1771 net.cpp:394] fc8_deepfashion_encode_fc8_deepfashion_encode_0_split <- fc8_deepfashion_encode
I0411 05:43:11.652005  1771 net.cpp:356] fc8_deepfashion_encode_fc8_deepfashion_encode_0_split -> fc8_deepfashion_encode_fc8_deepfashion_encode_0_split_0
I0411 05:43:11.652019  1771 net.cpp:356] fc8_deepfashion_encode_fc8_deepfashion_encode_0_split -> fc8_deepfashion_encode_fc8_deepfashion_encode_0_split_1
I0411 05:43:11.652068  1771 net.cpp:356] fc8_deepfashion_encode_fc8_deepfashion_encode_0_split -> fc8_deepfashion_encode_fc8_deepfashion_encode_0_split_2
I0411 05:43:11.652083  1771 net.cpp:356] fc8_deepfashion_encode_fc8_deepfashion_encode_0_split -> fc8_deepfashion_encode_fc8_deepfashion_encode_0_split_3
I0411 05:43:11.652108  1771 net.cpp:96] Setting up fc8_deepfashion_encode_fc8_deepfashion_encode_0_split
I0411 05:43:11.652118  1771 net.cpp:103] Top shape: 32 48 1 1 (1536)
I0411 05:43:11.652125  1771 net.cpp:103] Top shape: 32 48 1 1 (1536)
I0411 05:43:11.652132  1771 net.cpp:103] Top shape: 32 48 1 1 (1536)
I0411 05:43:11.652145  1771 net.cpp:103] Top shape: 32 48 1 1 (1536)
I0411 05:43:11.652158  1771 net.cpp:67] Creating Layer fc8_pascal_label_mod
I0411 05:43:11.652175  1771 net.cpp:394] fc8_pascal_label_mod <- fc8_deepfashion_encode_fc8_deepfashion_encode_0_split_0
I0411 05:43:11.652192  1771 net.cpp:356] fc8_pascal_label_mod -> fc8_pascal_label_mod
I0411 05:43:11.652216  1771 net.cpp:96] Setting up fc8_pascal_label_mod
I0411 05:43:11.652259  1771 net.cpp:103] Top shape: 32 10 1 1 (320)
I0411 05:43:11.652307  1771 net.cpp:67] Creating Layer fc8_pascal_label_mod_fc8_pascal_label_mod_0_split
I0411 05:43:11.652330  1771 net.cpp:394] fc8_pascal_label_mod_fc8_pascal_label_mod_0_split <- fc8_pascal_label_mod
I0411 05:43:11.652349  1771 net.cpp:356] fc8_pascal_label_mod_fc8_pascal_label_mod_0_split -> fc8_pascal_label_mod_fc8_pascal_label_mod_0_split_0
I0411 05:43:11.652370  1771 net.cpp:356] fc8_pascal_label_mod_fc8_pascal_label_mod_0_split -> fc8_pascal_label_mod_fc8_pascal_label_mod_0_split_1
I0411 05:43:11.652384  1771 net.cpp:96] Setting up fc8_pascal_label_mod_fc8_pascal_label_mod_0_split
I0411 05:43:11.652391  1771 net.cpp:103] Top shape: 32 10 1 1 (320)
I0411 05:43:11.652400  1771 net.cpp:103] Top shape: 32 10 1 1 (320)
I0411 05:43:11.652416  1771 net.cpp:67] Creating Layer fc8_pascal_color_mod
I0411 05:43:11.652426  1771 net.cpp:394] fc8_pascal_color_mod <- fc8_deepfashion_encode_fc8_deepfashion_encode_0_split_1
I0411 05:43:11.652437  1771 net.cpp:356] fc8_pascal_color_mod -> fc8_pascal_color_mod
I0411 05:43:11.652449  1771 net.cpp:96] Setting up fc8_pascal_color_mod
I0411 05:43:11.652503  1771 net.cpp:103] Top shape: 32 16 1 1 (512)
I0411 05:43:11.652529  1771 net.cpp:67] Creating Layer fc8_pascal_color_mod_fc8_pascal_color_mod_0_split
I0411 05:43:11.652539  1771 net.cpp:394] fc8_pascal_color_mod_fc8_pascal_color_mod_0_split <- fc8_pascal_color_mod
I0411 05:43:11.652550  1771 net.cpp:356] fc8_pascal_color_mod_fc8_pascal_color_mod_0_split -> fc8_pascal_color_mod_fc8_pascal_color_mod_0_split_0
I0411 05:43:11.652578  1771 net.cpp:356] fc8_pascal_color_mod_fc8_pascal_color_mod_0_split -> fc8_pascal_color_mod_fc8_pascal_color_mod_0_split_1
I0411 05:43:11.652590  1771 net.cpp:96] Setting up fc8_pascal_color_mod_fc8_pascal_color_mod_0_split
I0411 05:43:11.652600  1771 net.cpp:103] Top shape: 32 16 1 1 (512)
I0411 05:43:11.652607  1771 net.cpp:103] Top shape: 32 16 1 1 (512)
I0411 05:43:11.652618  1771 net.cpp:67] Creating Layer fc8_pascal_fabric_mod
I0411 05:43:11.652627  1771 net.cpp:394] fc8_pascal_fabric_mod <- fc8_deepfashion_encode_fc8_deepfashion_encode_0_split_2
I0411 05:43:11.652642  1771 net.cpp:356] fc8_pascal_fabric_mod -> fc8_pascal_fabric_mod
I0411 05:43:11.652655  1771 net.cpp:96] Setting up fc8_pascal_fabric_mod
I0411 05:43:11.652717  1771 net.cpp:103] Top shape: 32 21 1 1 (672)
I0411 05:43:11.652740  1771 net.cpp:67] Creating Layer fc8_pascal_fabric_mod_fc8_pascal_fabric_mod_0_split
I0411 05:43:11.652748  1771 net.cpp:394] fc8_pascal_fabric_mod_fc8_pascal_fabric_mod_0_split <- fc8_pascal_fabric_mod
I0411 05:43:11.652766  1771 net.cpp:356] fc8_pascal_fabric_mod_fc8_pascal_fabric_mod_0_split -> fc8_pascal_fabric_mod_fc8_pascal_fabric_mod_0_split_0
I0411 05:43:11.652781  1771 net.cpp:356] fc8_pascal_fabric_mod_fc8_pascal_fabric_mod_0_split -> fc8_pascal_fabric_mod_fc8_pascal_fabric_mod_0_split_1
I0411 05:43:11.652793  1771 net.cpp:96] Setting up fc8_pascal_fabric_mod_fc8_pascal_fabric_mod_0_split
I0411 05:43:11.652817  1771 net.cpp:103] Top shape: 32 21 1 1 (672)
I0411 05:43:11.652827  1771 net.cpp:103] Top shape: 32 21 1 1 (672)
I0411 05:43:11.652848  1771 net.cpp:67] Creating Layer fc8_pascal_style_mod
I0411 05:43:11.652858  1771 net.cpp:394] fc8_pascal_style_mod <- fc8_deepfashion_encode_fc8_deepfashion_encode_0_split_3
I0411 05:43:11.652869  1771 net.cpp:356] fc8_pascal_style_mod -> fc8_pascal_style_mod
I0411 05:43:11.652883  1771 net.cpp:96] Setting up fc8_pascal_style_mod
I0411 05:43:11.652916  1771 net.cpp:103] Top shape: 32 8 1 1 (256)
I0411 05:43:11.652937  1771 net.cpp:67] Creating Layer fc8_pascal_style_mod_fc8_pascal_style_mod_0_split
I0411 05:43:11.652946  1771 net.cpp:394] fc8_pascal_style_mod_fc8_pascal_style_mod_0_split <- fc8_pascal_style_mod
I0411 05:43:11.652961  1771 net.cpp:356] fc8_pascal_style_mod_fc8_pascal_style_mod_0_split -> fc8_pascal_style_mod_fc8_pascal_style_mod_0_split_0
I0411 05:43:11.652982  1771 net.cpp:356] fc8_pascal_style_mod_fc8_pascal_style_mod_0_split -> fc8_pascal_style_mod_fc8_pascal_style_mod_0_split_1
I0411 05:43:11.652994  1771 net.cpp:96] Setting up fc8_pascal_style_mod_fc8_pascal_style_mod_0_split
I0411 05:43:11.653003  1771 net.cpp:103] Top shape: 32 8 1 1 (256)
I0411 05:43:11.653010  1771 net.cpp:103] Top shape: 32 8 1 1 (256)
I0411 05:43:11.653023  1771 net.cpp:67] Creating Layer loss
I0411 05:43:11.653030  1771 net.cpp:394] loss <- fc8_pascal_label_mod_fc8_pascal_label_mod_0_split_0
I0411 05:43:11.653041  1771 net.cpp:394] loss <- labels0_sliceL_0_split_0
I0411 05:43:11.653059  1771 net.cpp:356] loss -> (automatic)
I0411 05:43:11.653069  1771 net.cpp:96] Setting up loss
I0411 05:43:11.653082  1771 net.cpp:103] Top shape: 1 1 1 1 (1)
I0411 05:43:11.653091  1771 net.cpp:109]     with loss weight 1
I0411 05:43:11.653127  1771 net.cpp:67] Creating Layer loss
I0411 05:43:11.653138  1771 net.cpp:394] loss <- fc8_pascal_color_mod_fc8_pascal_color_mod_0_split_0
I0411 05:43:11.653148  1771 net.cpp:394] loss <- labels1_sliceL_1_split_0
I0411 05:43:11.653159  1771 net.cpp:356] loss -> (automatic)
I0411 05:43:11.653169  1771 net.cpp:96] Setting up loss
I0411 05:43:11.653187  1771 net.cpp:103] Top shape: 1 1 1 1 (1)
I0411 05:43:11.653197  1771 net.cpp:109]     with loss weight 1
I0411 05:43:11.653213  1771 net.cpp:67] Creating Layer loss
I0411 05:43:11.653221  1771 net.cpp:394] loss <- fc8_pascal_fabric_mod_fc8_pascal_fabric_mod_0_split_0
I0411 05:43:11.653234  1771 net.cpp:394] loss <- labels2_sliceL_2_split_0
I0411 05:43:11.653245  1771 net.cpp:356] loss -> (automatic)
I0411 05:43:11.653259  1771 net.cpp:96] Setting up loss
I0411 05:43:11.653270  1771 net.cpp:103] Top shape: 1 1 1 1 (1)
I0411 05:43:11.653277  1771 net.cpp:109]     with loss weight 1
I0411 05:43:11.653292  1771 net.cpp:67] Creating Layer loss
I0411 05:43:11.653301  1771 net.cpp:394] loss <- fc8_pascal_style_mod_fc8_pascal_style_mod_0_split_0
I0411 05:43:11.653309  1771 net.cpp:394] loss <- labels3_sliceL_3_split_0
I0411 05:43:11.653327  1771 net.cpp:356] loss -> (automatic)
I0411 05:43:11.653347  1771 net.cpp:96] Setting up loss
I0411 05:43:11.653358  1771 net.cpp:103] Top shape: 1 1 1 1 (1)
I0411 05:43:11.653368  1771 net.cpp:109]     with loss weight 1
I0411 05:43:11.653388  1771 net.cpp:67] Creating Layer accuracy0
I0411 05:43:11.653398  1771 net.cpp:394] accuracy0 <- fc8_pascal_label_mod_fc8_pascal_label_mod_0_split_1
I0411 05:43:11.653408  1771 net.cpp:394] accuracy0 <- labels0_sliceL_0_split_1
I0411 05:43:11.653419  1771 net.cpp:356] accuracy0 -> labelAccuracy
I0411 05:43:11.653430  1771 net.cpp:96] Setting up accuracy0
I0411 05:43:11.653445  1771 net.cpp:103] Top shape: 1 1 1 1 (1)
I0411 05:43:11.653460  1771 net.cpp:67] Creating Layer accuracy1
I0411 05:43:11.653468  1771 net.cpp:394] accuracy1 <- fc8_pascal_color_mod_fc8_pascal_color_mod_0_split_1
I0411 05:43:11.653477  1771 net.cpp:394] accuracy1 <- labels1_sliceL_1_split_1
I0411 05:43:11.653488  1771 net.cpp:356] accuracy1 -> colorAccuracy
I0411 05:43:11.653501  1771 net.cpp:96] Setting up accuracy1
I0411 05:43:11.653522  1771 net.cpp:103] Top shape: 1 1 1 1 (1)
I0411 05:43:11.653534  1771 net.cpp:67] Creating Layer accuracy2
I0411 05:43:11.653542  1771 net.cpp:394] accuracy2 <- fc8_pascal_fabric_mod_fc8_pascal_fabric_mod_0_split_1
I0411 05:43:11.653553  1771 net.cpp:394] accuracy2 <- labels2_sliceL_2_split_1
I0411 05:43:11.653568  1771 net.cpp:356] accuracy2 -> fabricAccuracy
I0411 05:43:11.653579  1771 net.cpp:96] Setting up accuracy2
I0411 05:43:11.653587  1771 net.cpp:103] Top shape: 1 1 1 1 (1)
I0411 05:43:11.653599  1771 net.cpp:67] Creating Layer accuracy3
I0411 05:43:11.653606  1771 net.cpp:394] accuracy3 <- fc8_pascal_style_mod_fc8_pascal_style_mod_0_split_1
I0411 05:43:11.653615  1771 net.cpp:394] accuracy3 <- labels3_sliceL_3_split_1
I0411 05:43:11.653626  1771 net.cpp:356] accuracy3 -> styleAccuracy
I0411 05:43:11.653637  1771 net.cpp:96] Setting up accuracy3
I0411 05:43:11.653645  1771 net.cpp:103] Top shape: 1 1 1 1 (1)
I0411 05:43:11.653656  1771 net.cpp:67] Creating Layer silence
I0411 05:43:11.653662  1771 net.cpp:394] silence <- random
I0411 05:43:11.653671  1771 net.cpp:96] Setting up silence
I0411 05:43:11.653678  1771 net.cpp:172] silence does not need backward computation.
I0411 05:43:11.653686  1771 net.cpp:172] accuracy3 does not need backward computation.
I0411 05:43:11.653692  1771 net.cpp:172] accuracy2 does not need backward computation.
…
