…
I0410 21:20:15.364789  5980 net.cpp:39] Initializing net from parameters: 
name: "deepFashion"
layers {
  top: "data"
  top: "random"
  name: "data"
  type: DATA
  data_param {
    source: "/data/deepfashion/multimodal/multimodal_TRAIN"
    batch_size: 32
    backend: LMDB
  }
  include {
    phase: TRAIN
  }
  transform_param {
    mirror: true
    crop_size: 227
    mean_file: "../../../data/ilsvrc12/imagenet_mean.binaryproto"
  }
}
layers {
  top: "labels"
  name: "labels"
  type: DATA
  data_param {
    source: "/data/deepfashion/multimodal/multimodal_TRAIN_ALT"
    batch_size: 32
    backend: LMDB
  }
  include {
    phase: TRAIN
  }
}
layers {
  bottom: "labels"
  top: "labels0"
  top: "labels1"
  top: "labels2"
  top: "labels3"
  name: "sliceL"
  type: SLICE
  slice_param {
    slice_point: 1
    slice_point: 2
    slice_point: 3
  }
}
layers {
  bottom: "data"
  top: "conv1"
  name: "conv1"
  type: CONVOLUTION
  blobs_lr: 1
  blobs_lr: 2
  weight_decay: 1
  weight_decay: 0
  convolution_param {
    num_output: 96
    kernel_size: 11
    stride: 4
    weight_filler {
      type: "gaussian"
      std: 0.01
    }
    bias_filler {
      type: "constant"
      value: 0
    }
  }
}
layers {
  bottom: "conv1"
  top: "conv1"
  name: "relu1"
  type: RELU
}
layers {
  bottom: "conv1"
  top: "pool1"
  name: "pool1"
  type: POOLING
  pooling_param {
    pool: MAX
    kernel_size: 3
    stride: 2
  }
}
layers {
  bottom: "pool1"
  top: "norm1"
  name: "norm1"
  type: LRN
  lrn_param {
    local_size: 5
    alpha: 0.0001
    beta: 0.75
  }
}
layers {
  bottom: "norm1"
  top: "conv2"
  name: "conv2"
  type: CONVOLUTION
  blobs_lr: 1
  blobs_lr: 2
  weight_decay: 1
  weight_decay: 0
  convolution_param {
    num_output: 256
    pad: 2
    kernel_size: 5
    group: 2
    weight_filler {
      type: "gaussian"
      std: 0.01
    }
    bias_filler {
      type: "constant"
      value: 1
    }
  }
}
layers {
  bottom: "conv2"
  top: "conv2"
  name: "relu2"
  type: RELU
}
layers {
  bottom: "conv2"
  top: "pool2"
  name: "pool2"
  type: POOLING
  pooling_param {
    pool: MAX
    kernel_size: 3
    stride: 2
  }
}
layers {
  bottom: "pool2"
  top: "norm2"
  name: "norm2"
  type: LRN
  lrn_param {
    local_size: 5
    alpha: 0.0001
    beta: 0.75
  }
}
layers {
  bottom: "norm2"
  top: "conv3"
  name: "conv3"
  type: CONVOLUTION
  blobs_lr: 1
  blobs_lr: 2
  weight_decay: 1
  weight_decay: 0
  convolution_param {
    num_output: 384
    pad: 1
    kernel_size: 3
    weight_filler {
      type: "gaussian"
      std: 0.01
    }
    bias_filler {
      type: "constant"
      value: 0
    }
  }
}
layers {
  bottom: "conv3"
  top: "conv3"
  name: "relu3"
  type: RELU
}
layers {
  bottom: "conv3"
  top: "conv4"
  name: "conv4"
  type: CONVOLUTION
  blobs_lr: 1
  blobs_lr: 2
  weight_decay: 1
  weight_decay: 0
  convolution_param {
    num_output: 384
    pad: 1
    kernel_size: 3
    group: 2
    weight_filler {
      type: "gaussian"
      std: 0.01
    }
    bias_filler {
      type: "constant"
      value: 1
    }
  }
}
layers {
  bottom: "conv4"
  top: "conv4"
  name: "relu4"
  type: RELU
}
layers {
  bottom: "conv4"
  top: "conv5"
  name: "conv5"
  type: CONVOLUTION
  blobs_lr: 1
  blobs_lr: 2
  weight_decay: 1
  weight_decay: 0
  convolution_param {
    num_output: 256
    pad: 1
    kernel_size: 3
    group: 2
    weight_filler {
      type: "gaussian"
      std: 0.01
    }
    bias_filler {
      type: "constant"
      value: 1
    }
  }
}
layers {
  bottom: "conv5"
  top: "conv5"
  name: "relu5"
  type: RELU
}
layers {
  bottom: "conv5"
  top: "pool5"
  name: "pool5"
  type: POOLING
  pooling_param {
    pool: MAX
    kernel_size: 3
    stride: 2
  }
}
layers {
  bottom: "pool5"
  top: "fc6"
  name: "fc6"
  type: INNER_PRODUCT
  blobs_lr: 1
  blobs_lr: 2
  weight_decay: 1
  weight_decay: 0
  inner_product_param {
    num_output: 4096
    weight_filler {
      type: "gaussian"
      std: 0.005
    }
    bias_filler {
      type: "constant"
      value: 1
    }
  }
}
layers {
  bottom: "fc6"
  top: "fc6"
  name: "relu6"
  type: RELU
}
layers {
  bottom: "fc6"
  top: "fc6"
  name: "drop6"
  type: DROPOUT
  dropout_param {
    dropout_ratio: 0.5
  }
}
layers {
  bottom: "fc6"
  top: "fc7"
  name: "fc7"
  type: INNER_PRODUCT
  blobs_lr: 1
  blobs_lr: 2
  weight_decay: 1
  weight_decay: 0
  inner_product_param {
    num_output: 4096
    weight_filler {
      type: "gaussian"
      std: 0.005
    }
    bias_filler {
      type: "constant"
      value: 1
    }
  }
}
layers {
  bottom: "fc7"
  top: "fc7"
  name: "relu7"
  type: RELU
}
layers {
  bottom: "fc7"
  top: "fc7"
  name: "drop7"
  type: DROPOUT
  dropout_param {
    dropout_ratio: 0.5
  }
}
layers {
  bottom: "fc7"
  top: "fc8_deepfashion"
  name: "fc8_deepfashion"
  type: INNER_PRODUCT
  blobs_lr: 1
  blobs_lr: 2
  weight_decay: 1
  weight_decay: 0
  inner_product_param {
    num_output: 48
    weight_filler {
      type: "gaussian"
      std: 0.01
    }
    bias_filler {
      type: "constant"
      value: 0
    }
  }
}
layers {
  bottom: "fc8_deepfashion"
  top: "fc8_deepfashion_encode"
  name: "fc8_deepfashion_encode"
  type: SIGMOID
}
layers {
  bottom: "fc8_deepfashion_encode"
  top: "fc8_pascal_label_mod"
  name: "fc8_pascal_label_mod"
  type: INNER_PRODUCT
  blobs_lr: 1
  blobs_lr: 2
  weight_decay: 1
  weight_decay: 0
  inner_product_param {
    num_output: 10
    weight_filler {
      type: "gaussian"
      std: 0.01
    }
    bias_filler {
      type: "constant"
      value: 0
    }
  }
}
layers {
  bottom: "fc8_deepfashion_encode"
  top: "fc8_pascal_color_mod"
  name: "fc8_pascal_color_mod"
  type: INNER_PRODUCT
  blobs_lr: 1
  blobs_lr: 2
  weight_decay: 1
  weight_decay: 0
  inner_product_param {
    num_output: 16
    weight_filler {
      type: "gaussian"
      std: 0.01
    }
    bias_filler {
      type: "constant"
      value: 0
    }
  }
}
layers {
  bottom: "fc8_deepfashion_encode"
  top: "fc8_pascal_fabric_mod"
  name: "fc8_pascal_fabric_mod"
  type: INNER_PRODUCT
  blobs_lr: 1
  blobs_lr: 2
  weight_decay: 1
  weight_decay: 0
  inner_product_param {
    num_output: 21
    weight_filler {
      type: "gaussian"
      std: 0.01
    }
    bias_filler {
      type: "constant"
      value: 0
    }
  }
}
layers {
  bottom: "fc8_deepfashion_encode"
  top: "fc8_pascal_style_mod"
  name: "fc8_pascal_style_mod"
  type: INNER_PRODUCT
  blobs_lr: 1
  blobs_lr: 2
  weight_decay: 1
  weight_decay: 0
  inner_product_param {
    num_output: 8
    weight_filler {
      type: "gaussian"
      std: 0.01
    }
    bias_filler {
      type: "constant"
      value: 0
    }
  }
}
layers {
  bottom: "fc8_pascal_label_mod"
  bottom: "labels0"
  name: "loss"
  type: SOFTMAX_LOSS
}
layers {
  bottom: "fc8_pascal_color_mod"
  bottom: "labels1"
  name: "loss"
  type: SOFTMAX_LOSS
}
layers {
  bottom: "fc8_pascal_fabric_mod"
  bottom: "labels2"
  name: "loss"
  type: SOFTMAX_LOSS
}
layers {
  bottom: "fc8_pascal_style_mod"
  bottom: "labels3"
  name: "loss"
  type: SOFTMAX_LOSS
}
layers {
  bottom: "random"
  name: "silence"
  type: SILENCE
}
state {
  phase: TRAIN
}
I0410 21:20:15.365061  5980 net.cpp:67] Creating Layer data
I0410 21:20:15.365080  5980 net.cpp:356] data -> data
I0410 21:20:15.365108  5980 net.cpp:356] data -> random
I0410 21:20:15.365131  5980 net.cpp:96] Setting up data
I0410 21:20:15.365272  5980 data_layer.cpp:68] Opening lmdb /data/deepfashion/multimodal/multimodal_TRAIN
I0410 21:20:15.365525  5980 data_layer.cpp:128] output data size: 32,3,227,227
I0410 21:20:15.365538  5980 base_data_layer.cpp:36] Loading mean file from../../../data/ilsvrc12/imagenet_mean.binaryproto
I0410 21:20:15.373095  5980 net.cpp:103] Top shape: 32 3 227 227 (4946784)
I0410 21:20:15.373129  5980 net.cpp:103] Top shape: 32 1 1 1 (32)
I0410 21:20:15.373150  5980 net.cpp:67] Creating Layer labels
I0410 21:20:15.373162  5980 net.cpp:356] labels -> labels
I0410 21:20:15.373180  5980 net.cpp:96] Setting up labels
I0410 21:20:15.373265  5980 data_layer.cpp:68] Opening lmdb /data/deepfashion/multimodal/multimodal_TRAIN_ALT
I0410 21:20:15.373297  5980 data_layer.cpp:128] output data size: 32,4,1,1
I0410 21:20:15.373354  5980 net.cpp:103] Top shape: 32 4 1 1 (128)
I0410 21:20:15.373378  5980 net.cpp:67] Creating Layer sliceL
I0410 21:20:15.373422  5980 net.cpp:394] sliceL <- labels
I0410 21:20:15.373447  5980 net.cpp:356] sliceL -> labels0
I0410 21:20:15.373463  5980 net.cpp:356] sliceL -> labels1
I0410 21:20:15.373478  5980 net.cpp:356] sliceL -> labels2
I0410 21:20:15.373492  5980 net.cpp:356] sliceL -> labels3
I0410 21:20:15.373514  5980 net.cpp:96] Setting up sliceL
I0410 21:20:15.373531  5980 net.cpp:103] Top shape: 32 1 1 1 (32)
I0410 21:20:15.373543  5980 net.cpp:103] Top shape: 32 1 1 1 (32)
I0410 21:20:15.373550  5980 net.cpp:103] Top shape: 32 1 1 1 (32)
I0410 21:20:15.373558  5980 net.cpp:103] Top shape: 32 1 1 1 (32)
I0410 21:20:15.373572  5980 net.cpp:67] Creating Layer conv1
I0410 21:20:15.373580  5980 net.cpp:394] conv1 <- data
I0410 21:20:15.373597  5980 net.cpp:356] conv1 -> conv1
I0410 21:20:15.373613  5980 net.cpp:96] Setting up conv1
I0410 21:20:15.395452  5980 net.cpp:103] Top shape: 32 96 55 55 (9292800)
I0410 21:20:15.395514  5980 net.cpp:67] Creating Layer relu1
I0410 21:20:15.395525  5980 net.cpp:394] relu1 <- conv1
I0410 21:20:15.395539  5980 net.cpp:345] relu1 -> conv1 (in-place)
I0410 21:20:15.395551  5980 net.cpp:96] Setting up relu1
I0410 21:20:15.395570  5980 net.cpp:103] Top shape: 32 96 55 55 (9292800)
I0410 21:20:15.395587  5980 net.cpp:67] Creating Layer pool1
I0410 21:20:15.395596  5980 net.cpp:394] pool1 <- conv1
I0410 21:20:15.395607  5980 net.cpp:356] pool1 -> pool1
I0410 21:20:15.395622  5980 net.cpp:96] Setting up pool1
I0410 21:20:15.395658  5980 net.cpp:103] Top shape: 32 96 27 27 (2239488)
I0410 21:20:15.395684  5980 net.cpp:67] Creating Layer norm1
I0410 21:20:15.395694  5980 net.cpp:394] norm1 <- pool1
I0410 21:20:15.395704  5980 net.cpp:356] norm1 -> norm1
I0410 21:20:15.395716  5980 net.cpp:96] Setting up norm1
I0410 21:20:15.395730  5980 net.cpp:103] Top shape: 32 96 27 27 (2239488)
I0410 21:20:15.395751  5980 net.cpp:67] Creating Layer conv2
I0410 21:20:15.395768  5980 net.cpp:394] conv2 <- norm1
I0410 21:20:15.395781  5980 net.cpp:356] conv2 -> conv2
I0410 21:20:15.395799  5980 net.cpp:96] Setting up conv2
I0410 21:20:15.406059  5980 net.cpp:103] Top shape: 32 256 27 27 (5971968)
I0410 21:20:15.406090  5980 net.cpp:67] Creating Layer relu2
I0410 21:20:15.406100  5980 net.cpp:394] relu2 <- conv2
I0410 21:20:15.406114  5980 net.cpp:345] relu2 -> conv2 (in-place)
I0410 21:20:15.406127  5980 net.cpp:96] Setting up relu2
I0410 21:20:15.406141  5980 net.cpp:103] Top shape: 32 256 27 27 (5971968)
I0410 21:20:15.406152  5980 net.cpp:67] Creating Layer pool2
I0410 21:20:15.406160  5980 net.cpp:394] pool2 <- conv2
I0410 21:20:15.406172  5980 net.cpp:356] pool2 -> pool2
I0410 21:20:15.406183  5980 net.cpp:96] Setting up pool2
I0410 21:20:15.406196  5980 net.cpp:103] Top shape: 32 256 13 13 (1384448)
I0410 21:20:15.406226  5980 net.cpp:67] Creating Layer norm2
I0410 21:20:15.406235  5980 net.cpp:394] norm2 <- pool2
I0410 21:20:15.406246  5980 net.cpp:356] norm2 -> norm2
I0410 21:20:15.406258  5980 net.cpp:96] Setting up norm2
I0410 21:20:15.406291  5980 net.cpp:103] Top shape: 32 256 13 13 (1384448)
I0410 21:20:15.406313  5980 net.cpp:67] Creating Layer conv3
I0410 21:20:15.406322  5980 net.cpp:394] conv3 <- norm2
I0410 21:20:15.406334  5980 net.cpp:356] conv3 -> conv3
I0410 21:20:15.406347  5980 net.cpp:96] Setting up conv3
I0410 21:20:15.436244  5980 net.cpp:103] Top shape: 32 384 13 13 (2076672)
I0410 21:20:15.436305  5980 net.cpp:67] Creating Layer relu3
I0410 21:20:15.436316  5980 net.cpp:394] relu3 <- conv3
I0410 21:20:15.436331  5980 net.cpp:345] relu3 -> conv3 (in-place)
I0410 21:20:15.436344  5980 net.cpp:96] Setting up relu3
I0410 21:20:15.436357  5980 net.cpp:103] Top shape: 32 384 13 13 (2076672)
I0410 21:20:15.436372  5980 net.cpp:67] Creating Layer conv4
I0410 21:20:15.436379  5980 net.cpp:394] conv4 <- conv3
I0410 21:20:15.436394  5980 net.cpp:356] conv4 -> conv4
I0410 21:20:15.436408  5980 net.cpp:96] Setting up conv4
I0410 21:20:15.458483  5980 net.cpp:103] Top shape: 32 384 13 13 (2076672)
I0410 21:20:15.458514  5980 net.cpp:67] Creating Layer relu4
I0410 21:20:15.458525  5980 net.cpp:394] relu4 <- conv4
I0410 21:20:15.458537  5980 net.cpp:345] relu4 -> conv4 (in-place)
I0410 21:20:15.458549  5980 net.cpp:96] Setting up relu4
I0410 21:20:15.458562  5980 net.cpp:103] Top shape: 32 384 13 13 (2076672)
I0410 21:20:15.458575  5980 net.cpp:67] Creating Layer conv5
I0410 21:20:15.458585  5980 net.cpp:394] conv5 <- conv4
I0410 21:20:15.458600  5980 net.cpp:356] conv5 -> conv5
I0410 21:20:15.458612  5980 net.cpp:96] Setting up conv5
I0410 21:20:15.473253  5980 net.cpp:103] Top shape: 32 256 13 13 (1384448)
I0410 21:20:15.473290  5980 net.cpp:67] Creating Layer relu5
I0410 21:20:15.473301  5980 net.cpp:394] relu5 <- conv5
I0410 21:20:15.473314  5980 net.cpp:345] relu5 -> conv5 (in-place)
I0410 21:20:15.473325  5980 net.cpp:96] Setting up relu5
I0410 21:20:15.473343  5980 net.cpp:103] Top shape: 32 256 13 13 (1384448)
I0410 21:20:15.473356  5980 net.cpp:67] Creating Layer pool5
I0410 21:20:15.473364  5980 net.cpp:394] pool5 <- conv5
I0410 21:20:15.473376  5980 net.cpp:356] pool5 -> pool5
I0410 21:20:15.473394  5980 net.cpp:96] Setting up pool5
I0410 21:20:15.473422  5980 net.cpp:103] Top shape: 32 256 6 6 (294912)
I0410 21:20:15.473445  5980 net.cpp:67] Creating Layer fc6
I0410 21:20:15.473454  5980 net.cpp:394] fc6 <- pool5
I0410 21:20:15.473466  5980 net.cpp:356] fc6 -> fc6
I0410 21:20:15.473479  5980 net.cpp:96] Setting up fc6
I0410 21:20:16.693898  5980 net.cpp:103] Top shape: 32 4096 1 1 (131072)
I0410 21:20:16.693954  5980 net.cpp:67] Creating Layer relu6
I0410 21:20:16.693964  5980 net.cpp:394] relu6 <- fc6
I0410 21:20:16.693982  5980 net.cpp:345] relu6 -> fc6 (in-place)
I0410 21:20:16.693997  5980 net.cpp:96] Setting up relu6
I0410 21:20:16.694020  5980 net.cpp:103] Top shape: 32 4096 1 1 (131072)
I0410 21:20:16.694033  5980 net.cpp:67] Creating Layer drop6
I0410 21:20:16.694041  5980 net.cpp:394] drop6 <- fc6
I0410 21:20:16.694052  5980 net.cpp:345] drop6 -> fc6 (in-place)
I0410 21:20:16.694063  5980 net.cpp:96] Setting up drop6
I0410 21:20:16.694078  5980 net.cpp:103] Top shape: 32 4096 1 1 (131072)
I0410 21:20:16.694092  5980 net.cpp:67] Creating Layer fc7
I0410 21:20:16.694110  5980 net.cpp:394] fc7 <- fc6
I0410 21:20:16.694123  5980 net.cpp:356] fc7 -> fc7
I0410 21:20:16.694138  5980 net.cpp:96] Setting up fc7
I0410 21:20:17.237500  5980 net.cpp:103] Top shape: 32 4096 1 1 (131072)
I0410 21:20:17.237558  5980 net.cpp:67] Creating Layer relu7
I0410 21:20:17.237570  5980 net.cpp:394] relu7 <- fc7
I0410 21:20:17.237582  5980 net.cpp:345] relu7 -> fc7 (in-place)
I0410 21:20:17.237596  5980 net.cpp:96] Setting up relu7
I0410 21:20:17.237618  5980 net.cpp:103] Top shape: 32 4096 1 1 (131072)
I0410 21:20:17.237638  5980 net.cpp:67] Creating Layer drop7
I0410 21:20:17.237684  5980 net.cpp:394] drop7 <- fc7
I0410 21:20:17.237696  5980 net.cpp:345] drop7 -> fc7 (in-place)
I0410 21:20:17.237707  5980 net.cpp:96] Setting up drop7
I0410 21:20:17.237715  5980 net.cpp:103] Top shape: 32 4096 1 1 (131072)
I0410 21:20:17.237730  5980 net.cpp:67] Creating Layer fc8_deepfashion
I0410 21:20:17.237736  5980 net.cpp:394] fc8_deepfashion <- fc7
I0410 21:20:17.237751  5980 net.cpp:356] fc8_deepfashion -> fc8_deepfashion
I0410 21:20:17.237766  5980 net.cpp:96] Setting up fc8_deepfashion
I0410 21:20:17.244268  5980 net.cpp:103] Top shape: 32 48 1 1 (1536)
I0410 21:20:17.244299  5980 net.cpp:67] Creating Layer fc8_deepfashion_encode
I0410 21:20:17.244310  5980 net.cpp:394] fc8_deepfashion_encode <- fc8_deepfashion
I0410 21:20:17.244321  5980 net.cpp:356] fc8_deepfashion_encode -> fc8_deepfashion_encode
I0410 21:20:17.244334  5980 net.cpp:96] Setting up fc8_deepfashion_encode
I0410 21:20:17.244354  5980 net.cpp:103] Top shape: 32 48 1 1 (1536)
I0410 21:20:17.244367  5980 net.cpp:67] Creating Layer fc8_deepfashion_encode_fc8_deepfashion_encode_0_split
I0410 21:20:17.244375  5980 net.cpp:394] fc8_deepfashion_encode_fc8_deepfashion_encode_0_split <- fc8_deepfashion_encode
I0410 21:20:17.244390  5980 net.cpp:356] fc8_deepfashion_encode_fc8_deepfashion_encode_0_split -> fc8_deepfashion_encode_fc8_deepfashion_encode_0_split_0
I0410 21:20:17.244415  5980 net.cpp:356] fc8_deepfashion_encode_fc8_deepfashion_encode_0_split -> fc8_deepfashion_encode_fc8_deepfashion_encode_0_split_1
I0410 21:20:17.244429  5980 net.cpp:356] fc8_deepfashion_encode_fc8_deepfashion_encode_0_split -> fc8_deepfashion_encode_fc8_deepfashion_encode_0_split_2
I0410 21:20:17.244443  5980 net.cpp:356] fc8_deepfashion_encode_fc8_deepfashion_encode_0_split -> fc8_deepfashion_encode_fc8_deepfashion_encode_0_split_3
I0410 21:20:17.244453  5980 net.cpp:96] Setting up fc8_deepfashion_encode_fc8_deepfashion_encode_0_split
I0410 21:20:17.244465  5980 net.cpp:103] Top shape: 32 48 1 1 (1536)
I0410 21:20:17.244474  5980 net.cpp:103] Top shape: 32 48 1 1 (1536)
I0410 21:20:17.244482  5980 net.cpp:103] Top shape: 32 48 1 1 (1536)
I0410 21:20:17.244488  5980 net.cpp:103] Top shape: 32 48 1 1 (1536)
I0410 21:20:17.244503  5980 net.cpp:67] Creating Layer fc8_pascal_label_mod
I0410 21:20:17.244513  5980 net.cpp:394] fc8_pascal_label_mod <- fc8_deepfashion_encode_fc8_deepfashion_encode_0_split_0
I0410 21:20:17.244525  5980 net.cpp:356] fc8_pascal_label_mod -> fc8_pascal_label_mod
I0410 21:20:17.244536  5980 net.cpp:96] Setting up fc8_pascal_label_mod
I0410 21:20:17.244578  5980 net.cpp:103] Top shape: 32 10 1 1 (320)
I0410 21:20:17.244611  5980 net.cpp:67] Creating Layer fc8_pascal_color_mod
I0410 21:20:17.244621  5980 net.cpp:394] fc8_pascal_color_mod <- fc8_deepfashion_encode_fc8_deepfashion_encode_0_split_1
I0410 21:20:17.244637  5980 net.cpp:356] fc8_pascal_color_mod -> fc8_pascal_color_mod
I0410 21:20:17.244650  5980 net.cpp:96] Setting up fc8_pascal_color_mod
I0410 21:20:17.244714  5980 net.cpp:103] Top shape: 32 16 1 1 (512)
I0410 21:20:17.244740  5980 net.cpp:67] Creating Layer fc8_pascal_fabric_mod
I0410 21:20:17.244750  5980 net.cpp:394] fc8_pascal_fabric_mod <- fc8_deepfashion_encode_fc8_deepfashion_encode_0_split_2
I0410 21:20:17.244765  5980 net.cpp:356] fc8_pascal_fabric_mod -> fc8_pascal_fabric_mod
I0410 21:20:17.244786  5980 net.cpp:96] Setting up fc8_pascal_fabric_mod
I0410 21:20:17.244851  5980 net.cpp:103] Top shape: 32 21 1 1 (672)
I0410 21:20:17.244875  5980 net.cpp:67] Creating Layer fc8_pascal_style_mod
I0410 21:20:17.244884  5980 net.cpp:394] fc8_pascal_style_mod <- fc8_deepfashion_encode_fc8_deepfashion_encode_0_split_3
I0410 21:20:17.244900  5980 net.cpp:356] fc8_pascal_style_mod -> fc8_pascal_style_mod
I0410 21:20:17.244913  5980 net.cpp:96] Setting up fc8_pascal_style_mod
I0410 21:20:17.244956  5980 net.cpp:103] Top shape: 32 8 1 1 (256)
I0410 21:20:17.244981  5980 net.cpp:67] Creating Layer loss
I0410 21:20:17.244993  5980 net.cpp:394] loss <- fc8_pascal_label_mod
I0410 21:20:17.245007  5980 net.cpp:394] loss <- labels0
I0410 21:20:17.245034  5980 net.cpp:356] loss -> (automatic)
I0410 21:20:17.245045  5980 net.cpp:96] Setting up loss
I0410 21:20:17.245064  5980 net.cpp:103] Top shape: 1 1 1 1 (1)
I0410 21:20:17.245076  5980 net.cpp:109]     with loss weight 1
I0410 21:20:17.245146  5980 net.cpp:67] Creating Layer loss
I0410 21:20:17.245157  5980 net.cpp:394] loss <- fc8_pascal_color_mod
I0410 21:20:17.245167  5980 net.cpp:394] loss <- labels1
I0410 21:20:17.245189  5980 net.cpp:356] loss -> (automatic)
I0410 21:20:17.245200  5980 net.cpp:96] Setting up loss
I0410 21:20:17.245213  5980 net.cpp:103] Top shape: 1 1 1 1 (1)
I0410 21:20:17.245221  5980 net.cpp:109]     with loss weight 1
I0410 21:20:17.245236  5980 net.cpp:67] Creating Layer loss
I0410 21:20:17.245245  5980 net.cpp:394] loss <- fc8_pascal_fabric_mod
I0410 21:20:17.245254  5980 net.cpp:394] loss <- labels2
I0410 21:20:17.245265  5980 net.cpp:356] loss -> (automatic)
I0410 21:20:17.245275  5980 net.cpp:96] Setting up loss
I0410 21:20:17.245285  5980 net.cpp:103] Top shape: 1 1 1 1 (1)
I0410 21:20:17.245292  5980 net.cpp:109]     with loss weight 1
I0410 21:20:17.245311  5980 net.cpp:67] Creating Layer loss
I0410 21:20:17.245319  5980 net.cpp:394] loss <- fc8_pascal_style_mod
I0410 21:20:17.245328  5980 net.cpp:394] loss <- labels3
I0410 21:20:17.245338  5980 net.cpp:356] loss -> (automatic)
I0410 21:20:17.245352  5980 net.cpp:96] Setting up loss
I0410 21:20:17.245363  5980 net.cpp:103] Top shape: 1 1 1 1 (1)
I0410 21:20:17.245371  5980 net.cpp:109]     with loss weight 1
I0410 21:20:17.245384  5980 net.cpp:67] Creating Layer silence
I0410 21:20:17.245393  5980 net.cpp:394] silence <- random
I0410 21:20:17.245401  5980 net.cpp:96] Setting up silence
I0410 21:20:17.245409  5980 net.cpp:172] silence does not need backward computation.
I0410 21:20:17.245415  5980 net.cpp:170] loss needs backward computation.
…
I0410 21:20:17.246961  5980 net.cpp:39] Initializing net from parameters: 
name: "deepFashion"
layers {
  top: "data"
  top: "random"
  name: "data"
  type: DATA
  data_param {
    source: "/data/deepfashion/multimodal/multimodal_test"
    batch_size: 32
    backend: LMDB
  }
  include {
    phase: TEST
  }
  transform_param {
    mirror: true
    crop_size: 227
    mean_file: "../../../data/ilsvrc12/imagenet_mean.binaryproto"
  }
}
layers {
  top: "labels"
  name: "labels"
  type: DATA
  data_param {
    source: "/data/deepfashion/multimodal/multimodal_test_alt"
    batch_size: 32
    backend: LMDB
  }
  include {
    phase: TEST
  }
}
layers {
  bottom: "labels"
  top: "labels0"
  top: "labels1"
  top: "labels2"
  top: "labels3"
  name: "sliceL"
  type: SLICE
  slice_param {
    slice_point: 1
    slice_point: 2
    slice_point: 3
  }
}
layers {
  bottom: "data"
  top: "conv1"
  name: "conv1"
  type: CONVOLUTION
  blobs_lr: 1
  blobs_lr: 2
  weight_decay: 1
  weight_decay: 0
  convolution_param {
    num_output: 96
    kernel_size: 11
    stride: 4
    weight_filler {
      type: "gaussian"
      std: 0.01
    }
    bias_filler {
      type: "constant"
      value: 0
    }
  }
}
layers {
  bottom: "conv1"
  top: "conv1"
  name: "relu1"
  type: RELU
}
layers {
  bottom: "conv1"
  top: "pool1"
  name: "pool1"
  type: POOLING
  pooling_param {
    pool: MAX
    kernel_size: 3
    stride: 2
  }
}
layers {
  bottom: "pool1"
  top: "norm1"
  name: "norm1"
  type: LRN
  lrn_param {
    local_size: 5
    alpha: 0.0001
    beta: 0.75
  }
}
layers {
  bottom: "norm1"
  top: "conv2"
  name: "conv2"
  type: CONVOLUTION
  blobs_lr: 1
  blobs_lr: 2
  weight_decay: 1
  weight_decay: 0
  convolution_param {
    num_output: 256
    pad: 2
    kernel_size: 5
    group: 2
    weight_filler {
      type: "gaussian"
      std: 0.01
    }
    bias_filler {
      type: "constant"
      value: 1
    }
  }
}
layers {
  bottom: "conv2"
  top: "conv2"
  name: "relu2"
  type: RELU
}
layers {
  bottom: "conv2"
  top: "pool2"
  name: "pool2"
  type: POOLING
  pooling_param {
    pool: MAX
    kernel_size: 3
    stride: 2
  }
}
layers {
  bottom: "pool2"
  top: "norm2"
  name: "norm2"
  type: LRN
  lrn_param {
    local_size: 5
    alpha: 0.0001
    beta: 0.75
  }
}
layers {
  bottom: "norm2"
  top: "conv3"
  name: "conv3"
  type: CONVOLUTION
  blobs_lr: 1
  blobs_lr: 2
  weight_decay: 1
  weight_decay: 0
  convolution_param {
    num_output: 384
    pad: 1
    kernel_size: 3
    weight_filler {
      type: "gaussian"
      std: 0.01
    }
    bias_filler {
      type: "constant"
      value: 0
    }
  }
}
layers {
  bottom: "conv3"
  top: "conv3"
  name: "relu3"
  type: RELU
}
layers {
  bottom: "conv3"
  top: "conv4"
  name: "conv4"
  type: CONVOLUTION
  blobs_lr: 1
  blobs_lr: 2
  weight_decay: 1
  weight_decay: 0
  convolution_param {
    num_output: 384
    pad: 1
    kernel_size: 3
    group: 2
    weight_filler {
      type: "gaussian"
      std: 0.01
    }
    bias_filler {
      type: "constant"
      value: 1
    }
  }
}
layers {
  bottom: "conv4"
  top: "conv4"
  name: "relu4"
  type: RELU
}
layers {
  bottom: "conv4"
  top: "conv5"
  name: "conv5"
  type: CONVOLUTION
  blobs_lr: 1
  blobs_lr: 2
  weight_decay: 1
  weight_decay: 0
  convolution_param {
    num_output: 256
    pad: 1
    kernel_size: 3
    group: 2
    weight_filler {
      type: "gaussian"
      std: 0.01
    }
    bias_filler {
      type: "constant"
      value: 1
    }
  }
}
layers {
  bottom: "conv5"
  top: "conv5"
  name: "relu5"
  type: RELU
}
layers {
  bottom: "conv5"
  top: "pool5"
  name: "pool5"
  type: POOLING
  pooling_param {
    pool: MAX
    kernel_size: 3
    stride: 2
  }
}
layers {
  bottom: "pool5"
  top: "fc6"
  name: "fc6"
  type: INNER_PRODUCT
  blobs_lr: 1
  blobs_lr: 2
  weight_decay: 1
  weight_decay: 0
  inner_product_param {
    num_output: 4096
    weight_filler {
      type: "gaussian"
      std: 0.005
    }
    bias_filler {
      type: "constant"
      value: 1
    }
  }
}
layers {
  bottom: "fc6"
  top: "fc6"
  name: "relu6"
  type: RELU
}
layers {
  bottom: "fc6"
  top: "fc6"
  name: "drop6"
  type: DROPOUT
  dropout_param {
    dropout_ratio: 0.5
  }
}
layers {
  bottom: "fc6"
  top: "fc7"
  name: "fc7"
  type: INNER_PRODUCT
  blobs_lr: 1
  blobs_lr: 2
  weight_decay: 1
  weight_decay: 0
  inner_product_param {
    num_output: 4096
    weight_filler {
      type: "gaussian"
      std: 0.005
    }
    bias_filler {
      type: "constant"
      value: 1
    }
  }
}
layers {
  bottom: "fc7"
  top: "fc7"
  name: "relu7"
  type: RELU
}
layers {
  bottom: "fc7"
  top: "fc7"
  name: "drop7"
  type: DROPOUT
  dropout_param {
    dropout_ratio: 0.5
  }
}
layers {
  bottom: "fc7"
  top: "fc8_deepfashion"
  name: "fc8_deepfashion"
  type: INNER_PRODUCT
  blobs_lr: 1
  blobs_lr: 2
  weight_decay: 1
  weight_decay: 0
  inner_product_param {
    num_output: 48
    weight_filler {
      type: "gaussian"
      std: 0.01
    }
    bias_filler {
      type: "constant"
      value: 0
    }
  }
}
layers {
  bottom: "fc8_deepfashion"
  top: "fc8_deepfashion_encode"
  name: "fc8_deepfashion_encode"
  type: SIGMOID
}
layers {
  bottom: "fc8_deepfashion_encode"
  top: "fc8_pascal_label_mod"
  name: "fc8_pascal_label_mod"
  type: INNER_PRODUCT
  blobs_lr: 1
  blobs_lr: 2
  weight_decay: 1
  weight_decay: 0
  inner_product_param {
    num_output: 10
    weight_filler {
      type: "gaussian"
      std: 0.01
    }
    bias_filler {
      type: "constant"
      value: 0
    }
  }
}
layers {
  bottom: "fc8_deepfashion_encode"
  top: "fc8_pascal_color_mod"
  name: "fc8_pascal_color_mod"
  type: INNER_PRODUCT
  blobs_lr: 1
  blobs_lr: 2
  weight_decay: 1
  weight_decay: 0
  inner_product_param {
    num_output: 16
    weight_filler {
      type: "gaussian"
      std: 0.01
    }
    bias_filler {
      type: "constant"
      value: 0
    }
  }
}
layers {
  bottom: "fc8_deepfashion_encode"
  top: "fc8_pascal_fabric_mod"
  name: "fc8_pascal_fabric_mod"
  type: INNER_PRODUCT
  blobs_lr: 1
  blobs_lr: 2
  weight_decay: 1
  weight_decay: 0
  inner_product_param {
    num_output: 21
    weight_filler {
      type: "gaussian"
      std: 0.01
    }
    bias_filler {
      type: "constant"
      value: 0
    }
  }
}
layers {
  bottom: "fc8_deepfashion_encode"
  top: "fc8_pascal_style_mod"
  name: "fc8_pascal_style_mod"
  type: INNER_PRODUCT
  blobs_lr: 1
  blobs_lr: 2
  weight_decay: 1
  weight_decay: 0
  inner_product_param {
    num_output: 8
    weight_filler {
      type: "gaussian"
      std: 0.01
    }
    bias_filler {
      type: "constant"
      value: 0
    }
  }
}
layers {
  bottom: "fc8_pascal_label_mod"
  bottom: "labels0"
  name: "loss"
  type: SOFTMAX_LOSS
}
layers {
  bottom: "fc8_pascal_color_mod"
  bottom: "labels1"
  name: "loss"
  type: SOFTMAX_LOSS
}
layers {
  bottom: "fc8_pascal_fabric_mod"
  bottom: "labels2"
  name: "loss"
  type: SOFTMAX_LOSS
}
layers {
  bottom: "fc8_pascal_style_mod"
  bottom: "labels3"
  name: "loss"
  type: SOFTMAX_LOSS
}
layers {
  bottom: "fc8_pascal_label_mod"
  bottom: "labels0"
  top: "labelAccuracy"
  name: "accuracy0"
  type: ACCURACY
  include {
    phase: TEST
  }
}
layers {
  bottom: "fc8_pascal_color_mod"
  bottom: "labels1"
  top: "colorAccuracy"
  name: "accuracy1"
  type: ACCURACY
  include {
    phase: TEST
  }
}
layers {
  bottom: "fc8_pascal_fabric_mod"
  bottom: "labels2"
  top: "fabricAccuracy"
  name: "accuracy2"
  type: ACCURACY
  include {
    phase: TEST
  }
}
layers {
  bottom: "fc8_pascal_style_mod"
  bottom: "labels3"
  top: "styleAccuracy"
  name: "accuracy3"
  type: ACCURACY
  include {
    phase: TEST
  }
}
layers {
  bottom: "random"
  name: "silence"
  type: SILENCE
}
state {
  phase: TEST
}
I0410 21:20:17.247298  5980 net.cpp:67] Creating Layer data
I0410 21:20:17.247311  5980 net.cpp:356] data -> data
I0410 21:20:17.247326  5980 net.cpp:356] data -> random
I0410 21:20:17.247339  5980 net.cpp:96] Setting up data
I0410 21:20:17.247416  5980 data_layer.cpp:68] Opening lmdb /data/deepfashion/multimodal/multimodal_test
I0410 21:20:17.247639  5980 data_layer.cpp:128] output data size: 32,3,227,227
I0410 21:20:17.247653  5980 base_data_layer.cpp:36] Loading mean file from../../../data/ilsvrc12/imagenet_mean.binaryproto
I0410 21:20:17.255138  5980 net.cpp:103] Top shape: 32 3 227 227 (4946784)
I0410 21:20:17.255172  5980 net.cpp:103] Top shape: 32 1 1 1 (32)
I0410 21:20:17.255198  5980 net.cpp:67] Creating Layer labels
I0410 21:20:17.255210  5980 net.cpp:356] labels -> labels
I0410 21:20:17.255228  5980 net.cpp:96] Setting up labels
I0410 21:20:17.255307  5980 data_layer.cpp:68] Opening lmdb /data/deepfashion/multimodal/multimodal_test_alt
I0410 21:20:17.255339  5980 data_layer.cpp:128] output data size: 32,4,1,1
I0410 21:20:17.255389  5980 net.cpp:103] Top shape: 32 4 1 1 (128)
I0410 21:20:17.255412  5980 net.cpp:67] Creating Layer sliceL
I0410 21:20:17.255421  5980 net.cpp:394] sliceL <- labels
I0410 21:20:17.255434  5980 net.cpp:356] sliceL -> labels0
I0410 21:20:17.255447  5980 net.cpp:356] sliceL -> labels1
I0410 21:20:17.255461  5980 net.cpp:356] sliceL -> labels2
I0410 21:20:17.255475  5980 net.cpp:356] sliceL -> labels3
I0410 21:20:17.255486  5980 net.cpp:96] Setting up sliceL
I0410 21:20:17.255501  5980 net.cpp:103] Top shape: 32 1 1 1 (32)
I0410 21:20:17.255509  5980 net.cpp:103] Top shape: 32 1 1 1 (32)
I0410 21:20:17.255518  5980 net.cpp:103] Top shape: 32 1 1 1 (32)
I0410 21:20:17.255525  5980 net.cpp:103] Top shape: 32 1 1 1 (32)
I0410 21:20:17.255537  5980 net.cpp:67] Creating Layer labels0_sliceL_0_split
I0410 21:20:17.255544  5980 net.cpp:394] labels0_sliceL_0_split <- labels0
I0410 21:20:17.255555  5980 net.cpp:356] labels0_sliceL_0_split -> labels0_sliceL_0_split_0
I0410 21:20:17.255568  5980 net.cpp:356] labels0_sliceL_0_split -> labels0_sliceL_0_split_1
I0410 21:20:17.255580  5980 net.cpp:96] Setting up labels0_sliceL_0_split
I0410 21:20:17.255589  5980 net.cpp:103] Top shape: 32 1 1 1 (32)
I0410 21:20:17.255597  5980 net.cpp:103] Top shape: 32 1 1 1 (32)
I0410 21:20:17.255609  5980 net.cpp:67] Creating Layer labels1_sliceL_1_split
I0410 21:20:17.255617  5980 net.cpp:394] labels1_sliceL_1_split <- labels1
I0410 21:20:17.255628  5980 net.cpp:356] labels1_sliceL_1_split -> labels1_sliceL_1_split_0
I0410 21:20:17.255640  5980 net.cpp:356] labels1_sliceL_1_split -> labels1_sliceL_1_split_1
I0410 21:20:17.255650  5980 net.cpp:96] Setting up labels1_sliceL_1_split
I0410 21:20:17.255659  5980 net.cpp:103] Top shape: 32 1 1 1 (32)
I0410 21:20:17.255667  5980 net.cpp:103] Top shape: 32 1 1 1 (32)
I0410 21:20:17.255678  5980 net.cpp:67] Creating Layer labels2_sliceL_2_split
I0410 21:20:17.255686  5980 net.cpp:394] labels2_sliceL_2_split <- labels2
I0410 21:20:17.255697  5980 net.cpp:356] labels2_sliceL_2_split -> labels2_sliceL_2_split_0
I0410 21:20:17.255708  5980 net.cpp:356] labels2_sliceL_2_split -> labels2_sliceL_2_split_1
I0410 21:20:17.255719  5980 net.cpp:96] Setting up labels2_sliceL_2_split
I0410 21:20:17.255728  5980 net.cpp:103] Top shape: 32 1 1 1 (32)
I0410 21:20:17.255736  5980 net.cpp:103] Top shape: 32 1 1 1 (32)
I0410 21:20:17.255746  5980 net.cpp:67] Creating Layer labels3_sliceL_3_split
I0410 21:20:17.255784  5980 net.cpp:394] labels3_sliceL_3_split <- labels3
I0410 21:20:17.255798  5980 net.cpp:356] labels3_sliceL_3_split -> labels3_sliceL_3_split_0
I0410 21:20:17.255811  5980 net.cpp:356] labels3_sliceL_3_split -> labels3_sliceL_3_split_1
I0410 21:20:17.255822  5980 net.cpp:96] Setting up labels3_sliceL_3_split
I0410 21:20:17.255831  5980 net.cpp:103] Top shape: 32 1 1 1 (32)
I0410 21:20:17.255839  5980 net.cpp:103] Top shape: 32 1 1 1 (32)
I0410 21:20:17.255853  5980 net.cpp:67] Creating Layer conv1
I0410 21:20:17.255861  5980 net.cpp:394] conv1 <- data
I0410 21:20:17.255874  5980 net.cpp:356] conv1 -> conv1
I0410 21:20:17.255887  5980 net.cpp:96] Setting up conv1
I0410 21:20:17.257107  5980 net.cpp:103] Top shape: 32 96 55 55 (9292800)
I0410 21:20:17.257140  5980 net.cpp:67] Creating Layer relu1
I0410 21:20:17.257150  5980 net.cpp:394] relu1 <- conv1
I0410 21:20:17.257163  5980 net.cpp:345] relu1 -> conv1 (in-place)
I0410 21:20:17.257174  5980 net.cpp:96] Setting up relu1
I0410 21:20:17.257186  5980 net.cpp:103] Top shape: 32 96 55 55 (9292800)
I0410 21:20:17.257200  5980 net.cpp:67] Creating Layer pool1
I0410 21:20:17.257207  5980 net.cpp:394] pool1 <- conv1
I0410 21:20:17.257220  5980 net.cpp:356] pool1 -> pool1
I0410 21:20:17.257233  5980 net.cpp:96] Setting up pool1
I0410 21:20:17.257249  5980 net.cpp:103] Top shape: 32 96 27 27 (2239488)
I0410 21:20:17.257266  5980 net.cpp:67] Creating Layer norm1
I0410 21:20:17.257273  5980 net.cpp:394] norm1 <- pool1
I0410 21:20:17.257284  5980 net.cpp:356] norm1 -> norm1
I0410 21:20:17.257297  5980 net.cpp:96] Setting up norm1
I0410 21:20:17.257307  5980 net.cpp:103] Top shape: 32 96 27 27 (2239488)
I0410 21:20:17.257319  5980 net.cpp:67] Creating Layer conv2
I0410 21:20:17.257328  5980 net.cpp:394] conv2 <- norm1
I0410 21:20:17.257339  5980 net.cpp:356] conv2 -> conv2
I0410 21:20:17.257350  5980 net.cpp:96] Setting up conv2
I0410 21:20:17.267520  5980 net.cpp:103] Top shape: 32 256 27 27 (5971968)
I0410 21:20:17.267566  5980 net.cpp:67] Creating Layer relu2
I0410 21:20:17.267577  5980 net.cpp:394] relu2 <- conv2
I0410 21:20:17.267590  5980 net.cpp:345] relu2 -> conv2 (in-place)
I0410 21:20:17.267601  5980 net.cpp:96] Setting up relu2
I0410 21:20:17.267613  5980 net.cpp:103] Top shape: 32 256 27 27 (5971968)
I0410 21:20:17.267626  5980 net.cpp:67] Creating Layer pool2
I0410 21:20:17.267633  5980 net.cpp:394] pool2 <- conv2
I0410 21:20:17.267648  5980 net.cpp:356] pool2 -> pool2
I0410 21:20:17.267662  5980 net.cpp:96] Setting up pool2
I0410 21:20:17.267676  5980 net.cpp:103] Top shape: 32 256 13 13 (1384448)
I0410 21:20:17.267699  5980 net.cpp:67] Creating Layer norm2
I0410 21:20:17.267707  5980 net.cpp:394] norm2 <- pool2
I0410 21:20:17.267722  5980 net.cpp:356] norm2 -> norm2
I0410 21:20:17.267735  5980 net.cpp:96] Setting up norm2
I0410 21:20:17.267745  5980 net.cpp:103] Top shape: 32 256 13 13 (1384448)
I0410 21:20:17.267757  5980 net.cpp:67] Creating Layer conv3
I0410 21:20:17.267766  5980 net.cpp:394] conv3 <- norm2
I0410 21:20:17.267781  5980 net.cpp:356] conv3 -> conv3
I0410 21:20:17.267793  5980 net.cpp:96] Setting up conv3
I0410 21:20:17.297071  5980 net.cpp:103] Top shape: 32 384 13 13 (2076672)
I0410 21:20:17.297134  5980 net.cpp:67] Creating Layer relu3
I0410 21:20:17.297147  5980 net.cpp:394] relu3 <- conv3
I0410 21:20:17.297158  5980 net.cpp:345] relu3 -> conv3 (in-place)
I0410 21:20:17.297170  5980 net.cpp:96] Setting up relu3
I0410 21:20:17.297184  5980 net.cpp:103] Top shape: 32 384 13 13 (2076672)
I0410 21:20:17.297199  5980 net.cpp:67] Creating Layer conv4
I0410 21:20:17.297206  5980 net.cpp:394] conv4 <- conv3
I0410 21:20:17.297225  5980 net.cpp:356] conv4 -> conv4
I0410 21:20:17.297240  5980 net.cpp:96] Setting up conv4
I0410 21:20:17.319254  5980 net.cpp:103] Top shape: 32 384 13 13 (2076672)
I0410 21:20:17.319317  5980 net.cpp:67] Creating Layer relu4
I0410 21:20:17.319332  5980 net.cpp:394] relu4 <- conv4
I0410 21:20:17.319344  5980 net.cpp:345] relu4 -> conv4 (in-place)
I0410 21:20:17.319394  5980 net.cpp:96] Setting up relu4
I0410 21:20:17.319411  5980 net.cpp:103] Top shape: 32 384 13 13 (2076672)
I0410 21:20:17.319440  5980 net.cpp:67] Creating Layer conv5
I0410 21:20:17.319449  5980 net.cpp:394] conv5 <- conv4
I0410 21:20:17.319463  5980 net.cpp:356] conv5 -> conv5
I0410 21:20:17.319476  5980 net.cpp:96] Setting up conv5
I0410 21:20:17.334372  5980 net.cpp:103] Top shape: 32 256 13 13 (1384448)
I0410 21:20:17.334440  5980 net.cpp:67] Creating Layer relu5
I0410 21:20:17.334451  5980 net.cpp:394] relu5 <- conv5
I0410 21:20:17.334463  5980 net.cpp:345] relu5 -> conv5 (in-place)
I0410 21:20:17.334476  5980 net.cpp:96] Setting up relu5
I0410 21:20:17.334488  5980 net.cpp:103] Top shape: 32 256 13 13 (1384448)
I0410 21:20:17.334501  5980 net.cpp:67] Creating Layer pool5
I0410 21:20:17.334508  5980 net.cpp:394] pool5 <- conv5
I0410 21:20:17.334520  5980 net.cpp:356] pool5 -> pool5
I0410 21:20:17.334534  5980 net.cpp:96] Setting up pool5
I0410 21:20:17.334550  5980 net.cpp:103] Top shape: 32 256 6 6 (294912)
I0410 21:20:17.334564  5980 net.cpp:67] Creating Layer fc6
I0410 21:20:17.334573  5980 net.cpp:394] fc6 <- pool5
I0410 21:20:17.334589  5980 net.cpp:356] fc6 -> fc6
I0410 21:20:17.334604  5980 net.cpp:96] Setting up fc6
I0410 21:20:18.555483  5980 net.cpp:103] Top shape: 32 4096 1 1 (131072)
I0410 21:20:18.555543  5980 net.cpp:67] Creating Layer relu6
I0410 21:20:18.555555  5980 net.cpp:394] relu6 <- fc6
I0410 21:20:18.555572  5980 net.cpp:345] relu6 -> fc6 (in-place)
I0410 21:20:18.555585  5980 net.cpp:96] Setting up relu6
I0410 21:20:18.555608  5980 net.cpp:103] Top shape: 32 4096 1 1 (131072)
I0410 21:20:18.555620  5980 net.cpp:67] Creating Layer drop6
I0410 21:20:18.555629  5980 net.cpp:394] drop6 <- fc6
I0410 21:20:18.555639  5980 net.cpp:345] drop6 -> fc6 (in-place)
I0410 21:20:18.555649  5980 net.cpp:96] Setting up drop6
I0410 21:20:18.555657  5980 net.cpp:103] Top shape: 32 4096 1 1 (131072)
I0410 21:20:18.555683  5980 net.cpp:67] Creating Layer fc7
I0410 21:20:18.555701  5980 net.cpp:394] fc7 <- fc6
I0410 21:20:18.555713  5980 net.cpp:356] fc7 -> fc7
I0410 21:20:18.555727  5980 net.cpp:96] Setting up fc7
I0410 21:20:19.098717  5980 net.cpp:103] Top shape: 32 4096 1 1 (131072)
I0410 21:20:19.098770  5980 net.cpp:67] Creating Layer relu7
I0410 21:20:19.098783  5980 net.cpp:394] relu7 <- fc7
I0410 21:20:19.098794  5980 net.cpp:345] relu7 -> fc7 (in-place)
I0410 21:20:19.098808  5980 net.cpp:96] Setting up relu7
I0410 21:20:19.098829  5980 net.cpp:103] Top shape: 32 4096 1 1 (131072)
I0410 21:20:19.098842  5980 net.cpp:67] Creating Layer drop7
I0410 21:20:19.098850  5980 net.cpp:394] drop7 <- fc7
I0410 21:20:19.098865  5980 net.cpp:345] drop7 -> fc7 (in-place)
I0410 21:20:19.098876  5980 net.cpp:96] Setting up drop7
I0410 21:20:19.098891  5980 net.cpp:103] Top shape: 32 4096 1 1 (131072)
I0410 21:20:19.098904  5980 net.cpp:67] Creating Layer fc8_deepfashion
I0410 21:20:19.098912  5980 net.cpp:394] fc8_deepfashion <- fc7
I0410 21:20:19.098928  5980 net.cpp:356] fc8_deepfashion -> fc8_deepfashion
I0410 21:20:19.098942  5980 net.cpp:96] Setting up fc8_deepfashion
I0410 21:20:19.105455  5980 net.cpp:103] Top shape: 32 48 1 1 (1536)
I0410 21:20:19.105482  5980 net.cpp:67] Creating Layer fc8_deepfashion_encode
I0410 21:20:19.105492  5980 net.cpp:394] fc8_deepfashion_encode <- fc8_deepfashion
I0410 21:20:19.105507  5980 net.cpp:356] fc8_deepfashion_encode -> fc8_deepfashion_encode
I0410 21:20:19.105521  5980 net.cpp:96] Setting up fc8_deepfashion_encode
I0410 21:20:19.105535  5980 net.cpp:103] Top shape: 32 48 1 1 (1536)
I0410 21:20:19.105548  5980 net.cpp:67] Creating Layer fc8_deepfashion_encode_fc8_deepfashion_encode_0_split
I0410 21:20:19.105556  5980 net.cpp:394] fc8_deepfashion_encode_fc8_deepfashion_encode_0_split <- fc8_deepfashion_encode
I0410 21:20:19.105571  5980 net.cpp:356] fc8_deepfashion_encode_fc8_deepfashion_encode_0_split -> fc8_deepfashion_encode_fc8_deepfashion_encode_0_split_0
I0410 21:20:19.105584  5980 net.cpp:356] fc8_deepfashion_encode_fc8_deepfashion_encode_0_split -> fc8_deepfashion_encode_fc8_deepfashion_encode_0_split_1
I0410 21:20:19.105636  5980 net.cpp:356] fc8_deepfashion_encode_fc8_deepfashion_encode_0_split -> fc8_deepfashion_encode_fc8_deepfashion_encode_0_split_2
I0410 21:20:19.105650  5980 net.cpp:356] fc8_deepfashion_encode_fc8_deepfashion_encode_0_split -> fc8_deepfashion_encode_fc8_deepfashion_encode_0_split_3
I0410 21:20:19.105667  5980 net.cpp:96] Setting up fc8_deepfashion_encode_fc8_deepfashion_encode_0_split
I0410 21:20:19.105679  5980 net.cpp:103] Top shape: 32 48 1 1 (1536)
I0410 21:20:19.105686  5980 net.cpp:103] Top shape: 32 48 1 1 (1536)
I0410 21:20:19.105701  5980 net.cpp:103] Top shape: 32 48 1 1 (1536)
I0410 21:20:19.105710  5980 net.cpp:103] Top shape: 32 48 1 1 (1536)
I0410 21:20:19.105726  5980 net.cpp:67] Creating Layer fc8_pascal_label_mod
I0410 21:20:19.105736  5980 net.cpp:394] fc8_pascal_label_mod <- fc8_deepfashion_encode_fc8_deepfashion_encode_0_split_0
I0410 21:20:19.105748  5980 net.cpp:356] fc8_pascal_label_mod -> fc8_pascal_label_mod
I0410 21:20:19.105764  5980 net.cpp:96] Setting up fc8_pascal_label_mod
I0410 21:20:19.105805  5980 net.cpp:103] Top shape: 32 10 1 1 (320)
I0410 21:20:19.105842  5980 net.cpp:67] Creating Layer fc8_pascal_label_mod_fc8_pascal_label_mod_0_split
I0410 21:20:19.105854  5980 net.cpp:394] fc8_pascal_label_mod_fc8_pascal_label_mod_0_split <- fc8_pascal_label_mod
I0410 21:20:19.105865  5980 net.cpp:356] fc8_pascal_label_mod_fc8_pascal_label_mod_0_split -> fc8_pascal_label_mod_fc8_pascal_label_mod_0_split_0
I0410 21:20:19.105885  5980 net.cpp:356] fc8_pascal_label_mod_fc8_pascal_label_mod_0_split -> fc8_pascal_label_mod_fc8_pascal_label_mod_0_split_1
I0410 21:20:19.105897  5980 net.cpp:96] Setting up fc8_pascal_label_mod_fc8_pascal_label_mod_0_split
I0410 21:20:19.105914  5980 net.cpp:103] Top shape: 32 10 1 1 (320)
I0410 21:20:19.105923  5980 net.cpp:103] Top shape: 32 10 1 1 (320)
I0410 21:20:19.105939  5980 net.cpp:67] Creating Layer fc8_pascal_color_mod
I0410 21:20:19.105948  5980 net.cpp:394] fc8_pascal_color_mod <- fc8_deepfashion_encode_fc8_deepfashion_encode_0_split_1
I0410 21:20:19.105962  5980 net.cpp:356] fc8_pascal_color_mod -> fc8_pascal_color_mod
I0410 21:20:19.105974  5980 net.cpp:96] Setting up fc8_pascal_color_mod
I0410 21:20:19.106027  5980 net.cpp:103] Top shape: 32 16 1 1 (512)
I0410 21:20:19.106050  5980 net.cpp:67] Creating Layer fc8_pascal_color_mod_fc8_pascal_color_mod_0_split
I0410 21:20:19.106058  5980 net.cpp:394] fc8_pascal_color_mod_fc8_pascal_color_mod_0_split <- fc8_pascal_color_mod
I0410 21:20:19.106079  5980 net.cpp:356] fc8_pascal_color_mod_fc8_pascal_color_mod_0_split -> fc8_pascal_color_mod_fc8_pascal_color_mod_0_split_0
I0410 21:20:19.106094  5980 net.cpp:356] fc8_pascal_color_mod_fc8_pascal_color_mod_0_split -> fc8_pascal_color_mod_fc8_pascal_color_mod_0_split_1
I0410 21:20:19.106106  5980 net.cpp:96] Setting up fc8_pascal_color_mod_fc8_pascal_color_mod_0_split
I0410 21:20:19.106114  5980 net.cpp:103] Top shape: 32 16 1 1 (512)
I0410 21:20:19.106122  5980 net.cpp:103] Top shape: 32 16 1 1 (512)
I0410 21:20:19.106135  5980 net.cpp:67] Creating Layer fc8_pascal_fabric_mod
I0410 21:20:19.106143  5980 net.cpp:394] fc8_pascal_fabric_mod <- fc8_deepfashion_encode_fc8_deepfashion_encode_0_split_2
I0410 21:20:19.106158  5980 net.cpp:356] fc8_pascal_fabric_mod -> fc8_pascal_fabric_mod
I0410 21:20:19.106171  5980 net.cpp:96] Setting up fc8_pascal_fabric_mod
I0410 21:20:19.106232  5980 net.cpp:103] Top shape: 32 21 1 1 (672)
I0410 21:20:19.106254  5980 net.cpp:67] Creating Layer fc8_pascal_fabric_mod_fc8_pascal_fabric_mod_0_split
I0410 21:20:19.106263  5980 net.cpp:394] fc8_pascal_fabric_mod_fc8_pascal_fabric_mod_0_split <- fc8_pascal_fabric_mod
I0410 21:20:19.106273  5980 net.cpp:356] fc8_pascal_fabric_mod_fc8_pascal_fabric_mod_0_split -> fc8_pascal_fabric_mod_fc8_pascal_fabric_mod_0_split_0
I0410 21:20:19.106294  5980 net.cpp:356] fc8_pascal_fabric_mod_fc8_pascal_fabric_mod_0_split -> fc8_pascal_fabric_mod_fc8_pascal_fabric_mod_0_split_1
I0410 21:20:19.106320  5980 net.cpp:96] Setting up fc8_pascal_fabric_mod_fc8_pascal_fabric_mod_0_split
I0410 21:20:19.106346  5980 net.cpp:103] Top shape: 32 21 1 1 (672)
I0410 21:20:19.106355  5980 net.cpp:103] Top shape: 32 21 1 1 (672)
I0410 21:20:19.106369  5980 net.cpp:67] Creating Layer fc8_pascal_style_mod
I0410 21:20:19.106377  5980 net.cpp:394] fc8_pascal_style_mod <- fc8_deepfashion_encode_fc8_deepfashion_encode_0_split_3
I0410 21:20:19.106392  5980 net.cpp:356] fc8_pascal_style_mod -> fc8_pascal_style_mod
I0410 21:20:19.106406  5980 net.cpp:96] Setting up fc8_pascal_style_mod
I0410 21:20:19.106438  5980 net.cpp:103] Top shape: 32 8 1 1 (256)
I0410 21:20:19.106462  5980 net.cpp:67] Creating Layer fc8_pascal_style_mod_fc8_pascal_style_mod_0_split
I0410 21:20:19.106470  5980 net.cpp:394] fc8_pascal_style_mod_fc8_pascal_style_mod_0_split <- fc8_pascal_style_mod
I0410 21:20:19.106490  5980 net.cpp:356] fc8_pascal_style_mod_fc8_pascal_style_mod_0_split -> fc8_pascal_style_mod_fc8_pascal_style_mod_0_split_0
I0410 21:20:19.106511  5980 net.cpp:356] fc8_pascal_style_mod_fc8_pascal_style_mod_0_split -> fc8_pascal_style_mod_fc8_pascal_style_mod_0_split_1
I0410 21:20:19.106526  5980 net.cpp:96] Setting up fc8_pascal_style_mod_fc8_pascal_style_mod_0_split
I0410 21:20:19.106535  5980 net.cpp:103] Top shape: 32 8 1 1 (256)
I0410 21:20:19.106544  5980 net.cpp:103] Top shape: 32 8 1 1 (256)
I0410 21:20:19.106554  5980 net.cpp:67] Creating Layer loss
I0410 21:20:19.106562  5980 net.cpp:394] loss <- fc8_pascal_label_mod_fc8_pascal_label_mod_0_split_0
I0410 21:20:19.106572  5980 net.cpp:394] loss <- labels0_sliceL_0_split_0
I0410 21:20:19.106583  5980 net.cpp:356] loss -> (automatic)
I0410 21:20:19.106592  5980 net.cpp:96] Setting up loss
I0410 21:20:19.106605  5980 net.cpp:103] Top shape: 1 1 1 1 (1)
I0410 21:20:19.106612  5980 net.cpp:109]     with loss weight 1
I0410 21:20:19.106642  5980 net.cpp:67] Creating Layer loss
I0410 21:20:19.106654  5980 net.cpp:394] loss <- fc8_pascal_color_mod_fc8_pascal_color_mod_0_split_0
I0410 21:20:19.106664  5980 net.cpp:394] loss <- labels1_sliceL_1_split_0
I0410 21:20:19.106675  5980 net.cpp:356] loss -> (automatic)
I0410 21:20:19.106684  5980 net.cpp:96] Setting up loss
I0410 21:20:19.106696  5980 net.cpp:103] Top shape: 1 1 1 1 (1)
I0410 21:20:19.106710  5980 net.cpp:109]     with loss weight 1
I0410 21:20:19.106726  5980 net.cpp:67] Creating Layer loss
I0410 21:20:19.106735  5980 net.cpp:394] loss <- fc8_pascal_fabric_mod_fc8_pascal_fabric_mod_0_split_0
I0410 21:20:19.106746  5980 net.cpp:394] loss <- labels2_sliceL_2_split_0
I0410 21:20:19.106761  5980 net.cpp:356] loss -> (automatic)
I0410 21:20:19.106775  5980 net.cpp:96] Setting up loss
I0410 21:20:19.106784  5980 net.cpp:103] Top shape: 1 1 1 1 (1)
I0410 21:20:19.106792  5980 net.cpp:109]     with loss weight 1
I0410 21:20:19.106806  5980 net.cpp:67] Creating Layer loss
I0410 21:20:19.106815  5980 net.cpp:394] loss <- fc8_pascal_style_mod_fc8_pascal_style_mod_0_split_0
I0410 21:20:19.106825  5980 net.cpp:394] loss <- labels3_sliceL_3_split_0
I0410 21:20:19.106835  5980 net.cpp:356] loss -> (automatic)
I0410 21:20:19.106845  5980 net.cpp:96] Setting up loss
I0410 21:20:19.106856  5980 net.cpp:103] Top shape: 1 1 1 1 (1)
I0410 21:20:19.106863  5980 net.cpp:109]     with loss weight 1
I0410 21:20:19.106880  5980 net.cpp:67] Creating Layer accuracy0
I0410 21:20:19.106890  5980 net.cpp:394] accuracy0 <- fc8_pascal_label_mod_fc8_pascal_label_mod_0_split_1
I0410 21:20:19.106899  5980 net.cpp:394] accuracy0 <- labels0_sliceL_0_split_1
I0410 21:20:19.106911  5980 net.cpp:356] accuracy0 -> labelAccuracy
I0410 21:20:19.106923  5980 net.cpp:96] Setting up accuracy0
I0410 21:20:19.106936  5980 net.cpp:103] Top shape: 1 1 1 1 (1)
I0410 21:20:19.106950  5980 net.cpp:67] Creating Layer accuracy1
I0410 21:20:19.106964  5980 net.cpp:394] accuracy1 <- fc8_pascal_color_mod_fc8_pascal_color_mod_0_split_1
I0410 21:20:19.106974  5980 net.cpp:394] accuracy1 <- labels1_sliceL_1_split_1
I0410 21:20:19.106986  5980 net.cpp:356] accuracy1 -> colorAccuracy
I0410 21:20:19.106997  5980 net.cpp:96] Setting up accuracy1
I0410 21:20:19.107020  5980 net.cpp:103] Top shape: 1 1 1 1 (1)
I0410 21:20:19.107031  5980 net.cpp:67] Creating Layer accuracy2
I0410 21:20:19.107040  5980 net.cpp:394] accuracy2 <- fc8_pascal_fabric_mod_fc8_pascal_fabric_mod_0_split_1
I0410 21:20:19.107059  5980 net.cpp:394] accuracy2 <- labels2_sliceL_2_split_1
I0410 21:20:19.107069  5980 net.cpp:356] accuracy2 -> fabricAccuracy
I0410 21:20:19.107081  5980 net.cpp:96] Setting up accuracy2
I0410 21:20:19.107090  5980 net.cpp:103] Top shape: 1 1 1 1 (1)
I0410 21:20:19.107105  5980 net.cpp:67] Creating Layer accuracy3
I0410 21:20:19.107113  5980 net.cpp:394] accuracy3 <- fc8_pascal_style_mod_fc8_pascal_style_mod_0_split_1
I0410 21:20:19.107123  5980 net.cpp:394] accuracy3 <- labels3_sliceL_3_split_1
I0410 21:20:19.107133  5980 net.cpp:356] accuracy3 -> styleAccuracy
I0410 21:20:19.107146  5980 net.cpp:96] Setting up accuracy3
I0410 21:20:19.107153  5980 net.cpp:103] Top shape: 1 1 1 1 (1)
I0410 21:20:19.107163  5980 net.cpp:67] Creating Layer silence
I0410 21:20:19.107172  5980 net.cpp:394] silence <- random
I0410 21:20:19.107179  5980 net.cpp:96] Setting up silence
I0410 21:20:19.107187  5980 net.cpp:172] silence does not need backward computation.
I0410 21:20:19.107195  5980 net.cpp:172] accuracy3 does not need backward computation.
I0410 21:20:19.107202  5980 net.cpp:172] accuracy2 does not need backward computation.
…
