…
I0302 21:53:45.874092 26952 solver.cpp:67] Creating training net from net file: deepFashion_autoencoder.prototxt
I0302 21:53:45.874686 26952 net.cpp:275] The NetState phase (0) differed from the phase (1) specified by a rule in layer data
I0302 21:53:45.874706 26952 net.cpp:275] The NetState phase (0) differed from the phase (1) specified by a rule in layer data
I0302 21:53:45.874891 26952 net.cpp:39] Initializing net from parameters: 
name: "DeepFashion_Autoencoder"
layers {
  top: "data"
  name: "data"
  type: DATA
  data_param {
    source: "lmdb/jabong_train_lmdb_50"
    batch_size: 100
    backend: LMDB
  }
  include {
    phase: TRAIN
  }
  transform_param {
    scale: 0.0039215684
  }
}
layers {
  bottom: "data"
  top: "flatdata"
  name: "flatdata"
  type: FLATTEN
}
layers {
  bottom: "data"
  top: "encode1"
  name: "encode1"
  type: INNER_PRODUCT
  blobs_lr: 1
  blobs_lr: 1
  weight_decay: 1
  weight_decay: 0
  inner_product_param {
    num_output: 2000
    weight_filler {
      type: "gaussian"
      std: 1
      sparse: 15
    }
    bias_filler {
      type: "constant"
      value: 0
    }
  }
}
layers {
  bottom: "encode1"
  top: "encode1neuron"
  name: "encode1neuron"
  type: SIGMOID
}
layers {
  bottom: "encode1neuron"
  top: "encode2"
  name: "encode2"
  type: INNER_PRODUCT
  blobs_lr: 1
  blobs_lr: 1
  weight_decay: 1
  weight_decay: 0
  inner_product_param {
    num_output: 750
    weight_filler {
      type: "gaussian"
      std: 1
      sparse: 15
    }
    bias_filler {
      type: "constant"
      value: 0
    }
  }
}
layers {
  bottom: "encode2"
  top: "encode2neuron"
  name: "encode2neuron"
  type: SIGMOID
}
layers {
  bottom: "encode2neuron"
  top: "encode3"
  name: "encode3"
  type: INNER_PRODUCT
  blobs_lr: 1
  blobs_lr: 1
  weight_decay: 1
  weight_decay: 0
  inner_product_param {
    num_output: 250
    weight_filler {
      type: "gaussian"
      std: 1
      sparse: 15
    }
    bias_filler {
      type: "constant"
      value: 0
    }
  }
}
layers {
  bottom: "encode3"
  top: "encode3neuron"
  name: "encode3neuron"
  type: SIGMOID
}
layers {
  bottom: "encode3neuron"
  top: "encode4"
  name: "encode4"
  type: INNER_PRODUCT
  blobs_lr: 1
  blobs_lr: 1
  weight_decay: 1
  weight_decay: 0
  inner_product_param {
    num_output: 50
    weight_filler {
      type: "gaussian"
      std: 1
      sparse: 15
    }
    bias_filler {
      type: "constant"
      value: 0
    }
  }
}
layers {
  bottom: "encode4"
  top: "decode4"
  name: "decode4"
  type: INNER_PRODUCT
  blobs_lr: 1
  blobs_lr: 1
  weight_decay: 1
  weight_decay: 0
  inner_product_param {
    num_output: 250
    weight_filler {
      type: "gaussian"
      std: 1
      sparse: 15
    }
    bias_filler {
      type: "constant"
      value: 0
    }
  }
}
layers {
  bottom: "decode4"
  top: "decode4neuron"
  name: "decode4neuron"
  type: SIGMOID
}
layers {
  bottom: "decode4neuron"
  top: "decode3"
  name: "decode3"
  type: INNER_PRODUCT
  blobs_lr: 1
  blobs_lr: 1
  weight_decay: 1
  weight_decay: 0
  inner_product_param {
    num_output: 750
    weight_filler {
      type: "gaussian"
      std: 1
      sparse: 15
    }
    bias_filler {
      type: "constant"
      value: 0
    }
  }
}
layers {
  bottom: "decode3"
  top: "decode3neuron"
  name: "decode3neuron"
  type: SIGMOID
}
layers {
  bottom: "decode3neuron"
  top: "decode2"
  name: "decode2"
  type: INNER_PRODUCT
  blobs_lr: 1
  blobs_lr: 1
  weight_decay: 1
  weight_decay: 0
  inner_product_param {
    num_output: 2000
    weight_filler {
      type: "gaussian"
      std: 1
      sparse: 15
    }
    bias_filler {
      type: "constant"
      value: 0
    }
  }
}
layers {
  bottom: "decode2"
  top: "decode2neuron"
  name: "decode2neuron"
  type: SIGMOID
}
layers {
  bottom: "decode2neuron"
  top: "decode1"
  name: "decode1"
  type: INNER_PRODUCT
  blobs_lr: 1
  blobs_lr: 1
  weight_decay: 1
  weight_decay: 0
  inner_product_param {
    num_output: 7500
    weight_filler {
      type: "gaussian"
      std: 1
      sparse: 15
    }
    bias_filler {
      type: "constant"
      value: 0
    }
  }
}
layers {
  bottom: "decode1"
  bottom: "flatdata"
  top: "cross_entropy_loss"
  name: "loss"
  type: SIGMOID_CROSS_ENTROPY_LOSS
  loss_weight: 1
}
layers {
  bottom: "decode1"
  top: "decode1neuron"
  name: "decode1neuron"
  type: SIGMOID
}
layers {
  bottom: "decode1neuron"
  bottom: "flatdata"
  top: "l2_error"
  name: "loss"
  type: EUCLIDEAN_LOSS
  loss_weight: 0
}
state {
  phase: TRAIN
}
I0302 21:53:45.875110 26952 net.cpp:67] Creating Layer data
I0302 21:53:45.875133 26952 net.cpp:356] data -> data
I0302 21:53:45.875154 26952 net.cpp:96] Setting up data
I0302 21:53:45.875267 26952 data_layer.cpp:68] Opening lmdb lmdb/jabong_train_lmdb_50
I0302 21:53:45.875361 26952 data_layer.cpp:128] output data size: 100,3,50,50
I0302 21:53:45.876426 26952 net.cpp:103] Top shape: 100 3 50 50 (750000)
I0302 21:53:45.876447 26952 net.cpp:67] Creating Layer data_data_0_split
I0302 21:53:45.876452 26952 net.cpp:394] data_data_0_split <- data
I0302 21:53:45.876458 26952 net.cpp:356] data_data_0_split -> data_data_0_split_0
I0302 21:53:45.876466 26952 net.cpp:356] data_data_0_split -> data_data_0_split_1
I0302 21:53:45.876482 26952 net.cpp:96] Setting up data_data_0_split
I0302 21:53:45.876497 26952 net.cpp:103] Top shape: 100 3 50 50 (750000)
I0302 21:53:45.876502 26952 net.cpp:103] Top shape: 100 3 50 50 (750000)
I0302 21:53:45.876513 26952 net.cpp:67] Creating Layer flatdata
I0302 21:53:45.876516 26952 net.cpp:394] flatdata <- data_data_0_split_0
I0302 21:53:45.876528 26952 net.cpp:356] flatdata -> flatdata
I0302 21:53:45.876533 26952 net.cpp:96] Setting up flatdata
I0302 21:53:45.876539 26952 net.cpp:103] Top shape: 100 7500 1 1 (750000)
I0302 21:53:45.876548 26952 net.cpp:67] Creating Layer flatdata_flatdata_0_split
I0302 21:53:45.876551 26952 net.cpp:394] flatdata_flatdata_0_split <- flatdata
I0302 21:53:45.876557 26952 net.cpp:356] flatdata_flatdata_0_split -> flatdata_flatdata_0_split_0
I0302 21:53:45.876564 26952 net.cpp:356] flatdata_flatdata_0_split -> flatdata_flatdata_0_split_1
I0302 21:53:45.876569 26952 net.cpp:96] Setting up flatdata_flatdata_0_split
I0302 21:53:45.876574 26952 net.cpp:103] Top shape: 100 7500 1 1 (750000)
I0302 21:53:45.876577 26952 net.cpp:103] Top shape: 100 7500 1 1 (750000)
I0302 21:53:45.876586 26952 net.cpp:67] Creating Layer encode1
I0302 21:53:45.876590 26952 net.cpp:394] encode1 <- data_data_0_split_1
I0302 21:53:45.876596 26952 net.cpp:356] encode1 -> encode1
I0302 21:53:45.876602 26952 net.cpp:96] Setting up encode1
I0302 21:53:46.540052 26952 net.cpp:103] Top shape: 100 2000 1 1 (200000)
I0302 21:53:46.540120 26952 net.cpp:67] Creating Layer encode1neuron
I0302 21:53:46.540128 26952 net.cpp:394] encode1neuron <- encode1
I0302 21:53:46.540146 26952 net.cpp:356] encode1neuron -> encode1neuron
I0302 21:53:46.540158 26952 net.cpp:96] Setting up encode1neuron
I0302 21:53:46.555763 26952 net.cpp:103] Top shape: 100 2000 1 1 (200000)
I0302 21:53:46.555817 26952 net.cpp:67] Creating Layer encode2
I0302 21:53:46.555826 26952 net.cpp:394] encode2 <- encode1neuron
I0302 21:53:46.555845 26952 net.cpp:356] encode2 -> encode2
I0302 21:53:46.555858 26952 net.cpp:96] Setting up encode2
I0302 21:53:46.624193 26952 net.cpp:103] Top shape: 100 750 1 1 (75000)
I0302 21:53:46.624263 26952 net.cpp:67] Creating Layer encode2neuron
I0302 21:53:46.624270 26952 net.cpp:394] encode2neuron <- encode2
I0302 21:53:46.624279 26952 net.cpp:356] encode2neuron -> encode2neuron
I0302 21:53:46.624289 26952 net.cpp:96] Setting up encode2neuron
I0302 21:53:46.624306 26952 net.cpp:103] Top shape: 100 750 1 1 (75000)
I0302 21:53:46.624351 26952 net.cpp:67] Creating Layer encode3
I0302 21:53:46.624356 26952 net.cpp:394] encode3 <- encode2neuron
I0302 21:53:46.624362 26952 net.cpp:356] encode3 -> encode3
I0302 21:53:46.624369 26952 net.cpp:96] Setting up encode3
I0302 21:53:46.632808 26952 net.cpp:103] Top shape: 100 250 1 1 (25000)
I0302 21:53:46.632866 26952 net.cpp:67] Creating Layer encode3neuron
I0302 21:53:46.632872 26952 net.cpp:394] encode3neuron <- encode3
I0302 21:53:46.632880 26952 net.cpp:356] encode3neuron -> encode3neuron
I0302 21:53:46.632889 26952 net.cpp:96] Setting up encode3neuron
I0302 21:53:46.632915 26952 net.cpp:103] Top shape: 100 250 1 1 (25000)
I0302 21:53:46.632921 26952 net.cpp:67] Creating Layer encode4
I0302 21:53:46.632925 26952 net.cpp:394] encode4 <- encode3neuron
I0302 21:53:46.632931 26952 net.cpp:356] encode4 -> encode4
I0302 21:53:46.632938 26952 net.cpp:96] Setting up encode4
I0302 21:53:46.633471 26952 net.cpp:103] Top shape: 100 50 1 1 (5000)
I0302 21:53:46.633489 26952 net.cpp:67] Creating Layer decode4
I0302 21:53:46.633494 26952 net.cpp:394] decode4 <- encode4
I0302 21:53:46.633501 26952 net.cpp:356] decode4 -> decode4
I0302 21:53:46.633507 26952 net.cpp:96] Setting up decode4
I0302 21:53:46.634052 26952 net.cpp:103] Top shape: 100 250 1 1 (25000)
I0302 21:53:46.634081 26952 net.cpp:67] Creating Layer decode4neuron
I0302 21:53:46.634086 26952 net.cpp:394] decode4neuron <- decode4
I0302 21:53:46.634094 26952 net.cpp:356] decode4neuron -> decode4neuron
I0302 21:53:46.634101 26952 net.cpp:96] Setting up decode4neuron
I0302 21:53:46.634109 26952 net.cpp:103] Top shape: 100 250 1 1 (25000)
I0302 21:53:46.634116 26952 net.cpp:67] Creating Layer decode3
I0302 21:53:46.634120 26952 net.cpp:394] decode3 <- decode4neuron
I0302 21:53:46.634125 26952 net.cpp:356] decode3 -> decode3
I0302 21:53:46.634140 26952 net.cpp:96] Setting up decode3
I0302 21:53:46.642622 26952 net.cpp:103] Top shape: 100 750 1 1 (75000)
I0302 21:53:46.642671 26952 net.cpp:67] Creating Layer decode3neuron
I0302 21:53:46.642678 26952 net.cpp:394] decode3neuron <- decode3
I0302 21:53:46.642688 26952 net.cpp:356] decode3neuron -> decode3neuron
I0302 21:53:46.642699 26952 net.cpp:96] Setting up decode3neuron
I0302 21:53:46.642715 26952 net.cpp:103] Top shape: 100 750 1 1 (75000)
I0302 21:53:46.642724 26952 net.cpp:67] Creating Layer decode2
I0302 21:53:46.642729 26952 net.cpp:394] decode2 <- decode3neuron
I0302 21:53:46.642735 26952 net.cpp:356] decode2 -> decode2
I0302 21:53:46.642741 26952 net.cpp:96] Setting up decode2
I0302 21:53:46.709838 26952 net.cpp:103] Top shape: 100 2000 1 1 (200000)
I0302 21:53:46.709898 26952 net.cpp:67] Creating Layer decode2neuron
I0302 21:53:46.709905 26952 net.cpp:394] decode2neuron <- decode2
I0302 21:53:46.709914 26952 net.cpp:356] decode2neuron -> decode2neuron
I0302 21:53:46.709924 26952 net.cpp:96] Setting up decode2neuron
I0302 21:53:46.709946 26952 net.cpp:103] Top shape: 100 2000 1 1 (200000)
I0302 21:53:46.709955 26952 net.cpp:67] Creating Layer decode1
I0302 21:53:46.709960 26952 net.cpp:394] decode1 <- decode2neuron
I0302 21:53:46.709966 26952 net.cpp:356] decode1 -> decode1
I0302 21:53:46.709975 26952 net.cpp:96] Setting up decode1
I0302 21:53:47.370800 26952 net.cpp:103] Top shape: 100 7500 1 1 (750000)
I0302 21:53:47.370859 26952 net.cpp:67] Creating Layer decode1_decode1_0_split
I0302 21:53:47.370867 26952 net.cpp:394] decode1_decode1_0_split <- decode1
I0302 21:53:47.370877 26952 net.cpp:356] decode1_decode1_0_split -> decode1_decode1_0_split_0
I0302 21:53:47.370887 26952 net.cpp:356] decode1_decode1_0_split -> decode1_decode1_0_split_1
I0302 21:53:47.370903 26952 net.cpp:96] Setting up decode1_decode1_0_split
I0302 21:53:47.370908 26952 net.cpp:103] Top shape: 100 7500 1 1 (750000)
I0302 21:53:47.370913 26952 net.cpp:103] Top shape: 100 7500 1 1 (750000)
I0302 21:53:47.370920 26952 net.cpp:67] Creating Layer loss
I0302 21:53:47.370924 26952 net.cpp:394] loss <- decode1_decode1_0_split_0
I0302 21:53:47.370930 26952 net.cpp:394] loss <- flatdata_flatdata_0_split_0
I0302 21:53:47.370970 26952 net.cpp:356] loss -> cross_entropy_loss
I0302 21:53:47.370976 26952 net.cpp:96] Setting up loss
I0302 21:53:47.371697 26952 net.cpp:103] Top shape: 1 1 1 1 (1)
I0302 21:53:47.371712 26952 net.cpp:109]     with loss weight 1
I0302 21:53:47.371755 26952 net.cpp:67] Creating Layer decode1neuron
I0302 21:53:47.371762 26952 net.cpp:394] decode1neuron <- decode1_decode1_0_split_1
I0302 21:53:47.371768 26952 net.cpp:356] decode1neuron -> decode1neuron
I0302 21:53:47.371775 26952 net.cpp:96] Setting up decode1neuron
I0302 21:53:47.371793 26952 net.cpp:103] Top shape: 100 7500 1 1 (750000)
I0302 21:53:47.371798 26952 net.cpp:67] Creating Layer loss
I0302 21:53:47.371803 26952 net.cpp:394] loss <- decode1neuron
I0302 21:53:47.371809 26952 net.cpp:394] loss <- flatdata_flatdata_0_split_1
I0302 21:53:47.371814 26952 net.cpp:356] loss -> l2_error
I0302 21:53:47.371820 26952 net.cpp:96] Setting up loss
I0302 21:53:47.371829 26952 net.cpp:103] Top shape: 1 1 1 1 (1)
I0302 21:53:47.371832 26952 net.cpp:172] loss does not need backward computation.
I0302 21:53:47.371845 26952 net.cpp:172] decode1neuron does not need backward computation.
I0302 21:53:47.371853 26952 net.cpp:170] loss needs backward computation.
I0302 21:53:47.371858 26952 net.cpp:170] decode1_decode1_0_split needs backward computation.
I0302 21:53:47.371862 26952 net.cpp:170] decode1 needs backward computation.
…
